Assets/NN/Level2/CharacterBehav 2.onnx (onnx, 932489 bytes, 15 tensors)

77 f4 [369]
000000 f0 f0 64 3d fb 5b 39 3a fb 5b 39 3a fb 5b 39 3a
       0.05589384 0.0007070896 0.0007070896 0.0007070896
000010 18 c6 64 3d fb 5b 39 3a fb 5b 39 3a 87 94 be 3d
       0.05585298 0.0007070896 0.0007070896 0.09305673
000020 35 8d b5 3d 48 49 5d 3d fb 5b 39 3a fb 5b 39 3a
       0.08864824 0.054024965 0.0007070896 0.0007070896
000030 fb 5b 39 3a 61 cb 90 3d fb 5b 39 3a fb 5b 39 3a
       0.0007070896 0.070700414 0.0007070896 0.0007070896
000040 c1 f4 07 3e d0 e4 fe 3d c7 e6 5a 3d fb 5b 39 3a
       0.1327696 0.12445986 0.053442743 0.0007070896
000050 fb 5b 39 3a fb 5b 39 3a 61 56 65 3d fb 5b 39 3a
       0.0007070896 0.0007070896 0.05599058 0.0007070896
000060 fb 5b 39 3a 4a ca cf 3d 9c 11 be 3d 48 39 88 3d
       0.0007070896 0.101460055 0.092807025 0.066515505
000070 fb 5b 39 3a fb 5b 39 3a fb 5b 39 3a fe cb d0 3d
       0.0007070896 0.0007070896 0.0007070896 0.101951584
000080 fb 5b 39 3a fb 5b 39 3a 1a ad 2b 3e 85 2f 22 3e
       0.0007070896 0.0007070896 0.16765252 0.1583844
000090 57 5c 35 3d fb 5b 39 3a fb 5b 39 3a fb 5b 39 3a
       0.044277515 0.0007070896 0.0007070896 0.0007070896
0000a0 58 64 65 3d fb 5b 39 3a fb 5b 39 3a f5 21 ea 3d
       0.0560039 0.0007070896 0.0007070896 0.11432258
0000b0 d3 87 d2 3d 0a 21 b7 3d fb 5b 39 3a fb 5b 39 3a
       0.10279813 0.089418486 0.0007070896 0.0007070896
0000c0 fb 5b 39 3a 89 fa 0d 3e fb 5b 39 3a fb 5b 39 3a
       0.0007070896 0.13865103 0.0007070896 0.0007070896
0000d0 8c 06 57 3e ff eb 4a 3e eb 9f 30 3d fb 5b 39 3a
       0.20998591 0.19816588 0.04312126 0.0007070896
0000e0 fb 5b 39 3a fb 5b 39 3a 86 9f 66 3d fb 5b 39 3a
       0.0007070896 0.0007070896 0.056304477 0.0007070896
0000f0 fb 5b 39 3a 7a 4c 05 3e 0f 76 ea 3d 0f 0c db 3d
       0.0007070896 0.13017455 0.11448299 0.10695659
000100 fb 5b 39 3a fb 5b 39 3a fb 5b 39 3a bf 66 3c 3e
       0.0007070896 0.0007070896 0.0007070896 0.1839857
000110 fb 5b 39 3a fb 5b 39 3a ba f2 83 3e db 4c 78 3e
       0.0007070896 0.0007070896 0.25771123 0.24248068
000120 0f 84 3d 3d fb 5b 39 3a fb 5b 39 3a fb 5b 39 3a
       0.04626852 0.0007070896 0.0007070896 0.0007070896
000130 96 b0 68 3d fb 5b 39 3a fb 5b 39 3a 37 0d 19 3e
       0.05680903 0.0007070896 0.0007070896 0.14946447
000140 3d 69 02 3e c6 bb ff 3d fb 5b 39 3a fb 5b 39 3a
       0.12735458 0.12486987 0.0007070896 0.0007070896
000150 fb 5b 39 3a ba 14 65 3e fb 5b 39 3a fb 5b 39 3a
       0.0007070896 0.22371188 0.0007070896 0.0007070896
000160 40 ad a0 3e 43 18 92 3e da 2e 56 3d fb 5b 39 3a
       0.3138218 0.28534135 0.052290775 0.0007070896
000170 fb 5b 39 3a fb 5b 39 3a 2e b6 6b 3d fb 5b 39 3a
       0.0007070896 0.0007070896 0.057546787 0.0007070896
000180 fb 5b 39 3a 73 f1 3b 3e d1 24 14 3e fb 55 20 3e
       0.0007070896 0.18353824 0.1446717 0.15657799
000190 fb 5b 39 3a fb 5b 39 3a fb 5b 39 3a 53 af 67 3e
       0.0007070896 0.0007070896 0.0007070896 0.22625475
0001a0 fb 5b 39 3a fb 5b 39 3a d1 ca c5 3e be fe 9d 3e
       0.0007070896 0.0007070896 0.386313 0.30858415
0001b0 74 c1 76 3d fb 5b 39 3a fb 5b 39 3a fb 5b 39 3a
       0.060243085 0.0007070896 0.0007070896 0.0007070896
0001c0 1f ae 75 3d fb 5b 39 3a fb 5b 39 3a 08 91 a0 3e
       0.059980508 0.0007070896 0.0007070896 0.3136065
0001d0 d8 c9 3b 3e 9f 3c 4f 3e fb 5b 39 3a fb 5b 39 3a
       0.18338716 0.20237969 0.0007070896 0.0007070896
0001e0 fb 5b 39 3a 07 0d 6b 3e fb 5b 39 3a fb 5b 39 3a
       0.0007070896 0.22954188 0.0007070896 0.0007070896
0001f0 72 63 ed 3e 1b 9d ab 3e 39 1f 03 3e fb 5b 39 3a
       0.46364933 0.335183 0.12804879 0.0007070896
000200 fb 5b 39 3a fb 5b 39 3a 7f 34 84 3d fb 5b 39 3a
       0.0007070896 0.0007070896 0.06455325 0.0007070896
000210 fb 5b 39 3a fb 03 f3 3e 57 9f 6b 3e 5e fa 9c 3e
       0.0007070896 0.47463974 0.23010002 0.30659765
000220 fb 5b 39 3a fb 5b 39 3a fb 5b 39 3a ce 34 73 3e
       0.0007070896 0.0007070896 0.0007070896 0.23750612
000230 fb 5b 39 3a fb 5b 39 3a 25 d7 ff 3e e5 6f b9 3e
       0.0007070896 0.0007070896 0.4996883 0.3621818
000240 be ca 47 3e fb 5b 39 3a fb 5b 39 3a fb 5b 39 3a
       0.19510934 0.0007070896 0.0007070896 0.0007070896
000250 53 47 99 3d fb 5b 39 3a fb 5b 39 3a d8 ab fe 3e
       0.07484307 0.0007070896 0.0007070896 0.4974048
000260 af ef 82 3e 86 c1 c9 3e fb 5b 39 3a fb 5b 39 3a
       0.2557349 0.3940546 0.0007070896 0.0007070896
000270 fb 5b 39 3a 9d 35 8b 3e fb 5b 39 3a fb 5b 39 3a
       0.0007070896 0.2718934 0.0007070896 0.0007070896
000280 57 a7 f4 3e 7d 32 b8 3e 8c 46 ac 3e fb 5b 39 3a
       0.4778392 0.3597602 0.33647573 0.0007070896
000290 fb 5b 39 3a fb 5b 39 3a 45 d5 0d 3e fb 5b 39 3a
       0.0007070896 0.0007070896 0.13850887 0.0007070896
0002a0 fb 5b 39 3a da 8d ef 3e ff 05 90 3e 96 d5 dc 3e
       0.0007070896 0.46787912 0.28129575 0.43131703
0002b0 fb 5b 39 3a fb 5b 39 3a fb 5b 39 3a 5c c2 e5 3e
       0.0007070896 0.0007070896 0.0007070896 0.44874847
0002c0 fb 5b 39 3a fb 5b 39 3a 78 fb 96 3e 7e ed 9a 3e
       0.0007070896 0.0007070896 0.2948873 0.30259317
0002d0 9f f1 b4 3e fb 5b 39 3a fb 5b 39 3a fb 5b 39 3a
       0.35340592 0.0007070896 0.0007070896 0.0007070896
0002e0 cd ff ba 3e fb 5b 39 3a fb 5b 39 3a d1 71 c2 3e
       0.36523286 0.0007070896 0.0007070896 0.3797746
0002f0 c8 d2 8f 3e 02 3b c4 3e fb 5b 39 3a fb 5b 39 3a
       0.280905 0.3832627 0.0007070896 0.0007070896
000300 fb 5b 39 3a a1 f0 b4 3e fb 5b 39 3a fb 5b 39 3a
       0.0007070896 0.35339835 0.0007070896 0.0007070896
000310 b0 cf 35 3e e2 15 8f 3e c3 4d bf 3e fb 5b 39 3a
       0.17755008 0.27946383 0.37364015 0.0007070896
000320 fb 5b 39 3a fb 5b 39 3a d3 db 7e 3e fb 5b 39 3a
       0.0007070896 0.0007070896 0.24888544 0.0007070896
000330 fb 5b 39 3a a9 78 65 3e 51 cd 9c 3e 17 ef b8 3e
       0.0007070896 0.2240931 0.30625394 0.3611991
000340 fb 5b 39 3a fb 5b 39 3a fb 5b 39 3a 17 a3 9f 3e
       0.0007070896 0.0007070896 0.0007070896 0.31179115
000350 fb 5b 39 3a fb 5b 39 3a 9f 3f c9 3d de 28 7d 3e
       0.0007070896 0.0007070896 0.09826588 0.24722621
000360 89 48 9b 3e fb 5b 39 3a fb 5b 39 3a fb 5b 39 3a
       0.30328777 0.0007070896 0.0007070896 0.0007070896
000370 52 63 46 3e fb 5b 39 3a fb 5b 39 3a 4b 5f b7 3d
       0.19373825 0.0007070896 0.0007070896 0.089537226
000380 27 37 80 3e ba 63 a4 3e fb 5b 39 3a fb 5b 39 3a
       0.25042078 0.32107335 0.0007070896 0.0007070896
000390 fb 5b 39 3a b5 08 a1 3e fb 5b 39 3a fb 5b 39 3a
       0.0007070896 0.31451955 0.0007070896 0.0007070896
0003a0 df 25 3b 3d 84 01 56 3e b2 d4 83 3e fb 5b 39 3a
       0.045690414 0.20899016 0.2574821 0.0007070896
0003b0 fb 5b 39 3a fb 5b 39 3a 99 a6 49 3e fb 5b 39 3a
       0.0007070896 0.0007070896 0.19692458 0.0007070896
0003c0 fb 5b 39 3a 11 c3 21 3d 98 ec 50 3e 64 4c 91 3e
       0.0007070896 0.03949267 0.20402753 0.28378594
0003d0 fb 5b 39 3a fb 5b 39 3a fb 5b 39 3a 8d 0d 9d 3e
       0.0007070896 0.0007070896 0.0007070896 0.306744
0003e0 fb 5b 39 3a fb 5b 39 3a 30 fb 0f 3d 77 49 32 3e
       0.0007070896 0.0007070896 0.03515166 0.17410837
0003f0 4c d5 6f 3e fb 5b 39 3a fb 5b 39 3a fb 5b 39 3a
       0.2342121 0.0007070896 0.0007070896 0.0007070896

80 f4 [14]
000000 90 4b 51 40 8c f3 07 40 fb 5b 39 3a 5c ce 59 3f
       3.270237 2.12424 0.0007070896 0.85080504
000010 a7 16 3f 3f 46 e2 f6 3f fb 5b 39 3a 22 a3 48 40
       0.7464394 1.9287803 0.0007070896 3.1349568
000020 2b 31 09 40 fb 5b 39 3a 9d 19 58 3f a2 f5 5f 3b
       2.143626 0.0007070896 0.8441408 0.0034173508
000030 ef f7 0d 3c fb 5b 39 3a
       0.008665069 0.0007070896

action_model._discrete_distribution.branches.0.bias f4 [3]
000000 9a bc c2 39 f6 5f 30 3c c0 4d 52 bc
       0.00037143083 0.010765066 -0.01283592

action_model._discrete_distribution.branches.0.weight f4 [3, 256]
000000 03 52 0a 3c 92 37 a8 bc 05 53 c8 3b e4 19 1a bc
       0.008442405 -0.02053431 0.0061134123 -0.009405587
000010 54 fa c1 ba 66 43 21 3c 97 dd f2 bc 2f 80 88 bc
       -0.0014799335 0.009842729 -0.029646678 -0.016662685
000020 e6 ff 7d bc 1a f0 9b bc 27 d9 74 bc c0 42 79 3b
       -0.0155029055 -0.019035388 -0.014944351 0.003803417
000030 d9 f6 bb bc 40 f4 7a bc d6 f5 90 3c 0d 10 05 3c
       -0.022944855 -0.015317023 0.017695349 0.008121503
000040 d9 e8 ba bc be 18 ab 3c e0 82 e3 3b 60 72 1e 3d
       -0.022816109 0.020885821 0.0069430918 0.038683295
000050 f4 79 18 3c 8d 52 a8 3c ad b8 e9 3c 89 85 e7 bb
       0.00930642 0.020547176 0.028530443 -0.007065479
000060 15 d4 f0 3a d8 c2 91 bb b9 55 44 bc bd 16 e7 bc
       0.0018373752 -0.004448276 -0.0119833285 -0.028209085
000070 a3 34 ef 3c f3 9b c4 bb 83 fe 02 3c ae 9d 12 bc
       0.029199904 -0.006000036 0.007995251 -0.008948727
000080 74 63 57 bc 58 94 e9 bc 71 af 25 3d e5 10 4a 3b
       -0.01314627 -0.028513119 0.040450517 0.0030832824
000090 65 cf b8 bc 6d 70 e2 3c fd a2 ed 3c 17 1a b8 3c
       -0.02255983 0.0276415 0.029008383 0.022473378
0000a0 70 27 b7 3b 51 4a e4 bc 63 ff f7 bc e1 79 82 3c
       0.005589418 -0.027867468 -0.030273145 0.015927257
0000b0 cd ae b7 3c 3f 55 d6 3c 1b d7 bc bc 95 17 90 3c
       0.022422219 0.026163695 -0.023051789 0.01758937
0000c0 dd c6 23 ba 3f 79 7d bc 38 9c 6e bc 8a 8c 0b bc
       -0.00062475895 -0.015470802 -0.014563613 -0.008517394
0000d0 0e aa b3 3c 2c 87 af bb 27 01 ad bb f4 0c bf bc
       0.021931674 -0.00535669 -0.0052796784 -0.023321606
0000e0 57 b6 4d 3c a9 c4 98 3c 22 6c cd bc 0c 83 98 bc
       0.01255568 0.018648462 -0.025075976 -0.018617176
0000f0 3b 42 c2 bc 71 ec 27 3c e1 58 bc bc 06 ec 06 3d
       -0.023713222 0.010249243 -0.0229916 0.032939933
000100 02 60 1e bd ee 78 4d 3c 90 61 12 bd f1 03 7d bc
       -0.03866578 0.012541039 -0.035737574 -0.015442834
000110 5e 0e bf 3c da 04 6d 3c ac b5 09 3d 4d 63 db 3c
       0.02332228 0.014466489 0.03362052 0.026780749
000120 e1 b7 7d 3c 32 33 0f bd 12 3d 61 bc 42 90 ec 3c
       0.015485735 -0.034960933 -0.01374747 0.028877381
000130 19 dd 24 bc ef f7 1b 3c 78 42 12 3b 70 e7 6d 3c
       -0.010062479 0.009519561 0.002231745 0.014520511
000140 d0 43 3b bc 92 2a a4 bc 95 5d 9e 3b 50 c7 e3 bc
       -0.011429742 -0.02003983 0.004832933 -0.027805
000150 3b e8 a8 bc 99 46 07 3d 9e 0a e3 3c ed 3f a3 bc
       -0.020618549 0.03302631 0.027715024 -0.019927943
000160 6a 6a 1b bd 8c 53 5c bb 2d fd be bb 91 db d1 39
       -0.03794328 -0.0033619134 -0.0058285207 0.00040027176
000170 f6 b7 d9 bb d2 5b ac bc 66 6a a2 bc d3 fc b7 bc
       -0.0066442443 -0.021039877 -0.019826125 -0.022459423
000180 a9 67 aa bc 1d 77 2e bc ab c0 41 bc 3e 22 7c 3a
       -0.020801382 -0.010648516 -0.011825721 0.00096181396
000190 1f 29 cd bb 20 01 d4 bc ea f1 72 bc 95 a6 7a bc
       -0.0062610055 -0.025879443 -0.014828185 -0.015298505
0001a0 7d e0 0d 3d d9 ae 43 bc 6f 3c d3 bc 2b 02 a2 bc
       0.034637917 -0.011943542 -0.025785653 -0.019776424
0001b0 e2 da e4 bc e8 3e bd 3c 68 15 aa 3c 4e 87 48 3c
       -0.027936403 0.023101285 0.02076216 0.01223929
0001c0 ba 83 6c bc a9 2f 0e bd f2 55 a3 3c a8 d8 61 bc
       -0.014435703 -0.03471342 0.019938443 -0.013784565
0001d0 00 8c 13 bc 0f 0f b4 bc 4c ac 06 3c 87 4d a1 bc
       -0.009005547 -0.021979837 0.00821979 -0.019690288
0001e0 0d 0a 1c bc d2 63 13 bc 4c d8 bb bc 55 08 d9 bc
       -0.009523881 -0.008995967 -0.022930287 -0.02649323
0001f0 f5 d7 1a 3b ff 03 25 bc a3 4c 66 3c 23 b5 14 bc
       0.0023627256 -0.0100717535 0.014056358 -0.0090763895
000200 df 91 7f 3b 11 62 6e 3c f6 fe 8f bb 3c 13 9b 3b
       0.0038996858 0.014549748 -0.0043944074 0.0047325175
000210 ff d6 ae bc 59 e2 29 3c 3e 3e 56 bc a7 98 42 bc
       -0.021342753 0.010368907 -0.013076363 -0.0118772155
000220 60 b6 88 bc c5 ea e3 bb af c9 d6 bc bc 2f 92 bc
       -0.016688526 -0.006955477 -0.026219217 -0.017845027
000230 e0 c7 80 3c 4c 4d 90 3c 4b cd 18 bc af 9d 9a bc
       0.015720308 0.017614983 -0.009326289 -0.018874018
000240 91 cb 23 bc 60 67 b8 3c 73 28 72 bc 1b bc e5 bb
       -0.0099972645 0.02251023 -0.014780152 -0.0070109493
000250 1a 3f d4 bc 46 82 15 bc df 29 0f 3c c3 8e 89 bb
       -0.025908995 -0.009125298 0.00873801 -0.0041979267
000260 2f 64 4e bb 82 1d ce 3b 2c 9e 5d 3d 13 14 d8 bc
       -0.003149282 0.0062901387 0.054105923 -0.02637676
000270 d2 98 37 bc d2 4f 2f bc d7 eb 3f ba f6 73 8a 3c
       -0.011205869 -0.010700183 -0.00073212147 0.016900998
000280 b6 de 8b 3c 78 ca 85 bc 26 bd bc ba cd 48 5b bb
       0.01707397 -0.016331896 -0.0014399632 -0.003346014
000290 6f 50 25 bc 01 52 e0 3c 7a 26 6c bc e6 44 e3 3c
       -0.010089978 0.027382853 -0.01441347 0.027742814
0002a0 82 1b 34 3b ed 8b 9f 3b c1 a9 e2 bb 62 6b d9 3c
       0.0027482216 0.0048689754 -0.006917209 0.026540462
0002b0 70 da 73 bc d2 76 29 3c 46 bb de ba c5 c0 f1 bb
       -0.0148836225 0.01034327 -0.0016993068 -0.0073777162
0002c0 28 06 f6 bb 4e 24 13 3d 6d 7b 25 3c 30 a8 97 bb
       -0.007508058 0.035923295 0.010100228 -0.004628204
0002d0 ee 20 bb 3c bc a3 c1 bc 47 ef b6 3c 79 12 da 3c
       0.02284285 -0.023637645 0.022330893 0.026620137
0002e0 12 6e c2 bc cd 01 6f bc 93 18 c5 3c 0c 8c 73 bc
       -0.023734126 -0.014587832 0.02405957 -0.014864933
0002f0 9f a5 0a bd bc 69 c6 bc 23 08 91 3c 42 3c cf bc
       -0.033849355 -0.02422034 0.017704075 -0.025297288
000300 a8 43 b1 3c eb ef 97 3c 9c f7 fd ba b9 d9 6e bc
       0.021638706 0.018547019 -0.0019376162 -0.014578276
000310 87 30 e3 3c e5 9f 87 b9 9f c4 ca bc 4e 3c a2 3c
       0.0277331 -0.00025868337 -0.02475196 0.019804146
000320 48 a4 b7 3c 42 17 b1 3c 05 cb a2 bc 4e 3f 8a bc
       0.022417203 0.021617536 -0.019872198 -0.01687589
000330 38 c2 94 3c fb 68 8b 3b c9 fd 4c bc 5a 3c 67 bc
       0.018159017 0.004254458 -0.012511679 -0.01411351
000340 b4 08 39 bc 66 6c cd 3c 00 53 02 bc 67 28 39 3b
       -0.011293579 0.025076102 -0.007954359 0.0028252841
000350 e9 9f 0c bd 42 d5 00 bc 97 55 4e bc a7 1f 90 bc
       -0.03433219 -0.007863345 -0.012593648 -0.017593218
000360 6f a7 cd bc 97 95 66 3b ed fa 94 bc 4c 7a 4c bc
       -0.025104253 0.0035184377 -0.018186057 -0.01248033
000370 83 0d e5 3b 28 86 79 bc fd 4f d4 3c 30 b5 a1 bc
       0.006990136 -0.015229739 0.025917048 -0.019739717
000380 5c ff d1 bb 6a 7e 0a bd 80 82 a6 bc c4 54 af bc
       -0.006408615 -0.033811964 -0.0203259 -0.021402724
000390 36 0c f5 3b bb 17 71 bc 17 0e 5c bc 20 c3 59 3b
       0.0074782623 -0.01471513 -0.013431094 0.0033227876
0003a0 47 e9 92 bc f2 bc c1 bc b0 72 14 3d 55 f4 f6 bc
       -0.0179335 -0.023649666 0.036242187 -0.030145803
0003b0 26 34 f8 bc a5 4b 8d bc 11 5c 9d bc 5f 43 b8 3c
       -0.030298304 -0.017247984 -0.01920894 0.022493063
0003c0 57 38 60 3c 2a da 82 bb 91 e4 c4 bc 4a e4 6b bc
       0.013685307 -0.0039932923 -0.02403477 -0.01439769
0003d0 bc c4 98 3c 35 5d 25 bc bb 6b e0 bb d0 4c cc bb
       0.018648498 -0.010093023 -0.00684878 -0.0062347427
0003e0 b3 47 9d bc 0b e4 9a 3c 5a 2f f3 bc 5c 78 59 3c
       -0.019199228 0.018907567 -0.029685665 0.013273325
0003f0 9a 21 a6 3c dd f8 09 3c aa 2f 3c bb 51 02 0e bc
       0.020279694 0.00842115 -0.0028714933 -0.008667544

action_model._discrete_distribution.branches.1.bias f4 [3]
000000 70 68 30 3b 54 6e 19 bc 99 51 e0 3b
       0.0026917718 -0.009364683 0.0068456647

action_model._discrete_distribution.branches.1.weight f4 [3, 256]
000000 d6 1f ea 3b 2f 84 ad bc b5 81 84 3b 80 97 a3 bc
       0.0071449084 -0.021181194 0.0040437826 -0.019969702
000010 4f e6 99 3b 1e 98 bf 39 bb ec 89 bc 61 d5 29 3b
       0.0046966444 0.00036543695 -0.016836515 0.0025914537
000020 f8 49 73 ba 07 0f 06 bc 11 97 22 bb 76 e0 21 3c
       -0.00092807366 -0.008182294 -0.002480928 0.009880176
000030 d1 f0 c3 3b 10 5b a8 bc bd 7f f9 bc 3d a1 40 bb
       0.0059796353 -0.020551234 -0.030456418 -0.002939298
000040 49 54 13 bb db ee 0f 3a 5d 55 9d bc c4 9a 7a 3b
       -0.0022480658 0.00054906093 -0.019205743 0.003823922
000050 1d 0d 30 bc 33 6a d5 3a 4a db 2f 3c bf 6d 6c bc
       -0.010745314 0.001628226 0.010733435 -0.014430462
000060 5e 74 ee 3b 3d 39 17 bb a2 07 b4 bc 5e 4e db 3a
       0.0072770556 -0.0023074888 -0.021976296 0.0016731729
000070 a4 52 9f b9 1a 73 06 3c a3 de 0e 3a 21 ae ae bc
       -0.00030388415 0.008206153 0.00054500456 -0.021323266
000080 eb 07 f7 3a 59 d7 07 bc 08 1c 0f bc 03 79 00 3b
       0.0018846964 -0.008291089 -0.0087347105 0.0019603379
000090 6d 31 5b 3a 49 c2 a4 3a 46 cf 5a 3b 8b 9a 53 ba
       0.0008361552 0.0012570109 0.0033387705 -0.000807204
0000a0 bf 18 08 bc 4a 04 16 bc 7e 88 c0 3b 6e 3d 4a 3a
       -0.008306681 -0.009156296 0.005875646 0.0007714842
0000b0 bb 11 73 3b 85 c7 27 3c aa 80 30 3a 1b 6e 3e 3a
       0.0037089426 0.01024044 0.00067330396 0.0007264332
0000c0 ac df ad bc 2f 68 67 bc 5d 0e 29 3c cf db 9b 3c
       -0.02122482 -0.01412396 0.010318366 0.019025711
0000d0 e5 6b 72 bc 57 57 27 3c 4a ee 53 bb 9e b9 61 3a
       -0.014796232 0.010213695 -0.0032338076 0.0008610728
0000e0 b0 25 f1 3b e2 b2 b0 3b 6e c3 6d bb 7d 59 87 bb
       0.007359229 0.0053924182 -0.0036279815 -0.004130541
0000f0 69 20 25 bc 96 11 44 3a e1 d9 a2 bb 88 92 d1 3a
       -0.010078528 0.0007479427 -0.004969821 0.0015989104
000100 16 36 21 3c 95 09 85 3c 35 56 ba 3b 36 26 40 bc
       0.009839555 0.01623992 0.005686546 -0.01172786
000110 28 a3 ec ba da f7 c5 3a 76 94 c0 3b 0e 41 38 3c
       -0.0018053995 0.0015103773 0.005877073 0.011245979
000120 71 8f 8b ba aa 33 0a bc 13 0c 68 bc 49 99 aa bb
       -0.0010647607 -0.008435169 -0.014163035 -0.0052062613
000130 4f 95 6f bc a3 5a 49 bc 8a 4b 53 3c 37 66 d7 3b
       -0.014623 -0.012289676 0.012896428 0.0065734643
000140 24 ac 82 bc af aa da 3b 9d e0 5a 3b 72 02 54 3b
       -0.015951224 0.006673179 0.003339804 0.003235009
000150 3a 65 51 bc e2 bf 9d 3c bd 4e 8b 3c 52 04 1e bc
       -0.012780482 0.019256536 0.017005319 -0.009644585
000160 18 e3 ef 3b 62 ca 18 3b 67 48 52 bc 9c cd e3 3a
       0.007320773 0.002331399 -0.012834645 0.0017380002
000170 1b 59 03 bd 77 49 8e bb d3 11 2e bc 80 f3 67 3b
       -0.0320674 -0.004342254 -0.010624367 0.003539294
000180 65 6a f8 bb 13 d3 13 3b 2b 01 a0 bb 27 bc 31 bc
       -0.0075810426 0.002255623 -0.0048829517 -0.010848082
000190 f1 ee 84 bc 71 9e 43 bc be d5 b7 bc 00 b6 15 bc
       -0.016227217 -0.011939631 -0.022440787 -0.00913763
0001a0 6d bf 3c 3a ae 08 0f bc ee 71 34 3c d6 a9 c1 3b
       0.00072001555 -0.008730097 0.011013491 0.0059101386
0001b0 a9 f5 43 bc c1 27 e9 3c 11 25 69 bc c2 bd 5b ba
       -0.011960425 0.028461339 -0.014230029 -0.0008382463
0001c0 f4 fe 9b bb 2d bc 90 b9 59 61 48 3a 7f 58 b6 3a
       -0.0047606174 -0.00027606022 0.00076439005 0.0013911872
0001d0 ce c1 11 bc e3 2d 36 3b 39 26 41 3c fa 4e a3 bb
       -0.008896304 0.0027798347 0.011788898 -0.00498378
0001e0 b8 d2 90 3c 43 09 90 3c 1c 52 70 3b 59 80 ff 3b
       0.017678604 0.017582541 0.0036670035 0.0077972827
0001f0 3f 18 76 bc 22 ca a8 bc 37 73 d8 bb ed ac cd bc
       -0.015020429 -0.020604197 -0.0066055316 -0.025106872
000200 0e e6 48 3b 04 28 3d ba cf e6 ac bc 4f 77 b1 3b
       0.0030654701 -0.00072157406 -0.021106152 0.005415834
000210 49 e0 56 3c cd da 14 3c e0 f8 19 3b 8a f7 0f 3c
       0.013114997 0.009085369 0.0023494288 0.008787045
000220 3e e2 25 bc 6f 25 e4 bb 45 c2 5b 3c ce a4 59 bc
       -0.010124741 -0.0069624702 0.013413017 -0.013283921
000230 1c d4 73 ba 01 8c f8 bb ee bd af bb f4 9b 49 bc
       -0.0009301321 -0.007585049 -0.0053632176 -0.0123052485
000240 d3 82 c0 3b 96 28 2c 3c 15 19 90 bb ac d4 67 3c
       0.0058749705 0.010507723 -0.0043975213 0.014149826
000250 83 d4 a5 bc e3 ea 45 3c df 91 25 3c 86 be 6f 3c
       -0.020242935 0.012079927 0.010105579 0.014632827
000260 41 70 ee ba 9b 3b 99 3c 5a 2a 9e 3b 32 a5 05 3c
       -0.0018191413 0.01870518 0.004826826 0.008157061
000270 09 b6 62 bc a4 09 63 bb 4c 46 67 bb fd 9a 44 3c
       -0.013837346 -0.0034643197 -0.0035289703 0.011999843
000280 be a9 b2 3b eb e2 af bc a3 13 ad ba 96 d8 26 3c
       0.0054523638 -0.021470508 -0.0013204705 0.010183474
000290 87 1a 8b 3c 24 52 7b 3a e3 b9 d5 3b d0 13 66 3c
       0.016980423 0.000958713 0.0065224036 0.01404281
0002a0 9b 14 d6 3a 58 cd 15 bc 70 b0 01 3b f1 8b e7 3b
       0.0016333045 -0.009143196 0.0019789003 0.007066243
0002b0 0a 9b 8c 3b 6e 3c 1f bc e4 76 8c 3c 31 0a 72 3b
       0.004290943 -0.009718997 0.017146535 0.0036932344
0002c0 36 25 1e bb 9f 94 c8 3b 52 68 36 3c b0 e7 3e 3c
       -0.0024131066 0.0061212326 0.01113327 0.011651918
0002d0 4f 0e 9a bb cf 0b df bb a3 a0 33 3c 23 ce dd 3b
       -0.0047014127 -0.0068068276 0.010963592 0.006768958
0002e0 63 70 3c 3b 6b af de 3b a3 0b 29 bb 5c e0 5d 3c
       0.002875351 0.006795814 -0.002579429 0.013542261
0002f0 36 4d 93 3b 2a 6b 82 bc c5 4d 04 ba 77 55 24 3b
       0.0044952882 -0.01592024 -0.0005046989 0.0025075355
000300 62 67 00 3c 13 ce 6d 3c 98 42 78 bc 93 56 c7 bc
       0.007837148 0.014514464 -0.015152596 -0.024333274
000310 d8 98 b2 3b 70 43 d8 3a a6 f1 e9 3a ce fa 13 39
       0.0054503493 0.001649959 0.0017848506 0.00014112444
000320 63 c2 9b bb 20 6b 01 bc 01 f3 2a bc 55 f8 a2 3c
       -0.0047533973 -0.007899076 -0.010433913 0.019893805
000330 6f cc ad 3c 9f 76 80 bc 61 c0 98 3b 65 e0 ba 3b
       0.021215646 -0.015681563 0.004661605 0.0057030194
000340 d4 9a 58 3c 60 92 4a ba 9d 39 86 3a a2 14 f8 bc
       0.013220508 -0.00077275 0.0010240559 -0.030283276
000350 82 4a 82 3b 86 f6 13 bc 7d 1c 8c 3a a4 35 80 3c
       0.003976167 -0.009030944 0.0010689643 0.015650578
000360 84 11 ad 3b fd a4 59 3c 07 4c 66 3b 92 d8 64 3b
       0.005281629 0.013283965 0.003514053 0.0034919125
000370 bf 60 e6 3b 8e e9 81 3b 2d da df ba 40 a5 2e 3c
       0.007030576 0.0039646095 -0.0017078571 0.010659516
000380 32 49 16 bc ce 65 9d bb 29 f8 1f bb 96 77 56 bb
       -0.009172725 -0.004803396 -0.002440939 -0.0032725087
000390 2f 6b 7b bc b1 2c a3 bc 4b 2f 53 3c 93 4f 28 bc
       -0.015345379 -0.019918771 0.0128896935 -0.010272878
0003a0 de c2 4a bc 33 da 92 bc 06 f3 32 bc 76 2c 1b 3a
       -0.0123755615 -0.017926311 -0.010922199 0.0005919406
0003b0 ed 30 a8 3c da c1 b1 bc d7 b4 43 bc 07 fa bd 3b
       0.020531142 -0.021698881 -0.011944971 0.005797628
0003c0 8b 6e 7a bb 8f 6b e6 ba a0 e2 a6 bc 9f dc 42 3c
       -0.0038212861 -0.0017579662 -0.020371735 0.0118934205
0003d0 0d d7 54 3b 77 95 5d bc 3f aa d6 bb 15 a0 62 bc
       0.0032476813 -0.013524405 -0.0065510566 -0.013832112
0003e0 b1 db ad 3b fd bf 97 3b d2 e9 a0 ba 6a a8 2c 3c
       0.0053057303 0.004631041 -0.0012276715 0.0105382
0003f0 4e c1 09 ba 61 5a ae 3b f9 26 47 3a fd 19 68 bc
       -0.000525494 0.0053208326 0.0007597055 -0.014166352

discrete_action_output_shape f4 [1, 2]
000000 00 00 40 40 00 00 40 40
       3.0 3.0

network_body._body_endoder.seq_layers.0.bias f4 [256]
000000 bd d8 86 3b f9 bb 4b 3c 2c 10 96 3c 88 be 52 bc
       0.0041151927 0.012434953 0.018318258 -0.012862809
000010 cf ed c7 3c 81 5f 94 ba b9 15 95 3b f0 39 27 bc
       0.024405388 -0.0011319966 0.0045497087 -0.0102066845
000020 c9 a5 26 3d 48 67 de 3b 3b 41 5a 3c 3c bb 1a 3c
       0.04068545 0.0067872144 0.013321216 0.009444054
000030 3b 4d 65 3c 55 a8 e3 3c ba 81 2b 3d bf c6 c0 3a
       0.013995464 0.027790228 0.041871764 0.0014707668
000040 75 7c 9d bb 9a e1 ca 3c 6b 03 e2 3c 36 3a f0 3c
       -0.004806096 0.024765778 0.02758952 0.029324632
000050 02 73 a6 3c ef 40 3b bc d6 75 6d bc 68 00 38 3c
       0.020318512 -0.011429056 -0.014493426 0.011230566
000060 1d 48 dd 3c ea 42 ca bb f3 1a e9 3c d4 45 29 3b
       0.027011925 -0.0061725276 0.028455233 0.0025828974
000070 30 db 10 3d fd b0 8d 3c 75 fc 91 bb e8 02 f4 bb
       0.035365283 0.017296309 -0.004455144 -0.0074466355
000080 a0 5c b8 3c 8e 10 98 3c 91 e1 12 3d 8f 5f 96 3c
       0.022505105 0.018562581 0.03585965 0.018356113
000090 f2 02 26 3c 48 19 c1 bb 91 ca 95 3c 56 a7 89 3c
       0.010132538 -0.0058929063 0.018285068 0.016803425
0000a0 ca ef a7 3c 4a e8 8c 3a 71 60 c8 bb 0f fb a3 bb
       0.020500083 0.001075038 -0.0061150123 -0.0050042938
0000b0 96 31 1e 3c 9b a7 b9 3c 44 88 71 3c a4 31 5a 3d
       0.009655377 0.022662928 0.014741961 0.053269997
0000c0 0d 4d b4 3b c8 7d 07 3d 80 a3 ab 3c 82 c4 93 3c
       0.005502349 0.03307894 0.020951986 0.018038038
0000d0 64 b9 66 3c b7 c7 16 3c ff 73 15 3d 32 62 47 3c
       0.0140822865 0.009202889 0.036487576 0.012169408
0000e0 0b 00 83 3c b7 3f 45 3c 42 c2 f3 39 52 8a 18 3d
       0.015991231 0.012039117 0.00046493305 0.037241288
0000f0 94 e9 ed 3c f5 cc 07 bc b8 a0 3b 3d b6 69 a7 3c
       0.029042043 -0.008288612 0.04580757 0.02043615
000100 44 56 5d 3c 6a d7 8a 3c 7c 41 af 3b d2 76 d7 3c
       0.013509337 0.01694842 0.0053483825 0.026301775
000110 07 34 cb bc 72 ca 60 3c 3c 90 a2 3c 79 22 2a 3c
       -0.024805082 0.013720142 0.019844167 0.0103841955
000120 63 dc 0a 3d aa 87 1a ba d1 d4 8d 3c e4 6f c4 3c
       0.033901583 -0.00058948493 0.017313393 0.023979135
000130 6c 26 d3 3c d3 c1 34 3a f8 d7 01 ba 00 9a af 3c
       0.025775157 0.0006895337 -0.00049531413 0.021435738
000140 8d 24 29 3c 32 ed 5a bc 2a 34 ae 3c 97 3c 78 3b
       0.010323656 -0.013362216 0.021265108 0.0037877911
000150 7a 5e 7f bc ba 88 0f 3d 87 72 f8 3c 05 52 0e 3d
       -0.01558649 0.035042502 0.030328048 0.03474619
000160 6d 4a c7 3c 54 6c b5 3c a6 ae fd 3c 84 d5 b2 3c
       0.024327481 0.022146381 0.030967068 0.021830328
000170 ac 6f 47 3b c4 e9 b7 3c 29 e0 a3 3b 0c d6 fc 3c
       0.0030431552 0.022450335 0.005001087 0.030863784
000180 56 81 bc 3c 48 d8 0d bb 00 11 f5 3c c4 e2 d2 3c
       0.02301089 -0.0021643806 0.029915333 0.025742896
000190 d0 ac 17 3d 2e e0 ee 3b c8 6c 29 3d 7a 06 19 3d
       0.03703004 0.007289908 0.041363508 0.037359692
0001a0 e8 49 b8 bc b9 cb 8b 3c 76 d0 6e 3b a5 98 c5 3a
       -0.022496179 0.017064916 0.003644017 0.0015075399
0001b0 14 0e ec 3c f2 50 18 3c 39 47 12 3d c1 58 84 3c
       0.028815307 0.009296643 0.035712454 0.016155602
0001c0 a9 dc da 3c bc d0 f9 bb f8 d2 01 3c fd 6f ab 3c
       0.026716547 -0.00762376 0.007923834 0.020927424
0001d0 76 9a f5 3c f4 a3 2b 3c 32 2f 90 3c fb 6c ed bb
       0.02998088 0.010476101 0.01760063 -0.0072456575
0001e0 53 32 ce 3c 76 4c 02 3c 07 52 f7 3c 86 99 63 3a
       0.02517048 0.0079528 0.03019048 0.00086822396
0001f0 25 95 a4 bc ac 77 49 bc 1f 12 f2 bc 3f 7e 97 3c
       -0.020090649 -0.012296598 -0.029549656 0.018492816
000200 db 00 cf 3b bd 61 b4 3c ad 0b d2 bb 27 5b 02 3d
       0.0063172407 0.022019261 -0.0064100833 0.03182521
000210 41 7f dd 3b 85 ab 7a 3c da 57 16 3d 67 3d d1 3c
       0.0067595546 0.0152996825 0.036704876 0.025541974
000220 7e 3f 98 3c cc 32 69 bc 7c 2e 0f bb 97 ad 92 3c
       0.018584963 -0.014233302 -0.0021847775 0.01790504
000230 78 37 d8 3c 7a f3 ba 3c f5 53 05 3d a4 e4 42 36
       0.026393637 0.022821177 0.03255077 2.904134e-06
000240 d1 7a 05 3c 39 a5 05 3d 9a 71 08 3c 35 71 4a 3d
       0.0081469575 0.03262827 0.008327866 0.04942437
000250 bc 53 20 3c 8b ab e1 3b 76 7d f3 3b 29 7c 11 3c
       0.009785589 0.0068869046 0.0074307276 0.0088797
000260 fa d8 66 3b 6e 80 26 3b 83 2b 27 bb 4e 6b 74 39
       0.0035224543 0.002540614 -0.0025508113 0.00023309627
000270 b5 fd 95 3c b3 18 03 bb 3a ca 56 3c 5b 1a dd 3a
       0.018309454 -0.0020003736 0.013109738 0.0016868816
000280 e4 23 db 3c 3d 24 31 3c 5b bf 72 3c eb 7e 89 bc
       0.026750512 0.010811863 0.0148161305 -0.016784152
000290 f0 dd 49 3b ac a7 2f 3c fc 65 af 3b e8 bc 1d 3d
       0.003080245 0.010721128 0.0053527337 0.038510233
0002a0 d9 04 b8 3c 89 c3 a5 3c 5e 4f 24 3d a1 6e c4 3c
       0.022463249 0.02023484 0.040114753 0.023978533
0002b0 cb 40 1b bc ca 47 ee 3c c1 66 6d 3c 99 58 7c bb
       -0.009475897 0.029086966 0.0144898305 -0.0038504957
0002c0 cd 6c f3 bb 1e ef 9b 3c 70 e4 58 3c 00 98 7b 3c
       -0.0074287415 0.019034918 0.0132380575 0.015356064
0002d0 9c 63 de 3b da dc cf 3c 09 04 1b 3c cb 37 0f 3c
       0.0067867767 0.025373865 0.009461411 0.008741329
0002e0 bc 2e 37 3c 12 28 fc 3b 37 e9 23 bb 04 2e 14 3d
       0.011180576 0.0076952064 -0.0025010833 0.036176696
0002f0 a1 fe ef 3c 2b 6a 36 3c 1d dd a2 3c 3e 96 2f 3d
       0.029296221 0.011133711 0.019880826 0.04286789
000300 8f 08 72 3c bb 77 ee ba 27 aa d6 3c 4f 1d 3b 3d
       0.014772548 -0.0018193641 0.026204182 0.045682248
000310 db 4a 21 3d 2f 16 6f 3c 7a 49 a8 3c e8 18 08 ba
       0.03937803 0.014592691 0.020542849 -0.00051916996
000320 87 12 b4 3c 32 8a 76 3c 8a ee b9 3c 6d 4a 05 3d
       0.02198149 0.015047597 0.022696752 0.03254168
000330 2e 25 59 3c ee d3 53 3b 3a 50 b4 3c 6a f9 00 3d
       0.013253493 0.0032322365 0.022010911 0.03148786
000340 2f 92 98 3c 9c 4c 3a 3c c7 ce f6 3b 18 03 c6 3c
       0.018624393 0.011370804 0.007531974 0.024171397
000350 b0 7a e6 3c a9 71 1e 3d 13 58 0f 3c eb ee 36 bc
       0.028134674 0.038682614 0.008749026 -0.011165361
000360 da db 0c bc fb 0c ce bb 0e e4 86 3c df fa aa 3c
       -0.008597339 -0.0062881685 0.016466167 0.020871578
000370 a2 6f 6c 3c 6c 3f b4 3c c0 fb c7 ba db 9e 86 3c
       0.014430912 0.022002898 -0.0015257522 0.01643317
000380 83 06 66 3c ee 6c 25 3c c6 61 51 3c 5c 18 61 3c
       0.014039638 0.010096772 0.012779659 0.013738718
000390 df 13 53 3d f6 35 73 3c 4f 9a 8f 3c df ce 4b 3c
       0.051532622 0.014844408 0.017529635 0.012439459
0003a0 cf a6 28 3c f2 be d9 3c 73 c7 69 3c d2 6d 45 bc
       0.0102936765 0.026580308 0.014268744 -0.012050109
0003b0 35 32 17 3d 2e f0 28 bc d5 01 a3 3b 2d a9 14 3d
       0.036913116 -0.01031117 0.0049745836 0.03629415
0003c0 89 f8 be 3c ff b3 03 3d 9a fc 34 3c 7b 99 55 3c
       0.02331187 0.03215408 0.011046553 0.013037081
0003d0 54 c6 dd 3c 89 02 1a 3c 31 62 b2 3b c0 92 14 3c
       0.02707211 0.0094000185 0.0054438342 0.009068191
0003e0 df d8 30 3c de ca d4 bb 6a be dc 3a 84 0e 23 3d
       0.010793894 -0.00649391 0.0016841416 0.039808765
0003f0 2a 35 1b 3b 78 fd 19 3b 21 9d 97 3a c1 bb 0b 3d
       0.0023682811 0.0023497026 0.0011567214 0.034114603

network_body._body_endoder.seq_layers.0.weight f4 [256, 383]
000000 b3 46 19 3d 58 98 29 3d 6d 18 2e 3d e0 86 87 3d
       0.03742094 0.041405052 0.042503763 0.06617522
000010 e0 b5 16 bd 00 b8 d8 bc ea cd 18 3c 73 42 9a 3d
       -0.036794543 -0.026454926 0.0093264375 0.075322054
000020 1e 89 a1 3d 62 e3 30 3d 80 44 21 bd 22 75 30 3c
       0.07887481 0.0431856 -0.039371967 0.010770114
000030 af 2c 2d 3d ff 10 76 3d 62 91 9f 3d f3 b1 c4 3c
       0.04227894 0.060074802 0.077914014 0.024010634
000040 4d 33 d3 3b d9 2f 5d 3d 04 72 05 bd ec 78 8e bc
       0.0064453245 0.05400071 -0.032579437 -0.017391644
000050 d5 47 62 bb 8e 0d a8 bd 14 a6 18 3d f8 af f3 bd
       -0.0034527679 -0.0820571 0.03726776 -0.11898798
000060 f5 75 8b 3d 3e 0d 7d bb d4 36 55 bc e0 90 bf 3d
       0.06809608 -0.003861263 -0.01301356 0.093538046
000070 f4 35 e7 bd 3b 01 fe 3c 02 c1 36 3d c0 3a 49 3d
       -0.112895876 0.031006446 0.04461766 0.049128294
000080 00 44 52 bd c9 34 16 3c 0f 8b 04 3d 71 2b 29 3d
       -0.05133438 0.009167858 0.03235918 0.041301195
000090 be 7f 07 bd b2 96 60 bd 37 c6 87 bd c1 b9 b7 3d
       -0.03308081 -0.054831214 -0.06629603 0.089709766
0000a0 d8 f4 1b bd 27 33 ab 3d a6 eb 20 bd f9 8a 69 bc
       -0.038075298 0.08359366 -0.03928723 -0.014254325
0000b0 0a 2e 96 bd 46 4b f3 bd 15 75 04 3d 67 86 cb bc
       -0.07333 -0.11879592 0.03233822 -0.024844361
0000c0 04 89 c8 3c cf 57 6d 3c fc f4 17 bb 26 7c 76 bd
       0.024479397 0.014486267 -0.0023186794 -0.06017699
0000d0 08 5a 17 bc a4 2e 73 bc 89 90 5e 3d fb 7e 9a 3d
       -0.009237774 -0.014842663 0.05433706 0.07543751
0000e0 38 0c 89 bb f2 da 1c bd cc 58 51 bd 7d 16 68 3d
       -0.004182365 -0.03829474 -0.051110074 0.05666207
0000f0 1c 0f 20 3c 62 0c 4b 3c e7 7b 02 bd 14 3f 53 bd
       0.009769227 0.012393089 -0.031856444 -0.051573828
000100 9d 3d fa 3d 9c 1d 01 3d be 3a a5 3c 0b 1a a4 3c
       0.12218783 0.03152238 0.020169612 0.02003195
000110 9a a6 0e bd cf 64 cc bc 29 41 69 3d 58 95 6c bd
       -0.034826852 -0.024950413 0.056946907 -0.057759613
000120 01 a6 f2 3d b9 92 87 bc cb d0 a5 3c 0f ab 2a bd
       0.11848069 -0.016549455 0.020241162 -0.04166704
000130 21 ef 7e 3c c4 8d 69 bd 1e 2e fa bb 81 f7 b9 bd
       0.015559942 -0.057019964 -0.007634892 -0.09080411
000140 dc e2 04 bd dd c3 be bc 92 39 44 bc 86 3c 3e 3d
       -0.032442912 -0.023286754 -0.011976616 0.04644444
000150 17 03 bd bd 5b 3c c3 bb 82 cf 1e bd 5f 44 a9 3b
       -0.09229105 -0.0059581227 -0.038772114 0.005165621
000160 d6 cb 81 3d 87 a8 f9 3c 0f 1f 00 bd 52 d7 2b bd
       0.06337707 0.030475868 -0.03127962 -0.041953392
000170 cc 83 f9 3c 9f d3 6e 3c 2f b5 64 3d 13 c1 7b bc
       0.030458353 0.014576822 0.055836853 -0.015365857
000180 82 76 bf bd d8 f5 05 3c 3b 66 24 bd b6 2a 08 3c
       -0.093487754 0.0081762895 -0.040136557 0.008310964
000190 58 27 3f bd c7 45 15 3d 8e 70 c0 bd ec 1a 6f bc
       -0.04666838 0.036443498 -0.09396468 -0.014593821
0001a0 c2 41 82 3d 39 86 03 bd 8d e1 99 3d 72 18 91 bc
       0.063601986 -0.032110427 0.075137235 -0.017711852
0001b0 a9 0a e9 bd 3e 95 a6 bd 6a 85 04 bd 6d 8f 0e bd
       -0.113789864 -0.081339344 -0.032353796 -0.03480475
0001c0 da 6b 14 3d 81 25 96 bc 86 06 4a 3a dd 51 ee bd
       0.036235668 -0.01832843 0.00077066605 -0.11636708
0001d0 d0 a0 24 3d bf 36 a8 3d 98 6d ac bd 15 6d e9 bb
       0.040192425 0.08213567 -0.08419341 -0.0071235993
0001e0 1e cd 88 3d 76 f7 d5 3d 46 ba 01 3d 84 77 9a bc
       0.06679748 0.1044759 0.031671785 -0.018855818
0001f0 f6 d2 c7 bd 4e bd a1 3c 7d 6e 82 39 f9 20 b0 bd
       -0.097570345 0.019743588 0.00024877852 -0.08600039
000200 f9 2d 52 3c d2 a9 24 bd 4a eb a9 3c a6 fe 16 3d
       0.012828344 -0.040201016 0.020742077 0.036863945
000210 72 28 68 bd 39 92 fb bc 30 d7 98 ba 3f f2 14 3c
       -0.056679197 -0.030709373 -0.001166081 0.009090959
000220 c6 cd 88 3d e0 91 08 bd 8f a6 8f 3d 74 bc 0a 3d
       0.06679873 -0.033342242 0.070141904 0.03387113
000230 32 96 35 bc 02 9d 9d 3c dc 95 96 3d 78 35 c8 3d
       -0.011083173 0.019239906 0.07352802 0.09775823
000240 1e 0f b9 bb 4b fb 4d bc 84 69 b2 3d f2 2d 75 bd
       -0.005647554 -0.01257212 0.08711532 -0.05985827
000250 ec 10 68 bb 52 60 8c 3d 91 a5 8d 3d a2 9a 0b bc
       -0.0035410477 0.06854309 0.06916345 -0.008520754
000260 3e dc 84 3d e7 89 d8 bd fd 52 0b 3e 6d 02 69 3c
       0.0648732 -0.10573178 0.13605876 0.01422177
000270 0d 1d 85 3b 53 80 97 bd 2e 61 de 3c 92 87 68 bd
       0.004062301 -0.07397523 0.027145948 -0.056769915
000280 c3 87 c9 bb 3f ed 9f 3d 9f 50 7e bc a0 38 49 3c
       -0.0061502173 0.07808923 -0.015522151 0.012281567
000290 28 9d b2 bd ce 25 39 3d 7c 17 8f bc 39 96 e5 3c
       -0.087213814 0.04520207 -0.017467253 0.028025733
0002a0 a0 de ba bc 06 a4 3e bd b6 5f 67 bd a5 15 d3 3d
       -0.022811234 -0.046543144 -0.05648776 0.10306863
0002b0 23 eb 3f bc 68 b5 a1 3c 66 63 a5 3d 10 1c a2 bb
       -0.011713776 0.019739822 0.08075599 -0.004947193
0002c0 10 d2 3c 3d b3 b4 2c bd 99 5e f4 3c b3 19 09 3d
       0.04609877 -0.042164516 0.029830264 0.033471774
0002d0 a2 b6 8c bd 06 91 95 3d 5f f5 fd bd e1 39 08 3b
       -0.06870772 0.07303052 -0.124003164 0.0020786452
0002e0 39 bb dd 3c e2 de 73 3d df a4 69 3d b7 23 70 bc
       0.027066814 0.05953873 0.057042 -0.014656953
0002f0 6d 77 05 3d 63 d6 e3 3d 11 8d 86 bc f3 cf 62 3b
       0.032584596 0.111248754 -0.016424688 0.003460881
000300 ed d5 9d bd 1c 15 6a bd b5 81 7c 3c c7 ba 15 3c
       -0.07706819 -0.057149038 0.015411784 0.0091387695
000310 80 db 26 bd 95 fb 7d 39 6d 25 69 3a f0 a0 1c bd
       -0.040736675 0.00024221682 0.00088938215 -0.03823942
000320 c1 0d 03 bd c7 03 03 3d c5 d6 5c 3d 99 86 39 3d
       -0.03199554 0.031986024 0.053915758 0.045294378
000330 93 5b 36 bd b9 44 14 bc 4c f4 93 ba e2 73 13 3d
       -0.044520926 -0.009049588 -0.0011288016 0.035999186
000340 05 6c 46 bc f4 b8 af 3b ee f8 02 bd 58 d6 84 3d
       -0.012110715 0.0053626243 -0.03197568 0.06486195
000350 e1 1e e7 3c ad 0a ee bc e7 d9 9d 3d 98 ef 4c bd
       0.028212966 -0.029057825 0.07707577 -0.050033182
000360 6c 04 72 bd 6e 23 c3 bd f5 17 72 3d 7a 95 80 bd
       -0.05908625 -0.09528242 0.05910488 -0.062785104
000370 b2 6e 43 3d 38 e7 7c bc 46 83 16 bc 57 8b 20 3c
       0.04771299 -0.015435986 -0.009186571 0.009798846
000380 86 17 75 bd da b3 83 bd ec 38 9f 3d 16 77 67 bd
       -0.059836887 -0.06430788 0.07774529 -0.056510054
000390 9a 11 f1 bd db 74 dd 3b 8f 4b 64 bd b0 94 e9 3c
       -0.11770935 0.006758315 -0.05573612 0.028513283
0003a0 65 6a da 3c 8a 58 d2 3b ff cf 50 bd 28 91 ba 3d
       0.026662061 0.006419246 -0.05097961 0.091097176
0003b0 58 1f 39 3d f3 e0 3b 3d a8 a8 ee 3d 43 6c 73 bc
       0.045195907 0.045868825 0.116532624 -0.014857355
0003c0 62 d8 46 bd 65 5c af bd a9 ee 76 3d 69 1c 13 bd
       -0.048546202 -0.08562545 0.060286198 -0.035915766
0003d0 95 36 00 bc e7 e8 39 3d e4 06 07 3c af 42 b3 3d
       -0.007825513 0.04538813 0.008241389 0.08752953
0003e0 0b 8a df bd 41 cd 63 bc 89 07 ce 3c 74 b7 01 bc
       -0.109150015 -0.013903917 0.025150077 -0.007917274
0003f0 4d f8 c8 bc e2 ce 39 bc 82 34 1c bd 3c 63 85 3c
       -0.024532462 -0.011340829 -0.038136013 0.01628267

network_body._body_endoder.seq_layers.2.bias f4 [256]
000000 27 29 fd 3c bf 45 61 3c 85 32 99 3c 32 68 49 bc
       0.030903412 0.013749539 0.018700847 -0.0122929085
000010 c3 42 3a 3c 63 94 65 3c 3c 46 27 3c 49 e6 fd bb
       0.011368456 0.014012429 0.010209616 -0.0077483994
000020 3f a3 38 3d 6b c3 ea 3b b1 01 03 3d 91 a2 82 3c
       0.04507756 0.007164409 0.031984035 0.015946658
000030 ca c0 b2 3c 41 60 99 3b 5b 98 b8 3c 8e b5 0a bc
       0.021820445 0.004680664 0.022533586 -0.008466138
000040 b3 31 e1 3c 77 26 85 3c 69 78 93 3c 75 22 19 3d
       0.027489519 0.016253693 0.018001752 0.037386376
000050 77 9c b4 3c 2c 6a c9 b8 25 77 dc 3c a9 ae 09 3d
       0.022047265 -9.604203e-05 0.026912281 0.033613835
000060 db a9 b7 3c ca 07 08 3b cf 93 77 3c 22 24 3f 3c
       0.02241986 0.0020756596 0.015110924 0.01166633
000070 88 c3 41 3c 32 ae 7f 3c ec 65 0b 3d 18 9c 97 39
       0.011826403 0.015605496 0.034032747 0.00028917263
000080 5f 78 93 3b 56 aa df 3c d7 5b 06 3d 42 51 df 3c
       0.0045004333 0.027302902 0.03280243 0.027260426
000090 04 c5 39 3b 95 2d 83 3b f4 76 de 3c 30 87 76 39
       0.002834619 0.0040032365 0.02715633 0.0002351075
0000a0 5c 3c 3d bc 2e 53 78 3c b1 e2 e9 3c 0a d8 d2 3a
       -0.011550035 0.01515655 0.028550478 0.0016086113
0000b0 ca 57 9a bc fe be 0d 3d a4 57 e1 3c 54 d2 b8 3b
       -0.01884069 0.034605972 0.02750761 0.0056403074
0000c0 99 7d e2 3c c9 b3 e6 3b 71 11 b9 3c 6d ca e8 3c
       0.02764778 0.007040475 0.022591325 0.028416837
0000d0 ed 99 b5 3b 34 21 09 3d 30 50 e9 3c 9a fd 41 3c
       0.005542031 0.03347893 0.02848062 0.0118402485
0000e0 47 b8 e4 3c 0f 0b df 3c f2 15 a1 3b 11 ab c3 3c
       0.027919902 0.027226953 0.004915946 0.023885282
0000f0 27 07 ff 3a f2 87 fa bc 25 e8 60 3c 8a e2 ce ba
       0.0019457088 -0.030582402 0.013727223 -0.0015784067
000100 8f d7 0e 3d fb 4d a2 bc d1 c5 70 3c b7 b1 c4 3c
       0.03487354 -0.019812575 0.014695601 0.024010522
000110 c0 7b 06 3d 5c b6 01 3d 4f dc e9 3c e3 39 22 3d
       0.03283286 0.031668052 0.028547434 0.039605986
000120 7c 11 8d 3c 05 72 08 3d 7d a5 81 3c 60 92 9e 3c
       0.017220251 0.033311862 0.015825981 0.019356906
000130 62 a3 c5 3c 0f 2a 1c 3c c0 ab 4b 3b c6 eb 81 3b
       0.024125759 0.009531512 0.0031077713 0.003964874
000140 39 b9 73 3c c2 49 bf bb fa f2 87 39 0d e3 29 3d
       0.0148757035 -0.00583765 0.00025930238 0.041476298
000150 51 bc c5 3c 75 a0 83 3c ce f7 15 3d 30 8e 85 3c
       0.024137648 0.016067723 0.036613278 0.016303152
000160 30 fe 02 3c e7 41 f5 3c 55 8c 5c bb eb d0 56 bc
       0.007995173 0.029938651 -0.003365298 -0.013111333
000170 d2 b3 37 3c a7 3e bc 3c 3a d2 0c 3c 7a a5 00 3d
       0.011212306 0.022979094 0.008595044 0.03140781
000180 8d 0b 15 3c 81 cb 2c 3a 74 3e 45 3c 6f de ae 3b
       0.009096992 0.0006591604 0.012038816 0.0053365747
000190 b3 3d a9 3b b3 69 59 bc d1 24 08 3c 39 a1 a2 3c
       0.005164826 -0.01326983 0.008309559 0.019852268
0001a0 22 6d 0e 3c 06 e3 a7 b9 e4 f5 b2 3c 1b 91 b7 3c
       0.0086930115 -0.00032021868 0.021845765 0.022408059
0001b0 72 cb c1 3b 36 84 0e 3d 5a aa bd bb 74 3b a9 3c
       0.005914145 0.034794055 -0.0057881298 0.020658232
0001c0 73 b3 25 3b 0e 9a f7 3c 72 f3 a0 3c 7b cf ec 3b
       0.0025283962 0.030224826 0.019647334 0.007226882
0001d0 bb d9 d4 3c 98 ad 1a bb fd 73 18 3d c6 ab ed 3c
       0.025982728 -0.0023602005 0.03721999 0.029012572
0001e0 d0 08 4c 3c e7 0f e7 bb 6b 7a 9a 3c fe 1a e3 3c
       0.012453273 -0.0070514563 0.018857202 0.027722832
0001f0 5a 7f bd 3c c7 85 16 ba 49 f7 df bb 5d c3 88 3b
       0.023132015 -0.000574198 -0.0068348986 0.0041736797
000200 9f 58 02 3c 4f 16 b4 3c bd e7 39 bc d7 13 e4 3c
       0.007955699 0.021983294 -0.011346755 0.027841492
000210 65 ed b7 bb 5f 84 35 3b 4e 2a ef 3a a0 02 17 3c
       -0.0056130164 0.0027697308 0.0018246861 0.009216934
000220 c1 2d d5 3c 1c a3 85 3c c4 ff 63 3c 5c 48 ff 3b
       0.026022794 0.016313128 0.01391596 0.0077906083
000230 71 96 5b 3b 31 01 a3 bb dd b7 af 3b f7 8f bd 3c
       0.0033506418 -0.0049745073 0.0053624944 0.023139937
000240 7c df 08 3c 12 c4 21 3b 05 b2 04 3d 41 9a 9d 3c
       0.008354064 0.0024683517 0.032396335 0.019238593
000250 54 62 a1 3b 97 99 89 bc 46 05 81 3c 8f 40 61 3c
       0.0049250517 -0.01679687 0.015749585 0.013748302
000260 b0 12 05 3d 05 10 12 3d c5 77 9d 3c f7 d1 83 bc
       0.032488525 0.03565981 0.01922215 -0.01609133
000270 14 e6 78 3c 3d 0b 8c 3b c7 d9 ae 3c 80 31 f4 3a
       0.015191574 0.0042738006 0.021344079 0.0018630475
000280 4f 11 2b 3c 82 5a 37 3c 9a 1f f1 3b f1 8d 01 3c
       0.010441138 0.011191012 0.0073585035 0.007907377
000290 f0 53 3f 3c f7 ff a4 3c 6f 2a 33 3c 6d 7d 14 ba
       0.011677727 0.020141585 0.01093541 -0.0005664442
0002a0 a3 dd b3 3b 42 f9 a0 38 ab 40 86 3c 0a 2a 75 3c
       0.0054890676 7.6758224e-05 0.016388258 0.014963636
0002b0 a3 0a 55 3a fa b6 b9 3c 3b a8 ee 3b 4f e1 94 3c
       0.000812689 0.022670258 0.007283238 0.018173842
0002c0 9b e0 b0 3b 53 62 ba 3c 77 56 06 bb d0 90 1f 3b
       0.005397869 0.022751963 -0.0020498314 0.002434779
0002d0 07 91 ec 3c 80 1c 43 3c 9e 1a f4 3c 20 15 62 3c
       0.028877748 0.01190865 0.029797848 0.013798982
0002e0 49 bb d8 bb 95 71 7a bc 23 17 86 3b 55 be b8 3c
       -0.006614123 -0.015285869 0.0040921136 0.022551695
0002f0 15 93 01 bb 3c 10 e2 bb ee 25 0e 3c 00 4b f9 3c
       -0.0019771506 -0.006898908 0.008676035 0.03043127
000300 74 23 d4 3c ef bd 86 bb f5 f1 67 bb 04 86 6c 3c
       0.025895812 -0.0041119973 -0.003539202 0.014436249
000310 71 d5 21 3d be dc a9 3b 92 fb da bc 72 ce af bb
       0.039510194 0.005183785 -0.026731286 -0.0053651864
000320 1f 95 c7 3c 5d 37 4d bc 6c 48 ca 3c 38 9e 44 3c
       0.024363099 -0.012525407 0.024692737 0.012000613
000330 44 86 b2 3c 38 d9 02 3c 09 8e 9e 3b 06 ca 3f ba
       0.021792538 0.007986359 0.0048387093 -0.00073161756
000340 69 02 57 bb 5e e7 8b 3c ad ac 0a 3c 9b a6 18 3c
       -0.0032807833 0.017078098 0.008464021 0.009317066
000350 d8 b4 c4 bb 68 19 84 bc f9 c7 d8 bb ab f9 0f bd
       -0.0060030036 -0.016125396 -0.0066156355 -0.03515021
000360 de ef 17 3d 45 94 e2 3c 19 df 44 3c 62 df e8 3c
       0.03709399 0.027658591 0.012016081 0.02842683
000370 93 1c b0 3c 00 61 62 bb 8d 84 68 bb 39 d0 fa 3c
       0.021498 -0.003454268 -0.0035479397 0.030616866
000380 d2 74 3c 3c f1 12 ec ba 83 1b ca bb fd f4 5e 3b
       0.0115024615 -0.0018011016 -0.0061678304 0.0034020536
000390 d0 84 85 3b 06 0c c4 bc a8 65 4d 3d df e8 83 3c
       0.0040746704 -0.023931514 0.050145775 0.016102253
0003a0 e6 11 5a 3c 5b 20 9d 3c e0 8c f4 3c b1 7e b4 bc
       0.013309931 0.019180467 0.02985233 -0.022033067
0003b0 21 11 a5 3c c5 3c b4 3c 09 0e e3 3c d7 e4 69 bc
       0.02014977 0.022001633 0.027716653 -0.014275751
0003c0 63 12 ed 3c 30 ec 92 3c 5b 37 d9 3b 8a 0e 21 3c
       0.028939432 0.017934889 0.0066289133 0.009830127
0003d0 b2 79 88 3c 03 f6 1d 3c 11 e5 8c bc 9f f5 ff 3c
       0.016659591 0.009641173 -0.017199071 0.031245051
0003e0 a3 13 14 3c cd a8 0b 3b c4 0e 88 3a 02 c2 02 3d
       0.009037885 0.002131033 0.0010380377 0.0319233
0003f0 68 f5 e5 bb 04 97 b5 bb 9e 3e fc 3c 05 5d 8b 3c
       -0.00701778 -0.005541684 0.030791577 0.017012129
