Assets/NN/Level2/CharacterBehav 1.onnx (onnx, 932489 bytes, 15 tensors)

77 f4 [369]
000000 54 3d b9 3d b6 11 83 3a b6 11 83 3a b6 11 83 3a
       0.090449005 0.0009999785 0.0009999785 0.0009999785
000010 32 9b e7 3c b6 11 83 3a b6 11 83 3a 77 1d d0 3d
       0.028272245 0.0009999785 0.0009999785 0.1016187
000020 00 ca b3 3d e8 14 9b 3d b6 11 83 3a b6 11 83 3a
       0.08778763 0.07572347 0.0009999785 0.0009999785
000030 b6 11 83 3a 88 ec 20 3d b6 11 83 3a b6 11 83 3a
       0.0009999785 0.039288074 0.0009999785 0.0009999785
000040 2d ca 8e 3e 26 db 81 3e 7e f9 af 3d b6 11 83 3a
       0.27888623 0.2536251 0.08592509 0.0009999785
000050 b6 11 83 3a b6 11 83 3a 8c fe dd 3c b6 11 83 3a
       0.0009999785 0.0009999785 0.027098916 0.0009999785
000060 b6 11 83 3a ea 06 1a 3e ec 0e eb 3d c0 5a 94 3d
       0.0009999785 0.150417 0.114774555 0.07243872
000070 b6 11 83 3a b6 11 83 3a b6 11 83 3a 8d 45 75 3d
       0.0009999785 0.0009999785 0.0009999785 0.059880782
000080 b6 11 83 3a b6 11 83 3a 3a c3 a7 3e 40 f0 96 3e
       0.0009999785 0.0009999785 0.32766134 0.2948017
000090 2c d7 96 3d b6 11 83 3a b6 11 83 3a b6 11 83 3a
       0.073652595 0.0009999785 0.0009999785 0.0009999785
0000a0 97 43 db 3c b6 11 83 3a b6 11 83 3a 1a b9 65 3e
       0.026765628 0.0009999785 0.0009999785 0.22433892
0000b0 32 0e 36 3e 51 9b ae 3d b6 11 83 3a b6 11 83 3a
       0.17778853 0.08525718 0.0009999785 0.0009999785
0000c0 b6 11 83 3a 4b bf a5 3d b6 11 83 3a b6 11 83 3a
       0.0009999785 0.08093127 0.0009999785 0.0009999785
0000d0 ff b2 bf 3e 3d e4 a8 3e cb 4d 99 3d b6 11 83 3a
       0.3744125 0.32986632 0.07485541 0.0009999785
0000e0 b6 11 83 3a b6 11 83 3a 09 0c df 3c b6 11 83 3a
       0.0009999785 0.0009999785 0.027227418 0.0009999785
0000f0 b6 11 83 3a 6f 2c 94 3e 4c fb 6a 3e e7 6e ca 3d
       0.0009999785 0.2894015 0.22947425 0.09884434
000100 b6 11 83 3a b6 11 83 3a b6 11 83 3a 9a c7 de 3d
       0.0009999785 0.0009999785 0.0009999785 0.10877915
000110 b6 11 83 3a b6 11 83 3a 41 52 d5 3e f1 4c b8 3e
       0.0009999785 0.0009999785 0.41664317 0.35996202
000120 5f a7 9d 3d b6 11 83 3a b6 11 83 3a b6 11 83 3a
       0.07697939 0.0009999785 0.0009999785 0.0009999785
000130 2a 4a e1 3c b6 11 83 3a b6 11 83 3a 78 28 b0 3e
       0.027501184 0.0009999785 0.0009999785 0.34405875
000140 0f c7 89 3e cc 4d d7 3d b6 11 83 3a b6 11 83 3a
       0.26909682 0.105128855 0.0009999785 0.0009999785
000150 b6 11 83 3a 39 f2 07 3e b6 11 83 3a b6 11 83 3a
       0.0009999785 0.13275994 0.0009999785 0.0009999785
000160 f1 0e eb 3e 00 e1 c3 3e c5 81 a2 3d b6 11 83 3a
       0.45909837 0.382576 0.07934908 0.0009999785
000170 b6 11 83 3a b6 11 83 3a 12 f4 e3 3c b6 11 83 3a
       0.0009999785 0.0009999785 0.027826343 0.0009999785
000180 b6 11 83 3a 5d 54 cd 3e 49 46 9b 3e a8 7c ea 3d
       0.0009999785 0.40103427 0.3032706 0.114495575
000190 b6 11 83 3a b6 11 83 3a b6 11 83 3a b4 06 09 3e
       0.0009999785 0.0009999785 0.0009999785 0.13381463
0001a0 b6 11 83 3a b6 11 83 3a 15 08 f9 3e 57 ae c8 3e
       0.0009999785 0.0009999785 0.4863898 0.3919551
0001b0 1f 63 b0 3d b6 11 83 3a b6 11 83 3a b6 11 83 3a
       0.08612656 0.0009999785 0.0009999785 0.0009999785
0001c0 b3 e9 ea 3c b6 11 83 3a b6 11 83 3a 80 da ea 3e
       0.02867589 0.0009999785 0.0009999785 0.45869827
0001d0 64 bd a7 3e c7 98 19 3e b6 11 83 3a b6 11 83 3a
       0.3276168 0.14999686 0.0009999785 0.0009999785
0001e0 b6 11 83 3a c5 e2 0a 3e b6 11 83 3a b6 11 83 3a
       0.0009999785 0.13563068 0.0009999785 0.0009999785
0001f0 16 11 ff 3e e6 ac cb 3e d8 28 ef 3d b6 11 83 3a
       0.49817723 0.3978035 0.11677712 0.0009999785
000200 b6 11 83 3a b6 11 83 3a 25 c4 fa 3c b6 11 83 3a
       0.0009999785 0.0009999785 0.030611107 0.0009999785
000210 b6 11 83 3a dd c5 fb 3e ad ac ae 3e f2 67 5d 3e
       0.0009999785 0.49174395 0.34116116 0.21621683
000220 b6 11 83 3a b6 11 83 3a b6 11 83 3a ef 56 0f 3e
       0.0009999785 0.0009999785 0.0009999785 0.13998006
000230 b6 11 83 3a b6 11 83 3a 94 e0 ff 3e 11 c5 cc 3e
       0.0009999785 0.0009999785 0.49976027 0.399941
000240 c4 b0 2b 3e b6 11 83 3a b6 11 83 3a b6 11 83 3a
       0.1676665 0.0009999785 0.0009999785 0.0009999785
000250 e9 2c 09 3d b6 11 83 3a b6 11 83 3a 33 8a ff 3e
       0.033490095 0.0009999785 0.0009999785 0.49910125
000260 57 bb b2 3e 0f 2a ac 3e b6 11 83 3a b6 11 83 3a
       0.34908554 0.33625838 0.0009999785 0.0009999785
000270 b6 11 83 3a e6 2e 1c 3e b6 11 83 3a b6 11 83 3a
       0.0009999785 0.15252265 0.0009999785 0.0009999785
000280 17 aa fa 3e aa 4b c9 3e 21 09 9e 3e b6 11 83 3a
       0.48957893 0.3931554 0.3086634 0.0009999785
000290 b6 11 83 3a b6 11 83 3a df fc 38 3d b6 11 83 3a
       0.0009999785 0.0009999785 0.04516303 0.0009999785
0002a0 b6 11 83 3a 07 c2 fe 3e f1 c2 b6 3e dc 95 a4 3e
       0.0009999785 0.49757406 0.35695603 0.32145584
0002b0 b6 11 83 3a b6 11 83 3a b6 11 83 3a 44 ae d6 3e
       0.0009999785 0.0009999785 0.0009999785 0.4192983
0002c0 b6 11 83 3a b6 11 83 3a 66 80 c9 3e 6d 1f ac 3e
       0.0009999785 0.0009999785 0.39355773 0.33617726
0002d0 91 9c 99 3e b6 11 83 3a b6 11 83 3a b6 11 83 3a
       0.30002263 0.0009999785 0.0009999785 0.0009999785
0002e0 23 58 d0 3e b6 11 83 3a b6 11 83 3a a3 20 d1 3e
       0.40692243 0.0009999785 0.0009999785 0.40845212
0002f0 2f b4 9c 3e 46 a7 c0 3e b6 11 83 3a b6 11 83 3a
       0.3060622 0.3762762 0.0009999785 0.0009999785
000300 b6 11 83 3a 5e 47 5d 3e b6 11 83 3a b6 11 83 3a
       0.0009999785 0.21609256 0.0009999785 0.0009999785
000310 09 c6 8b 3e 78 7c 9d 3e 9b 90 bc 3e b6 11 83 3a
       0.27299526 0.30759025 0.36829075 0.0009999785
000320 b6 11 83 3a b6 11 83 3a ad 12 17 3e b6 11 83 3a
       0.0009999785 0.0009999785 0.14753218 0.0009999785
000330 b6 11 83 3a 68 6c 93 3e f3 16 9f 3e e9 fd a3 3e
       0.0009999785 0.28793645 0.31072196 0.32029656
000340 b6 11 83 3a b6 11 83 3a b6 11 83 3a 66 5e 40 3e
       0.0009999785 0.0009999785 0.0009999785 0.1878601
000350 b6 11 83 3a b6 11 83 3a 97 a2 02 3e 1e c7 82 3e
       0.0009999785 0.0009999785 0.12757336 0.2554254
000360 31 b0 9c 3e b6 11 83 3a b6 11 83 3a b6 11 83 3a
       0.30603173 0.0009999785 0.0009999785 0.0009999785
000370 8c fc eb 3d b6 11 83 3a b6 11 83 3a cc 42 04 3e
       0.11522779 0.0009999785 0.0009999785 0.12916106
000380 aa 0c 86 3e a0 f9 8a 3e b6 11 83 3a b6 11 83 3a
       0.26181537 0.27143574 0.0009999785 0.0009999785
000390 b6 11 83 3a 61 b7 56 3e b6 11 83 3a b6 11 83 3a
       0.0009999785 0.20968391 0.0009999785 0.0009999785
0003a0 af ea a3 3d ae 51 51 3e 62 a4 7d 3e b6 11 83 3a
       0.08003747 0.20441315 0.24769738 0.0009999785
0003b0 b6 11 83 3a b6 11 83 3a 5a 11 16 3e b6 11 83 3a
       0.0009999785 0.0009999785 0.14655057 0.0009999785
0003c0 b6 11 83 3a 40 7b 8d 3d 37 a8 55 3e c8 cb 60 3e
       0.0009999785 0.06908274 0.2086495 0.21952736
0003d0 b6 11 83 3a b6 11 83 3a b6 11 83 3a 4a e6 48 3e
       0.0009999785 0.0009999785 0.0009999785 0.19619098
0003e0 b6 11 83 3a b6 11 83 3a 51 f1 73 3d 03 49 30 3e
       0.0009999785 0.0009999785 0.05955631 0.17215352
0003f0 ac 5f 36 3e b6 11 83 3a b6 11 83 3a b6 11 83 3a
       0.17809933 0.0009999785 0.0009999785 0.0009999785

80 f4 [14]
000000 86 0e 80 40 01 0e 14 40 b6 11 83 3a 94 23 69 3f
       4.001773 2.3133547 0.0009999785 0.9106991
000010 77 18 32 3f 6a 16 e6 3f b6 11 83 3a 97 05 83 40
       0.6956858 1.797559 0.0009999785 4.0944324
000020 91 e9 16 40 b6 11 83 3a 57 92 68 3f 10 5a 9e 3b
       2.3580058 0.0009999785 0.90848297 0.0048325136
000030 d0 c6 48 3c b6 11 83 3a
       0.012254432 0.0009999785

action_model._discrete_distribution.branches.0.bias f4 [3]
000000 c3 7f 71 39 a4 9a 00 3a a9 20 3b ba
       0.00023031146 0.0004905856 -0.00071383506

action_model._discrete_distribution.branches.0.weight f4 [3, 256]
000000 d7 b6 bd ba 90 4e 6e b9 09 6d 0e 3c c2 2b 25 ba
       -0.0014474046 -0.00022726716 0.008692988 -0.0006300771
000010 95 35 1a 39 25 8e d7 bb 2f d7 9c 3b 67 74 72 3a
       0.00014706545 -0.0065782242 0.004786394 0.00092489127
000020 6d ac 32 3b 01 1f a6 bb 3d af 91 3b 29 3c 84 bb
       0.0027263418 -0.005069614 0.004445939 -0.004035492
000030 0e 59 2f bb 51 95 bc bb c3 7a 5b b9 c8 d2 13 3a
       -0.0026755962 -0.0057551046 -0.000209312 0.0005639014
000040 db 8f 03 3b e9 ab 69 bb 39 f7 e7 3b d3 aa 20 3b
       0.0020074758 -0.0035655445 0.007079032 0.0024515882
000050 c0 29 84 3b f6 89 37 3a b0 fc 44 b8 df ae 03 3b
       0.0040332973 0.0007001454 -4.6965375e-05 0.0020093245
000060 7f ee df ba 95 1a ca 3b 66 36 b8 ba a6 71 a2 3b
       -0.0017084627 0.0061677196 -0.0014054298 0.0049573956
000070 e1 3e 01 b9 30 32 58 3b d6 15 9f bb 25 1b a6 3b
       -0.00012325823 0.0032988898 -0.004854898 0.005069154
000080 41 c8 d1 ba 83 99 79 bc 33 90 0d bc 57 d1 49 3b
       -0.0016005115 -0.015234354 -0.008640337 0.0030794942
000090 b0 2e 0d 3c 6c 36 79 bc e7 71 d5 bb e9 67 21 bc
       0.008617088 -0.015210729 -0.0065138224 -0.009851434
0000a0 c6 7d 28 bc 83 8f c0 3b 3d d5 af 3a fd 97 f8 bb
       -0.010283893 0.005876483 0.001341499 -0.007586478
0000b0 5a 24 51 bb e7 f3 9c ba 46 03 90 39 32 41 31 3c
       -0.0031912536 -0.0011974544 0.0002746826 0.010818766
0000c0 43 2f b7 3a 50 7d 37 3c e6 40 e1 ba 80 04 4b 3b
       0.0013975877 0.01119931 -0.0017185479 0.0030978024
0000d0 41 ff 16 3c 67 14 56 bb 45 2b 82 3c 5b 9a 0e bc
       0.009216131 -0.003266597 0.015889773 -0.008703793
0000e0 1e 89 df bb 22 d1 4e bc 64 32 69 bc 2f ad b4 38
       -0.0068217656 -0.012623103 -0.0142332055 8.615327e-05
0000f0 70 bb 3f bc 84 0f 6d 3b a2 db 3c bc 97 ab 11 3c
       -0.011702403 0.0036172578 -0.011526974 0.008891008
000100 be a4 f2 3a 45 ba d4 3b 9b 13 5d bc 95 ce 16 bc
       0.0018512232 0.0064919316 -0.013493444 -0.009204526
000110 b1 55 05 3c 7a 38 52 b9 a4 e7 41 3c ce be f9 3b
       0.008138106 -0.000200482 0.011835013 0.0076216226
000120 8b 0e 0a bb f7 d0 25 bb a6 f6 0f 3c a3 a1 06 3c
       -0.0021065797 -0.0025301555 0.008786833 0.008217248
000130 15 62 a5 ba 1d 53 06 bc de 46 28 bb 05 d5 a8 3a
       -0.0012617732 -0.008198527 -0.0025677006 0.0012880868
000140 70 eb 92 3a f4 fb 3b 3b 9e f7 3d 3c d1 d5 59 3c
       0.0011209082 0.0028684111 0.011594681 0.013295607
000150 90 1d 3e 3c 2f 30 07 ba da b7 f4 bb e6 c6 11 bc
       0.011603728 -0.0005157021 -0.007468206 -0.008897519
000160 f7 be 33 bc 7d b5 83 3a 76 75 96 ba db 27 d7 bb
       -0.010970823 0.0010048595 -0.0011479098 -0.0065660304
000170 b7 d8 c9 3a 73 97 de ba ed b9 18 bb 64 a8 57 bc
       0.0015399669 -0.0016982391 -0.002330418 -0.013162706
000180 bb 54 19 3c b7 8c 96 3c 19 10 5a 3b 63 e0 0a ba
       0.00935858 0.018377645 0.0033273755 -0.00052977185
000190 85 bb a3 3b 24 e9 ea 3a fa 00 09 bc 02 82 1f bc
       0.0049967193 0.0017922265 -0.008362049 -0.009735586
0001a0 6d a0 c9 3b 21 40 29 bb 0f e4 e8 bb b3 f7 b6 3a
       0.0061531574 -0.0025825577 -0.007107265 0.0013959318
0001b0 e0 db c9 3a bc 18 34 bc 77 85 f6 3a c5 03 d0 bb
       0.0015400611 -0.010992225 0.0018808086 -0.0063481056
0001c0 91 a9 58 ba 0b 6b 10 3b f0 3b 4b bb ad bf 15 3c
       -0.00082650135 0.0022036459 -0.0031011067 0.009139937
0001d0 9a 5d fa 3b 55 15 f3 3a 7f f8 d8 b9 bb 58 c3 b9
       0.0076405527 0.0018545786 -0.00041383874 -0.00037259408
0001e0 5b 3f 07 bc 13 25 ff 3b d5 8a 41 3c a7 1e d1 bb
       -0.008254851 0.007786402 0.011812885 -0.006381828
0001f0 90 c1 2c bb 47 6f b8 ba 22 c3 04 bc 04 84 eb bb
       -0.002636049 -0.0014071249 -0.008103164 -0.0071873683
000200 ef d5 81 bb d4 85 2c ba 26 f7 15 39 ba 25 e7 bb
       -0.0039622704 -0.0006581221 0.00014301817 -0.007054058
000210 05 8a a9 3b 07 a8 49 bb 4d a0 24 3b 5a cb 27 3c
       0.005173924 -0.0030770318 0.002511996 0.010241354
000220 6c b6 1a 3a 50 20 20 bb 6a ce 20 bc 04 31 15 ba
       0.0005901817 -0.0024433322 -0.009814838 -0.0005691203
000230 24 be 13 3b 36 d8 0d bb b9 30 20 3b 3e a3 e8 bb
       0.0022543753 -0.0021643764 0.0024443103 -0.007099538
000240 0f 78 57 ba e1 35 44 3b 30 c8 65 ba f5 3a 11 bc
       -0.0008219489 0.002993934 -0.0008765487 -0.008864154
000250 da 5c 43 3c 77 63 0c bc 17 86 d9 bb 95 60 09 3c
       0.011923993 -0.008568636 -0.006638299 0.008384843
000260 62 03 44 3c d7 b9 71 3c 54 16 e7 3b 42 51 19 bc
       0.011963697 0.01475378 0.0070522223 -0.009357752
000270 7f d9 1b bc f1 a6 fa 3a 4b 25 9a 3a 78 90 d3 3a
       -0.009512304 0.0019123239 0.0011760382 0.0016141078
000280 34 ff 85 bb 7d 60 54 3a b5 3d 9c bb f9 f8 0c 3c
       -0.0040892605 0.0008101536 -0.0047680982 0.008604282
000290 03 14 91 bb e1 61 e6 3a 2a ba d0 3b 78 a0 0e 3b
       -0.0044274344 0.0017576778 0.0063698487 0.0021763127
0002a0 c6 18 9e 3b a7 72 9c 3a 02 4e 87 bb ba fe e9 3b
       0.0048247306 0.0011936025 -0.0041291723 0.0071409615
0002b0 d4 e1 9a 3b 3f 67 3b bb 3f 79 80 3b fe 6a 64 bb
       0.004726628 -0.0028595475 0.0039207037 -0.0034853811
0002c0 71 57 14 3a fc 23 1f bb 0c 29 10 3c b8 f1 fc ba
       0.0005658782 -0.0024282923 0.008798849 -0.0019298112
0002d0 f9 bc 1f bb ae 4c fe bb 08 78 52 bb 8f 5e e1 bb
       -0.002437411 -0.007760606 -0.0032115001 -0.0068777273
0002e0 57 ac 84 bc 3d 3c 43 3c fb 2c 1c 3b 40 9f 99 b9
       -0.01619546 0.011916217 0.0023830521 -0.00029301085
0002f0 f4 82 2c bb 50 15 26 bc b6 3e 61 bb 97 32 95 3b
       -0.0026323171 -0.010136917 -0.0034369654 0.00455315
000300 f0 95 32 bc 06 1d 6c 3b fe 88 1d bc 3b b4 4f 3b
       -0.010900006 0.0036028042 -0.009615181 0.003169312
000310 c7 dd 59 3b 23 82 29 3b e6 af ff 3b f7 0f 25 3c
       0.0033243762 0.002586492 0.007802951 0.010074607
000320 ee 2e 9a 3b 05 85 0c 3c 92 cd 30 3b d0 98 ef ba
       0.0047053015 0.008576636 0.0026977998 -0.0018279795
000330 97 76 30 bc 1d ab 8f 3a 12 9d c9 3b 8c 66 87 3b
       -0.0107704615 0.001096103 0.0061527574 0.0041320976
000340 ff ce c7 bb a2 26 6d bb 96 6f 6c 3b 5e 94 8e 3b
       -0.006097674 -0.0036186357 0.0036077253 0.004351183
000350 34 3a b7 3b ec 12 39 3c b1 fb c0 3b d9 80 4d bb
       0.005591655 0.011296015 0.005889379 -0.0031357317
000360 7c 0c 88 39 5f f3 45 bc a0 54 dd bb cf 41 88 3b
       0.00025949243 -0.01208195 -0.006754473 0.0041582356
000370 00 ef ed ba ff 83 c0 bb 9f 62 45 3a ad e3 01 bc
       -0.0018152893 -0.00587511 0.00075296493 -0.007927817
000380 11 20 ee ba 61 83 b4 b8 79 30 2b 3b 6f 6f 3f bb
       -0.0018167516 -8.60754e-05 0.0026121421 -0.0029210707
000390 30 09 0a 3c 45 b5 0d bc ed f9 72 3b 03 1f af bb
       0.008425042 -0.008649175 0.0037075237 -0.005344273
0003a0 4d 0a 18 3c a7 72 42 3b ee e1 13 bc 95 d5 38 ba
       0.0092798 0.002967039 -0.009026034 -0.0007050869
0003b0 4b 82 0b bb 14 2a 85 bc d3 4e 0e 3a bc 69 35 3b
       -0.0021287377 -0.016255416 0.0005428616 0.002768143
0003c0 99 de e4 3a 88 c5 8f bb 7f 57 09 3c 9b 17 93 ba
       0.0017461359 -0.004387561 0.008382677 -0.0011222245
0003d0 54 b5 82 bb a6 3e 1d 3b 4f c6 15 3c bd 16 36 3b
       -0.003988901 0.002399364 0.009141519 0.002778455
0003e0 07 74 61 3b f9 c1 b7 3b 11 30 5a 3b 3e 0f a7 3a
       0.0034401433 0.00560784 0.003329281 0.0012745631
0003f0 93 0e 9f bb 7d d2 73 b9 6f a4 37 3b 38 12 ab bb
       -0.0048540323 -0.00023252699 0.0028021594 -0.0052206777

action_model._discrete_distribution.branches.1.bias f4 [3]
000000 17 1d 8a b6 fa 76 9e b8 65 34 db 38
       -4.116107e-06 -7.556188e-05 0.00010452493

action_model._discrete_distribution.branches.1.weight f4 [3, 256]
000000 54 fe 29 3c 20 51 5d ba 64 23 a5 39 29 de da ba
       0.010375578 -0.00084425695 0.0003149762 -0.0016698289
000010 9c 3f 27 3b ac a4 1d bc a0 22 38 bc 09 63 95 3b
       0.0025520092 -0.00962178 -0.011238724 0.004558925
000020 99 ac fc 3b 0a 71 99 ba 87 77 ea ba fb 32 b2 3b
       0.007711005 -0.0011706662 -0.0017888405 0.0054382063
000030 de 6a f6 bb 1a 73 15 3c 8c ba 41 3c 86 3d a0 bb
       -0.007520064 0.009121681 0.011824261 -0.0048901467
000040 c4 18 96 3b 62 49 dd ba 53 2b 04 3b b1 37 ec bb
       0.004580589 -0.0016882832 0.0020167425 -0.0072087874
000050 e6 cf 88 3c 48 6d df bb ff cd 93 3b af d8 1a bc
       0.016700696 -0.0068184473 0.0045106406 -0.009451075
000060 93 7b 94 3b a7 0a 14 3c fd e8 29 ba 6c 6f b1 bb
       0.0045313328 0.009035743 -0.00064815563 -0.005414894
000070 44 79 9e 3b 12 29 f6 bb 58 ab 2a bb 18 5c 30 bb
       0.0048362333 -0.00751222 -0.002604207 -0.002691036
000080 bb 19 2b 3c f7 1e af 3b 4b 10 36 bc 6a c6 2a 3c
       0.010443146 0.0053442675 -0.011112283 0.010423282
000090 dd a3 79 3a 17 2b ad bb 66 db 97 3a ee c3 8e bb
       0.0009523014 -0.0052846777 0.0011585772 -0.0043568527
0000a0 15 63 77 b9 ba 36 fe bb bf c9 2e bb 49 4c a0 bb
       -0.00023592667 -0.0077579888 -0.0026670543 -0.0048919064
0000b0 fb e6 68 bb 78 ff 96 bc ec 32 22 3a c7 cc ed bb
       -0.0035538066 -0.018432364 0.00061873975 -0.0072570774
0000c0 ab b8 c0 3a 49 6a 48 bc 47 c2 b6 bb 48 4d 89 bb
       0.0014703473 -0.012232372 -0.005577359 -0.004190121
0000d0 be ea a2 ba c0 e3 18 3c 79 e8 d4 bb e8 3c 5a 3c
       -0.0012429578 0.009331644 -0.0064974395 0.013320185
0000e0 5a 1c 5b 3a 7a 02 23 3c e7 b0 80 bb 94 9c 74 3b
       0.0008358412 0.009949321 -0.0039273384 0.0037324773
0000f0 07 b8 ac bb 1d fc 04 3c b4 1c 0c bc 59 32 d6 3b
       -0.005270961 0.008116749 -0.008551765 0.0065367636
000100 98 41 87 39 6b 9d ec 3a 65 b3 24 bb 6c e7 b4 3b
       0.00025798078 0.0018052285 -0.0025131342 0.0055207517
000110 8c f0 81 bc 2e 9c f4 bb c6 21 4f 3c 62 0f 45 bb
       -0.015861772 -0.007464907 0.01264233 -0.0030068983
000120 51 26 9b 3b 09 08 3d 3b 39 7d cc bb 3f c7 99 3c
       0.0047347923 0.00288439 -0.0062405136 0.018771766
000130 b2 2a da 3a 72 52 82 3b cb 46 46 bb 75 3e de 3b
       0.0016644804 0.0039771134 -0.0030254598 0.006782348
000140 8a dc 14 3c 68 fe b8 ba f1 9a d5 3a 94 84 43 3b
       0.009085784 -0.0014113905 0.0016296786 0.0029833661
000150 de 73 fa 3a a9 fa 06 bb a6 f3 4a ba f4 98 18 bb
       0.0019108017 -0.0020596182 -0.0007741995 -0.0023284527
000160 f0 a2 57 bb 78 28 a7 3a bb 60 09 3c 45 64 b3 3b
       -0.0032903515 0.001275315 0.008384879 0.0054745995
000170 e5 ca 24 3c c8 44 c6 3b b3 5d 1c bc b0 85 a5 3b
       0.010058139 0.00605068 -0.009543824 0.005051337
000180 cd 03 22 bc ba 41 9f bb 92 cd 4a 3c e0 f9 7b bb
       -0.0098886015 -0.00486013 0.012378113 -0.0038448498
000190 d2 09 a2 3b de 5f be 3b ab 16 01 bb b3 b6 d3 3b
       0.0049450183 0.005809768 -0.001969735 0.0064609884
0001a0 c4 7b b8 3b 8b 20 b8 3b d6 7b b1 3b f5 cd c1 3a
       0.0056299884 0.005619114 0.0054163737 0.0014786111
0001b0 96 8d 24 3c 83 cb de ba dd 6c 86 bb 0c fd 3a bb
       0.010043522 -0.0016997907 -0.004102333 -0.0028532175
0001c0 a3 61 1f 3c d5 49 c2 3b 2a b3 01 3c e5 e5 93 bb
       0.009727868 0.0059292116 0.007916251 -0.0045134895
0001d0 81 37 20 bc cf 51 fa b9 cf eb f3 bb 04 85 ea bb
       -0.009778858 -0.00047744668 -0.007443882 -0.00715697
0001e0 a8 76 c7 3b 32 e4 13 3a 7d 66 60 3a b8 28 c3 bb
       0.006087143 0.0005641609 0.0008560194 -0.005955782
0001f0 f3 12 f1 bb b9 12 50 bb e2 76 30 bc 3e de 59 39
       -0.0073569953 -0.003174944 -0.010770531 0.00020777524
000200 ef 01 1c bc 10 7e a0 bb 96 bc 99 ba bc f5 fd bb
       -0.009521945 -0.0048978403 -0.0011729177 -0.007750241
000210 73 83 bd bb 01 5e db 3b 4d 0f a6 bb cf fc cf 3b
       -0.0057834922 0.0066945557 -0.005067742 0.006347276
000220 08 1d 6a 3b c9 91 05 3c ff 7e 7d 3a a3 13 2b 3b
       0.003572287 0.008152434 0.0009670108 0.0026104234
000230 5d a6 e7 b9 1e c6 09 bc 21 10 fe 3b ae 29 3f bc
       -0.00044183704 -0.008409051 0.0077533876 -0.011667652
000240 3d dd 18 3c 7e 9f 01 3c b1 2c e2 3a 33 9d a8 b8
       0.009330091 0.007911561 0.0017255751 -8.040145e-05
000250 a4 5b 1b 3c fa 7b 37 bb 71 73 4f 3b a0 89 6b 3b
       0.009482298 -0.002799748 0.0031654502 0.0035940185
000260 7d 07 5d 3b 90 bc 91 3b 91 45 53 3b 32 c2 85 3b
       0.0033726387 0.004447527 0.003223751 0.004081988
000270 96 e3 83 bc 29 c3 da ba 52 d6 02 bb 0a 5a 0c bc
       -0.016099732 -0.0016690242 -0.001996417 -0.008566389
000280 50 53 98 bb c5 9d 06 3c 99 c3 ad 3b 32 0b db 3b
       -0.0046486035 0.008216326 0.005302858 0.006684684
000290 ee 8d 43 bb 4b ac 03 3c b7 92 34 bc 7b d4 01 bb
       -0.0029839235 0.008036683 -0.011021308 -0.0019810486
0002a0 c3 e3 d3 3b 8a 8a 14 bb 99 6f 90 3b 53 f3 12 bb
       0.0064663603 -0.0022665584 0.0044078347 -0.0022422865
0002b0 18 3e 05 bc 59 00 58 3b 8b 68 10 bc c6 04 88 ba
       -0.00813248 0.0032959192 -0.0088139875 -0.0010377399
0002c0 a8 f0 64 3c 02 f1 7f bb b5 9b b5 3b a7 ea 8d 3b
       0.013973393 -0.0039053564 0.0055422434 0.0043309513
0002d0 97 0b b0 bb 71 6d 2c bc a2 80 16 bb ea be b5 bb
       -0.0053724754 -0.01052414 -0.0022964855 -0.0055464404
0002e0 c5 dc 10 ba 46 3a 9c 3b 93 11 af 3b e7 9a c3 3a
       -0.0005526061 0.004767689 0.005342671 0.0014923484
0002f0 a4 b8 a3 3c f8 08 34 bb 29 a9 47 bb f2 76 1c ba
       0.019985504 -0.0027471166 -0.0030465818 -0.0005968652
000300 a8 7e d8 ba e8 89 63 3a 7f 1c e5 3b f1 b2 d9 3b
       -0.0016517239 0.00086799124 0.0069919224 0.006643646
000310 25 e2 8d 3c 8d 1e a3 3b af 3c 97 3b 98 d5 cc bb
       0.017319748 0.004978007 0.0046153883 -0.0062510483
000320 70 3c ea 3b a8 01 69 3c 85 22 e9 bb 4b 15 3d bb
       0.007148318 0.014221586 -0.0071147108 -0.0028851803
000330 6f 2b b3 3b 64 25 86 3a 95 d1 94 ba 25 54 c1 bb
       0.005467824 0.0010234532 -0.0011353964 -0.0058999234
000340 14 0b c5 ba a9 9c b4 3b 18 ca 07 bb 39 ec 20 3c
       -0.0015033209 0.0055118394 -0.0020719822 0.009821945
000350 3d 6d f5 3a 33 1b 8a 39 c1 66 a9 3b da 8f 10 3b
       0.0018724572 0.00026341676 0.00516972 0.0022058398
000360 e6 87 1a b9 c3 65 1d bc 28 ea 14 bc 6e 48 10 3c
       -0.0001473721 -0.009606781 -0.00908903 0.008806331
000370 5c 89 ec ba 27 73 df 3b eb 40 fe 3a 76 3c c9 bb
       -0.0018046307 0.006819147 0.0019398009 -0.0061412407
000380 bd 84 3a bc de b8 03 3b b6 ae ee 39 40 6e fd 3b
       -0.011384186 0.0020099203 0.00045525067 0.00773409
000390 a6 11 e1 39 5d ac 1c 3a bc 50 02 bb 3b 14 e0 bb
       0.00042928493 0.0005976612 -0.0019884547 -0.006838349
0003a0 2a d7 e1 39 8d ae b3 3b 4f 9d 73 bc 67 fb 80 b9
       0.00043075654 0.0054834546 -0.014869048 -0.00024601372
0003b0 33 61 7f bb 06 65 db 3b f7 b1 2b bc 25 26 00 bc
       -0.0038967847 0.0066953925 -0.010479442 -0.007821594
0003c0 9f ce 90 3b fb 26 6b 3b f3 9a 14 bc d7 79 b6 3a
       0.0044191624 0.0035881388 -0.009070146 0.0013921809
0003d0 a7 2c 29 bc 9e 84 2d bc 76 ee 26 bc bb 80 64 3c
       -0.010325587 -0.0105907 -0.010188689 0.013946707
0003e0 75 d5 36 ba 11 59 06 3b 0e 7e 2e bc 1d f7 e7 ba
       -0.00069745566 0.0020499865 -0.010650171 -0.0017697547
0003f0 85 b9 76 39 be 34 fd ba 38 4c 21 3c ff 7b 06 bc
       0.000235295 -0.0019318087 0.009844832 -0.008208274

discrete_action_output_shape f4 [1, 2]
000000 00 00 40 40 00 00 40 40
       3.0 3.0

network_body._body_endoder.seq_layers.0.bias f4 [256]
000000 87 d2 14 3a 2f 57 25 3a 78 a4 e3 b9 c1 ec 47 39
       0.0005677123 0.0006307242 -0.00043419353 0.00019066317
000010 c6 66 80 b9 76 60 cd b9 4b 1e 0e b9 b0 42 60 3a
       -0.00024490635 -0.00039172516 -0.0001355346 0.0008554859
000020 e1 4b 81 b9 de 7e 3c ba 5a b7 25 ba b8 63 0d ba
       -0.00024661332 -0.00071905355 -0.0006321572 -0.00053935824
000030 2b f9 22 ba 5d 1c 31 38 b9 80 b1 ba 29 76 ce 39
       -0.00062169385 4.2226504e-05 -0.0013542391 0.00039379418
000040 eb 58 fa 39 9f 2b 66 3a 1c e4 b8 b9 20 27 92 b8
       0.00047749965 0.0008780304 -0.0003526517 -6.96911e-05
000050 b0 54 b7 b7 8c 61 69 39 a5 e5 3b 39 62 d8 78 39
       -2.1854736e-05 0.0002225695 0.00017919259 0.00023731732
000060 40 26 37 ba 05 b7 6f 3a 35 d7 c0 b9 34 cb e6 37
       -0.00069865957 0.00091443985 -0.00036781435 2.751276e-05
000070 40 72 86 b9 44 42 2a ba 28 9a 91 ba b9 f6 28 3a
       -0.00025643595 -0.00064948597 -0.0011108564 0.0006445456
000080 76 ee b4 ba 52 43 19 ba 7d ff ab 38 9b 78 a7 b9
       -0.0013803977 -0.00058465183 8.201504e-05 -0.0003194258
000090 b5 71 ba b9 30 aa 0c 3b 71 00 1d 3a 03 95 0d ba
       -0.00035561403 0.0021463744 0.00059891405 -0.00054009276
0000a0 09 ce ec 38 32 f5 32 39 ce 6c bc ba 72 27 9b 3a
       0.00011291734 0.00017066745 -0.0014375688 0.0011837317
0000b0 db 79 a8 ba 3f 38 2e 3a d3 a2 df 39 6c 8e 0e 3a
       -0.0012853699 0.00066459546 0.00042655188 0.00054380926
0000c0 82 e9 a1 3a b2 84 91 3a b9 cc 75 37 3f 1c c6 39
       0.0012352916 0.0011102168 1.4650804e-05 0.00037786548
0000d0 a8 6e 5b b9 d3 eb c4 39 de a6 46 ba 05 17 44 ba
       -0.0002092669 0.00037559736 -0.0007577966 -0.0007480237
0000e0 aa 84 ec b9 4a 2a 2e 3a a4 26 7f 3a 90 e8 10 ba
       -0.0004511227 0.0006643875 0.0009733236 -0.00055278186
0000f0 89 f8 4a b9 c3 c4 03 3b 55 e4 06 3a 9b bd 34 3a
       -0.00019356808 0.0020106293 0.00051457185 0.00068947085
000100 e7 4c 54 3a 1d 2c 12 3a 00 91 b6 3a 22 37 17 3a
       0.00080986175 0.00055760314 0.0013928711 0.00057684083
000110 56 07 1d 39 c4 90 04 ba d2 18 17 3a 5f c7 6a ba
       0.0001497542 -0.0005056972 0.00057638914 -0.00089561
000120 4c 3f 7f 3a 3d 00 bd 3a 41 75 8f 3a 86 7c 02 3a
       0.000973691 0.0014419627 0.0010944979 0.0004977662
000130 66 11 a0 ba e3 90 ba 39 46 c5 7f 3a d6 1b 48 39
       -0.0012212216 0.00035584634 0.0009756874 0.00019083856
000140 8b b3 12 ba 99 95 a4 3a 4f 3f 47 38 19 f8 af 39
       -0.0005596212 0.0012556791 4.7504258e-05 0.00033563448
000150 18 0b a4 38 46 db 32 b9 23 c0 43 3a d9 04 d1 b9
       7.822196e-05 -0.00017057089 0.000746729 -0.00039867198
000160 b4 03 2a ba fd a5 4a ba 29 1e 3d 3a 3f 2b 9e ba
       -0.0006485537 -0.00077304227 0.0007214272 -0.0012067332
000170 18 2c 8d 3a 7d 2a 0a b9 9f 78 f1 39 9d 2a 84 3a
       0.0010770587 -0.00013176534 0.00046056972 0.00100835
000180 c4 35 88 3a 1e 45 7b b9 31 24 d4 38 90 e0 7b 3a
       0.0010392 -0.00023962974 0.00010115689 0.00096083526
000190 9f ca e4 b9 07 05 78 b8 a6 c1 19 3a a5 ad da 39
       -0.00043638513 -5.913249e-05 0.00058653427 0.00041709575
0001a0 5e d8 85 39 c5 79 46 3a de 92 99 b9 80 24 2b ba
       0.00025528943 0.00075712457 -0.0002929186 -0.0006528571
0001b0 08 4d f8 b8 39 01 bf b9 cb d8 93 3a f9 3d f0 39
       -0.0001183991 -0.0003643127 0.0011279819 0.0004582254
0001c0 05 d1 c6 ba e9 5d 07 ba 10 93 47 b9 ed d0 07 3a
       -0.0015168494 -0.0005163835 -0.00019032904 0.00051809737
0001d0 d4 2f 98 3a fb 7b 33 b9 16 9f 3c b9 f1 9e 83 38
       0.0011610934 -0.00017116957 -0.00017988341 6.276172e-05
0001e0 fb fd 01 ba d8 bd 8f 39 2f 95 93 ba 65 bc 0a 3a
       -0.00049588055 0.0002741653 -0.001125967 0.0005292355
0001f0 c1 50 7a ba 17 9b 03 39 11 80 a9 3a ca 31 34 ba
       -0.00095487764 0.00012550909 0.0012931844 -0.0006873874
000200 1b ba 95 3a 5a 33 4c 3a 57 3f d3 3a 91 d8 d8 39
       0.0011423262 0.00077896344 0.0016116899 0.00041360085
000210 1d 64 87 ba a8 fb 45 3a 42 43 62 3a 84 c1 0c 3a
       -0.0010329519 0.00075524533 0.0008631238 0.0005369412
000220 1c aa 73 39 6c f8 ca 3a 3d 2a 5e ba 7d 3b 4d 3a
       0.00023237657 0.0015485412 -0.0008474922 0.0007828994
000230 01 1f a9 39 f0 6e a3 b9 08 51 dc 38 0b 45 5c 3a
       0.00032257292 -0.00031172438 0.00010505511 0.0008402622
000240 fd bc b8 37 94 ad 05 ba 71 b1 39 3b a7 47 32 3a
       2.2022514e-05 -0.00050994125 0.0028334523 0.0006800838
000250 95 c0 ec 39 22 75 53 b9 d2 ea 47 ba 4e aa d4 b9
       0.00045156913 -0.00020166163 -0.00076262385 -0.00040562678
000260 27 1e 07 ba b6 fe 45 ba d4 d5 d3 39 7b 7d 60 b9
       -0.00051543344 -0.00075529085 0.0004040437 -0.0002140905
000270 6b 7a 6f 39 be 8c 8f 39 88 18 bb 3a 3e 9e a8 39
       0.0002283842 0.00027379947 0.0014274279 0.00032161357
000280 ac 69 33 3a 11 9a 2f 3a 3c 10 47 b9 12 77 8d 3a
       0.00068440544 0.0006698678 -0.00018984167 0.0010792932
000290 01 07 10 ba 31 bb 31 b9 72 04 99 b8 ad c9 ac 39
       -0.0005494208 -0.0001694977 -7.2964365e-05 0.00032956657
0002a0 21 aa 69 3a c2 d9 3f b9 80 20 af b9 32 ad d1 b9
       0.0008913596 -0.000182963 -0.00033402815 -0.00039992627
0002b0 f7 13 58 3a 63 8f ed b9 fe f5 15 3a bd 7d d2 b8
       0.0008242721 -0.00045310994 0.00057205546 -0.00010037001
0002c0 99 02 19 3a 21 f6 81 ba d6 fa a5 b9 06 3e 61 3a
       0.0005836874 -0.0009915271 -0.0003165814 0.0008592311
0002d0 0a 05 25 39 0c 06 8a b9 7b 55 77 38 d7 c0 a8 ba
       0.00015737503 -0.00026325916 5.8969e-05 -0.0012874854
0002e0 4d 71 19 ba c8 2f 5a 3a 4e b4 1a 3b f7 2b b6 38
       -0.000585337 0.000832316 0.0023606005 8.6866254e-05
0002f0 d2 1b 23 3a 59 73 0f 3a 88 b4 fd b8 05 3e d5 39
       0.0006222102 0.0005472205 -0.00012097607 0.00040672734
000300 31 22 ea 39 f1 36 c0 b9 fa c2 6c b9 1b e9 0d 3a
       0.00044657433 -0.00036662028 -0.00022579348 0.00054134586
000310 7c 5b 59 b9 a5 fd a2 3a 17 1b 56 3a a4 a6 d4 b9
       -0.00020728813 0.0012435211 0.0008167489 -0.00040559948
000320 fb 77 09 3a 71 c3 65 3a 63 38 15 ba 7b 09 f8 39
       0.0005244014 0.000876478 -0.0005692301 0.0004730931
000330 2d ce 05 3a 75 e2 9d 39 a4 94 2c 39 ec ad b5 b8
       0.000510427 0.00030114097 0.00016458571 -8.663148e-05
000340 20 94 71 ba f0 35 0d 39 80 2a 96 39 db ab 27 3a
       -0.0009215493 0.00013466901 0.00028641894 0.0006396153
000350 07 b3 2f 39 35 2e 55 3a c7 c7 e2 b9 64 0b e4 b9
       0.00016755993 0.00081321906 -0.00043254925 -0.00043496036
000360 4b 2c 56 3a c7 63 2c ba 1b ab 19 3a 2d c8 d6 b8
       0.00081700523 -0.0006576147 0.00058619835 -0.00010241601
000370 d3 5b 8f 3a 24 20 a1 39 1c 4f 3b 39 ee ee 8f b7
       0.00109374 0.0003073226 0.0001786318 -1.7158189e-05
000380 43 e9 97 37 0e 23 30 3a 57 ba 83 ba 03 26 83 ba
       1.8109224e-05 0.0006719091 -0.001005004 -0.0010005835
000390 c8 6d 8f 3a 70 3c a8 ba da c4 ea 37 aa cf 8b 3a
       0.0010942752 -0.0012835395 2.798664e-05 0.0010666747
0003a0 21 b7 7c 39 07 53 b7 3a 80 d7 9f b9 ce 1e 37 ba
       0.00024100814 0.0013986536 -0.00030487403 -0.0006985486
0003b0 01 ae 82 3a b0 3f e9 38 b5 16 ee 39 35 85 33 39
       0.000997007 0.000111221685 0.00045411816 0.00017120394
0003c0 4f c9 54 39 94 77 41 ba 59 08 05 3a 60 c7 2c ba
       0.00020292889 -0.0007380184 0.0005074791 -0.00065909885
0003d0 ce 4e 43 3a c3 e1 f5 39 15 a0 bd 3a db f6 0a 3b
       0.00074504025 0.00046898247 0.0014467264 0.0021204266
0003e0 73 c6 4e b9 be 79 c6 3a 22 eb 82 3a d2 a6 1e b9
       -0.00019719619 0.0015142483 0.0009988288 -0.000151302
0003f0 f2 82 8d 3a cb c0 41 ba a7 4d 87 33 fe bd 45 3a
       0.0010796471 -0.0007391094 6.300552e-08 0.00075432647

network_body._body_endoder.seq_layers.0.weight f4 [256, 383]
000000 64 4a 80 3d 65 68 22 bd 30 80 d7 3c 41 35 de 39
       0.06264189 -0.03965034 0.026306242 0.00042382817
000010 26 fb 8d bc d9 5a 0c be 25 4c 3f bd 09 21 75 bd
       -0.017331671 -0.1370653 -0.046703476 -0.059845958
000020 78 27 47 3d c0 d4 81 3d f3 ea a7 bc 6d d4 a8 bc
       0.048621625 0.06339407 -0.020497775 -0.020609105
000030 39 ce 36 3c de 28 3f 3c 68 aa 95 3d d9 55 38 3d
       0.011157566 0.011667458 0.07307893 0.045003746
000040 b4 a1 8a bc 56 fb 23 bd a8 1c c9 3d 0c 31 ad bd
       -0.01692281 -0.040034615 0.09819919 -0.084566206
000050 aa ce e1 3d f6 3e 1b bd 11 06 f1 3c aa d5 a0 bd
       0.11025746 -0.03790184 0.029421838 -0.07853253
000060 09 b5 52 3a 95 d6 65 3a 54 10 83 bd d1 c7 57 bd
       0.00080378406 0.0008767632 -0.06399599 -0.052680794
000070 99 c4 1e bc b4 be a6 bc 6b 3a ee 3d b2 a8 0a bd
       -0.009690427 -0.020354606 0.11632236 -0.033852287
000080 fb 0c d9 bb dc da 84 3d e6 3d f8 3b e1 e4 8c 3d
       -0.006623862 0.064870566 0.0075757382 0.06879593
000090 bb 10 34 3d cf fc 52 bc 08 3c 5c 3b a4 59 07 3c
       0.043961268 -0.012877657 0.0033605117 0.008261118
0000a0 27 d4 41 bc e5 c0 34 3d 33 e6 c1 bc fc 06 8f 3d
       -0.011830366 0.04412927 -0.023669338 0.06983754
0000b0 a6 20 02 bd 99 7f 29 bd 25 34 2c 3b 47 84 3d bd
       -0.031769417 -0.041381452 0.0026276198 -0.046268728
0000c0 6b 36 ab 3c 6a 06 9e 3c c7 bf 0f bd 34 31 ef bc
       0.020899972 0.019290168 -0.035095003 -0.029198267
0000d0 fc 72 95 bc ec a1 6b bd c9 73 34 3d 5f 1b f3 3c
       -0.018243305 -0.057527468 0.044055734 0.029676137
0000e0 a6 af b2 bd b0 5a 9d 3d 47 e9 3c 3d 66 c0 1e bd
       -0.087249085 0.07683313 0.046120908 -0.038757704
0000f0 7d 75 92 bd 00 ac 11 3d 8b 39 7c bb f7 ee 4b 3d
       -0.07151315 0.035564423 -0.0038486447 0.04978844
000100 6a 5a 1c bd c4 00 88 bc e5 c9 2e 3d d5 2e 1f bd
       -0.038172163 -0.016601928 0.04267301 -0.038863022
000110 5b a1 0a bd dc 42 09 bb ba b7 ad bc a3 af c4 3c
       -0.033845287 -0.0020944392 -0.021205772 0.024009531
000120 10 86 9c 3d 7b de ca bd dd 8d 98 3c a6 b3 00 3b
       0.07642758 -0.09905716 0.018622333 0.0019638329
000130 09 ff 6e 3c 9b 55 83 3b 54 9e e5 bd 1d 8f 27 bd
       0.014587172 0.0040080077 -0.11211839 -0.040907968
000140 39 92 7b bd 8a ba 85 bd 8c 3b 13 bd 86 be 10 be
       -0.061418746 -0.0652972 -0.03594546 -0.14135179
000150 2c a9 19 3d 3f 88 3a bc 8f 4b 3a 3d b9 18 ea 3c
       0.03751485 -0.011385023 0.045482215 0.028576242
000160 a2 6d c1 3d 9a 93 30 3d 43 55 23 3d 0b 55 a3 3d
       0.09444739 0.043109514 0.039876234 0.07975205
000170 cb 57 2d bd 15 3d e3 3b eb 09 73 bd 60 15 17 3c
       -0.042320054 0.006934772 -0.05933563 0.009221405
000180 ab 70 19 bd 38 18 11 be cf 2c 96 bd 42 9d 6e 3c
       -0.037460964 -0.14169395 -0.07332765 0.01456386
000190 ee 8d 00 bc 13 8f d4 bc 0f 9e fb bc d3 fc 25 bc
       -0.007846339 -0.02594713 -0.030715017 -0.010131079
0001a0 cb ee 6d 3c fd dc c5 3c e9 5a 92 bd ab 58 91 bd
       0.014522265 0.024153227 -0.07146246 -0.0709699
0001b0 8c ce b1 3c 22 10 3d bd de c7 e5 3c d9 b0 33 3c
       0.021704935 -0.046157964 0.028049406 0.010967457
0001c0 1c 8b 67 3d c0 30 da bc 9f cc ae bd 08 e5 f3 bc
       0.05652915 -0.026634574 -0.08535122 -0.029772297
0001d0 94 aa 64 bd 58 04 e2 3a ad 7a 91 3d 6c f9 91 bd
       -0.05582674 0.0017243726 0.07103477 -0.071276516
0001e0 48 c6 73 bc 46 49 f1 bc a8 5e ce bd 73 af f8 3c
       -0.014878817 -0.029453885 -0.10076648 0.030357098
0001f0 b8 31 51 bd 74 a9 4d bd a1 21 a1 3c 41 3d bd bd
       -0.051072806 -0.05021043 0.019669356 -0.09240199
000200 85 4f 8a 3d 2a 3e 60 bd 51 73 0c 3d 84 6f b4 bd
       0.067534484 -0.054746784 0.03428966 -0.088103324
000210 f6 75 e0 bc 0d b8 80 3c 14 7f f4 3b b3 64 82 bd
       -0.027399998 0.015712762 0.007461438 -0.06366863
000220 1a 2d 48 bb 56 3f 2e bd ea 73 54 bd 37 b7 bd bd
       -0.003054446 -0.04254087 -0.051868357 -0.09263461
000230 bf f9 b0 bd 46 17 99 bd 4a fe 89 3c 11 f4 29 39
       -0.08641385 -0.07475142 0.016844887 0.00016208018
000240 94 b4 f6 3c 09 2e 08 bb 5b 5a 6f 3d 16 36 11 3b
       0.030115403 -0.0020779392 0.05843578 0.0022157482
000250 55 5b 9c 3c da a2 a2 bd 10 45 a0 3d 57 53 88 bb
       0.01908652 -0.07941218 0.078256726 -0.0041603255
000260 9e 7f 8c 3c 51 37 b6 ba 3c a4 5a bd dc fb 84 bd
       0.017150696 -0.0013901984 -0.053379282 -0.06493351
000270 19 7a 8e bd 47 e2 90 3d 5a b8 42 3d 6a 22 f7 bb
       -0.06956882 0.07074409 0.047539093 -0.0075419443
000280 ea c6 7a bc c9 13 01 bd 59 51 96 bd a1 fd 13 3d
       -0.015306214 -0.03151301 -0.073397346 0.03613055
000290 29 3c 84 3d f1 93 b3 3d 9c 19 e6 3d 3a 86 2c bb
       0.06456787 0.08768452 0.11235353 -0.0026325122
0002a0 df ff c0 bc 0e cd 97 bb 11 72 41 bc fa 61 fd 3b
       -0.023559509 -0.0046325987 -0.011806981 0.007732627
0002b0 e8 3b 55 bd ae ff 13 bc a1 4d a8 3d 7f 40 d0 bc
       -0.052059084 -0.009033127 0.082179315 -0.02542138
0002c0 7e 33 0b 3d 30 54 03 3c e0 2f b6 3b a3 b0 31 bc
       0.033984654 0.008015677 0.0055599064 -0.010845336
0002d0 40 53 f1 3c 8e d1 d0 bd 12 41 b2 3c 47 9d a9 3c
       0.029458642 -0.101962194 0.021759544 0.020704878
0002e0 9d 38 a5 bc e3 7e 9c 3c ef 4e 96 bd ce dd bd 3c
       -0.020168597 0.019103473 -0.07339274 0.023177054
0002f0 e5 e5 bc 3c 75 61 94 bd 58 98 cd 3d df 1a 7b 3a
       0.023058841 -0.07245151 0.10038823 0.0009578894
000300 e5 6d 54 bd 98 d4 56 bb f8 2e 06 3d 17 4c b3 bc
       -0.051862616 -0.0032780524 0.032759637 -0.021886868
000310 75 fb 97 3d 72 7c 9b 3d f5 e1 11 3d a3 ed 49 bd
       0.074210085 0.075920954 0.03561588 -0.049298894
000320 6d ca 7a bd 05 98 ea bc 04 8a 5e 3d 05 27 41 bd
       -0.061228205 -0.028636942 0.05433084 -0.047156353
000330 d6 66 83 bd e2 8d b2 bc e2 4d 35 3d 0c 88 ca 3c
       -0.06416099 -0.02179617 0.044263728 0.024723075
000340 38 e2 3d 3d 44 30 c5 bc 6d ec 6a bd a3 05 04 3d
       0.046358317 -0.024070866 -0.05735438 0.032231938
000350 e4 22 24 bd 03 c8 d1 3b 94 33 56 bc 13 28 66 bd
       -0.040072337 0.006402017 -0.013073821 -0.05619056
000360 e7 22 8b bb 93 25 e5 3d 06 3b a5 bd de 48 6c 3c
       -0.004246104 0.11188807 -0.080678985 0.01442167
000370 f5 dc 39 3b f7 cd 09 3d f1 7e 29 3b e4 94 cc 3b
       0.002836046 0.03364369 0.0025863016 0.006243335
000380 0d d1 2d 3c 87 d1 38 3d 3c 98 80 bb d4 37 99 bd
       0.010608924 0.045121696 -0.0039243978 -0.074813515
000390 ef ee cf bb 19 7b 0b 3c bc 16 88 bd 82 8c 35 3d
       -0.006345622 0.0085132355 -0.06644961 0.04432345
0003a0 75 44 db 3d 66 33 22 bd 99 c9 ab bb c6 85 22 bc
       0.107064165 -0.0395998 -0.005242538 -0.009919589
0003b0 70 d0 66 bc 20 3f 36 bd d7 2f 0b 3d 88 f9 5e 3c
       -0.014087781 -0.044493794 0.03398117 0.013609298
0003c0 df d7 90 3d 88 4d a9 bd 7e 10 5c bc ba a0 cb 3b
       0.07072424 -0.08266741 -0.013431666 0.0062142285
0003d0 18 da 0f bd 67 63 7d bc f4 0d 57 3d 1b 2c 00 bc
       -0.0351201 -0.015465594 0.05250354 -0.007823016
0003e0 b3 17 96 bd 73 a1 10 bc 3e 0d d3 bc 9e 7e 8b bd
       -0.07328739 -0.008827555 -0.02576315 -0.0681126
0003f0 c3 08 f2 3c 50 17 31 3c d9 e2 dc 3c d0 f6 40 bd
       0.029545194 0.010808781 0.026963638 -0.04711038

network_body._body_endoder.seq_layers.2.bias f4 [256]
000000 f9 48 65 ba 67 25 d3 b8 09 38 10 39 c7 71 6c 3a
       -0.00087465305 -0.00010068231 0.00013753785 0.00090196397
000010 63 72 3f b9 84 c2 09 3a eb 32 f8 39 b2 f0 66 39
       -0.00018257792 0.00052551203 0.00047340183 0.00022024175
000020 57 21 a9 b6 f9 d9 2e ba f3 61 bc b9 3c 84 8f b9
       -5.0404738e-06 -0.00066700537 -0.00035931132 -0.00027373608
000030 f2 17 24 39 ec 09 fc 39 e8 93 07 3a 2b 1e 19 b7
       0.00015649179 0.00048072578 0.0005171881 -9.126535e-06
000040 ec 29 25 39 d5 64 c1 ba 1d 8c d1 b6 cd 31 13 ba
       0.00015751243 -0.0014754782 -6.2449967e-06 -0.0005615026
000050 c5 04 aa b8 07 b0 5f b9 d9 20 a2 39 ff 5e af ba
       -8.10712e-05 -0.00021332513 0.0003092352 -0.0013379751
000060 54 9a b4 ba a5 59 c6 b8 d0 b0 c5 36 ca da a3 39
       -0.0013778904 -9.458073e-05 5.891641e-06 0.00031252793
000070 4b de 54 b8 04 b5 24 39 c4 4c a6 b9 46 6c 87 ba
       -5.0751765e-05 0.00015707692 -0.00031719182 -0.0010331951
000080 be 1a 34 b6 ab ec 0e ba 84 52 b8 b8 af 65 14 3a
       -2.6837656e-06 -0.00054521364 -8.7891734e-05 0.0005660904
000090 c0 2e e0 38 4b c9 da b9 be c7 f4 39 4a 22 6c 3a
       0.0001068986 -0.00041730175 0.00046688126 0.0009007795
0000a0 8c 6a de 3a f0 a9 ad 39 9b 7f ae b9 93 b8 b7 b9
       0.0016969009 0.00033123745 -0.0003328294 -0.00035041998
0000b0 a3 7c 31 3a 5f e0 56 b7 d0 39 a8 39 0c 58 a2 b9
       0.00067705865 -1.2807634e-05 0.0003208653 -0.00030964648
0000c0 49 77 e4 39 a5 9e 06 ba d4 4e 60 b8 54 a6 72 38
       0.00043576423 -0.0005135334 -5.3479176e-05 5.78522e-05
0000d0 6f 41 24 3a 16 49 5a 3a 29 63 72 ba ec 5b dd b9
       0.0006265854 0.00083269307 -0.00092463434 -0.00042220892
0000e0 99 79 26 38 cd 9b c6 b9 e8 ab 52 38 82 a7 8b ba
       3.969073e-05 -0.00037881584 5.0228e-05 -0.001065478
0000f0 b8 51 02 3b b3 d1 59 3a 2a ce 09 b9 eb e4 2c 3a
       0.0019885134 0.00083091407 -0.0001314214 0.0006595391
000100 c3 eb 86 3a 05 41 08 39 02 1b 9b 39 86 d2 00 ba
       0.0010293651 0.00012994192 0.00029584026 -0.0004914183
000110 a3 12 92 ba 55 54 15 bb de dc f3 39 8c 16 85 38
       -0.001114447 -0.0022785862 0.0004651313 6.346134e-05
000120 22 a0 06 38 e8 5e d8 b9 55 f2 92 b8 15 da c4 39
       3.2097225e-05 -0.0004126944 -7.0069604e-05 0.00037546517
000130 75 7c 13 3a 71 75 38 3a e8 19 a7 39 1e c9 4f ba
       0.00056261505 0.0007036543 0.00031872024 -0.0007926392
000140 9f d9 e4 3a 9a cf 61 ba 73 f6 db 38 9b 27 00 b9
       0.0017459876 -0.0008614004 0.000104886385 -0.00012221785
000150 dc a3 04 b9 1d 46 a9 b9 af 19 5b b9 29 4a 82 b9
       -0.00012649543 -0.0003228643 -0.00020895035 -0.00024850786
000160 d8 86 2c 3a 1c b1 46 b9 c4 51 85 b9 3d 11 ce 39
       0.00065813726 -0.0001894873 -0.00025428657 0.00039304225
000170 0e f0 02 3b ee 39 a4 37 bd b9 2e b9 8d 4c ad 3a
       0.001997951 1.95773e-05 -0.00016663126 0.0013221666
000180 df ed 86 3a 19 0d 65 3a 11 35 f8 b9 e3 c1 a1 b9
       0.001029428 0.00087376084 -0.00047341784 -0.0003085277
000190 82 ef 14 bb ce 35 86 b9 79 d4 4b ba 05 08 d1 3a
       -0.0022725766 -0.0002559856 -0.00077754963 0.0015947825
0001a0 cf 1d c1 ba e7 12 12 3a 6d 46 74 39 c1 1f d8 b9
       -0.0014733615 0.00055722747 0.00023295889 -0.0004122239
0001b0 46 72 c9 3a d6 e6 8b b8 3d 32 ba 39 06 7a ee b9
       0.0015369139 -6.671033e-05 0.00035514115 -0.00045485812
0001c0 3a 39 9d b9 e3 35 dd 38 85 fb 9b 37 61 11 91 ba
       -0.0002998801 0.000105481384 1.8594563e-05 -0.0011067801
0001d0 98 c9 df 38 a3 3a c5 38 57 dc d4 b9 de 07 11 39
       0.000106710184 9.404614e-05 -0.00040599957 0.00013831208
0001e0 f9 7f 8f 3a 47 2f ec 37 eb da e1 39 a1 89 04 3a
       0.0010948173 2.8155408e-05 0.0004307845 0.00050559087
0001f0 b7 09 4c ba 5a 3a b4 b9 13 c5 f7 b8 84 eb a9 b9
       -0.000778343 -0.0003437575 -0.00011814586 -0.00032409665
000200 0a 3f 29 38 8c 2e 51 ba 9c 72 1f 3a f2 57 d6 3a
       4.035145e-05 -0.00079796533 0.0006082447 0.0016353114
000210 9d 5e 1c ba e7 0e a6 39 fe bc 31 b9 ce 61 1d 3a
       -0.0005965026 0.0003167309 -0.0001695044 0.0006003649
000220 9f 4d 26 b8 85 c3 04 3b bf fd b6 b9 7e 95 8e ba
       -3.9649774e-05 0.002025814 -0.000349028 -0.0010878292
000230 11 53 ca 3a 04 ee 35 39 ea 17 47 39 c8 ed f4 b7
       0.0015436133 0.00017350173 0.00018987028 -2.9197792e-05
000240 d0 21 b5 ba 0c 67 bc 39 36 4b 2e 39 80 58 0a 3a
       -0.0013819281 0.0003593493 0.00016621951 0.000527747
000250 41 ac 65 b9 e9 d1 8b b8 e2 2b c5 b9 55 13 4c b8
       -0.00021903311 -6.667135e-05 -0.00037607463 -4.8655394e-05
000260 2b db 4e ba 78 9f 56 ba 85 75 ad ba 1a 96 ed 39
       -0.0007890935 -0.0008187215 -0.0013233876 0.00045315997
000270 88 f0 e1 b8 3f 94 6d b9 84 de 5f 3a e8 c6 13 b9
       -0.000107736385 -0.00022657307 0.00085399323 -0.00014093111
000280 ae 98 8b 3a 04 b3 16 3a 0b e4 0b ba 33 3c b4 39
       0.001065036 0.00057487213 -0.000533641 0.00034377127
000290 b2 76 aa b9 61 73 50 39 83 fc cb b8 9a 5c 63 b9
       -0.00032513362 0.00019879408 -9.726828e-05 -0.00021682904
0002a0 db 9d 90 39 fb 48 d5 b8 83 08 14 b9 49 97 34 39
       0.00027583432 -0.00010170225 -0.00014117551 0.00017222496
0002b0 1b 7a 89 b9 96 c2 df b8 f3 6e df b9 92 da a7 3a
       -0.00026221652 -0.00010669713 -0.00042616538 0.0012806228
0002c0 5c db 0d 3a f9 e2 52 3a 1b 67 95 38 c5 1c 90 38
       0.000541141 0.0008044686 7.1240785e-05 6.871814e-05
0002d0 93 ba 21 38 d4 5d 10 3a 1e 41 0e 39 28 a8 84 3a
       3.8559152e-05 0.00055071455 0.00013566433 0.0010120915
0002e0 e2 fe ad b9 a7 fc 1f ba 99 67 3c 3a 86 ca 90 38
       -0.00033187034 -0.0006103017 0.0007187068 6.904178e-05
0002f0 ce 93 9e 39 e1 1b 3e ba 1f c5 9f b9 8f f3 db b9
       0.00030246231 -0.0007252079 -0.0003047371 -0.000419524
000300 dd 47 f0 b9 5c b5 10 3a d5 53 c6 b9 a3 6a 94 3a
       -0.0004582991 0.0005520189 -0.00037827963 0.0011323284
000310 7c b9 41 ba 3f 73 31 3a 83 c6 e7 39 4d c3 e1 b8
       -0.0007390005 0.0006769187 0.00044207656 -0.00010765214
000320 46 d4 0c 3a 5a fa 60 37 5a 24 5a 3a d5 31 31 b9
       0.00053722074 1.340973e-05 0.0008321457 -0.000168986
000330 90 91 f0 39 78 74 c9 b7 4c 43 48 3a 74 4f a8 39
       0.0004588482 -2.4015302e-05 0.00076394225 0.00032102654
000340 eb 81 8d 3a f4 d4 c1 b7 93 47 63 b9 d3 5d 44 39
       0.0010796165 -2.3106557e-05 -0.0002167507 0.00018726969
000350 ea fb 69 39 65 c1 b8 b9 fd 80 c4 39 df 1b e3 3a
       0.00022314457 -0.00035239305 0.00037480137 0.0017327032
000360 09 35 bf 38 c4 72 fd 39 f8 11 b9 b9 02 d2 d2 38
       9.117468e-05 0.00048341427 -0.00035299337 0.00010052697
000370 46 5d a3 39 23 a1 1b b7 6b 63 7d b8 65 77 df 3a
       0.00031159277 -9.2762375e-06 -6.041249e-05 0.0017049132
000380 24 2f 29 39 9f e8 24 ba 25 e6 a5 39 d7 a7 b3 39
       0.00016134657 -0.0006290767 0.00031642723 0.0003426659
000390 fd 03 a4 ba 11 35 f6 3a 2b 34 b5 3a 4d 1f b2 39
       -0.0012513396 0.0018784126 0.0013824751 0.00033974127
0003a0 25 46 48 b9 59 cf 88 b9 18 20 99 3a 4a a5 3c 3a
       -0.00019099617 -0.00026094427 0.0011682538 0.0007196261
0003b0 26 ac 7e b9 b6 20 33 39 94 f8 35 39 cc ee c8 3a
       -0.00024287458 0.00017082956 0.00017354108 0.0015329956
0003c0 11 8c d5 39 43 7b 17 ba 80 bd e9 39 59 4b 66 3a
       0.00040730883 -0.00057785603 0.00044582412 0.00087850314
0003d0 46 4f a8 ba da 88 91 b9 bd 31 73 b9 23 dc 33 3a
       -0.0012841008 -0.00027758518 -0.00023192815 0.0006861111
0003e0 6d bc 16 3a 6f fe ca 35 6d 1b 24 3a 78 28 8e ba
       0.00057501235 1.5124223e-06 0.000626019 -0.0010845801
0003f0 bd db 8e 3a 09 d0 30 3a 91 6c b4 b9 6e 17 43 3a
       0.0010899227 0.0006744867 -0.00034413164 0.0007442151
