Assets/NN/Level2/CharacterBehav.onnx (onnx, 932489 bytes, 15 tensors)

77 f4 [369]
000000 e5 97 89 3d 0a 11 83 3a 0a 11 83 3a 0a 11 83 3a
       0.06718425 0.0009999585 0.0009999585 0.0009999585
000010 05 3d 3f 3d 0a 11 83 3a 0a 11 83 3a a2 99 aa 3d
       0.046689052 0.0009999585 0.0009999585 0.083300844
000020 c6 29 9e 3d 4b 1e 76 3d 0a 11 83 3a 0a 11 83 3a
       0.077228114 0.060087483 0.0009999585 0.0009999585
000030 0a 11 83 3a 4a f8 89 3d 0a 11 83 3a 0a 11 83 3a
       0.0009999585 0.067368105 0.0009999585 0.0009999585
000040 30 e8 15 3e b9 e0 0a 3e 94 3b 81 3d 0a 11 83 3a
       0.14639354 0.13562287 0.06310192 0.0009999585
000050 0a 11 83 3a 0a 11 83 3a 5e 53 3f 3d 0a 11 83 3a
       0.0009999585 0.0009999585 0.046710365 0.0009999585
000060 0a 11 83 3a e0 97 c3 3d df 29 aa 3d 6f 4a 54 3d
       0.0009999585 0.09550452 0.083087675 0.051828798
000070 0a 11 83 3a 0a 11 83 3a 0a 11 83 3a c2 1f ce 3d
       0.0009999585 0.0009999585 0.0009999585 0.10064651
000080 0a 11 83 3a 0a 11 83 3a 9c 36 39 3e 89 85 2b 3e
       0.0009999585 0.0009999585 0.18087238 0.16750158
000090 94 e9 66 3d 0a 11 83 3a 0a 11 83 3a 0a 11 83 3a
       0.0563751 0.0009999585 0.0009999585 0.0009999585
0000a0 7a 1b 3f 3d 0a 11 83 3a 0a 11 83 3a 59 cc f6 3d
       0.046657063 0.0009999585 0.0009999585 0.12050695
0000b0 b2 a4 d1 3d 04 f4 96 3d 0a 11 83 3a 0a 11 83 3a
       0.10236491 0.07370761 0.0009999585 0.0009999585
0000c0 0a 11 83 3a a6 3b 0e 3e 0a 11 83 3a 0a 11 83 3a
       0.0009999585 0.13889942 0.0009999585 0.0009999585
0000d0 c3 c7 69 3e a5 22 57 3e f8 63 68 3d 0a 11 83 3a
       0.2283011 0.2100931 0.056735963 0.0009999585
0000e0 0a 11 83 3a 0a 11 83 3a b9 69 3f 3d 0a 11 83 3a
       0.0009999585 0.0009999585 0.046731684 0.0009999585
0000f0 0a 11 83 3a fa 2a 18 3e 45 55 fc 3d 1e 1c cf 3d
       0.0009999585 0.14860144 0.12320951 0.10112785
000100 0a 11 83 3a 0a 11 83 3a 0a 11 83 3a 47 de 3e 3e
       0.0009999585 0.0009999585 0.0009999585 0.1863948
000110 0a 11 83 3a 0a 11 83 3a 7e 62 91 3e 90 26 85 3e
       0.0009999585 0.0009999585 0.28395456 0.26005983
000120 3c cb 76 3d 0a 11 83 3a 0a 11 83 3a 0a 11 83 3a
       0.060252413 0.0009999585 0.0009999585 0.0009999585
000130 f1 cd 40 3d 0a 11 83 3a 0a 11 83 3a 8c cf 37 3e
       0.0470714 0.0009999585 0.0009999585 0.17950267
000140 f8 c3 13 3e 21 4a d6 3d 0a 11 83 3a 0a 11 83 3a
       0.14430225 0.10463358 0.0009999585 0.0009999585
000150 0a 11 83 3a ab 28 68 3e 0a 11 83 3a 0a 11 83 3a
       0.0009999585 0.22671764 0.0009999585 0.0009999585
000160 94 eb ae 3e 78 02 9a 3e 9e 1e 76 3d 0a 11 83 3a
       0.34164107 0.30080009 0.060087793 0.0009999585
000170 0a 11 83 3a 0a 11 83 3a 1f ab 41 3d 0a 11 83 3a
       0.0009999585 0.0009999585 0.047282334 0.0009999585
000180 0a 11 83 3a e4 4a 65 3e 3b 7a 2b 3e bf cc df 3d
       0.0009999585 0.2239185 0.16745846 0.10927724
000190 0a 11 83 3a 0a 11 83 3a 0a 11 83 3a e2 94 69 3e
       0.0009999585 0.0009999585 0.0009999585 0.228107
0001a0 0a 11 83 3a 0a 11 83 3a b7 d2 d5 3e 6e e7 a2 3e
       0.0009999585 0.0009999585 0.41762325 0.31817192
0001b0 e3 3d 76 3d 0a 11 83 3a 0a 11 83 3a 0a 11 83 3a
       0.060117614 0.0009999585 0.0009999585 0.0009999585
0001c0 ff 20 45 3d 0a 11 83 3a 0a 11 83 3a e8 d2 b2 3e
       0.04812717 0.0009999585 0.0009999585 0.34926534
0001d0 44 8f 52 3e be 6d 18 3e 0a 11 83 3a 0a 11 83 3a
       0.20562464 0.14885613 0.0009999585 0.0009999585
0001e0 0a 11 83 3a 17 24 6c 3e 0a 11 83 3a 0a 11 83 3a
       0.0009999585 0.23060642 0.0009999585 0.0009999585
0001f0 be 4a f6 3e 6d 1c ad 3e ee 69 bd 3d 0a 11 83 3a
       0.481039 0.3381075 0.0924872 0.0009999585
000200 0a 11 83 3a 0a 11 83 3a 46 0e 4d 3d 0a 11 83 3a
       0.0009999585 0.0009999585 0.05006244 0.0009999585
000210 0a 11 83 3a fa f1 f6 3e f9 ee 74 3e dd e0 81 3e
       0.0009999585 0.48231488 0.23919286 0.2536687
000220 0a 11 83 3a 0a 11 83 3a 0a 11 83 3a f8 d8 72 3e
       0.0009999585 0.0009999585 0.0009999585 0.2371558
000230 0a 11 83 3a 0a 11 83 3a ab fe ff 3e e6 75 b6 3e
       0.0009999585 0.0009999585 0.49998984 0.35636824
000240 2d 07 29 3e 0a 11 83 3a 0a 11 83 3a 0a 11 83 3a
       0.16506644 0.0009999585 0.0009999585 0.0009999585
000250 27 c1 5a 3d 0a 11 83 3a 0a 11 83 3a e1 f8 ff 3e
       0.05340686 0.0009999585 0.0009999585 0.49994567
000260 b9 e7 85 3e 4a 2e c0 3e 0a 11 83 3a 0a 11 83 3a
       0.26153353 0.37535316 0.0009999585 0.0009999585
000270 0a 11 83 3a e5 cf 86 3e 0a 11 83 3a 0a 11 83 3a
       0.0009999585 0.26330486 0.0009999585 0.0009999585
000280 a3 bd f4 3e 04 17 b6 3e 02 48 b4 3e 0a 11 83 3a
       0.4780093 0.35564435 0.35211188 0.0009999585
000290 0a 11 83 3a 0a 11 83 3a ff 1b 87 3d 0a 11 83 3a
       0.0009999585 0.0009999585 0.06597137 0.0009999585
0002a0 0a 11 83 3a 4a 5f f4 3e a7 0e 91 3e 5e eb c3 3e
       0.0009999585 0.4772895 0.2833149 0.38265508
0002b0 0a 11 83 3a 0a 11 83 3a 0a 11 83 3a f6 81 e3 3e
       0.0009999585 0.0009999585 0.0009999585 0.4443509
0002c0 0a 11 83 3a 0a 11 83 3a 8f 2e b1 3e e0 b1 9f 3e
       0.0009999585 0.0009999585 0.34605834 0.31190395
0002d0 ac 40 b3 3e 0a 11 83 3a 0a 11 83 3a 0a 11 83 3a
       0.35010278 0.0009999585 0.0009999585 0.0009999585
0002e0 7d f6 c0 3e 0a 11 83 3a 0a 11 83 3a b4 8e b9 3e
       0.37688056 0.0009999585 0.0009999585 0.36241686
0002f0 f8 92 89 3e 13 b3 c6 3e 0a 11 83 3a 0a 11 83 3a
       0.2686994 0.38808498 0.0009999585 0.0009999585
000300 0a 11 83 3a e1 36 af 3e 0a 11 83 3a 0a 11 83 3a
       0.0009999585 0.34221557 0.0009999585 0.0009999585
000310 27 5d 5c 3e e9 19 93 3e ee d5 c3 3e 0a 11 83 3a
       0.2151991 0.28730705 0.38249153 0.0009999585
000320 0a 11 83 3a 0a 11 83 3a 45 19 43 3e 0a 11 83 3a
       0.0009999585 0.0009999585 0.19052608 0.0009999585
000330 0a 11 83 3a e7 d1 69 3e 9a 00 97 3e aa 95 b3 3e
       0.0009999585 0.22833978 0.29492646 0.35075122
000340 0a 11 83 3a 0a 11 83 3a 0a 11 83 3a ee cf 96 3e
       0.0009999585 0.0009999585 0.0009999585 0.29455513
000350 0a 11 83 3a 0a 11 83 3a 95 c7 d9 3d 92 be 7f 3e
       0.0009999585 0.0009999585 0.106337704 0.2497504
000360 fb c6 9e 3e 0a 11 83 3a 0a 11 83 3a 0a 11 83 3a
       0.31011185 0.0009999585 0.0009999585 0.0009999585
000370 4b b3 10 3e 0a 11 83 3a 0a 11 83 3a c4 2d d3 3d
       0.14130895 0.0009999585 0.0009999585 0.103114635
000380 55 e9 84 3e ec 05 a5 3e 0a 11 83 3a 0a 11 83 3a
       0.25959268 0.3223108 0.0009999585 0.0009999585
000390 0a 11 83 3a 8f 07 98 3e 0a 11 83 3a 0a 11 83 3a
       0.0009999585 0.29693267 0.0009999585 0.0009999585
0003a0 25 1d 4e 3d aa e1 55 3e 59 70 96 3e 0a 11 83 3a
       0.050320763 0.20886865 0.2938259 0.0009999585
0003b0 0a 11 83 3a 0a 11 83 3a a7 32 29 3e 0a 11 83 3a
       0.0009999585 0.0009999585 0.16523229 0.0009999585
0003c0 0a 11 83 3a a5 60 2f 3d c1 8b 57 3e cc e1 8d 3e
       0.0009999585 0.042816777 0.21049406 0.27711332
0003d0 0a 11 83 3a 0a 11 83 3a 0a 11 83 3a f1 7f 95 3e
       0.0009999585 0.0009999585 0.0009999585 0.29199174
0003e0 0a 11 83 3a 0a 11 83 3a 7d 6c 10 3d 03 79 32 3e
       0.0009999585 0.0009999585 0.035259712 0.17428975
0003f0 25 8b 79 3e 0a 11 83 3a 0a 11 83 3a 0a 11 83 3a
       0.24369486 0.0009999585 0.0009999585 0.0009999585

80 f4 [14]
000000 89 9d 4b 40 99 6e 0c 40 0a 11 83 3a 2d b9 65 3f
       3.1814902 2.1942503 0.0009999585 0.8973568
000010 b2 cf 36 3f b4 2c ec 3f 0a 11 83 3a 18 fd 48 40
       0.7141067 1.8451142 0.0009999585 3.1404476
000020 c6 c5 0d 40 0a 11 83 3a 67 02 65 3f 06 57 9e 3b
       2.2151961 0.0009999585 0.8945679 0.0048321513
000030 33 c5 48 3c 0a 11 83 3a
       0.012254047 0.0009999585

action_model._discrete_distribution.branches.0.bias f4 [3]
000000 b6 36 0e bb a0 2f 6c 3c 00 6a 68 bc
       -0.002170009 0.014415652 -0.014185429

action_model._discrete_distribution.branches.0.weight f4 [3, 256]
000000 2d fa 44 3b 43 75 a1 bc 25 d5 eb 3b a1 6f c1 bb
       0.0030056343 -0.019709235 0.0071970397 -0.0059032
000010 6d 7b 16 3b d2 30 94 3b f5 a3 68 bc 17 2e cc bb
       0.002296175 0.0045224214 -0.014199247 -0.0062310803
000020 de 49 9b bb 22 46 72 bc 0b 91 09 bc d6 fd 75 3b
       -0.0047390303 -0.014787229 -0.008396397 0.0037535331
000030 a3 e5 72 bc 6b 69 5e bc 3b 75 40 3c b7 6a d5 3a
       -0.0148252575 -0.013574938 0.0117467 0.0016282414
000040 86 49 91 bc 68 a5 4e 3c 4a c8 df 3b e0 20 c6 3c
       -0.017735254 0.012612678 0.0068292962 0.024185598
000050 93 92 51 3b 54 a3 0a 3c 3f 7f 97 3c 04 09 8e bb
       0.0031978234 0.008461792 0.018493293 -0.004334571
000060 cc f0 f1 3a ca 43 97 bb 9d 48 1f bc 85 b3 8b bc
       0.0018458604 -0.0046162354 -0.009721902 -0.017053375
000070 4c 07 a0 3c 8b c4 83 bb f5 21 29 3c ea 27 cb bb
       0.01953473 -0.0040212325 0.010323037 -0.0061998265
000080 e8 6e ad bb a9 5d c0 bc 0a a4 ef 3c ee b0 c1 3b
       -0.005292762 -0.02348216 0.029253025 0.0059109842
000090 40 7a 83 bc 66 09 23 3c 5e 12 9c 3c d1 b8 61 3c
       -0.016049504 0.009950971 0.019051727 0.013776974
0000a0 cb 49 dd b8 08 22 90 bc 26 75 95 bc c3 6a 1c 3c
       -0.00010551846 -0.017594352 -0.018244337 0.009546938
0000b0 b3 59 4f 3c 7c 02 82 3c 49 e1 6b bc a8 af 5a 3c
       0.012655663 0.015870325 -0.014396974 0.013347544
0000c0 39 14 96 3b 56 98 64 bc 3b 42 43 bc cc 76 bb bb
       0.0045800474 -0.013952335 -0.011917646 -0.005720949
0000d0 f9 bb 41 3c 5f 9a f9 bb bb b3 5e bb e5 45 80 bc
       0.011824601 -0.0076172794 -0.003398164 -0.015658328
0000e0 d3 62 14 3c 53 f4 14 3c 64 df ab bc 07 17 ef bb
       0.009056765 0.009091455 -0.020980544 -0.0072964462
0000f0 09 68 b1 bc b6 3c 20 3c 23 21 3a bc 99 65 87 3c
       -0.021656053 0.0097801 -0.0113604395 0.016527938
000100 68 f1 bd bc db b2 9b 3b 04 76 9d bc 03 a0 73 bc
       -0.0231864 0.004751546 -0.019221313 -0.014869693
000110 25 38 61 3c b9 9e 02 3c a2 95 b7 3c 57 82 96 3c
       0.013746296 0.007972413 0.022410218 0.018372698
000120 96 2d f3 3b 3e 4f c4 bc ab 96 50 bc 4e 90 87 3c
       0.0074212058 -0.023963567 -0.012731235 0.016548302
000130 a3 88 04 bc 63 47 1b 3c 26 3b 63 ba a3 4b 56 3c
       -0.008089217 0.009477469 -0.00086681766 0.013079557
000140 b3 6d 14 bc 06 0b fb bb dc a3 eb 3a 4a 13 77 bc
       -0.009059357 -0.007661226 0.0017977911 -0.015080282
000150 66 23 86 bc 1f e6 a2 3c 0d 2b 57 3c 4a 57 8e bc
       -0.016374301 0.01988512 0.013132823 -0.017375607
000160 fb 7e b9 bc 9c fa 84 38 d3 6e 07 bb 04 5e a7 3a
       -0.022643557 6.34093e-05 -0.0020665422 0.0012769108
000170 87 ae cd bb 5f ac a1 bc 1c 42 80 bc b7 7d 60 bc
       -0.006276909 -0.019735513 -0.015656523 -0.013701848
000180 31 e4 6f bc 8a 6e e6 bb 39 64 bb bb 9d 5c 7a 3b
       -0.014641807 -0.0070322203 -0.0057187346 0.0038202174
000190 c9 96 be bb 14 29 b2 bc 8b 16 60 bc 59 bb 08 bc
       -0.005816315 -0.021748103 -0.01367725 -0.008345448
0001a0 9e 92 c7 3c e2 6a ae bb c0 0f 74 bc f8 69 2f bc
       0.024361905 -0.0053228 -0.014896333 -0.010706417
0001b0 2a d1 e7 bc 08 bf 80 3c 5f 41 eb 3b 1b 9e 45 3c
       -0.02829798 0.01571609 0.0071794237 0.012061621
0001c0 a6 48 fc bb 71 0d be bc 80 77 72 3c 6e f5 2f bc
       -0.00769909 -0.023199769 0.014798999 -0.010739667
0001d0 8d 9c 03 bc 97 d2 6c bc 5d cd 42 3b 92 90 70 bc
       -0.00803293 -0.014454505 0.0029724457 -0.014682906
0001e0 f1 9a 1b bc e3 4a 05 bc a5 ff 61 bc c5 67 87 bc
       -0.00949739 -0.00813553 -0.013793861 -0.016528973
0001f0 8f c2 b5 3b 62 a3 ef bb 31 87 08 3c 26 73 c7 bb
       0.005546875 -0.007313178 0.008333013 -0.006086725
000200 7e 23 fa 3b bd 5c 25 3c e9 46 4e bb 5b ec 1c 3b
       0.0076336255 0.010092911 -0.0031475371 0.002394459
000210 04 e9 83 bc 3b 73 6b 3b 79 d2 56 bc e8 2d 08 bc
       -0.016102321 0.0035926837 -0.013111704 -0.008311726
000220 6a 95 45 bc bf 50 2a 3b 22 97 3b bc 20 87 5c bc
       -0.012059549 0.002598807 -0.011449607 -0.013459951
000230 af 3d 0c 3c 0e 23 2e 3c 59 35 01 bc 0f 2e 9a bc
       0.008559628 0.010628475 -0.007886254 -0.01882079
000240 87 74 11 bc a9 2d 20 3c 08 cd 3d bc 94 38 ed bb
       -0.00887788 0.009776511 -0.011584528 -0.0072394107
000250 ea 33 b8 bc 7f c8 1c bc 83 ac fa 3b 4a d8 74 3a
       -0.022485692 -0.009569286 0.0076499595 0.0009340091
000260 2a b3 d1 38 b2 71 b3 39 6d 9d 27 3d 95 76 8d bc
       9.9992685e-05 0.0003422625 0.040921617 -0.017268458
000270 51 29 d0 bb 4e fd df ba bf dc da 3a ee 1e 25 3c
       -0.0063525815 -0.001708904 0.0016697868 0.010078175
000280 41 47 64 3c bc fa 59 bc 9f 82 bd bb 6a cf dc ba
       0.013933004 -0.013304409 -0.0057833935 -0.0016846482
000290 9a b4 69 bb f7 ef 30 3c 3f 74 db bb 99 70 6d 3c
       -0.0035660625 0.0107994 -0.006697207 0.014492177
0002a0 b9 52 8f 3b dd 5b a0 3b a6 1a f5 bb ba f3 4a 3c
       0.004373875 0.0048937635 -0.0074799834 0.0123872105
0002b0 c5 d5 19 bb 55 49 f1 3b f3 08 9d 39 59 a1 86 bb
       -0.0023473364 0.007363478 0.0002995204 -0.0041085896
0002c0 d4 bf b4 bb 43 7e c9 3c 1e cd 1e 39 cf ec 49 b9
       -0.0055160318 0.02459634 0.00015144466 -0.00019257072
0002d0 6d 4b 8e 3c af 64 40 bc 42 e3 3d 3c 69 2c 82 3c
       0.01736995 -0.011742755 0.011589827 0.015890317
0002e0 59 ab 4e bc ea 0d 51 bc f3 1f 5d 3c 24 2b 7a ba
       -0.012614095 -0.012759665 0.013496387 -0.00095431716
0002f0 d1 89 9c bc 84 b6 86 bc 93 e7 39 3c 85 dc 94 bc
       -0.019108685 -0.016444452 0.0113467155 -0.018171558
000300 e4 85 31 3c bc ec e5 3b 33 da 53 b9 63 13 76 bc
       0.010835145 0.0070167463 -0.00020203814 -0.015019271
000310 65 ea 3f 3c 09 c6 26 ba 50 68 a7 bc 2c 2b 05 3c
       0.011713599 -0.0006361907 -0.020435482 0.008127969
000320 d4 a2 3f 3c f5 72 74 3c 8d 35 16 bc 7d b8 34 bc
       0.011696536 0.014919986 -0.009168041 -0.011030314
000330 04 59 49 3c 25 d1 68 3b 49 78 17 bc d9 8c 31 bb
       0.012289289 0.003552505 -0.009244987 -0.0027092008
000340 a5 c7 26 bc 82 27 80 3c 36 94 db bb e6 5c 63 3b
       -0.010179435 0.015643839 -0.0067010177 0.0034692823
000350 58 16 b7 bc 03 8e e2 ba 1c 24 1b bc 59 51 fa bb
       -0.022349522 -0.0017284754 -0.009469058 -0.007639092
000360 23 69 4e bc c7 f3 31 bb 94 b6 4e bc 22 0c 06 bc
       -0.012598309 -0.002715336 -0.012616772 -0.008181604
000370 db 9d d5 3b d7 33 20 bc 67 0a 8e 3c 20 a8 73 bc
       0.006519062 -0.009777985 0.017338945 -0.014871627
000380 d5 f6 91 bb 3d 4a d8 bc 8f 4c 18 bc cf 71 1d bc
       -0.0044544735 -0.026402587 -0.009295597 -0.009609654
000390 26 c2 04 3c cc 57 7e bc a0 6c ef bb 71 f1 83 3b
       0.008102929 -0.015523862 -0.0073066503 0.004026585
0003a0 3c bf 98 bc 23 a7 8e bc 5c 06 cf 3c fc 20 88 bc
       -0.018645875 -0.017413681 0.025271587 -0.01661729
0003b0 16 22 96 bc 0c 9e 60 bc be d4 62 bc cc c6 56 3c
       -0.0183268 -0.013709556 -0.013844667 0.01310892
0003c0 d1 ca 21 3c 14 42 cd 3a 30 17 c5 bc 6f 9c 22 bc
       0.009875015 0.0015659952 -0.024058908 -0.009924992
0003d0 27 23 2e 3c 90 e6 29 bc e2 85 01 bb 2a 0c c7 bb
       0.010628498 -0.010369912 -0.0019763638 -0.006074448
0003e0 5a 01 3f bc a1 c7 51 3c 5a fe 93 bc ef c9 c3 3b
       -0.011658037 0.012803943 -0.01806562 0.005975
0003f0 8e 03 28 3c 89 b3 ba 3b ea e6 79 3a f8 05 2c bc
       0.010254754 0.005697672 0.0009533005 -0.01049947

action_model._discrete_distribution.branches.1.bias f4 [3]
000000 9a 2d e1 3a 10 ac eb bb 25 33 c1 3b
       0.0017179728 -0.0071921423 0.0058959895

action_model._discrete_distribution.branches.1.weight f4 [3, 256]
000000 19 f3 2f 3b 4b dd 5a bc c1 d0 c4 3a ef a3 87 bc
       0.0026847778 -0.013358424 0.0015015827 -0.016557662
000010 82 2c 02 3c b5 75 a1 bb bf fa 67 bc 8f 97 3c 3b
       0.007945182 -0.004927362 -0.014158904 0.002877686
000020 77 05 f5 39 e1 15 85 bb 9b 4a de bb 0f e0 a8 3b
       0.00046734113 -0.004061446 -0.006783796 0.005153663
000030 4f 42 eb 3b 7d 23 4c bc d7 a5 8a bc 3f 08 c6 bb
       0.0071795355 -0.012459633 -0.016924782 -0.0060434635
000040 85 97 99 ba 5a 73 56 ba a9 09 24 bc 7e 1c 34 3b
       -0.001171813 -0.0008180641 -0.010012069 0.0027482803
000050 f6 ea d1 bb cc 3a fd ba ed 76 ee 3b 10 2a 4b bc
       -0.0064061834 -0.0019319891 0.0072773607 -0.012400165
000060 21 03 0e 3b 1d 63 83 3b 56 e5 8f bc ec f5 42 3b
       0.0021669345 0.004009618 -0.01756541 0.0029748632
000070 a2 be 92 b9 67 86 7f 3b ac 21 7a bb 61 86 30 bc
       -0.00027989323 0.0038990022 -0.0038167043 -0.010774226
000080 80 73 3e 3b c3 79 5d bb 47 a9 27 bc 0c 36 67 bb
       0.0029060543 -0.00337945 -0.01023323 -0.0035280017
000090 52 fa 20 3b 44 3e 51 39 12 3a e9 3a e2 62 b5 bb
       0.0024563265 0.00019954989 0.0017793796 -0.0055354694
0000a0 9c ec 5d bc 9f ee fd bb 20 b5 9f 3b 1f 56 52 3a
       -0.013545182 -0.007749393 0.0048738867 0.00080236973
0000b0 a9 9a 3c ba 94 9e 05 3c 7a b0 83 ba a4 39 d3 3a
       -0.0007194677 0.008155484 -0.0010047101 0.0016115201
0000c0 f0 07 98 bc f7 ba 4d bb 35 8c 99 3b 1d 1d 86 3c
       -0.018558472 -0.0031391957 0.0046859034 0.016371304
0000d0 3d 05 48 bc fa 3e bb 3b fd 24 25 bb 56 2d 0f 3a
       -0.01220828 0.0057142945 -0.0025199049 0.00054617727
0000e0 65 5f 33 3b 83 0f 41 3b fd d8 4a bb d9 41 8e bb
       0.0027370092 0.0029458709 -0.003095209 -0.0043413457
0000f0 d9 b3 8a bb 35 2c 97 bb 93 f8 29 bb 3b 46 76 39
       -0.0042328653 -0.004613424 -0.0025935515 0.00023486551
000100 ab 8e 10 3c 78 e9 30 3c a9 91 82 b9 c6 83 c5 bb
       0.008823077 0.010797851 -0.00024904057 -0.0060276715
000110 ff e8 72 bb c4 db 34 bb 3f da d8 3b 9a c1 e3 3b
       -0.0037065146 -0.002759681 0.006617814 0.0069505693
000120 13 5c 82 bb f2 f3 b2 bb f5 a2 c6 bb a6 f6 eb bb
       -0.0039782613 -0.0054612095 -0.0060619065 -0.0072010336
000130 61 7d 12 bc d7 92 bc bb 74 d9 07 3c fc 1c be b8
       -0.0089410255 -0.0057548094 0.008291591 -9.065305e-05
000140 b2 a4 18 bc 2c 19 85 3a 9a d5 32 3b 15 d2 1d bb
       -0.00931661 0.0010154597 0.002728796 -0.0024081517
000150 5c cc 27 bc 98 9d 70 3c 67 13 43 3c 68 f2 a2 bb
       -0.010241594 0.014686011 0.011906481 -0.0049727447
000160 2b 35 cc 3b 49 7d 04 bb 0e e2 a7 bb a7 18 6c bb
       0.006231924 -0.0020216277 -0.0051233834 -0.0036025436
000170 0e 9b a4 bc 3b d6 47 39 55 ee b0 bb 67 a5 82 3b
       -0.020093467 0.00019057926 -0.005399505 0.0039870027
000180 db c8 30 bb 90 4f d5 ba 41 8d 74 bb a7 73 56 bb
       -0.0026975188 -0.0016274322 -0.003731564 -0.0032722743
000190 35 2f 8a bb 85 51 21 bc 00 17 6a bc 08 b8 0a bc
       -0.0042170533 -0.009846096 -0.01428771 -0.008466728
0001a0 3f f1 21 ba fc 4d 11 bc c7 1e 0e 3c f9 f8 c0 3a
       -0.0006177611 -0.008868691 0.00867433 0.0014722637
0001b0 fd 1a 12 bb e9 e9 ca 3c 70 ce 5a bc bd 7e 95 bb
       -0.0022293918 0.02476974 -0.013354883 -0.0045622275
0001c0 8d 7a 3b bb 35 53 32 3a 9f 91 8e bb 04 a5 72 bb
       -0.0028606982 0.000680256 -0.0043508555 -0.0037024627
0001d0 d6 ee 45 bc 7a 84 ae 3b f0 9f ba 3b 04 ae 93 bb
       -0.012080869 0.005325851 0.0056953356 -0.0045068283
0001e0 bf c8 42 3c 1a 5b 79 3c 3c e9 be 3b ba 26 1c 3c
       0.011888682 0.015219474 0.0058261435 0.0095307175
0001f0 07 92 2c bc e7 e3 6d bc 78 4f 2d bc b6 2b 67 bc
       -0.0105328625 -0.014519668 -0.010578029 -0.014109543
000200 d7 1c d6 ba 39 70 25 bb 77 e2 42 bc e7 16 df 3a
       -0.0016335499 -0.0025243892 -0.011894814 0.0017020375
000210 b6 58 1c 3c a1 3a 5a 3b e2 ec 0b 3c c8 b8 97 3b
       0.009542635 0.0033299106 0.008540364 0.004630182
000220 d6 a6 c8 bb c1 e7 e7 bb 92 37 4e 3c 0e 28 29 bc
       -0.006123404 -0.0070771878 0.012586491 -0.010324491
000230 c2 7e 3d b7 ca b7 b6 bb ee c0 ab 3a bb 54 00 bb
       -1.1294791e-05 -0.0055761086 0.0013103762 -0.0019581753
000240 7c 49 d1 3b 3e 7e d2 3b 55 fb dc bb 35 60 25 3c
       0.006386934 0.0064237406 -0.0067438283 0.010093738
000250 8d c4 57 bc a9 8b db 3b bb a8 bf 3b 49 ab 4f 3c
       -0.01316942 0.0066999984 0.0058489717 0.012675115
000260 ee 0b d2 bb 42 ad 78 3c 9a e6 86 3b 1a 02 ff 3b
       -0.0064101135 0.015178027 0.0041168453 0.007782233
000270 56 63 41 bc ec eb 82 bb 1f 30 de bb d7 e9 1e 3c
       -0.011803469 -0.0039954092 -0.006780639 0.009699306
000280 b1 57 61 3a fd 5d 74 bc 16 cc d9 bb 87 59 5b 3b
       0.0008596136 -0.014914987 -0.0066466434 0.003347011
000290 23 6e ff 3b e4 0b d9 3a 66 e7 cd 3b bc 19 37 3c
       0.0077951117 0.001655933 0.0062836884 0.011175569
0002a0 fc 7b 21 3a 7b b2 98 ba 70 77 5b bb 61 30 b9 3b
       0.0006160138 -0.0011649871 -0.0033487938 0.005651519
0002b0 83 0e 66 3b d1 fd 6c bc cc 9c 50 3c a8 12 09 bb
       0.0035103865 -0.014464811 0.012732696 -0.002091566
0002c0 99 54 b1 3a ea 79 ba 3b c6 67 b3 3b 4e 43 af 3b
       0.001352924 0.005690803 0.0054750172 0.0053485995
0002d0 af 9d 1a bc bf fb e6 bb ad fb e0 3b e3 f0 e7 3b
       -0.009437009 -0.0070490534 0.0068659396 0.0070782765
0002e0 89 ee 81 3b c0 d3 b3 3b 9e 18 ef bb 1e e4 6a 3c
       0.003965203 0.005487889 -0.007296636 0.014336614
0002f0 9b c6 ed 3a 2e 76 54 bc d8 85 ca bb 48 c9 54 3b
       0.0018140854 -0.012967629 -0.006180506 0.0032468606
000300 46 c0 b3 3b 8d aa f7 3b 0a 71 2f bc e5 99 8e bc
       0.0054855673 0.007558173 -0.010708103 -0.017407367
000310 21 e1 9e 3b 9c a7 29 bb c6 6c 7e 3a b1 7b 0c bb
       0.004848615 -0.0025887256 0.00097055396 -0.002143603
000320 f1 b7 c3 bb 24 cf fc bb ab e7 09 bc 3e 8f 8c 3c
       -0.0059728553 -0.007715123 -0.00841705 0.017158147
000330 a0 53 83 3c 87 52 c4 bb 59 fd a3 b9 75 77 61 3b
       0.016031086 -0.0059912833 -0.0003127854 0.0034403477
000340 22 c5 89 3b fe cc b0 bb 20 90 7d bb c7 27 a7 bc
       0.0042044083 -0.0053955307 -0.0038690642 -0.02040471
000350 ef c6 c8 3b 92 ef ce bb 3f e7 e5 3b a9 4c 31 3c
       0.0061272304 -0.00631518 0.007016092 0.0108215
000360 3c b3 b8 3b 6f 32 0b 3c f1 e0 e8 3b a8 7c 96 3b
       0.005636601 0.008495911 0.007106893 0.004592497
000370 72 d4 c1 39 d6 2e 6c bb 1e a6 05 bb ea 1f a8 3b
       0.00036970113 -0.0036038659 -0.0020393203 0.0051307576
000380 e4 d6 e5 ba af 45 08 bb f6 d0 fb ba f8 89 fb ba
       -0.0017535356 -0.0020793488 -0.0019212055 -0.0019190898
000390 0d 1c 77 bc 68 70 26 bc 45 e1 25 3c 34 d4 0b 3b
       -0.015082371 -0.010158636 0.010124509 0.00213362
0003a0 ef 41 87 ba 79 b4 61 bc 8b 2f 52 bc 24 81 40 3a
       -0.0010319332 -0.013775938 -0.012828718 0.0007343462
0003b0 c6 83 82 3c a1 e0 82 bc f1 33 06 bc 90 c6 1f 3b
       0.015931975 -0.015976252 -0.008191095 0.0024379827
0003c0 89 9d 10 bc 82 20 51 36 fa 95 58 bc f0 9e 3b 3c
       -0.008826622 3.116235e-06 -0.013219351 0.011451468
0003d0 94 f9 c2 b7 c8 68 05 bc c2 ea 85 bb f3 f1 a4 bb
       -2.3242821e-05 -0.008142658 -0.004086823 -0.0050337254
0003e0 21 d6 66 3a f0 db 4f 3b d8 df 55 b9 75 c8 f6 3b
       0.00088057114 0.0031716786 -0.00020396651 0.0075312206
0003f0 b8 cb 4f bb 05 7e 87 3a 15 55 0d bb 82 2a be bb
       -0.003170712 0.0010337239 -0.0021565605 -0.005803407

discrete_action_output_shape f4 [1, 2]
000000 00 00 40 40 00 00 40 40
       3.0 3.0

network_body._body_endoder.seq_layers.0.bias f4 [256]
000000 28 b5 c7 bb 30 4b 24 3c 53 69 15 3c 00 49 8e bc
       -0.0060945936 0.010027692 0.0091193495 -0.017368793
000010 e2 bd 81 3c 21 1c 99 bb 5f 36 37 bb 26 84 49 bc
       0.015837613 -0.0046725427 -0.0027955992 -0.012299573
000020 a7 44 fc 3c fa 85 39 bb d3 9d 44 bb 7f 15 0b 3c
       0.030794455 -0.0028308616 -0.0030001297 0.008489012
000030 49 41 f9 3b 8a 6c 4e 3c b2 d8 9b 3c c9 2d 0c bc
       0.0076066596 0.01259912 0.019024227 -0.008555838
000040 08 ce c7 bb 1f f6 ab 3c d5 1b e8 3c d2 6a a7 3c
       -0.006097559 0.020991383 0.028333584 0.020436678
000050 a9 28 87 3b f3 64 ef bb c9 68 8e bc b0 01 32 3b
       0.00412472 -0.0073057353 -0.01738395 0.002716165
000060 45 9a a9 3c 1a 00 31 bc 45 a9 80 3c 0e ee a4 bb
       0.020703444 -0.010803247 0.015705714 -0.005033261
000070 12 7e cc 3c 39 c8 87 3c 89 27 ef bb 56 5a 63 bc
       0.024962459 0.016574966 -0.007298414 -0.013876518
000080 7a 2e d4 3c fc 5d 76 3c ec e6 08 3d 0e c4 8b 3c
       0.025901068 0.015037056 0.03342335 0.01706126
000090 da fa d0 3a 48 81 67 bc b1 a1 85 3c f5 7d a4 3c
       0.00159439 -0.014129944 0.016312452 0.020079592
0000a0 af 4c a3 3c d1 c6 0d bb 09 c4 53 bc 56 f4 01 bc
       0.019934027 -0.0021633396 -0.012925156 -0.007931789
0000b0 47 57 8c bb cf 5d 6c 3c 38 72 bb 3c ef bd da 3c
       -0.004282865 0.014426663 0.022881612 0.026701896
0000c0 a8 6d 63 bb 5d 08 a9 3c 67 bd a3 3c 41 06 44 3c
       -0.0034702811 0.02063387 0.019987775 0.011964382
0000d0 a7 fb ff 3b ab 19 48 3b a1 da 78 3c d7 06 eb 3a
       0.0078119817 0.0030532877 0.015188844 0.0017931116
0000e0 7b 3b 8e 3b 22 0c 32 bb 38 53 b3 bb 57 c1 96 3c
       0.0043405867 -0.0027167876 -0.005472567 0.018402738
0000f0 ac 31 48 3c 37 03 97 bc 71 f8 0a 3d 9f 7a 15 3c
       0.012218874 -0.01843415 0.03392834 0.009123473
000100 d2 63 6d 3b 05 41 80 3c d0 7c e8 bb 2c 4f d7 3c
       0.0036222828 0.015656004 -0.007094957 0.02628287
000110 71 3d 90 bc 59 4f 8f bb 3d f5 db 3c b3 41 1c 39
       -0.017607423 -0.0043734726 0.026850337 0.00014901794
000120 bc d6 ce 3c c3 fc 9b 3b 03 f7 86 3a 4c af af 3c
       0.025248878 0.004760356 0.0010297004 0.021445893
000130 ee c5 4d 3c 73 ec 35 bc 31 e7 47 bc 27 24 9e 3b
       0.012559397 -0.011103737 -0.012201116 0.004826087
000140 a2 01 fb ba 1d 98 65 bc f7 70 ad 3c 91 c2 d9 bb
       -0.0019150267 -0.014013317 0.02117203 -0.0066455086
000150 cc 26 7d bc a5 d2 e6 3b 5a 2c 7e 3c d5 b3 a9 3c
       -0.015451144 0.0070441538 0.015513504 0.020715633
000160 a1 ad 64 3c 67 46 22 3c d0 df c7 3c 00 91 bc 3c
       0.013957412 0.009904481 0.024398714 0.02301836
000170 ac 88 ec ba 7b d3 8c 3c fd fe 0b 3c e6 dd 8b 3c
       -0.0018046102 0.017190685 0.008544681 0.017073583
000180 1a e7 9f 3c 85 35 be 39 b1 7a aa 3c c1 97 82 3c
       0.019519377 0.000362795 0.020810457 0.015941503
000190 1d 04 9b 3c b1 e9 19 39 db a7 10 3d fe 6c 18 3d
       0.01892286 0.00014678274 0.03531633 0.037213318
0001a0 50 bc b1 bc b2 96 4d 3c 2c 35 8e bb cd f5 ed 3b
       -0.02169624 0.012548136 -0.0043398347 0.0072619678
0001b0 37 44 d8 3c 88 11 2f 3c 6a 4e 04 3d 5f 5b 25 3c
       0.026399715 0.010685332 0.032301344 0.010092585
0001c0 1f 0a 9a 3c 56 b9 2c bc 48 75 00 3b 8a ff 46 3c
       0.018803654 -0.010542234 0.0019601155 0.012145886
0001d0 81 dc b5 3c 9c 57 28 bb 0b 8e a3 3c 16 b7 5a bc
       0.022199871 -0.0025686985 0.019965192 -0.013349315
0001e0 c5 e7 30 3c ab 94 57 3c e0 b8 9f 3c b8 04 bc bb
       0.010797446 0.013158004 0.019497335 -0.005737867
0001f0 b8 77 9f bc 8d 71 7f bc fe 08 b5 bc 65 ce 5d 3c
       -0.019466266 -0.015591037 -0.022099014 0.013537978
000200 0c d2 90 bb cb 0a 73 3c c6 86 13 bc 38 d3 b3 3c
       -0.004419571 0.014834116 -0.0090043 0.021951303
000210 5e f6 12 3a 47 85 64 3c 32 82 b9 3c 53 71 b2 3c
       0.00056061696 0.013947791 0.02264509 0.021782553
000220 77 cf c5 3a a8 56 67 bc 8f 92 2d bc 33 38 7d 3c
       0.0015091737 -0.014119782 -0.010594024 0.0154552935
000230 56 b2 26 3c eb 8f c0 3c 2d fe 90 3c 87 c3 e4 bb
       0.010174355 0.023506125 0.017699325 -0.0069813165
000240 a9 b1 88 ba ee 60 08 3d 67 aa 48 bb 0d 98 14 3d
       -0.0010428923 0.033295564 -0.0030619146 0.03627782
000250 b9 29 ac 3a 4f ee 70 3a eb 10 98 3a ed fe 16 3c
       0.0013134993 0.0009190784 0.0011601722 0.0092160525
000260 bd d8 3f bb 72 d6 c7 3a c5 e8 00 bc 3d 05 a9 bb
       -0.0029273473 0.0015246405 -0.007867997 -0.005158095
000270 ad 93 c6 bb 2c e8 11 bc 70 b2 6b 3b f9 26 09 bc
       -0.006060085 -0.008905452 0.0035964511 -0.008371108
000280 95 3a c1 3c 68 e2 01 bb 5e 53 90 3b ec 32 c0 bc
       0.023587504 -0.0019818787 0.0044044694 -0.023461781
000290 14 e0 37 bc 31 51 87 bb d0 f0 56 bb e5 31 d5 3c
       -0.011222858 -0.004129552 -0.0032797344 0.026024768
0002a0 bb 32 46 3c 9c 4c b7 3c 70 a7 ca 3c 5f 4e b1 3c
       0.012097056 0.022375397 0.024738044 0.021643816
0002b0 3b 50 4e bc 7b 53 ac 3c db 78 50 3c 54 05 01 bc
       -0.012592371 0.0210359 0.012724127 -0.0078748055
0002c0 0d 86 f6 bb 50 fe 52 3c 73 84 ad 3b 7c 97 72 3c
       -0.0075233043 0.012878016 0.00529533 0.0148066245
0002d0 e8 92 16 3c bf ca 05 3c 86 0c c0 3b a2 50 6d 3c
       0.009190299 0.008166014 0.005860868 0.014484556
0002e0 95 30 36 ba 77 79 d0 b9 fe 92 18 bc d3 89 95 3c
       -0.00069499883 -0.0003976335 -0.009312389 0.018254196
0002f0 78 c1 b9 3c 80 e0 7a 3b 93 41 93 3c 30 33 12 3d
       0.02267526 0.0038280785 0.017975604 0.035693347
000300 f9 e2 73 3c cf 1c da bb 52 f5 5d 3c 8e ba b8 3c
       0.0148856575 -0.0066562663 0.013547258 0.022549894
000310 63 1a cd 3c 1a be 7e 3b f9 3d b8 3b e5 ba 33 bc
       0.025036996 0.0038870634 0.005622622 -0.010969852
000320 5c 77 0e 3c cf c6 f6 3a ba b5 79 3c 59 a3 ed 3c
       0.00869545 0.001882756 0.015241081 0.029008554
000330 d4 01 c7 3b 94 aa be 3b 59 66 8d 3c e1 14 82 3c
       0.006073216 0.0058186743 0.017260717 0.015879096
000340 e6 e3 34 3b 0e 21 08 bb 56 92 0a 3c dd 9d 69 3c
       0.0027601658 -0.0020771655 0.008457741 0.014258829
000350 6c 0d f6 3c 81 fb e7 3c 30 f9 bd bb 10 4b ab 3b
       0.030035697 0.028318169 -0.0057975277 0.005227454
000360 58 57 4b bc 48 51 c7 ba 7c be 35 bb 06 94 9a 3c
       -0.012410961 -0.0015206719 -0.0027731946 0.018869411
000370 6e 6f 45 3c 15 fd 67 3c 82 38 5e bb a8 f2 8d 3c
       0.012050493 0.014159461 -0.0033908193 0.017327622
000380 44 4c bd 3a 1d 9d 25 3b 11 f1 d3 3a 26 49 df 3b
       0.0014442285 0.0025270649 0.0016169866 0.00681414
000390 ba 8d 03 3d e4 b3 28 3c 83 ca 81 3c 89 06 59 3c
       0.032117583 0.0102967955 0.015843635 0.013246187
0003a0 1f 33 70 ba 1b af e0 3c 44 bb 93 bb ad b6 92 bc
       -0.0009162891 0.027427247 -0.004508408 -0.017909372
0003b0 83 86 d6 3c 13 b9 47 bc be 87 9e bb 2f 25 84 3c
       0.026187187 -0.012190121 -0.004837959 0.016131012
0003c0 33 a5 4b 3c f0 9d 84 3c 99 33 a3 3b 0b 9e 78 3c
       0.012429523 0.016188592 0.004980516 0.015174399
0003d0 6c 64 1a 3c 2a f3 a7 3b 10 50 87 b9 1d 73 93 3a
       0.0094233565 0.005125423 -0.00025808858 0.0011249516
0003e0 8a 61 29 3c 7c 9f 2c bc b1 65 28 ba 87 d3 0f 3d
       0.0103381965 -0.010536071 -0.00064238446 0.035113838
0003f0 9c 81 93 ba 98 7c ac b9 37 46 1c bc 46 08 f7 3c
       -0.0011253837 -0.00032899226 -0.009538225 0.030155312

network_body._body_endoder.seq_layers.0.weight f4 [256, 383]
000000 6c 24 25 3d 58 98 29 3d 6d 18 2e 3d e0 86 87 3d
       0.040317938 0.041405052 0.042503763 0.06617522
000010 73 32 0d bd 00 b8 d8 bc ea cd 18 3c 8d 55 94 3d
       -0.03447194 -0.026454926 0.0093264375 0.0724288
000020 3d bb 9b 3d a2 af 2d 3d 80 44 21 bd 22 75 30 3c
       0.07604072 0.042403825 -0.039371967 0.010770114
000030 af 2c 2d 3d 0f 47 81 3d 62 91 9f 3d f3 b1 c4 3c
       0.04227894 0.063123815 0.077914014 0.024010634
000040 33 25 e1 3b 2f 56 5f 3d 1a 91 02 bd ec 78 8e bc
       0.0068708896 0.05452555 -0.03187666 -0.017391644
000050 d5 47 62 bb 8e 0d a8 bd 92 de 21 3d f8 af f3 bd
       -0.0034527679 -0.0820571 0.0395189 -0.11898798
000060 f5 75 8b 3d 6d db 99 bb 0e 03 62 bc 3c 2d bb 3d
       0.06809608 -0.004695347 -0.013794674 0.09139487
000070 f4 35 e7 bd 3b 01 fe 3c 02 c1 36 3d 2b 23 53 3d
       -0.112895876 0.031006446 0.04461766 0.05154721
000080 00 44 52 bd c9 34 16 3c 7d 73 06 3d 86 2d 2b 3d
       -0.05133438 0.009167858 0.032824982 0.04179146
000090 33 59 05 bd b2 96 60 bd 37 c6 87 bd c1 b9 b7 3d
       -0.03255577 -0.054831214 -0.06629603 0.089709766
0000a0 db 5e 13 bd 27 33 ab 3d a6 eb 20 bd 87 10 67 bc
       -0.035979133 0.08359366 -0.03928723 -0.0141030615
0000b0 0e d1 95 bd 5b 7f fd bd 15 75 04 3d 67 86 cb bc
       -0.07315265 -0.12377807 0.03233822 -0.024844361
0000c0 04 89 c8 3c 17 0d 89 3c fc f4 17 bb 26 7c 76 bd
       0.024479397 0.016729875 -0.0023186794 -0.06017699
0000d0 90 96 e7 bb 91 3c 4e bc 59 89 76 3d fb 7e 9a 3d
       -0.007067509 -0.012587682 0.06018958 0.07543751
0000e0 38 0c 89 bb f2 da 1c bd 0b 51 3d bd 7d 16 68 3d
       -0.004182365 -0.03829474 -0.046219867 0.05666207
0000f0 1c 0f 20 3c 81 c1 27 3c d5 2b 0b bd 8c 14 6e bd
       0.009769227 0.010239006 -0.03397735 -0.058125064
000100 9d 3d fa 3d 9c 1d 01 3d be 3a a5 3c 95 27 bf 3c
       0.12218783 0.03152238 0.020169612 0.023334304
000110 9a a6 0e bd cf 64 cc bc 97 62 6f 3d fa a7 65 bd
       -0.034826852 -0.024950413 0.058443632 -0.056068398
000120 62 c3 f8 3d b9 92 87 bc cb d0 a5 3c 0f ab 2a bd
       0.12146641 -0.016549455 0.020241162 -0.04166704
000130 15 95 99 3c c4 8d 69 bd 1e 2e fa bb fe d9 bc bd
       0.018747846 -0.057019964 -0.007634892 -0.09221266
000140 ef 86 0a bd ec 2b 05 bd 92 39 44 bc 86 3c 3e 3d
       -0.03382009 -0.03251259 -0.011976616 0.04644444
000150 17 03 bd bd e0 d1 9e bb 82 cf 1e bd 5f 44 a9 3b
       -0.09229105 -0.0048467964 -0.038772114 0.005165621
000160 c5 9c 89 3d 35 6e 0e 3d 2d ec df bc 52 d7 2b bd
       0.067193545 0.03477307 -0.027334297 -0.041953392
000170 cc 83 f9 3c 9f d3 6e 3c 58 2b 77 3d 13 c1 7b bc
       0.030458353 0.014576822 0.06034407 -0.015365857
000180 82 76 bf bd cc 83 9d 3b e3 3f 30 bd 06 31 a4 3b
       -0.093487754 0.004806971 -0.043029677 0.005010727
000190 58 27 3f bd c7 45 15 3d 8e 70 c0 bd 68 e4 79 bc
       -0.04666838 0.036443498 -0.09396468 -0.01525221
0001a0 c2 41 82 3d 39 86 03 bd b7 3b 95 3d 97 dd 95 bc
       0.063601986 -0.032110427 0.0728678 -0.018294139
0001b0 6f 74 e5 bd 3e 95 a6 bd 6a 85 04 bd 6d 8f 0e bd
       -0.112038486 -0.081339344 -0.032353796 -0.03480475
0001c0 dc c8 2e 3d 81 25 96 bc 86 06 4a 3a 8f a7 fd bd
       0.042672023 -0.01832843 0.00077066605 -0.12385475
0001d0 83 53 0a 3d 50 bb 9f 3d 98 6d ac bd 15 6d e9 bb
       0.03377105 0.07799399 -0.08419341 -0.0071235993
0001e0 1e cd 88 3d 07 6a d7 3d 46 ba 01 3d 84 77 9a bc
       0.06679748 0.1051827 0.031671785 -0.018855818
0001f0 98 5f cb bd 96 17 a1 3c 76 75 90 3b f9 20 b0 bd
       -0.099303424 0.019664567 0.0044085337 -0.08600039
000200 f9 2d 52 3c d2 a9 24 bd bd 0f bd 3c a6 fe 16 3d
       0.012828344 -0.040201016 0.023078794 0.036863945
000210 72 28 68 bd c0 84 0a bd e6 f5 85 bb 3e 59 6b 3b
       -0.056679197 -0.033818007 -0.0040881513 0.0035911347
000220 c6 cd 88 3d e0 91 08 bd 8f a6 8f 3d 04 cf 0e 3d
       0.06679873 -0.033342242 0.070141904 0.034865394
000230 32 96 35 bc 02 9d 9d 3c 51 17 8b 3d eb 15 c0 3d
       -0.011083173 0.019239906 0.067915566 0.093791805
000240 bd b7 98 bb 4b fb 4d bc 84 69 b2 3d f2 2d 75 bd
       -0.004660575 -0.01257212 0.08711532 -0.05985827
000250 a6 60 c5 b9 52 60 8c 3d 91 a5 8d 3d 36 51 31 bb
       -0.00037646777 0.06854309 0.06916345 -0.0027056462
000260 a0 04 86 3d 5e 9e e7 bd fd 52 0b 3e 6d 02 69 3c
       0.06543851 -0.11309503 0.13605876 0.01422177
000270 0d 1d 85 3b 50 31 85 bd 2e 61 de 3c 92 87 68 bd
       0.004062301 -0.06503546 0.027145948 -0.056769915
000280 ea 22 29 bc 77 a4 96 3d c1 a1 44 bc a0 38 49 3c
       -0.010323266 0.07355588 -0.012001456 0.012281567
000290 28 9d b2 bd ce 25 39 3d 2c 8f a6 bb 39 96 e5 3c
       -0.087213814 0.04520207 -0.0050829854 0.028025733
0002a0 a0 de ba bc 96 3a 19 bd 93 51 72 bd ff c0 b4 3d
       -0.022811234 -0.037409388 -0.059159826 0.088258736
0002b0 23 eb 3f bc 68 b5 a1 3c 66 63 a5 3d a3 11 1f 3c
       -0.011713776 0.019739822 0.08075599 0.009708795
0002c0 10 d2 3c 3d b3 b4 2c bd 16 f3 02 3d 0a fb 1d 3d
       0.04609877 -0.042164516 0.031970106 0.038569488
0002d0 4f 94 7e bd 06 91 95 3d 5f f5 fd bd e1 39 08 3b
       -0.062153157 0.07303052 -0.124003164 0.0020786452
0002e0 88 b0 15 3d e2 de 73 3d df a4 69 3d 1f 0c d1 bc
       0.036545306 0.05953873 0.057042 -0.025518475
0002f0 cc 46 ae 3c 71 43 be 3d 11 8d 86 bc f3 cf 62 3b
       0.021273993 0.09290207 -0.016424688 0.003460881
000300 ed d5 9d bd 5b d7 3f bd b5 81 7c 3c c7 ba 15 3c
       -0.07706819 -0.04683624 0.015411784 0.0091387695
000310 e9 e8 17 bd bf 34 ab 3b d6 67 ee 3b f0 a0 1c bd
       -0.037087355 0.0052247937 0.007275562 -0.03823942
000320 c1 0d 03 bd c7 03 03 3d f6 a0 74 3d 99 86 39 3d
       -0.03199554 0.031986024 0.059723817 0.045294378
000330 93 5b 36 bd fb 0c 0a bc 54 ff f9 bb c8 75 00 3d
       -0.044520926 -0.008425946 -0.0076293144 0.031362325
000340 05 6c 46 bc f4 b8 af 3b ee f8 02 bd b9 72 8a 3d
       -0.012110715 0.0053626243 -0.03197568 0.06760163
000350 e1 1e e7 3c ad 0a ee bc 23 c4 a4 3d c4 af 50 bd
       0.028212966 -0.029057825 0.080452226 -0.050948873
000360 66 64 56 bd 6e 23 c3 bd f5 17 72 3d 7a 95 80 bd
       -0.05234184 -0.09528242 0.05910488 -0.062785104
000370 b9 fa 60 3d 38 e7 7c bc 46 83 16 bc c6 44 3d 3c
       0.054926608 -0.015435986 -0.009186571 0.011552041
000380 12 ba 78 bd ac 2e 80 bd ec 38 9f 3d 16 77 67 bd
       -0.060724325 -0.06258902 0.07774529 -0.056510054
000390 9a 11 f1 bd 06 b7 74 3b 8f 4b 64 bd b0 94 e9 3c
       -0.11770935 0.0037340536 -0.05573612 0.028513283
0003a0 da a4 f4 3c f1 64 23 3a 15 68 41 bd 28 91 ba 3d
       0.029863764 0.0006232998 -0.0472184 0.091097176
0003b0 58 1f 39 3d f3 e0 3b 3d fa 55 f4 3d 43 6c 73 bc
       0.045195907 0.045868825 0.11930461 -0.014857355
0003c0 62 d8 46 bd e4 2c ad bd 9c 66 7b 3d 25 64 b6 bc
       -0.048546202 -0.08455828 0.061377153 -0.02226455
0003d0 95 36 00 bc e7 e8 39 3d e4 06 07 3c 32 3b af 3d
       -0.007825513 0.04538813 0.008241389 0.085562125
0003e0 0b 8a df bd 41 cd 63 bc 18 69 ee 3c f9 5f 4b bc
       -0.109150015 -0.013903917 0.029102847 -0.012413018
0003f0 16 14 a3 bc e2 ce 39 bc 82 34 1c bd 3c 63 85 3c
       -0.019907039 -0.011340829 -0.038136013 0.01628267

network_body._body_endoder.seq_layers.2.bias f4 [256]
000000 34 e3 cd 3c d4 3c 07 3c 69 97 80 3c c9 43 28 bc
       0.025132753 0.008254249 0.015697198 -0.0102700675
000010 1a d1 9a 3b 75 20 5d 3b 32 9c 38 3b c3 65 6c bc
       0.004724634 0.003374127 0.0028169272 -0.014428559
000020 50 b9 02 3d f5 40 95 bb da 8c e1 3c e4 ec 9c 3a
       0.03191501 -0.0045548626 0.027532984 0.0011972454
000030 9f 9c af 3c 39 c2 26 3b 9d 78 1f 3c 72 4d 40 bc
       0.021436987 0.0025445356 0.009733346 -0.011737214
000040 20 91 87 3c b8 d6 b4 3b c4 26 39 3c 4f d7 f9 3c
       0.016548693 0.0055187605 0.011300746 0.030498175
000050 0c 59 cd 3c 85 b0 1b bc ed e0 ca 3c 41 51 bf 3c
       0.025066875 -0.009502535 0.024765456 0.023354175
000060 fb 14 b2 3c e3 e1 c7 bb 08 19 1f 3b 2c 7a 9a 3a
       0.02173852 -0.006099926 0.0024276394 0.0011785678
000070 db e3 d8 3b a1 49 81 3b 29 1c a5 3c ef d8 32 bc
       0.0066189594 0.003945545 0.02015503 -0.010915979
000080 4a 3a fd bb dd b5 94 3c a8 45 22 3c 91 ab b1 3c
       -0.007727896 0.018153125 0.009904303 0.021688255
000090 e1 6b 8e bb d4 00 62 bb e9 83 a3 3c 57 16 16 bc
       -0.0043463563 -0.0034485357 0.01996036 -0.0091606
0000a0 d8 4e 85 bc 64 78 87 3b 39 8c bc 3c 26 50 d5 bb
       -0.016272947 0.0041342247 0.023016082 -0.0065097986
0000b0 52 e9 89 bc 0d f6 d5 3c 04 cd b2 3c 6b f1 c1 3a
       -0.016834889 0.026118303 0.021826275 0.001479668
0000c0 88 54 cb 3c 93 22 a9 bb a6 8d 2c 3c 54 ed ba 3c
       0.024820581 -0.0051615923 0.0105318185 0.022818245
0000d0 61 6d 15 bb 99 38 f6 3c 64 2a 6f 3c a0 38 d0 3a
       -0.002280079 0.030056285 0.014597509 0.0015886016
0000e0 c7 24 c4 3c cd 38 89 3c eb df f5 ba 80 4c d6 3c
       0.023943318 0.016750718 -0.0018758749 0.026159525
0000f0 4d fe f0 bb c2 85 64 bc 4d 6e 09 3b dd 4e 91 bb
       -0.0073545338 -0.013947906 0.0020970285 -0.00443445
000100 54 22 f0 3c 93 fe a0 38 d5 8b 14 3b a4 af 7e 3c
       0.029313244 7.676813e-05 0.0022666354 0.015544806
000110 19 e6 d1 3c b1 f2 b3 3c b7 29 97 3c c3 f3 04 3d
       0.025622414 0.02196631 0.018452508 0.03245903
000120 51 94 74 b8 a2 27 f2 3c 86 b6 da b9 79 f6 44 3c
       -5.8312264e-05 0.029559914 -0.0004171619 0.012021654
000130 9e 52 b3 3c d1 94 62 3b 18 8b 1b bb 3c cc 79 bb
       0.02188998 0.0034573565 -0.002373403 -0.0038116118
000140 f7 5c 81 3c 23 f2 45 bc d7 0d f8 bb 21 3f d6 3c
       0.0157914 -0.012081656 -0.007570009 0.02615315
000150 2a 8d 46 3c 2e 41 39 3c b0 6a be 3c e2 9e 75 3c
       0.012118617 0.011307044 0.023244232 0.014991494
000160 74 7e 1d bb 2e 7a cc 3c e4 4d 33 bc 6d 54 87 bc
       -0.002403167 0.024960604 -0.010943864 -0.01651975
000170 f4 43 b4 3a 5f a2 88 3c 4f 9c 24 39 a8 ea e9 3c
       0.0013753162 0.016678987 0.00015698488 0.028554276
000180 03 ac 32 bb 76 3b a4 bb f2 36 db 3a b0 99 ad ba
       -0.0027263172 -0.005011971 0.0016724749 -0.0013244655
000190 fe 1a 97 bb 89 00 97 bc c5 9a c7 ba 78 0e ab 3c
       -0.004611372 -0.018432872 -0.001522862 0.020880923
0001a0 c1 aa 4d bb dc 48 d1 bb 94 cb 75 3c 14 49 92 3b
       -0.0031382295 -0.0063868593 0.01500215 0.004464278
0001b0 e2 fc 61 bb e6 5b d3 3c f8 1e 57 bc dc 68 1d 3c
       -0.0034483005 0.025800657 -0.013129942 0.00960752
0001c0 7f 35 99 bb e0 cd 92 3c 55 f1 90 3c 97 7f f0 3b
       -0.0046755667 0.017920434 0.017693201 0.0073394286
0001d0 08 08 ef 3c f5 2f d0 bb 9b d1 06 3d 2b dc 03 3d
       0.029178634 -0.006353373 0.03291474 0.03219239
0001e0 5e d2 74 3a 47 15 71 bc 38 d8 67 3c cd 0d 7c 3c
       0.00093392085 -0.014714546 0.014150672 0.01538415
0001f0 7a 0a 9b 3c 92 d0 c2 ba 97 79 7b bc 6c 40 b1 bb
       0.018925894 -0.0014863184 -0.0153488135 -0.005409291
000200 5b d4 23 3b 26 2e 09 3c e2 a6 87 bc 20 7d 21 3b
       0.00249984 0.008372819 -0.016559068 0.002464123
000210 1b f1 22 bc 06 5f a5 bb a8 02 ab bb 7f 09 23 3c
       -0.009945179 -0.005046728 -0.0052188225 0.0099509945
000220 6c f7 a2 3c 8a 1a a8 b9 4f 2c 15 3b 87 c1 88 39
       0.01989337 -0.0003206323 0.0022762006 0.0002608413
000230 1e d6 ac bb 48 15 26 bc 07 05 93 bb 08 d4 a3 3c
       -0.005274548 -0.01013691 -0.0044866833 0.019998565
000240 46 40 4c bb aa d3 f6 bb 17 4f a6 3c 4e 07 a6 3c
       -0.003116624 -0.0075325565 0.020301385 0.020267155
000250 80 d1 53 bb 0b 65 9c bc 8c a3 7d 3c 05 23 de 3a
       -0.0032320917 -0.01909115 0.015480887 0.0016947692
000260 5f b3 66 3c 50 cc fa 3c 72 70 0e 3c 94 87 88 bc
       0.014080851 0.030615002 0.008693801 -0.016666211
000270 5a f3 61 3c 96 9e 41 bb 0a 84 66 3c 9d 1e bf bb
       0.01379093 -0.0029543987 0.0140695665 -0.005832507
000280 08 c5 f3 b8 c4 c6 53 3c 4e fc bf bb 45 6f e7 b9
       -0.00011623843 0.012925807 -0.0058589345 -0.00044142656
000290 7f e3 c7 3a be 06 38 3c c2 e5 f0 3b e7 c2 b5 bb
       0.0015250294 0.011232076 0.007351608 -0.005546916
0002a0 06 0d e7 bb 04 57 07 bb 6e 73 61 3b 47 08 2f 3c
       -0.007051113 -0.002065123 0.0034401077 0.010683126
0002b0 48 1f b3 39 4d 2d 50 3c 4e 00 e0 b9 72 57 79 3b
       0.00034164847 0.012706113 -0.00042724836 0.0038046506
0002c0 0a af 1a bb 8f b5 98 3c ed ad a5 bb 0f aa 28 3c
       -0.0023602867 0.018641261 -0.005056134 0.010294451
0002d0 dc c0 dd 3c 67 e2 54 3c d5 13 95 3c 07 84 13 3c
       0.027069502 0.012993432 0.018197933 0.009003646
0002e0 21 03 18 bc 49 56 69 bc b2 df cc bb 8a 79 a5 3c
       -0.00927809 -0.014241763 -0.0062522525 0.020199556
0002f0 0a e9 16 bc a2 c0 43 bc 16 a4 40 3a a6 98 e7 3c
       -0.009210834 -0.011947783 0.00073486695 0.02827103
000300 bc 6f 85 3c 24 e1 20 bc fd 5c 78 bc 38 36 2d 3c
       0.01628863 -0.009819303 -0.015158889 0.010572009
000310 16 fc fd 3c 29 e0 39 bb 2f 25 91 bc 5f f0 42 bb
       0.031003993 -0.002836237 -0.017717926 -0.0029745323
000320 53 a0 c2 3c 75 dc 75 bc 59 ff b7 3c de 93 57 3c
       0.02375809 -0.015006174 0.022460626 0.013157813
000330 bb 59 46 3c a1 8a 3b 3c 70 70 bd bb 83 2b d9 ba
       0.012106354 0.011446626 -0.005781226 -0.0016568754
000340 66 96 2a bc 34 15 b2 3b 32 42 1b bb e7 fe 46 b9
       -0.010411834 0.0054346565 -0.0023690579 -0.0001897771
000350 a5 6a fa bb b9 30 97 bc e0 e4 b2 bb 35 ee af bc
       -0.0076421076 -0.01845585 -0.005459413 -0.02147589
000360 c2 3d c2 3c b1 0e a8 3c 56 16 93 3b dd f6 c1 3c
       0.023711089 0.020514818 0.0044887466 0.023677284
000370 41 a0 89 3c bf 24 07 bc 78 7d 4c bc 4c a8 04 3d
       0.016800048 -0.008248507 -0.012481086 0.032387063
000380 ee 24 18 3c 6d c9 9a bb 6e 61 34 bc 2d 15 6b bb
       0.0092861485 -0.004723719 -0.011009557 -0.0035870776
000390 88 30 16 bb c1 11 07 bc 52 4e 11 3d 23 8d 47 3c
       -0.002291711 -0.008243979 0.035475083 0.012179646
0003a0 42 27 5b 3c 9c 6e 4c 3b 6f c1 de 3c 8a 23 a1 bc
       0.013376059 0.0031193858 0.027191846 -0.019670267
0003b0 ae 40 8c 3c 6b c1 dc 3c f0 28 c6 3c dd a3 86 bc
       0.017120685 0.026947698 0.024189442 -0.016435558
0003c0 06 0f b9 3c 8d 49 83 3c 11 30 4e 3a 6a d6 61 39
       0.022590172 0.016026283 0.0007865439 0.00021537548
0003d0 65 44 3c 3a 21 20 6a 3b 95 1b 79 bc 51 5e f4 3c
       0.00071818224 0.0035724717 -0.01520433 0.02983013
0003e0 65 3a 6c ba cf dd 2e bb c8 f6 c3 bb 8d 31 d9 3c
       -0.0009011387 -0.0026682501 -0.0059803464 0.026512885
0003f0 d3 93 2b bc 7f 67 27 bc ef f4 d1 3c 91 b7 84 3c
       -0.010472256 -0.0102175465 0.025629489 0.016200813
