Assets/NN/Level1/7_12.onnx (onnx, 268569 bytes, 9 tensors)

action_model._discrete_distribution.branches.0.bias f4 [3]
0	0x3c46f4b2	0.012143301
1	0x3c68c025	0.014205967
2	0xbcdd88a7	-0.0270427

action_model._discrete_distribution.branches.0.weight f4 [3, 128]
0	0xba844bb6	-0.0010093364
1	0xbcc35c58	-0.023847744
2	0x3bccffdc	0.0062560868
3	0xbbb154fc	-0.0054117423
4	0xbc087781	-0.008329273
5	0x3cc0dba9	0.023542242
6	0xbd82aa43	-0.06380131
7	0x3ccefd26	0.025267195
8	0x3c60b0a7	0.013713992
9	0xbd7d2c89	-0.06181005
10	0x3ceafd6d	0.028685296
11	0xbc129ae5	-0.008948063
12	0xbc0578f4	-0.008146513
13	0xbd441965	-0.04787578
14	0x3d051128	0.032487065
15	0xbd08fbcb	-0.033443253
16	0x3cd8202f	0.026382534
17	0xbcb3804d	-0.021911765
18	0x3d34f8e1	0.044182662
19	0x3d0600ec	0.032715723
20	0x3b817b56	0.0039514704
21	0x3cb8a8ec	0.022541486
22	0x3d346fa1	0.04405177
23	0x3b8a1f6d	0.004215172
24	0xbcaa9736	-0.020824056
25	0xbc3f7ecd	-0.0116879465
26	0x3c53d564	0.012929294
27	0x3bb14a53	0.0054104715
28	0x3d6d26f6	0.057898484
29	0xbd0760df	-0.033051368
30	0xbc2f3578	-0.0106939
31	0xbd66c633	-0.05634136
32	0xbcbcfc9f	-0.023069678
33	0xbd74f019	-0.059799287
34	0xbcfca763	-0.030841535
35	0x3caa235b	0.020768812
36	0xbc076c15	-0.008265515
37	0x3c210fc2	0.009830417
38	0x3d185fe8	0.03720084
39	0xbd27d52a	-0.040974773
40	0xbcc91f4d	-0.024551058
41	0xbc084ed6	-0.008319577
42	0x3c987667	0.018611146
43	0xbdb1d2fa	-0.08682819
44	0x3a831981	0.0010002108
45	0xbbff1a26	-0.0077850996
46	0xbc5a45b1	-0.01332228
47	0xbb26f3f7	-0.0025475004
48	0xbb985676	-0.004648979
49	0x3cfd0a03	0.030888563
50	0x3cc0dd77	0.023543103
51	0x3b9bcd81	0.0047547226
52	0x3da98dc4	0.08278993
53	0x3c869cf2	0.01643226
54	0xbdb948d2	-0.090470925
55	0xbc0a2a57	-0.008432946
56	0xbd16054f	-0.036626156
57	0x3cf7e13c	0.030258767
58	0xbc266251	-0.010155276
59	0x3cad2c4e	0.02113929
60	0x3bc7ad46	0.006093654
61	0xbc95d889	-0.018291729
62	0xbd244ab4	-0.040110305
63	0xbbc69452	-0.0060601616
64	0x3c2c67d9	0.010522806
65	0xbc49ff3a	-0.012328917
66	0xbce11d0b	-0.02747967
67	0x3d184ec9	0.03718451
68	0x3c4ca332	0.012490081
69	0xbb906abf	-0.0044072564
70	0x3c1a22e5	0.009407734
71	0xbbb2d76e	-0.00545781
72	0x3d8263d5	0.06366698
73	0x3b6be72b	0.003599594
74	0xbb20363b	-0.0024446386
75	0xbd316d73	-0.04331727
76	0xbc927682	-0.017878775
77	0xbd02b038	-0.031906337
78	0xbcb9de84	-0.022689112
79	0xbd61d045	-0.055130262
80	0xbc19ddce	-0.009391261
81	0xbce445d8	-0.027865335
82	0xbbdac28c	-0.006676024
83	0xbc952a83	-0.018208748
84	0xbc37723b	-0.011196668
85	0xbbc334f8	-0.005957242
86	0xbca2bf0e	-0.019866493
87	0xbd417676	-0.047232114
88	0xbbfe99c4	-0.007769795
89	0x3cb29b51	0.021802576
90	0xbd844a98	-0.0645954
91	0xbbefc98d	-0.007317728
92	0x3cd8724e	0.026421692
93	0x3c8f7b96	0.017514985
94	0xbc730f8d	-0.014835251
95	0x3d4c4cee	0.049878053
96	0xbb375c93	-0.0027978763
97	0xbcec8344	-0.028871186
98	0x3d40ac43	0.04703928
99	0xbb22ec71	-0.0024860168
100	0xbd3071a8	-0.04307714
101	0x3ca67182	0.020317797
102	0x3d395bb4	0.04525347
103	0x3d934f93	0.07192912
104	0x3c99add1	0.01875964
105	0xbd7c60cc	-0.06161575
106	0x3c9f4860	0.01944369
107	0x3bb218ea	0.005435099
108	0xba46f127	-0.0007589035
109	0x3b1848b3	0.0023236691
110	0x3bb8ca9c	0.0056393873
111	0x3ce6a04e	0.028152611
112	0xbca0bb68	-0.019620612
113	0xbc73b71a	-0.014875198
114	0xbc17dc8d	-0.009268892
115	0xbd6a28f7	-0.057167973
116	0x3c7882cd	0.015167904
117	0xbc89d6cf	-0.016826062
118	0x3cb2c7c1	0.021823766
119	0x3d2ae5b8	0.041722983
120	0xbcd55830	-0.026043028
121	0xbd251e39	-0.040312026
122	0xbca9d0f7	-0.020729525
123	0x3bcbca08	0.0062191524
124	0xbdd5296f	-0.104082935
125	0xbb94ff71	-0.0045470526
126	0x3d24b7a9	0.040214214
127	0x3c0f6e65	0.008754347
128	0xbc3c9738	-0.011510663
129	0x3d740514	0.059575155
130	0x3c3da9fa	0.01157617
131	0xbaa83119	-0.0012832015
132	0x3b11c9ce	0.002224553
133	0xbd50ab12	-0.050944395
134	0x3d909daa	0.07061322
135	0xbcc5af9a	-0.024131585
136	0x3b31f071	0.002715137
137	0xbb26cc74	-0.0025451453
138	0xbd0ae108	-0.033906013
139	0xbb31e07b	-0.0027141857
140	0xbcaca79c	-0.021076016
141	0x3dcae727	0.0990737
142	0xbcfab20e	-0.030602481
143	0x3c3e02bd	0.011597333
144	0xbccf1caa	-0.025282223
145	0xbc1669d3	-0.009180504
146	0xbd6ce902	-0.0578394
147	0xbbac7144	-0.0052625258
148	0x3d556af5	0.052103955
149	0x3c6c114c	0.014408421
150	0xbcfa219d	-0.030533606
151	0xbb427725	-0.0029673066
152	0xbc8fa0d5	-0.017532745
153	0x3d265a04	0.04061319
154	0xbcfb8921	-0.030705037
155	0xbd0d1ab0	-0.03444928
156	0xbd3107a1	-0.043220166
157	0x3d31ef39	0.04344103
158	0x3bcd5524	0.006266253
159	0x3dd4f9d8	0.103992164
160	0x3b684672	0.003544238
161	0x3d9fb536	0.07798235
162	0x3d2a0145	0.041505117
163	0xbd5e9ee4	-0.05435075
164	0x3b803977	0.0039131003
165	0xbbc5a058	-0.0060310774
166	0xbca22b4f	-0.019796042
167	0x3d6a460e	0.057195716
168	0x3ca58077	0.020202858
169	0x3d76cf6e	0.060256414
170	0x3c533207	0.012890345
171	0x3da8c519	0.082407184
172	0xbac4575f	-0.0014979652
173	0xbcb3604b	-0.021896502
174	0x3d1b63c0	0.037936926
175	0x3cf2e4de	0.029650148
176	0xbd2f082a	-0.042732395
177	0xbd2017c2	-0.039085157
178	0xbd254ed3	-0.040358376
179	0x3d169827	0.036766198
180	0xbd85ebc4	-0.06539109
181	0x3b3d8c60	0.0028922781
182	0x3e28c183	0.16480069
183	0x3bcd9fbd	0.006275146
184	0x3d643a59	0.055719707
185	0xbce1eb67	-0.027578069
186	0xba963fa7	-0.0011463062
187	0xb8e7b726	-0.000110490524
188	0x3c47962f	0.012181803
189	0x3d0dbbe8	0.03460303
190	0x3d8f6b94	0.07002941
191	0x3ce18794	0.027530469
192	0xbceb729e	-0.028741177
193	0x3d871a01	0.06596757
194	0x3d2cb975	0.042169053
195	0xbc9a411a	-0.018829871
196	0x3c2d8948	0.010591812
197	0xbc760b74	-0.015017379
198	0x3a972653	0.0011531807
199	0x3c6d180f	0.014471068
200	0xbc546491	-0.01296343
201	0x3c6b8381	0.014374615
202	0xbd2a0ace	-0.04151421
203	0x3cdc6973	0.02690575
204	0x3c310eda	0.010806764
205	0x3cff8ef0	0.031196088
206	0x3ce06b02	0.027394775
207	0x3da82b23	0.08211353
208	0x3c70a135	0.014686872
209	0xbcf0d77f	-0.029399632
210	0x3c0c6901	0.008569957
211	0x3c49377c	0.012281295
212	0x3bc55004	0.0060215015
213	0x3ad50e5b	0.0016254889
214	0x3da6eb8e	0.08150397
215	0x3d6be079	0.05758712
216	0x3c2a0791	0.0103777805
217	0xbd734931	-0.059395973
218	0x3db3090c	0.0874196
219	0x3cb1a7ef	0.021686522
220	0xbd9ae115	-0.07562462
221	0xbd1a07be	-0.03760504
222	0x3ce7a995	0.028279105
223	0xbd60ec1e	-0.05491268
224	0xbc47a634	-0.012185622
225	0x3d389145	0.045060415
226	0xbdaf9030	-0.085724235
227	0xbbaace1f	-0.00521256
228	0x3cdbd334	0.026834108
229	0xbd1d1388	-0.038348705
230	0xbd56dfb6	-0.05245944
231	0xbd8cda66	-0.06877594
232	0xbcec6966	-0.028858852
233	0x3dc5ff33	0.09667816
234	0xbd3ee190	-0.046601832
235	0x3c5c53ee	0.013447745
236	0x3b18e9f7	0.0023332813
237	0x3ba1b55d	0.0049349503
238	0x3cbba4d8	0.022905752
239	0xbd21999b	-0.03945313
240	0xbbbfe55e	-0.0058562
241	0x3c912b84	0.017720945
242	0xbc0dfa9f	-0.00866571
243	0x3dbef4b7	0.093240194
244	0xbd258bf1	-0.04041666
245	0xbc9cf650	-0.01916042
246	0xbcb15148	-0.021645203
247	0xbd014c96	-0.03156718
248	0x3c12f353	0.008969146
249	0x3d537050	0.05162078
250	0xbc390ff4	-0.011295307
251	0x3c303f84	0.010757331
252	0x3e072fee	0.13201877
253	0xbc4c4227	-0.012466944
254	0xbd51a1ae	-0.05117958
255	0xbbd5c423	-0.0065236255

action_model._discrete_distribution.branches.1.bias f4 [3]
0	0x3a9bc56c	0.0011884398
1	0x3be96e68	0.007123757
2	0xbbd1b94e	-0.006400264

action_model._discrete_distribution.branches.1.weight f4 [3, 128]
0	0xbc47a9b9	-0.012186461
1	0xbd05d4c0	-0.032673597
2	0x3c6969b4	0.014246393
3	0x3c8aa608	0.016924873
4	0xbbe06980	-0.006848514
5	0x3c5e6428	0.013573684
6	0xbd537469	-0.05162469
7	0xbad13e9c	-0.0015964094
8	0x3bb42e3c	0.0054986756
9	0x3cf54b31	0.02994308
10	0x3bf43df6	0.0074536754
11	0x3cb54a3b	0.022130122
12	0xbd1edaed	-0.038783003
13	0x3be43829	0.0069647026
14	0x3be71c8c	0.0070529636
15	0x3d1e875b	0.038703304
16	0xbd85221a	-0.06500645
17	0x3d85e4f2	0.065378085
18	0xbcec68a2	-0.028858487
19	0x3c00c1d8	0.007858716
20	0xbcb2efcf	-0.021842865
21	0x3c92ce47	0.017920626
22	0xbcce13e3	-0.025155967
23	0x3d159660	0.036520362
24	0xbc0d39eb	-0.008619766
25	0x3bbeba3d	0.005820541
26	0xbca4760d	-0.020075822
27	0xbcf481c0	-0.029847026
28	0xbb8b7b09	-0.0042566103
29	0x3d1b30f2	0.037888475
30	0x3c5cfc81	0.013487936
31	0xbd1fabc3	-0.038982164
32	0x3cb5d95c	0.022198372
33	0x3c6c86f2	0.01443647
34	0xbce59bd5	-0.028028408
35	0xbc179460	-0.009251684
36	0xbc2a429a	-0.010391856
37	0x3b395ec5	0.0028285247
38	0xbce04f3b	-0.02738153
39	0xbc801ccd	-0.015638733
40	0x3cab9bcb	0.020948311
41	0xbbeb32cf	-0.0071776877
42	0x3c4f529d	0.012653974
43	0xbd28a59c	-0.041173562
44	0xbb412136	-0.0029469258
45	0x3c208559	0.009797418
46	0x3d08db6d	0.033412386
47	0x3c72b523	0.014813694
48	0x3c9c9cda	0.019117761
49	0xbd287e81	-0.04113627
50	0xbc84a868	-0.016193584
51	0xbc3cc85f	-0.011522382
52	0xbaf664ba	-0.0018798329
53	0x3c1d7663	0.009610745
54	0xbd4e4b68	-0.05036488
55	0xbc3eab7b	-0.011637564
56	0xbd1cb822	-0.03826154
57	0x3b9ea60a	0.0048415707
58	0xbcacc57c	-0.021090262
59	0xbb802505	-0.003910663
60	0x3c6fb8e6	0.014631486
61	0xbd4cf2a8	-0.050036103
62	0xbc118a45	-0.008883064
63	0xbbc12126	-0.005893844
64	0xbca3a5d7	-0.01997654
65	0x3bc3691c	0.0059634577
66	0xbbe1a701	-0.0068863635
67	0xbd6411d4	-0.055681065
68	0x3c8ea534	0.01741276
69	0xba81ddae	-0.0009907985
70	0x3c2d0a4e	0.010561539
71	0x3d0e60d0	0.034760296
72	0xbc2e364e	-0.010633064
73	0x3c15091a	0.009096408
74	0xbca25644	-0.019816525
75	0xbc0933b6	-0.008374145
76	0xbd06d65e	-0.03291928
77	0xbc48b406	-0.012249952
78	0x3c63f63c	0.013913687
79	0xbca94ec1	-0.020667436
80	0xbd20712e	-0.039170437
81	0x3bbba8a6	0.0057268916
82	0x3c020691	0.007936136
83	0x399e8136	0.00030232378
84	0xbc3b9794	-0.011449713
85	0xba8d45f8	-0.0010778299
86	0x3cbabdee	0.022795644
87	0xbca786a0	-0.020449936
88	0x3c34d14e	0.01103623
89	0x3cb6ef84	0.022331007
90	0x3b4ded16	0.0031421832
91	0xbc3e55d6	-0.011617145
92	0xbcecad0c	-0.028891109
93	0x3c9ccfc5	0.019142041
94	0xbc21aa2a	-0.00986723
95	0xbc950fcb	-0.018196007
96	0x3c6ffa49	0.014647075
97	0xbcce531a	-0.02518611
98	0xbd2e27fc	-0.0425186
99	0x3c7eee23	0.015559706
100	0xbb18e27d	-0.0023328357
101	0x3baec94d	0.0053340555
102	0xbc109c11	-0.008826272
103	0xbd359c2b	-0.044338387
104	0xbd3f5e1f	-0.04672062
105	0xbc1e7533	-0.009671497
106	0xb92470ae	-0.00015682235
107	0xbc370a54	-0.011171896
108	0x3b1155a0	0.002217628
109	0x3c8a0997	0.016850276
110	0x3c44e690	0.012017861
111	0x3cb1e2da	0.021714617
112	0xbd696689	-0.05698255
113	0x3c888fd4	0.016670145
114	0xbc0c440a	-0.008561144
115	0xbcdd6b7e	-0.027028795
116	0xbd24ccfb	-0.040234547
117	0xbcf75352	-0.030191097
118	0xbbaf4d8c	-0.0053498205
119	0xbd21d176	-0.0395064
120	0xbd2cc4e2	-0.04217995
121	0xbce2f5c1	-0.027705075
122	0x3b882ec0	0.0041559637
123	0x3c485d60	0.012229294
124	0x3ba23c1e	0.004951014
125	0x3cefe6a3	0.02928478
126	0x3cdcce00	0.026953697
127	0xbca00d52	-0.019537602
128	0xbd0a7c70	-0.03381008
129	0x3d69c5ef	0.05707353
130	0x3d47945e	0.04872548
131	0xbd26fabc	-0.040766463
132	0x3c58af40	0.013225377
133	0xbc4a075d	-0.012330857
134	0x3cddb28f	0.027062682
135	0xbca9da51	-0.020733984
136	0x3d87444a	0.06604822
137	0xbb8c57e4	-0.0042829383
138	0xbc18121d	-0.009281662
139	0xbcc06dfc	-0.023489945
140	0xbcf987f9	-0.030460345
141	0xbcdc66fc	-0.026904576
142	0xbbab243e	-0.0052228263
143	0xbc5fbfa7	-0.013656533
144	0xbd970927	-0.073747925
145	0xbc9c7181	-0.019097092
146	0x3d1267e0	0.035743594
147	0x3d3ccd43	0.04609419
148	0xbd277a19	-0.040887926
149	0x3c654ec1	0.013995827
150	0x3c8e3d5f	0.017363248
151	0xbc3d9376	-0.011570802
152	0xbc5bff14	-0.013427515
153	0x3d11ac2b	0.035564583
154	0xbc52a0bc	-0.012855705
155	0xbbb70ce1	-0.005586252
156	0x3d042917	0.03226575
157	0xbc910d22	-0.017706458
158	0xbc050250	-0.008118227
159	0x3c9f05ae	0.019411888
160	0xbcadb279	-0.021203266
161	0xbdf52cee	-0.1197146
162	0x3cf33944	0.029690392
163	0xbcb6af36	-0.022300344
164	0x3d8b5318	0.06802958
165	0x3c8ced29	0.01720293
166	0xbb47ca04	-0.00304854
167	0x3c91f3e7	0.017816497
168	0xbd216087	-0.039398696
169	0xbdbd2232	-0.09235038
170	0x3d4a4fcb	0.049392503
171	0x3d9e06b4	0.07716122
172	0xbb9be420	-0.004757419
173	0xbca2ffce	-0.019897368
174	0xbce27d36	-0.027647596
175	0x3d2255c5	0.039632577
176	0xbd029bea	-0.031886972
177	0x3d421ef6	0.047392808
178	0xbb65d5a4	-0.0035069967
179	0xbd10afda	-0.035323955
180	0xbd949c37	-0.07256358
181	0x3c9acde0	0.018896997
182	0x3bc98bc8	0.0061506964
183	0xbd5f432a	-0.054507412
184	0x3d0469c6	0.032327436
185	0xbcc16989	-0.023609893
186	0xbd51e2b5	-0.051241595
187	0x3c9c9217	0.01911263
188	0x3c2e7667	0.0106483465
189	0xbd6a464c	-0.057195947
190	0x3cb0b99d	0.021572882
191	0x3c08f3f3	0.008358943
192	0xbcd21af0	-0.02564761
193	0xbc846225	-0.01616008
194	0xbdef8b12	-0.116964474
195	0x3d2add9f	0.04171526
196	0x3d134b1c	0.0359603
197	0x3b7582ac	0.003746192
198	0x3d181d40	0.03713727
199	0xbd793ac5	-0.060847063
200	0xbd8f7dd3	-0.07006421
201	0xbc8bd0a6	-0.017067265
202	0xbcaaf7f7	-0.020870192
203	0xbd5afccd	-0.053463746
204	0x3cd99eca	0.026564974
205	0xbd5d6267	-0.054048922
206	0xbc4aabac	-0.012370031
207	0x3d157ac1	0.03649402
208	0xbd4a61fc	-0.04940985
209	0xbd6fad7f	-0.05851507
210	0x3d32453f	0.04352307
211	0x3b366cb3	0.0027835786
212	0x3ca08e1d	0.019599015
213	0x3b551f7d	0.003251999
214	0xbd8c1ec9	-0.06841809
215	0x3c335a24	0.010946784
216	0xbc351deb	-0.011054496
217	0x3d6aaaee	0.057291918
218	0xbd2e7f83	-0.042602073
219	0xbc6a1ce8	-0.014289118
220	0xbd5cd65a	-0.05391536
221	0xbcc94968	-0.024571136
222	0x3d18c0ac	0.03729312
223	0xbc8ac6e6	-0.016940545
224	0xbd213aed	-0.039362837
225	0x3c6bcb8f	0.014391794
226	0xbc3a8acb	-0.01138563
227	0xbc34f9bd	-0.01104587
228	0x3b13d601	0.0022557976
229	0x3d0f1d63	0.034940135
230	0x3c187d22	0.009307178
231	0xba34c41a	-0.00068956765
232	0x3c72d3ba	0.014820987
233	0xbbbcd645	-0.0057628476
234	0xba94a350	-0.0011340175
235	0x3c082e73	0.008311856
236	0x3d09db84	0.033656612
237	0x3c951047	0.018196238
238	0x3d228476	0.039677106
239	0xbc8930d2	-0.016746912
240	0xbc01dd53	-0.007926303
241	0x3b8d817c	0.0043184143
242	0x3bf17475	0.007368619
243	0xbda5a6b7	-0.08088439
244	0x3dd8fc2a	0.105949715
245	0xbbe70f9e	-0.0070514223
246	0xbca1bb0e	-0.019742515
247	0x3c45cbae	0.012072487
248	0xbd32b255	-0.043627102
249	0xbba9f790	-0.0051869825
250	0x3c80d53e	0.015726682
251	0x3c9f85af	0.019472925
252	0xbd4e8611	-0.050420824
253	0x3d33f516	0.043934904
254	0x3d5cade3	0.05387677
255	0x3d57e1ea	0.052705683

discrete_action_output_shape f4 [1, 2]
0	0x40400000	3.0
1	0x40400000	3.0

network_body._body_endoder.seq_layers.0.bias f4 [128]
0	0xbad525de	-0.0016261896
1	0xbbf7abff	-0.0075583453
2	0x3bfd82a1	0.0077365194
3	0xbc4135f0	-0.011792645
4	0xbc864332	-0.016389463
5	0xbc095e1a	-0.008384252
6	0x3bbf8b3a	0.0058454545
7	0xbc3042c1	-0.010758103
8	0x3c1e90ff	0.009678124
9	0xbd24e66c	-0.04025881
10	0x3be3d806	0.0069532422
11	0xbc19b86c	-0.0093823485
12	0xbc4f2787	-0.012643701
13	0xbd0d5235	-0.034502227
14	0xbc11f60c	-0.00890876
15	0xbc80c8f0	-0.015720814
16	0xbae4a7c8	-0.0017445022
17	0xbc16daf8	-0.00920748
18	0x3d578fbf	0.05262732
19	0x3b31c1b8	0.0027123522
20	0x3c49e72b	0.012323181
21	0xbc97db66	-0.018537235
22	0x3c994fcf	0.018714814
23	0xbceb0df5	-0.028693179
24	0x3ae596e8	0.0017516287
25	0xbc3f6611	-0.011682049
26	0x3d6f6787	0.05844834
27	0xb9d1f093	-0.00040042828
28	0xbc72409d	-0.014785913
29	0x3c31f346	0.010861224
30	0xbc80e97c	-0.015736334
31	0x3bda6f6f	0.006666116
32	0x3ba8f22a	0.0051558213
33	0xbcb176f4	-0.021663167
34	0x3bb6c930	0.0055781826
35	0xbb3edfc6	-0.0029125079
36	0x3bc0ce47	0.005883965
37	0xbca2c3e9	-0.019868808
38	0xbc5618d8	-0.013067447
39	0x3ba30293	0.004974672
40	0xbc162a92	-0.009165423
41	0xbc945036	-0.018104654
42	0xbd02acb3	-0.03190298
43	0x3b5232fd	0.0032073848
44	0xbc26f506	-0.010190254
45	0xbccd1082	-0.025032286
46	0x3c51c7f3	0.012804019
47	0xbd0c1c5e	-0.03420674
48	0x3c83ff23	0.01611287
49	0x3cdd154e	0.026987698
50	0xbb98ac54	-0.004659215
51	0xbc4d3efb	-0.012527223
52	0x3aaa4546	0.0012990616
53	0xbc12f638	-0.008969836
54	0x3bb310df	0.0054646577
55	0x3bb86da6	0.0056283055
56	0xbc2ab6de	-0.0104195755
57	0x3bb72c31	0.005589985
58	0xbc3d42bd	-0.011551556
59	0xbc56703d	-0.013088283
60	0xbcc04c45	-0.023473868
61	0x3be141ac	0.006874284
62	0x3bf75f88	0.00754923
63	0xb9c33e2c	-0.0003723962
64	0xbc8612f1	-0.016366454
65	0x3be3f758	0.006956976
66	0xbb572590	-0.0032828785
67	0xbd160651	-0.036627118
68	0x3caf5fc6	0.021407973
69	0x3c561dae	0.0130686
70	0xbcaa96ef	-0.020823924
71	0xbc9e98b2	-0.01935992
72	0xbab51945	-0.0013816735
73	0xbc030f81	-0.007999302
74	0xbcb5ff68	-0.022216514
75	0xbc2d0f1f	-0.010562687
76	0xbb8aebd8	-0.0042395405
77	0x3c09c4d5	0.008408745
78	0xbcb8a9ce	-0.022541907
79	0xbc0364ba	-0.008019621
80	0xbc733f4a	-0.014846632
81	0xbc474dac	-0.0121645145
82	0xbc58013d	-0.013183889
83	0x3bd759ca	0.006571983
84	0x3c927722	0.017879073
85	0x3c682e3f	0.014171182
86	0xbc87bc2a	-0.016569216
87	0xbc57db96	-0.013174912
88	0x3a897950	0.0010488424
89	0xbc025fb9	-0.007957392
90	0xbb9545dd	-0.0045554475
91	0xbba47c77	-0.00501972
92	0x3b43c946	0.0029874607
93	0xbc256df5	-0.010097017
94	0x3c690aaa	0.014223734
95	0x3d31ffb3	0.043456744
96	0xbc01b02a	-0.007915536
97	0xbc7b795b	-0.015348758
98	0xbcdbd3e9	-0.026834445
99	0xbd1f0311	-0.038821284
100	0x3b58f5ed	0.0033105568
101	0x3d0a8cbd	0.033825625
102	0xbb523a16	-0.003207808
103	0x3c127d47	0.008941001
104	0x3c1cc576	0.009568563
105	0xbd123a47	-0.03570011
106	0xbc9549dc	-0.018223695
107	0xbccc540b	-0.024942419
108	0xbc544a5c	-0.012957182
109	0x3bbdd955	0.0057937303
110	0x3c2e68f9	0.010645145
111	0x3c0b75b8	0.008511953
112	0x3c15e984	0.009149913
113	0xba4863de	-0.0007644276
114	0x3b8d81a2	0.004318432
115	0xbc2de328	-0.01061324
116	0xbb45f5c9	-0.0030206314
117	0x3b0e0ab6	0.0021673865
118	0xbc3da768	-0.011575557
119	0x3becac44	0.007222684
120	0x3b3af731	0.0028528685
121	0xbb6851ee	-0.0035449225
122	0xbca85ff4	-0.020553567
123	0xbbae5b1d	-0.00532092
124	0xbcb05e99	-0.021529483
125	0xbb99fd8a	-0.0046994137
126	0xbb9507b5	-0.004548038
127	0xbc2e091b	-0.010622288

network_body._body_endoder.seq_layers.0.weight f4 [128, 383]
0	0xbe499c0b	-0.19688432
1	0xbbb1d869	-0.0054274094
2	0x3cf1e7e0	0.029529512
3	0x3d520101	0.05127049
4	0xbd2edd9b	-0.04269181
5	0x3cff0749	0.031131404
6	0xbde9b8c7	-0.114121966
7	0x3d77e8e3	0.060524832
8	0x3bb58bbe	0.00554034
9	0xbe1ee376	-0.15516457
10	0xbcff99ad	-0.031201208
11	0x3cf6fe56	0.030150574
12	0xbb3c3d3e	-0.0028723027
13	0xbdce4ce8	-0.100732625
14	0xbd733ec2	-0.059386022
15	0xbb74f8f6	-0.0037379838
16	0x3d91672a	0.07099755
17	0x3dfb960f	0.12284481
18	0xbdef5430	-0.11685979
19	0x3d003e00	0.031309128
20	0x3dc0ed7e	0.09420298
21	0x3c77718d	0.015102756
22	0xbd974627	-0.073864274
23	0xbdabb948	-0.08384949
24	0xbd0c2ae0	-0.034220576
25	0x3da8c767	0.08241158
26	0xbce300c4	-0.027710326
27	0xba8ee824	-0.0010902924
28	0x3d8da5d5	0.069163956
29	0x3d59ed9e	0.053205125
30	0xbccb7e1c	-0.024840407
31	0xbda5a8b9	-0.08088822
32	0xbd0ade46	-0.033903383
33	0x39921cb8	0.00027868687
34	0x3d56846b	0.052372377
35	0xbd12223d	-0.035677183
36	0xbdf68508	-0.120370924
37	0xbd14204b	-0.03616361
38	0x3cf3f0d9	0.029777931
39	0xbdbf9590	-0.09354699
40	0xbd9e5d4d	-0.077326395
41	0x3b6e3a58	0.0036350694
42	0xbd9aa042	-0.07550098
43	0x3d2a3f06	0.04156401
44	0x3d49fef4	0.049315408
45	0xbdd2157e	-0.102580056
46	0x3d6da1d4	0.05801566
47	0x3e2989ef	0.16556524
48	0xbc8c9599	-0.017161177
49	0xbcaa7656	-0.02080838
50	0xbdec5485	-0.11539558
51	0xbca71140	-0.020393968
52	0x3b85d5cc	0.0040843245
53	0x3e16ae0c	0.14714831
54	0xbc2abb92	-0.010420697
55	0x3c3395ee	0.010961039
56	0x3cb9c2cd	0.022675896
57	0x3cc479f1	0.023983927
58	0xbca58dde	-0.02020925
59	0x3d279a8a	0.040918864
60	0xbb963b4a	-0.0045847045
61	0x3deada97	0.11467474
62	0x3d68d5e9	0.056844626
63	0xbd8d9f54	-0.06915155
64	0xbb6d6c3c	-0.0036227843
65	0x3d2aaba3	0.04166759
66	0x3cbd6466	0.023119163
67	0xbdcd6168	-0.100283444
68	0xbe1b12aa	-0.15143839
69	0xbd52cce4	-0.05146493
70	0x3dc18823	0.09449794
71	0x3db9f5ce	0.09080087
72	0xbb6e2ed0	-0.003634382
73	0xbbb1c6ea	-0.0054253237
74	0xbca427f3	-0.02003858
75	0x3dbc5082	0.09195043
76	0xbdaea38a	-0.08527286
77	0xbc04b6e6	-0.008100247
78	0xbdd61d69	-0.10454828
79	0x3cf93d86	0.030424844
80	0x3ca43d78	0.020048842
81	0xbda524cf	-0.08063661
82	0x3dad22ab	0.08453878
83	0x3de4602a	0.11151154
84	0x3d92cbb5	0.0716776
85	0x3d369aaa	0.044581093
86	0xbdede01a	-0.116150096
87	0xbd12e19f	-0.0358597
88	0x3ddb2741	0.107008465
89	0x3cc22fa0	0.02370435
90	0x3cfa0dfd	0.030524248
91	0x3d2fb781	0.042899612
92	0x3dce286e	0.10066305
93	0xbbee8042	-0.007278473
94	0xbe0ddaef	-0.13853048
95	0xbafcc1d0	-0.0019283835
96	0x3beec521	0.007286683
97	0x3d99b7aa	0.07505734
98	0x3cb97914	0.022640742
99	0xbe2b69f3	-0.16739635
100	0xbdb2d91e	-0.08732818
101	0x3dae27b5	0.08503667
102	0xbd37b529	-0.044850502
103	0xbd1c5014	-0.038162306
104	0x3c301706	0.010747677
105	0xbc7e6532	-0.0155270565
106	0x3d0072b3	0.031359386
107	0x3d9eae00	0.077480316
108	0x3dadbda9	0.084834404
109	0xbabb5ddf	-0.0014294944
110	0xbd95a576	-0.0730695
111	0xbc0010e7	-0.00781653
112	0xbe3ba572	-0.18324831
113	0xbba81fcc	-0.0051307436
114	0x3d0e5c7b	0.034756165
115	0x3cbe4b41	0.023229243
116	0xbc054dcf	-0.008136227
117	0xbdc5430b	-0.09631928
118	0x3d2b89ed	0.041879583
119	0x3bdb3a85	0.0066903257
120	0xbd9c73bd	-0.07639263
121	0xbc9063fc	-0.017625801
122	0xbd526a07	-0.051370647
123	0xbadeef54	-0.0017008581
124	0x3d506e85	0.05088665
125	0xbcf7e3b1	-0.030259939
126	0xbe1ca372	-0.15296724
127	0x3c333512	0.010937946
128	0x3d0f6405	0.035007495
129	0xbc55f1ca	-0.013058135
130	0xbde8723c	-0.113499135
131	0xbe0f8b0f	-0.1401789
132	0x3c936c74	0.01799605
133	0xbce51457	-0.0279638
134	0x3cdccae6	0.026952218
135	0xbccfd007	-0.02536775
136	0x3d6f5905	0.058434505
137	0x3d5a92ab	0.05336253
138	0xbc87562b	-0.01652058
139	0x3e0a18a4	0.13485962
140	0xbdaa0a06	-0.08302693
141	0xbe0fc751	-0.14040877
142	0x3d1d012a	0.03833119
143	0xbc21963b	-0.009862478
144	0x3dae592c	0.08513102
145	0x3d0ee86a	0.034889616
146	0xbd47d4ac	-0.048786804
147	0xbcc3d954	-0.023907341
148	0xbde9fc6f	-0.11425101
149	0xbd62f14b	-0.055405896
150	0xbc89e88c	-0.01683452
151	0x3da489b5	0.08034078
152	0x3d95b217	0.073093586
153	0xbcfecd69	-0.031103807
154	0xbc998454	-0.018739857
155	0xbd0c6829	-0.034279022
156	0xbcb58955	-0.022160212
157	0xbdafabaa	-0.08577664
158	0xbdbba4cb	-0.09162291
159	0x3cf77839	0.030208694
160	0x3b1f6766	0.0024323105
161	0x3c98de9d	0.018660838
162	0xbd9f69b7	-0.077838354
163	0xbd43f499	-0.04784069
164	0xbd4402ca	-0.047854222
165	0xbcdc4494	-0.02688817
166	0xbda13635	-0.07871667
167	0x3d90ed5c	0.07076523
168	0xbb421d5e	-0.0029619555
169	0x3de3b754	0.111189514
170	0x3dd0be3a	0.10192533
171	0xbdd7d405	-0.105384864
172	0xbcee296c	-0.029072486
173	0x3d803608	0.06260306
174	0x3d112ce2	0.035443194
175	0xbddd7347	-0.10813003
176	0xbcac0a3f	-0.02100098
177	0x3daaed42	0.083460346
178	0x3e2365c5	0.15956791
179	0x3d8f6990	0.07002556
180	0x3e190c13	0.14946012
181	0x3d9706f9	0.07374377
182	0xbdbcf3e2	-0.092262045
183	0xbd5af331	-0.05345458
184	0xbdb29ff3	-0.08721914
185	0xbd778e92	-0.0604387
186	0xbdcd9338	-0.100378454
187	0x3cdb8db1	0.026800962
188	0xbacc8238	-0.0015602773
189	0x3e195355	0.14973195
190	0x3b894c29	0.004189987
191	0xbda789f3	-0.081806086
192	0x3cbb52c0	0.022866607
193	0xbde166f9	-0.110059686
194	0xbe0b3ccc	-0.13597411
195	0xbe1d0b8c	-0.15336436
196	0xbda61f54	-0.08111444
197	0x3d365e4f	0.044523533
198	0xbe2f7b58	-0.17136896
199	0x3b9325ae	0.0044905758
200	0x3cf8f7b9	0.03039156
201	0xbcd2772e	-0.025691595
202	0xbddc3176	-0.107516214
203	0x3b9f703e	0.0048656752
204	0x3befb47e	0.0073152175
205	0x3d8aae28	0.06771499
206	0xbd0efb99	-0.03490791
207	0x3dd7e0f5	0.10540954
208	0x3c38e619	0.011285328
209	0xbe1dd7fe	-0.15414426
210	0xbd691533	-0.056904983
211	0xbe44983b	-0.19198696
212	0xbe171b5a	-0.14756528
213	0xbb96c709	-0.0046013636
214	0x3d8ff45c	0.0702903
215	0x3e09e32a	0.13465562
216	0x3ddc84e0	0.107675314
217	0xbd04b136	-0.032395564
218	0x3c03d968	0.008047439
219	0xbdf1c97d	-0.11806009
220	0xbd27eb3f	-0.040995833
221	0x3d88c835	0.066788115
222	0x3b61d3c1	0.003445849
223	0x3c8673bf	0.016412614
224	0xbaafbecb	-0.0013408301
225	0x3cfc3779	0.03078817
226	0x3cbadc82	0.022810224
227	0x3d4d6a79	0.05015037
228	0xbcb44cff	-0.02200937
229	0xbd0e6232	-0.034761615
230	0xbc5be354	-0.0134208985
231	0xbda5bc1e	-0.08092521
232	0x3dfa1c46	0.12212424
233	0x3d660d06	0.056164764
234	0xbc1b4038	-0.00947576
235	0x3d6bb693	0.057547163
236	0x3d047760	0.032340407
237	0x3c4772a8	0.012173332
238	0xbca8c95c	-0.020603828
239	0x3e072ada	0.1319994
240	0xbc44fe9a	-0.012023592
241	0x3e0af12c	0.13568562
242	0x3c8babb6	0.017049652
243	0x3d55bda1	0.052182797
244	0x3c330013	0.010925311
245	0x3c51eed5	0.01281329
246	0xbd1d5393	-0.03840978
247	0xbc7758c0	-0.015096843
248	0xbdc05fc8	-0.09393269
249	0x3bc5596b	0.0060226223
250	0x3da7f0d6	0.08200233
251	0x3de31201	0.11087418
252	0x3d7baf14	0.061446264
253	0xbcd00b52	-0.025396023
254	0x3b8a90d5	0.004228691
255	0x3de0c35f	0.10974764

network_body._body_endoder.seq_layers.2.bias f4 [128]
0	0x3bba07ac	0.005677184
1	0xbc5cc749	-0.013475248
2	0xbacceaad	-0.0015633904
3	0xbc696fce	-0.014247848
4	0xbd281bd0	-0.04104215
5	0xbcafc275	-0.021455029
6	0xbb81d737	-0.003962423
7	0xbc5abb76	-0.013350358
8	0x3c3fbed4	0.011703212
9	0xb9b5bcdc	-0.0003466372
10	0xbcb33e27	-0.021880222
11	0xbce8ed4a	-0.02843346
12	0x3cc7b070	0.024376124
13	0x39ec75d2	0.0004510121
14	0xbb662ef0	-0.0035123192
15	0xbce40e19	-0.027838754
16	0xba45e95a	-0.00075497257
17	0xbc7c39a3	-0.015394601
18	0x3c93bca6	0.01803429
19	0x3c99475f	0.01871079
20	0x3c35f844	0.011106554
21	0xbc937f96	-0.018005174
22	0xbd2c3390	-0.04204136
23	0xbc9c80f1	-0.019104453
24	0xbcca566d	-0.024699414
25	0x3b75be66	0.003749752
26	0x3bf652b4	0.007517183
27	0x3d239cd5	0.03994449
28	0xbbe9e3f0	-0.007137768
29	0x3cc5d681	0.024150135
30	0xbd396a00	-0.045267105
31	0x3b0bfdc6	0.0021360978
32	0xbb2585e8	-0.0025256816
33	0x3be13e92	0.006873914
34	0xbc8ca6e3	-0.017169422
35	0x3bd3b7eb	0.0064611337
36	0x3bd1cc2d	0.0064025135
37	0xbd1605d7	-0.036626663
38	0x3a54b4ab	0.000811408
39	0xbc950644	-0.018191464
40	0xbc0f60ad	-0.008751077
41	0x3c1be8f8	0.009515993
42	0x3c26b67d	0.0101753445
43	0x3ab3d2af	0.0013719405
44	0xbd299fbe	-0.041412108
45	0xbcae9eba	-0.021315921
46	0xbbba20e7	-0.005680192
47	0xbbbf06a0	-0.005829647
48	0x3c2cc750	0.010545567
49	0x3c7d58b9	0.015463048
50	0xbc6b1f6d	-0.014350754
51	0xbb9e0ab0	-0.0048230514
52	0x3b5acd6b	0.0033386599
53	0x3a98cd59	0.0011657878
54	0x3b70f6d1	0.0036768208
55	0xbc3f1946	-0.0116637405
56	0xbc864e3a	-0.016394723
57	0xbb4e1ad0	-0.0031449087
58	0x3be927f0	0.0071153566
59	0xbcb12188	-0.021622434
60	0xbc97202e	-0.018447962
61	0x3b28df1a	0.0025767745
62	0xbc240818	-0.010011695
63	0xbd0c0488	-0.03418401
64	0x3bcf53ff	0.006327152
65	0x3c67b98f	0.014143362
66	0x3c0a6190	0.008446112
67	0x3c916447	0.017748011
68	0xbb4b8dce	-0.0031059864
69	0xbcc1b948	-0.02364792
70	0x3b3dcf0b	0.0028962519
71	0x3c33e6ec	0.010980349
72	0x3b8e77ec	0.004347792
73	0x3bf1154e	0.007357276
74	0xbafb3174	-0.0019164518
75	0x3ce78aa2	0.028264347
76	0xbc32f891	-0.010923521
77	0xba13d070	-0.00056386646
78	0xbc142235	-0.009041359
79	0xbc2596a5	-0.010106717
80	0x3c29a4f6	0.010354271
81	0x3c436336	0.011925509
82	0x3be58336	0.007004167
83	0xbca3da45	-0.02000154
84	0xbba2b007	-0.0049648318
85	0xbd351119	-0.04420576
86	0xbc767766	-0.015043115
87	0xbbef7aa3	-0.0073083206
88	0xbb8889da	-0.004166824
89	0x3b28a544	0.0025733272
90	0x3cb442f0	0.022004575
91	0xbbe80977	-0.0070812064
92	0x3b29eb8e	0.0025927755
93	0x3aab7b6b	0.0013083046
94	0xbc5d7c1f	-0.013518362
95	0x3c9c575a	0.019084621
96	0xbce24e49	-0.02762522
97	0xbc358c1e	-0.01108077
98	0x3be5fc22	0.007018582
99	0xbb6c8a53	-0.003609319
100	0x39d7ce73	0.00041161812
101	0xbc9a533e	-0.018838521
102	0x3c837bfd	0.016050333
103	0x3c7ba01b	0.015357996
104	0x3c3a67b8	0.011377268
105	0xbb890d08	-0.0041824616
106	0x3b02a740	0.0019936115
107	0xbc1a3dfe	-0.009414194
108	0xbbd2ff73	-0.0064391433
109	0xbd48ac2c	-0.04899232
110	0xbb4ec4bb	-0.0031550366
111	0x3cd50f01	0.026008131
112	0x3d0f78a6	0.03502717
113	0xbcf27c5e	-0.029600319
114	0xbc8bd414	-0.0170689
115	0x3bbd0427	0.0057683173
116	0x3ba87dd4	0.005141953
117	0xbb90a9e6	-0.0044147847
118	0xbc09d3a4	-0.008412275
119	0x3c82cb83	0.015966183
120	0xbbb17bf2	-0.0054163868
121	0xbc4647cb	-0.012102078
122	0xbc87093f	-0.016483901
123	0xbca8a062	-0.020584289
124	0x3cfbe529	0.03074892
125	0xbba54e11	-0.0050447066
126	0xbbced121	-0.006311551
127	0x3c2f2a7d	0.010691282

network_body._body_endoder.seq_layers.2.weight f4 [128, 128]
0	0x3e26e164	0.16296917
1	0xbcf74774	-0.030185439
2	0x3ceaa529	0.028643208
3	0x3d5c7ef0	0.053831995
4	0xbdcb75ae	-0.09934555
5	0x3d553fdd	0.052062858
6	0x3de3860f	0.11109554
7	0x3cedc4e1	0.029024543
8	0x3e1bb8c7	0.15207206
9	0x3ca7101e	0.020393427
10	0xbcf8b74f	-0.030360846
11	0x3e0a4b79	0.13505353
12	0xbe3e0d7c	-0.18559831
13	0xbd4bfd38	-0.049802035
14	0x3e308179	0.1723689
15	0xbdae6465	-0.085152425
16	0xbda81626	-0.082073495
17	0xbdd7eb75	-0.10542957
18	0xbd84ebf7	-0.06490319
19	0x3d35c4fc	0.044377312
20	0xbdae4af9	-0.08510394
21	0xbdbebb19	-0.0931303
22	0x3eaccfa7	0.33752176
23	0x3de7d1a0	0.1131928
24	0x3dce58e5	0.10075549
25	0x3d087b72	0.03332085
26	0x3d875603	0.06608202
27	0x3cde4d7d	0.027136559
28	0x3d8e5063	0.06948926
29	0x3e00062a	0.12502351
30	0x3dbc89d8	0.09205979
31	0xbdb48a3c	-0.088154286
32	0x3df17307	0.11789518
33	0xbd229203	-0.03969003
34	0xbe09566d	-0.13411875
35	0xbcfd9d35	-0.030958751
36	0x3d670f9f	0.05641138
37	0x3da0dca2	0.07854582
38	0xbd914bc4	-0.07094529
39	0xbe50ffa7	-0.20410024
40	0xbd5228b2	-0.05130834
41	0x3d8228df	0.06355452
42	0x3d795f9c	0.060882196
43	0x3dbe8b5c	0.093039244
44	0x3d85aa63	0.06526639
45	0xbdac2a48	-0.08406502
46	0xbc83f0d7	-0.016106052
47	0x3deb546b	0.11490711
48	0xbe0f36e3	-0.13985781
49	0xbd277129	-0.040879402
50	0x3d393f4b	0.045226377
51	0xbe239fd4	-0.15978938
52	0x3cb38be5	0.021917293
53	0x3cc46746	0.023975026
54	0x3d2f871c	0.04285346
55	0xbd2a2c58	-0.041546196
56	0x3d1ee385	0.0387912
57	0xbd9fac44	-0.07796529
58	0x3c9f630a	0.019456405
59	0x3d11a0d8	0.035553783
60	0x3da504a8	0.08057529
61	0x3c877977	0.016537411
62	0x3b4073c2	0.0029365872
63	0x3d8ac46e	0.06775747
64	0x3d7c9b56	0.061671577
65	0x3e5dd64b	0.21663778
66	0xbd54af6e	-0.051925115
67	0xbddadad7	-0.10686272
68	0x3de2c71f	0.110731356
69	0x3e1338ca	0.14377132
70	0xbd78eab1	-0.060770694
71	0x3db8f293	0.09030642
72	0xbd10c177	-0.035340752
73	0x3d0ed659	0.034872387
74	0x3dd94c67	0.10610276
75	0x3d82c0f0	0.06384456
76	0xbc0a3371	-0.008435116
77	0x3da015fb	0.078166924
78	0x3c8abd85	0.016936073
79	0xbc5bb46a	-0.013409713
80	0x3cdbd4ff	0.026834963
81	0x3d06250a	0.032750167
82	0xbc179f67	-0.009254313
83	0x3d211877	0.039329972
84	0x3c4ff3c3	0.012692395
85	0x3dccc15e	0.09997819
86	0x3d05fe2f	0.03271311
87	0xbd0ce2be	-0.034395926
88	0xbdd02c3a	-0.101646855
89	0x3da25345	0.07926039
90	0xbdc3ee70	-0.09566963
91	0xbdca7f5b	-0.098875724
92	0xbdddf1b0	-0.10837114
93	0xbd89bd55	-0.06725565
94	0xbd9fc0ae	-0.078004226
95	0xb9f21815	-0.0004617578
96	0xbaee5ca7	-0.0018185572
97	0xbdc732d6	-0.09726493
98	0x3ce8c907	0.02841617
99	0x3d8d195f	0.06889605
100	0xbcd5d425	-0.026102135
101	0xbe151a77	-0.14560877
102	0xbd921bec	-0.07134232
103	0xbcd78ea6	-0.026313137
104	0xbe0bfa62	-0.13669732
105	0x3e0e4e80	0.13897133
106	0x3d2f3df3	0.04278369
107	0x3e35d21a	0.17755929
108	0x3e4592e2	0.19294313
109	0xbe670db1	-0.22563817
110	0x3c870597	0.016482158
111	0x3d076a34	0.033060268
112	0xbdfb5788	-0.12272555
113	0x3b330a06	0.0027319207
114	0xbd40e5de	-0.04709422
115	0x3d4399f6	0.04775425
116	0x3d253ba5	0.040340085
117	0x3d041656	0.032247864
118	0xbd83d09d	-0.06436274
119	0xbc5ab1e9	-0.013348081
120	0x3da16fa1	0.0788262
121	0x3d15105f	0.036392566
122	0xbd0766f1	-0.033057157
123	0x3d11723e	0.03550934
124	0x3e236bb7	0.15959059
125	0xbe164aa6	-0.14676914
126	0x3e1838a6	0.1486536
127	0xbbbb83d8	-0.005722504
128	0xbc0f983f	-0.008764326
129	0xbdd13a5d	-0.1021621
130	0x3d112b4c	0.03544168
131	0x3e167b5c	0.14695495
132	0x3d21db6a	0.03951589
133	0x3e08ca94	0.13358527
134	0x3d87c208	0.066288054
135	0xbe2f81f4	-0.17139417
136	0x3da89bd5	0.082328476
137	0x3e0f5ba2	0.13999799
138	0x3e2d6303	0.16932301
139	0xbd195a39	-0.03743956
140	0xbd0b59b3	-0.03402109
141	0xbd8fbd91	-0.07018579
142	0x3d0f1dfb	0.0349407
143	0x3d162580	0.036656857
144	0xbd321aee	-0.043482713
145	0x3bb34e83	0.005472006
146	0xbe01a83d	-0.12661834
147	0x3db62d38	0.088953435
148	0x3d341978	0.0439696
149	0x3d57b678	0.05266425
150	0x3d518592	0.051152773
151	0x3c9ee642	0.019396905
152	0x3df29838	0.1184544
153	0x3da8fc7b	0.08251282
154	0xbbeb3c58	-0.0071788244
155	0x3d5c7ea8	0.053831726
156	0xbc257c03	-0.0101003675
157	0xbd2e55bb	-0.042562228
158	0x3d50c9f3	0.050973844
159	0xbd953530	-0.07285535
160	0x3bbefd31	0.0058285226
161	0x3da63209	0.08115012
162	0xbce86100	-0.028366566
163	0x3d648af4	0.05579658
164	0x3d97da17	0.07414644
165	0x3d2b96a1	0.041891698
166	0xbd0813f5	-0.033222158
167	0x3e1b5b13	0.15171461
168	0x3e309c0f	0.17247032
169	0xbd7b210c	-0.061310813
170	0x3d2d8fab	0.04237334
171	0xbe10d7b9	-0.14144792
172	0xbd541de1	-0.051786307
173	0xbdcbd155	-0.09952036
174	0x3e2708df	0.16311978
175	0x3cc0ac33	0.023519611
176	0x3e031ad9	0.1280321
177	0x3e0f82e6	0.14014778
178	0xbe42690a	-0.18985382
179	0xbd5a12dc	-0.053240642
180	0x3e3ce715	0.18447526
181	0xbcdcd236	-0.026955705
182	0x3e389b6e	0.18028042
183	0x3e34b7f6	0.176483
184	0xbe5fb8a6	-0.21847782
185	0x3dd65152	0.10464729
186	0xbd22e568	-0.03976956
187	0x3e868159	0.2627056
188	0xbcf98ff4	-0.03046415
189	0x3dbe04e4	0.092782766
190	0x3c06cea6	0.00822798
191	0xbd1f6210	-0.03891188
192	0xbdcad5a4	-0.0990403
193	0x3c510195	0.012756725
194	0xbe0c0a93	-0.13675909
195	0x3db4553a	0.08805318
196	0x3d00e2bd	0.031466234
197	0x3cb3bcd8	0.021940634
198	0xbd8ecc9f	-0.06972622
199	0xbe3ba36b	-0.18324058
200	0xbde366d1	-0.11103595
201	0xbe202d57	-0.15642296
202	0x3e0f33c8	0.13984597
203	0x3d603480	0.054737568
204	0x3cb36022	0.021896426
205	0x3cbca94c	0.023029946
206	0xbd214e82	-0.03938151
207	0xbd690cc9	-0.05689696
208	0xbd23fcbf	-0.04003596
209	0xbd4965b6	-0.049169265
210	0xbe3d8f3b	-0.1851167
211	0xbc8a8322	-0.016908232
212	0xbc8529fa	-0.016255368
213	0x3e040e1e	0.1289601
214	0x3dcd0304	0.10010341
215	0x3dc41f3b	0.09576269
216	0xbd659499	-0.056049917
217	0xbdf008ae	-0.117204055
218	0xbc2525d6	-0.010079822
219	0xbc6b57e9	-0.014364221
220	0x3d2457ae	0.04012268
221	0x3ce86078	0.028366312
222	0xbd89a48a	-0.067208365
223	0xbd6ebeba	-0.05828736
224	0x3dada9f4	0.084796816
225	0x39d80d87	0.0004120881
226	0x3d8360cb	0.06414946
227	0xbd88e059	-0.06683416
228	0x3e2a251d	0.1661572
229	0x3d4e8b5f	0.050425883
230	0xbd28faca	-0.041254796
231	0xbd4e3323	-0.050341737
232	0xbdcdb42c	-0.10044131
233	0x3d9b928d	0.07596312
234	0x3d74fd1e	0.059811704
235	0xbe11c604	-0.14235693
236	0x3e17272c	0.14761037
237	0xbacb4fe4	-0.001551148
238	0xbbbfa72b	-0.0058487854
239	0x3daafca9	0.08348972
240	0x3e40999d	0.18808599
241	0x3d272ecc	0.040816113
242	0x3e0868c6	0.13321218
243	0xbd87d068	-0.06631547
244	0x3ca9ea59	0.020741628
245	0xbd936279	-0.071965165
246	0x3d89de93	0.06731906
247	0x3c7faf51	0.0156057635
248	0x3dd0e09f	0.10199093
249	0xbd22eaf6	-0.039774857
250	0xbcc0b523	-0.023523873
251	0xbda5b46a	-0.08091052
252	0x3c8137f8	0.015773758
253	0x3d8efd93	0.06981959
254	0xbd554fd4	-0.052078083
255	0x3ca24622	0.019808833
