Assets/NN/Level1/CharacterBehav 5.onnx (onnx, 268569 bytes, 9 tensors)

action_model._discrete_distribution.branches.0.bias f4 [3]
0	0xbb3789cd	-0.002800572
1	0x3a6d8d4e	0.00090618886
2	0x3b1a4a24	0.0023542726

action_model._discrete_distribution.branches.0.weight f4 [3, 128]
0	0x3b3b6001	0.0028591158
1	0xbc392029	-0.0112991715
2	0xbb112a55	-0.0022150476
3	0x3c8ea435	0.017412284
4	0x3cca66fd	0.024707312
5	0xbbdd66cb	-0.0067566386
6	0x3c648c3a	0.013949448
7	0xbaf81d54	-0.0018929639
8	0xbbc900d0	-0.00613413
9	0x3d819302	0.06326868
10	0x3d0c7a32	0.034296222
11	0x3cfd89e7	0.030949546
12	0x3d2b4f71	0.041823808
13	0x3c95eb33	0.018300628
14	0x3c977f49	0.018493311
15	0xbc18a5f8	-0.009316914
16	0x3cd0197c	0.025402777
17	0xbd2b807b	-0.041870575
18	0xbccf4ec1	-0.025306107
19	0x3c0b033d	0.008484659
20	0xbc2b5761	-0.0104578445
21	0xbc911b73	-0.017713284
22	0xbce6575b	-0.028117826
23	0xbd07f2f9	-0.0331907
24	0xbca26cd6	-0.019827288
25	0xbccc5edc	-0.024947576
26	0xbb447c90	-0.0029981472
27	0xbcb9669b	-0.022631934
28	0x3c3aefaf	0.011409684
29	0x3cbb5018	0.02286534
30	0x3d1fc68a	0.0390077
31	0xba5a5ef3	-0.00083301886
32	0xbba2eb5f	-0.004971906
33	0x3d2da4ab	0.042393368
34	0xbbe9dfae	-0.0071372604
35	0xbd33ef9f	-0.043929692
36	0x3a97b1f7	0.0011573423
37	0x3c0a630a	0.008446464
38	0xbd483363	-0.04887713
39	0x3c6d8650	0.014497355
40	0x3d096733	0.033545684
41	0x3b0b57ca	0.0021262043
42	0xbbc0c364	-0.0058826674
43	0xbc41bef3	-0.011825311
44	0x3be605c4	0.0070197303
45	0xbbf7a0b3	-0.0075569986
46	0xbc9f3c64	-0.019437976
47	0x3c1e6955	0.009668668
48	0xbc5bcef3	-0.01341604
49	0xbb25fe27	-0.0025328489
50	0xba566b65	-0.0008179455
51	0xbd22e2b3	-0.03976698
52	0x3ca5bd21	0.020231785
53	0xbd2debdb	-0.042461257
54	0xbd0fed97	-0.035138693
55	0xbc5562f0	-0.013024077
56	0x3c0c3a8e	0.008558882
57	0x3ae5cd6b	0.0017532533
58	0x3c86e639	0.0164672
59	0xbd0bd820	-0.03414166
60	0xbb95ab29	-0.004567523
61	0x3c410e90	0.011783257
62	0x3cade373	0.02122662
63	0xbbabca01	-0.0052425866
64	0xbcf33b83	-0.029691463
65	0x3c35a694	0.011087079
66	0x3cd21a37	0.025647266
67	0x3d46e21d	0.048555482
68	0x39e045aa	0.00042776513
69	0xbc0f2ac4	-0.008738223
70	0x3cc8b413	0.024499929
71	0x3b9b5f6a	0.004741599
72	0x3bfcb53a	0.0077120336
73	0x3c95b6c4	0.018275626
74	0xbbaaea5f	-0.0052159275
75	0xbd898865	-0.06715468
76	0x3a0bc2ac	0.00053314376
77	0x3b8776ea	0.0041340487
78	0xbc4de836	-0.01256757
79	0x3c82e057	0.015976114
80	0x3cc97ba3	0.024595087
81	0x3d1382b0	0.036013305
82	0x3cc55eea	0.02409311
83	0xbc181340	-0.009281933
84	0xbc99c4ce	-0.018770602
85	0xbd386c91	-0.045025412
86	0x3c61d4e5	0.013783668
87	0x3a265bd5	0.00063460815
88	0xbc24cb02	-0.010058166
89	0xbc4f746d	-0.012662035
90	0xbd3603b5	-0.04443713
91	0x3cb3b916	0.021938842
92	0xbd17781c	-0.03697978
93	0x3cb93ff6	0.022613507
94	0x3d9251e9	0.07144529
95	0xbd3a1aa2	-0.045435555
96	0xbc6f9f02	-0.014625313
97	0x3b2918ee	0.0025802213
98	0xbbc024c3	-0.0058637573
99	0x3c0f1d24	0.008734975
100	0xbba5c738	-0.005059149
101	0xbd3ed047	-0.046585348
102	0x3d340517	0.043950167
103	0x3d9a1bb3	0.075248145
104	0xbc1ca571	-0.009560929
105	0xbc97cdbd	-0.01853072
106	0x3c4e903e	0.012607632
107	0xbbfad474	-0.007654721
108	0x3ccff257	0.025384111
109	0xbc205b3d	-0.009787378
110	0xbc98e64c	-0.018664502
111	0x3d18ab60	0.03727281
112	0xbd1aea78	-0.037821263
113	0x3c987d5a	0.01861446
114	0xbc237e7f	-0.0099788895
115	0xbb4c094d	-0.0031133473
116	0x3b874083	0.0041275634
117	0x3c3e1edd	0.011604038
118	0x3c8e20d0	0.01734963
119	0x3cd8b2ae	0.026452389
120	0xbc99b766	-0.018764209
121	0x3af4ce6f	0.0018677245
122	0x3ca176e3	0.01971001
123	0xbd74cf99	-0.059768293
124	0xbca632a1	-0.020287814
125	0x3d039227	0.032121804
126	0xbc824b48	-0.015905038
127	0x3cc0640f	0.023485212
128	0xbc192c42	-0.009348931
129	0xbbdbabc5	-0.006703826
130	0xbb43f4af	-0.0029900481
131	0xbd60729f	-0.05479681
132	0xbd1c2dd7	-0.038129654
133	0x3d69a1d7	0.057039108
134	0xbc717546	-0.014737433
135	0x3cf147e1	0.02945322
136	0x3b15c999	0.0022855757
137	0xbd84ed1e	-0.06490539
138	0xbc04923e	-0.0080915075
139	0xbd309726	-0.043112896
140	0x3c624184	0.013809565
141	0xbc3a8836	-0.011385014
142	0xbd1b7f96	-0.037963472
143	0x3d13c1fd	0.036073674
144	0xbc27c296	-0.010239264
145	0x3d0f7f2e	0.035033397
146	0x3cabc88a	0.020969648
147	0xbcac2718	-0.021014735
148	0x3cf61b6e	0.030042376
149	0xbc11963c	-0.008885916
150	0x3d732f60	0.059371352
151	0x3b77cc3e	0.0037810947
152	0x3c0878bc	0.008329567
153	0x3d2df453	0.042469334
154	0xbba0cf6c	-0.004907539
155	0x3d01c240	0.03167939
156	0x3c7442cc	0.014908504
157	0xbcef2850	-0.029194027
158	0x3bfed1bf	0.0077764685
159	0xbb835f6b	-0.0040091774
160	0x3d05c21b	0.032655817
161	0x3c6741bd	0.014114794
162	0x3bff265f	0.0077865566
163	0x3caefbd6	0.02136032
164	0xbc7a57dd	-0.015279737
165	0x3c217891	0.009855405
166	0xbcf7060f	-0.030154256
167	0x3cb12c6e	0.021627631
168	0xbc226728	-0.00991229
169	0x3d6ca788	0.057776958
170	0x3b59a094	0.0033207284
171	0x3c8436e2	0.016139451
172	0xba60596f	-0.00085582485
173	0xbca25a1c	-0.019818358
174	0x3ce043ea	0.027376134
175	0x3b9b9a1c	0.004748596
176	0x3d0f35d1	0.034963433
177	0x3b46c4b1	0.003032964
178	0x3cbd05c4	0.023074038
179	0x3d27a4d0	0.04092866
180	0x3aee9f5f	0.0018205455
181	0xbb9589d2	-0.0045635486
182	0x3d19c098	0.037537187
183	0x3c0a8fbb	0.00845712
184	0x3b3b8b81	0.0028617086
185	0x3ae68714	0.0017587864
186	0xbbad8e1d	-0.0052964822
187	0xbc257126	-0.0100977775
188	0x3cae652d	0.021288479
189	0xbce4240e	-0.027849223
190	0xbba6c78e	-0.0050897067
191	0x39e6e170	0.00044036983
192	0x3b41c236	0.0029565222
193	0x3c37bee9	0.01121495
194	0xbc8860cc	-0.016647719
195	0xbcfe5db8	-0.031050548
196	0x3b1008e8	0.0021977965
197	0x3a820bd7	0.0009921741
198	0xbd0e01e4	-0.03466977
199	0x3c38111b	0.011234547
200	0x3d0843fc	0.03326796
201	0x3c1eace5	0.009684776
202	0x3cb8fc66	0.02258129
203	0x3d9a7eb7	0.075437
204	0xbb9f5d75	-0.004863436
205	0x3d6d82c0	0.05798602
206	0xbc22e0ad	-0.009941262
207	0xbc8e9117	-0.017403169
208	0xbd3009bf	-0.042978045
209	0x3c896b16	0.016774695
210	0xbd878c77	-0.066185884
211	0xbb9c2f4b	-0.00476638
212	0x3c88cccf	0.016699223
213	0x3d2a7e7a	0.041624524
214	0xbc8741c5	-0.016510854
215	0x3c5f7d09	0.013640651
216	0x3c87c1d4	0.016571917
217	0x3d731336	0.059344493
218	0x3d800d06	0.06252484
219	0xbca382a5	-0.019959757
220	0x3cd4108e	0.0258868
221	0x3bad4db5	0.0052888044
222	0xbdd23db9	-0.10265679
223	0x3d67f3a2	0.05662883
224	0x3c1594b1	0.009129689
225	0x3d1c1203	0.038103115
226	0xbd08d08e	-0.03340202
227	0x3c7b96d3	0.0153557835
228	0xba20311d	-0.0006110834
229	0x3d547290	0.051867068
230	0x3bb53e69	0.0055311215
231	0xbdab9170	-0.083773494
232	0xbbf95d87	-0.0076100263
233	0xbcc30df7	-0.02381037
234	0x3c24c45e	0.010056583
235	0x3bdbf03a	0.006711987
236	0xbc9221c1	-0.01783836
237	0x3c51f5d8	0.012814961
238	0x3cd948e1	0.02652401
239	0xbc9fbee1	-0.019500198
240	0x3d976fc2	0.07394363
241	0xbcaf9ed6	-0.021438044
242	0xbcbc713a	-0.02300321
243	0xbaa1fc18	-0.0012358455
244	0x3c0a6dbd	0.008449015
245	0xbcfea7f7	-0.031085951
246	0x3cd0bf92	0.025481973
247	0xbcb45e2d	-0.022017563
248	0xbc9a84f5	-0.018862227
249	0x3c3a17cd	0.011358214
250	0xbd427d39	-0.047482703
251	0xbc623ef7	-0.013808957
252	0x3d2e2515	0.042515833
253	0x3addec78	0.0016931435
254	0xbcf2ee30	-0.029654592
255	0xbb172f8c	-0.0023069112

action_model._discrete_distribution.branches.1.bias f4 [3]
0	0xbb6ccbd3	-0.003613223
1	0x3c3bf96a	0.011473039
2	0xbc976340	-0.018479943

action_model._discrete_distribution.branches.1.weight f4 [3, 128]
0	0x3bb349e9	0.0054714573
1	0xbc990b8a	-0.01868226
2	0xbcb59ca1	-0.022169413
3	0x3b40639f	0.0029356254
4	0xbc12a257	-0.008949838
5	0x3c388470	0.011262044
6	0xbcd32073	-0.025772309
7	0xbbbf30bc	-0.005834667
8	0xbbda0113	-0.00665296
9	0xbd15033d	-0.03638004
10	0x3d7d20af	0.061798748
11	0xbcc43d6b	-0.023955068
12	0xbb64f0f4	-0.0034933658
13	0xbd044dc0	-0.03230071
14	0xbc269006	-0.010166174
15	0x3be9a89b	0.007130695
16	0xbd508dfa	-0.05091665
17	0x3cf1da48	0.02952303
18	0x3cdfcae7	0.027318431
19	0xbc31c51c	-0.010850217
20	0xb9e15ffa	-0.00042986852
21	0x3ce0b322	0.027429167
22	0x3c9e2e17	0.019309087
23	0x3caad247	0.020852221
24	0x3c250cec	0.010073882
25	0xbaa0ad69	-0.0012258712
26	0x3cd1476b	0.02554675
27	0x3d3a7c6d	0.045528818
28	0x3bcc3419	0.0062317965
29	0xbb6b2cbc	-0.0035884818
30	0xbd04db73	-0.032435846
31	0x3c749b96	0.014929673
32	0x3d1699e1	0.036767844
33	0xbc5f3f99	-0.013626003
34	0xbc2c76cb	-0.010526369
35	0x3c989ec4	0.018630393
36	0x3b1df97e	0.0024105008
37	0xbc36725b	-0.011135663
38	0x3b5dec40	0.003386274
39	0xb7ebb724	-2.8099465e-05
40	0xbc7b4f58	-0.015338741
41	0xbc43f544	-0.011960331
42	0xbbfd6f84	-0.007734241
43	0xbbba4200	-0.0056841373
44	0xbc08127c	-0.008305188
45	0xbbca3cd7	-0.0061718035
46	0x3c5dbd4a	0.0135339
47	0xbbcdf958	-0.0062858276
48	0x3c650191	0.013977424
49	0x3b8764fe	0.0041319123
50	0x3b892e95	0.004186461
51	0x3c21c3e9	0.009873369
52	0xbc8414b5	-0.016123155
53	0x3d3d4a35	0.046213347
54	0x3c3662e4	0.011131976
55	0xb8f91f09	-0.00011879026
56	0x3c7d6419	0.01546576
57	0xbcc65312	-0.024209533
58	0x3ca3f70c	0.020015262
59	0x3cd5deb6	0.026107173
60	0x3cad50dd	0.021156723
61	0x3ca55bf7	0.020185454
62	0xbc2228b0	-0.009897396
63	0x3b096c83	0.002096922
64	0xba978a60	-0.0011561625
65	0xbd03abed	-0.032146383
66	0xbca6c48b	-0.02035739
67	0xbbfb3712	-0.007666477
68	0x3c1e928b	0.009678493
69	0xbb26408b	-0.002536806
70	0xbce970ae	-0.028496113
71	0x3c8bc5f2	0.017062161
72	0xbc85c157	-0.016327543
73	0x3b5d11c4	0.0033732513
74	0x39b081df	0.00033666097
75	0x3c52827d	0.012848494
76	0xbb841af8	-0.0040315352
77	0x3cd37748	0.025813714
78	0xbc9be81e	-0.01903158
79	0xbb9e119e	-0.0048238775
80	0xbcb12c29	-0.021627503
81	0x3d14f9d3	0.036371063
82	0xbb98f09c	-0.0046673547
83	0x3c7a2f8f	0.015270128
84	0xbc5cbb07	-0.013472325
85	0x3b2ed63c	0.0026677987
86	0xbcc06026	-0.023483347
87	0xbc87db79	-0.016584145
88	0x3bbacde9	0.005700816
89	0x3c8a1e05	0.016860018
90	0xbc9084e4	-0.017641492
91	0xbd051d8a	-0.032498874
92	0x3cfe45aa	0.031039078
93	0xbc5be9f1	-0.013422475
94	0xbc2f772d	-0.010709566
95	0x3bae0e5f	0.0053117718
96	0xbbd3a955	-0.006459395
97	0x3c45d4a9	0.012074628
98	0x3c3096be	0.010778127
99	0xbcc4d152	-0.024025593
100	0xbbbc0d60	-0.005738899
101	0x3cd1764b	0.025569102
102	0xbc6d753a	-0.014493281
103	0xbb3593d1	-0.0027706514
104	0x3d047e50	0.032347023
105	0x3c4ad107	0.012378938
106	0xbb42e805	-0.0029740345
107	0x3b34ece4	0.0027607018
108	0xbc52fcec	-0.012877684
109	0xbc19dd7d	-0.009391186
110	0x3d064794	0.032783106
111	0xbc39f479	-0.011349791
112	0x3cb954e0	0.02262348
113	0xbcaa56f1	-0.02079341
114	0xbc9b75a6	-0.018976998
115	0xba8f3c02	-0.0010927918
116	0x3d878881	0.06617833
117	0xbc9f134e	-0.019418385
118	0xbb7a7830	-0.003821861
119	0x3c665b68	0.014059879
120	0xbc417af7	-0.011809102
121	0xbca1659b	-0.01970177
122	0xbd083539	-0.033253882
123	0xbcc4f4bc	-0.02404248
124	0x3c3dfb19	0.011595511
125	0xbcbec216	-0.023285907
126	0x3c754d2e	0.014972014
127	0x3c393723	0.0113046495
128	0xbc1c20f5	-0.009529342
129	0x3c2cfac0	0.01055783
130	0x3c95f5e6	0.01830573
131	0x3c29d267	0.010365105
132	0x3c08c271	0.00834714
133	0x3c00d914	0.007864255
134	0x3cf36763	0.029712385
135	0x3c681f3e	0.014167605
136	0xbc9c2288	-0.019059435
137	0x3cf7752b	0.030207237
138	0xbd78319f	-0.060594197
139	0x3c9a77a3	0.018855875
140	0xbc20036c	-0.009766441
141	0x3d2909a9	0.04126898
142	0x3bd95da4	0.0066334773
143	0x3bc3b11d	0.0059720413
144	0x3ce4ff83	0.027953869
145	0xbcfd4ca2	-0.03092033
146	0xbd0ae5d3	-0.033910584
147	0x3cb6225d	0.022233183
148	0x3c05ca24	0.00816587
149	0xbd06babd	-0.03289293
150	0xbcd12d34	-0.02553425
151	0xbcbd87cb	-0.02313604
152	0xbc3c41b3	-0.011490273
153	0xbbb9b490	-0.0056672767
154	0xbc8fd0d2	-0.017555628
155	0xbd1f5877	-0.038902726
156	0x3a93c3d1	0.0011273568
157	0xbb783909	-0.0037875792
158	0x3d5a95aa	0.053365387
159	0xbc6ccc81	-0.014453054
160	0xbc7ed9a2	-0.015554817
161	0xbb9bd04a	-0.0047550546
162	0xbaac0445	-0.0013123831
163	0xbd0002d8	-0.031252712
164	0x3b536fa3	0.0032262586
165	0x3c93fb63	0.018064206
166	0xba794767	-0.0009509236
167	0xbb847639	-0.0040424136
168	0x3c12a27c	0.008949872
169	0x3b549797	0.0032438987
170	0xbc564e33	-0.013080168
171	0x3b1a8303	0.0023576624
172	0x3d07fcea	0.033200182
173	0x3cc0542f	0.023477642
174	0xbc3a4c4c	-0.01137073
175	0x3d08520c	0.03328137
176	0xbc0c4a0d	-0.008562577
177	0x3c03d53e	0.008046446
178	0x3c1fd182	0.00975454
179	0xbc4075fe	-0.0117468815
180	0x3c579eaf	0.013160392
181	0xbd65d9a3	-0.056115758
182	0xbc39ef00	-0.011348486
183	0x3d173b25	0.03692164
184	0x3b01ca00	0.001980424
185	0x3cd95a4b	0.026532313
186	0xbcdb37a1	-0.026759924
187	0xbd2bd2c8	-0.041949064
188	0xbb61d8dd	-0.0034461536
189	0xbcccd0f6	-0.025001984
190	0x3ce37f84	0.027770765
191	0xbc472017	-0.012153647
192	0xbac44483	-0.0014974031
193	0x3d40b060	0.047043204
194	0x3c1a5ae9	0.009421089
195	0x3d2d93f2	0.04237742
196	0x3b623582	0.0034516756
197	0xb9bc9a52	-0.00035973132
198	0x3cbc4c4e	0.022985604
199	0x3b2f75ff	0.0026773212
200	0x3b3e1b51	0.002900798
201	0xbcbe3cd3	-0.023222363
202	0xbba9be18	-0.0051801316
203	0xbd07248f	-0.03299385
204	0xbbf508e5	-0.007477867
205	0x3b8eb9f3	0.004355663
206	0x3c21f5a7	0.009885228
207	0x3c4c8c69	0.012484648
208	0x3c3947bc	0.011308607
209	0xbcd1598a	-0.02555539
210	0xbc6ef0de	-0.014583794
211	0xbbf75ea5	-0.0075491243
212	0x3bd3e48a	0.006466453
213	0x3a6bbd16	0.00089927146
214	0x3cccca9c	0.024998955
215	0x3a9ae77c	0.0011818255
216	0xbc429648	-0.01187665
217	0xbc3b33ad	-0.011425895
218	0x3cb881e7	0.02252288
219	0x3d27d440	0.0409739
220	0xbd385f96	-0.045013033
221	0xb8809517	-6.131286e-05
222	0x3c5a9572	0.013341295
223	0xbc6aafd4	-0.014324147
224	0x3c16e4fe	0.009209869
225	0xbb3b957f	-0.0028623042
226	0xbc6eee2e	-0.014583154
227	0x3c6e6313	0.014549988
228	0x3b8673d4	0.0041031633
229	0xbc0e7cb9	-0.008696728
230	0x3c70c547	0.014695472
231	0xb9a44b94	-0.00031336828
232	0xbcd990b5	-0.02655826
233	0x3b63d761	0.0034765827
234	0xbb35f989	-0.0027767143
235	0x3bc8fb3d	0.0061334656
236	0x3d345e76	0.044035397
237	0x3cb82641	0.022479178
238	0xbcdaf037	-0.026725871
239	0x3c34cb02	0.011034729
240	0xbc09192a	-0.008367816
241	0x3b5c2db6	0.0033596582
242	0x3cd149be	0.025547858
243	0xbc82dc8b	-0.015974304
244	0xbd0285eb	-0.031865995
245	0x3b59a8f0	0.0033212267
246	0x3c84a4e9	0.016191917
247	0xbaa9b746	-0.0012948296
248	0xbc0dbc44	-0.008650843
249	0x3cb9d817	0.022686047
250	0x3c959b82	0.018262628
251	0xbc0286fd	-0.007966754
252	0x3b3ee798	0.002912974
253	0x3cb484fc	0.022036068
254	0xba6e45a6	-0.0009089358
255	0x3bd3ddbf	0.006465643

discrete_action_output_shape f4 [1, 2]
0	0x40400000	3.0
1	0x40400000	3.0

network_body._body_endoder.seq_layers.0.bias f4 [128]
0	0x3b865643	0.0040996387
1	0xb9c8786c	-0.00038236694
2	0x3d3e7cc0	0.04650569
3	0xbbf35585	-0.007425966
4	0xbc4f978d	-0.01267041
5	0xbb1fe749	-0.0024399331
6	0xbca5724e	-0.020196106
7	0x3c0ec93f	0.008714973
8	0xbc212238	-0.009834819
9	0xbb8adca2	-0.0042377273
10	0xbbfbd794	-0.007685611
11	0x3c2db61f	0.010602503
12	0x3bda14c1	0.006655306
13	0x3b9c22b6	0.00476488
14	0x3b9ae99f	0.004727557
15	0xbb9fcc91	-0.004876681
16	0x3c13f8f9	0.009031528
17	0xbb29220f	-0.0025807654
18	0xbc1d4a20	-0.009600192
19	0x3aa42b82	0.0012525173
20	0xbcd4b0a8	-0.025963143
21	0xbbd26590	-0.0064207986
22	0x3bbc22e8	0.005741466
23	0xbb9ce03f	-0.0047874744
24	0xbc954f9f	-0.018226443
25	0xbc63f950	-0.013914421
26	0xbb79fa48	-0.0038143564
27	0xbbdd9b2f	-0.006762884
28	0x3a074595	0.000516021
29	0xbc292786	-0.0103243645
30	0xbcb14f04	-0.021644123
31	0xbb54222c	-0.0032369
32	0x3bd89422	0.0066094557
33	0xbb07d3ae	-0.0020725536
34	0xbba249cf	-0.0049526463
35	0x3ac7b7ee	0.001523731
36	0x3af7dd39	0.0018910534
37	0x3b198fb3	0.0023431599
38	0xbb6e2f49	-0.0036344102
39	0xbc0af715	-0.0084817605
40	0xbc0b5077	-0.008503071
41	0x3a174472	0.0005770392
42	0xbba62109	-0.005069856
43	0xbb786c80	-0.0037906468
44	0x3c59377d	0.013257858
45	0x3c2aeb40	0.0104320645
46	0xbc75abfc	-0.014994618
47	0xb9b55762	-0.00034588116
48	0xbb560d9a	-0.0032661916
49	0x3bdcca98	0.0067380182
50	0xbc4c643f	-0.012475072
51	0xbc139c4d	-0.009009433
52	0x3b9fa012	0.004871377
53	0xbc7875b2	-0.0151647795
54	0x3c3a7a74	0.011381734
55	0x3a93bbe6	0.0011271208
56	0xbb3eba69	-0.0029102808
57	0x3bde4a5a	0.0067837657
58	0xbb9c6d7b	-0.0047737933
59	0xbbdaabf1	-0.006673329
60	0xbc440822	-0.01196483
61	0xbbc0cd76	-0.005883868
62	0xbb0ebcd8	-0.002178004
63	0xbb4e869e	-0.0031513344
64	0x3ca748fa	0.02042054
65	0xbb076527	-0.0020659657
66	0xbc89303d	-0.016746635
67	0xbaa781d9	-0.0012779786
68	0x3b053184	0.0020323703
69	0x3bcb9334	0.0062126163
70	0xb9aab37b	-0.0003255865
71	0x3b936fbe	0.0044994047
72	0x3d040d8e	0.03223949
73	0xba8c530f	-0.0010705906
74	0x3c461f52	0.012092428
75	0x3b275e25	0.0025538292
76	0x3bd1f633	0.006407523
77	0x3cec664f	0.028857378
78	0xbc114e56	-0.008868774
79	0x3c08e51a	0.008355403
80	0x3c14639b	0.009056951
81	0x3c069c39	0.008215957
82	0x3c9d4549	0.019198077
83	0xbc8ad2f8	-0.0169463
84	0xbc2e1b7b	-0.010626669
85	0x3b63955b	0.0034726474
86	0xbbe917fc	-0.007113455
87	0xbbd991ce	-0.0066396957
88	0x3c99be35	0.018767456
89	0x3b9355d7	0.004496317
90	0x3c8c5493	0.017130172
91	0xbcab6953	-0.020924246
92	0xbbe55f6c	-0.0069999006
93	0x3b84cb46	0.0040525524
94	0xbb7259de	-0.0036979835
95	0xbb9823a5	-0.004642921
96	0x3af11208	0.0018392215
97	0xbc2702d7	-0.010193548
98	0x3cd608ea	0.026127297
99	0x3bf9234f	0.007603086
100	0x38cfcdb8	9.908847e-05
101	0x3b7ade97	0.0038279647
102	0xbb850152	-0.0040589953
103	0x3c6faa53	0.014628011
104	0xbb74959c	-0.003732062
105	0xbc15b009	-0.009136208
106	0xba67b01c	-0.0008838193
107	0xbc03e764	-0.008050773
108	0x3b8dcbde	0.0043272814
109	0xbaf82b37	-0.0018933777
110	0xba4c6e4d	-0.00077984185
111	0x3c484734	0.012224007
112	0xb9c3e117	-0.00037361003
113	0x3bccb6fb	0.006247399
114	0x3ac84dcc	0.0015281974
115	0x3cbc45b2	0.022982452
116	0xb867373c	-5.5126133e-05
117	0xbc302e61	-0.010753245
118	0x3b264f6c	0.002537693
119	0xbbba933a	-0.0056938203
120	0x3a3c3627	0.00071797
121	0xbc5a2cc8	-0.013316341
122	0x3d146b55	0.036235172
123	0x3ca48653	0.020083582
124	0xb91ad7bc	-0.00014766952
125	0xbc0a9b29	-0.008459845
126	0xbc4c2df6	-0.01246213
127	0xbc42cbba	-0.0118893925

network_body._body_endoder.seq_layers.0.weight f4 [128, 383]
0	0x3d1e68f1	0.0386743
1	0xbc5765f8	-0.01314687
2	0x3b98cea6	0.0046633063
3	0xbdd257c1	-0.10270644
4	0xbd1a5696	-0.03768023
5	0xbcd5a7d7	-0.026081009
6	0xbcb6bea2	-0.022307698
7	0xbc88911d	-0.016670758
8	0xbc0c8940	-0.008577645
9	0x3d7176ff	0.058951374
10	0x3d09b2fe	0.033617966
11	0xbdde5f9e	-0.10858081
12	0x3bcffbe2	0.0063471654
13	0x3c900875	0.017582158
14	0xbc9e5e86	-0.019332182
15	0xbc9d4036	-0.019195657
16	0xbd302cc4	-0.04301144
17	0xbd5a80d3	-0.053345513
18	0x3d7c3c0d	0.061580706
19	0x3d1e4f45	0.038649816
20	0x3dae4397	0.085089855
21	0xbd05c1c2	-0.032655485
22	0xbdab80fd	-0.08374212
23	0xbdaf90c9	-0.085725375
24	0x3e30c52f	0.1726272
25	0xbcfcf8a4	-0.03088028
26	0x3d0bae61	0.034101848
27	0x3dd3fbaf	0.10350739
28	0xbd8bab0a	-0.068197325
29	0x3c84ccc1	0.016210916
30	0x3c48fd52	0.0122674275
31	0xbcc56cd7	-0.02409975
32	0xbcb09496	-0.021555226
33	0x3cb0e7e7	0.021594955
34	0xbd309ca7	-0.043118145
35	0xbd270d8e	-0.04078441
36	0x3d52c5cc	0.051458165
37	0x3cd47c54	0.02593819
38	0xbc90a6bb	-0.017657628
39	0xbc673d83	-0.014113787
40	0x3bfa32e8	0.007635463
41	0x3d3731bf	0.044725176
42	0x3d3754c7	0.044758584
43	0x3d9a5273	0.07535257
44	0xbc4f76e3	-0.012662622
45	0x3c7b5926	0.015341079
46	0x3b4f2cb5	0.003161234
47	0xbdcfdcd6	-0.10149543
48	0x3c20119d	0.009769824
49	0x3aa3c7d5	0.0012495468
50	0xbe2367f9	-0.15957631
51	0x3d484437	0.04889318
52	0xbca96514	-0.02067808
53	0xbd362bdc	-0.04447542
54	0x3e0a4241	0.13501836
55	0xbadff090	-0.0017085243
56	0x3da0efe5	0.07858256
57	0x3cc74953	0.024326956
58	0x3cc7c661	0.024386587
59	0xbd0ab93d	-0.033868063
60	0xbd3e5ff0	-0.046478212
61	0xbe152bc5	-0.14567478
62	0xbd12f8b7	-0.035881724
63	0xbd018017	-0.031616297
64	0x3cc5bc85	0.024137745
65	0xbdc23a01	-0.094837196
66	0xbaf76880	-0.0018875748
67	0xbdd9041a	-0.105964854
68	0x3df2017b	0.118166886
69	0x3dca5024	0.09878567
70	0xbd187d9b	-0.03722916
71	0xbc893912	-0.016750846
72	0x3dcd1ea2	0.10015608
73	0x3ce3c55c	0.02780407
74	0x3e22b425	0.15889032
75	0x3ca8c558	0.020601913
76	0x3b7a2159	0.003816685
77	0x3ca50a35	0.020146469
78	0x3d30de96	0.043181024
79	0xbde2aac2	-0.11067726
80	0xbe13d0e8	-0.1443516
81	0xbd7b1fd3	-0.061309647
82	0x3c2cde28	0.010551013
83	0x3d425f19	0.047453973
84	0xbdcc9fa3	-0.09991386
85	0xbd6cb10d	-0.057786036
86	0x3cc3d819	0.023906754
87	0xbc293f3f	-0.01033002
88	0xbd1e75a5	-0.038686413
89	0x3d5411d7	0.051774826
90	0x3a22917a	0.0006201487
91	0x3ded3875	0.11583034
92	0x3dcc46d0	0.09974444
93	0xbc86b1eb	-0.01644226
94	0xbd3161a0	-0.043305993
95	0x3d77c545	0.060490865
96	0xbcc85c13	-0.024457967
97	0xbdf1d457	-0.11808079
98	0xbd7a5f6a	-0.06112615
99	0x3d81244d	0.06305752
100	0xbe0c63ad	-0.13709898
101	0x3c028624	0.007966552
102	0x3deef59e	0.116679415
103	0xbe153f20	-0.14574862
104	0x3c8dd839	0.017315017
105	0xbdcbfa7b	-0.09959885
106	0xbd8e724f	-0.069553964
107	0x3d38ca87	0.04511502
108	0xbda4532d	-0.08023677
109	0xbcd37347	-0.025811804
110	0xbc9bb2b5	-0.019006113
111	0x3da68072	0.08129968
112	0xbd9b73e4	-0.07590464
113	0x3c6f6c31	0.014613197
114	0x3c3a6245	0.011375968
115	0x3d93938b	0.07205876
116	0x3ced3d86	0.02896
117	0xbdceab96	-0.10091321
118	0x3db8f074	0.09030238
119	0x3d2e0f8b	0.04249529
120	0x3da503b4	0.08057347
121	0xbd9a9717	-0.07548349
122	0xbdc8b3d2	-0.09799923
123	0x3d92fe2d	0.071773864
124	0xbdb72be0	-0.08943915
125	0x3cf86ec0	0.030326247
126	0x3a537301	0.0008066148
127	0xbd1b9c84	-0.03799106
128	0x3e1baf45	0.15203579
129	0x3d495345	0.049151678
130	0x3ddcbbf0	0.10778034
131	0x3d86e9ab	0.065875374
132	0xbdd8ccb3	-0.10585918
133	0xbcf86bdf	-0.030324874
134	0xbddbd2ae	-0.10733543
135	0xbd59a493	-0.053135466
136	0x3d80da9c	0.062916964
137	0x3b4aee80	0.003096491
138	0x3c802b0b	0.015645524
139	0xbda2543d	-0.079262234
140	0xbd54b5cd	-0.05193119
141	0x3dd09820	0.101852655
142	0xbe1b1983	-0.1514645
143	0xbcfed42e	-0.031107035
144	0xbd1e7a50	-0.038690865
145	0x3dec34dc	0.115335196
146	0x3cb1602b	0.021652302
147	0xbcd492af	-0.02594885
148	0x3b99f654	0.004698554
149	0x3b3714c7	0.0027935968
150	0xbc1f81d1	-0.0097355405
151	0xbd95b8bf	-0.07310628
152	0xbd20ecd6	-0.039288364
153	0x3dd6af4c	0.10482654
154	0xbd592990	-0.053018153
155	0x3cc5a745	0.024127612
156	0xbd3bd305	-0.04585554
157	0xbd9eb0ed	-0.0774859
158	0xbde9a079	-0.11407561
159	0xbd7f6dec	-0.06236069
160	0xbdfb223a	-0.122623876
161	0xbd8bd9c1	-0.06828643
162	0x3d87e036	0.06634562
163	0x3cfdf8f3	0.031002497
164	0xbc551105	-0.013004546
165	0xbb881dd7	-0.004153948
166	0xbdc862ad	-0.09784446
167	0xbd61e57e	-0.0551505
168	0xbd2d53fb	-0.04231642
169	0x3c8187e8	0.015811875
170	0xbcc56aa0	-0.024098694
171	0x3c13cb6a	0.009020666
172	0xbde69b11	-0.11260045
173	0x3c1a54cc	0.009419631
174	0x3d63c083	0.055603515
175	0x3d00f40a	0.031482734
176	0xbdc56daa	-0.096400574
177	0xbd4bb788	-0.049735576
178	0xbdbfa813	-0.093582295
179	0x3cbec0a8	0.023285225
180	0xbce26309	-0.027635114
181	0x3c3c3a68	0.0114885345
182	0x3c7ef13c	0.015560444
183	0xbc883814	-0.016628303
184	0x3ab9c7be	0.0014173908
185	0xbe00d80b	-0.12582414
186	0x3d6f1130	0.058366
187	0x3d3ab120	0.045579076
188	0x3d8e07cd	0.06935082
189	0xbc834e52	-0.016028557
190	0xbc45916b	-0.012058596
191	0x3bbf0d02	0.005830408
192	0xbd2057f7	-0.03914639
193	0xbe09ca7e	-0.13456151
194	0xbd3a9444	-0.045551553
195	0xbdc87cc4	-0.09789422
196	0xbd29ac83	-0.041424286
197	0xbd55fba6	-0.052241944
198	0x3c9207f7	0.017826064
199	0xb999b95c	-0.00029320538
200	0xbb012ca1	-0.0019710439
201	0x3d143172	0.036179967
202	0x3d7a91ad	0.061174084
203	0xbb9bfe1e	-0.0047605177
204	0xbc3b8bb9	-0.011446887
205	0x3b909291	0.0044120033
206	0x3c8563c3	0.016282922
207	0x3d9e39be	0.07725857
208	0x3d357f06	0.044310592
209	0xbd6beebf	-0.057600733
210	0xbd8c0e39	-0.0683865
211	0xbdfacf1e	-0.12246536
212	0xbcfaa491	-0.03059605
213	0xbcc3a4fe	-0.023882385
214	0xbdb7bf64	-0.08972052
215	0xbe05de33	-0.13073044
216	0xbd4d8d94	-0.050183848
217	0xbc86f19c	-0.01647263
218	0x3be5b68e	0.0070102876
219	0x3cb3dd3f	0.021956084
220	0xbcdcab13	-0.026937043
221	0xbd3a1aaf	-0.045435604
222	0xbdc5eaee	-0.0966395
223	0xbcb92850	-0.02260223
224	0x3d8a7856	0.067612335
225	0x3d33b0c6	0.043869756
226	0xbcc34cb3	-0.023840284
227	0xbd077047	-0.03306606
228	0x3c36733f	0.011135875
229	0x3c0d027a	0.0086065475
230	0xbd439d87	-0.04775765
231	0x3bdbc9bd	0.0067073987
232	0xbd8d6910	-0.06904805
233	0xbb8997ce	-0.0041990047
234	0xbdb245ce	-0.087047204
235	0xbc807093	-0.01567868
236	0x3ddd59af	0.108081214
237	0x3d2f00ce	0.042725377
238	0x3d1e73b6	0.03868457
239	0xbd6d6aa6	-0.057963036
240	0xbdad809d	-0.08471797
241	0xbb0bdc6e	-0.0021341103
242	0x3d35c216	0.044374548
243	0xbd321da9	-0.043485317
244	0xbd27a133	-0.040925216
245	0x3cb5f0c3	0.02220953
246	0xbcc4ee03	-0.024039274
247	0xbda3e6dd	-0.08003018
248	0xbdd80f70	-0.105498195
249	0x3da5e7ba	0.08100839
250	0x3d7022e1	0.058627013
251	0xbd243ecb	-0.040098947
252	0xbd8ed666	-0.06974487
253	0xbd0e807c	-0.0347905
254	0x3dad478a	0.084609106
255	0xbc98e423	-0.018663472

network_body._body_endoder.seq_layers.2.bias f4 [128]
0	0x3956fbda	0.00020502452
1	0x3b943817	0.004523288
2	0xbc2d1e00	-0.010566235
3	0x3c2de4fb	0.010613675
4	0x3b783909	0.0037875792
5	0x3c04d01a	0.008106256
6	0x3b9edcd0	0.0048481002
7	0xbb00b474	-0.0019638808
8	0xbbd70599	-0.0065619466
9	0x3c13756c	0.0090001635
10	0x3bf8ecfd	0.0075966106
11	0x3840a60c	4.593101e-05
12	0xbb2d3ef6	-0.0026435233
13	0x3bad296e	0.00528448
14	0xbb2defbc	-0.0026540598
15	0xbc18b55c	-0.009320583
16	0x3b2d0493	0.0026400432
17	0x3bf43202	0.0074522505
18	0x3b73a8aa	0.003717939
19	0x3b48be07	0.0030630843
20	0xbb193608	-0.0023378152
21	0x3badeed8	0.0053080134
22	0x3a62ce8a	0.00086519925
23	0xbc245cec	-0.01003192
24	0xbc2eb20f	-0.01066257
25	0xbc2c032e	-0.010498805
26	0x399420d8	0.0002825323
27	0x3bcc493e	0.006234317
28	0xbc775c0e	-0.015097631
29	0xba3e5d86	-0.0007261861
30	0x3c2de15e	0.010612814
31	0x3ad42cd2	0.0016187674
32	0x3909b6cb	0.00013133434
33	0xbb684d04	-0.0035446296
34	0xbc44e477	-0.012017361
35	0xbb592d9b	-0.0033138755
36	0xbbe10ab6	-0.006867732
37	0x3b85f731	0.0040883054
38	0xb9a8d2d0	-0.00032200525
39	0xbbe7857d	-0.0070654736
40	0xbbe87998	-0.007094573
41	0xbbdb1075	-0.0066853114
42	0xbc0213f7	-0.00793933
43	0xbbea1b95	-0.0071444013
44	0x3b96e84a	0.0046053277
45	0x3c4d9dba	0.012549812
46	0xbb71e79f	-0.0036911739
47	0x3c0d5d96	0.00862827
48	0x3b081367	0.0020763518
49	0xbbcc4fac	-0.0062350836
50	0xbb0787de	-0.0020680348
51	0xbbf6b999	-0.007529449
52	0xbc1f068d	-0.009706152
53	0x3b22211c	0.0024738973
54	0xbb300bee	-0.002686258
55	0x3b9e12a8	0.0048240013
56	0xbb61582a	-0.0034384825
57	0x3b9dbf8e	0.004814095
58	0x3ad158ff	0.0015971957
59	0x3be71d2d	0.0070530386
60	0xbc27af71	-0.0102347
61	0x3b6b0f52	0.0035867286
62	0x3bfa1e80	0.0076330304
63	0xbbb9fb6b	-0.0056757233
64	0xbb5e5991	-0.0033927897
65	0xbb86fa45	-0.00411919
66	0xba82629c	-0.0009947601
67	0x3c21369e	0.009839682
68	0xbc82289c	-0.015888505
69	0xbbdeb7c4	-0.006796809
70	0xbae87084	-0.0017733728
71	0xbc9ea478	-0.019365534
72	0x3aafb27d	0.0013404634
73	0xbb92367a	-0.0044620605
74	0x3a3b70a1	0.0007150267
75	0x3c211c39	0.009833389
76	0xbc058dd1	-0.008151487
77	0x3c7044f9	0.014664882
78	0xbb424f0b	-0.0029649164
79	0xbbf6fd74	-0.007537538
80	0x3be347c1	0.006936044
81	0x3c7ed363	0.015553328
82	0x3c9b5be1	0.01896471
83	0xbc4f1c94	-0.012641091
84	0xbb1f70bb	-0.0024328667
85	0xbb30187c	-0.0026870063
86	0x3bd4a1c2	0.0064890096
87	0x3aab8780	0.0013086647
88	0xbc6772d6	-0.0141265
89	0xbadf305a	-0.001702796
90	0x3c7ad793	0.015310186
91	0x3c5bf7c2	0.013425769
92	0x3c8c4b74	0.017125823
93	0xbbc0a4a7	-0.005879003
94	0x3c31ad58	0.010844551
95	0xbbb4f197	-0.005521964
96	0xbc962fa5	-0.018333266
97	0xb8f702f6	-0.00011778429
98	0x3adcaf3f	0.0016836895
99	0xbce33e3b	-0.027739635
100	0xbc1f6f83	-0.009731176
101	0xbb77011e	-0.0037689875
102	0x3c0d83a8	0.008637346
103	0x3b9a6c73	0.004712635
104	0x3bd6614e	0.0065423613
105	0x3c8dfaf8	0.017331585
106	0xbc84f5b2	-0.016230438
107	0xbca00bae	-0.01953682
108	0xba239cd5	-0.00062413263
109	0xbb692c46	-0.0035579368
110	0x3c60345b	0.0136843575
111	0xbb6991b4	-0.0035639824
112	0x3b85e7b8	0.004086461
113	0xba61a45b	-0.000860756
114	0x3c4e74be	0.012601076
115	0xbc8c3d89	-0.017119186
116	0x3c335c8a	0.010947356
117	0x3a5f744a	0.00085241033
118	0x3b7ce6e5	0.0038589772
119	0x3b41047d	0.0029452138
120	0x3ae6ee86	0.0017618693
121	0xbaba00ae	-0.0014190876
122	0x3be20870	0.0068979785
123	0x3c9c8be3	0.019109672
124	0x3b23b2a3	0.0024978302
125	0x3c20b248	0.009808131
126	0xbb4d041f	-0.0031282974
127	0xb920442a	-0.00015284182

network_body._body_endoder.seq_layers.2.weight f4 [128, 128]
0	0x3db0f354	0.08640161
1	0x3e1294de	0.14314601
2	0x3dba172f	0.09086453
3	0x3b3eee7a	0.0029133842
4	0x3d4bca60	0.049753547
5	0xbd792c45	-0.060833234
6	0xbdd01be3	-0.10161569
7	0xbccb7da3	-0.024840182
8	0x3bdfb337	0.006826784
9	0x3d9b9098	0.075959384
10	0xbdbc7382	-0.09201719
11	0x3e0bf64b	0.13668172
12	0xbd710a86	-0.058847927
13	0xbce4b8e4	-0.027920194
14	0xbd7e3419	-0.062061403
15	0x3db7347b	0.08945557
16	0xbd4bfce0	-0.049801707
17	0xbc12a615	-0.00895073
18	0xbd9d213a	-0.07672353
19	0xbe0a50cf	-0.13507389
20	0x3d49cf59	0.049270008
21	0x3c18c87c	0.009325143
22	0x3e12fd64	0.14354473
23	0x3cf97182	0.030449633
24	0xbc922ed8	-0.017844602
25	0x3e062179	0.13098706
26	0xbcf5d552	-0.030008946
27	0x3e34d7c0	0.17660427
28	0x3da13385	0.07871155
29	0xbc8602c7	-0.016358746
30	0xbcc74908	-0.024326816
31	0xbdec9fbe	-0.11553906
32	0x3e244685	0.16042526
33	0x3e19cbaa	0.15019098
34	0xbcd4c990	-0.025975019
35	0xbcc191f0	-0.023629159
36	0xbddf7a71	-0.10912026
37	0x3d91085f	0.07081675
38	0xbd57eb84	-0.05271484
39	0x3da56854	0.0807654
40	0x3e264302	0.16236499
41	0xbcd9905b	-0.026558092
42	0xbd2f4a4a	-0.042795457
43	0xbc43966d	-0.01193772
44	0xbe079f3e	-0.1324434
45	0x3de6fe94	0.11279026
46	0x3d48c3aa	0.049014725
47	0xbe0697a5	-0.13143785
48	0x3bf591c9	0.0074941856
49	0xbdce60c3	-0.100770496
50	0x3dd57893	0.10423388
51	0xbd2b787e	-0.041862957
52	0x3d90b554	0.070658356
53	0x3d805784	0.06266692
54	0xbbb5ad71	-0.0055443575
55	0x3c430693	0.011903423
56	0xbc51d943	-0.012808147
57	0xbde4d35a	-0.111731246
58	0xbdbd814f	-0.09253179
59	0x3d88f724	0.06687763
60	0xbdcb2ea6	-0.09921007
61	0x3d8f1cdd	0.06987927
62	0x3c20acac	0.009806793
63	0xbd5d6bf9	-0.05405805
64	0x3dbb3927	0.0914176
65	0xbe687dc2	-0.22704223
66	0xbe10f7de	-0.14157054
67	0x3e337ead	0.17528792
68	0x3ddb19ed	0.10698304
69	0xbe987462	-0.29776293
70	0xbe04da13	-0.12973814
71	0x3cd8a87b	0.026447525
72	0x3de4dd0b	0.11174973
73	0xbd467347	-0.04844978
74	0x3cf63945	0.030056605
75	0xbe0b5cba	-0.13609591
76	0x3cdc323b	0.02687942
77	0x3e36e9a4	0.17862564
78	0x3d10c2a2	0.035341866
79	0xbe01a027	-0.1265875
80	0xbd908bdd	-0.07057927
81	0x3db5952d	0.08866344
82	0xbd73e765	-0.059546847
83	0xbd1ded21	-0.038556222
84	0x3bdc1548	0.006716404
85	0x3dfb40bb	0.12268206
86	0xbd035302	-0.032061584
87	0x3bb7c13e	0.005607753
88	0x3dd1b56d	0.10239682
89	0x3d743e22	0.059629567
90	0xbd52b7b7	-0.051444735
91	0xbd4239ae	-0.04741829
92	0xbe8b1693	-0.2716566
93	0xbe2aa15e	-0.16663119
94	0x3d0b85ce	0.034063153
95	0x3d94fd99	0.072749324
96	0xbc2422ee	-0.0100180935
97	0xbda88a36	-0.08229487
98	0xbd875f78	-0.06610006
99	0x3d7e7962	0.06212748
100	0x3bc6e980	0.006070316
101	0xbcb3f65c	-0.02196806
102	0xbdc21ac0	-0.094777584
103	0x3d29e3dc	0.04147707
104	0xbe03d1d3	-0.1287301
105	0xbda4cbdf	-0.08046698
106	0xbd9fcd03	-0.07802775
107	0xbc7d2b67	-0.015452242
108	0xbc7d9fab	-0.015479962
109	0x3c811505	0.015757093
110	0xbcb6b479	-0.022302853
111	0x3cbe2a9f	0.023213683
112	0x3d31b727	0.04338756
113	0xbd9d3bfb	-0.07677456
114	0xbdef54bb	-0.11686083
115	0x3c4cb0b3	0.0124933
116	0xbd8f4bb0	-0.06996858
117	0xbcf5c701	-0.030002119
118	0xbe61c5af	-0.22048067
119	0xbdfd73a1	-0.1237557
120	0xbde95555	-0.11393229
121	0x3de32fb6	0.110930845
122	0x3dc246b4	0.09486142
123	0x3d864dec	0.06557831
124	0x3cbff9a5	0.02343447
125	0x3df6542b	0.120277725
126	0x3cb37cf4	0.021910168
127	0x3d001065	0.031265635
128	0xbd4e16af	-0.0503146
129	0xbe159d1a	-0.1461071
130	0xbd9ae405	-0.075630225
131	0xbd89777c	-0.06712243
132	0x3dfb2218	0.12262362
133	0xbd17eb1d	-0.037089456
134	0x3dbc6b33	0.09200134
135	0xbe536d23	-0.20647101
136	0x3dc6d189	0.097079344
137	0x3e207852	0.15670899
138	0xbcaec309	-0.021333234
139	0xbd8d249f	-0.068917505
140	0x3d9e13a7	0.07718592
141	0x3d292045	0.04129054
142	0x3db35da4	0.08758095
143	0x3b96e278	0.004604634
144	0x3e009cfa	0.12559882
145	0x3d048db2	0.032361694
146	0x3e17e3be	0.1483297
147	0x3e07f6f1	0.13277794
148	0x3e52af1c	0.20574611
149	0xbc2f3107	-0.010692841
150	0x3dedb87b	0.116074525
151	0x3e0cb238	0.1373986
152	0x3ddcde28	0.107845604
153	0x3d4b2424	0.049595013
154	0x3e446bb1	0.19181706
155	0xbc8b2128	-0.016983584
156	0xbd8aa553	-0.06769814
157	0xbd103712	-0.03520877
158	0xbb1931f8	-0.002337573
159	0x3b855d14	0.0040699337
160	0xbcbf54bd	-0.023355836
161	0xbdb4dcc0	-0.08831167
162	0x3e1a139a	0.1504654
163	0x3c86eb4d	0.016469622
164	0xbe208116	-0.15674242
165	0x3cfc80d2	0.030823145
166	0xbe274178	-0.16333568
167	0xbc7d9022	-0.0154762585
168	0x3d588c58	0.052868217
169	0x3c56b36a	0.013104299
170	0xbdb634be	-0.088967785
171	0x3cf216e5	0.029551933
172	0x3cd67293	0.02617768
173	0xbaaf6415	-0.0013381267
174	0xbd8821aa	-0.06647046
175	0xbd154905	-0.03644659
176	0xbde811ea	-0.11331542
177	0x3e0eb739	0.13937081
178	0x3da8f3d7	0.08249634
179	0x3df99ce6	0.12188129
180	0xbcaffc50	-0.021482617
181	0xbd8a5ca4	-0.06755951
182	0xbe6c94f5	-0.23103698
183	0xbc9915bb	-0.01868712
184	0x3d1e49e0	0.03864467
185	0x3bd0437d	0.0063557015
186	0xbd4711ac	-0.048600838
187	0xbd990908	-0.07472426
188	0xbe2164d0	-0.15761113
189	0x3d9a2cf6	0.07528107
190	0xbd6034af	-0.054737743
191	0xbd9171da	-0.071017936
192	0xbdd2f12c	-0.10299906
193	0xbdadb914	-0.084825665
194	0x3c8c2332	0.017106626
195	0xbce0989e	-0.027416524
196	0xbde22602	-0.11042406
197	0xbd82fd27	-0.06395941
198	0x3d27125f	0.040789004
199	0xbd54a503	-0.05191518
200	0xbc3c856f	-0.011506422
201	0xbd67520e	-0.056474738
202	0x3df7c368	0.12097818
203	0x3e20765a	0.15670148
204	0x3cf09b88	0.029371038
205	0x3bd64294	0.0065386984
206	0xbcb9f1ab	-0.022698244
207	0xbcdf525d	-0.027260954
208	0x3e5016d6	0.20321211
209	0xbd4e501a	-0.05036936
210	0xbe20428b	-0.15650384
211	0xbd86d81f	-0.065841906
212	0xbc6396a2	-0.013890894
213	0x3e0cd09b	0.13751452
214	0x3c9862c6	0.018601786
215	0xbc83090c	-0.015995525
216	0x3d88014f	0.066408746
217	0xbd3b519e	-0.045732133
218	0x3c1961f2	0.009361731
219	0x3d25cb8b	0.040477317
220	0xbe0361e7	-0.12830316
221	0xbd4dc1d3	-0.050233673
222	0xbd562def	-0.0522899
223	0xbd704d33	-0.058667373
224	0x3d9e43bc	0.07727763
225	0x3e50cb1d	0.20389982
226	0xbdab898d	-0.08375845
227	0x3cada246	0.021195542
228	0x3d87185f	0.06596445
229	0xbdf32e14	-0.11874023
230	0x3c0db4a1	0.008649022
231	0xbd74f14d	-0.059800435
232	0xbb8c5235	-0.004282261
233	0xbdad524b	-0.08462962
234	0x3d4257b7	0.047446933
235	0xbc6e49d3	-0.014543968
236	0xbd99956d	-0.07499204
237	0x3a11862b	0.00055513036
238	0x3de28973	0.110613726
239	0x3d181488	0.037128955
240	0x3d0d9ab4	0.034571365
241	0x3df5ea39	0.12007565
242	0xbd207a3d	-0.039179076
243	0x3cd3c7de	0.02585214
244	0xbd073b4a	-0.033015527
245	0x3e2a25b1	0.1661594
246	0x3d4ce2d4	0.050021008
247	0x3d2aedb0	0.041730583
248	0x3d8d3762	0.06895329
249	0x3d979954	0.07402292
250	0xbbb4e756	-0.0055207415
251	0xbde2a70a	-0.110670164
252	0x3dde57f4	0.108566195
253	0xbd6c8f96	-0.05775412
254	0xbe01742c	-0.12641972
255	0x3d43232e	0.04764097
