Assets/NN/Level1/CharacterBehav-2199969.onnx (onnx, 268569 bytes, 9 tensors)

action_model._discrete_distribution.branches.0.bias f4 [3]
00000000: 1175 973f 30f1 94bf fc32 27c0
1.1832601 -1.1636105 -2.6124868

action_model._discrete_distribution.branches.0.weight f4 [3, 128]
00000000: 9871 75bb 0cf3 d83b 024c cabd 5393 cc3d
00000010: 7480 a03e 9f1c 0d3e c975 3ebf 9b7a 04be
00000020: f627 393f afb0 763d 71f4 993d f02a 8abe
00000030: 8966 29bd 0eba 443e 34af 5b3d 1451 863f
00000040: 89bf bc3e 14b9 69bd 504c 49be cb37 263f
00000050: 6e3b dc3e 95e9 c73e ec25 a0be 55a1 7ebc
00000060: 0c52 6c3f 047a 34bc cce7 583c 9a09 e1be
00000070: aeb1 e3bf 1edd 32bf 7b3e 1ebf 93a3 93bf
00000080: fd95 cb3e dca5 14bf 2159 a53e 2b8f 0f3e
00000090: 2274 8dbe 974a a0bc eb79 523e 74fb 97bd
000000a0: 56f0 563d 4108 493e 422c 2c3e 32cd d7be
000000b0: 887f dcbd 2ffd fa3d 5ce6 79bf 6dc3 193e
000000c0: 6c9d a63c 185d ed3b 0144 7c3f a3b9 9ebe
000000d0: e61b edbc 75a4 4c3f 0d96 573f a1e2 4bbf
000000e0: 6886 643e 394e 1dbd 3f78 e83e 7e2d 72be
000000f0: d9dc 1e3e 2d5d b03e 2121 dc3e 8c74 7bbe
00000100: 237d 893e e6c4 4b3f 8d7e 2ebe b33d 32be
00000110: 57ae 973e e4eb e1bd a23b 80bf 4aaa 93bf
00000120: 2339 fc3a 0cdd 56bd 7ab2 e4be 36a0 56be
00000130: 5c26 63bf 1975 14bf 0dad 0abf 50bb 6b3d
00000140: 4e29 89be 62ec 013e 2947 a73c 9c78 9cbc
00000150: 0db9 b63d c8a1 ad3d 89d2 1b3f ee26 bf3e
00000160: 1eeb 21be 9e00 a83d 38fb 48be 07a5 243c
00000170: d040 44bb c7b7 b6be 0663 2d3e c34b 3e3d
00000180: 11a2 3c3c 988a 103d b9f0 e0bd d21f 813d
00000190: de3e bd3e bc59 133d 2aed c53d 8494 813d
000001a0: 9f06 02be f0ee 0a3d d38a d43e 482a 8cbd
000001b0: 3011 b93e 008c 13be 036a b83e 45d3 2dbf
000001c0: 09d9 033e 33da 623f 5390 f53e 976a b73e
000001d0: 0ac2 4ebc 8743 2c3e 9245 863e d9fb 06bf
000001e0: 0967 13bd 5782 0c3d 4fa3 3e3f 0aa3 77bb
000001f0: 48dd 2e3e 2eba 9fbd faff 6bbd 77a0 f23e
00000200: da2f b43c d85a 883b 0df3 fc3d 5b2a 26be
00000210: aae8 9cbe 2d4c 04be d939 3a3f fd5f 043e
00000220: b91e 3dbf 232b 50bd 9f06 3fbd b4e5 883e
00000230: 50ce 823d 509d 3fbe 65c4 14bd f602 83bf
00000240: 66d7 b2be 74c4 8d3d 5b91 203e 2eda 22bf
00000250: b26a d2be 09c5 c5be 3522 ab3e 79d8 123c
00000260: dd83 6fbf 2531 013c c237 bebc be3c dd3e
00000270: a5da e53f ad53 273f caf5 063f 3486 933f
00000280: 5e73 d2be 7c0c 163f 542e 97be 4bed 26be
00000290: 7ca4 853e 86f7 f7bb 0c83 46be 4812 b63d
000002a0: 4ee1 79bd f319 5bbe 74af 2abe 365d d23e
000002b0: 9973 dd3d 4b88 1bbe 60e9 753f 54ac edbd
000002c0: 87b0 b7bc f796 e83b 09f8 7cbf 7b80 803e
000002d0: 56d9 de3c 691e 4dbf 3d76 5abf 5a71 463f
000002e0: f705 57be f04c ba3c 43f7 e8be 28d7 533e
000002f0: 248e 0abe 88e3 98be f25c d6be 2756 303e
00000300: 20f6 b9be 4569 49bf a258 3f3e 4fe4 4a3e
00000310: 00a0 9cbe 97c0 da3d 3835 7d3f 82b7 933f
00000320: e393 a73c 1ee4 893d 7fa4 e53e cd8f 0e3e
00000330: e0a6 513f 855d 113f e3a6 043f ecbc 62bd
00000340: 3652 553e e03a dcbd efed a83c 6ef8 5b3d
00000350: e388 9bbd 34cb 12be 52c9 1bbf d06a b4be
00000360: efce 273e b6f9 2fbe ae0a 653e ebf0 143c
00000370: e329 4a3c ae6f be3e 3c21 19be 436b 7ebd
00000380: 5379 c9bb ee2b 1fbc dd45 1b3e 185a 5cbd
00000390: 692d debe 9845 3fbd 63d2 eabd b60b 2fbd
000003a0: 3c17 153e 6982 9bbc c4b0 d4be a269 523d
000003b0: 5fff bbbe 95da 143e edd5 bfbe c5fd 2c3f
000003c0: 832a d5bd c435 64bf 3a61 f9be a6a4 a7be
000003d0: a42b 213d f215 36be ab42 7ebe 4a28 093f
000003e0: 328e 3abd 3062 0dbe 9e18 3dbf 3ebe 183c
000003f0: e21a 32be f3fb 863d 7136 463d 752c 03bf
-0.003745174 0.0066207703 -0.098777786 0.09989037 0.31348002 0.1378045 -0.74398476 -0.12937395
0.723266 0.060227092 0.075173266 -0.26985884 -0.04135755 0.19211599 0.053633884 1.0493493
0.3686488 -0.05706127 -0.19658017 0.64928883 0.4301409 0.39045396 -0.31278932 -0.015541394
0.92312694 -0.011015419 0.013238858 -0.43952638 -1.7788599 -0.6986865 -0.6181409 -1.1534294
0.3976287 -0.5806558 0.32294562 0.14019458 -0.27627665 -0.019566817 0.2055432 -0.07421008
0.052475296 0.19632055 0.16813758 -0.4214874 -0.10766512 0.12255322 -0.97617126 0.15015955
0.020338736 0.0072437637 0.98541266 -0.31001005 -0.028943967 0.7993844 0.84213334 -0.79642683
0.22316897 -0.038404677 0.4540424 -0.23650166 0.15513934 0.34446087 0.42994025 -0.24556178
0.26853284 0.7959732 -0.17040463 -0.17406349 0.29625198 -0.11031321 -1.0018198 -1.1536343
0.0019243102 -0.0524569 -0.44667417 -0.20959553 -0.88730407 -0.57991177 -0.54170305 0.057551682
-0.26789325 0.12687829 0.020419674 -0.01910048 0.089220144 0.08478123 0.60868126 0.37334388
-0.15812346 0.08203243 -0.19627082 0.010049111 -0.0029945858 -0.35687086 0.16932306 0.04645897
0.011513249 0.035288423 -0.10983414 0.06304897 0.36962026 0.03597425 0.09664376 0.06327155
-0.12697838 0.033919275 0.41512164 -0.06844002 0.36145926 -0.14408875 0.3601838 -0.67900497
0.12875761 0.88614196 0.47961673 0.3582351 -0.012619505 0.16822635 0.26224953 -0.5272804
-0.035986934 0.03430399 0.7446794 -0.0037786388 0.170766 -0.07799183 -0.057617165 0.4738805
0.021995474 0.00416122 0.12351046 -0.16227095 -0.3064626 -0.12919684 0.7274452 0.12927242
-0.73875004 -0.05082239 -0.046637174 0.2673775 0.06387007 -0.18712354 -0.03632011 -1.0235279
-0.3492996 0.06922236 0.15680449 -0.63614166 -0.41097027 -0.38626888 0.33424535 0.008962744
-0.9356058 0.007885252 -0.023219947 0.43210405 1.795735 0.65362054 0.52718794 1.152533
-0.41103643 0.586128 -0.29527533 -0.16301458 0.26102054 -0.007567349 -0.19385928 0.088902056
-0.061005883 -0.21396618 -0.16668493 0.4108674 0.10813064 -0.1518871 0.96059227 -0.116051346
-0.022423042 0.0070980745 -0.9881597 0.25098023 0.027203243 -0.8012453 -0.8533667 0.7751671
-0.20998369 0.022741765 -0.45501146 0.20687544 -0.13530785 -0.29861093 -0.41867787 0.17220365
-0.3632059 -0.78676254 0.18686154 0.19813655 -0.3059082 0.10681265 0.9890933 1.1540377
0.02045626 0.06732963 0.44852063 0.13922043 0.81895256 0.56783324 0.5181715 -0.05535595
0.20832142 -0.10753417 0.020621268 0.053703718 -0.075944684 -0.14335328 -0.60854065 -0.3523774
0.16387533 -0.17185101 0.22367355 0.009090642 0.012339088 0.3719458 -0.14954084 -0.06211401
-0.006148496 -0.0097150635 0.1516337 -0.053796858 -0.4339402 -0.04669723 -0.11465909 -0.042735778
0.14559644 -0.018983083 -0.4154111 0.05137027 -0.3671827 0.14536507 -0.374679 0.6757472
-0.10408499 -0.8914454 -0.4870699 -0.32742804 0.03934826 -0.17781809 -0.2483012 0.535771
-0.045545764 -0.13806987 -0.7386569 0.009322701 -0.17393067 0.06591024 0.048391763 -0.5123971

action_model._discrete_distribution.branches.1.bias f4 [3]
00000000: d4cb 0e3f ef72 19bf d1c5 20bf
0.5577977 -0.59941 -0.62801844

action_model._discrete_distribution.branches.1.weight f4 [3, 128]
00000000: b5e7 2f3d 9d5d 4d3e 6818 7fbd c5d5 0cbf
00000010: 4ed4 64be 2f4a 7dbb f3a1 86bd fddb d1be
00000020: 8c9e 9abe 81c3 213e 9a5c 1e3d 70a7 39bd
00000030: f786 bfbd 93eb 2ebf c428 143f 6e37 c8be
00000040: 92b0 97be 60e5 37be 789f 48bc e231 313e
00000050: 3f18 be3e aed5 c53d 7808 8cbe 3605 7dbc
00000060: c32b e9be e565 973d 326f 493e b9cc 453d
00000070: 7790 c3bd 647a 043d e576 24be 6e8c d83d
00000080: 294e 47bf a460 b8bd a382 fdbc e92b edbd
00000090: af4d 9ebd 4f38 08be 415b fbbe 5136 c0bd
000000a0: d1cc e13d 1c40 acbd 6232 c7be d6ee a1bc
000000b0: 96b2 b8be 764f f0bd 85e2 5abd 5113 32bf
000000c0: 4231 113f 2ff5 7e3e 29d2 86be c5ce 49be
000000d0: 664e 1ebd 7bce f63d 3771 253d 94cb 7b3f
000000e0: cfbc 4b3d 36e4 3bbf fefe 363f c57e a23e
000000f0: 5bfd 9ebe 6afb 0abe cde4 b6bd f01b 61be
00000100: 1bbb b1be 2f30 483d 5726 0e3e 80d2 c33e
00000110: 2306 81be f2bc cebe 16cb d7bc 8d3f 44bc
00000120: 19e3 d93d c47e 0d3d d74c 61bf f602 e23d
00000130: f5fa 533e b53c 60bf ca49 6bbd 135a f73d
00000140: 708c e2be 7884 3abf 586c fd3c 341c 063f
00000150: 577e 313e 9703 a93e 6291 abbd 2c98 763e
00000160: 99ce 01bd 2a93 b0be f3e6 83be eac5 483d
00000170: 8aea 1e3e 3904 7bbe cf0d dcbe 5e5e 113e
00000180: 1726 52bb 45e2 463f e9fd 2a3f 0dbf 0cbf
00000190: 54d8 913d 57d7 89be 0ac2 a2bd e97b 613e
000001a0: 1150 043f 802b 463d da47 58be e7bd 24be
000001b0: 1f03 82be 5f22 603d 3b8e e6be 5c50 adbe
000001c0: 3802 c23d 2dd5 2c3e eada 17bf ea13 b23e
000001d0: c62c b2bd f61f b53f 0935 a6be b4f9 e8bc
000001e0: 71f9 913d 8a47 00bf 18b5 a83e 771a efbd
000001f0: 4f06 c33d e158 f73c b037 87bd 8496 05bf
00000200: b41b 303c aed8 7bbf 428c 30bf 66c5 b53e
00000210: 42fe 873f d47d fcbe d8f6 0fbd b34a cc3d
00000220: 3440 4abd a5a1 a9bf 9ea2 86bf 9dad 61bf
00000230: b12a 5a3e 2380 48bc 7a71 0dbe b9f5 a63e
00000240: e989 923e ef05 83bf afaa 9fbf 134a e83e
00000250: 0949 263e b4e4 22bf 9e17 f53e 038b a93d
00000260: 1ae8 ba3e 8387 ac3c 42ad 2f3e 989b 96bd
00000270: 8a81 633d 9eaa 4abe 8afc d73b a0b5 e0be
00000280: c9ba 913f 4c51 343e 7557 88be e8c1 ba3f
00000290: 53da a6be 8b40 883e e70b bd3f 4170 aebe
000002a0: 66b0 c8be a1f9 fa3e b47e 8d3e 03e3 acbe
000002b0: 3b90 743d 922c 02bf 5465 883e 4398 3e3e
000002c0: 6f4f 14bf de42 13c0 de03 2d3f 3cd6 293f
000002d0: dd54 77bf ea73 c8be 11fd debf b00a cbbe
000002e0: dcd1 2ebf 6300 d63f 4739 a7bf fb8a 503f
000002f0: 6169 9c3e 0a73 84bf 13df 073f 3b23 bd3f
00000300: ffca 77be b658 9d3e 4255 0e3e 9c01 c03d
00000310: 977b 1040 1124 9b3e dd06 94be 6ef4 9fbe
00000320: 2a08 73bf 994b 87bf 38d2 e43e d494 a2bf
00000330: ad98 93bc a124 643f f9a9 323d fe0b 9dbe
00000340: 005d a33f ac64 2040 88bd b5bf ed21 23bf
00000350: a1e2 cbbf 5a74 d03e 510d a6bd 8a6f 0fbf
00000360: 4927 4cbf 840f f43e f66d 0c3f 2463 0b3e
00000370: d978 a23e 6c74 02bd 5297 b2bd 5de2 40bf
00000380: e1eb 633e 7274 0dbf ce56 a9be 26e6 a140
00000390: ab1c 0ec0 c872 73bf 6111 ba40 c356 63bf
000003a0: d9a5 d73e 0759 1bbf a572 a83f 884e ebbd
000003b0: eff3 333f edf4 bf3d 5250 a63f 1a58 ba3e
000003c0: 9123 77bf c23a bdbf fa2e db40 243b cd3d
000003d0: 138d 73bf b4a4 92bf 4ac9 3a3f 9482 b63e
000003e0: 86fc 07c0 d6eb ac3f 3ded 603f 9dad 3b3f
000003f0: 2da8 223d 320c dabe 39c0 f33e 3aef 5840
0.042945582 0.20055242 -0.062279135 -0.55013686 -0.22346613 -0.0038648953 -0.06573858 -0.4098815
-0.30199087 0.15797235 0.03866253 -0.045325696 -0.093519144 -0.6832821 0.57874703 -0.3910479
-0.296269 -0.17958593 -0.012245052 0.17304185 0.37127873 0.09659897 -0.2735021 -0.015443137
-0.455412 0.07392482 0.19671324 0.048290942 -0.09549039 0.032343283 -0.1606098 0.1057366
-0.7785364 -0.09002808 -0.030946082 -0.11580641 -0.07729661 -0.1330273 -0.4909306 -0.0938536
0.11025394 -0.084106654 -0.38905627 -0.019767206 -0.3607375 -0.11733906 -0.053438682 -0.69560724
0.56715786 0.24898218 -0.26332214 -0.19707783 -0.038648985 0.12051102 0.040391173 0.9835751
0.04974061 -0.733951 0.7148284 0.31737342 -0.3105267 -0.1357247 -0.08930359 -0.21983314
-0.34713063 0.048874076 0.13881813 0.38246536 -0.25199994 -0.4037853 -0.026341956 -0.011978042
0.106390186 0.03454472 -0.88007873 0.11035721 0.20701201 -0.8759263 -0.057443418 0.12077727
-0.4424777 -0.7285838 0.030935451 0.52386785 0.17333351 0.3301055 -0.08377339 0.24081486
-0.031691168 -0.34487277 -0.25762138 0.04901687 0.15519157 -0.2451333 -0.42979285 0.14196154
-0.003206616 0.7768901 0.66793686 -0.5497902 0.071213394 -0.26922104 -0.07947166 0.22019924
0.5168467 0.04838133 -0.21121159 -0.16088067 -0.25393006 0.05472028 -0.45030388 -0.33850372
0.094730794 0.16878195 -0.5931841 0.34780818 -0.08699946 1.4150379 -0.32462338 -0.02843938
0.07127655 -0.5010916 0.32950664 -0.1167497 0.09522688 0.030193748 -0.066024184 -0.52182794
0.010748792 -0.983775 -0.68964016 0.35502166 1.0624468 -0.4931475 -0.035147518 0.09975185
-0.049377635 -1.3252455 -1.0518377 -0.8815554 0.21305348 -0.012237581 -0.13812819 0.32609347
0.28620842 -1.0236186 -1.2473963 0.45369014 0.16238798 -0.63630223 0.4786958 0.082784675
0.36505204 0.02106071 0.17155936 -0.07353896 0.05554346 -0.19791648 0.0065913843 -0.4388857
1.1385127 0.17609137 -0.26629224 1.4590425 -0.32588443 0.26611742 1.4769257 -0.34070018
-0.3919708 0.49018577 0.2763573 -0.33766946 0.05970786 -0.5084926 0.26639807 0.1861277
-0.57933706 -2.3009562 0.67584026 0.6634252 -0.96613866 -0.39150935 -1.742098 -0.3965659
-0.6828897 1.6718868 -1.3064355 0.8146207 0.30549148 -1.0347607 0.5307476 1.4776376
-0.2419853 0.30731744 0.13899711 0.09375307 2.2575433 0.30300954 -0.28911486 -0.31241173
-0.9493433 -1.0569946 0.44691634 -1.2701669 -0.018017137 0.8911839 0.04361913 -0.30673212
1.2762756 2.5061445 -1.4198465 -0.6372364 -1.5928537 0.4071377 -0.08108009 -0.5602957
-0.79747444 0.47668087 0.5485529 0.13612038 0.31732824 -0.03184931 -0.08720268 -0.753454
0.2225795 -0.55255806 -0.3307404 5.0593443 -2.2204998 -0.9509702 5.8146214 -0.8880426
0.4211872 -0.6068272 1.3159987 -0.11489588 0.7029409 0.09372888 1.2993262 0.3639534
-0.96538645 -1.4783556 6.8494844 0.10021046 -0.9513714 -1.1456513 0.7296339 0.35646498
-2.1247878 1.3509471 0.87861997 0.7331179 0.039711166 -0.4258743 0.47607592 3.3896012

discrete_action_output_shape f4 [1, 2]
00000000: 0000 4040 0000 4040
3.0 3.0

network_body._body_endoder.seq_layers.0.bias f4 [128]
00000000: 3c1e 0dbc 389d 83bd 9781 31bd 45d9 dfbd
00000010: ee09 a1bb 5277 683c 0515 a2bb a59a c5bc
00000020: 37f8 85bd f455 5f3c 2dea 03bd 354b dbbc
00000030: 61eb 9bbd a197 02bd 2b73 88bd 201a 97bd
00000040: 399b d7bc bfd1 8ebd e0f9 94bd 3bd3 60bc
00000050: 5644 39bd 6de1 50bd bf60 9abd 29a3 83bd
00000060: bc48 9abd e08a fcbc 316c 96bd e551 53bd
00000070: d7c8 36bd 2b65 4ebb 26d9 fcbb 7062 15bc
00000080: 0458 19bd f698 dcba 7670 c8bd f3b5 763d
00000090: a7e2 89bc 0b20 86bd e912 d9bc f414 10bd
000000a0: 0422 23bd 1162 36bd 8cb1 b9bd fadf 863c
000000b0: c9e7 16bd 207c 5abd 6631 dfbd 2f1c 57bd
000000c0: 2bfb 9cbc a4b4 c9b9 61f6 cd3c e803 68bd
000000d0: 59bb 4b3b c6fe b9bd 7ca0 14bd 0413 b4bd
000000e0: ce02 b0bd 0a48 3ebd e187 94bd 2393 5ebc
000000f0: aa41 fa3c 0647 febc 3c30 d1bd c460 1abd
00000100: 8bff 72bd 39ce 6bbc a72c 3abd 2cf6 16bd
00000110: a49c 55bd 8fa5 babd b1e8 74bc d598 873d
00000120: e36b 8b3d 55d1 303d a95a 77bd 47d3 f3bd
00000130: 803f a73c 90dc 03bd 6f2c b5bc 4cc1 043c
00000140: 563a 7ebc 9cad c7bc f97a 85bc 872f 09bd
00000150: e99f fcbc e250 3cbd e1f5 2dbc 3aff 85bd
00000160: eb02 043d b0cd fcbc 0cd9 fbbc 4ac2 39b9
00000170: 39bb 8fbd d063 f8bd a9a2 f53a 6895 96bd
00000180: 06e0 c6bb 35ea f3bd 1375 03be ae0a 66bd
00000190: fafd ccbb 28e7 97bd 107f bfbc cfc9 febc
000001a0: 5871 e6bd 981b 423b 07a6 4abb ba8b 023b
000001b0: f63d e5bc 8c19 da3c 20cd 4dbd 0d96 28bd
000001c0: 27c4 5c3c f066 e4bc 58e2 40bd c308 b3bd
000001d0: db91 a1bd 2653 c0bd d4fd a9bd 9115 d3bc
000001e0: 2950 bfbd 8bc0 d53b 37b1 47bd 949a 40be
000001f0: b6a8 63bd 0488 e3bd e876 39bc dc85 54bd
-0.0086131655 -0.064264715 -0.043336477 -0.10930113 -0.004914514 0.014188604 -0.0049463534 -0.024121592
-0.06541484 0.013631333 -0.03220575 -0.02676926 -0.07613254 -0.031882886 -0.066625915 -0.0737803
-0.026319133 -0.069736 -0.072742224 -0.013722236 -0.045231186 -0.050996233 -0.07537984 -0.06427605
-0.07533404 -0.03082794 -0.073448546 -0.051591773 -0.04462513 -0.0031493406 -0.007716316 -0.009117708
-0.037437454 -0.0016830254 -0.09787075 0.060232114 -0.01683171 -0.065490805 -0.026498275 -0.035176232
-0.03982736 -0.044527117 -0.090670675 0.016464222 -0.03684214 -0.05334103 -0.10898094 -0.052517112
-0.019162735 -0.00038472295 0.025141897 -0.05664435 0.003108701 -0.09081797 -0.036285862 -0.087926894
-0.08594285 -0.04645542 -0.07252479 -0.013584885 0.03054889 -0.031039726 -0.10214278 -0.03768994
-0.059325736 -0.014392429 -0.04545274 -0.03685586 -0.052151337 -0.09113609 -0.014948056 0.06620947
0.06807687 0.043168385 -0.060389195 -0.11905532 0.020416021 -0.032192767 -0.022115914 0.008102726
-0.015516838 -0.024374776 -0.01629399 -0.03349259 -0.03083797 -0.045975573 -0.010617704 -0.06542821
0.032229345 -0.030859798 -0.030743144 -0.00017715353 -0.07018132 -0.12128413 0.0018740493 -0.07352716
-0.006069186 -0.11909906 -0.12837629 -0.05616253 -0.0062558623 -0.074171364 -0.023376018 -0.03110209
-0.11252087 0.0029618498 -0.0030921714 0.001991971 -0.027983647 0.02662351 -0.05024445 -0.041158725
0.013474501 -0.027881116 -0.04709086 -0.087419055 -0.07889148 -0.09390859 -0.08300367 -0.02576712
-0.09341461 0.006523197 -0.04875299 -0.18808967 -0.055580817 -0.11109927 -0.011319853 -0.05188547

network_body._body_endoder.seq_layers.0.weight f4 [128, 383]
00000000: c9a2 18bf c668 2a3b 1478 07bc 44b9 483d
00000010: 5c44 2ebc 53c5 99bd dc94 f7bd a6cc c13e
00000020: 1e8e b33e d1ca ba3e 6a05 c13c b9e3 7dbd
00000030: 8bb8 443d c22b 92bd 41d5 363e 0579 a9be
00000040: fe23 f5be d500 bcbe 81c4 a3be f690 8f3d
00000050: ea29 0abc 3b2b 3f3d 83a4 0c3d de8f 943e
00000060: 3ffe 133d 8267 773d 3522 b2ba 9f3a 4bbd
00000070: b696 e93d d2e2 f03b f3e6 fb3b c631 43bd
00000080: 1d8d 70bf 846c 10be c36c 3a3e 8b61 2c3f
00000090: 6e7a 68be 3a44 8e3c bc97 a13b ff46 c7bd
000000a0: bf0b d73c 24cf 78bd f2d8 f1be 7cf0 ca3c
000000b0: d685 bb3d 3ade b33d 5e51 febd 00cc 38bd
000000c0: 1a43 89bd 58b7 19bd a9de 42c0 4c9d e0bc
000000d0: 4d09 aebe 06e2 2fbf 8adf 583e e1a5 10bb
000000e0: 690f 683f e60a 993b da27 96bd 0683 f1bd
000000f0: fa04 31be 1558 5fbe 8cea 22be 2491 9a3d
00000100: 46a4 b43d cc05 d2ba 9650 a5bd b395 e0bd
00000110: 5277 d9be c98b d6be f657 103e 3c9d 16bf
00000120: fce7 973e aff2 343d 820c a63e b409 7fbd
00000130: 65ae 4b3b c155 1ebe 898f 14bf 360c 1fbe
00000140: 087d 65be 569c 983e 647c 413c 8f4a 08bd
00000150: 62fd f43d 9f18 0dbe 1adc 0abf 49c7 31be
00000160: c87c 17bf ed01 85bf 3cf8 953e 2027 aaba
00000170: 4e57 903e b700 81bd d25e 5abf 21c6 86bc
00000180: 0c6a 0dbf 4a9e 71be 3785 a6be 5028 923e
00000190: 837d d7bb 1f2e 9fbf 0f1e ba3e a8de 5e3c
000001a0: 0871 02be a346 1ebf 9406 ddbd d1e6 c63e
000001b0: 64c9 c6be 4d43 07bd d470 253f 2b8d 3cbb
000001c0: 1e7a 72bd c549 9a3d a908 25bf 5f83 313e
000001d0: 0941 edbd 2ea1 d63e 44e6 b23d f7e8 35bf
000001e0: d9ad f53e e982 533e 0cfb 29c0 c4b8 2fbf
000001f0: aa30 bb3d 5e0a b93d 5485 30be ed89 443d
00000200: d510 14be 73a3 8fbc 7d35 80bf 0ffd 7a3d
00000210: 5c57 08c0 fedb 9e3d b486 e2bd dcae de3e
00000220: 689f 3c3c cd03 61bf 54e3 db3e f971 8b3f
00000230: 5e10 483f 9854 53c0 199d 803f 5732 58bf
00000240: 8145 28bf 3431 b43b 2ccc d53d 6da3 633d
00000250: e7f4 63be dfc0 2e3c 2d46 30bf b159 583f
00000260: 4cf3 ac3d 838f a43e db7b 50bd 5db5 4bbf
00000270: 5ce5 efbe afb5 06bf 5d2f 0d3d 2a43 7f3e
00000280: af67 e63f d124 1cc0 72ba 9b3e cb4f 1ebd
00000290: e5bc d0be 19df bf3c f342 d9bc e7c3 483c
000002a0: 9ecd 17c0 ff4c 85be 071f b8be 7e06 87be
000002b0: 4bc9 123c 6eb0 9abe 43e4 f73e e6a6 d73d
000002c0: 6651 af3d 69ab 0ec0 9657 a83f 537c 96bd
000002d0: 995c a6bf 7133 09bc 8ba2 153f ebcc 34bd
000002e0: 8da5 2ebf 57ef 25bd f373 07c0 0725 80be
000002f0: 4aeb 1a3f 51a6 21be 54a3 0bbd fe0c 0fbf
00000300: 5944 983e d28e febe 847b dbbc 11b5 6abf
00000310: 143d 963f de31 3bbf 714b 72bf 67b2 83bb
00000320: d7eb 013f 1cbb d13d a0ce 16bf 4d51 b23b
00000330: 299a 01c0 340c 703f 55a2 353f 0705 e73c
00000340: 1bd8 503d ac2a 34bf 8f86 003e d0d6 683f
00000350: ea77 9ebd 218b 143f 2863 1a3e 1b3d ccbf
00000360: ce8f 91bf 6f22 593d e191 ccbd e118 163e
00000370: 757c 2dbf d81b 17bd adf6 e1be a3d0 d93f
00000380: 191c 043f 0f52 ecbe 445c 7abc ed09 8dbf
00000390: 429c 813e 0268 96bf 15fd 2dbd d615 a8bc
000003a0: e8e3 f03c 0438 2abf 0fc6 95bf b39f 0fbd
000003b0: 0487 033e ec11 8e3e 0447 09c0 de88 ddbc
000003c0: eb09 393f f0ea 0e40 f0bb 173f 9eb5 cc3e
000003d0: 1499 0a3d 3235 53bf 78a7 87bd 6639 c6bf
000003e0: 4fc4 533c 261d 983c 32f9 623d 6834 66bf
000003f0: 32da 9abf cee5 113d 4a7f d53e 9f6c a33e
-0.5962339 0.0026002391 -0.008268375 0.049004808 -0.010636415 -0.0750834 -0.120889395 0.37851447
0.35069364 0.36482862 0.023562152 -0.06198475 0.048027556 -0.071372524 0.17854787 -0.33100143
-0.47879022 -0.36719385 -0.31985858 0.07010071 -0.008432845 0.046672087 0.034336578 0.29016012
0.03613114 0.060401447 -0.0013590517 -0.049616452 0.11405699 0.007351258 0.0076874434 -0.04765489
-0.9396532 -0.14103895 0.18205552 0.6733634 -0.22702953 0.017366517 0.004931418 -0.09730338
0.026250718 -0.06074442 -0.4723583 0.024772875 0.091563866 0.08782621 -0.12417863 -0.045116425
-0.06702252 -0.037528366 -3.04484 -0.027418755 -0.3399147 -0.6870426 0.21179023 -0.0022071528
0.90648514 0.0046704886 -0.0733182 -0.11792569 -0.17287055 -0.21810944 -0.15909785 0.075472146
0.08820395 -0.0016023456 -0.08072011 -0.10966053 -0.42473847 -0.41903523 0.14096054 -0.5883367
0.29669178 0.044176754 0.32431418 -0.062265113 0.003107929 -0.154624 -0.5803152 -0.15532002
-0.22410977 0.29806775 0.011809442 -0.03327423 0.119623914 -0.13778923 -0.542421 -0.17361178
-0.59174776 -1.0391213 0.2929095 -0.0012981631 0.28191608 -0.062989645 -0.85300934 -0.016451897
-0.5523994 -0.23595539 -0.3252351 0.2854638 -0.0065762415 -1.243595 0.36351058 0.01360289
-0.1273843 -0.61826533 -0.1079227 0.38847974 -0.38825524 -0.033023167 0.6462529 -0.0028770666
-0.05919849 0.07533602 -0.6446634 0.1733527 -0.1158467 0.41919845 0.08735326 -0.710586
0.47984198 0.20655407 -2.6559477 -0.68641305 0.09140141 0.090351805 -0.1723836 0.0479831
-0.14459546 -0.017533993 -1.0016323 0.06127649 -2.130332 0.07756804 -0.11060849 0.43492782
0.011512615 -0.87896425 0.42946875 1.0894157 0.78149974 -3.3020382 1.0047942 -0.8445181
-0.65731055 0.0054990295 0.10439333 0.055575777 -0.22261392 0.010666101 -0.6885708 0.8451186
0.08444843 0.3214074 -0.050899368 -0.79573613 -0.46854675 -0.5262098 0.034468997 0.24927965
1.8000392 -2.439747 0.30415684 -0.038650315 -0.40769115 0.023421811 -0.026521182 0.012253738
-2.3719249 -0.26035306 -0.35961172 -0.2637214 0.008959125 -0.3021273 0.48416337 0.1052988
0.085604474 -2.229212 1.3151729 -0.07347932 -1.2997009 -0.008374081 0.58451146 -0.044140738
-0.6822136 -0.040511455 -2.116452 -0.2502825 0.6051527 -0.15786101 -0.03409131 -0.558792
0.29739645 -0.49718338 -0.026792295 -0.91682535 1.173739 -0.73122966 -0.94646364 -0.00401907
0.5075049 0.102407664 -0.58909035 0.0054418207 -2.0250342 0.9376862 0.70950824 0.02820064
0.050987344 -0.7037761 0.1255133 0.9095278 -0.077377155 0.58024794 0.15076888 -1.5956148
-1.1372011 0.053011354 -0.09988762 0.14657928 -0.6776803 -0.03689179 -0.4413351 1.7016796
0.51605374 -0.46156356 -0.015280787 -1.1018654 0.25314528 -1.1750491 -0.042477686 -0.020518225
0.02940555 -0.66491723 -1.1701068 -0.03506441 0.12844473 0.27748048 -2.1449594 -0.027042802
0.7228076 2.2330894 0.59271145 0.39982313 0.033837393 -0.82503045 -0.06623739 -1.5486267
0.012925222 0.018568587 0.055413432 -0.89923716 -1.2097838 0.03561955 0.41698676 0.3191881

network_body._body_endoder.seq_layers.2.bias f4 [128]
00000000: dc58 cdbd b7ec babd e343 473d cd8d 86bd
00000010: c414 6c3e 29f9 67be 15fb 2e3e a1d7 38be
00000020: 5811 d2bd 0991 f03e 47b3 d9bd f69c 043e
00000030: 86cb c33e 8277 75be 2f19 41be 5e38 aebd
00000040: 7481 9dbd 8205 c1bd 570b fe3d 8448 173e
00000050: 0505 e93d 612e b3bd c1cd ec3d 47ce 82bd
00000060: 7c0c bb3d d354 bb3e 8422 21be da19 c03e
00000070: c0e5 9d3d 2d22 84bb 2d56 abbe 7008 68be
00000080: ba91 41be 52fd eabe 6732 f0be 9a7e 6bbc
00000090: 3c79 ea3e ecd0 5abe 9eba 11be 4e78 9dbe
000000a0: 895e a9be a97d 23be 49f1 0abe 2b53 d33d
000000b0: ed8b 9c3b 73aa 4bbe 1e37 dc3d e349 0dbe
000000c0: d11e 35be d2e3 6cbe 2400 0b3e 5cf9 133e
000000d0: 85fb 3f3d ad39 60bc 2d12 d6be 7c2e 21bf
000000e0: 5803 58be a922 6ebe 8a89 69be cb17 95bd
000000f0: 7a76 a73e 696a d6be b92c 4f3d 26fd 953d
00000100: a224 ff3e f958 73be 6483 e23c 100f 60be
00000110: 6311 8d3d 39e9 b3be 43c6 34bd 6275 be3e
00000120: d6bc 89bd 9cd2 bbbd 1464 41bf 7afb 05be
00000130: b257 e63d 3d44 d4bd 8008 053f c484 94be
00000140: 6fde c4be facc 8bbe 622d 1fbe 4fa1 babe
00000150: 5ed4 c4bc 1848 04bf dc9e 603d 18a5 0abe
00000160: 3caf ba3d 5a9e c0bd 23db 173e 6b21 08be
00000170: bae5 a9bd 5aa4 e1bd 9282 bcbd f577 0dbf
00000180: c72c 6bbe b3bf 943c e792 61be 7659 2ebe
00000190: 8f77 b3be c284 323e 4719 a4be 241d b33d
000001a0: 99f3 24be cb26 033f b51d 5c3d c7e0 99b9
000001b0: 9985 08bf 6c96 0b3e 82ac 86be 41bf 1bbe
000001c0: 696a 9a3e 0f10 6cbe 218d 483d 9270 babe
000001d0: aa0e c43c 12b5 7abe 0e1a 82be 4dd3 1fbe
000001e0: 998c 48be 2700 66be 656f 3fbf 8cf0 063d
000001f0: d822 a6bd 5364 0b3d c75a 7abc 394f 4a3d
-0.10026714 -0.09127181 0.048648726 -0.06570015 0.23054796 -0.22653641 0.17087968 -0.18051006
-0.10257214 0.46985653 -0.106298976 0.12950501 0.38241214 -0.2397137 -0.18857263 -0.08506845
-0.07690707 -0.09424879 0.12404507 0.14773756 0.113779105 -0.087490804 0.11562682 -0.063870005
0.091332406 0.36588153 -0.15735823 0.37519723 0.07709837 -0.0040323944 -0.33464184 -0.22659469
-0.18903247 -0.45896393 -0.46913454 -0.014373446 0.4579562 -0.2136876 -0.14231345 -0.30755848
-0.33079937 -0.15965904 -0.13568605 0.103185974 0.0047774226 -0.1988924 0.107527 -0.13797717
-0.17687537 -0.23133782 0.13574272 0.14450592 0.046870727 -0.013685626 -0.41810742 -0.62961555
-0.21095026 -0.2325541 -0.22806373 -0.07279929 0.32707578 -0.4187806 0.05057976 0.07323675
0.49832636 -0.23764409 0.027650543 -0.21880746 0.06888082 -0.35138872 -0.04413439 0.3719893
-0.06725471 -0.0917103 -0.7554333 -0.13084212 0.11247195 -0.10364578 0.51966095 -0.29007542
-0.38450953 -0.27304822 -0.15544656 -0.36451194 -0.024027046 -0.51672506 0.054839 -0.13539541
0.091154546 -0.09405203 0.14829688 -0.13293998 -0.0829577 -0.11017676 -0.09204592 -0.55261165
-0.229663 0.018157816 -0.22028695 -0.17026314 -0.35052153 0.17433456 -0.32050535 0.087457925
-0.1610855 0.5123107 0.05373927 -0.00029349906 -0.53328854 0.136316 -0.26303488 -0.15209676
0.3015931 -0.23053001 0.048962716 -0.3641401 0.023932774 -0.24483135 -0.25410503 -0.15607949
-0.19584884 -0.22460996 -0.7477935 0.032944247 -0.08112115 0.034031224 -0.015280432 0.04939196

network_body._body_endoder.seq_layers.2.weight f4 [128, 128]
00000000: 2217 6bbf 8c3a a1bd 6b0e f6bc 269e bf3d
00000010: 920d b7bf 62e7 1d3e aefb babd 5414 273f
00000020: efcf 553e fbd6 b4be f572 8ebd 7968 ff3f
00000030: 9d0a 74bd 0c80 fabc 64d8 2abe 2f67 23be
00000040: 330d c33d b473 9b3d aab0 08bf 93c2 f5bd
00000050: 9e56 e4bb 6034 03bd 0687 b13e 2ec1 033d
00000060: da48 e1bb 8d87 94bd ccf1 cdbd 832d 1d3f
00000070: 52ec 183f b103 a4bd a918 133f 5903 ad3e
00000080: bf98 c83e fae7 9f3e 088f 9abe 598c 87be
00000090: 0db1 cf3d c044 e23d fd18 d3bd f279 973b
000000a0: 78fa 2e3f d8cc 073e e1ce 203e 476f c43d
000000b0: 16bf f93d e51f 55be 034d f8bc 0bcd 91bd
000000c0: d6dc 50be 3bb0 e9bc 1b4b 063f 6ac4 efbe
000000d0: 9f39 c5be cbf1 833e 4f8a ad3e a7b7 fcbd
000000e0: a5ba 1cbb 1e5e ad3e ef28 f93d df8d e3bc
000000f0: 2fb0 093c e006 b5be 3e00 1abd 459f 823e
00000100: f65c 893e df19 c0bd 92a4 3fbe 93da 043e
00000110: be3a c63d 3762 2bbe e94e d5bd 8fe1 8abf
00000120: d214 aebd cbb3 493e a93c 1a3e 77a9 1f3e
00000130: 2944 073e 4208 9c3e cf6e 58bd 46aa 98be
00000140: 78d1 ae3d 33ba 98bd 1f8e 993c 982d bebd
00000150: f5c3 813e 585b 623d 55e6 b4be 8d7f 3ebd
00000160: 9cc5 c93d fbae 443e a83d 1bbe d663 7b3e
00000170: 2459 07be 0ee1 553e 9339 f0be 9631 2a3f
00000180: 5607 0a3e eb8e a6bd 9738 9d3d 381f 01be
00000190: 0c11 57be 6c2f cd3c 0b40 b43d 241e 183d
000001a0: e629 083e 39e7 8e3e 3cfc ccbd f095 b6bf
000001b0: d0e3 69b9 e35a 4fbd 4215 32be 617d 8ebe
000001c0: 5667 3bbe 481a 42be b5bf e03e 07cc 583e
000001d0: c7b2 bf3e 52db 38be 77b9 d93c 5510 3c3d
000001e0: 3069 3c3e 03b2 0dbe a69c 2ebd 92ad d73d
000001f0: 919d a5bf 08dd 2b3e 09ea 61bd 9147 143d
00000200: cfd6 26be 2960 1cbe eff9 febe b4a0 393e
00000210: cfaf 863d 837f 5e3e 0194 b0be 717c 0cbd
00000220: b78c 8dbe 8d26 d7bd 4190 76be 9d70 d8be
00000230: 7669 ba3c 8c4f 4fbd 72fa b5bd a625 893a
00000240: 6c85 b53d 4e96 8dbf aad7 1abe 1f65 dabd
00000250: ff8b 9f3e ead3 703e ee61 de3d f401 2fbe
00000260: b092 183e 9a07 0cbf 224e 083f 41e6 133f
00000270: 724d 953e cdc6 1a3d fa85 4b3f 1ab2 793e
00000280: c736 f03e 1566 973e ebdd cb3e a632 653d
00000290: ba8b 08bf cb23 3dbd fe47 493c c9ce 9f3c
000002a0: 9684 5c3e 2721 0cbd 6139 373d 7f4d 3abd
000002b0: 90bb c53d 76e9 91be ac88 a03d 9078 d83e
000002c0: 2346 ecbd cb95 7d3d 3d5f 0d3f fe62 97bd
000002d0: 717f c63e 1113 213d 083c 973e eab3 2ebe
000002e0: 29e0 f9bd 5402 bf3e 3b54 133c 0538 073e
000002f0: 11bd bebc 78bb d43b 8c24 63bd 283a 0fbf
00000300: 8e89 e8bd fc66 adbe dfa5 15bc 9f21 ecbd
00000310: 7c44 dc3e 8cac fa3f ad80 6dbe 2756 a6bf
00000320: 93c7 02be 239a debb b305 96bd 303f 0f3d
00000330: a6e0 d2bd b1b2 21be 50d4 40be 0bdc bb3d
00000340: 30b7 4dbc fffa 9abf 682d 0dbe 6e93 223e
00000350: 2d91 4dbd 12d8 9e3e 02b5 d33d 0d7e 633c
00000360: 5e03 7f3e 2351 0b3e 6c7e 6f3b 3a38 dbbd
00000370: 6e8a a53d c9e4 923e ac8b 64be 050d 16be
00000380: 7976 d1be 26be 5e3d 9050 1a3e bbc0 24be
00000390: e373 f3bd 322e 51be db22 21bc f4fe 5fbd
000003a0: 4fa9 00be a45c 2c3e 71e1 873d 789a 4c3e
000003b0: 2507 f23c b468 7b3e a74c 833d bb82 58be
000003c0: c24e bcbd 6bd3 f1be 2579 993e 575c 9cbd
000003d0: d3b2 5c3e 1099 6cbe 44c7 e03c 3a23 47bf
000003e0: 7cc9 cb3d 2659 0bbf bbb0 c5be c190 73bd
000003f0: 2eb1 46be 719e 03be f844 043e 5d62 08be
-0.9183217 -0.07872495 -0.030036172 0.09356336 -1.4301016 0.15420297 -0.09130035 0.65265393
0.20880102 -0.35320267 -0.0695552 1.9953758 -0.059580434 -0.030578636 -0.16684109 -0.1595733
0.09524002 0.07590428 -0.5339457 -0.12000003 -0.0069683334 -0.03203237 0.34673327 0.032166652
-0.0068751397 -0.07252417 -0.10055885 0.6139757 0.59735596 -0.080085166 0.57459503 0.33791617
0.39179036 0.31231672 -0.3018725 -0.26474264 0.10141192 0.11048269 -0.103075005 0.0046226913
0.68350935 0.13261735 0.15703918 0.09591537 0.1219465 -0.20812948 -0.03031016 -0.07119187
-0.20396742 -0.028526416 0.5245835 -0.4682954 -0.38520524 0.2577041 0.33894584 -0.123397164
-0.002391496 0.33860868 0.121660106 -0.02777761 0.008403822 -0.35356808 -0.037597887 0.25512138
0.26828736 -0.093799345 -0.18715122 0.12974004 0.09679173 -0.16736685 -0.104154415 -1.0850085
-0.08500065 0.19697492 0.15062203 0.1559199 0.13209595 0.3047505 -0.05284005 -0.29817408
0.08536047 -0.0745739 0.018744526 -0.0928604 0.25344816 0.055262893 -0.3533198 -0.04650836
0.09852144 0.19207375 -0.15160239 0.24549803 -0.13217598 0.20886633 -0.46918926 0.6648191
0.13479361 -0.08132728 0.07676809 -0.12609565 -0.21002597 0.025047027 0.08801278 0.03713812
0.13297233 0.27910784 -0.100090474 -1.4264507 -0.00022305478 -0.050623786 -0.17390922 -0.27830032
-0.18301138 -0.18955338 0.4389626 0.2117158 0.37441084 -0.18052414 0.026577694 0.045914013
0.18399501 -0.13837437 -0.04262986 0.10531153 -1.293871 0.16783535 -0.055154834 0.036201064
-0.1629288 -0.15271057 -0.4980006 0.1812771 0.065765016 0.2172833 -0.34487918 -0.034298364
-0.2764642 -0.105054 -0.24078466 -0.42273417 0.022755366 -0.05061297 -0.08885659 0.0010463491
0.08863339 -1.1061494 -0.15121332 -0.106638186 0.31161496 0.23518339 0.10858522 -0.17090589
0.14899707 -0.546991 0.5324422 0.57773215 0.2916065 0.037787247 0.79501307 0.24384347
0.46916792 0.2957007 0.39817747 0.055956505 -0.53338206 -0.046176713 0.012285231 0.019507783
0.21534953 -0.034211304 0.044732455 -0.045484062 0.09654915 -0.2849843 0.07838568 0.42279482
-0.11536815 0.06191043 0.5522345 -0.07391928 0.38769105 0.039324824 0.29537988 -0.1706082
-0.12200958 0.37306464 0.00899225 0.13204964 -0.023283513 0.0064920746 -0.055454776 -0.55948114
-0.113543615 -0.33867633 -0.009133785 -0.1152985 0.43021 1.9583907 -0.23193617 -1.2995042
-0.12771444 -0.006793277 -0.07325306 0.03497237 -0.102967545 -0.15790822 -0.18830991 0.09172829
-0.012555882 -1.2107848 -0.13786852 0.15876552 -0.05018728 0.31024224 0.10337259 0.013885033
0.24903628 0.1360517 0.003654386 -0.10704084 0.08083044 0.28690174 -0.22318906 -0.14653404
-0.409107 0.05438056 0.15069795 -0.16089146 -0.11887338 -0.20427778 -0.00983497 -0.0546865
-0.12564586 0.16832215 0.066347964 0.199808 0.029544422 0.2455166 0.06411105 -0.2114362
-0.09194709 -0.47231612 0.29975238 -0.076348 0.21552591 -0.23105264 0.027438767 -0.77788126
0.099505395 -0.54432905 -0.38611397 -0.05946422 -0.19403526 -0.1285341 0.12916934 -0.13318773
