Assets/NN/Level1/CharacterBehav 2.onnx (onnx, 268569 bytes, 9 tensors)

action_model._discrete_distribution.branches.0.bias f4 [3]
00000000: d03b d03f 2464 cebf eb9b dcc0
1.6268253 -1.612431 -6.894033

action_model._discrete_distribution.branches.0.weight f4 [3, 128]
00000000: ddc6 bbbc c30a e6bd a160 8ebd 36dc 5b3e
00000010: c74f a63e 1842 163e 70f3 b0bf 5074 473c
00000020: 8be9 6b3f f59d 803d dbaf 763d 15ca a4be
00000030: bdca e1bd 1ad0 393d 8d6c 3f3e b1f5 903f
00000040: b3cf 3b3e 4f67 54bf a6fd 2b3d 6686 4a3f
00000050: 0963 283f a1f2 043f 42a3 9cbf 5d9b 63bd
00000060: fcc0 973f d433 2d3d d7c9 293d 906f 7bbf
00000070: 7979 c0bf 8c9e 76bf f5ed a5be 08f5 29c0
00000080: 3c60 cd3e 9418 19bf c12f f43e d33a bd3e
00000090: 68c5 c6be c72b 4d3e 8847 c93e c46b f9bd
000000a0: 3ebd 0c3d ac11 f33d 69d7 3d3e 4c1b f4be
000000b0: 4cd8 17be 13e1 403b ea4b 39bf c024 773f
000000c0: a7fe 1bbe fa2c 863c 5a8f e13f e5aa 8ebe
000000d0: 11a5 37bd 6bcc 403f 1546 c13f c6fd 9abf
000000e0: 8bd8 553e ea52 40be 4f68 793f 94eb 16bf
000000f0: 9161 823e 8e71 dc3f 90bf 9a3e dcf2 a7be
00000100: 7773 e33e baf1 913f bde9 b9be d41c aebe
00000110: 3c77 143f a34d 04bd 391b 25bf ee41 eabf
00000120: 6866 053d a1ec efbd 9b50 a1bf 9cca 4fbe
00000130: 1e9f 26bf c765 2dbf 6c94 adbe 1770 b53e
00000140: dfe3 d2bd 0cdf f63d 9091 aa3c 1024 633e
00000150: ab4c f03e 09d9 853b 89be b73f 0bd1 e83e
00000160: 7c08 b7bf aa43 013e 3a96 ddbe b1f6 563c
00000170: 3700 78bd 4ee3 01be 7297 df3e c733 e23d
00000180: f225 0dbe 968e 65bc 5fd4 7fbe 9633 a63d
00000190: b311 983e 9d1c 933c 1639 9b3d 75ec ab3d
000001a0: bb1f a5bd 725c b13c 68d8 073f c55e a5be
000001b0: 8f5f a33e 516f 0fbf 8c67 af3d e511 85be
000001c0: 1711 693e 7b32 dc3f 7312 073f 3464 e53e
000001d0: 472d 17be d84e 283f 175f 373f dea4 07bf
000001e0: 6390 f83d d786 5d3a 4cb8 5f3f 2b13 a83e
000001f0: 1031 893e 9293 36bd 3e1d 05be f5c4 873e
00000200: 8062 193d a15c 923d 6d34 b13d ecd7 8bbe
00000210: 1a65 a2be 029d 0abe ab11 b03f 7a8a db39
00000220: eb7c 6fbf 74bc 5abd 5544 0ebd cb90 a33e
00000230: 2b80 0d3e 6c8c 3ebd 75ae 2dbe 3150 8dbf
00000240: 65e1 76be 603a 573f 0da5 b6bd 12f8 50bf
00000250: 8fc0 23bf 2ff7 22bf 3180 a23f 6559 9b3c
00000260: 0a71 99bf 5620 3bbd 7a45 a9bd 1ac0 793f
00000270: d5d7 be3f 773f 5c3f 9900 753e 07ca 2840
00000280: f697 f8be 4de9 1a3f 8bab eabe 8d67 c7be
00000290: 6b7d bf3e a526 5dbe 9d0c cabe e8ab 0b3e
000002a0: b902 5abd 3006 15be d844 41be 74f3 f13e
000002b0: a313 183e a44b d0bc c1ae 363f 459c 72bf
000002c0: 4df4 173e 4920 5abb 763e e7bf 9b77 613e
000002d0: 0256 383d a951 42bf 014f c4bf 66b8 973f
000002e0: 9146 8ebe e5eb 1f3e aa19 79bf d991 0c3f
000002f0: ea35 65be eb66 d6bf 947f a0be 4df5 803e
00000300: c002 0abf 17fc 8cbf 2ce3 ae3e 7d77 b13e
00000310: 69a9 17bf 0b11 f23c 8190 223f 2c24 e93f
00000320: 049d c7bb 6c80 043e 2f1e a13f 4e5b 083e
00000330: 893c 133f 7b81 2b3f 2ee3 9e3e 20f3 b2be
00000340: 76a4 373d 467d e1bd cfbd 833c 4a0b 3ebe
00000350: 421b 02bf cc9f acbd 3d2c b6bf 92d5 ddbe
00000360: c197 b73f 61c6 85be bc5c be3e b2b5 af3b
00000370: 8ac0 873d fd88 923d 059c d4be 9057 f9bd
00000380: b3e2 123e 2098 103d 57d2 4a3e dcaa 9fbd
00000390: 6359 b8be fc2a 94bd 3383 40be 6625 90bd
000003a0: b13d 443d 942f c1bb 5d37 08bf 9fe3 9c3e
000003b0: 3a24 a8be 9285 fe3e bfbb 0dbe 03cb 863e
000003c0: 6a44 4fbe 529a ddbf 2a42 0abf bb2a ecbe
000003d0: a708 323e c6de 28bf 570e 32bf 0f2e 073f
000003e0: 1cf2 52be dda6 e9bd 897a 63bf b03a adbe
000003f0: 42ff 8bbe 9e4c d13c 18b2 f73d 3536 9bbe
-0.022921974 -0.112325214 -0.06952024 0.21470723 0.3248274 0.1467365 -1.3824291 0.012173727
0.92153233 0.06280128 0.060226303 -0.32185426 -0.110249974 0.045364477 0.18693753 1.1324979
0.1834095 -0.82970136 0.041989945 0.79111326 0.65776116 0.5193272 -1.2237322 -0.055568088
1.1855769 0.042285755 0.041452255 -0.98217106 -1.503707 -0.96335673 -0.3240811 -2.6555805
0.40112484 -0.5980313 0.47692683 0.36958942 -0.38822484 0.20036231 0.39312387 -0.12178758
0.034360163 0.11868605 0.18539204 -0.47677076 -0.14828604 0.002943103 -0.7238146 0.9654045
-0.15233861 0.016378868 1.7621872 -0.27864757 -0.044835154 0.7531192 1.5099512 -1.2108696
0.20883386 -0.18781629 0.9742479 -0.58953214 0.25465062 1.7222154 0.30224276 -0.32802474
0.4442403 1.1401894 -0.3631114 -0.3400637 0.5799444 -0.032300603 -0.64494663 -1.830137
0.032568365 -0.11715055 -1.2602724 -0.20292133 -0.65086544 -0.67733425 -0.339023 0.3543708
-0.10297369 0.120542616 0.020821363 0.22181726 0.46933493 0.0040847105 1.4355022 0.45471987
-1.4299464 0.12623468 -0.43278676 0.013120339 -0.06054708 -0.12684366 0.4367023 0.11045032
-0.13784006 -0.014011046 -0.24983357 0.08115308 0.29701003 0.01795798 0.07579248 0.0839471
-0.08062693 0.021650527 0.53064585 -0.32298866 0.31908843 -0.5602923 0.08564672 -0.25990215
0.22760426 1.7202905 0.52762526 0.4480301 -0.14763366 0.65745306 0.7162947 -0.5298594
0.121369146 0.00084505737 0.8739059 0.32827124 0.26795244 -0.044574328 -0.12999436 0.26517454
0.037447453 0.07146574 0.086525775 -0.27313173 -0.3171776 -0.13536456 1.3755392 0.00041874108
-0.93549985 -0.05340238 -0.034733135 0.31946406 0.13818423 -0.046520635 -0.16961081 -1.1040097
-0.24109419 0.8407345 -0.089182 -0.81628525 -0.63965696 -0.6365842 1.2695371 0.018963525
-1.1987622 -0.045685135 -0.08265205 0.9755875 1.4909617 0.8603434 0.23926009 2.6373308
-0.48553437 0.6051224 -0.45834002 -0.3894619 0.37400374 -0.21596773 -0.39462748 0.13639796
-0.053225253 -0.14553142 -0.18873918 0.47256052 0.14851241 -0.025426693 0.71360403 -0.947697
0.14839287 -0.0033283404 -1.8065937 0.22018282 0.0450039 -0.75905854 -1.533661 1.1853149
-0.27788213 0.1561733 -0.97304785 0.54910046 -0.22383848 -1.6750158 -0.31347334 0.2518715
-0.53910446 -1.1014432 0.34157693 0.34661475 -0.59242874 0.029549142 0.63501745 1.8214164
-0.006091716 0.12939614 1.2587336 0.1331608 0.57514244 0.66994447 0.310327 -0.34951115
0.044834577 -0.11010222 0.016081719 -0.18558994 -0.5082284 -0.08428916 -1.423225 -0.43327004
1.4343187 -0.26127914 0.37180126 0.005362236 0.06628521 0.07155035 -0.41525283 -0.12174904
0.14344291 0.035301328 0.19806801 -0.07796261 -0.36005697 -0.07234761 -0.18800049 -0.07038383
0.047910396 -0.0058955643 -0.5320948 0.3064241 -0.3284014 0.4971128 -0.1384115 0.2632676
-0.20240942 -1.731272 -0.5400721 -0.4612635 0.17386113 -0.65964925 -0.6955313 0.52804655
-0.2060017 -0.1140878 -0.8885885 -0.33833838 -0.27343184 0.02554923 0.120945156 -0.30314794

action_model._discrete_distribution.branches.1.bias f4 [3]
00000000: 5351 8b3f 5b83 f1bf 9c21 98bf
1.0884193 -1.8868212 -1.1885257

action_model._discrete_distribution.branches.1.weight f4 [3, 128]
00000000: 4348 0a3f 1a3e d43e ddd8 f3be da7a 7cbf
00000010: 2708 6f3c cc65 9f3d 622b 03be 6409 76be
00000020: 19df bcbe c964 093e 8d96 a43d ab03 e0bd
00000030: 9039 dfbd 2ab2 46bf 4d73 853f 8e89 c9be
00000040: 0242 10bf 9f6d 90be 8f99 a5be 8a19 063e
00000050: 0c70 313f c615 bb3b dbd0 1dbf fbd4 833d
00000060: 0ab5 b8bf 61a1 2d3c f29a ba3c 66f4 553e
00000070: a302 0abe 2006 0cbd bb86 9eba 568f 343e
00000080: c10e a9bf 89c9 39be 3dd7 b7bc 1ffe 00bf
00000090: 428a fabd d93a 4cbe 913e 88be a6a7 f2bd
000000a0: 659a fa3c a4dd 49be 0303 b9be ed23 f2bd
000000b0: 4b07 05bf f3a0 26be d798 dabd 4850 39bf
000000c0: 2270 7d3f 8b4f 153f c0e7 04bf 7651 0dbe
000000d0: 7845 e3bd 143e 3d3d c778 44bc c4e2 cc3f
000000e0: 0b6b 193c 9721 86bf 38bd 863f 6a43 3b3f
000000f0: 08e6 c0be 9ebf 44be b0a9 a3bd 525d e63a
00000100: 60dd acbe 2cdc 9bbc c878 0ebc ba3c bd3e
00000110: 3376 a1bf 48c5 e0be 8409 85bd 67c4 2cbd
00000120: 5a5b af3d 6c1e b9bd 6328 a9bf 62dc 593e
00000130: 1ecc 983e 94f6 7bbf 0630 5bbe 453e 483e
00000140: 897d 28bf b579 7cbf 330c 813d 4f25 473f
00000150: cb96 413e 14c3 d53d 338a 46bf a935 9b3e
00000160: 0524 4abe 327c 67bd c7ea 73be bfd1 f3be
00000170: 5765 983e fba4 e6be dfc4 53bf 2925 993d
00000180: 2ce6 73bd 0ead 6b3f b334 4f3f d383 22bf
00000190: ce39 483e 2ab8 c1be 91a4 2b3e db2e 843e
000001a0: 16a5 fd3e 2d75 173d 8faa 10be e512 01bf
000001b0: 55ff 45be 3d8e c03d 066e d7be cec0 a4be
000001c0: 337e fa3d 8efe e93d 7e44 30bf 9dcd 613e
000001d0: b645 c5be e2cc 1940 8924 82be 167c 3fbe
000001e0: 28f5 953d e1b9 15bf f448 da3e 41bd 03be
000001f0: 0eb2 4d3e 8f6a 7f3c dbc6 96bd 23de c5be
00000200: 0c6e 63bd e9dc d0bf 1cbb a2bf f4ec 3b3e
00000210: d5ac 8d40 2b4c 1cbf 5690 dbbe 7b97 a63e
00000220: ca96 4bbf d882 ebbf e877 98bf fc00 a7bf
00000230: 7e01 3a3e ffc8 71bd 8c40 ae3e 9734 db3e
00000240: 0dd0 ae3e 6710 cebf 434c 3d3d 804c fb3e
00000250: 14d4 123f eea0 8abf 9463 0c3f be8c 63be
00000260: 28bf 553f a2e0 cebc 61c9 4c3e 9496 e2be
00000270: 32eb 083c 74e9 a6be d6ae 8abe 917e 93be
00000280: 3cf5 0740 6854 c73e 5052 b0bf 3163 7c40
00000290: 6307 02bf 18d2 d13e b5aa b33f 9b98 7cbf
000002a0: 2c4b 43bf 4710 9f3f 8dd0 0c3f 84c9 86bf
000002b0: 73ed 0ebd b1dd 16bf d3c9 183d 77a3 f43d
000002c0: 2613 1cbe a61a 19c0 c174 723f e555 8e3f
000002d0: 7fdc c1bf 19ec e9be 28b3 28c0 229a ddbd
000002e0: 6bce 7abf e444 1d40 334f 72bf 6424 553f
000002f0: 3098 5d3e f4a8 00c0 ef6b 103f 644f 44bf
00000300: a407 abbf 9d5b 1d3e 5e63 a83e 1d13 a0be
00000310: 72ad 9540 2f35 093f 0b8d 65be 763d bbbe
00000320: b28a babf d59e ebbe d1f5 313f 9268 bebf
00000330: 0db5 8abe afa0 943f 33c0 773e 86d9 48bd
00000340: 93a5 c73f 87a2 da40 501a fdbf 6428 b8be
00000350: 3b09 fbbf 7843 f83e 9ebe 123f 465d 82bf
00000360: b948 5abf ef8b 333e 670a 143f 19fd f840
00000370: 0f6d bf3c 92d6 05bf f024 ebbe cfa5 c5bf
00000380: 1292 a73e a178 95bf 844b ccbe 3941 0941
00000390: ab18 72c0 bf12 84bf d5ab 3941 c7cf d7bf
000003a0: 6f98 323e 4563 8cbf daed a53f bbc6 f13e
000003b0: afc4 ceba df98 813e c08b aa3f ab4f 8c3e
000003c0: 7ed0 e9bf 02eb 20c0 811e 2841 e808 9ebe
000003d0: 6454 9ebf 120a 1abe b092 873f 9f4c 283f
000003e0: 208c 54c0 2480 5340 d593 423f 164c a73f
000003f0: 4777 f2bd 810c 1bbf f929 2140 4509 1341
0.5401651 0.4145363 -0.4762639 -0.98624957 0.014589346 0.07783088 -0.12809518 -0.2402702
-0.3688896 0.13417353 0.08036528 -0.109381996 -0.10899651 -0.77615607 1.0425812 -0.39362758
-0.5635072 -0.28208634 -0.32343718 0.1309568 0.69311595 0.0057093827 -0.61646813 0.06437107
-1.4430249 0.010597558 0.022778962 0.20894012 -0.13477568 -0.03418553 -0.0012094596 0.17632803
-1.3207628 -0.18143286 -0.0224415 -0.5038776 -0.12233402 -0.19944324 -0.26610234 -0.11848383
0.0305912 -0.19713455 -0.3613511 -0.118232585 -0.51964253 -0.16272335 -0.10673683 -0.72388124
0.98999226 0.583245 -0.5191612 -0.13800606 -0.110972345 0.04620178 -0.011991686 1.6006703
0.0093639 -1.0479001 1.0526495 0.7314974 -0.376755 -0.19213721 -0.0799135 0.0017575419
-0.33762646 -0.019025885 -0.008695789 0.36960393 -1.2614197 -0.43900514 -0.064959556 -0.04217949
0.08562346 -0.09039006 -1.321545 0.21275476 0.2984323 -0.98423123 -0.21405038 0.19555004
-0.6581655 -0.9862321 0.06301155 0.77791303 0.18905179 0.10437599 -0.77554625 0.30314377
-0.19740303 -0.056514926 -0.23820029 -0.4762096 0.29764816 -0.45047745 -0.82722276 0.07477791
-0.05954568 0.92060935 0.8093979 -0.634824 0.195533 -0.3783582 0.16761996 0.25816998
0.49540013 0.036976982 -0.14127563 -0.50419456 -0.19335683 0.0940213 -0.4207613 -0.32178348
0.12231102 0.114255056 -0.6885451 0.22051091 -0.38529748 2.40313 -0.254185 -0.18699679
0.073221505 -0.58486754 0.42633784 -0.12865163 0.20087454 0.01558937 -0.073621474 -0.3864604
-0.05552487 -1.6317416 -1.2713351 0.18352109 4.4273477 -0.61053723 -0.42883557 0.32537445
-0.7952696 -1.8399305 -1.1911592 -1.3047175 0.18164632 -0.059029575 0.3403362 0.4281356
0.34143105 -1.6098756 0.046215307 0.49081802 0.57354856 -1.0830362 0.54839444 -0.22221658
0.83494806 -0.025253598 0.19998695 -0.44255507 0.008356856 -0.32599986 -0.27086514 -0.288075
2.124343 0.38931584 -1.377512 3.9435542 -0.5079252 0.409806 1.4036471 -0.9867036
-0.7628658 1.2426842 0.55005723 -1.0530248 -0.034894418 -0.58932024 0.03730185 0.11945241
-0.1524168 -2.3922515 0.947094 1.1119963 -1.5145415 -0.4568794 -2.6359348 -0.10820414
-0.9797122 2.4573298 -0.946521 0.8325865 0.21640086 -2.010312 0.56414694 -0.7668364
-1.3361707 0.15366979 0.3288831 -0.31264582 4.6774225 0.53596777 -0.22417085 -0.36570328
-1.4573576 -0.46019617 0.6951571 -1.4875662 -0.27091256 1.1611537 0.24194412 -0.04903557
1.5597404 6.83234 -1.9773655 -0.35968316 -1.9612192 0.48488975 0.5732211 -1.0184715
-0.85267216 0.17533849 0.5782837 7.7808957 0.023367433 -0.52280533 -0.4592662 -1.5441226
0.3272863 -1.1677438 -0.39901364 8.5784235 -3.7827556 -1.0318221 11.604451 -1.6860284
0.17440961 -1.0967795 1.2963212 0.47221932 -0.0015775169 0.25311944 1.3323898 0.27404532
-1.8266752 -2.5143437 10.507447 -0.3086617 -1.2369504 -0.15042904 1.059164 0.65741915
-3.3210526 3.304696 0.76006824 1.3070095 -0.118391566 -0.60565954 2.5181868 9.189763

discrete_action_output_shape f4 [1, 2]
00000000: 0000 4040 0000 4040
3.0 3.0

network_body._body_endoder.seq_layers.0.bias f4 [128]
00000000: 00ee 003c 4f2d 21bd 81b3 9dbd a8c2 debd
00000010: a1d2 823b 563c 363c dc5c 10bd 5192 63bd
00000020: 95db dbbd 246c 733d 8420 1cbc 68e6 44bd
00000030: 04a1 41bd 9927 7ebd af8d a6bd 4690 96bd
00000040: 1153 e4bc e1fa 2bbe 81ff b5bd 0c3a 0abc
00000050: 3729 0cbe 7811 99bd 76f7 0bbe 2a45 7bbd
00000060: ff9f 9ebc 8012 7cbd 1e4d 48be 8fa0 60bc
00000070: eb7d 94bd 9215 dbbc 8b04 dabc 48e5 b8bc
00000080: be61 3ebd 6e5e 293c 3035 b0bd ce6d 543d
00000090: 8855 1ebd 9df0 e6bd 3c55 2cbd a86d 11bd
000000a0: a28e cebd 68dd e2bc 0802 f8bd 04d4 48bc
000000b0: 516b b4bd 558b 23be 3a42 e7bd 07ed d6bd
000000c0: 5334 2bbc 788c 50bc fb03 053c 1af8 f4bd
000000d0: 1d37 df3b 94b6 99bd f4e7 27be cfe7 97bd
000000e0: c183 b0bd 28e4 3fbd 4c5f a6bd 8a54 b8bc
000000f0: 5895 123b 7629 2bbd d5b2 81be bc57 75bd
00000100: 82d1 0fbd ad2e 67bd d22d 76bd 62c2 d3bd
00000110: 86fa d4bd b698 6bbd 27db 8abb 739d ed3d
00000120: 0fb5 cb3d b478 c53d 576b d4bc c8bf 9fbe
00000130: 5f09 813c 99ca a3bd cc69 15bd 8c28 ba3c
00000140: a8f0 e4bc 1554 1abd aae5 32bc 4adb 86bd
00000150: 4758 a8bd 739a 14be e95b 03bd f13d 86bd
00000160: 6623 863d d7e2 15bc 269e 81bd 8f88 353c
00000170: 1084 8fbd 4b20 13be 3bb3 693c a458 98bd
00000180: 64b8 f2bc 37b4 c6bd 7b82 59be 3d18 85bd
00000190: 08ca 5739 8e25 9abd 9b58 c8bc 503c 7fbd
000001a0: 7e5a ecbd c2c1 f3bc 7ed6 653b 14a9 e4bd
000001b0: b086 9cbd 3d47 a43d c901 6ebd ed27 dfbd
000001c0: fb29 d63c b701 f8bc 6770 d0bd ae74 bebd
000001d0: 03f3 febd d5b2 93bd 8499 90bd 59f3 90bb
000001e0: 0977 c6bd 56ac c93b 7c59 1cbe 0f51 54be
000001f0: 34bc dcbd 7479 eebd 6bfc b6ba 06a3 53bd
0.007869244 -0.03934985 -0.07700253 -0.108769715 0.003992394 0.011122784 -0.035244808 -0.05555946
-0.10735241 0.059429303 -0.009529237 -0.048071295 -0.047272697 -0.062049482 -0.08132493 -0.07351737
-0.02787164 -0.16794921 -0.08886624 -0.008436691 -0.13687597 -0.07474035 -0.13668618 -0.061345257
-0.019363401 -0.06154108 -0.19560668 -0.013710155 -0.072505794 -0.026743684 -0.026613494 -0.022570267
-0.046479933 0.010337455 -0.08603895 0.05186253 -0.038655788 -0.11276362 -0.042073473 -0.035504967
-0.10085799 -0.027693465 -0.121097624 -0.01225758 -0.088095315 -0.1597112 -0.112919286 -0.10494428
-0.010449487 -0.012728803 0.008118625 -0.11961384 0.00681199 -0.07505527 -0.16397077 -0.07417261
-0.0861888 -0.046848446 -0.08123645 -0.022501249 0.0022366848 -0.041787587 -0.2533175 -0.059898123
-0.03511191 -0.056440998 -0.06010229 -0.1033981 -0.10399346 -0.057518683 -0.004237551 0.11602297
0.099466436 0.09642163 -0.02593009 -0.31201005 0.015751539 -0.07997627 -0.03647785 0.022724412
-0.027946785 -0.037677843 -0.010919014 -0.06584795 -0.082199626 -0.14512043 -0.032070074 -0.06554783
0.065497205 -0.009148321 -0.063289925 0.011079921 -0.07007611 -0.14367788 0.014263923 -0.07438782
-0.02962894 -0.09702342 -0.2124118 -0.06498764 0.0002057926 -0.07526694 -0.024456313 -0.062313378
-0.115406975 -0.029755477 0.0035070474 -0.111650616 -0.07642877 0.080214 -0.05810717 -0.10896287
0.026143065 -0.030274255 -0.10177689 -0.09299599 -0.124486946 -0.07211844 -0.07060531 -0.0044235406
-0.09690673 0.0061545772 -0.1526851 -0.20734046 -0.107780844 -0.11644259 -0.0013960724 -0.051669143

network_body._body_endoder.seq_layers.0.weight f4 [128, 383]
00000000: 3e46 46bf c668 2a3b 1478 07bc 0989 423d
00000010: 7d6d 47bc 78f4 1cbd b54b 8fbe 5826 283f
00000020: b070 0b3f 8711 943e 6a05 c13c f38a 5cbd
00000030: 8816 603d ca3c 91bd b11f 983e c982 e6be
00000040: 45db b7be 5e92 19bf 3a50 f2be f690 8f3d
00000050: ea29 0abc 841f e83c 145a 063d c5a3 b83e
00000060: 1300 833c b16b 5a3e 69f2 3e3e 9078 ffbd
00000070: b696 e93d 63e8 353c 96b6 ff3b 9c95 24bd
00000080: e0d9 d5bf 29f6 2cbe a430 7d3e c436 3c3f
00000090: 7829 59be 3a44 8e3c efbd 30bc b020 0abe
000000a0: 2f77 ca3c 56b9 8abd f3c3 13bf 443c 993c
000000b0: bdc0 d63d 794a ba3d 5e51 febd ff44 2ebd
000000c0: a171 8cbd 0c3e cfbc 96fa 95c0 6c52 08be
000000d0: 614e 8fbe 9bf2 67bf 3580 953e e1a5 10bb
000000e0: 78e4 893f fd89 06bd 274d 99bd e67b 0cbe
000000f0: 0e1b e13b e0a2 d2be 2460 acbe a03c 103e
00000100: 46a4 b43d 65bd f53c 4975 ccbd 6d3a cdbd
00000110: 7bf4 22bf d1fe 2ebf 3c6a 923e 285f 39bf
00000120: 80b9 bc3e aff2 343d fec9 da3e 2434 c0bd
00000130: c414 ce3a 2095 26be 9337 16bf 8ffe 87be
00000140: 1b00 a0be aecf b83e 647c 413c 4442 25bd
00000150: a62a be3d 70a7 04be 4717 12bf 2a2b e8be
00000160: 2961 18bf bc5b cdbf 2f28 b13e 2027 aaba
00000170: 2fe9 093e b1d7 c3bd 51fb 60bf 9287 1fbd
00000180: 6f67 6cbf 4ac2 86be 492e bbbe 55fc b43e
00000190: 837d d7bb 12a8 b0bf ce59 983e b477 b93c
000001a0: 5a03 02be 214d 5bbf f43d 74be a066 ca3e
000001b0: 7087 06bf 4d43 07bd 3ff8 a63e 51ab 11bd
000001c0: b3e0 08bd 5d16 063d 4d48 80bf 8bbb 993e
000001d0: 1d2d 13be 3efe 093f 44e6 b23d d84c 81bf
000001e0: ba21 d83e 4bcb 603e b85f 25c0 7b41 82bf
000001f0: 6dee 0b3e 3f79 8e3d 7826 0fbe ed89 443d
00000200: 5c3b eabe 0fda 34bd cf9d 89bf 9832 d5bb
00000210: e6be 0ec0 6b56 dd3c cc85 6fbe 9797 023f
00000220: 689f 3c3c bba7 96bf c993 623e c51d a83f
00000230: 8f76 443f de7a 89c0 47d3 ac3f 6806 b3bf
00000240: b8f7 33bf 3431 b43b cdf2 29bd 071f f33c
00000250: 1d27 58be d4a9 3cbd 9bb5 33bf 9978 833f
00000260: 00d0 023e 6f00 f83e db7b 50bd b928 99bf
00000270: cc54 55bf 6a52 bd3f 65da a33d 1953 673e
00000280: 0873 0840 fb1a 46c0 c36d bd3e cb4f 1ebd
00000290: c72d 16bf 04f6 8a3c 7af8 92bd 2c57 aa3b
000002a0: b81a 2bc0 de79 d5bd 56ab 07bf bb58 b1be
000002b0: 4bc9 123c 3a27 13bf 4286 f73e e2af 843e
000002c0: 1f7f 2b3e ef63 57c0 bc59 d33f 5eba 4c3e
000002d0: 01e5 e6bf 7133 09bc 7b0b 423f 47e0 92bd
000002e0: 77c2 82bf 0406 55bd b7a2 16c0 7fbe 863e
000002f0: c3a3 723f b87d a1be 54a3 0bbd 6f50 2fbf
00000300: a56e c63e b445 82bf 4332 373d 2df6 e2bf
00000310: d706 c13f eee3 b7bf 99be b9bf 67b2 83bb
00000320: 8e18 6d3f 6ebe f03d b615 39bf 8520 c6bb
00000330: 400d 07c0 9564 703f 228e 8d3f e19d 7cbe
00000340: 1bd8 503d e2ed 59bf a098 3a3e 3259 a13f
00000350: f06c adbd 8fdd ee3f 1e44 0a3e 8706 ecbf
00000360: 9089 cabf 6f22 593d af4f 14bf 213e 553e
00000370: 4df3 4bbf 9249 44bd 92a3 12bf f995 0540
00000380: 119b 033f 746d c5be 445c 7abc dd72 a4bf
00000390: dd03 6c3e 8fd4 85bf 957c 4cbd 1055 0cbd
000003a0: ead4 eb3c 8fa9 01bf 7d5e ddbf b39f 0fbd
000003b0: 58e6 5bbe ceb3 be3e 01db 16c0 b3f5 1bbd
000003c0: 35aa 4b3f 708f 2640 4ff1 523f fea9 c53e
000003d0: 1499 0a3d 3e3a 8fbf a15c 91bd 6771 e3bf
000003e0: 2915 90bc fe0e 213d 32f9 623d d413 1fbf
000003f0: 0194 f3bf cee5 113d c3c1 533e b301 dd3e
-0.7745093 0.0026002391 -0.008268375 0.04749397 -0.0121721 -0.03831908 -0.27987447 0.6568351
0.5446882 0.28919622 0.023562152 -0.05384345 0.054708987 -0.07091673 0.2971168 -0.45021656
-0.35909477 -0.59988964 -0.47326833 0.07010071 -0.008432845 0.02833534 0.03280075 0.36062446
0.015991246 0.21330144 0.1864716 -0.12474167 0.11405699 0.011102769 0.0078037484 -0.04018174
-1.6707115 -0.16890778 0.24725586 0.73521066 -0.21207225 0.017366517 -0.010787471 -0.13489032
0.024715034 -0.06773631 -0.5772087 0.018705495 0.10485981 0.09096236 -0.12417863 -0.04254627
-0.068576105 -0.025298141 -4.686839 -0.13312691 -0.27989486 -0.9060456 0.29199377 -0.0022071528
1.0772848 -0.03284644 -0.07485419 -0.13719139 0.0068696802 -0.4113989 -0.336671 0.14085627
0.08820395 0.029997537 -0.09983308 -0.100209095 -0.636543 -0.6835757 0.28596675 -0.7241082
0.36860275 0.044176754 0.42732233 -0.09384945 0.0015722741 -0.16267824 -0.5867855 -0.265614
-0.3125008 0.36095947 0.011809442 -0.0403464 0.09285478 -0.12954497 -0.5706677 -0.45345432
-0.59523255 -1.604362 0.3460097 -0.0012981631 0.13467859 -0.09562624 -0.8788348 -0.03894765
-0.9234533 -0.26320106 -0.3655875 0.35348764 -0.0065762415 -1.3801291 0.29756016 0.022640087
-0.12696591 -0.85664564 -0.23851758 0.39531422 -0.5255041 -0.033023167 0.32611272 -0.03556377
-0.033417415 0.03273617 -1.0022064 0.30025896 -0.14372678 0.5390357 0.08735326 -1.0101576
0.4221323 0.2195255 -2.5839672 -1.0176233 0.13665171 0.069567196 -0.13979518 0.0479831
-0.45748413 -0.04415327 -1.0751284 -0.0065062754 -2.2304015 0.027018746 -0.23390883 0.5101256
0.011512615 -1.1769937 0.22126688 1.3134085 0.76743406 -4.2962484 1.3501977 -1.398633
-0.70299864 0.0054990295 -0.04149132 0.02967788 -0.2110867 -0.0460604 -0.7019898 1.0271178
0.12774658 0.4843783 -0.050899368 -1.1965553 -0.83332515 1.4790776 0.0800064 0.22590293
2.132021 -3.0953968 0.36997804 -0.038650315 -0.586636 0.016963013 -0.071762994 0.00519838
-2.6735058 -0.10423635 -0.5299581 -0.34638008 0.008959125 -0.5748173 0.48344618 0.25915438
0.16747712 -3.3654745 1.651176 0.19992968 -1.8038636 -0.008374081 0.7579877 -0.07171684
-1.0215596 -0.05200769 -2.3536813 0.26317212 0.9478113 -0.31541228 -0.03409131 -0.68482107
0.3875629 -1.0177522 0.044725668 -1.7731377 1.5080212 -1.4366434 -1.4511291 -0.00401907
0.9261559 0.117550716 -0.72298753 -0.006046357 -2.1101837 0.93903476 1.1059 -0.24669601
0.050987344 -0.85128605 0.18222284 1.2605345 -0.08468044 1.8661364 0.13502547 -1.8439492
-1.5823231 0.053011354 -0.5793409 0.20824482 -0.7966812 -0.047921725 -0.5728084 2.0872786
0.5140849 -0.3856007 -0.015280787 -1.2847553 0.23048349 -1.0455493 -0.0499235 -0.03426081
0.028788049 -0.5064935 -1.729446 -0.03506441 -0.21474588 0.37246555 -2.357117 -0.038076114
0.7955659 2.6025047 0.8239946 0.38606256 0.033837393 -1.1189649 -0.07097746 -1.7768983
-0.017588215 0.03932094 0.055413432 -0.6213963 -1.9029542 0.03561955 0.20679383 0.4316536

network_body._body_endoder.seq_layers.2.bias f4 [128]
00000000: 07af abbd f9c4 60bd 97d0 953d 7766 753d
00000010: c5c1 b53e 7ece 04bf eeb7 8cbd 2891 96be
00000020: 0f1b 08be 25d0 883f e35a ddbe 7dd6 c33e
00000030: 4970 023f 24f6 68be 6554 c8be a712 993d
00000040: d8a4 25bd 28c8 fbbd c3e3 febc c437 2e3e
00000050: c4b6 c23e 5692 d2be c394 873e c294 4bbf
00000060: 481a 963e f530 71be d74e 8bbe aa5f 223f
00000070: a898 11bd c64d 1dbe 2ed8 7ebe 82cf 19bf
00000080: 5de7 84be 95de 5fbf 7e0e 59bf 1ac4 383e
00000090: 1e36 423f c451 a1be 6777 78be 0a0c 45bf
000000a0: 4823 0fbf 6dc8 6bbd 2464 a4be d961 a23e
000000b0: e3d6 763d 38eb a5be a216 d43d 6846 1dbf
000000c0: 101a 5ebe 2182 9bbe 674b 553e 9466 d13c
000000d0: 5081 1ebe 775f 863d 6b19 9fbf 460a 78bf
000000e0: 31fd b2be 2500 6ebe 0d18 a8be d008 84be
000000f0: 56f8 9d3e a007 8dbf 9846 8b3d 5335 ba3e
00000100: b475 2e3f 4421 6bbe b772 09be 5d09 c6be
00000110: ba8a 923e 27db 06bf 4bc9 54be a0b5 f43e
00000120: 0dd7 40bd af1c dcbe aceb 8bbf 92e6 dd3c
00000130: cf65 323e 9a51 20be c27d 503f e522 12bf
00000140: 0230 4abe fa53 b6be b171 69be 72e3 66bf
00000150: d8da 10be 037c 88bf cc42 833e 298b 653e
00000160: 1e90 5ebe 978c 0dbe 7bf6 883e 7acc 89be
00000170: 1d06 59be 71d8 ffbd 3cae 133d ef1f 71bf
00000180: 37b6 03bf ac38 a3be 4ac9 d8be 2796 e5be
00000190: 4856 f2be d398 843e bc87 0fbf 79b4 143e
000001a0: 07cb d0be 030c bb3e e5d3 cc3a 039b 893d
000001b0: b65b 4fbf bfc7 0d3e 10c3 cfbe e1c8 1cbe
000001c0: 2c4c a23e 4d51 9ebe 6b93 80bd 02c2 09bf
000001d0: f3d5 66bd 9dbf 9dbe 5ecb 65be 0241 eebe
000001e0: 1abb c0be d846 02bf da9e 72bf ddb4 7dbe
000001f0: 000b 18be 0167 25bd 2364 2bbe 4944 e63d
-0.08382993 -0.054875348 0.07315176 0.05991217 0.35499397 -0.5187758 -0.06871019 -0.2940762
-0.13291572 1.0688521 -0.43233404 0.3824958 0.50952584 -0.22750145 -0.39126888 0.07474261
-0.04044041 -0.12294036 -0.031114465 0.1701346 0.38030064 -0.4112727 0.26480684 -0.7952386
0.29316926 -0.23553832 -0.27208588 0.6342722 -0.035545975 -0.153617 -0.24887154 -0.60082257
-0.25957766 -0.8744901 -0.8478774 0.18043557 0.75863826 -0.31507695 -0.24264298 -0.76971495
-0.5591321 -0.057564188 -0.3210765 0.31715277 0.060263526 -0.3240602 0.10355879 -0.61435556
-0.2168963 -0.30372718 0.20829545 0.025561608 -0.15479016 0.06561177 -1.2429632 -0.96890676
-0.34958795 -0.23242243 -0.3283085 -0.25787973 0.30853528 -1.1017952 0.06800574 0.36368808
0.6814835 -0.22961909 -0.13422666 -0.3867902 0.28621465 -0.5267815 -0.20779912 0.4779482
-0.04708009 -0.42990634 -1.0931296 0.027087484 0.1742165 -0.15656129 0.8144189 -0.57084495
-0.19744876 -0.35610944 -0.22797276 -0.90190804 -0.14145982 -1.0662845 0.256369 0.22416367
-0.21734664 -0.13823162 0.2675055 -0.26913816 -0.21193738 -0.12492455 0.036054835 -0.9418935
-0.5144991 -0.31879175 -0.4234107 -0.4484112 -0.47331452 0.25897846 -0.5606649 0.1452197
-0.40779898 0.36532602 0.0015627114 0.06719019 -0.80999315 0.13845728 -0.40578508 -0.15311004
0.3169874 -0.30921403 -0.06278118 -0.5381166 -0.05635638 -0.30810252 -0.2244086 -0.46533972
-0.37642747 -0.5088935 -0.9477364 -0.24776025 -0.14847946 -0.040381435 -0.16737418 0.11243493

network_body._body_endoder.seq_layers.2.weight f4 [128, 128]
00000000: d51a 85bf 3f34 9bbd 4153 d6bc c92e bf3d
00000010: bf8b ccbf b3ad 36be 4c9f 14bc 014e eb3d
00000020: a77a 17be 2925 cebd 2ac4 5ebd c681 3240
00000030: 9689 9ebd 4937 1fbf 39e2 b4be 3f67 23be
00000040: e6e1 a83e 1a51 483f b69c c6be 6493 0d3c
00000050: 241f 053f f941 323e 7dad 303e f666 e33c
00000060: 5122 b9bb f157 eabc c5ec b8be 9ae5 1d3f
00000070: 79d4 923e 6eb7 6dbd c1d8 d83e 2101 673f
00000080: 246f ba3e fe41 373e 4a80 97be 3b1c 3dbe
00000090: 93da 0a3d 98c5 773e 5f06 763e 253c 973b
000000a0: a674 d43e 9e80 0f3e 9f40 2d3e 74e8 c33d
000000b0: 2845 d83d 5040 0bbf 3448 f8bc 6b35 9b3e
000000c0: b056 8ebd 7704 ebbc 919c eb3e 44d4 3cbf
000000d0: cf98 cabe eeff 833e 4b49 b13e be92 f9bd
000000e0: 802f 1dbb b261 ad3e 808c f83d c9ad af3e
000000f0: fb74 533e c207 1ebf a21a f6bc e543 ecbe
00000100: 6832 873e f7ad 1fbd 00a9 97bd 69e6 243e
00000110: 1ae9 923e de0b 41be b82e efbe 401c 1dbf
00000120: d944 68be 07e5 84bd c377 0f3e a6f6 583e
00000130: 664c d63d 6c92 003f f3dc da3c d199 0dbf
00000140: 1f81 1a3e 341f c3bd 9916 13be 9f55 083e
00000150: 7a78 2a3e 3be8 ca3e 8d3c 20bf 2673 3ebd
00000160: 6d59 d6bc bf44 353e 5d5d 0bbe aeaa a13d
00000170: 8938 07be 1092 543e d529 18bf f401 2a3f
00000180: 74f8 073e 94c3 abbd 8bd8 7a3d 2494 93be
00000190: 80f5 22be c71d cd3c 2e64 10be 8ba2 af3e
000001a0: c529 083e 59cf da3e 8850 84be f52f 0dc0
000001b0: b13d f2bc 17bb 22be 7ffe 95be cb86 6dbe
000001c0: 436b 6bbd ab85 c1be 72d5 993d a066 583e
000001d0: 50a6 f43d 1bf1 35be e841 243d d6cb 0a3e
000001e0: be6d 3e3e e73f a2be d55c fa3d 044f d73d
000001f0: a191 29c0 e95c 14bd f94a cd3e 4d56 143d
00000200: 87f7 8bbe 2ffb 1abe 4fe1 f3be 2e7e 393e
00000210: fde4 fb3c 553b e53e 4994 94be 8560 b13e
00000220: 19b0 073d 1e7e e1bd f9fd 83be de8b 283d
00000230: 5ee2 58bc 9652 c6bd 603c 0abf 4934 893a
00000240: ce80 ed3d d449 ccbf d66e cf3d 0216 e1bc
00000250: a8c8 62be 6d54 673f 15db 493d eada 33be
00000260: 964e 1c3e 2235 9fbd 3af8 cc3e b445 143f
00000270: 7cf7 f83e cb21 a73e 5694 7f3f 5634 263e
00000280: afb1 603f da29 143f 137d d13e 29b5 74be
00000290: 5c87 bcbe 2c87 e1be 58bf 8bbe 7359 9f3c
000002a0: 6814 053f 79a7 05bd 83e4 913d 0b24 3dbd
000002b0: 2ff3 5bbe 5fe8 43bf 9287 a03d 9406 593f
000002c0: 9cc5 91be f1b8 7e3d 0408 623f ea2f 91be
000002d0: ac0e de3d 098f 2c3d 55cc e53e 765d 2fbe
000002e0: e604 fabd a70a bf3e 924a b63b 336a d63e
000002f0: d295 3abe a3e5 e53e c5fe a0bd c489 b8be
00000300: 05cf fcbd 6e09 bbbe f652 173e a37e 70be
00000310: 7e59 253f fd0b fe3f 7029 41bd 9e56 f4bf
00000320: 215c 3dbd 90de 623d a32f b0bd aa80 5a3c
00000330: 3dc9 e5bd 892b a3be e3c6 a8be 4ad2 20bd
00000340: 53c8 56ba b895 85bf 0a21 ffbe 3726 8e3e
00000350: 39be 3a3e 2925 b23d 500e 7e3e cd71 633c
00000360: adf8 c23e 4c67 063e 746d 64be 0422 07be
00000370: 5631 a63d c02f 8a3e f32e 90be 1ab7 19be
00000380: 6ff5 44bf cd2d 423d 4974 233e c296 25bd
00000390: e503 95bd 2c4d 51be 9104 4fbb 4744 c3be
000003a0: d79d 00be 2a46 29bd 2fa4 e13e 1ddf 823f
000003b0: 47cf 31bc 2755 2a3e 0921 4e3e 08f9 aabe
000003c0: c11e a7be 3b40 85bf 00ab 0e3f 4501 9cbd
000003d0: b977 013e 4ecc 82be 6bae 083d 5f8c 86bf
000003e0: 68f4 c53d 76b0 57bf b5bc 963d 3f32 8abd
000003f0: 4e03 8bbf fa0a ca3d defe 68bc 3080 08be
-1.0398813 -0.075783245 -0.026162745 0.093350954 -1.5980147 -0.17839698 -0.009071182 0.114894874
-0.14792882 -0.100656815 -0.054386295 2.7891707 -0.07741086 -0.62193733 -0.35328844 -0.15957354
0.32984847 0.7824875 -0.38791436 0.008641098 0.5200064 0.17407979 0.1725368 0.027759057
-0.005649843 -0.028606387 -0.3611814 0.6167847 0.2867773 -0.05803626 0.4235287 0.902361
0.3641292 0.17896268 -0.29590064 -0.184678 0.033899855 0.2419647 0.24025868 0.004615324
0.41495246 0.14013907 0.16919182 0.09565821 0.105600655 -0.5439501 -0.030307867 0.30314192
-0.06950128 -0.028688652 0.46017888 -0.7376139 -0.3956971 0.25781196 0.3462623 -0.12186192
-0.002398461 0.33863598 0.12136173 0.34312275 0.20650093 -0.6173059 -0.030041996 -0.4614555
0.26405644 -0.038984265 -0.07405281 0.1610352 0.28693467 -0.18852183 -0.4671533 -0.6137123
-0.22682513 -0.06488996 0.14010529 0.21187839 0.104637906 0.5022342 0.026716685 -0.5531283
0.15088318 -0.09527436 -0.14364089 0.13313912 0.1664752 0.39630303 -0.62592393 -0.046496533
-0.026165688 0.17702006 -0.13609834 0.07893883 -0.1320516 0.20758843 -0.5943883 0.6640923
0.13278371 -0.08386913 0.061241668 -0.2882396 -0.15913963 0.025038613 -0.14100716 0.34303698
0.13297184 0.4273632 -0.2584269 -2.206052 -0.029570432 -0.15891682 -0.29295728 -0.2319595
-0.05747534 -0.37797293 0.075114146 0.21132898 0.11945784 -0.17767756 0.040101916 0.1355432
0.18596551 -0.3168938 0.122247376 0.10513118 -2.6495135 -0.03622142 0.40096262 0.036215115
-0.27337286 -0.15134881 -0.47632834 0.1811454 0.030748839 0.4477183 -0.29019383 0.3464395
0.033126924 -0.11010383 -0.25779703 0.041149013 -0.013237564 -0.09683721 -0.53998375 0.0010467853
0.11596833 -1.596003 0.10128562 -0.027476314 -0.22146857 0.903632 0.0492812 -0.17563978
0.15264353 -0.07773806 0.40033132 0.5791886 0.48626316 0.3264297 0.9983572 0.16230902
0.87771124 0.5787636 0.40915737 -0.23897232 -0.3682202 -0.4404844 -0.2729442 0.019451832
0.5198426 -0.032630417 0.07123663 -0.04617695 -0.21479486 -0.76526445 0.07838358 0.8477566
-0.28471076 0.062188093 0.8829348 -0.28356868 0.10842642 0.042128596 0.44882455 -0.17125496
-0.122079656 0.37312815 0.0055630887 0.418779 -0.18221214 0.4490176 -0.078610934 -0.36042607
-0.12344173 -0.36530632 0.14777741 -0.23485808 0.6458968 1.9847409 -0.04715866 -1.9088933
-0.04623044 0.055388033 -0.08602836 0.01333634 -0.11220024 -0.31869152 -0.3296424 -0.039263047
-0.0008193303 -1.0436316 -0.49829894 0.2776353 0.18236627 0.08698494 0.24810147 0.013882113
0.3808035 0.13125342 -0.22307378 -0.1319657 0.08114879 0.26989555 -0.2816082 -0.15011254
-0.76937 0.04740696 0.15962328 -0.040426977 -0.072761334 -0.20439595 -0.0031588415 -0.3813803
-0.12560211 -0.04132668 0.44070575 1.0224339 -0.010852641 0.16634046 0.2012979 -0.3339312
-0.3264065 -1.0410227 0.55729675 -0.0761743 0.12643327 -0.25546497 0.033369463 -1.0511588
0.096657574 -0.84253633 0.07360212 -0.06747865 -1.0860384 0.09865375 -0.014220921 -0.1333015
