Assets/NN/Level1/CharacterBehav 1.onnx (onnx, 268569 bytes, 9 tensors)

action_model._discrete_distribution.branches.0.bias f4 [3]
1.1618941 -1.1650052 -6.316071
00000000: f2b8 943f e41e 95bf 411d cac0

action_model._discrete_distribution.branches.0.weight f4 [3, 128]
0.28669086 -0.23727673 -1.0878123 0.3634775 0.68133557 0.8235353 1.1336182 0.34205595
-0.08922281 0.10836277 0.3971984 0.27781758 -0.06731513 1.0353221 0.16816035 -1.3534274
0.104603015 -0.4182193 0.46654192 0.03793267 0.1780428 0.3089899 0.17629924 0.15807214
0.57791364 -0.19069122 0.36573684 1.118552 0.33921096 0.3381599 0.13576283 0.011804063
0.14524682 -0.3838886 -0.14367989 0.6559507 -1.5903724 0.26295975 -0.09494529 -0.8105981
0.18710198 0.05319398 -0.38918334 -1.0732782 0.17174885 -0.09187798 0.022212205 0.06924156
1.5855627 0.115572326 -1.6301402 -1.2334038 -0.4151139 0.118324175 0.01815793 -0.10552082
-0.9998212 0.1783086 -0.16190346 -0.085177325 -0.036535993 0.13759874 -1.809171 -0.92941713
0.69938004 0.062075686 0.12885574 -2.926213 0.40879878 0.41195753 0.36687735 -0.39992154
-1.302601 0.061442044 0.25128534 0.5716459 0.21705735 0.88713354 0.43712527 -0.22920321
0.3920045 1.1629083 0.16951151 -0.06339702 -0.21097478 0.16160052 0.22373599 1.879245
-0.13042282 0.22067888 0.44723755 -0.41623318 0.83794975 0.98300314 -0.37762994 0.595938
-0.87247485 -0.41130778 -0.06727266 0.06088776 0.7154426 -0.8089338 -0.17336212 -0.36511263
0.24708164 0.13713638 -0.3804208 -0.12988476 0.2663286 0.67781436 0.52599484 -0.17419064
0.41427863 0.033017136 0.13222368 -0.43351173 -0.5783295 0.087637745 0.7611118 -0.16073425
0.024981894 -1.0194031 -1.8808873 -0.15928537 -0.3761747 0.2559273 0.2753615 -0.024170456
-0.3737423 0.061695673 1.0957094 -0.46937475 -0.8392433 -1.060851 -1.1055498 -0.40212265
0.113703735 -0.3531425 -0.43284538 -0.2624258 -0.25302407 -1.133105 -0.1302052 1.3542674
-0.08067938 0.3466141 -0.43635505 -0.016370824 -0.20293011 -0.19725172 0.12277076 -0.018462652
-0.5373733 0.0596096 -0.3768662 -1.1818804 -0.78388715 -0.3947437 -0.29046687 0.020286383
-0.11185917 0.23299693 -0.10067569 -0.6086376 1.6074429 -0.23664977 -0.1465438 0.70433664
-0.12285223 -0.04915785 0.27813843 1.0960342 -0.0016218557 0.04359599 0.013754692 0.14266585
-1.5685267 -0.8231573 1.741496 1.331738 0.45221955 -0.12490294 0.008237201 0.1088992
0.8941905 -0.12028346 -0.83994365 -0.057059795 0.0547886 -0.15014441 1.6891683 0.8013978
-0.6625242 -0.5337529 -0.34200466 2.6454396 -0.27838397 -0.39574358 -0.44287354 0.29905316
1.3950914 -0.082693554 -0.21027891 -0.50314206 -0.26194564 -0.87932694 -0.50200975 0.19585729
-0.58118576 -1.1106857 -0.110684745 0.056957018 0.21208946 -0.1910318 -0.16287018 -2.1903894
0.04866438 -1.0731404 -0.5785362 0.59684414 -0.74510795 -1.1807684 0.3807161 -0.51236653
-0.011303886 0.15979941 0.10549193 0.13085672 -0.55509454 0.44494545 0.27324614 0.021807052
-0.33401015 -0.14383961 -0.9133105 -0.15327944 -0.24616365 -0.6278062 -0.35707217 -0.5564143
-0.3496828 -0.02005811 -0.10402747 0.34612003 0.5019118 -0.07297414 -0.85955334 0.11290942
-0.08978912 0.93301696 1.9032439 0.12791468 0.36615312 0.05984727 -0.42975625 -0.060464557
00000000: 25c9 923e acf8 72be 6f3d 8bbf b919 ba3e
00000010: 026c 2e3f 36d3 523f 671a 913f f521 af3e
00000020: 73ba b6bd 4ded dd3d 975d cb3e 1b3e 8e3e
00000030: 84dc 89bd 6f85 843f 3a32 2c3e 1c3d adbf
00000040: 1b3a d63d d720 d6be 95de ee3e 4a5f 1b3d
00000050: da50 363e ed33 9e3e ca87 343e aadd 213e
00000060: 26f2 133f 8f44 43be dc41 bb3e b62c 8f3f
00000070: 0fad ad3e 4b23 ad3e 6905 0b3e d465 413c
00000080: 95bb 143e 0c8d c4be d220 13be 63ec 273f
00000090: 5391 cbbf a9a2 863e ad72 c2bd 5b83 4fbf
000000a0: a997 3f3e eee1 593d 0a43 c7be 2e61 89bf
000000b0: eede 2f3e 862a bcbd 5ff6 b53c 85ce 8d3d
000000c0: b8f3 ca3f 2fb1 ec3d 6fa8 d0bf 2de0 9dbf
000000d0: cf89 d4be f253 f23d f0bf 943c 4d1b d8bd
000000e0: 48f4 7fbf 8896 363e 05ca 25be 7371 aebd
000000f0: c4a6 15bd afe6 0c3e ea92 e7bf 48ee 6dbf
00000100: 920a 333f 1343 7e3d c2f2 033e 1347 3bc0
00000110: 134e d13e 19ec d23e 59d7 bb3e 84c2 ccbe
00000120: a1bb a6bf a7aa 7b3d 79a8 803e 6357 123f
00000130: 4844 5e3e 2f1b 633f e2ce df3e 3fb4 6abe
00000140: d0b4 c83e 2eda 943f 6d94 2d3e 4cd6 81bd
00000150: c609 58be 9b7a 253e 0c1b 653e 1a8b f03f
00000160: 8f8d 05be a5f9 613e 52fc e43e 841c d5be
00000170: e083 563f 18a6 7b3f b658 c1be 658f 183f
00000180: 835a 5fbf ef96 d2be 40c6 89bd 7265 793d
00000190: 3f27 373f 4916 4fbf d785 31be 0bf0 babe
000001a0: f802 7d3e 7b6d 0c3e 84c6 c2be 8300 05be
000001b0: 395c 883e 3e85 2d3f 99a7 063f 085f 32be
000001c0: 541c d43e fa3c 073d a565 073e 40f5 ddbe
000001d0: 670d 14bf 6b7b b33d 39d8 423f 8597 24be
000001e0: d4a6 cc3c cd7b 82bf eac0 f0bf b41b 23be
000001f0: f899 c0be e708 833e 2ffc 8c3e 1f01 c6bc
00000200: 275b bfbe 9ab4 7c3d 3540 8c3f e351 f0be
00000210: a6d8 56bf f7c9 87bf a882 8dbf 05e3 cdbe
00000220: 81dd e83d 18cf b4be e99d ddbe ad5c 86be
00000230: 5f8c 81be 9609 91bf 8354 05be a258 ad3f
00000240: 3b3b a5bd 6777 b13e ee69 dfbe 1b1c 86bc
00000250: e9cc 4fbe 5bfc 49be 3c6f fb3d fd3e 97bc
00000260: 4c91 09bf 3229 743d 9bf4 c0be db47 97bf
00000270: d4ac 48bf d91b cabe 13b8 94be a12f a63c
00000280: 6c16 e5bd bf96 6e3e 0e2f cebd accf 1bbf
00000290: b0c0 cd3f 5154 72be 940f 16be 684f 343f
000002a0: f399 fbbd be59 49bd 2968 8e3e d94a 8c3f
000002b0: 7294 d4ba b591 323d 5c5b 613c ff16 123e
000002c0: 7cc5 c8bf 70ba 52bf 57e9 de3f 6476 aa3f
000002d0: 5289 e73e 1dcd ffbd 53f5 063c 8b06 df3d
000002e0: abe9 643f 2d57 f6bd 8c06 57bf 88b7 69bd
000002f0: 036a 603d 75bf 19be ab36 d83f 6828 4d3f
00000300: 309b 29bf 08a4 08bf 3c1b afbe e24e 2940
00000310: 5888 8ebe e79e cabe 52c0 e2be 7f1d 993e
00000320: 5b92 b23f 3d5b a9bd 5b53 57be ebcd 00bf
00000330: bd1d 86be 921b 61bf b683 00bf d08e 483e
00000340: 97c8 14bf f32a 8ebf afae e2bd c34b 693d
00000350: fb2d 593e d79d 43be 71c7 26be 572f 0cc0
00000360: 4d54 473d aa5c 89bf f31a 14bf c7ca 183f
00000370: 65bf 3ebf 6b23 97bf 38ed c23e 742a 03bf
00000380: ef33 39bc 75a2 233e 270c d83d 4eff 053e
00000390: ad1a 0ebf e4cf e33e ebe6 8b3e b4a4 b23c
000003a0: 6103 abbe b14a 13be b8ce 69bf 49f5 1cbe
000003b0: 5312 7cbe e8b7 20bf 2ad2 b6be 2b71 0ebf
000003c0: a009 b3be e850 a4bc 5b0c d5bd a536 b13e
000003d0: 4b7d 003f 7773 95bd b00b 5cbf 0e3d e73d
000003e0: 5ce3 b7bd 33da 6e3f 7f9d f33f 11fc 023e
000003f0: 6c78 bb3e 6922 753d 0309 dcbe afa9 77bd

action_model._discrete_distribution.branches.1.bias f4 [3]
0.89983433 -1.6917766 -1.0565215
00000000: 8b5b 663f 238c d8bf 193c 87bf

action_model._discrete_distribution.branches.1.weight f4 [3, 128]
-0.08211742 -0.98309505 -0.19535212 0.5879688 0.19229493 1.4658643 -0.83281535 -0.68193203
-0.06957901 -1.0319184 -0.47009212 -0.12381429 -1.3937464 -0.06950389 -0.6663366 0.14199415
0.04360912 -0.046770927 -0.39275995 -0.0021111611 -0.06405754 0.2401142 0.07503661 0.14093393
-0.2658775 0.15569465 0.22432575 -0.61689633 -0.6760544 0.2755881 -0.01809732 -0.65092385
-0.20678672 0.31541067 -1.2961122 -0.70236313 -0.43996748 0.8488143 0.06925726 0.116460174
-0.22617467 0.36499834 0.96780455 -0.15984072 -1.074981 0.19702207 0.34947208 0.5315348
-0.8219195 0.53666 0.10928613 -0.3136223 -0.21623644 0.027008101 -0.8892635 0.0024442999
0.5594926 -1.3227229 -0.84909475 0.5040118 -0.22383073 0.043079548 -0.19074443 -0.37759373
-0.5504212 -0.5199285 -0.52210003 0.35332072 -0.7246153 -0.17662719 -0.016123086 -1.444813
0.12320073 0.75738215 0.6278703 -0.45360744 1.1137038 0.32050762 -0.03144035 -0.34095168
-0.23432161 -1.127447 -0.18758139 0.4808049 0.079980776 -0.4085942 -0.09677646 0.15330312
-0.089200236 0.23838525 -0.1544504 -0.462101 -0.11493703 0.041400716 -0.13284117 -0.33020216
-0.1150493 -0.038117297 -1.1191566 2.1947565 0.14458935 -0.7478413 1.3547213 0.13835351
-1.548555 0.26839286 -0.61632466 -0.109609984 0.55528784 0.7565613 -1.0298858 -0.88338876
0.34329736 -0.021959614 -0.07892136 -0.28376395 -0.58369946 -0.7011712 -0.7808813 -0.23691663
0.8350976 -0.89705026 -0.36630037 0.83063424 -0.89986515 -0.486052 -0.3735505 0.23231824
0.3747277 -0.84763765 -0.12188605 0.58127373 0.6306486 -0.300985 -0.4964491 0.4125519
1.1032724 -0.19116259 -0.510189 0.8731011 0.58234483 -1.8233309 0.5873443 -0.74090624
0.12732774 -0.7298616 -0.18490343 -2.4691339 0.7306676 -1.2952409 -1.5719527 0.07695512
-1.3540403 0.27559784 0.52019155 2.0815973 -2.2529628 -0.95978606 0.55457073 2.2819114
-2.713347 0.1488556 3.2701952 1.1071162 -0.66144526 0.10700295 -2.5881686 -0.16265897
0.37456307 -0.4962373 -0.02691881 -0.43947557 1.5857118 0.22243336 0.061711147 -3.2336063
3.7358143 3.2401714 0.06760751 -0.64237714 -1.4148716 -1.5642864 4.7836094 -3.024519
0.46427116 1.7732415 1.5404913 0.4251597 0.7348224 -1.6960061 -0.38965443 0.21786936
0.8125085 1.6250527 0.14165455 -0.9795475 -0.7574153 -0.25863743 0.38260612 0.5464525
0.07596116 -0.9848664 -0.17509462 -1.6519254 -0.3888213 1.7385043 -0.8514632 -0.49025565
0.82044655 0.91560787 -1.7698556 -0.1507812 -0.79033834 -0.07787648 -1.5696757 -0.05332782
0.06279476 2.7539208 -0.6231692 0.71707153 -0.03028023 0.67797923 0.49184301 1.1497493
-1.3951907 0.768873 0.0467839 -2.2496185 2.83639 -0.6732111 1.5380843 -0.25733575
2.4457362 -1.6310952 0.65856916 0.04743845 -0.25852853 0.8131924 1.0029105 1.0510751
0.34496215 0.5696094 0.13638343 -0.84504 -0.15182565 0.62682533 1.4528 -3.347303
0.9413312 0.2684807 -0.57854813 -0.009032291 2.0821633 1.0863941 0.91192144 0.21499312
00000000: 2e2d a8bd 1eac 7bbf 630a 48be 2085 163f
00000010: f6e8 443e 71a1 bb3f 6333 55bf 1993 2ebf
00000020: 717f 8ebd e715 84bf eaaf f0be 5992 fdbd
00000030: 4866 b2bf 0e58 8ebd 0995 2abf ea66 113e
00000040: 7a9f 323d df92 3fbd d517 c9be 685b 0abb
00000050: 9930 83bd 7fe0 753e cbac 993d fc50 103e
00000060: 1821 88be 6b6e 1f3e a6b5 653e ebec 1dbf
00000070: e711 2dbf e219 8d3e d540 94bc f2a2 26bf
00000080: e6bf 53be 827d a13e 01e7 a5bf 12ce 33bf
00000090: 6b43 e1be e54b 593f c0d6 8d3d ac82 ee3d
000000a0: 559a 67be 10e1 ba3e 0ac2 773f 49ad 23be
000000b0: fa98 89bf 27c0 493e 01ee b23e aa12 083f
000000c0: 5169 52bf 8d62 093f 68d1 df3d 1a93 a0be
000000d0: 166d 5dbe 1840 dd3c c6a6 63bf 8c30 203b
000000e0: e83a 0f3f fc4e a9bf 465e 59bf eb06 013f
000000f0: e233 65be 2e74 303d 8252 43be f753 c1be
00000100: 67e8 0cbf 091a 05bf 59a8 05bf 74e6 b43e
00000110: 6380 39bf c2dd 34be 9014 84bc a2ef b8bf
00000120: aa50 fc3d cce3 413f 1cbc 203f 3c3f e8be
00000130: d98d 8e3f 9319 a43e 99c7 00bd 3891 aebe
00000140: 01f2 6fbe 2f50 90bf 5615 40be 0f2c f63e
00000150: f6cc a33d 4233 d1be bd32 c6bd 7efb 1c3e
00000160: 9dae b6bd 431b 743e 3f28 1ebe 8198 ecbe
00000170: 1b64 ebbd cc93 293d 8407 08be 4210 a9be
00000180: f89e ebbd e220 1cbd 8640 8fbf e476 0c40
00000190: 3b0f 143e 8772 3fbf 8267 ad3f 8bac 0d3e
000001a0: 0d37 c6bf ca6a 893e 74c7 1dbf 337b e0bd
000001b0: 5827 0e3f 00ae 413f 4cd3 83bf c425 62bf
000001c0: acc4 af3e a6e4 b3bc 86a1 a1bd 8249 91be
000001d0: 546d 15bf f57f 33bf d6e7 47bf 469a 72be
000001e0: f5c8 553f 16a5 65bf b98b bbbe 72a4 543f
000001f0: 905d 66bf cfdb f8be 0342 bfbe d5e4 6d3e
00000200: 4fdc bf3e c8fe 58bf 659f f9bd 5bce 143f
00000210: 3072 213f b51a 9abe 942e febe 013a d33e
00000220: 0838 8d3f 20c0 43be bf9b 02bf 8e83 5f3f
00000230: 8d14 153f e862 e9bf 325c 163f 08ac 3dbf
00000240: 3462 023e 36d8 3abf 5357 3dbe 4a06 1ec0
00000250: 080d 3b3f 74ca a5bf bf35 c9bf a59a 9d3d
00000260: 3151 adbf 291b 8d3e 462b 053f e438 0540
00000270: 8b30 10c0 8ab4 75bf 59f8 0d3f d60a 1240
00000280: 7aa7 2dc0 9a6d 183e e14a 5140 fcb5 8d3f
00000290: 7a54 29bf 5d24 db3d 8ea4 25c0 1390 26be
000002a0: bbc6 bf3e d112 febe d684 dcbc f102 e1be
000002b0: 9bf8 ca3f 92c5 633e d4c4 7c3d 68f3 4ec0
000002c0: 9517 6f40 f85e 4f40 ce75 8a3d d472 24bf
000002d0: 831a b5bf 893a c8bf 5413 9940 b891 41c0
000002e0: f3b4 ed3e 94f9 e23f d22e c53f 88ae d93e
000002f0: 521d 3c3f ba16 d9bf c980 c7be 2519 5f3e
00000300: 8f00 503f ba01 d03f e40d 113e a0c3 7abf
00000310: f8e5 41bf 206c 84be f3e4 c33e 50e4 0b3f
00000320: 8691 9b3d 3420 7cbf 014c 33be 4b72 d3bf
00000330: 9613 c7be 4f87 de3f 7ef9 59bf ca02 fbbe
00000340: c908 523f 4765 6a3f a18a e2bf 6366 1abe
00000350: 9d53 4abf b47d 9fbd 22eb c8bf 466e 5abd
00000360: 8a9a 803d 3d40 3040 0488 1fbf 0092 373f
00000370: 3f0e f8bc 0c90 2d3f d9d2 fb3e fc2a 933f
00000380: 9c95 b2bf dcd4 443f 7aa0 3f3d c0f9 0fc0
00000390: 6a87 3540 9057 2cbf f2df c43f 83c1 83be
000003a0: f186 1c40 bac7 d0bf fd97 283f d24e 423d
000003b0: da5d 84be 612d 503f 5f5f 803f a189 863f
000003c0: e19e b03e ecd1 113f 19a8 0b3e 8b54 58bf
000003d0: 2f78 1bbe a077 203f 5af5 b93f 363a 56c0
000003e0: 15fb 703f 4d76 893e bb1b 14bf 2dfc 13bc
000003f0: 2a42 0540 f60e 8b3f af73 693f 2827 5c3e

discrete_action_output_shape f4 [1, 2]
3.0 3.0
00000000: 0000 4040 0000 4040

network_body._body_endoder.seq_layers.0.bias f4 [128]
-0.09924686 0.030386565 -0.14928444 -0.076120935 -0.054273628 -0.07315517 -0.08888804 -0.044804264
-0.0837487 -0.094067015 -0.0776153 -0.131419 -0.06490561 -0.07536706 -0.09461216 -0.039407913
-0.068410076 -0.11795856 -0.09518426 -0.057590496 -0.0732862 0.0044992957 -0.13566683 -0.08461352
-0.048163168 -0.104378805 0.035870552 0.064716876 -0.124860734 -0.061507095 -0.011591991 -0.033974342
-0.11011456 -0.06811489 0.033856966 -0.18306069 -0.09289044 -0.06479149 0.08440776 0.17621076
-0.08379756 -0.13976088 -0.039042696 -0.1141385 -0.12231436 0.007284554 -0.05435642 -0.03457852
-0.09682975 -0.061165493 -0.057122473 -0.028341398 -0.028973559 -0.04266423 0.0035352462 0.002261956
-0.045552723 0.114185914 -0.08417154 -0.0334479 -0.123105586 -0.0025237894 -0.07395154 -0.086342625
-0.09308041 -0.09854176 -0.029468322 -0.07638611 -0.15058985 0.053672116 -0.052152835 -0.021403044
-0.06402282 0.10139571 -0.12627953 -0.089591965 -0.09769175 0.07641069 -0.09907471 -0.17209727
-0.11949862 -0.054868698 -0.10657051 -0.051050328 0.023182023 -0.04335885 -0.014719313 -0.053646654
-0.12571257 -0.13696629 0.003660722 -0.09650925 -0.10994131 -0.041249346 0.02792239 0.0120322965
-0.07434772 0.012295834 -0.09622597 -0.010126523 -0.018101607 -0.046799913 -0.11693231 -0.07682121
-0.11949738 0.012988811 -0.12059447 -0.07437653 -0.15720987 -0.055433914 -0.1580672 0.020753842
0.02957996 0.024559706 -0.062710166 -0.12307729 -0.07905278 0.03658688 -0.028800363 -0.1040012
-0.06647357 -0.045942754 0.014108396 0.017292667 -0.06363068 0.06778175 -0.054791953 -0.22891161
00000000: f041 cbbd 3fed f83c 05de 18be 4be5 9bbd
00000010: 064e 5ebd 61d2 95bd ef0a b6bd ad84 37bd
00000020: 7084 abbd 35a6 c0bd c5f4 9ebd b492 06be
00000030: 3ced 84bd 0c5a 9abd 05c4 c1bd 316a 21bd
00000040: 951a 8cbd 4294 f1bd f7ef c2bd 03e4 6bbd
00000050: 1317 96bd d46e 933b 3fec 0abe da49 adbd
00000060: be46 45bd 8ec4 d5bd 00ed 123d 488a 843d
00000070: fcb6 ffbd ddee 7bbd 56ec 3dbc ae28 0bbd
00000080: be83 e1bd d27f 8bbd 9aad 0a3d 4374 3bbe
00000090: 583d bebd 67b1 84bd fadd ac3d 9870 343e
000000a0: 0e9e abbd 7a1d 0fbe 3ceb 1fbd 72c1 e9bd
000000b0: f47f fabd 45b3 ee3b d6a4 5ebd 35a2 0dbd
000000c0: ad4e c6bd ab88 7abd 41f9 69bd 382c e8bc
000000d0: f559 edbc b0c0 2ebd 97af 673b 533d 143b
000000e0: 7e95 3abd 4eda e93d 2162 acbd aa00 09bd
000000f0: c81e fcbd 2966 25bb e873 97bd 67d4 b0bd
00000100: f1a0 bebd 43d0 c9bd 8d67 f1bc 5270 9cbd
00000110: 3a34 1abe 4bd7 5b3d 369e 55bd 7055 afbc
00000120: 651e 83bd 8ea8 cf3d 6c4f 01be fe7b b7bd
00000130: 9d12 c8bd 357d 9c3d aee7 cabd 443a 30be
00000140: b1bb f4bd 00be 60bd a441 dabd 261a 51bd
00000150: 3ae8 bd3c 0d99 31bd 4629 71bc 98bc 5bbd
00000160: ccba 00be e440 0cbe b9e8 6f3b a4a6 c5bd
00000170: e928 e1bd 13f5 28bd 7fbd e43c 1c23 453c
00000180: 9e43 98bd 7774 493c 1f12 c5bd b7e9 25bc
00000190: d249 94bc 44b1 3fbd 357a efbd 7054 9dbd
000001a0: 0bbb f4bd 06cf 543c 3cfa f6bd b952 98bd
000001b0: a0fb 20be ac0e 63bd 5edc 21be f603 aa3c
000001c0: ac51 f23c 7031 c93c 306e 80bd f20f fcbd
000001d0: 6de6 a1bd 20dc 153d bdee ebbc 95fe d4bd
000001e0: 4c23 88bd 782e 3cbd e726 673c 5aa9 8d3c
000001f0: cd50 82bd 28d1 8a3d 876d 60bd ce67 6abe

network_body._body_endoder.seq_layers.0.weight f4 [128, 383]
-0.05562573 0.02455879 -0.020804524 -0.027725767 0.05031276 -0.17347616 -0.1261036 0.17540622
0.17012824 0.23179293 -0.0703694 -0.10250546 -0.14049603 0.057820957 -0.1959347 -0.21341102
-0.06313759 0.118844084 -0.17202303 -0.03665489 -0.007651877 -0.041184597 -0.014586668 -0.48909616
-0.17273693 0.16526726 0.14200693 -0.14785537 -0.004930689 -0.011609043 -0.095566966 -0.07996912
-0.31740415 0.45479956 -0.038641762 0.08203712 -0.52857214 -0.012414449 0.0503184 -0.10008508
0.07565509 -0.157162 0.6549959 0.12108837 0.1399681 -0.020206666 -0.12300069 -0.010686201
0.16706255 -0.055008903 0.29309282 0.49018613 -0.19677037 -0.24387778 -0.24123846 -0.02895757
-0.57797724 -0.048559036 -0.0059926393 -0.19364353 0.30095458 0.08924972 0.08290844 0.23535667
0.011664825 -0.08977266 -0.22294301 0.038685102 -0.09265975 0.43750644 -0.10683561 -0.2200115
-0.12559886 -0.016965372 -0.21322756 -0.04382689 0.03250011 0.018304981 -0.5841397 0.0805617
0.20800062 -0.12837128 0.07240486 -0.0773504 -0.34482425 -0.09192847 -0.15794177 0.05826887
0.22810799 0.0071139033 -0.012736231 -0.04291193 -0.14428179 -0.04839508 -0.14434478 -0.011393364
-0.6945118 0.029047111 0.0021505335 0.35159332 0.031789906 -0.6246299 -0.32188082 -0.055794075
0.10487346 0.1030881 -0.34841532 -0.59123975 0.11788572 0.014730547 0.47433123 -0.06794622
-0.10885689 -0.07811402 -0.21086521 -0.12717241 -0.1954983 -0.12935397 0.020324308 0.27948993
-0.9824906 -0.91670716 -1.1681345 -0.63648444 0.27417558 -0.12971072 -0.41384095 -0.029405635
0.46955413 -0.13716097 -0.18370585 -0.08932165 -0.36812338 0.08482647 0.09635473 0.15044169
0.037685823 -0.026433976 -1.9567418 0.3186912 0.55519676 -0.95847106 -0.20124641 -1.2078047
0.119774416 0.01667402 -0.18919148 -0.10900828 -0.21444172 -0.015912926 -0.021319633 0.15596262
-0.031597633 -0.36934382 -0.0707511 -0.11190878 0.18149468 1.8476008 -0.42519382 -0.018816352
-0.014644702 -0.8605414 -0.7242615 0.1859793 0.7111528 -0.061251093 0.023194818 -0.028933998
-0.4768925 0.2600148 0.23067589 -0.14948139 -0.029876905 0.11772633 0.82552445 -0.19986336
-0.40870905 0.6101775 0.98899823 -0.029152181 -0.0003630126 -0.010020304 0.3404381 -0.02628289
0.08730191 0.018116089 -0.039910804 -0.356706 0.017488638 0.050551496 -0.032017466 -0.5658929
0.32648146 -0.1881508 -0.22178939 -0.40590757 0.10195577 -0.35995388 0.03254014 0.001647317
0.042222906 0.20602244 -0.9265942 0.014088379 -0.43963608 -0.024514124 -0.11298949 0.39457336
0.06637496 -0.7256743 -0.20265438 -0.4548791 0.008465972 0.2793817 -0.17317961 0.19716561
1.3662055 0.061327316 0.7984511 0.20212069 -0.2565404 -0.101031244 -0.5114816 0.3430361
-0.0449851 -0.08319511 0.029688146 0.13888031 0.43667722 -0.42745924 -0.028016912 0.06769412
0.012614238 -0.98899907 0.21399735 0.024211692 -0.07455896 0.04474374 -0.593109 -0.021805095
0.9218038 0.4208613 -0.32258952 0.19897853 -0.07630076 0.4240175 -0.102015406 -1.3257505
-0.044840615 -0.060198095 0.012905235 -0.8443921 -1.0731623 -0.0026314927 0.64531 0.49147898
00000000: ced7 63bd 842f c93c 406e aabc 2621 e3bc
00000010: c114 4e3d bca3 31be 4d21 01be b09d 333e
00000020: 1936 2e3e 205b 6d3e d51d 90bd 62ee d1bd
00000030: 31de 0fbe abd5 6c3d 1ba3 48be 6b88 5abe
00000040: 484e 81bd 8764 f33d ce26 30be 7023 16bd
00000050: 99bc fabb 2eb1 28bd ecfc 6ebc d06a fabe
00000060: f3e1 30be d23b 293e 446a 113e 6667 17be
00000070: 9e91 a1bb db33 3ebc 9db8 c3bd dac6 a3bd
00000080: cc82 a2be 7ddb e83e d346 1ebd 1403 a83d
00000090: 8150 07bf f965 4bbc ab1a 4e3d 68f9 ccbd
000000a0: 0ef1 9a3d 13ef 20be d0ad 273f 2efd f73d
000000b0: cc53 0f3e 7388 a5bc c9e7 fbbd 2d15 2fbc
000000c0: 7212 2b3e 0451 61bd 4310 963e adf9 fa3e
000000d0: 2c7e 49be 19bb 79be 3707 77be 6d38 edbc
000000e0: 51f6 13bf d7e5 46bd e75d c4bb 7d4a 46be
000000f0: b816 9a3e 8fc8 b63d e6cb a93d 5701 713e
00000100: d21d 3f3c bada b7bd 2c4b 64be 4574 1e3d
00000110: 65c4 bdbd d800 e03e a1cc dabd b24a 61be
00000120: fd9c 00be f7fa 8abc 5358 5abe d383 33bd
00000130: d61e 053d 54f4 953c 2e8a 15bf 88fd a43d
00000140: 1dfe 543e c373 03be 0049 943d e369 9ebd
00000150: ce8c b0be fe44 bcbd 7dbb 21be 57ab 6e3d
00000160: 2495 693e bf1b e93b a0ab 50bc 6bc4 2fbd
00000170: 9bbe 13be eb39 46bd 1ecf 13be 3bab 3abc
00000180: 86cb 31bf 35f4 ed3c f7ef 0c3b 0a04 b43e
00000190: 2236 023d bfe7 1fbf 90cd a4be 5488 64bd
000001a0: e6c7 d63d db1f d33d 7e63 b2be 7d5b 17bf
000001b0: 126e f13d 6458 713c 8bdb f23e 6327 8bbd
000001c0: 5cf0 debd 3efa 9fbd 0ded 57be 7c39 02be
000001d0: b530 48be 5e75 04be 2a7f a63c 4e19 8f3e
000001e0: 8184 7bbf 52ad 6abf 6e85 95bf a5f0 22bf
000001f0: be60 8c3e e3d2 04be f6e2 d3be 16e4 f0bc
00000200: 6669 f03e ed73 0cbe 631d 3cbe 45ee b6bd
00000210: ab7a bcbe 80b9 ad3d a155 c53d 630d 1a3e
00000220: 735c 1a3d 118c d8bc 8476 fabf 7e2b a33e
00000230: 6021 0e3f 5c5e 75bf 8a13 4ebe 5899 9abf
00000240: 4a4c f53d f497 883c 69bb 41be bc3f dfbd
00000250: 9c96 5bbe d35b 82bc 83a6 aebc aab4 1f3e
00000260: 856c 01bd a21a bdbe f4e5 90bd 6e30 e5bd
00000270: bed9 393e 2f7e ec3f 01b3 d9be c024 9abc
00000280: 55f0 6fbc 714c 5cbf 3469 39bf 5c71 3e3e
00000290: 1c0e 363f 6de2 7abd 0f03 be3c fe06 edbc
000002a0: 412b f4be a920 853e 4d36 6c3e a611 19be
000002b0: 69c0 f4bc 811a f13d 9255 533f fba8 4cbe
000002c0: 5042 d1be 9834 1c3f fd2e 7d3f 8ed0 eebc
000002d0: ba52 beb9 332c 24bc e74d ae3e 374f d7bc
000002e0: 58cb b23d 3168 943c 8379 23bd 2ba2 b6be
000002f0: 5544 8f3c 160f 4f3d bf24 03bd 5bde 10bf
00000300: 9428 a73e 9aaa 40be c21c 63be 1ed3 cfbe
00000310: 30ce d03d e04b b8be cf48 053d c9ea d73a
00000320: edf1 2c3d 8cf7 523e 4735 6dbf f2d2 663c
00000330: fb17 e1be d8d1 c8bc 0967 e7bd 8505 ca3e
00000340: 98ef 873d cac5 39bf a184 4fbe eae5 e8be
00000350: dcb4 0a3c 1e0b 8f3e ff55 31be c8e5 493e
00000360: d2df ae3f 5a32 7b3d 4b67 4c3f baf8 4e3e
00000370: 4359 83be 78e9 cebd 75f0 02bf 6da2 af3e
00000380: 4c42 38bd 3362 aabd 8e34 f33c a436 0e3e
00000390: 2894 df3e f0db dabe b983 e5bc 37a3 8a3d
000003a0: f3ab 4e3c 0b2f 7dbf 1f22 5b3e 9957 c63c
000003b0: 5eb2 98bd 3645 373d fed5 17bf 99a0 b2bc
000003c0: 55fb 6b3f 227b d73e 742a a5be 07c1 4b3e
000003d0: 9343 9cbd d218 d93e 74ed d0bd 31b2 a9bf
000003e0: cbaa 37bd 4792 76bd 7b70 533c 152a 58bf
000003f0: 625d 89bf 1f75 2cbb 0933 253f 22a3 fb3e

network_body._body_endoder.seq_layers.2.bias f4 [128]
-0.78252107 -0.48176932 -0.6137613 -0.47937438 -0.8576418 -0.3513314 0.33723965 -0.883069
0.13916379 -0.5016873 0.36961654 -0.13360861 -0.024903093 -0.5908525 -0.4834512 -0.21818282
0.21444853 -0.24740936 0.14868563 -0.55585724 -0.11439272 -0.07831723 0.37504002 -0.6499097
-0.26204476 -0.8950661 -0.23343778 -0.19845627 -0.21139862 -0.08345175 -1.142326 0.1219955
-0.35661134 -0.27721533 -0.15788226 -0.23178479 0.52077496 -0.537784 -0.5580205 0.1985273
-0.18076487 -0.26714933 -0.39137036 -0.20704523 0.034203917 0.20782268 -0.36788043 -0.1679749
-0.00085419917 -0.06650517 -0.31545952 0.4394777 -0.1707776 0.5417411 -0.3070421 -0.52695614
-0.8065555 -0.4595548 0.20188658 -0.5064014 -0.1938609 -0.3068512 0.4302382 -0.06244516
-0.30462605 -0.014910269 -0.16716331 -1.2534577 0.2961926 -0.076877154 -0.005828731 -0.17526793
0.62457746 -0.472859 -0.21343768 0.1430495 -0.76568264 -0.13762692 -0.745157 0.41507825
-0.11141521 -0.6428692 -0.38671693 -0.5978238 -0.12655444 -0.19555831 -0.028847307 -0.4966566
0.067863055 -0.258803 -0.76071954 0.2935741 0.13860016 -0.35139203 -0.7129296 -0.8376467
-0.8133009 -0.64340776 -0.15030318 -0.20650694 -0.57683897 0.11951639 -0.6164128 0.1787382
0.111651115 0.10683805 -0.0447797 -0.5534429 -0.25313023 0.045631986 0.1636585 -0.2024492
-0.7242972 -0.21963911 -0.4376551 0.47201172 0.30439413 -0.43592972 -0.5017053 0.1277655
-0.39790586 0.42872977 0.7307325 -0.2896521 -0.31570056 -0.7643911 -0.2111592 0.15242968
00000000: 4d53 48bf 78aa f6be 761f 1dbf 8f70 f5be
00000010: 6a8e 5bbf b6e1 b3be adaa ac3e cf10 62bf
00000020: f480 0e3e 946e 00bf 613e bd3e b2d0 08be
00000030: 9201 ccbc 1c42 17bf ea86 f7be 516b 5fbe
00000040: 6598 5b3e e158 7dbe 0c41 183e a94c 0ebf
00000050: bb46 eabd c964 a0bd 3f05 c03e 7b60 26bf
00000060: bb2a 86be 0d23 65bf 500a 6fbe 1f38 4bbe
00000070: e178 58be c0e8 aabd bd37 92bf c7d8 f93d
00000080: c395 b6be 2bef 8dbe e3ab 21be fe58 6dbe
00000090: 8251 053f 36ac 09bf 6eda 0ebf be4a 4b3e
000000a0: 6d1a 39be ccc7 88be b261 c8be aa03 54be
000000b0: 6819 0c3d 78cf 543e d35a bcbe 9d01 2cbe
000000c0: 56ec 5fba dd33 88bd e983 a1be 3903 e13e
000000d0: 53e0 2ebe 8baf 0a3f 9f34 9dbe 99e6 06bf
000000e0: 6c7a 4ebf c44a ebbe 5bbb 4e3e 86a3 01bf
000000f0: 7983 46be 9a1b 9dbe 2e48 dc3e 7fc6 7fbd
00000100: f2f7 9bbe 334a 74bc dc2c 2bbe 4d71 a0bf
00000110: 8ea6 973e c571 9dbd f1fe bebb 7079 33be
00000120: 4fe4 1f3f 931a f2be 688f 5abe 917b 123e
00000130: c703 44bf 12ee 0cbe 9cc2 3ebf 2385 d43e
00000140: a82d e4bd 1393 24bf c3ff c5be fb0a 19bf
00000150: 7d97 01be 7040 48be 3051 ecbc c649 febe
00000160: c9fb 8a3d d481 84be 84be 42bf 584f 963e
00000170: 33ed 0d3e a8e9 b3be 8e82 36bf 0470 56bf
00000180: 7d34 50bf 5fb6 24bf 14e9 19be 8e76 53be
00000190: b8ab 13bf 02c5 f43d 3bcd 1dbf 2607 373e
000001a0: 57a9 e43d e8cd da3d eb6a 37bd 6fae 0dbf
000001b0: 499a 81be 9be8 3a3d 1896 273e d84e 4fbe
000001c0: 8b6b 39bf 13e9 60be 5414 e0be 85ab f13e
000001d0: 8cd9 9b3e 2e32 dfbe c26f 00bf f6d4 023e
000001e0: 51ba cbbe 7882 db3e 4911 3b3f 484d 94be
000001f0: 81a3 a1be 23af 43bf 1e3a 58be 8716 1c3e

network_body._body_endoder.seq_layers.2.weight f4 [128, 128]
0.2781931 0.27976277 -0.33320928 -0.51202184 0.19586249 -0.05945834 0.12950708 -0.027265554
0.34981602 0.1173841 -0.11817855 0.12226644 0.34738538 -0.035757795 -0.16361175 0.4251446
0.10963603 0.519149 -0.20113143 -0.41813 1.1095755 -3.1813447 -0.0786019 0.28177163
-0.061703853 -0.20155047 -0.18367442 -0.4453809 -0.21054672 -0.23419285 0.38620698 -0.43830505
0.16269135 -0.10726975 0.074062586 -1.692441 -0.24320501 1.3084949 -0.03043971 0.061882325
-0.13042171 -0.032670893 0.24448507 0.69549507 -0.08897402 -0.0900208 -0.09086648 0.6080479
0.4548332 -0.17905372 -0.23250835 -0.15760753 -0.21601523 0.02692169 -0.8811589 0.047592886
-0.6868775 -0.9278584 0.080965064 0.057957575 0.10858595 -0.056941062 0.19314732 0.1795711
0.020189242 -0.28750455 0.14086017 0.1884526 0.10064722 0.0021338228 0.14336735 0.2618272
-0.19997591 -0.22694722 -0.022212917 -0.06057748 -0.13257447 -0.108483404 0.975607 -0.42295372
0.1572645 0.901711 -0.09204189 0.513778 -0.11242807 0.14107347 -0.05367156 0.15634912
0.12016638 0.4561923 0.29948214 0.9982137 -0.56663746 0.0071887546 -0.120652065 0.4480897
-0.3469977 -0.074771345 0.27580535 -1.2197667 -0.13231196 -0.3314275 -0.0651202 -0.18285906
-0.6233685 0.24660014 -0.047906697 0.457711 0.81865454 0.021614678 0.3357577 -0.75510067
-0.015449577 0.69352174 0.30104077 1.0904828 -0.4860701 -0.29862642 -0.13849957 0.0459433
0.11977491 -0.1002737 -0.042219367 -0.97279197 0.20018643 -0.48238546 0.27027828 -0.09789899
-0.4213983 0.18773206 0.7094746 0.71334195 -0.742952 0.08418452 -0.01819269 0.034010105
-0.20745529 -0.2022677 0.053669512 0.6571729 -0.82097954 -0.4107231 0.104384474 0.31627622
-0.0019249892 0.63443255 -0.09102417 0.31321275 -0.36523926 -0.10276837 -0.11613694 -0.29821312
0.46112517 -0.16083702 -0.11119189 0.17408401 -0.57542485 -0.209967 -0.6742594 0.22185677
-0.06612521 0.003909241 0.150202 0.4785995 -0.21406212 1.243487 -0.15311207 -0.035177264
0.06550382 -0.07266707 -0.19456106 -0.19956854 0.4080893 -0.30036727 -0.54331285 -0.50718987
0.18970278 0.87034875 0.053285565 -0.058437094 0.21400782 0.032688294 -0.5656262 0.14433469
0.059445944 -0.2728967 0.10033819 -0.16652392 0.4076797 -0.06264481 0.46688804 0.747166
-1.607687 -1.0758332 -0.21994646 -0.24948385 -0.10248257 -0.106583685 0.6532671 0.41161612
0.9939539 -0.13074058 -0.54481924 0.92956054 0.48328772 -0.4486129 -0.95706207 -0.04148736
-0.22986363 0.41522762 -0.0108030625 -0.9243572 -0.28449908 -0.028499851 0.26397747 -0.116002046
-0.046167616 -0.41270337 0.3569582 0.76826 -0.22771151 0.21391414 0.14464441 0.15922506
-0.21634457 -0.5684414 -0.63054556 0.04920607 -0.28035766 -0.11390069 -0.09745132 0.15249716
-0.29903218 -0.18996368 -0.18549207 -0.77061987 0.8330102 0.21195138 -0.11330566 -0.8491975
0.51612926 0.38329443 -0.006817466 0.26149046 -0.730086 0.5547512 0.21505158 -0.45016015
0.23015352 -1.540739 -0.45782894 -0.20062636 -0.4751974 -0.16176903 -0.08134349 -0.2491203
00000000: 536f 8e3e 113d 8f3e 689a aabe dd13 03bf
00000010: 2d90 483e 978a 73bd 819d 043e 035c dfbc
00000020: 161b b33e 1367 f03d 9807 f2bd d466 fa3d
00000030: 7fdc b13e c476 12bd d789 27be 8eac d93e
00000040: db88 e03d f3e6 043f 66f5 4dbe 2315 d6be
00000050: 9206 8e3f 279b 4bc0 08fa a0bd 5f44 903e
00000060: 2ebd 7cbd 3f63 4ebe 2615 3cbe f708 e4be
00000070: 8f99 57be 40d0 6fbe ecbc c53e 8569 e0be
00000080: 9098 263e 3eb0 dbbd 20ae 973d e8a1 d8bf
00000090: bc0a 79be c37c a73f b35c f9bc 5278 7d3d
000000a0: 458d 05be ead1 05bd 4b5a 7a3e f70b 323f
000000b0: 0338 b6bd d35c b8bd 3418 babd 07a9 1b3f
000000c0: e6df e83e dc59 37be ab16 6ebe de63 21be
000000d0: 1933 5dbe e08a dc3c a193 61bf c2f0 423d
000000e0: 34d7 2fbf 2188 6dbf 03d1 a53d ec64 6d3d
000000f0: 5062 de3d 083b 69bd 69c8 453e 7de1 373e
00000100: e963 a53c cc33 93be a63d 103e b8f9 403e
00000110: 2120 ce3d 9bd7 0b3b e4ce 123e 370e 863e
00000120: 7cc6 4cbe da64 68be ddf7 b5bc 1720 78bd
00000130: 9ac1 07be 8c2c debd 61c1 793f 648d d8be
00000140: f209 213e 88d6 663f 7580 bcbd f486 033f
00000150: b040 e6bd 9075 103e b6d6 5bbd fc19 203e
00000160: cb19 f63d 0a92 e93e b955 993e ef8a 7f3f
00000170: 270f 11bf a58f eb3b 6e18 f7bd 036c e53e
00000180: afa9 b1be b821 99bd 5c36 8d3e 5121 9cbf
00000190: c97c 07be deb0 a9be bd5d 85bd 683f 3bbe
000001a0: 1495 1fbf bf84 7c3e d039 44bd 1959 ea3e
000001b0: 5893 513f 4411 b13c 6fe8 ab3e 474e 41bf
000001c0: 3920 7dbc a48a 313f 0422 9a3e f194 8b3f
000001d0: 2ede f8be 90e5 98be d5d2 0dbe 0b2f 3c3d
000001e0: 8c4c f53d 4c5c cdbd 37ee 2cbd e508 79bf
000001f0: acfd 4c3e 3afb f6be ea61 8a3e 447f c8bd
00000200: 85c1 d7be d53c 403e 21a0 353f 949d 363f
00000210: 1a32 3ebf ef68 ac3d d608 95bc 2e4e 0b3d
00000220: 296f 54be 441f 4fbe 90d4 5b3d 7c3c 283f
00000230: b72b 52bf 4c4a d2be 87c7 d53d f5ee a13e
00000240: eb4f fcba 2c6a 223f e16a babd 6c5d a03e
00000250: a400 bbbe 3978 d2bd 34d9 edbd 64af 98be
00000260: 9918 ec3e 76b2 24be 93b8 e3bd 1443 323e
00000270: 0b4f 13bf 9701 57be 449c 2cbf 6c2e 633e
00000280: a76c 87bd 1719 803b 8ece 193e fe0a f53e
00000290: 1a33 5bbe 952a 9f3f 69c9 1cbe 0916 10bd
000002a0: de26 863d 79d2 94bd 043b 47be b25b 4cbe
000002b0: 15f1 d03e bdc9 99be 8d16 0bbf 32d7 01bf
000002c0: 7241 423e 2dcf 5e3f f741 5a3d bc5b 6fbd
000002d0: de24 5b3e 29e4 053d e1cc 10bf 79cc 133e
000002e0: 977d 733d 1eb9 8bbe 1c7e cd3d 3f85 2abe
000002f0: 65bb d03e ec4b 80bd f30b ef3e 4546 3f3f
00000300: b0c8 cdbf e7b4 89bf a539 61be b278 7fbe
00000310: 62e2 d1bd 8c48 dabd 833c 273f 59bf d23e
00000320: c373 7e3f dce0 05be 4679 0bbf aef7 6d3f
00000330: 7d71 f73e 97b0 e5be 0502 75bf a6ee 29bd
00000340: 5f61 6bbe b798 d43e 54ff 30bc aca2 6cbf
00000350: dda9 91be 8578 e9bc 0e28 873e 7b92 edbd
00000360: 411a 3dbd db4d d3be 3ac3 b63e b0ac 443f
00000370: 352d 69be 4f0c 5b3e aa1d 143e e50b 233e
00000380: 6e89 5dbe 6085 11bf 6f6b 21bf 4e8c 493d
00000390: 0a8b 8fbe c444 e9bd 8f94 c7bd 3728 1c3e
000003a0: bf1a 99be d785 42be a2f1 3dbe 5847 45bf
000003b0: 2840 553f c809 593e cc0c e8bd 0265 59bf
000003c0: 0c21 043f 2b3f c43e 0d65 dfbb 14e2 853e
000003d0: ebe6 3abf 2d04 0e3f 7b36 5c3e 647b e6be
000003e0: 5dad 6b3e f036 c5bf 8e68 eabe ff70 4dbe
000003f0: 134d f3be c8a6 25be 6a97 a6bd 6419 7fbe
