Assets/NN/Level1/CharacterBehav 8.onnx (onnx, 668974 bytes, 13 tensors)

72 f4 [369]
00000000: f39e c73e fb5f 0c3b fb5f 0c3b f77d 223e
00000010: e561 f73d c70a 063e eb9a 133e e8b5 e23e
00000020: 7a5c c03e 84a0 ae3e fb5f 0c3b bed6 9b3e
00000030: faa1 2d3e 7c2a 013e a959 193e c929 173e
00000040: 08ca f03e f36e dc3e da94 c23e fb5f 0c3b
00000050: d084 fe3d 76b5 233e 951c f93d a886 063e
00000060: 37a2 173e f13a e43e 9f3d c03e 1aa3 ad3e
00000070: fb5f 0c3b 3933 a93e 1ed8 383e b080 0f3e
00000080: c193 113e 4220 153e 93fc f43e 83fc e33e
00000090: 45a3 be3e fb5f 0c3b c6f3 523e 4ab8 273e
000000a0: bc59 fb3d 4a94 ff3d fb1e 1c3e 006c e93e
000000b0: 2189 c73e bd65 b03e fb5f 0c3b 1201 b03e
000000c0: 564b 3a3e 7518 273e 7cae 123e e8be 133e
000000d0: b681 f83e 541b e93e 55f1 b63e fb5f 0c3b
000000e0: ded0 8a3e abe3 233e 1843 003e 7904 ea3d
000000f0: 091e 1e3e b81d ed3e 9d10 cd3e 36cf ab3e
00000100: fb5f 0c3b a365 b93e c12e 3c3e 93a3 443e
00000110: 052d 103e 4646 143e 26f0 fa3e ad5d eb3e
00000120: 1150 be3e fb5f 0c3b 7595 a03e 060f 2a3e
00000130: 3993 033e 370f e63d 66da 1e3e 83d6 f53e
00000140: 1702 d23e bd3d b93e fb5f 0c3b 0c28 c03e
00000150: 235b 3e3e 4685 5b3e b411 083e e812 133e
00000160: c8b1 fe3e 7b80 ee3e 5c6a b03e fb5f 0c3b
00000170: 5815 b43e 1b98 2e3e 0c2a 0d3e 96c5 c73d
00000180: a2b8 1c3e 46c1 f63e a0c8 d13e 3c35 b83e
00000190: fb5f 0c3b cb08 c73e c801 443e b14f 5e3e
000001a0: 6311 053e 4e4b 163e 4176 ff3e dcd5 ed3e
000001b0: d43f b93e fb5f 0c3b 4d07 c53e 2701 383e
000001c0: 2666 123e 32ef b83d 25e9 1e3e 5c11 fd3e
000001d0: 88f6 d43e b0e2 c03e fb5f 0c3b 348c d13e
000001e0: 3a3a 4a3e 4c4a 633e 5eba d63d 9f99 143e
000001f0: e5ea ff3e a802 ec3e aa85 c33e fb5f 0c3b
00000200: a32c d53e 2ca0 3e3e 874b 163e b894 af3d
00000210: e07c 1c3e 15f8 ff3e bcf4 d53e 6ff7 ce3e
00000220: fb5f 0c3b 0919 dd3e 845c 5b3e 14f5 683e
00000230: 10b3 c93d 7ff7 0a3e 4070 fb3e eb1d e43e
00000240: 26bf d33e fb5f 0c3b b233 e53e 8792 463e
00000250: 8842 1d3e 7e97 a43d 58db 0e3e 3bae fb3e
00000260: bdb2 d13e b7af eb3e fb5f 0c3b 1d95 e23e
00000270: d15f 613e b837 863e 9b13 f23d c596 193e
00000280: 8e86 de3e b038 cc3e 36a2 e43e fb5f 0c3b
00000290: b681 f23e cf7b 493e bcc7 353e e57c 863d
000002a0: 1bb4 103e 48af e53e 7f1e c33e ec6e d83e
000002b0: fb5f 0c3b d5b1 e93e 181d 423e 775f c53e
000002c0: 4ff2 cc3d b049 363e 1b50 cb3e 00f5 bd3e
000002d0: 8831 bf3e fb5f 0c3b 25b2 f93e b3a1 143e
000002e0: 2366 c43e aaf0 243d f446 cf3d 0ba4 d43e
000002f0: 166f ba3e e153 d73e 7ae6 453d 1c06 f83e
00000300: b34a 923e 92d1 a63e 939b df3d ff48 533e
00000310: c532 9e3e 9a2c a63e 564b c73e a7bc 513d
00000320: dfd9 ff3e 2ad5 853e 7dc4 833e 3b78 0b3d
00000330: e326 f43d 74a1 b83e 5a65 b43e 4822 e23e
00000340: 1144 593d df64 fa3e a1c3 9d3e cca5 943e
00000350: 47f1 c03d f108 313e fbf9 7c3e 4e8c a03e
00000360: 84a9 cd3e 7d7c 6c3d 85f3 ff3e 7046 963e
00000370: bb13 613e 25a8 f33c 24c1 f53d 994c 9a3e
00000380: 43a1 a63e df6b e43e 74ed 653d a650 fc3e
00000390: f8c2 a93e fdfb 913e 4ff8 ac3d be0a 173e
000003a0: 3d05 413e 204a 8d3e d782 d53e b010 7b3d
000003b0: aafe ff3e f124 9b3e a0f4 6e3e e013 db3c
000003c0: 4dcc f03d d0ee 7a3e 9de1 923e 37d3 e53e
000003d0: fbce 733d 8816 fd3e ef84 af3e 2cac 8c3e
000003e0: d57d a33d bffb 0c3e 65c4 103e 6e78 753e
000003f0: 7d9d d53e 014f 823d f2fa ff3e ead9 a53e
0.38988456 0.0021419514 0.0021419514 0.15868364 0.12079219 0.13090049 0.14414565 0.44279408
0.37570554 0.3410684 0.0021419514 0.30437273 0.1695632 0.12613863 0.14975609 0.14762034
0.47029138 0.43053398 0.3800419 0.0021419514 0.12427676 0.1598719 0.12163655 0.13137305
0.14807974 0.4457622 0.37547013 0.339135 0.0021419514 0.33046892 0.18051192 0.14013934
0.1421652 0.14563087 0.4784895 0.4452859 0.3723394 0.0021419514 0.20600805 0.16378894
0.12272975 0.12479456 0.15246193 0.4559021 0.3897181 0.3445262 0.0021419514 0.34375817
0.18192801 0.16317923 0.14324373 0.14428294 0.48536462 0.45528662 0.35730997 0.0021419514
0.27112478 0.16004817 0.12525594 0.11426634 0.15441145 0.46311736 0.40051737 0.33556527
0.0021419514 0.36210355 0.1837721 0.19203024 0.14079674 0.14479932 0.49011344 0.45969906
0.3717046 0.0021419514 0.31364027 0.16607293 0.1284913 0.11233371 0.15513 0.48015222
0.4101722 0.36179915 0.0021419514 0.37530553 0.18589453 0.21437559 0.13288003 0.14362681
0.4974501 0.46582398 0.34456146 0.0021419514 0.35172534 0.17050211 0.13785571 0.097544834
0.15304807 0.4819433 0.40973377 0.35978115 0.0021419514 0.38873896 0.19141304 0.21710087
0.12994914 0.14677164 0.49894908 0.46452224 0.3618151 0.0021419514 0.38482133 0.1796919
0.14296779 0.09029998 0.15518625 0.49427307 0.41594338 0.3767295 0.0021419514 0.4092728
0.19748774 0.22196311 0.104847655 0.14511727 0.49983898 0.46095777 0.38187915 0.0021419514
0.41635618 0.18615788 0.14677249 0.08573288 0.15282011 0.4999396 0.4178828 0.40423152
0.0021419514 0.43183163 0.2142201 0.2274974 0.098486066 0.13570975 0.49109077 0.44554076
0.41356772 0.0021419514 0.44766003 0.19391833 0.15357411 0.08036707 0.1395086 0.49156365
0.4095668 0.46032497 0.0021419514 0.4425439 0.22009207 0.26214385 0.11820146 0.1499892
0.43462032 0.39887 0.44655007 0.0021419514 0.47364587 0.19676135 0.17751974 0.065667905
0.14131205 0.4486029 0.38109204 0.42272127 0.0021419514 0.45643488 0.18956411 0.38549396
0.10007154 0.17801547 0.39709553 0.37100983 0.37342477 0.0021419514 0.48768726 0.14514808
0.38359174 0.040268578 0.10120955 0.41531405 0.36412877 0.42056182 0.048315503 0.4844216
0.28572616 0.32581764 0.10918345 0.20633315 0.3089811 0.32455903 0.38924664 0.051205304
0.4997091 0.26139194 0.25735846 0.034050208 0.119214796 0.3606068 0.35233575 0.4416678
0.05304343 0.48905084 0.30813316 0.29032743 0.0942102 0.17288567 0.24704735 0.31357044
0.40168393 0.05773591 0.49990478 0.29350615 0.21980183 0.029743263 0.11999729 0.30136564
0.32544908 0.4461355 0.056134656 0.4928028 0.33156562 0.28512564 0.084457986 0.14750192
0.18849654 0.27595615 0.41701385 0.06129521 0.4999898 0.30301622 0.23335505 0.026742876
0.11757717 0.24505162 0.28687754 0.44887707 0.059523564 0.49431252 0.34281108 0.27475107
0.07982985 0.13767909 0.14137419 0.23971722 0.41721717 0.06362725 0.49996144 0.32392818

75 f4 [14]
00000000: 7412 fc40 6111 8440 dea0 3042 101d 523f
00000010: d2c0 1740 fbd0 093f f367 b741 8e04 0141
00000020: 21e0 8640 67c4 2742 dda4 533f af43 c13c
00000030: cb5a bc3b dc9b 683e
7.8772526 4.1271214 44.157097 0.82075596 2.3711438 0.53834504 22.925756 8.063612
4.2148595 41.9418 0.82673436 0.023591844 0.005748128 0.22715706

action_model._discrete_distribution.branches.0.bias f4 [3]
00000000: 0a91 cd3b e9c6 b43b b823 6ebc
0.0062733935 0.005516876 -0.014534883

action_model._discrete_distribution.branches.0.weight f4 [3, 256]
00000000: 7221 5f3b 9b2c 2f3c 2667 e7bb 1391 c5ba
00000010: 32c2 2abc 1c3f 893c 2e70 58bc be9b ae3b
00000020: f7e5 133b cbdb a33b 48c2 d13b e135 bbbb
00000030: 6c1e 213c 2a64 0e3b 2936 d1ba 3f82 7ab9
00000040: d80d a6bb 2a10 5e3b 839f 843c 93b9 c73b
00000050: b3c7 113a fb4d e33b 5326 2d3c 24b5 6ebc
00000060: 624b b43b 024d 5b3b a1de 563a 8f8c c6bb
00000070: 024e 9dbc ae18 35b8 e760 153b 43f6 ff3a
00000080: 7684 863b ecc8 29bc 31e4 a7b9 880b 5a3c
00000090: 7675 873c 4384 6abc 564a 95bc 046b 973c
000000a0: 8ada 613b aab3 4b3a 61be 1bba d228 683b
000000b0: d345 cf3b b0a3 8e3c bc07 7eba b32b 483c
000000c0: b48d d0bb c5ea 0dbc add4 87bc 90bd d1bb
000000d0: 0fe5 4b3b 00b5 003d 9141 0d3c cd72 1d39
000000e0: ee72 323c 6d8e 513c 7c29 3b3b d4da 2aba
000000f0: b5d3 253c 1679 bbba aa81 d93a b4de e6bb
00000100: eced 40bc 5a14 77bc 1d84 b93a d86a 083c
00000110: 3021 6c3c f90d 6bbc eb91 eabb 4862 11bc
00000120: 7506 2b3c bca0 d83a bc6c 9d3a aff6 7b3b
00000130: 5c4f 67bc e2f3 763b c26f 11bc ebb3 d53b
00000140: 8dbf 46bc 1bec 2b3c 191f 0f3c 8f8c a8b9
00000150: 2c16 db3b 82ad 18ba 8c78 f93b 781c c3bc
00000160: 9406 76bc e391 80ba 68c3 e6ba 189d 35b9
00000170: 7890 63bb 2b5c 373b fb6a c2bb 72cd 42bb
00000180: d89f 85ba 6d85 963b d569 3abc e9e6 133c
00000190: fd0c 683c 592d dfbb b9b3 a2bb c81b b5bb
000001a0: 2e1e 06bc f5fb 3c3b e276 cabb 74ea d0bb
000001b0: 1ca2 d93b 296a 6a3b aa57 89b9 c096 49bb
000001c0: 275a 75bc 1106 a4bc af81 a43b c5ee 853c
000001d0: 3488 84ba 5c55 2fbc 86ae 02bc 3a28 1dbc
000001e0: 7f0c 4abc 04c2 3d3c 778d c6bb 058b dabb
000001f0: 5d89 49ba a1fa e23b a4e8 77bc 7721 163b
00000200: f14a c33c 1ad5 c0ba 73ee c23b ef86 0ebc
00000210: da63 ffbb 280f 903c faed a33a 57f7 b33b
00000220: 0715 21bc a766 7d3c 657e 493c ecb2 f8bb
00000230: fb8b 09bc 2b6b 063b 1328 7f3b 1795 f0ba
00000240: 0445 6fba 0ac5 383a 888f fd3a 3b7a 8abb
00000250: 5e2b cfbb 9578 503b 6960 d03b a63c 0f3b
00000260: f784 cbbb 4575 b83b 23ca bb39 b503 1e3c
00000270: 17f1 ddbb 2127 12bc 1488 1fbc 35d2 443b
00000280: 1bfb 293c 69f6 59ba 0348 54bc 8dfa 37bb
00000290: add8 0f3c d225 b43c 7494 fa3a b096 d93b
000002a0: 9f3f 7d3c 485a 58bc ffde 683c f99b 403c
000002b0: 2b85 93bb 90fd 983a ff9c 93bc ef6f 6b3b
000002c0: 9c34 883c 2810 543c 564a 633c 7c38 bd3b
000002d0: 76eb fb3a be5d 08bc 7049 293a 2905 0a3c
000002e0: 3d16 a43c 9bd1 d2bb d848 523c dbc4 b63b
000002f0: af61 273a 56dc 5d3c be0a 873b 40ed ebbb
00000300: f602 a2bb f47c 2a3c e712 133c 658d d53c
00000310: ac95 563c d576 503c b407 4f3c 2225 36bc
00000320: 8818 cb3c fbdb 98bb 9c18 293c b97b 413b
00000330: ae3f cfbb e323 7fbb 6cd0 bd3b 3c75 f4bb
00000340: 9784 7f3b 35cd 373c 89a5 9ebb a737 0239
00000350: e98c a03a 2e53 1c3c 481f 0bbc 9d0a a13a
00000360: 4ef3 aabb 7cd2 4b3c 77cf fb3b f9c0 b4bb
00000370: 3d06 53bc d0a0 9ebb 933e 10bc 204a 713c
00000380: 0131 d03b 665b 1c3c 70bb 1a3c d2fb dfbb
00000390: 084f 583c bd26 9f3b d4a1 f0bb 176b b53a
000003a0: 16b2 013b 58b6 b73b 4a20 0abc 968b 603b
000003b0: dcba ed3b 8e44 9f3c f897 c33b 74f5 473b
000003c0: 6939 a0bb a065 94bc 1763 8a3c e52d 953b
000003d0: c5e2 06bc 4b72 73bb 0a37 643b 5b02 8fbb
000003e0: 2721 cb3a c7d3 123a 59ba 08bc c319 2f3c
000003f0: 0682 13bc db20 213c 78c3 0fbc e2bb 603a
0.0034047035 0.010691787 -0.007061857 -0.0015073143 -0.010422276 0.016753726 -0.0132103395 0.0053286245
0.002256749 0.0050005666 0.006401334 -0.00571321 0.009833913 0.0021727183 -0.0015961576 -0.00023890378
-0.0050675683 0.0033884146 0.016189342 0.00609512 0.00055610685 0.006936786 0.010568219 -0.0145695545
0.0055021504 0.0033462648 0.00081966264 -0.0060592364 -0.019202236 -4.3176748e-05 0.0022793354 0.0019528348
0.004105146 -0.010362845 -0.00032022738 0.013308413 0.016535502 -0.01431376 -0.018223923 0.018483646
0.0034462535 0.00077706075 -0.00059411494 0.0035424721 0.0063254624 0.017412037 -0.00096904836 0.01221745
-0.0063645486 -0.00866193 -0.016580904 -0.0064007714 0.0031111871 0.031422615 0.008621589 0.00015015453
0.010891659 0.012790305 0.0028558662 -0.0006517593 0.010121276 -0.0014303054 0.0016594429 -0.0070455913
-0.011775475 -0.015080536 0.0014153753 0.008326255 0.014412209 -0.014346593 -0.007158508 -0.00887353
0.010438551 0.0016527395 0.0012010555 0.0038446595 -0.014118042 0.0037681987 -0.008876743 0.006521692
-0.01213063 0.010493304 0.008735442 -0.0003214818 0.0066859927 -0.00058241945 0.0076132473 -0.023817286
-0.015016217 -0.0009809103 -0.0017605843 -0.00017320027 -0.0034723561 0.002797852 -0.005933163 -0.0029724506
-0.0010194732 0.0045935423 -0.011377771 0.009027221 0.014163253 -0.006810826 -0.0049652723 -0.0055269934
-0.008185906 0.0028836702 -0.0061787227 -0.0063756052 0.0066416394 0.0035768843 -0.0002619599 -0.003076002
-0.014975107 -0.020022424 0.0050203423 0.016349206 -0.0010111392 -0.010701504 -0.00797618 -0.00959211
-0.012332081 0.011581901 -0.0060593444 -0.0066694045 -0.000768801 0.00692685 -0.015131149 0.002290813
0.023839446 -0.0014711947 0.0059488355 -0.008699163 -0.0077938857 0.017585352 0.0012506836 0.0054921317
-0.0098316735 0.015466369 0.012298201 -0.0075896885 -0.00839519 0.0020510654 0.0038933798 -0.0018354979
-0.00091274106 0.0007048404 0.0019345144 -0.004225997 -0.0063223084 0.0031810154 0.0063591492 0.0021856218
-0.006210919 0.005629214 0.00035818023 0.0096444385 -0.006773125 -0.008920462 -0.009737033 0.003003252
0.01037481 -0.0008314611 -0.012956622 -0.0028072924 0.008779687 0.02199069 0.0019117729 0.006640278
0.015457063 -0.0132051185 0.014213323 0.011755937 -0.004501959 0.0011672247 -0.018019198 0.0035924872
0.016626649 0.012943305 0.013872704 0.0057745557 0.0019219953 -0.008323131 0.00064577814 0.008424082
0.020030135 -0.0064336783 0.01283475 0.005577666 0.00063851004 0.013541302 0.0041211536 -0.0071999133
-0.0049442006 0.010405768 0.008976675 0.026068399 0.013097208 0.012723644 0.012636114 -0.011117252
0.02479197 -0.0046648956 0.010320809 0.0029523207 -0.00632473 -0.0038931302 0.005792668 -0.0074602645
0.0038988942 0.011218359 -0.0048415107 0.00012418498 0.0012249026 0.009541316 -0.008491345 0.0012286488
-0.0052169925 0.01244032 0.007684644 -0.005516168 -0.012879905 -0.0048409477 -0.008803981 0.014727145
0.006353498 0.009543275 0.009444103 -0.0068354392 0.013202436 0.004856913 -0.00734351 0.0013841119
0.0019789985 0.005606454 -0.00843055 0.0034262887 0.0072549414 0.01944187 0.005969044 0.0030511292
-0.0048896563 -0.018114865 0.016892953 0.00455259 -0.008232777 -0.0037146981 0.0034822845 -0.0043642945
0.0015497551 0.00056010153 -0.00834521 0.010687294 -0.009003168 0.0098344935 -0.008774631 0.00085729186

action_model._discrete_distribution.branches.1.bias f4 [3]
00000000: 1d0f 4fb9 d64a 583c 1770 71bc
-0.00019746688 0.013201436 -0.014736197

action_model._discrete_distribution.branches.1.weight f4 [3, 256]
00000000: 597b 9abb 6e5b 6dbb 0bd6 c0bb b79b 4ebb
00000010: 29ef 7ebb 7f8f 40bc 6393 383b 6673 ad3b
00000020: 6dd2 f8bb f261 c4ba fb9a 3b3c 5f9c a83c
00000030: 2349 b83b 6c86 09bb 4ba3 513c 25ab 8c3b
00000040: 5c2f a03b 6a40 f03a 93c1 a5bc 522e 85bc
00000050: 51df 7d3c f3bf 02bc 1875 883b 928b 62ba
00000060: a151 a4bb de0b 9c3c 35a9 60bb b826 debb
00000070: 5dbf 3e3b 9f80 21bc 6bb0 d13b 719c 23bc
00000080: e717 403c a77a 44bb 8d9c 8d3b 99a0 bdba
00000090: 4421 a53b 55c3 a13c e18a 853a d705 64bc
000000a0: 3098 883c ec0c 54bb e6bd 48bb f40f 9abc
000000b0: ffdc fc3a 8895 5bbc 867e 303b 9e6a bbbb
000000c0: 1a6e f83b 7009 dbbb 07a9 3a39 6cea 9cba
000000d0: 31b6 243c 47f8 99bc 6f6c 89bc e56d 98ba
000000e0: 3a5b 59bc 03af 4b3c 2130 d23b 3213 903b
000000f0: 32f2 493b f855 4f3b c6dd 823b 79da 56bb
00000100: 0a5d 89bb 2c3a d0bb 0340 06bc 2ead 9eba
00000110: 6d2d ecbb 0435 7a3b 764a 0abb 95e3 d83b
00000120: d75d 43bc c908 d33b 2839 9c3b 8644 073b
00000130: 726c 773c cfd0 97bc 5efd 8b3c 7856 ae3b
00000140: 50cc 8abb f919 0cbc 8cf9 7dbc 2449 a1b9
00000150: 1856 c2bb d68f 223c 4202 79bc 5db7 f2bb
00000160: 0716 5bbb 6a50 08bc 0704 67bb b587 1f3c
00000170: 0250 c7bb 181d 963c d55b cf3b b6b2 883b
00000180: 9bfb 653b 21c5 3c3c d5de f43b 8e40 27bb
00000190: 9825 98bb 335f e83b e0eb bc3c 8a54 56bc
000001a0: cfeb a73c ed5b f73b af22 ed3a 69b1 c63b
000001b0: a3d9 313c 98cf 8e3b 50e2 86bc ef53 7f3c
000001c0: 0cfc 493b cea7 c03b 066c 39bb 2af3 173c
000001d0: a1da 93bc c959 b23c b75c 3e3c 6e0e f5bb
000001e0: b73b 8f3c 3126 ec39 2e32 c33b 3205 103b
000001f0: 99cd 913b bce5 9fbb 80bf e83b b724 3f3c
00000200: 7242 26bc fc0e b73b 35fa cabb 9779 493b
00000210: 2839 b73c de71 53bc c928 4cbc 6d34 44bc
00000220: e685 84ba 385e 22bc bfd6 8bbc 7cd6 8d3a
00000230: 0cc9 f9ba 5848 fd3b e035 27bb 9557 a63a
00000240: 5dfb 8c3b ad99 98bc 5160 15bc 4852 b83b
00000250: 0fa9 6ebb 70a7 57bb 8ecd 483c 6b2e 5c3c
00000260: 4693 b23a 3024 653b 3b1a bbba 8b29 aabb
00000270: 989f 3b3c 358f a93c 2f40 24bc b337 5f3b
00000280: 2eb8 653a af2b 3a3b 9160 cf39 bd21 75bc
00000290: d19c 883b ea19 7dbb eb44 1b3c ef2b f73a
000002a0: 3906 9e3a 0c39 843c c9e5 cbba d077 2dbb
000002b0: bc61 1e3b 7dae 883c e5b0 223c 417e b43b
000002c0: 015b 1fbc caf7 69bb 1450 09bc 8e2f 76bb
000002d0: 917a fbba 81f5 34bb 12d1 773c 1630 c33b
000002e0: b24d b739 331d 243c a3c8 50bb dc0e 85bb
000002f0: df02 453c ee17 1cbc bbff 98bc 0199 9abb
00000300: ea2b 9e3b eaf9 fc3b 593c 9ebb 1b31 c2bb
00000310: 2c6a bebb 3039 96bb bbc6 8fbb 4d7b fbba
00000320: 7841 4fbb 494b 073b c999 01bc 0dff abbb
00000330: 7995 b43b 8326 c73a 5837 13bc b993 37ba
00000340: 29f4 27bc 0a79 b238 868f be3a 7c64 f13a
00000350: b64d 39bc 2376 c6bb 1e15 86bb c033 333c
00000360: fd20 e2bb e4c3 f2bb 6a30 d43b 781a 323c
00000370: 3ba1 803c dbe3 62bc 4484 12bc 71c1 49bb
00000380: 7999 85bc 8b4a 0d3b a0f1 b23c 5506 81bc
00000390: eba4 7bbb 9935 2a3c b869 633a e2f2 38bc
000003a0: e128 39bb d02c 373c 4e64 553c cc4c 97bb
000003b0: c30c 213c bb27 f43b 681e ffbb 2b65 393c
000003c0: 2264 0c3c d0ee 293c 7d5b 1cbc f926 5ebc
000003d0: 3076 a83a c0f5 e1bb 5f66 163c b291 7a3c
000003e0: 5516 933c 95e5 1bbb 25b1 ab3b 1c44 913b
000003f0: e1a6 513c fc25 6cbc 4f1f 583b 7989 36bc
-0.004714411 -0.0036217826 -0.005884891 -0.0031525919 -0.0038899875 -0.011752962 0.0028164021 0.0052932976
-0.007593444 -0.0014982803 0.011450524 0.020582376 0.005623953 -0.0020984663 0.01279528 0.004292863
0.004888458 0.0018329744 -0.020233905 -0.016257439 0.015495137 -0.007980335 0.0041643493 -0.00086420134
-0.0050146137 0.019048627 -0.0034280543 -0.006779518 0.002910576 -0.009857326 0.0063992045 -0.009986029
0.011724449 -0.0029980333 0.004321641 -0.0014467417 0.005039366 0.019746462 0.0010188484 -0.013917408
0.016674131 -0.0032356335 -0.0030630766 -0.018806435 0.0019291936 -0.01340235 0.0026930883 -0.005719497
0.0075814845 -0.0066844746 0.0001780131 -0.0011971719 0.010053203 -0.018795146 -0.016775338 -0.0011629431
-0.013266379 0.012431863 0.006414429 0.0043968195 0.0030814526 0.0031636935 0.0039937226 -0.0032784028
-0.0041919993 -0.006354591 -0.0081939725 -0.0012106055 -0.0072075636 0.0038178572 -0.002110151 0.006618927
-0.011924229 0.0064402563 0.0047675557 0.0020640208 0.015101539 -0.018532185 0.017088588 0.0053203665
-0.0042357817 -0.008551114 -0.015501391 -0.00030762807 -0.0059306733 0.0099219885 -0.015198292 -0.0074071125
-0.0033429877 -0.008319953 -0.0035250203 0.009736945 -0.0060825357 0.01832442 0.006328086 0.0041716946
0.0035092595 0.011521609 0.0074728527 -0.0025520655 -0.0046431534 0.0070914268 0.023061693 -0.013081679
0.020498184 0.0075488 0.0018092002 0.0060636294 0.010855111 0.004358243 -0.016465336 0.015583976
0.0030820398 0.005879379 -0.0028293147 0.009274283 -0.018048586 0.021771329 0.011618785 -0.007478527
0.017484529 0.00045041883 0.0059569096 0.0021975753 0.004449558 -0.0048796814 0.0071029067 0.011666468
-0.010147678 0.005586503 -0.006194378 0.003074264 0.022366121 -0.012905566 -0.012460896 -0.01197539
-0.0010110706 -0.009910159 -0.017070172 0.0010821368 -0.0019057109 0.0077295713 -0.002551429 0.0012690896
0.004302426 -0.018627966 -0.009117202 0.005625043 -0.0036416685 -0.0032906197 0.012256039 0.013438801
0.0013624213 0.0034964196 -0.0014274785 -0.0051929406 0.011451624 0.02069817 -0.010025068 0.00340603
0.00087631017 0.0028407385 0.00039554064 -0.014961657 0.0041690846 -0.0038620182 0.009476881 0.0018857698
0.0012056298 0.016140483 -0.0015556152 -0.002646912 0.002416714 0.016684765 0.00992987 0.0055082147
-0.009726287 -0.0035700672 -0.0083809085 -0.0037564966 -0.0019186308 -0.0027612152 0.01512553 0.00595666
0.00034962367 0.010016727 -0.003185787 -0.0040606093 0.01202461 -0.00952719 -0.01867663 -0.0047179465
0.0048270123 0.0077202218 -0.0048289713 -0.005926264 -0.0058109965 -0.004584454 -0.004387704 -0.0019186527
-0.0031624716 0.0020644239 -0.0079102 -0.0052489103 0.0055109826 0.0015193973 -0.008985363 -0.00070029084
-0.010251083 8.510247e-05 0.0014538623 0.0018416787 -0.011310032 -0.0060565635 -0.004091873 0.010937631
-0.006900905 -0.007408606 0.006475498 0.010870568 0.01570188 -0.01384827 -0.008942667 -0.0030785466
-0.016308533 0.0021559324 0.021843731 -0.01575009 -0.003839786 0.010388755 0.0008675116 -0.0112883765
-0.0028253125 0.011180118 0.013024403 -0.004617309 0.009829703 0.0074510253 -0.007785607 0.011315624
0.008568795 0.010371879 -0.009543297 -0.0135590965 0.0012852605 -0.0068957508 0.009179681 0.0152935255
0.017954985 -0.0023787965 0.005239623 0.004433168 0.012796135 -0.014413353 0.0032977646 -0.0111411745

discrete_action_output_shape f4 [1, 2]
00000000: 0000 4040 0000 4040
3.0 3.0

network_body._body_endoder.seq_layers.0.bias f4 [256]
00000000: b495 5c3c 937f 043c 39ae b13c 81d8 903c
00000010: 91c8 933c 5e75 763c 07ef e3bb 5e2f 953c
00000020: 919b 253c 456d 7e3c 0f10 983c d083 dfbb
00000030: 0e11 9c3c 39d1 4f3b d0d1 733c dafd ac3c
00000040: 690d bc3c ff91 a83c 4229 843c 1b11 083d
00000050: 6f48 763c c10b 603c 84bd a4ba c1af 063d
00000060: 140d e43b 7836 e23a 5ce3 bf3b 4c14 c13a
00000070: 52cf b23c 2146 d33a 44a8 a53c 1e13 253b
00000080: f1ed 1abb 8a8b c33b ef4d ae3b a4c4 60bc
00000090: 7cec 06bb 273a 863b 6c96 683c 88fc b63c
000000a0: 55e7 cc3c a2cd b23b 0080 d33c 1264 323c
000000b0: 03e5 763c 4eeb 5a3b a852 e63a 82f4 793c
000000c0: 7072 babc 3987 9a3c 2e3a f73b d1bc 9b3c
000000d0: 26d0 f93c 66db e93c 68d5 893c 8cab 343c
000000e0: de80 643c 2f1a a33c 46d5 9ebc 0538 9e3c
000000f0: a412 6dbb c800 f53c 012f b53c 2d2c 6a3c
00000100: fbf6 8a3c 3df5 923b 34ce 073c 8388 bf3c
00000110: 7809 1cbc c7e3 5e3b 6812 b23c 0238 a73c
00000120: 0150 0d3d 0dcf 123c 3f0b 993c 9298 033d
00000130: 5647 b23a 6cb2 7d3c cf35 1d3d 1eb9 a53b
00000140: fbf8 3a3c b406 4abb 2c3f 2cbb 5d16 d5b9
00000150: e19f b03c 4031 e83b c78b a03c a372 7abc
00000160: ac49 f63b 015a 123c 1312 8b3b b3e6 bf3c
00000170: f83f 223c 6f9c a53c 24eb c33c 9084 04bb
00000180: 5256 ce3c a904 c83c 66c4 2fbc 7309 933b
00000190: 2a75 963c f05c 783b 2d0b 483c fe40 b93b
000001a0: c1cc c63c 9761 6e3b cf51 953c e4d9 563c
000001b0: 191d 8b3c 98d7 ed3b a351 613a d578 153b
000001c0: 4600 a83b 1f4a 05bc 355b 2f3c 77e0 233b
000001d0: 677e cd3c 9a6a 4c3c 60fb ec3a 91ee 3b3c
000001e0: 2f73 c33c 8602 1dbc 25ea e83c 5980 a43c
000001f0: 9ac6 8e3c 9345 a33c 5b44 373c ba09 d03c
00000200: b9f5 02b8 eeea 1d3c da5b 0ebc efa7 8ebb
00000210: a753 893c 18df 853c 3879 a73c 77f6 c4bb
00000220: f789 03bb 3384 7f3c 07c1 ac3c 96dc 873c
00000230: f30d ec3b 9d8e 173d f2f4 0b3d fd5f b03c
00000240: 8b57 803c bfe1 833c 6f10 993c 3d43 1d3c
00000250: 954e 573c 53fc 453c 4aa1 343c 4970 7a3c
00000260: 113e 313c daa4 943a ce57 87bc de5a b13c
00000270: 1295 0ebc 6d83 c73c 75e3 d6bb 04be d83c
00000280: e35a c83c 16dd 9b3b 778c de3c 3211 fa3c
00000290: 093e 933c 0a41 683c 099a 723c e8ef 273b
000002a0: d957 653c 95d5 b33c 8f70 a23c 48de 43bb
000002b0: c865 333c 11e3 f53c 7542 9d3c 54e5 da3c
000002c0: 5fac e03c 97a4 ba3c cf2d aabb c2df da3c
000002d0: 3b2f 9e3b 0bd5 423b a022 e33c e5e2 cf3b
000002e0: ca13 a0bb da00 1d3d 98fa 403c b87d 863c
000002f0: b88a 18bb fbb3 e03c 3f00 083d 30f1 0c3b
00000300: 8ae0 353c bd95 933c c87d bd3c 52d4 2a3c
00000310: 259f 423c 0515 1d3c 7fa0 f7bb 8e53 9bb9
00000320: 2883 173c e0aa adbb 8b39 1b3c 01ee 783c
00000330: b7e5 a33c ca5d 62bb 7de7 b93c 83bd bb3b
00000340: 8604 283c 64f6 86bb 6482 5d3c 4e5f f1ba
00000350: 00be 673c f7ea 0e3d 2794 8039 1072 c13c
00000360: 916b ab3c 804a c13a 308c 2e3c 3085 b13c
00000370: 262c 493c 4cad 07bc f368 ae3b 8831 ca3c
00000380: d1ec fd3b d2f8 933c 378f 9a3b ae76 fd3c
00000390: d042 883c 20f6 4a3c 2710 acbb a098 aa3c
000003a0: 83c4 ab3c 0b95 ac3c efc1 333c b5e3 d43c
000003b0: e5c2 7f3c 2db4 8b3c a6c8 ea3a dd5c 50bc
000003c0: 3d55 f53c a792 903c bdac 043d 93f0 7b3c
000003d0: 3490 95bc 4b16 333c 5d81 12bc 5ac0 2d3c
000003e0: ff68 a83c a225 99b9 a66f 3bbc acb8 0fbb
000003f0: 96e1 3bba 0c9d e03c d1fa 6f3b 158f c43c
0.013463426 0.008087057 0.021689521 0.017681362 0.018039973 0.015042631 -0.0069559845 0.018211063
0.010107891 0.015528982 0.018562345 -0.006821133 0.019051101 0.00317104 0.014881566 0.02111714
0.022955613 0.020577429 0.016132955 0.033219438 0.015031918 0.013674677 -0.0012568687 0.032882456
0.006959567 0.0017258665 0.005855961 0.001473078 0.021827374 0.0016118923 0.020221837 0.0025188397
-0.002364036 0.005967562 0.005319349 -0.013718758 -0.0020587733 0.004096288 0.01419602 0.022337213
0.025012651 0.0054566422 0.025817871 0.010888116 0.015069249 0.0033404413 0.0017572241 0.015256049
-0.022759646 0.018863307 0.0075447774 0.019010933 0.03049476 0.028547 0.016825393 0.011027228
0.01394674 0.019909946 -0.019388806 0.019313822 -0.003617444 0.0299076 0.02211714 0.014292759
0.016963473 0.004484801 0.008288909 0.023380524 -0.009523742 0.0034010278 0.021737292 0.020412449
0.034500126 0.008960498 0.01868212 0.032127924 0.0013601582 0.015484434 0.038381394 0.005057468
0.011411901 -0.003082675 -0.002628277 -0.00040643188 0.021560611 0.007085949 0.019597901 -0.015286121
0.0075161066 0.008932591 0.004244098 0.023425436 0.009902947 0.020216195 0.023915835 -0.0020220615
0.025187645 0.024416285 -0.010727977 0.0044872104 0.018366415 0.0037897192 0.012209696 0.0056534996
0.024267556 0.0036374086 0.018227486 0.013113473 0.016981648 0.007258367 0.00085952337 0.0022807617
0.0051269857 -0.008135348 0.010702898 0.0025005618 0.025084687 0.012476588 0.0018080287 0.011470453
0.023858635 -0.009583121 0.028431961 0.020080732 0.017428685 0.019930637 0.011185731 0.025395263
-3.1223262e-05 0.009638531 -0.008688891 -0.0043535153 0.016763521 0.016341731 0.020443544 -0.006010826
-0.0020071247 0.015595484 0.021088136 0.016584676 0.0072038113 0.03700124 0.034169145 0.021530146
0.015666744 0.016098855 0.018684594 0.00959855 0.013141294 0.012084085 0.011024782 0.01528556
0.01081802 0.0011340634 -0.01652136 0.021649774 -0.008702533 0.02435466 -0.0065578767 0.026457794
0.0244574 0.00475658 0.027166588 0.030525777 0.017973917 0.014175663 0.014807233 0.0025625173
0.013997995 0.02195243 0.019829063 -0.0029887129 0.0109495595 0.0300155 0.019196728 0.02672068
0.027425943 0.02278356 -0.005193449 0.026718024 0.0048274077 0.0029729034 0.027726471 0.0063441866
-0.0048851715 0.03833089 0.011778496 0.01641737 -0.0023276042 0.027429571 0.03320336 0.0021506064
0.011100898 0.018015737 0.023131266 0.010426598 0.011878763 0.009587531 -0.0075569744 -0.00029626157
0.009247579 -0.005299911 0.0094741685 0.015193463 0.020006998 -0.0034540766 0.02269339 0.0057293787
0.010254985 -0.0041187275 0.013519857 -0.0018415244 0.014144421 0.03489205 0.00024524445 0.02361396
0.020925315 0.0014746934 0.0106535405 0.021669954 0.012278592 -0.008281063 0.0053225695 0.024681821
0.007749178 0.018062983 0.0047167796 0.03094038 0.016633421 0.012387782 -0.005250949 0.02082473
0.020967728 0.021067163 0.01097153 0.025987485 0.015610431 0.017053688 0.0017912581 -0.012717453
0.029947871 0.017648054 0.0323913 0.015377182 -0.018257238 0.010930608 -0.008941975 0.010604942
0.020557879 -0.00029210473 -0.011440193 -0.0021930141 -0.0007167099 0.027418636 0.0036618004 0.023994008

network_body._body_endoder.seq_layers.0.weight f4 [256, 383]
00000000: ae74 a73b 8fc7 9bbc 54a9 bcbc e8d4 493d
00000010: a54a f33c 6f60 b03c adcc 7fbc 4856 723d
00000020: b638 cfbb 682b 6c3d ee8a f5bc d603 1d3d
00000030: 3f58 a83d e324 91bd 91de 28bd b402 d93d
00000040: 7651 40bd 54ae 9fbd 4d58 fd3d d4c3 90bd
00000050: feaf 36bd d76c 6abd 618f 89bd 0581 873d
00000060: 1a02 90bc 4115 09be 39ed ebbc de15 dcbb
00000070: 0b23 1abd 1507 42bc 2f65 47bd d472 97bd
00000080: d4fb a8bd 6316 0fbc 2136 953c 26ff 42bc
00000090: 18d0 813d ba27 113d 9f53 23bd 794d 1a3c
000000a0: 907a e13c baf9 483d a2c4 51bc ebc8 b7bc
000000b0: 9bd2 07be 149f 1ebd 8a99 4ebc 3cd7 503b
000000c0: a437 6e3d d571 2cbd 8003 ff3c 1f8a 7fbc
000000d0: e95a bd3c 8f2e da3c 8d2c 1bbd 4be5 50bd
000000e0: f6c7 4f3b 24ae 923c bf82 b43c cdd3 ab39
000000f0: 717a 823d be57 de3b c15f 9c3c 71c8 98bb
00000100: 741b b13c 3be1 47bc 48cc a5bc 03d7 91bc
00000110: d7d9 223d 6ecb aebc 5335 2e3d 6324 2bbc
00000120: 8ada 9dbb e757 ef3c e9fc b33c b461 343d
00000130: 2d56 e5bc ceb9 dc3d 49a7 91bd f1bc ac3d
00000140: 5083 33bc c659 84bd 1773 643c c04a fbbc
00000150: 4ace 99bd 0b76 86bd 90c5 1ebd b8d6 ef3a
00000160: bebb 8e3c 23b1 e1bc 7349 a23d ac31 0fbb
00000170: a98a d13d 5c8c ea3d 9ada 8e3c 7ace 07bd
00000180: 753e c53c 2bf0 f3bc 23f1 62bd 2f96 7d3c
00000190: 5d36 423d 50d1 96bd da4b 43ba 04c2 273d
000001a0: a485 7d3c 387f 123d d17c 003d 8c61 7e3d
000001b0: 67e5 39bd 1ed6 72bd 41c3 14bc 2b39 03bd
000001c0: 7d27 04be e8bd cd3d 3daf 183b 0668 40bc
000001d0: d5de 73bd 8a1d 06bd 8552 713b 5bfc aabb
000001e0: 5150 6339 8e49 ba3d f190 83bd d928 1c3d
000001f0: 397e 59bd 34ca 40bd fb68 733d 701c b33d
00000200: c898 bfbc ee33 1d3c 4df4 dd3c 3673 6a3c
00000210: 52f8 133e 76d7 c33d 7ccd 163d dc08 533d
00000220: cbd1 003d 378c 2abd d285 a23d ee97 0b3e
00000230: a231 893c 5592 29bd 0c74 9ebd 16ed df3c
00000240: 655b 95bd e846 ca3d 8011 7d3c 4dd0 bfbc
00000250: fe6c 29bd 0598 62bc 1d46 ffbb f69d 1dbb
00000260: d8f6 3dbd 439b 473d e9bc f5bc 242d 883d
00000270: 0fc3 173d 4e62 c43c 746a 88bc f35b 42bd
00000280: 8ed8 29bd eb74 ae3d a484 55bc 3bfb a73b
00000290: 4380 5abc 6563 243d d7e4 29bd ede7 79bc
000002a0: ae04 f33c 5a12 8ebc 4cc9 703d 21b9 693d
000002b0: 2def a83c d75a cabd 4455 0dbd e960 9ebd
000002c0: dae7 8cbd f601 6cbc c996 a53d bda5 c6bd
000002d0: 2415 063d 1f86 753d 725a 4bbd 86ae c13c
000002e0: 66e9 9cbd 4fa6 bc3d 766a 8d3c a990 fe3c
000002f0: 085d 8fbd 6fba 003d ac87 b8bc aeb8 2dbd
00000300: 5bc7 a4bd 083b 643d 3bf7 0f3c 94a9 13bd
00000310: b0ca 27bd 2233 9b3d fec1 3b3d ca2d b13d
00000320: 5843 793d dcb8 453d a528 263c f59c 363c
00000330: 1122 873c 3320 0e3d 9345 f73c ed30 64bb
00000340: 15b8 8a3a 1d6e f03b 3fc4 5abd 5cb5 6b3d
00000350: 71ea 5b3c 9a02 91bb 3dfd 2cbd 0822 6fbc
00000360: 3534 ddbc a351 8dbd 08c4 103d 1f1a a4bc
00000370: 1132 1fbd a952 bc3c 8f5a e9bb a919 afbc
00000380: 1037 773c 2a5a 1abc 8907 a83d 8dae 9fbd
00000390: b8b9 a83d 8cb9 173e c6d0 103d c535 933b
000003a0: b5dd 09be 5851 f73c 9641 863c 3cc2 803c
000003b0: 906d 9c3d b9f0 acbd c009 17bd d876 c7bc
000003c0: b52d 8c3b 28bf ad3c 6ba6 ef3a 5184 82bc
000003d0: f7f3 433d ef0e 953b 1bcf 8439 6dc1 eebc
000003e0: 40d7 93bc 0325 98bc 099f b63b 2c4d 0abd
000003f0: abca 74bd 5b39 13bd 1974 673a ae03 6d3d
0.005110345 -0.019016055 -0.02302996 0.04927531 0.02969868 0.021530358 -0.015612763 0.059164315
-0.006323899 0.057658583 -0.029973473 0.038333736 0.082199566 -0.07087114 -0.04122788 0.10596219
-0.046952687 -0.07796922 0.12370358 -0.07068601 -0.044601433 -0.057232704 -0.067168005 0.066164054
-0.017579127 -0.13387014 -0.02879964 -0.006716474 -0.037631076 -0.011842509 -0.04868048 -0.073949486
-0.082511574 -0.008733365 0.018214287 -0.011901652 0.06338519 0.035438277 -0.03987467 0.009417885
0.027524263 0.049066283 -0.012803229 -0.022434672 -0.13263933 -0.038725927 -0.012609849 0.003186657
0.05815853 -0.042100746 0.031129599 -0.0155968955 0.023114638 0.026633529 -0.037884284 -0.05099992
0.003170488 0.017905302 0.022035 0.00032773466 0.0637101 0.006785362 0.019088628 -0.0046625664
0.021619536 -0.012199695 -0.02023901 -0.01780272 0.03975853 -0.021337237 0.042531323 -0.010445687
-0.0048173117 0.02921672 0.021971183 0.04403849 -0.027995193 0.10777627 -0.07111985 0.08434475
-0.0109566 -0.064624354 0.013943455 -0.030675292 -0.0751005 -0.06565484 -0.03876263 0.0018298244
0.017423507 -0.027550286 0.079241656 -0.0021849675 0.102315255 0.11452553 0.017438222 -0.033155896
0.024077633 -0.029777607 -0.055405747 0.015477701 0.047415126 -0.07364142 -0.00074499624 0.040956512
0.015473757 0.035765857 0.031369034 0.062104747 -0.04538479 -0.05928623 -0.009079755 -0.03203694
-0.12905689 0.10045987 0.002329781 -0.011743551 -0.05953868 -0.032743014 0.0036822867 -0.0052180714
0.00021678327 0.09096061 -0.0642413 0.038124893 -0.05309889 -0.047067836 0.05942629 0.087456584
-0.023388281 0.0095949005 0.02709403 0.014309695 0.14450195 0.0956258 0.03681706 0.05152212
0.031450074 -0.041637626 0.079356804 0.13632175 0.0167473 -0.04139932 -0.07736978 0.027334731
-0.07292823 0.098768055 0.015446067 -0.023414755 -0.04136371 -0.01383019 -0.0077903406 -0.002405045
-0.046377987 0.048732053 -0.029997306 0.06649235 0.037051257 0.023972657 -0.016652323 -0.04745097
-0.04146629 0.08518394 -0.013032112 0.0051263846 -0.013336244 0.040133853 -0.041478004 -0.015253049
0.029665317 -0.017342735 0.05878572 0.05706132 0.02062186 -0.098806076 -0.034505144 -0.07733328
-0.0688016 -0.014404764 0.080854006 -0.09699581 0.032735005 0.05994236 -0.049646802 0.02364279
-0.07661705 0.09211408 0.017262679 0.031074839 -0.07000166 0.031427797 -0.02252563 -0.042412452
-0.080458365 0.05572036 0.008786972 -0.036050394 -0.040964782 0.07578112 0.045839302 0.08651312
0.06085524 0.048272 0.010141526 0.01114582 0.016495736 0.034698676 0.030184543 -0.00348192
0.0010583425 0.0073373453 -0.05340981 0.057546005 0.013422594 -0.004425359 -0.042233694 -0.014595516
-0.027002433 -0.069003366 0.0353432 -0.020031987 -0.038866106 0.022988634 -0.007121391 -0.02137454
0.0150888115 -0.009420911 0.08204562 -0.07796965 0.08238548 0.14816874 0.035355352 0.004492494
-0.13463481 0.030190155 0.016388696 0.015717618 0.07638085 -0.08444352 -0.036874533 -0.024348661
0.0042779096 0.021209314 0.0018283849 -0.015932234 0.047840085 0.0045488994 0.00025331308 -0.029144967
-0.018046975 -0.018572336 0.0055731577 -0.033765003 -0.05976359 -0.03594337 0.00088292506 0.057864837

network_body._body_endoder.seq_layers.2.bias f4 [256]
00000000: ff08 ad3c 1ea1 d33b 3b63 1bbc 7407 293c
00000010: fc3e d43c 058b 64bb ff66 b53b 99af c33c
00000020: 87b7 5e3c 82ca 5c3c 672c 3abc a4d4 763c
00000030: c41e 063c 188b abbb b9a3 913b 309b 0e3b
00000040: 9a09 e33a 70a1 cb3b 7a19 a13c 4bc0 873c
00000050: 1225 43bb 7746 3e3c 5bf0 a33c 11eb a73c
00000060: 4c1c 4abb 131b 153c ae32 9f3c e6bc 0f3b
00000070: 2797 873b 4bd1 a2bc d221 e2b8 9f82 3c3c
00000080: 0bf6 0d3c 3acf 363a 025f fd3c 621c 5b3c
00000090: bd51 463c 9dda bc39 97a3 7e3c 7214 ec3b
000000a0: c648 2d3c 533a c13c cf99 e53b 3321 d83c
000000b0: 0505 783c 40ab bb3c 69df 7e3b a259 983c
000000c0: 6c9e 07bc 129a 47bc d8da f63b 0335 8d3c
000000d0: b746 bf3c ffdc 3e3c e8e0 613c b753 5bbc
000000e0: 0403 6b3c f60d 0a3c 3975 dc3c 35c3 b3bb
000000f0: c97a 6d3c 03b7 a83c a171 0d3c f818 903c
00000100: d6c8 643b 77ee 3b3c ca45 463c fbcc 733c
00000110: f433 833c 2600 d3b8 fb99 a23c ab6d 893c
00000120: 134b 313c fb19 193b d14c 883c b6a9 b8ba
00000130: 3fbd b23c 6422 9a3c 51c0 a33c db76 773c
00000140: d499 3e3b 9e1e a13c c204 133c e63d 933c
00000150: a7aa bc3c abcf 563b ead0 993b 1a84 ccbb
00000160: 9317 2d37 9f79 06bc f5d3 823c 35a2 2a3a
00000170: 2cdd 043c f502 25b9 2454 983b 1d36 533c
00000180: 8e10 a33c 063e 873c 17b9 903c 0d0a 133a
00000190: d360 aab9 fb1a 9b3c 664e 0d3c be12 0d3c
000001a0: fc7f 953b f40d abbb 6210 a93c e572 ae3c
000001b0: fec3 9cba ea29 c83c 0310 a73c 4770 9bba
000001c0: 4449 583b a464 bbbb c983 6f3c c8d0 faba
000001d0: 2dea e4ba fae3 4d3c 9620 b9ba 3472 003b
000001e0: 0185 6d3b 8d08 d33c 9498 47bc 311c 29bc
000001f0: 4c6d b23c 0452 e83c 4350 a03a 029f b53c
00000200: 71bb 9c3c a249 3f3c d936 ba3c dec3 013c
00000210: e70a 913b 82a9 d93c 4429 85bb 3dbf 6b3b
00000220: 0478 72bc 9c26 893c 2a2a b0ba 0d9e 8d3c
00000230: f48d 3ebc 30d8 bd3b b029 983c d9e3 9f3c
00000240: a00b 0abb d545 263c e3a7 853c c98b 97bb
00000250: d1fc 1b3c 71c9 ae3c 516f 013c a44e d33c
00000260: 43bd e43a d01c 883c 66d0 a53c c786 963c
00000270: 9eac dabb 9245 123c 4b32 fb3b 08a6 383c
00000280: e484 713b 4434 ffbb 0105 a2ba 5283 533c
00000290: 8ff6 c03c a1bf 803c 5b98 b83a b44d 533b
000002a0: ba26 293c 301e ea3a 721c 893b d9ed b03c
000002b0: 9e5e 53bc fc94 df3a 8aad c53b 74e1 c83c
000002c0: 8287 873c 0a9e c73c d1b2 603a 8d49 1ebc
000002d0: 752a b93c c693 593c 34d4 8e3c c5cc 133c
000002e0: 82f4 983c 3e15 093c ffd5 093c fd3b 2a3c
000002f0: 4165 a13c bbee db3b f56f 6d3c 2e47 443c
00000300: f521 353c c290 10bb 585f da3b b2e7 a43c
00000310: ad77 ef3c de9e 093c 4492 c23c 8f3e aa3c
00000320: a8bd 4d3c 9ead 38bb 75cd 4bbb a487 373c
00000330: ab98 a73b 1733 b73c b6b8 243a 089a 07bc
00000340: 4b5c f13b 4fdf 3bbb b4a1 353b 3617 a53c
00000350: 166e d9bb c089 cd3c c72d 753b e100 5b3c
00000360: ea49 8a3c d329 cb3c 54b3 123c ba51 a03c
00000370: 605c 7fbb d1aa d53c 8181 8e3a d0a3 af3c
00000380: fecc 943c e8da da3c 77ae 263c a78a 523b
00000390: 88d5 a53b 221a 343c f89d f63c 95a1 3fbc
000003a0: c124 683c 0da1 703a 27b8 3d3c 95d2 e73b
000003b0: 1824 b43b a0f0 653c be9f 023b 2328 a83c
000003c0: a3f7 a23c 64fa f83b 2d2d c63b 3d70 533c
000003d0: 4352 7dbb e015 c7bb bb35 173c d0e0 2c3c
000003e0: a981 0a3c 51db 2abc f0b4 013c 45d3 083c
000003f0: ef39 3d3c b298 833c 9714 053b b9a0 9b3a
0.021122454 0.0064584156 -0.009484108 0.010316718 0.02590894 -0.00348729 0.0055359597 0.023887442
0.013593561 0.013476016 -0.011363125 0.015065346 0.008186046 -0.005235087 0.004444566 0.002175998
0.0017321587 0.006214313 0.019665468 0.016571185 -0.0029776734 0.01161348 0.020012071 0.02049783
-0.003083962 0.009100693 0.019433346 0.002193266 0.004137892 -0.01987519 -0.00010782819 0.011505752
0.008664618 0.0006973628 0.030929092 0.013373466 0.012104449 0.00036021034 0.015541933 0.0072045857
0.010576433 0.023587381 0.007006861 0.026383018 0.0151379155 0.022908807 0.0038890487 0.018597428
-0.008277517 -0.012182729 0.0075334124 0.017237192 0.02334915 0.011649369 0.013786532 -0.013386658
0.014343981 0.00842618 0.026911365 -0.005485917 0.014494606 0.02059508 0.008633048 0.017590031
0.0034909747 0.011470429 0.0121016 0.014880414 0.016015984 -0.00010061292 0.019848814 0.016775927
0.010821122 0.0023361433 0.016638191 -0.0014088664 0.021818755 0.018815227 0.019989165 0.015104021
0.0029083388 0.01966792 0.008973302 0.017973851 0.023030592 0.0032777588 0.004694094 -0.0062413337
1.0317092e-05 -0.008207708 0.01597021 0.0006509156 0.008109372 -0.00015736728 0.004648702 0.01289132
0.019905355 0.016509067 0.017666383 0.00056091027 -0.00032497066 0.018933764 0.008624649 0.0086104255
0.004562376 -0.005220169 0.020637695 0.02129502 -0.0011960266 0.024434049 0.020393377 -0.0011859023
0.0033002654 -0.0057187844 0.014618822 -0.0019135708 -0.0017464809 0.012566561 -0.0014124091 0.001959932
0.0036242607 0.025760913 -0.012182374 -0.010321663 0.021780632 0.02835942 0.0012230951 0.022170547
0.019132348 0.01167527 0.022731232 0.0079202335 0.0044263485 0.026570085 -0.004063757 0.0035972141
-0.014799122 0.016742043 -0.00134403 0.017287279 -0.011630524 0.005793594 0.018574566 0.019517826
-0.0021064058 0.010148485 0.016315406 -0.004624818 0.009520725 0.02133629 0.007900075 0.025794335
0.0017451424 0.016615301 0.020240974 0.018374814 -0.0066734096 0.00892772 0.0076659075 0.011270054
0.003685289 -0.007788213 -0.001236111 0.012909727 0.023555068 0.015716376 0.0014083491 0.003224236
0.010324175 0.001786178 0.004184299 0.02159779 -0.012900976 0.0017057951 0.0060326504 0.024521567
0.016544107 0.024367351 0.00085715676 -0.009661091 0.022603253 0.013279861 0.01743517 0.009020989
0.018671278 0.008366881 0.008412837 0.010390279 0.019701602 0.0067118085 0.014492025 0.011979861
0.011055459 -0.0022058939 0.006664198 0.020130012 0.02923187 0.008399693 0.023751386 0.020781783
0.012557425 -0.0028179656 -0.0031097804 0.011201773 0.005114635 0.022363229 0.00062836276 -0.00827647
0.0073657385 -0.0028667038 0.002771479 0.02015267 -0.0066354377 0.025090098 0.0037411319 0.013366909
0.016880948 0.024800217 0.008953888 0.01957022 -0.0038964972 0.026082428 0.0010872335 0.021440417
0.018164154 0.02671571 0.010173432 0.00321261 0.0050608553 0.010992559 0.030104622 -0.011696239
0.014168919 0.0009179272 0.01157955 0.007074664 0.005497467 0.01403442 0.001993164 0.020526951
0.019893473 0.0075982083 0.006047866 0.012905178 -0.0038653768 -0.0060756058 0.009229119 0.010551646
0.008453765 -0.010428266 0.007916674 0.008351152 0.011549457 0.016064022 0.0020306462 0.0011873461

network_body._body_endoder.seq_layers.2.weight f4 [256, 256]
00000000: fa68 e93d d945 cc3d a105 dc3b da7e 7fbd
00000010: 81d2 eebc b8f9 103d 794f f7bc 0808 c13d
00000020: 1c71 523d abf9 a93d 75f2 5e3c 0e78 2b3d
00000030: 6e55 d53d 6f6c 24bd b6d7 38bc 36df 7bbd
00000040: 378c e2bc 4fea 143d 808b 873c 4ce5 79bc
00000050: c761 8ebc d921 e23d 9118 d0bd 3aea c9bd
00000060: 7b1d 8e3d 288f aa3a cff9 7fbd e62c 81bd
00000070: 70bc ed3d 4b26 c23c 16bd 0cbc acda c13d
00000080: 249e 9fbd 5746 8dbd 4301 9fbc 736f 193c
00000090: 5ad3 d93c ab7f 67bd 11b8 b53c 61b7 913d
000000a0: 2093 393d eb17 e2bc ac89 11bd 48b2 553d
000000b0: 2a05 2a3d 63a9 febc 54fb 4cbd dc87 8e3d
000000c0: 9116 86bc 8d25 f3bc 66a7 fa3c 8859 933b
000000d0: 3743 f0bb eb2e 693d 634a 6a3d 0c00 4fbd
000000e0: c156 803c 9de1 bf3c 9209 c5bc ee53 6cbc
000000f0: 1631 0d3d 839d d3bb 66aa ce3d 3bf8 09bd
00000100: 5972 d63b c0bf 7d39 0950 8a3c 4ef8 4cbd
00000110: a57e 343d f73f be3d 5af1 89bc b3e3 223d
00000120: 2c6d cb3d 0612 56bd 380f a23d 57ec 623d
00000130: f5a2 403d 3c05 41bc d8c2 333d 42b5 a0bc
00000140: dfcd f93d 8b99 973d 15b6 b0bb e54d e43d
00000150: 946a 8a3c 989f 05bc 4086 853d 9808 45bd
00000160: 4eb7 533c 3e8f a73d 8967 babd 299d 7dbd
00000170: 4db9 0e3d 421e f3ba 8751 cabc 48c1 69bd
00000180: b6a2 943b cc2d 393d 796e a33d 23cb 0dbe
00000190: bf66 ec3c f1da c2bb 86f6 413c 77c2 bcbd
000001a0: 14a2 c03c 5fea 28bd 066a edbc 9bbb 0f3e
000001b0: 8acc ce3b bd57 ec3d 07ad 8cbd 23d9 333c
000001c0: d068 543d 4a68 c2bc 7f8c b2bc 684b 6cbd
000001d0: 9928 933c 5f7c 95bb 6282 ce3b 8219 863d
000001e0: 4222 833d b4f3 3abe f0d9 c23c 3413 3a3c
000001f0: 811c 04bc 84fd adbd 0dcd 8abd e219 b33d
00000200: 350f 603c f813 333c ff3f b43c 19a2 173d
00000210: a994 063c df90 0b3b 1a5e db3c b705 153d
00000220: 9adb 91bd 14fe 8ebc a49a f739 2a3f 85bd
00000230: 0a11 dc3d f8b7 b43d 564c a2bd 9f83 a93d
00000240: b450 943d 3387 a23d 792b a53c c987 80bd
00000250: 5644 cb3d 4a4b d6bd b3ed 6e3d 9605 833c
00000260: 6aea 0b3d 1391 c33d b71b cabb ac17 38bd
00000270: c85a b4b8 48f3 2f3d adf8 32bd 2a6e e6bd
00000280: e81e 1ebd 879e e13d 5ea4 983c 8d5b adbd
00000290: 3b51 94bb 17d4 423d b526 b5bc 1ac0 2dbd
000002a0: c594 413d 158d 0bbe 24b8 8dbc 25ff c4bb
000002b0: a24c 373d ecbb 92bb 840e b13d a311 91bc
000002c0: ac3c 923d c4c2 a43d 137d b0bc b099 c7bc
000002d0: 8463 bc3d 8cf9 473e 2975 08bd d77b ccbd
000002e0: dc2b a0bc ed5a d7bd a308 5abd e4f1 643d
000002f0: 325f e5bc 0497 693d b03c 9b3d c310 a53c
00000300: cb29 263d 67d0 e4bc db62 e73c 629c 7f3d
00000310: 662a 043e d919 a0bc 00bf 4e3d fcce f3bd
00000320: 0eaa f23c 48b0 a3bd 4eb9 5e3c add9 c53a
00000330: 74e0 09bd 57da 45bc b2ff 323d add5 543c
00000340: f1ed bbb9 81e7 263e 93ba 933c 5144 34bb
00000350: 1f36 8fbd 7596 f8bd 5e53 d23d 3b7a 853d
00000360: d1bd 86bd bfcb faba 80f9 32bd 190d 17bd
00000370: f565 b7bd c126 5a3c 99b3 1a3d 6278 f93d
00000380: c20a edbb e45a 1a3d 6f87 87bd cbb7 b63d
00000390: 2f93 313d d68b 0b3c 2a27 c93d b75e 43bc
000003a0: af4a 04be 2836 133d b763 7d3d 949c 193c
000003b0: a019 603c 6d9f dabc b442 55bd 4a43 e73d
000003c0: 5f25 253d e1d5 963c f284 c1bd 5b2b fd3c
000003d0: b7cb 823d ce3a 0ebe bc7f 733c 1630 8dbd
000003e0: fa36 bb3c be31 d43d 48f2 ea3c aede 993b
000003f0: 1201 1bbd a1b8 c43c aee5 cebd e8bf 313d
0.11396976 0.0997426 0.006714538 -0.062376834 -0.02915311 0.0353944 -0.030189263 0.0942536
0.0513774 0.082995735 0.013607611 0.04186254 0.10416685 -0.040142473 -0.011281898 -0.061492167
-0.02765475 0.036356267 0.016546011 -0.015252423 -0.017380608 0.11041612 -0.10160936 -0.09859128
0.06939217 0.0013012635 -0.062494095 -0.06307392 0.11608207 0.0236999 -0.0085900035 0.094655365
-0.07793835 -0.06898182 -0.019409781 0.0093649505 0.026590038 -0.056518238 0.022182496 0.07115055
0.045306325 -0.027599296 -0.035531685 0.052171975 0.04150883 -0.03108663 -0.050044373 0.06959507
-0.016368182 -0.029680992 0.0305974 0.004496757 -0.0073322314 0.05692951 0.057199847 -0.050537154
0.015666367 0.02342301 -0.024052415 -0.014424307 0.03447064 -0.006457986 0.10091095 -0.033683997
0.006544393 0.00024199393 0.016883867 -0.05004149 0.04406609 0.09289544 -0.016838718 0.039767932
0.09932932 -0.052263282 0.07913059 0.055401172 0.047030408 -0.011781033 0.04388699 -0.01961768
0.1219747 0.07402333 -0.0053927996 0.1114767 0.016896524 -0.008155726 0.06519747 -0.0481039
0.012922121 0.08181618 -0.09101779 -0.061917458 0.034844685 -0.0018548446 -0.024697078 -0.057069093
0.004535998 0.04520969 0.07980055 -0.13847022 0.028857587 -0.00594651 0.011838561 -0.09216779
0.023514785 -0.04123914 -0.02898122 0.1403641 0.006311004 0.11540172 -0.0686894 0.010977062
0.05185777 -0.02373137 -0.02179551 -0.0576891 0.017963694 -0.0045619453 0.006302164 0.06547834
0.064030185 -0.18257028 0.023785561 0.011357117 -0.0080634365 -0.0849562 -0.067773916 0.08745171
0.013675501 0.010930054 0.022003172 0.037019823 0.008214154 0.0021296067 0.02677827 0.036382403
-0.07121964 -0.017455138 0.00047226727 -0.06506188 0.107454374 0.08824152 -0.07924716 0.08277058
0.072419554 0.079359435 0.020162331 -0.06275899 0.099251434 -0.10463579 0.058332156 0.015993875
0.0341591 0.09549155 -0.0061678546 -0.04494445 -8.599978e-05 0.04295662 -0.043694187 -0.11251481
-0.038603693 0.11016565 0.018633064 -0.084647276 -0.004526285 0.047565546 -0.022113184 -0.04241953
0.04726102 -0.13628037 -0.01729972 -0.006011861 0.044750817 -0.0044779684 0.08645347 -0.017708605
0.071404785 0.08044961 -0.021544015 -0.024365276 0.091986686 0.19528788 -0.033314858 -0.09984558
-0.019552164 -0.105153896 -0.053230893 0.055894747 -0.027999494 0.057028785 0.075799346 0.020149594
0.0405672 -0.027931405 0.02824538 0.062404998 0.12906799 -0.019543575 0.05047512 -0.119047135
0.029622104 -0.07992607 0.013593985 0.001509478 -0.03366132 -0.012075982 0.04370088 0.012990397
-0.000358447 0.16299249 0.018033301 -0.002750654 -0.06992745 -0.121380724 0.10269807 0.06517454
-0.06579173 -0.0019134207 -0.043694973 -0.036877725 -0.08954994 0.013314904 0.037768934 0.12181164
-0.0072339484 0.037684336 -0.06617629 0.089217745 0.043353256 0.008517226 0.09821923 -0.011924437
-0.12919115 0.03594032 0.061862674 0.00937571 0.0136779845 -0.026687348 -0.052065566 0.11292131
0.040318843 0.018412532 -0.094491854 0.030904463 0.06386512 -0.1388962 0.014861997 -0.06893937
0.022853363 0.1036105 0.028679982 0.004695735 -0.037842818 0.02401382 -0.10102402 0.043395907
