Assets/NN/Level1/CharacterBehav-2849996.onnx (onnx, 268569 bytes, 9 tensors)

action_model._discrete_distribution.branches.0.bias f4 [3]
0	0x3fb575a2	1.4176524
1	0xbfb2fb55	-1.398295
2	0xc05f0b6d	-3.4850724

action_model._discrete_distribution.branches.0.weight f4 [3, 128]
0	0xbab81935	-0.0014045598
1	0x3ba64be1	0.0050749634
2	0xbdd69f28	-0.104795754
3	0x3e0fb8c9	0.14035334
4	0x3ebfd235	0.37465063
5	0x3db4df15	0.08831612
6	0xbf7834ab	-0.96955365
7	0xbdd81cef	-0.10552394
8	0x3f72e4c5	0.94880325
9	0x3d982588	0.074290335
10	0x3dddefbe	0.10836743
11	0xbe81e48a	-0.25369674
12	0xbd8acdad	-0.06777511
13	0x3e4d654a	0.2005817
14	0x3daa6116	0.08319299
15	0x3f94b86a	1.1618779
16	0x3ea1ee08	0.31626916
17	0xbe3b5883	-0.18295483
18	0xbe02456a	-0.12721792
19	0x3f410bf1	0.75408846
20	0x3f055f4a	0.52098525
21	0x3ef44933	0.47712097
22	0xbf1e0c40	-0.6173744
23	0x3cb4a353	0.022050535
24	0x3f7fdcf1	0.99946505
25	0x3b3937cc	0.0028262017
26	0x3cc2eb50	0.023793846
27	0xbf261709	-0.648789
28	0xbfdd8c9d	-1.7308537
29	0xbf3a644f	-0.7280931
30	0xbf0d1604	-0.5511172
31	0xbfda22ba	-1.7041848
32	0x3eead450	0.45865107
33	0xbf0ca2d1	-0.5493594
34	0x3ebba9ed	0.3665308
35	0x3e60d019	0.21954383
36	0xbea7560a	-0.3268283
37	0x3d39f3b6	0.045398436
38	0x3e995126	0.29944724
39	0xbd8d94bd	-0.06913135
40	0x3d97b58c	0.07407674
41	0x3e6beda0	0.23039865
42	0x3e274f6d	0.16338892
43	0xbf110871	-0.56653506
44	0xbd4d8f50	-0.0501855
45	0x3d3ab737	0.045584884
46	0xbf883505	-1.064118
47	0x3ec28197	0.37989494
48	0xbb355fd0	-0.0027675517
49	0x3b17659f	0.0023101342
50	0x3f6b9a70	0.9203253
51	0xbe910b84	-0.28329098
52	0xbd02f913	-0.031975817
53	0x3f45e3ec	0.77300906
54	0x3f501863	0.8128721
55	0xbf5ceeb2	-0.8630172
56	0x3e69f79a	0.22848359
57	0xbd64b72c	-0.05583875
58	0x3ef1f58c	0.4725765
59	0xbeb6abf3	-0.35678062
60	0x3e3b2afb	0.18278114
61	0x3f1017c1	0.56286246
62	0x3ee254ed	0.44205418
63	0xbe7e9044	-0.2485972
64	0x3ec37995	0.38178697
65	0x3f6f0127	0.93361133
66	0xbe44ce41	-0.19219305
67	0xbe86bf49	-0.26317814
68	0x3eb34210	0.3501134
69	0xbb48f5b1	-0.0030664022
70	0xbf9235ce	-1.142267
71	0xbfad1918	-1.3523283
72	0x3c3532f3	0.0110595105
73	0xbd88d937	-0.066820554
74	0xbf26ae0a	-0.6510931
75	0xbe0e4dba	-0.13896838
76	0xbf63884b	-0.8887984
77	0xbf16821e	-0.58792293
78	0xbedfa379	-0.43679407
79	0x3e1defdb	0.15423529
80	0xbe46263e	-0.19350526
81	0x3e3430f4	0.17596799
82	0x3ca80e48	0.020514622
83	0xbc0aad23	-0.008464131
84	0x3e3a591e	0.18198058
85	0x3d00fad7	0.03148922
86	0x3f3eace1	0.7448254
87	0x3ed61436	0.41812295
88	0xbdecd70b	-0.11564454
89	0x3e1f1e96	0.15539011
90	0xbe83650e	-0.25663036
91	0x3c286302	0.010277512
92	0xbcda8ad1	-0.026677521
93	0xbe1fa597	-0.15590511
94	0x3ec2f964	0.38080895
95	0x3c5e9a0b	0.013586531
96	0xbcb57f2e	-0.02215537
97	0x3cae10e4	0.021248288
98	0xbdcb9413	-0.09940352
99	0x3e0eaca5	0.13933046
100	0x3e83b43a	0.2572344
101	0x3d1ce5bb	0.038305026
102	0x3dc8efa2	0.09811331
103	0x3d3a2e3e	0.045454256
104	0xbcd82fd9	-0.026390003
105	0x3cdca488	0.026933923
106	0x3ef6f926	0.4823696
107	0xbc9d2b9a	-0.01918583
108	0x3eb82051	0.35962155
109	0xbe867874	-0.26263773
110	0x3e937f22	0.28807932
111	0xbf424504	-0.7588656
112	0x3df6e355	0.12055079
113	0x3f44b876	0.76843965
114	0x3f11b56c	0.5691745
115	0x3ee0b8e0	0.43891048
116	0xbc674e0c	-0.014117729
117	0x3ecc8b7a	0.39950162
118	0x3eb8ff70	0.36132383
119	0xbf23b3da	-0.63946307
120	0x3ad8a4a6	0.0016528561
121	0x3dfc867a	0.12330337
122	0x3f47d038	0.7805209
123	0x3bdc3acd	0.006720877
124	0x3e6d3dc7	0.23168097
125	0xbddae398	-0.10687941
126	0xbc955938	-0.01823102
127	0x3f0c3c2f	0.5477933
128	0x3ca1302f	0.019676296
129	0x3bb2d5af	0.005457602
130	0x3e047e6e	0.12938854
131	0xbe4c45d1	-0.19948508
132	0xbebc419d	-0.3676881
133	0xbd9f8363	-0.07788732
134	0x3f7411e0	0.95339775
135	0x3dd80fe6	0.105499074
136	0xbf76db97	-0.9642882
137	0xbd84e29d	-0.064885356
138	0xbda36653	-0.07978501
139	0x3e80a077	0.25122425
140	0x3dbac2ee	0.09119211
141	0xbe484a15	-0.1955951
142	0xbd86a757	-0.06574886
143	0xbf9169c2	-1.13604
144	0xbe97ab2a	-0.29622775
145	0x3e4826e7	0.1954609
146	0x3db306a1	0.08741499
147	0xbf3dc171	-0.74123293
148	0xbf007b15	-0.5018781
149	0xbef234c7	-0.4730589
150	0x3f23be29	0.63962036
151	0xbcfa76c2	-0.030574206
152	0xbf818762	-1.011944
153	0xbbc37a0f	-0.0059654783
154	0xbd04c282	-0.03241206
155	0x3f244f0b	0.6418311
156	0x3fdfb3d9	1.747676
157	0x3f2ed836	0.6829866
158	0x3eeb6980	0.45978928
159	0x3fda0f6b	1.7035955
160	0xbef28c97	-0.47372887
161	0x3f0e0914	0.554826
162	0xbead4ba1	-0.33846763
163	0xbe768f92	-0.24078205
164	0x3e9fa8b8	0.3118341
165	0xbd948504	-0.07251933
166	0xbe934ad7	-0.28768036
167	0x3dabafdb	0.08383151
168	0xbda8528b	-0.08218869
169	0xbe7da8e4	-0.24771458
170	0xbe25d02d	-0.16192694
171	0x3f0e5680	0.5560074
172	0x3d4f5d14	0.050625876
173	0xbd9477a8	-0.07249385
174	0x3f8636a2	1.0485423
175	0xbeb13598	-0.346112
176	0x3a4793ef	0.00076132914
177	0x3c44f816	0.012022039
178	0xbf6c5f2f	-0.9233274
179	0x3e65a707	0.22426997
180	0x3cfbbfec	0.030731164
181	0xbf464e01	-0.77462775
182	0xbf52f5d6	-0.82406366
183	0x3f577c27	0.84173816
184	0xbe5fb355	-0.21845753
185	0x3d24d5ee	0.04024308
186	0xbef052c2	-0.4693814
187	0x3ea7711a	0.32703477
188	0xbe26d55b	-0.16292326
189	0xbf0455c0	-0.51693344
190	0xbedc9316	-0.43080968
191	0x3e32f3f0	0.17475867
192	0xbef3f696	-0.47649068
193	0xbf6c2cf2	-0.9225608
194	0x3e55ac2b	0.20866458
195	0x3e9286b1	0.28618386
196	0xbeb865a0	-0.36015034
197	0xb9ca4cb1	-0.00038585582
198	0x3f90a231	1.1299497
199	0x3fad26ac	1.3527427
200	0x3c40b545	0.011761968
201	0x3da7c7b1	0.08192385
202	0x3f27275c	0.6529443
203	0x3d89abb4	0.06722203
204	0x3f520b72	0.82048714
205	0x3f142a07	0.5787663
206	0x3ed392ec	0.4132303
207	0xbe1935a7	-0.14961873
208	0x3e0943f2	0.13404825
209	0xbe206354	-0.1566289
210	0x3ca8fd56	0.020628612
211	0x3d31bbfc	0.043392166
212	0xbe2cb063	-0.16864161
213	0xbdb8425a	-0.089970306
214	0xbf3ea6b5	-0.74473125
215	0xbecb3148	-0.39686036
216	0x3df9fe58	0.12206715
217	0xbe78cb09	-0.24296202
218	0x3e918c2a	0.2842725
219	0x3c1111cc	0.008854341
220	0x3d131eb2	0.035917945
221	0x3e2f1d1a	0.17100945
222	0xbeb84a67	-0.35994264
223	0xbceef270	-0.029168338
224	0x3ce19556	0.02753703
225	0x3b92a77c	0.004475532
226	0x3e10933f	0.1411867
227	0xbe0456a1	-0.12923671
228	0xbea4985e	-0.32147497
229	0xbd58da94	-0.052942827
230	0xbe088bc8	-0.13334572
231	0xbccbeb51	-0.024892481
232	0x3d071b72	0.03298516
233	0xbc43bfed	-0.011947614
234	0xbef72236	-0.48268288
235	0x3b0a934b	0.0021144922
236	0xbebb16fe	-0.3654098
237	0x3e86e868	0.26349187
238	0xbe9ac5a0	-0.302289
239	0x3f4179d4	0.7557652
240	0xbdc4527a	-0.09586044
241	0xbf460bef	-0.7736196
242	0xbf13b370	-0.57695675
243	0xbed0e06d	-0.40796223
244	0x3d274d3a	0.040845133
245	0xbecf8a77	-0.40535328
246	0xbeaf48b5	-0.3423516
247	0x3f25f8af	0.64832586
248	0xbdaa28cc	-0.08308563
249	0xbe68635a	-0.2269415
250	0xbf463c8d	-0.77436143
251	0xba90450d	-0.0011006907
252	0xbe709195	-0.23493035
253	0x3dc1a90d	0.09456072
254	0x3c14accf	0.009074404
255	0xbf165212	-0.5871898

action_model._discrete_distribution.branches.1.bias f4 [3]
0	0x3f2a72b3	0.6658127
1	0xbf5f0ed8	-0.87132025
2	0xbf4212d9	-0.7581001

action_model._discrete_distribution.branches.1.weight f4 [3, 128]
0	0x3e0034e4	0.12520176
1	0x3e8727d2	0.26397568
2	0xbd520e17	-0.05128297
3	0xbf2d9834	-0.6781037
4	0xbe8a6a62	-0.2703429
5	0xbb796f12	-0.0038060588
6	0xbd9c5ef5	-0.07635299
7	0xbec9fe94	-0.3945204
8	0xbeb5e350	-0.35524988
9	0x3e18f4b5	0.14937098
10	0x3d02c62a	0.031927265
11	0xbd4f7761	-0.050650958
12	0xbdca4e90	-0.09878266
13	0xbf384ed4	-0.7199528
14	0x3f346962	0.704733
15	0xbecb53ec	-0.39712465
16	0xbece9bbe	-0.40353197
17	0xbe60dd94	-0.21959525
18	0xbd211c11	-0.039333407
19	0x3e06a750	0.13149762
20	0x3ee42dff	0.44566342
21	0x3d74d65d	0.059774745
22	0xbed4ea6e	-0.41585106
23	0x3cdb6c78	0.02678512
24	0xbf291ea1	-0.6606236
25	0x3d490e34	0.04908581
26	0x3e1c65b3	0.1527317
27	0x3d9d8978	0.07692236
28	0xbdbd9835	-0.09257547
29	0x3d062052	0.032745667
30	0xbd23aedf	-0.039961692
31	0x3ddbcad4	0.10732046
32	0xbf77eb8c	-0.9684379
33	0xbd9d48f7	-0.076799326
34	0xbd41ed25	-0.0473453
35	0xbe49789b	-0.19674914
36	0xbdec9ed2	-0.1155373
37	0xbe120fd7	-0.14263855
38	0xbef3ca9e	-0.47615522
39	0xbddd2a57	-0.10799091
40	0x3e09d271	0.13459183
41	0xbe034429	-0.1281897
42	0xbedbcc30	-0.4292922
43	0xbd9c760b	-0.076397024
44	0xbeb0b08a	-0.3450969
45	0xbdf31e03	-0.11870959
46	0xbd016687	-0.03159192
47	0xbf691e94	-0.91062284
48	0x3f2e6677	0.681251
49	0x3eaf70e4	0.34265816
50	0xbe8d1d94	-0.2756163
51	0xbe1af0be	-0.15130898
52	0xbd16867f	-0.03674936
53	0x3da79b77	0.081839494
54	0x3cadaea4	0.02120144
55	0x3f97cf9b	1.1860231
56	0x3da096f4	0.07841292
57	0xbf51dbdd	-0.8197611
58	0x3f46964e	0.77573097
59	0x3f06a1e6	0.5259079
60	0xbe9f6412	-0.31131035
61	0xbe069985	-0.131445
62	0xbdd75653	-0.10514512
63	0xbd0d7467	-0.034534838
64	0xbed5f603	-0.41789255
65	0x3db5bc72	0.08873834
66	0x3d85dfc1	0.06536818
67	0x3ebb96fd	0.36638632
68	0xbea7a163	-0.32740316
69	0xbec34163	-0.38135824
70	0xbd3f1b2a	-0.046656765
71	0xbc5c188d	-0.013433588
72	0x3de17e16	0.11010377
73	0xbcf1acae	-0.029501285
74	0xbf81e343	-1.014748
75	0x3dfe7657	0.12424915
76	0x3e76bb51	0.24094893
77	0xbf6c9e06	-0.92428625
78	0xbd98054b	-0.074228846
79	0x3e327a42	0.1742945
80	0xbef36848	-0.47540498
81	0xbf521aaf	-0.82071966
82	0x3d1eccf6	0.038769685
83	0x3f00eadf	0.50358385
84	0x3e391462	0.18074182
85	0x3e8e4850	0.27789545
86	0xbea50251	-0.3222833
87	0x3e5cc6a5	0.21560152
88	0xbcb3d3ea	-0.021951634
89	0xbeb4f845	-0.35345665
90	0xbe8f8433	-0.28030547
91	0x3ce9cf3f	0.028541205
92	0x3e8d8079	0.2763708
93	0xbebf02d9	-0.3730686
94	0xbf0c4f53	-0.5480854
95	0x3db8c23d	0.09021423
96	0xbdbd2e7a	-0.0923738
97	0x3f4accf4	0.79218984
98	0x3f2d9306	0.67802465
99	0xbf25dbb3	-0.6478836
100	0x3d7e7b42	0.062129267
101	0xbe9266a2	-0.28593928
102	0xbc6737f0	-0.014112458
103	0x3e765a66	0.24057922
104	0x3f09262a	0.5357386
105	0x3cbb2acc	0.022847556
106	0xbe165394	-0.1468032
107	0xbe8b01e0	-0.27149868
108	0xbe5f5857	-0.21811043
109	0x3df5ebe8	0.12007886
110	0xbee5e638	-0.44902205
111	0xbeb650a0	-0.35608387
112	0x3da336a9	0.0796941
113	0x3e2640d8	0.16235673
114	0xbf279bb9	-0.6547199
115	0x3e945cc6	0.2897703
116	0xbe1e0018	-0.15429723
117	0x3fd1641a	1.6358674
118	0xbeaaf0a8	-0.3338673
119	0x3c55a7a1	0.013040454
120	0x3d9274f1	0.07151211
121	0xbf021ced	-0.5082539
122	0x3ef5b11f	0.47986695
123	0xbe1641d3	-0.14673547
124	0x3dfcce1d	0.123440005
125	0x3cc1a79f	0.023639498
126	0xbddbc48e	-0.10730849
127	0xbf18b1ea	-0.59646475
128	0x3d1408ed	0.036141325
129	0xbfa568c0	-1.2922592
130	0xbf8f2626	-1.1183517
131	0x3eb25bea	0.3483575
132	0x4001da1b	2.028937
133	0xbf0934d6	-0.53596246
134	0xbd710556	-0.05884298
135	0x3d707c76	0.058712445
136	0xbef638e1	-0.4809027
137	0xbfb25ddb	-1.3934892
138	0xbf88a4ec	-1.067533
139	0xbf772713	-0.96544
140	0x3ea0123c	0.31263912
141	0x3da5ac42	0.08089496
142	0xbc24a189	-0.010048279
143	0x3ebd457c	0.36967075
144	0x3e9330cd	0.2874817
145	0xbfa6eae9	-1.3040439
146	0xbfab0de8	-1.3363619
147	0x3f00d8fa	0.5033108
148	0x3e967f86	0.29394168
149	0xbf6581d9	-0.89651257
150	0x3f0b455f	0.54402727
151	0x3d8673b6	0.06565039
152	0x3f289d7f	0.6586532
153	0xbd5822cb	-0.052767556
154	0x3e5c6438	0.21522605
155	0xbea97933	-0.3310028
156	0x3cc9b183	0.024620777
157	0xbe39afea	-0.18133512
158	0x3dc354c1	0.0953765
159	0xbebe7531	-0.37198785
160	0x3faef25b	1.3667711
161	0x3e5e8497	0.21730267
162	0xbf1d155e	-0.6136073
163	0x40016df8	2.022337
164	0xbeb57412	-0.35440117
165	0x3e85bd09	0.26120785
166	0x3fc9121b	1.570865
167	0xbf028068	-0.5097718
168	0xbf21a710	-0.6314554
169	0x3f20fb56	0.6288351
170	0x3e6a1e27	0.22863065
171	0xbe8eb430	-0.27871847
172	0x3d09dc6c	0.033657476
173	0xbedeaf3b	-0.43493065
174	0x3e4605d6	0.19338164
175	0x3e700e02	0.23442844
176	0xbf01ad56	-0.50655115
177	0xc019a03c	-2.400405
178	0x3f1ff00c	0.6247566
179	0x3f361a5e	0.71133983
180	0xbf8be9b9	-1.0930701
181	0xbeda3145	-0.42615715
182	0xc00edb3b	-2.2321308
183	0xbe97aa47	-0.296221
184	0xbf3a3b1c	-0.72746444
185	0x3ffce6c4	1.9757924
186	0xbfa32d3a	-1.2748177
187	0x3f4b5ebe	0.7944144
188	0x3ec1445c	0.37747467
189	0xbf8f3acb	-1.1189817
190	0x3f0db839	0.55359226
191	0x4032186d	2.7827408
192	0xbf0adcfe	-0.5424346
193	0x3e0d5ee0	0.13805723
194	0x3e460244	0.19336802
195	0xbc1c6c9e	-0.009547381
196	0x4036d325	2.8566372
197	0x3e85e944	0.2615453
198	0xbe8556d2	-0.260428
199	0xbeb36e6d	-0.35045186
200	0xbf900647	-1.1251916
201	0xbf95f571	-1.1715528
202	0x3efa9050	0.48938227
203	0xbfa93543	-1.3219379
204	0xbd404de4	-0.046949282
205	0x3f724df8	0.9465022
206	0x3d5a222f	0.053255256
207	0xbeaaab6b	-0.33333907
208	0x3fba14c1	1.4537584
209	0x402aafad	2.6669724
210	0xbfd2c712	-1.6467001
211	0xbf30f441	-0.691227
212	0xbfdd8e81	-1.7309114
213	0x3ef44ce0	0.477149
214	0x3e1929a9	0.14957298
215	0xbf14c30b	-0.5811011
216	0xbf1add08	-0.60493517
217	0x3ee6ca8e	0.45076412
218	0x3f140406	0.5781864
219	0x3fe994f0	1.8248577
220	0x3e53be0f	0.2067797
221	0xbdb85cec	-0.090020984
222	0xbe98e7dd	-0.29864398
223	0xbf87a6ef	-1.0597819
224	0x3e8aa97e	0.27082437
225	0xbf35ef56	-0.7106832
226	0xbe6c9ab1	-0.23105885
227	0x40d06d01	6.513306
228	0xc0201479	-2.5012496
229	0xbf98e6e6	-1.1945465
230	0x410b5e93	8.710589
231	0xbf8d701c	-1.1049838
232	0x3ee2ca08	0.44294763
233	0xbf4c7aa9	-0.79874665
234	0x3fac2415	1.3448511
235	0x3e45eb3d	0.19328018
236	0x3f1dbe1d	0.61618215
237	0x3dc4ba1e	0.096058115
238	0x3fade83a	1.3586495
239	0x3ecb0bf6	0.39657563
240	0xbf99b843	-1.2009357
241	0xbff3b39e	-1.903919
242	0x410d5521	8.833283
243	0x3d4502dc	0.04809843
244	0xbf89a66d	-1.0753914
245	0xbf357663	-0.7088377
246	0x3f2aac51	0.66669184
247	0x3ed941a5	0.42432895
248	0xc020dfff	-2.5136716
249	0x401790c3	2.3682106
250	0x3f84de94	1.0380425
251	0x3f753bf5	0.9579461
252	0x3c27c553	0.010239917
253	0xbee8aff9	-0.45446756
254	0x3f8f02b5	1.1172701
255	0x4081fc84	4.0620747

discrete_action_output_shape f4 [1, 2]
0	0x40400000	3.0
1	0x40400000	3.0

network_body._body_endoder.seq_layers.0.bias f4 [128]
0	0xbbcb77c3	-0.006209345
1	0xbd5e0bd6	-0.054210506
2	0xbd28ed43	-0.041241895
3	0xbddd7c99	-0.10814781
4	0xbafd8603	-0.0019342307
5	0x3c8b1df8	0.016982064
6	0xbc37456a	-0.011185983
7	0xbd149e04	-0.036283508
8	0xbd8f337d	-0.069922425
9	0x3ce395de	0.027781423
10	0xbced6193	-0.028977191
11	0xbd071362	-0.03297747
12	0xbd8f71e5	-0.070041455
13	0xbd14fa2c	-0.036371395
14	0xbd8e8962	-0.069597974
15	0xbd970266	-0.07373504
16	0xbd076cf7	-0.0330629
17	0xbde1a881	-0.11018468
18	0xbda4f551	-0.08054603
19	0xbc57b13e	-0.013164816
20	0xbd936338	-0.07196659
21	0xbd68c074	-0.056824163
22	0xbdbebb08	-0.09313017
23	0xbd525448	-0.051349908
24	0xbd449836	-0.047996722
25	0xbd1bb62d	-0.038015533
26	0xbda772dd	-0.08176205
27	0xbd344efb	-0.044020634
28	0xbd633c18	-0.05547723
29	0xbc156d9d	-0.009120372
30	0xbaef3cd8	-0.0018252386
31	0xbc5baf9d	-0.013408569
32	0xbd240480	-0.040043354
33	0x3c5dd4a4	0.013539467
34	0xbdba5773	-0.09098711
35	0x3d6a91ce	0.057267956
36	0xbcb26108	-0.021774784
37	0xbda1f242	-0.07907535
38	0xbcf26bde	-0.02959245
39	0xbd1127b9	-0.035438273
40	0xbd66e5de	-0.056371562
41	0xbd1519f1	-0.036401693
42	0xbdcb69f3	-0.099323176
43	0xb9e478d6	-0.0004357758
44	0xbd23be1e	-0.03997623
45	0xbda379f0	-0.07982242
46	0xbde66ef5	-0.11251632
47	0xbd77e004	-0.060516372
48	0xbc960f0c	-0.018317722
49	0xbc059369	-0.008152821
50	0x3c92b67a	0.017909277
51	0xbd8dd947	-0.06926208
52	0x3b1556c1	0.0022787305
53	0xbd9f4587	-0.07776933
54	0xbd4ec45c	-0.05048023
55	0xbdb9a77e	-0.0906515
56	0xbdb07bba	-0.08617349
57	0xbd3f748b	-0.046742003
58	0xbda5c50e	-0.08094226
59	0xbc7b0795	-0.015321632
60	0x3cb04362	0.021516506
61	0xbd107e8b	-0.03527693
62	0xbe20a796	-0.15688929
63	0xbd34a421	-0.044101838
64	0xbd530aed	-0.05152409
65	0xbc719b01	-0.0147464285
66	0xbd394bff	-0.04523849
67	0xbd6074c6	-0.054798864
68	0xbd7f1991	-0.06228024
69	0xbdac0f13	-0.08401313
70	0xbc563e2b	-0.013076345
71	0x3db0f762	0.086409345
72	0x3dab788d	0.083726026
73	0x3d755aae	0.059900932
74	0xbd4b13be	-0.049579374
75	0xbe040bc1	-0.12895109
76	0x3caf0509	0.021364706
77	0xbd29a7d9	-0.041419838
78	0xbce21332	-0.027597044
79	0x3cd7b9a3	0.026333636
80	0xbc0356e1	-0.008016319
81	0xbcbd4e78	-0.023108706
82	0xbbd1b1d2	-0.0063993717
83	0xbd8a2721	-0.067457445
84	0xbd1951c4	-0.037431493
85	0xbd895e5f	-0.06707453
86	0xbc91d56a	-0.017801959
87	0xbd862e7b	-0.06551834
88	0x3d1bdec4	0.038054243
89	0xbcc7e9bf	-0.024403451
90	0xbcea55d0	-0.028605372
91	0xbab836f7	-0.0014054467
92	0xbd9053e3	-0.0704725
93	0xbe1f727f	-0.1557102
94	0x3be93e86	0.007118049
95	0xbda29d7e	-0.079401955
96	0xbc0f8cb7	-0.008761576
97	0xbde4f250	-0.1117903
98	0xbe0c871a	-0.13723412
99	0xbd66fb3b	-0.056391936
100	0xbbe9ba87	-0.0071328315
101	0xbd9a1c8b	-0.075249754
102	0xbc9bd4ba	-0.019022334
103	0xbd14be75	-0.036314446
104	0xbde940f7	-0.11389344
105	0xbbd5d59e	-0.0065257093
106	0xb98fd8b9	-0.00027436556
107	0xbbc87b68	-0.006118227
108	0xbd1b19dc	-0.03786646
109	0x3d1b3292	0.037890024
110	0xbd2983f5	-0.04138561
111	0xbd645091	-0.055740897
112	0x3c8d2c1b	0.017232945
113	0xbcd52426	-0.026018213
114	0xbd629436	-0.055317126
115	0xbdb84fed	-0.0899962
116	0xbdb8b454	-0.0901877
117	0xbdad0cbc	-0.084496945
118	0xbd940d5e	-0.07229112
119	0xbca379c4	-0.019955523
120	0xbdc8d0ce	-0.09805451
121	0x3c19d4e8	0.00938914
122	0xbd70f11d	-0.058823694
123	0xbe45e7b9	-0.19326676
124	0xbd783f69	-0.060607348
125	0xbded9058	-0.11599797
126	0xbc7e66f4	-0.015527476
127	0xbd534147	-0.051575925

network_body._body_endoder.seq_layers.0.weight f4 [128, 383]
0	0xbf24c91f	-0.64369386
1	0x3b2a68c6	0.0026002391
2	0xbc077814	-0.008268375
3	0x3d3b4406	0.04571917
4	0xbbdc4d7a	-0.006723103
5	0x3d072d47	0.033002164
6	0xbe1d47a0	-0.15359354
7	0x3ef2054b	0.47269663
8	0x3ed6b66f	0.4193606
9	0x3eb0f52e	0.34562057
10	0x3cc1056a	0.023562152
11	0xbd62f14f	-0.05540591
12	0x3d35c266	0.044374846
13	0xbd8a26a2	-0.0674565
14	0x3e959a1e	0.29219145
15	0xbeb2600b	-0.348389
16	0xbee56570	-0.44803953
17	0xbecca8f7	-0.3997266
18	0xbeb2e5ad	-0.34940854
19	0x3d8f90f6	0.07010071
20	0xbc0a29ea	-0.008432845
21	0x3d059875	0.032616097
22	0x3d1cabe6	0.038249873
23	0x3e99f641	0.3007069
24	0x3c6564af	0.014001056
25	0x3de3d4c2	0.11124565
26	0x3d3145e4	0.043279544
27	0xbd8bab70	-0.068198085
28	0x3de996b6	0.11405699
29	0x3c3a5c48	0.011374541
30	0x3c1010db	0.008793081
31	0xbd3d6a7b	-0.046244126
32	0xbf8ba22d	-1.0908867
33	0xbe13a850	-0.14419675
34	0x3e4ebf0e	0.20190069
35	0x3f36d141	0.71413046
36	0xbe5e496b	-0.21707694
37	0x3c8e443a	0.017366517
38	0xb945f084	-0.00018876983
39	0xbde4c533	-0.11170425
40	0x3cf71a92	0.030164037
41	0xbd6d1a0d	-0.057886172
42	0xbf0a3953	-0.5399372
43	0x3d5e4dba	0.054273345
44	0x3dfaf74e	0.12254201
45	0x3db67563	0.089091085
46	0xbdfe515e	-0.12417863
47	0xbd1f233d	-0.038851965
48	0xbd8a7c28	-0.06761962
49	0xbcbf45ce	-0.023348715
50	0xc063f922	-3.5620809
51	0xbd8cab71	-0.06868637
52	0xbea00b22	-0.31258494
53	0xbf3cf7ab	-0.7381541
54	0x3e68a371	0.22718598
55	0xbb10a5e1	-0.0022071528
56	0x3f7e543c	0.9934728
57	0xbc012aed	-0.007883769
58	0xbd8e2424	-0.06940487
59	0xbdf9fb9a	-0.12206192
60	0xbdf3a335	-0.11896364
61	0xbe7a76a6	-0.24459323
62	0xbe3bf3a3	-0.18354659
63	0x3db2ec82	0.087365165
64	0x3db4a446	0.08820395
65	0x3b73a9fd	0.0037180178
66	0xbdba1221	-0.09085489
67	0xbdcadc3a	-0.09905286
68	0xbee88f06	-0.45421618
69	0xbefd854b	-0.49515757
70	0x3e5d56f5	0.21615203
71	0xbf20570f	-0.6263284
72	0x3e9ee1fe	0.31031793
73	0x3d34f2af	0.044176754
74	0x3e979857	0.29608414
75	0xbd927af4	-0.07152358
76	0x3be6128e	0.007021255
77	0xbe29375e	-0.16525027
78	0xbf10c436	-0.56549394
79	0xbe20bda0	-0.15697336
80	0xbe653332	-0.2238281
81	0x3ea481cc	0.32130277
82	0x3c417c64	0.011809442
83	0xbce8029d	-0.028321559
84	0x3ddb2e46	0.10702185
85	0xbdf0f13e	-0.11764763
86	0xbf05c3ad	-0.522517
87	0xbe86015f	-0.2617292
88	0xbf1ca551	-0.6118975
89	0xbf9c6de5	-1.2221037
90	0x3e9dc70f	0.30815932
91	0xbaaa2720	-0.0012981631
92	0x3e1effd9	0.15527286
93	0xbd95f7df	-0.07322668
94	0xbf5a2962	-0.85219395
95	0xbce21b2d	-0.027600849
96	0xbf253f53	-0.6454975
97	0xbe6fa92d	-0.23404379
98	0xbeaa30cd	-0.33240357
99	0x3e9fb535	0.31192937
100	0xbbd77d83	-0.0065762415
101	0xbfa96f6c	-1.3237128
102	0x3ea97506	0.33097094
103	0x3d0a37ce	0.033744626
104	0xbdc3eac5	-0.09566263
105	0xbf29459a	-0.6612183
106	0xbe1fbca0	-0.15599298
107	0x3ed52ae3	0.41634282
108	0xbed74091	-0.42041448
109	0xbd07434d	-0.033023167
110	0x3f1347cc	0.5753143
111	0xbc83db1f	-0.016095696
112	0xbd675bc2	-0.05648399
113	0x3d90e796	0.070754215
114	0xbf42690c	-0.7594154
115	0x3e5efb02	0.2177544
116	0xbe04a6f1	-0.12954308
117	0x3ee8914b	0.4542335
118	0x3db2e644	0.08735326
119	0xbf50d8e7	-0.81580967
120	0x3eebf092	0.46081978
121	0x3e6a1c6f	0.22862409
122	0xc02e8644	-2.726945
123	0xbf41650b	-0.75544804
124	0x3e0cedf4	0.13762647
125	0x3e060cb4	0.13090783
126	0xbe29220d	-0.16516896
127	0x3d4489ed	0.0479831
128	0xbe43e6ce	-0.19131014
129	0xbcfed672	-0.031108115
130	0xbf8318d1	-1.0241948
131	0x3d276942	0.040871866
132	0xc00b3cc0	-2.175583
133	0x3d96e21d	0.073673464
134	0xbe1899a7	-0.14902364
135	0x3eeeffc4	0.4667951
136	0x3c3c9f68	0.011512615
137	0xbf7b34d3	-0.9812748
138	0x3ec57c27	0.38571283
139	0x3f8f10f8	1.1177053
140	0x3f3f27c9	0.7467008
141	0xc0681d7c	-3.6267996
142	0x3f9311d4	1.1489816
143	0xbf800a23	-1.0003093
144	0xbf2b8baa	-0.67009985
145	0x3bb43134	0.0054990295
146	0x3d74fb15	0.059809763
147	0x3d2edfcf	0.04269391
148	0xbe5a7910	-0.21335244
149	0xbbe883cf	-0.007095791
150	0xbf305b59	-0.68889385
151	0x3f6b140c	0.91827464
152	0x3dcced4a	0.10006197
153	0x3ec27e20	0.3798685
154	0xbd507bdb	-0.050899368
155	0xbf6c93c0	-0.9241295
156	0xbf28cb34	-0.65935063
157	0x3d730694	0.059332445
158	0x3d8c0d24	0.06838444
159	0x3e5f875d	0.2182898
160	0x3ff87e29	1.9413501
161	0xc029e6a7	-2.654703
162	0x3ea6a1a7	0.32545206
163	0xbd1e4fcb	-0.038650315
164	0xbeec7d17	-0.46189186
165	0x3cce96f1	0.025218459
166	0xbd27b2de	-0.040942065
167	0x3b38049f	0.0028078926
168	0xc01d9983	-2.4624946
169	0xbe6adb38	-0.22935188
170	0xbecfc604	-0.4058076
171	0xbe87de94	-0.26537
172	0x3c12c94b	0.008959125
173	0xbec51562	-0.38492876
174	0x3ee0d1ba	0.4391001
175	0x3e189b7f	0.14903067
176	0x3e02fc46	0.12791547
177	0xc0217558	-2.522787
178	0x3fba3cf2	1.4549849
179	0x3dbe3874	0.09288111
180	0xbfb8462f	-1.4396418
181	0xbc093371	-0.008374081
182	0x3f242329	0.6411615
183	0xbd9bfd7f	-0.0761671
184	0xbf491d2d	-0.78560144
185	0xbd5ab915	-0.053399164
186	0xc012f324	-2.2960901
187	0xbdf07787	-0.11741548
188	0x3f35e080	0.71045685
189	0xbe5cf511	-0.2157786
190	0xbd0ba354	-0.03409131
191	0xbf120874	-0.5704415
192	0x3ea63fb4	0.32470477
193	0xbf22ad8a	-0.6354605
194	0xbc12799c	-0.008940127
195	0xbf9999db	-1.2000078
196	0x3fa2e70a	1.2726758
197	0xbf6b3925	-0.9188407
198	0xbf8b2e61	-1.0873529
199	0xbb83b267	-0.00401907
200	0x3f27616a	0.6538302
201	0x3dd8fee8	0.105954945
202	0xbf246ec8	-0.6423154
203	0xbbf3fc80	-0.007445872
204	0xc00617a5	-2.0951931
205	0x3f64331c	0.89140487
206	0x3f557093	0.833749
207	0xbd996970	-0.07490814
208	0x3d50d81b	0.050987344
209	0xbf32f27f	-0.6990127
210	0x3e11ca2f	0.14237283
211	0x3f8470f6	1.0346973
212	0xbdbb42ae	-0.091435775
213	0x3f628fc8	0.8850064
214	0x3e0fe9d8	0.14054048
215	0xbfd1abb3	-1.6380523
216	0xbfa34b69	-1.2757388
217	0x3d59226f	0.053011354
218	0xbe4c938e	-0.19978163
219	0x3e261ee0	0.16222715
220	0xbf312007	-0.69189495
221	0xbd4be596	-0.049779497
222	0xbf0063db	-0.5015237
223	0x3fef5114	1.8696618
224	0x3f0cc8a1	0.54993635
225	0xbef58ed1	-0.47960523
226	0xbc7a5c44	-0.015280787
227	0xbf933f0e	-1.1503618
228	0x3e81fff7	0.25390598
229	0xbf941002	-1.1567385
230	0xbd59032c	-0.05298154
231	0xbc4eab48	-0.012614079
232	0x3cf0e3dd	0.029405529
233	0xbf198812	-0.5997325
234	0xbfa8e09f	-1.3193549
235	0xbd0f9fb3	-0.03506441
236	0x3d4eb478	0.050465077
237	0x3e9b6b35	0.3035523
238	0xc010048c	-2.2502775
239	0xbd238e2c	-0.039930508
240	0x3f4794bb	0.7796132
241	0x40162f49	2.346636
242	0x3f2b275e	0.66856945
243	0x3ebad69d	0.36491862
244	0x3d0a9914	0.033837393
245	0xbf5d1356	-0.8635763
246	0xbd7a829f	-0.061159726
247	0xbfcfcce1	-1.6234399
248	0xbc197e40	-0.009368479
249	0x3d399cab	0.045315426
250	0x3d62f932	0.055413432
251	0xbf518eb3	-0.81858367
252	0xbfb13b67	-1.3846253
253	0x3d11e5ce	0.03561955
254	0x3eca2298	0.39479518
255	0x3eb22c63	0.3479949

network_body._body_endoder.seq_layers.2.bias f4 [128]
0	0xbdf21a2f	-0.118214004
1	0xbdc15e3e	-0.094418034
2	0x3e2db22c	0.16962498
3	0xbd0fa24a	-0.03506688
4	0x3e8d1031	0.27551416
5	0xbe93d01e	-0.28869718
6	0x3dde5563	0.1085613
7	0xbe2dd204	-0.16974646
8	0xbdc231fa	-0.094821885
9	0x3f338991	0.70131785
10	0xbe43259a	-0.19057313
11	0x3e532bdd	0.20622201
12	0x3ed045f8	0.40678382
13	0xbe58ba88	-0.21164906
14	0xbe72b635	-0.23702319
15	0xbd11883a	-0.035530306
16	0xbbcb1280	-0.0061972737
17	0xbdca2ac9	-0.09871442
18	0x3dd7b311	0.10532201
19	0x3e35c4c9	0.17750849
20	0x3e355e5a	0.17711774
21	0xbe0ef4a3	-0.13960509
22	0x3e001a6a	0.12510076
23	0xbe480939	-0.19534768
24	0x3ddc5b52	0.107596055
25	0x3e56477f	0.20925711
26	0xbe011ba5	-0.12608202
27	0x3eec5cd3	0.4616457
28	0x3c7a2a9e	0.01526895
29	0xbd4f61ec	-0.050630495
30	0xbe86e744	-0.26348317
31	0xbea64d84	-0.32481015
32	0xbe289d44	-0.16466242
33	0xbf11b924	-0.5692313
34	0xbf0c64b4	-0.5484116
35	0x3c2495a0	0.010045439
36	0x3f0bd32f	0.54619116
37	0xbe53cb1d	-0.2068295
38	0xbe1aa94a	-0.15103641
39	0xbee9fe13	-0.45701656
40	0xbecdfdb7	-0.40232632
41	0xbe160537	-0.14650427
42	0xbe4188c0	-0.18899822
43	0x3e10eaf6	0.1415213
44	0x3d21c1cc	0.03949146
45	0xbe648905	-0.22317894
46	0x3e47c9ae	0.19510528
47	0xbe6ba7c6	-0.23013219
48	0xbe5dd089	-0.21661581
49	0xbe99f082	-0.30066305
50	0x3e1a4c5f	0.15068196
51	0x3e1999ee	0.15000126
52	0x3c01b158	0.007915817
53	0x3b9c2701	0.004765392
54	0xbf335bf2	-0.7006217
55	0xbf43d01c	-0.76489425
56	0xbe998535	-0.2998444
57	0xbe5791cd	-0.21051712
58	0xbe874c1a	-0.26425248
59	0xbdebf1e0	-0.11520743
60	0x3ec1611a	0.37769395
61	0xbf1621a4	-0.5864508
62	0x3d90ae47	0.07064491
63	0x3e2974b4	0.16548425
64	0x3f0e5e56	0.55612695
65	0xbe588ea3	-0.21148162
66	0x3d69e142	0.05709959
67	0xbe90f0ae	-0.28308624
68	0x3e13130b	0.14362733
69	0xbee4e352	-0.44704682
70	0xbda1d97f	-0.07902812
71	0x3ecd9b1a	0.40157396
72	0xbc2134ce	-0.00983925
73	0xbe17fc9f	-0.14842461
74	0xbf5a7fec	-0.85351443
75	0xbdbbe46a	-0.09174426
76	0x3dd28681	0.10279561
77	0xbdaac93d	-0.083391644
78	0x3f1c1a94	0.60978055
79	0xbeac8eb3	-0.3370262
80	0xbeb25dd2	-0.34837204
81	0xbe98b470	-0.29825163
82	0xbe3eb7fb	-0.1862487
83	0xbeecfb04	-0.4628526
84	0x3c791184	0.01520193
85	0xbf2d146a	-0.67609274
86	0x3dd09e2d	0.1018642
87	0xbc80bf2b	-0.015716156
88	0x3d873d72	0.06603517
89	0xbd8f0be5	-0.069846906
90	0x3e3d9bb9	0.18516435
91	0xbe3005ec	-0.17189759
92	0xbdeb87ac	-0.11500487
93	0xbdff5f84	-0.1246939
94	0xbd02d1e2	-0.03193844
95	0xbf291f49	-0.6606336
96	0xbeadfe85	-0.33983245
97	0xbde01497	-0.10941427
98	0xbe829f81	-0.25512317
99	0xbe5fb488	-0.21846211
100	0xbeeef2b0	-0.4666953
101	0x3e4ad900	0.19809341
102	0xbeb9028d	-0.3613476
103	0x3df80b9e	0.12111591
104	0xbe671c0d	-0.22569294
105	0x3ede2f74	0.4339558
106	0x3d9a96b4	0.075482756
107	0x3d29dead	0.041472126
108	0xbf196a30	-0.59927654
109	0x3dc15d57	0.09441631
110	0xbe9727dd	-0.295226
111	0xbe07f065	-0.13275297
112	0x3ea0a3aa	0.31374866
113	0xbe5e8f7f	-0.21734427
114	0x3d3f3cf8	0.046689004
115	0xbedc39d8	-0.4301288
116	0x3d3b9c31	0.045803253
117	0xbe912895	-0.28351274
118	0xbe74d513	-0.23909406
119	0xbe86244b	-0.26199564
120	0xbe7e39df	-0.24826764
121	0xbe9435d0	-0.28947306
122	0xbf474934	-0.77846074
123	0xbd434455	-0.04767259
124	0xbd932375	-0.07184497
125	0x3c3c8f55	0.011508782
126	0xbd739263	-0.059465777
127	0x3d5d81c7	0.054078843

network_body._body_endoder.seq_layers.2.weight f4 [128, 128]
0	0xbf7ed187	-0.99538463
1	0xbd9fcb74	-0.078024775
2	0xbcebb53a	-0.028772939
3	0x3dbf9a9c	0.09355661
4	0xbfca1883	-1.578873
5	0x3dde7a8e	0.10863219
6	0xbd3c9386	-0.046039127
7	0x3f104ca2	0.5636693
8	0x3e540d04	0.2070809
9	0xbe57763d	-0.21041198
10	0xbd48e041	-0.04904199
11	0x400baf48	2.1825733
12	0xbd7a986c	-0.061180517
13	0xbe867bb7	-0.26266262
14	0xbe90915f	-0.2823591
15	0xbe236731	-0.15957333
16	0x3e22b741	0.15890218
17	0x3db349b4	0.08754292
18	0xbf12eb92	-0.573907
19	0xbdbcf523	-0.092264436
20	0x3e359ac3	0.17734818
21	0xbdb58799	-0.08863754
22	0x3e980069	0.29687813
23	0x3cf6c9cd	0.030125523
24	0xbbde6dd7	-0.0067879963
25	0xbdd0bf8c	-0.10192785
26	0xbe96dde9	-0.2946618
27	0x3f1ca9ad	0.61196405
28	0x3ed77374	0.4208027
29	0xbdc65ed0	-0.09686053
30	0x3f1c3729	0.6102167
31	0x3f089bcf	0.53362745
32	0x3ed474fd	0.41495505
33	0x3e98e9ed	0.2986597
34	0xbe99ee24	-0.300645
35	0xbe9a8d17	-0.30185768
36	0x3c191161	0.009342522
37	0xbb513cc8	-0.0031927098
38	0x3b7f01d5	0.0038911004
39	0x3b9761e6	0.0046198247
40	0x3f13ea16	0.5777906
41	0x3e11c288	0.14234364
42	0x3e459276	0.19294152
43	0x3dcbcb44	0.09950879
44	0x3dc5c9cf	0.096576326
45	0xbe860d5f	-0.26182076
46	0xbcf84821	-0.030307831
47	0x3ce308f6	0.027714234
48	0xbda03db7	-0.07824271
49	0xbcebed52	-0.028799687
50	0x3f0e7687	0.5564961
51	0xbf1c3ca8	-0.61030054
52	0xbed55626	-0.4166729
53	0x3e8449dd	0.25837603
54	0x3ea9e016	0.33178777
55	0xbdfd4c9e	-0.12368129
56	0xbb1ccb50	-0.0023924895
57	0x3ead5e1e	0.33860868
58	0x3df8a7aa	0.121413544
59	0x3dc31440	0.09525347
60	0xbdbfe542	-0.09369899
61	0xbec6c314	-0.38820708
62	0xbceea7e3	-0.029132789
63	0x3de435ce	0.11143075
64	0x3e881818	0.26580882
65	0x3d19d778	0.037559003
66	0xbe38bf9f	-0.18041848
67	0x3d3185c6	0.043340467
68	0x3e72a5dc	0.23696083
69	0xbe45cdef	-0.19316839
70	0xbe7769f7	-0.24161516
71	0xbf85326c	-1.0406013
72	0xbe00980e	-0.12558004
73	0x3dfb4762	0.122694746
74	0x3e1b4456	0.15162787
75	0x3e421a28	0.1895529
76	0x3dfc561f	0.12321114
77	0x3ea319da	0.3185566
78	0x3cffb9a3	0.031216448
79	0xbeed1e3f	-0.46312138
80	0x3e16be22	0.14720967
81	0xbe109bdf	-0.1412196
82	0xb932302e	-0.00016993351
83	0x3d4075b3	0.046987247
84	0x3e6321f7	0.22180925
85	0x3e034c95	0.12822182
86	0xbefc937d	-0.49331275
87	0xbd3e7965	-0.04650249
88	0x3dabff5e	0.08398317
89	0x3e445282	0.19172099
90	0xbdcda843	-0.10041859
91	0x3e49970d	0.19686528
92	0xbe075396	-0.13215479
93	0x3e5495a9	0.20760216
94	0xbf023dcc	-0.50875545
95	0x3f2a3962	0.6649381
96	0x3d5419c8	0.0517824
97	0xbdaaf6ce	-0.083478555
98	0x3d9fe51c	0.07807371
99	0xbe2a79c1	-0.16648008
100	0xbe32c611	-0.17458369
101	0x3ccd1bb1	0.025037618
102	0xbdab869a	-0.083752826
103	0x3dfb8171	0.12280548
104	0x3e081049	0.13287462
105	0x3ec34761	0.38140395
106	0xbdccbab4	-0.09996548
107	0xbfde0255	-1.7344462
108	0xbd20864c	-0.039190575
109	0xbdcb4566	-0.09925346
110	0xbe42ac2d	-0.19010992
111	0xbea4f777	-0.3222005
112	0xbe16730f	-0.14692329
113	0xbe78c05e	-0.24292132
114	0x3eb7aacd	0.35872498
115	0x3e58c3c5	0.2116843
116	0x3e5ed8f6	0.21762452
117	0xbe3209fc	-0.17386621
118	0x3d09f420	0.03368008
119	0x3d795493	0.060871672
120	0x3e405eba	0.18786135
121	0xbe5ae361	-0.213758
122	0x3d3ec505	0.04657461
123	0x3dea5037	0.11441081
124	0xbfc2e45b	-1.5225939
125	0x3e00fe12	0.1259692
126	0x3e530f44	0.20611292
127	0x3d145a07	0.03621867
128	0xbe776893	-0.24160986
129	0xbe1d8dab	-0.15386073
130	0xbf10101a	-0.5627457
131	0x3e395ef1	0.18102624
132	0x3dc25d97	0.09490507
133	0x3e5028a0	0.20327997
134	0xbe99d7d0	-0.30047464
135	0x3d9e149f	0.07718777
136	0xbe426e15	-0.18987305
137	0xbe81be05	-0.25340286
138	0xbe80f7ac	-0.2518896
139	0xbe6e62fb	-0.23279946
140	0x3c82ad77	0.015951855
141	0x3c82e090	0.01597622
142	0xbe69a1d9	-0.22815646
143	0x3a88fedb	0.0010451929
144	0x3dfda0c2	0.12384178
145	0xbf985ada	-1.1902726
146	0xbe2b9c65	-0.16758879
147	0xbd1710b4	-0.036881164
148	0x3e5c70a1	0.2152734
149	0x3f123f54	0.5712788
150	0x3b4e1612	0.003144626
151	0xbe37110b	-0.17877595
152	0x3e155ef8	0.14587009
153	0xbe817756	-0.2528636
154	0x3f092e5a	0.5358635
155	0x3f129916	0.5726484
156	0x3e906fae	0.28210205
157	0x3e9b37d8	0.30316043
158	0x3f5a0770	0.851676
159	0x3e776317	0.24158894
160	0x3f1b991d	0.6078051
161	0x3eb98e1a	0.36241227
162	0x3ecd063f	0.40043828
163	0x3d9fdc72	0.078057185
164	0xbef57955	-0.47944131
165	0xbe3484de	-0.1762881
166	0x3baed390	0.005335279
167	0x3c9fe29e	0.01951724
168	0x3ec09f6f	0.37621638
169	0xbcec62e0	-0.028855741
170	0x3cc71b07	0.02430488
171	0xbd58dfc4	-0.052947775
172	0x3d593ce3	0.05303658
173	0xbeb2d054	-0.34924567
174	0x3da087aa	0.07838376
175	0x3ee46ffc	0.44616687
176	0xbdc922ae	-0.09821068
177	0x3d777464	0.060413733
178	0x3f34e470	0.7066107
179	0xbd25b028	-0.0404512
180	0x3e9a1db4	0.30100787
181	0x3d200b67	0.039073374
182	0x3ea7a2e9	0.32741478
183	0xbe2bcb24	-0.16776711
184	0xbdf9e4d9	-0.12201852
185	0x3ebf023d	0.37306395
186	0x3bb4f81e	0.005522742
187	0x3e42ffd1	0.19042899
188	0x3cc9dfd6	0.024642866
189	0x3e114cb6	0.14189419
190	0xbd9679c4	-0.07347444
191	0xbf06414b	-0.5244338
192	0xbdf11bf6	-0.11772911
193	0xbeee7316	-0.4657218
194	0xbd95a7e5	-0.07307414
195	0xbe3cda44	-0.18442637
196	0x3ee0e2d7	0.43923065
197	0x3ffb41fc	1.9629512
198	0xbe2a95c2	-0.1665869
199	0xbfb17dca	-1.3866513
200	0xbdbc259f	-0.09186863
201	0x3c0a1ee5	0.008430217
202	0xbda96ed9	-0.08273096
203	0x3cde84d1	0.027162941
204	0xbde63901	-0.112413414
205	0xbdf197b7	-0.117965154
206	0xbe89e805	-0.2693483
207	0x3cee3c66	0.029081535
208	0x3ceecae3	0.029149478
209	0xbf9dcf73	-1.2328933
210	0xbe212b6b	-0.15739219
211	0x3e53d4a4	0.20686585
212	0x3d8bf2f6	0.068334505
213	0x3e8b197f	0.2716789
214	0x3e616f59	0.22015132
215	0x3c63804b	0.013885568
216	0x3ea9db61	0.33175185
217	0x3dfb9922	0.12285067
218	0xbd2250bc	-0.039627776
219	0xbd380683	-0.044928085
220	0x3da61dfc	0.08111188
221	0x3e89d2d5	0.26918665
222	0xbe50b1c2	-0.20380309
223	0xbe158a26	-0.1460348
224	0xbf09b26e	-0.5378789
225	0x3d3b0212	0.04565627
226	0x3e1622fd	0.14661784
227	0xbd988392	-0.0744697
228	0xbbf1d001	-0.0073795323
229	0xbe513d4c	-0.20433539
230	0xbccf1d7a	-0.02528261
231	0xbe116886	-0.14200029
232	0xbe00a92f	-0.12564538
233	0x3e364832	0.17800978
234	0x3e2159e9	0.15756954
235	0x3ee0acda	0.43881875
236	0xbe08ff57	-0.13378654
237	0x3e80d115	0.25159517
238	0x3e3545b4	0.17702371
239	0xbec90189	-0.39258984
240	0xbe166c68	-0.14689791
241	0xbf279aac	-0.65470386
242	0x3ee005f8	0.43754554
243	0xbd9e1c0b	-0.077201925
244	0x3e4e10f9	0.20123662
245	0xbe744a43	-0.23856454
246	0x3d0f4fd8	0.034988254
247	0xbf6b0315	-0.9180158
248	0x3dc7edc2	0.097621456
249	0xbf0cf25a	-0.550573
250	0xbea4fad6	-0.32222623
251	0xbd7aad41	-0.061200384
252	0xbebb00f3	-0.36524162
253	0xbdf08b90	-0.117453694
254	0x3d962114	0.07330528
255	0xbe087c32	-0.13328627
