Assets/NN/Level1/CharacterBehav-844990.onnx (onnx, 932489 bytes, 15 tensors)

77 f4 [369]
00000000: 6f50 d13e 9b96 8e3a 9b96 8e3a 177a f33d
00000010: 88f3 bd3d 52e0 d93d e26f 233e ac58 e43e
00000020: c7ae d93e e9a1 cf3e 9b96 8e3a 755d 053e
00000030: c565 063e da21 c33d d25d 063e fa12 263e
00000040: 0300 ea3e ce7f e03e 3c3b ce3e 9b96 8e3a
00000050: ea5a 693d 41b8 f63d 72cf be3d 5cdd d93d
00000060: 7400 283e 4388 e33e 47bd d83e 8997 d53e
00000070: 9b96 8e3a ccd3 143e 5ffe 313e 0d3d d13d
00000080: 32f7 fd3d 93da 0d3e 1da6 ef3e f9d0 e53e
00000090: 71ab d03e 9b96 8e3a ad02 c83d f78e 003e
000000a0: 6a73 c03d 2176 d33d 042f 293e d619 e73e
000000b0: 1c9c db3e 27b5 d93e 9b96 8e3a ab6e 1d3e
000000c0: d08c 353e 50ae ec3d 2ec4 183e 565f 0e3e
000000d0: 9a5d f43e 6bba ea3e 282e d03e 9b96 8e3a
000000e0: 2963 0a3e 023b fe3d 6632 c33d 8d50 b43d
000000f0: 2f4a 2a3e 914d e83e e5fe db3e 0a85 da3e
00000100: 9b96 8e3a d5a9 2d3e a3f3 393e 4232 073e
00000110: b2b6 183e e126 123e 2da0 f63e 3a3b ec3e
00000120: ed35 cb3e 9b96 8e3a f5e9 4e3e a96a 083e
00000130: 96a7 c93d 9724 a73d f480 283e f033 eb3e
00000140: 09a9 da3e 1857 e13e 9b96 8e3a b006 473e
00000150: 383d 3d3e 244c 153e fa58 f43d 8625 1d3e
00000160: 5ab9 fa3e 4dcc ef3e 247f c93e 9b96 8e3a
00000170: 7e23 843e bd75 0d3e 3bf9 d73d a75d 963d
00000180: f7b2 253e 1459 f03e 1220 da3e 5b51 dd3e
00000190: 9b96 8e3a c645 5e3e e7b7 413e 9206 183e
000001a0: d412 043e 8339 1e3e 0def fa3e efab ed3e
000001b0: 7c6f cc3e 9b96 8e3a 5c7a 923e 9fdd 153e
000001c0: 92f0 e03d 1e45 953d c3ed 263e 2b55 f53e
000001d0: 0979 db3e 312b e43e 9b96 8e3a af52 8a3e
000001e0: 7b65 453e 3d2c 1c3e 0f72 043e ba10 1e3e
000001f0: 2a27 ff3e 061d ed3e afb3 d73e 9b96 8e3a
00000200: ced9 bd3e 7821 183e 4161 e73d 1d1d 8e3d
00000210: 24af 083e 40f6 fe3e d4f0 d93e 00b7 f03e
00000220: 9b96 8e3a 482a a63e 64e6 563e 512f 223e
00000230: 67b5 b43d adee 123e 456b fe3e 6dbd e43e
00000240: 8584 e43e 9b96 8e3a 2507 d33e 9a96 1a3e
00000250: 95d1 ee3d f257 6c3d 252b f53d e7c3 fe3e
00000260: 6dec d83e c432 fd3e 9b96 8e3a b349 b73e
00000270: f55e 693e 30ba 583e e6ba e33d 6f05 2f3e
00000280: 3270 e33e 46a0 cd3e f6ae f23e 9b96 8e3a
00000290: 9f88 e43e e415 193e 4a17 063e d525 3c3d
000002a0: 569d e83d 58ca ef3e 3872 cd3e 67e7 ed3e
000002b0: 9b96 8e3a 77ac d53e faa1 503e 71b7 b73e
000002c0: 8e9c e13d 7a02 5f3e 4c25 c83e cf10 b83e
000002d0: 38b2 d83e 9b96 8e3a 231c f83e 53eb ad3d
000002e0: 6cbd a63e f8e6 da3c 7d9e 973d e532 dd3e
000002f0: 6f28 c33e 31f9 f33e 82ae e53c e50f e83e
00000300: 021e 9d3e 0586 8b3e 4939 1e3e 8889 713e
00000310: 46ed 8b3e ef28 9c3e b342 e03e a87a eb3c
00000320: cd6b fc3e 2204 843e dbec 553e 72bc c13c
00000330: 02a0 bb3d 82ca c83e e40e c23e 71ab f83e
00000340: d877 f73c e58b ea3e 4c56 ad3e 2360 6d3e
00000350: 31fe 073e 4cfc 403e c6a1 583e 4d95 9a3e
00000360: 6669 e73e 61e1 033d 6522 fc3e 849b 8f3e
00000370: 94f8 323e 3c22 a73c 9426 eb3d d07a b93e
00000380: 4cf4 bb3e 5483 f93e b537 023d a013 ef3e
00000390: 2843 c43e 0d10 5a3e 7529 fd3d 8a73 fb3d
000003a0: 67bb f93d f834 883e f6c8 f13e 6d4f 083d
000003b0: ad77 fb3e d423 a13e 9f5f 483e e855 a13c
000003c0: a9bb 0b3e ed0f 6f3e 0ad1 963e fc7f f93e
000003d0: 6140 093d b2e7 eb3e 7499 c83e b980 573e
000003e0: 5e39 e43d a41c f63d 5754 cc3d ee5c 673e
000003f0: 3cce ef3e b575 0c3d 5c32 fa3e 9fa9 b63e
0.40881678 0.0010878624 0.0010878624 0.11888521 0.092749655 0.10638489 0.15960649 0.445989
0.42516157 0.40553215 0.0010878624 0.13023932 0.1312476 0.09527941 0.13121727 0.16218176
0.45703134 0.43847507 0.40279567 0.0010878624 0.056971468 0.120468624 0.09316911 0.10637924
0.16406423 0.44439897 0.42331907 0.41717175 0.0010878624 0.14533919 0.17382191 0.10216723
0.124006644 0.1385291 0.46806422 0.44885996 0.407558 0.0010878624 0.09766135 0.12554537
0.093970135 0.10325266 0.16521841 0.451369 0.4289254 0.4252102 0.0010878624 0.15374248
0.17729497 0.11556685 0.14918587 0.13903555 0.47727662 0.4584535 0.40660214 0.0010878624
0.13514389 0.124135986 0.09531097 0.08804426 0.16629861 0.45371678 0.42967907 0.42679626
0.0010878624 0.16959317 0.18159346 0.13202766 0.14913443 0.14272644 0.4816908 0.46138936
0.3968958 0.0010878624 0.20206435 0.13321938 0.098464176 0.08161276 0.16455442 0.45938063
0.4270709 0.4401176 0.0010878624 0.19436145 0.18480384 0.14579827 0.119310334 0.15346345
0.48969537 0.46835557 0.39354813 0.0010878624 0.25808328 0.13814445 0.10545584 0.073420815
0.16181551 0.4694296 0.42602593 0.43226132 0.0010878624 0.21706304 0.1891781 0.14846256
0.12897807 0.15451626 0.49010506 0.46420237 0.39928806 0.0010878624 0.28608978 0.14635323
0.10983385 0.07288574 0.16301636 0.4791654 0.4286578 0.44564202 0.0010878624 0.27016208
0.19276993 0.1525125 0.12934135 0.15436068 0.49834567 0.46311206 0.42129275 0.0010878624
0.37080234 0.14856517 0.112978466 0.06939147 0.13348061 0.4979725 0.4256655 0.47014618
0.0010878624 0.32454133 0.20986325 0.15838362 0.08823662 0.1434886 0.49691215 0.4467577
0.44632354 0.0010878624 0.41216388 0.15096512 0.11661068 0.05770106 0.1197112 0.49758837
0.4236788 0.49452794 0.0010878624 0.35798416 0.2279013 0.21164775 0.111196324 0.17091917
0.44421536 0.4016134 0.4739911 0.0010878624 0.44635484 0.14949757 0.13094822 0.045934517
0.113581344 0.46834064 0.40126204 0.46465608 0.0010878624 0.41733143 0.20374289 0.35882142
0.110161886 0.21778288 0.39090955 0.35950324 0.4232347 0.0010878624 0.48458967 0.0849215
0.32566392 0.026721463 0.07403276 0.43202892 0.38116786 0.47651055 0.028037313 0.45324627
0.30686957 0.27250686 0.1545154 0.2358762 0.27329463 0.3049998 0.43800887 0.02874501
0.49300995 0.25784403 0.20891134 0.023649428 0.091613784 0.39217 0.37901986 0.485683
0.030208513 0.45809856 0.33854902 0.23181204 0.1328056 0.18846244 0.21155462 0.30192032
0.451976 0.03219736 0.4924499 0.28048337 0.17477638 0.020402066 0.114819676 0.3622651
0.3670982 0.48733008 0.031791408 0.4669466 0.38332486 0.21295185 0.12361423 0.12277897
0.12193947 0.26602912 0.47223634 0.03327887 0.49114743 0.31472647 0.19567727 0.019694284
0.13645805 0.23345919 0.2945636 0.48730457 0.033508662 0.46075207 0.39179575 0.21045198
0.111437544 0.120171815 0.09977024 0.22594044 0.46837032 0.03429194 0.48866546 0.35676286

80 f4 [14]
00000000: 0bf5 fd40 58c3 6740 5fce 2842 d3dc 473f
00000010: 7701 2a40 e664 1a3f f077 cd41 a38c 0441
00000020: f408 6d40 f967 1842 a002 493f 7a52 443c
00000030: 1555 3f3b cb46 ec3d
7.9361625 3.6212978 42.201534 0.78071326 2.6563394 0.6031021 25.683563 8.284335
3.7036715 38.101536 0.7851963 0.011982555 0.0029195 0.1153694

action_model._discrete_distribution.branches.0.bias f4 [3]
00000000: 259f 6a3b 405b f23b 1a61 28bc
0.0035800424 0.0073961318 -0.010277057

action_model._discrete_distribution.branches.0.weight f4 [3, 256]
00000000: 83c2 923c f3ee 8bbb d3a2 84bc f347 5fbc
00000010: 852f 433c 6272 0fbc 47d5 9abb 290b 7a3c
00000020: e5ef 04bb 4114 8ebc 94f4 51bc 4045 e03c
00000030: c9be a9bc 0fb5 acbb 1054 4d3c 73bd cabb
00000040: 7e48 5cbc f020 f03b 8c8c 48bc 14f7 03bc
00000050: b954 443b 69fe 8abc 4837 e43b 78e9 28bc
00000060: 7265 3dbc 3588 8fbb 4dbe 83ba 5027 2a3c
00000070: 6343 20bc 6a1c 7e3c 3785 fc3a bc33 423c
00000080: 4d8d d2bc 9722 b83b 6d32 a6bb b88d 1bbb
00000090: 1186 153b fc53 b93c 04f1 ad3b 3cb1 82bc
000000a0: df56 adbc 4cc6 d33b 653c c8bc 7ad7 0dbb
000000b0: e00d a33c baa7 63bc 8a54 88ba 6bec 453c
000000c0: d669 b8bc 4566 89bc 6d68 863b 3bf3 42ba
000000d0: bfdc 3ebc 0b08 283c dfd8 e0bc 5c9c e73c
000000e0: 2b01 babc 3086 a8bc 853f 47bb 272c 81bc
000000f0: cbf1 23bc 0800 973c f283 9abb bd55 f1bc
00000100: cb3b 3bbc b04b 983c f163 303c a185 3ebc
00000110: 8aec 9db9 c22f 123c 9cc2 5fbc 97cf d2bc
00000120: d80a b2bb e3aa 0bbc e93c 88bc 955f 7b3b
00000130: e9c2 a73c 7217 c13c 8702 c6bc e85d 7a3c
00000140: 5c7d 5fbc 2eff 0bbd a30a d73c 6c7b 82bc
00000150: 7ad8 663c 4e29 283c 62ac 5ebc d6d6 44bb
00000160: 6c60 c0bc 226b ee3b 552c 61bc 7295 e23b
00000170: 088b c53b 6dfa 403c 723d 943c 422b 75bc
00000180: da3f f6ba 79d8 4a3b 5deb 4ebc 451c ea3b
00000190: 2739 bbba 110d a13c 60f8 c53b 2882 823c
000001a0: a26f d03b ffc8 803b 5e3b b0bc f164 993c
000001b0: f90e 5bbc ab1b 8fbc c74c 32bb a8ef 7dbc
000001c0: 5a19 c0bc ae67 debb d8ca a8bc 4fee c7bc
000001d0: 5678 a23c b3f5 913c 8f51 98bb aacd 243c
000001e0: 1630 263b 8e39 0a3c e4e2 133c b109 99ba
000001f0: 648c a03a 3eef 15bc 6ab2 ae3c 34a2 923b
00000200: 8440 adbb 7d9c 843c a5c5 953c 0af9 083c
00000210: e0e9 ae3b ca14 c5bb 0bf6 e33b 3681 753b
00000220: cf0b e13b 294f d53a 015b 7a3b efe4 cd3c
00000230: b5aa a7bc 5bca 90bc c97e a9bc 65d9 783c
00000240: 8603 373c 51a1 be3c 6c91 8c3b 232a 053c
00000250: 09a7 933c dd17 babc 3f17 03bd 5f1c abbc
00000260: 83e3 013c 45a3 7abc 6043 60bc d785 93bb
00000270: 1e4c 56bc b00b 42b9 7515 b03b c6bc 863c
00000280: 2adc adbc 9a90 dbbc 4574 1a3c 2520 2b3c
00000290: 9c64 1c3c e19a 6dbc abbb 8fba 5eec b8bc
000002a0: 34e5 e73b 6560 cebc 2fcd d9bc de9e b23c
000002b0: 0ba1 633c dfe3 353c 0e32 eebc e207 9dbb
000002c0: e1bf 00bc 2100 a4ba 3ee8 9ebc 7ec6 83bc
000002d0: 1351 c9ba 6484 b3ba 91a0 bbbb 3dee 713b
000002e0: d481 1fbb b30d 7bbc 0380 ecbb 4219 3b38
000002f0: 4c7a 123a fc74 2cbc 90b6 b9bb 2c79 53bc
00000300: 5e96 3a3c d1d6 57bc 2cfd 7c3b 6c09 ea3b
00000310: 4365 61ba 0e78 583b 95ce 85bc 944f 85b7
00000320: af6c a0bc 7012 bd3c 15ab 2abc 6643 d8bc
00000330: 0b5c cf3b 55a2 40bc d63a 5f3c 2c31 0a3b
00000340: a9c2 cebb 7c80 fc3b 5af1 c5bc e205 9c3a
00000350: 74ee a73b 287c 68bc 1950 b6bc 0571 ebbb
00000360: 3f82 bfbc 7bba 133c cedd 64bb a950 cb3c
00000370: 7320 cf3c 696e 8ebb 92cf 09bc b33d 4dbc
00000380: 329c 84bc 4a1d b5bb 92e0 ff3b b387 9fbc
00000390: bc79 d9bb 6f46 10bb 6dca 2abc d96a cc3c
000003a0: ba2e 183c 0718 2c3c bfa9 e93c 9fab 8cbc
000003b0: 6961 0cbc 3b61 cc3a b9fa 6dbb bb84 d3bc
000003c0: d627 98bc 0bf9 f03c 92e5 3dbc db20 1e3b
000003d0: 60c3 823a e510 853c 68d6 2f3c 6d09 493c
000003e0: c195 e0bc e338 a13b dd0e 25bc 63f8 e43b
000003f0: 5033 e0bc 5798 a1bc 3703 8e3c a6e2 4bbc
0.017915016 -0.0042704283 -0.016190922 -0.013627994 0.011913185 -0.008755298 -0.0047251317 0.01526145
-0.002028459 -0.017343642 -0.01281466 0.027376771 -0.020720856 -0.0052706073 0.012532249 -0.006187135
-0.013445018 0.007328145 -0.01224054 -0.0080545135 0.0029957725 -0.016967015 0.006964598 -0.01030957
-0.011559831 -0.004380251 -0.0010051221 0.010385349 -0.009781691 0.015509704 0.0019265775 0.011853155
-0.025702143 0.005619358 -0.005071929 -0.0023735594 0.0022815506 0.022623055 0.0053082723 -0.015953653
-0.021159587 0.006462848 -0.02444286 -0.0021643327 0.019904077 -0.01389497 -0.0010401171 0.012080292
-0.022511404 -0.016772399 0.004101804 -0.0007436757 -0.01164931 0.010255824 -0.027447162 0.0282728
-0.022705635 -0.020571798 -0.003040285 -0.015768124 -0.010006378 0.018432632 -0.004715436 -0.029459829
-0.01142783 0.018590778 0.010766015 -0.011628539 -0.0003012161 0.008922519 -0.013657238 -0.025733752
-0.0054334216 -0.008524629 -0.016630607 0.0038356532 0.020478683 0.02357075 -0.024171127 0.015281178
-0.013640728 -0.034178905 0.02625019 -0.015927993 0.014089698 0.010263754 -0.013590904 -0.0030035279
-0.023483478 0.007275955 -0.01374348 0.006914788 0.0060285367 0.011778456 0.018095706 -0.014963927
-0.001878734 0.0030951782 -0.012629357 0.0071444833 -0.0014284 0.01965955 0.0060415715 0.015931204
0.006360964 0.0039302106 -0.021512683 0.01872489 -0.013370269 -0.017469248 -0.0027206407 -0.015499033
-0.023449589 -0.006787262 -0.020604536 -0.024405627 0.019832771 0.017817354 -0.0046483944 0.0100588
0.0025358251 0.008436574 0.009026263 -0.0011675862 0.0012248871 -0.009151278 0.021325309 0.0044749025
-0.005287232 0.0161879 0.01828272 0.008360157 0.0053379387 -0.006014441 0.006956821 0.003746105
0.006867863 0.0016274202 0.0038201215 0.025133578 -0.020467142 -0.017674616 -0.020690339 0.01518855
0.011170274 0.023270281 0.0042897966 0.008127722 0.018023985 -0.022716457 -0.03200459 -0.020887552
0.007927778 -0.015297716 -0.013687938 -0.004502039 -0.013079671 -0.00018505636 0.0053736516 0.016447436
-0.021223146 -0.02680235 0.009427135 0.010444676 0.0095454715 -0.014502258 -0.0010965964 -0.022573646
0.0070768837 -0.025192449 -0.026587097 0.02180427 0.013893376 0.011101692 -0.029076602 -0.0047921995
-0.0078582475 -0.0012512245 -0.019397851 -0.01608586 -0.0015359245 -0.0013696072 -0.005725928 0.0036915683
-0.0024338858 -0.01532309 -0.0072174086 4.4607797e-05 0.00055876817 -0.010525938 -0.005667515 -0.012907308
0.011388389 -0.013173775 0.003860305 0.0071422365 -0.0008598158 0.0033030543 -0.016333858 -1.5891892e-05
-0.019583074 0.02308008 -0.010416766 -0.026399326 0.006328111 -0.011757453 0.013624867 0.0021086438
-0.0063098264 0.007705746 -0.024162937 0.0011903609 0.0051248614 -0.014189757 -0.02225499 -0.007185104
-0.023377536 0.009016628 -0.0034922245 0.024818735 0.025284028 -0.004346658 -0.008411305 -0.012526917
-0.016187761 -0.005527173 0.0078087533 -0.019473886 -0.0066368263 -0.0022014638 -0.010424239 0.024953293
0.009288484 0.010503775 0.028523324 -0.017171679 -0.008568146 0.0015592942 -0.0036312772 -0.025820127
-0.018573683 0.029415628 -0.011590378 0.002412847 0.0009976439 0.016243408 0.010732271 0.012270314
-0.027415158 0.0049201115 -0.010074344 0.006987618 -0.027368218 -0.019725962 0.017335517 -0.012444174

action_model._discrete_distribution.branches.1.bias f4 [3]
00000000: 7a6a 33bb 76c7 c73b 65eb 51bb
-0.0027376697 0.0060967756 -0.0032031175

action_model._discrete_distribution.branches.1.weight f4 [3, 256]
00000000: f405 21bc 7f14 f6b9 e4e9 2e3c 6694 68bb
00000010: 3def d1bb c180 073c 902c c8ba ad06 e9bb
00000020: e61d a0bb 0c92 7b39 01fc 823b 1899 16bc
00000030: f1f3 733b 4d88 4abc 00c5 c3bb 1786 c8bc
00000040: 730e 0a3c 424d 1c3b b38e f0bb fa65 70bc
00000050: a607 e1bb 0962 d6bb 152a 44bc d013 9a3c
00000060: fbcf 86ba 54be 46bc 28c0 92bb ab3f 66bb
00000070: 27bc 1cbc 2fe7 7fbc 219b 09bc 6962 143b
00000080: 2e02 28bb 409b 84bb 21d9 38bc 6687 323b
00000090: 3fc2 7eba 86b0 f8bb a1a2 96b9 1256 4dbc
000000a0: 572a 91bb 5f4a 01bc 42a3 df3a df3a 87bb
000000b0: 7810 aebc 910a 72ba 33cb b4bc fd18 ee3b
000000c0: 6c1d 7cbb 9164 103a 8bf6 b2bc 03e4 49bc
000000d0: d4db fa39 ea49 80bc 6cdb cdbb a374 cabc
000000e0: 9b63 39bb 7b80 76bc 63c6 0ebc 1752 833c
000000f0: 5db2 0338 bbc1 99bc 61d5 45bc b49f cabb
00000100: 42ad 70bb d3ee 9fbb 16bd edbb 441c fdbb
00000110: c930 593b fe8e 023b f2d9 32bb d06e 09bc
00000120: 8b83 1c3c 7b61 30bc c3a8 91bb 41a0 b4bc
00000130: 5e64 18bc be27 cdbc 543f debb d68e 9cbb
00000140: f2cc 4f3a 0383 353b dc16 96bc 9446 f5bb
00000150: 98f5 0abc 0315 9bbc e3fd 0bb9 ee7b 56bc
00000160: 1ba5 3cbc bedf 10bc 19da 50bc cbb8 043c
00000170: 1c07 753a b957 5ebb 4962 56bc ef47 24ba
00000180: 1309 0abd a08a 62bc a0b1 763b 5ce5 d9bb
00000190: 359d 8ebc 2107 7fba ea26 63ba 5224 a1bc
000001a0: 44e5 f63b 871b 173c 0380 133c b807 5dbc
000001b0: d138 0dba 538c 743c b274 85bc e56d b83b
000001c0: 57d9 e9bb 599b 86bc 0d5f cd3b 95bb d83c
000001d0: 0ab2 93bc bf7b 2abc a707 57bc edc0 76bb
000001e0: 5bde d8bb e4fb a33b b6f4 63bc f33d 393b
000001f0: ddd9 b0bb 38a3 34b8 28b2 80bc a2e1 513c
00000200: cb6d 3d3c a0f6 00bb 150f 7dbb f44f 2a3c
00000210: d3df afbc 7ea2 a23b c896 a2bc 94b2 08bb
00000220: cfd7 f4bb e9c0 c03b f0bb 1d3c 6ba8 64bc
00000230: dba7 dfba a81e 9fbc 5352 2dbc 0b7e 53bb
00000240: b6fb 633c b0ce d0bb 6036 16bc a7e4 d9bb
00000250: 1078 61bb 7db7 33bc a118 0f3c aa2f 6a3b
00000260: e6e8 69bc d77c 69bc e247 ccbb 0970 8ebc
00000270: fab3 89bb d799 a8bb 02d5 b9ba caa3 0bbd
00000280: 89ea 913c 465f d1b9 5924 8fbc 00e6 613b
00000290: c155 e339 aeee c1bb 7336 8dbb 584c 6e3a
000002a0: c7c2 19bb fce2 343c e528 2cbc 6324 bb3b
000002b0: 2078 6cbc 186f fbbb 1102 073c 8fb4 253a
000002c0: d963 27bc 3327 983b 9d2b e03b 96eb c1b8
000002d0: faaa 5b3c c9d3 5e3c 7cfe eaba 0084 c5bb
000002e0: 853c 5a3c 4c5f d8bb ac96 033c 8bba 8a3b
000002f0: 89d9 0bbb 14cb 15bc d09b a83b 8dbf aaba
00000300: ec2a 63bb 0d27 083a 0cb5 833b 3770 90bc
00000310: 2b14 01bc 3d40 133c 1004 51bc 1630 8db9
00000320: d36b 4fbc e902 a9bc 7eb1 07bc 6fec 303b
00000330: 642c 1fbc b11d 873c 57c3 67ba 3ec3 fa39
00000340: e714 25bb 209d 1ebc 1fb3 29bc a489 8e3b
00000350: 20b8 0dbb cef9 0cbc 2f14 f3ba 67d8 31bc
00000360: 8108 ea3c 7d20 41bc 7c74 bcbb cbb1 66bc
00000370: 1b9b 213c 8fbc 1abc daa9 aabb ea90 77bb
00000380: b4a3 12bc 2cad 3cbc 33dd 38bc 665e c8bb
00000390: 3773 173c 2ce7 74bc 400a 7eba 3c0a 2cbb
000003a0: 1979 7dbc 6175 38bc 7a5e 1c3c d3fd a6bb
000003b0: 79a6 34ba 898a ebbc 99c6 d13b 3da1 8abb
000003c0: 54fb 21bc 8cf4 35bb 3b7c a3bb a4dd 3bbb
000003d0: 1dba da3b 74d8 4bbb 6216 33bb 8021 873b
000003e0: d2f8 003c a811 993b 9fe7 a8bb 3866 30ba
000003f0: 294a bfbb e589 8d3b 5a12 bdbc 2375 06bc
-0.0098280795 -0.00046936047 0.010675881 -0.0035488843 -0.0064066933 0.008270443 -0.001527207 -0.0071113915
-0.0048863767 0.00023991632 0.0039973264 -0.009191774 0.0037224258 -0.012361598 -0.005974412 -0.024478002
0.0084262965 0.002384976 -0.00734123 -0.014672751 -0.006867367 -0.0065424484 -0.011972924 0.018808275
-0.0010285372 -0.012130339 -0.004478473 -0.0035133164 -0.009566343 -0.015619083 -0.008398802 0.0022641665
-0.0025636065 -0.0040468276 -0.011282236 0.0027241348 -0.0009718276 -0.0075894026 -0.00028731397 -0.012532728
-0.004430096 -0.007891267 0.0017062204 -0.004126891 -0.021248087 -0.0009233142 -0.02206955 0.0072661624
-0.0038469685 0.00055081496 -0.021846076 -0.012322429 0.000478475 -0.015660245 -0.0062822606 -0.02471382
-0.002828813 -0.015045281 -0.008714291 0.016030354 3.1398948e-05 -0.018769136 -0.012074799 -0.006183589
-0.0036724363 -0.004880765 -0.007255207 -0.007724317 0.003314065 0.0019921656 -0.002729055 -0.008388236
0.009552847 -0.010765429 -0.004445167 -0.022049071 -0.009301273 -0.025043365 -0.0067824516 -0.0047777696
0.00079269626 0.0027696497 -0.018321447 -0.00748522 -0.008481406 -0.018930918 -0.00013350653 -0.013091071
-0.011513974 -0.008842407 -0.012747311 0.008100699 0.00093470677 -0.0033926798 -0.013084956 -0.00062668225
-0.03370006 -0.013826996 0.0037642494 -0.006649656 -0.017408947 -0.00097285403 -0.00086651614 -0.01967064
0.007534655 0.009222872 0.009002688 -0.01349061 -0.00053871894 0.014926034 -0.016290996 0.005628335
-0.0071365046 -0.016431497 0.0062674345 0.026456634 -0.018029232 -0.01040548 -0.013124383 -0.0037651614
-0.0066183037 0.005004393 -0.013913324 0.0028265684 -0.005397065 -4.3067354e-05 -0.015709952 0.012810143
0.011561821 -0.001967825 -0.0038613726 0.010395039 -0.021469032 0.0049632182 -0.019847289 -0.0020858394
-0.0074720155 0.0058823717 0.009627327 -0.01395617 -0.0017063575 -0.019423798 -0.01057871 -0.0032271172
0.013914993 -0.0063722953 -0.009168237 -0.006649572 -0.0034403838 -0.01096904 0.008733899 0.0035733976
-0.014276719 -0.014250956 -0.006234155 -0.017387407 -0.004202363 -0.0051452923 -0.0014177861 -0.03409175
0.01781203 -0.0003993457 -0.017473387 0.0034469366 0.00043360706 -0.0059183454 -0.0043094694 0.00090903556
-0.0023462044 0.011040445 -0.010507797 0.0057111247 -0.014432937 -0.0076731555 0.008240239 0.0006321156
-0.010216677 0.004643345 0.0068411366 -9.2468385e-05 0.013407463 0.013600298 -0.0017928625 -0.0060276985
0.013320093 -0.006603157 0.008031528 0.0042336634 -0.0021339378 -0.009142656 0.0051455274 -0.0013027057
-0.0034663035 0.00051938073 0.004019385 -0.017631633 -0.007878344 0.008987484 -0.012757316 -0.00026929443
-0.012659985 -0.02063127 -0.0082820635 0.0026996394 -0.009715173 0.01649365 -0.00088410586 0.00047829183
-0.002518946 -0.009681016 -0.010357647 0.004349904 -0.002162464 -0.00860448 -0.0018545444 -0.010854817
0.028568508 -0.011787531 -0.0057511907 -0.014080475 0.00986364 -0.00944437 -0.005208236 -0.0037775584
-0.008950163 -0.011515897 -0.011283207 -0.006114769 0.009243778 -0.014947694 -0.00096908584 -0.0026251217
-0.015470766 -0.011258454 0.009544009 -0.005096176 -0.00068912614 -0.028752582 0.0064018485 -0.004230647
-0.009886581 -0.002776417 -0.0049891747 -0.0028666044 0.0066750185 -0.0031104358 -0.0027326574 0.0041238666
0.007871823 0.0046712942 -0.0051545645 -0.0006729099 -0.005837698 0.004319417 -0.02308004 -0.0082066385

discrete_action_output_shape f4 [1, 2]
00000000: 0000 4040 0000 4040
3.0 3.0

network_body._body_endoder.seq_layers.0.bias f4 [256]
00000000: 6d35 303c 96f4 d43c 9a1b 513c fb62 08ba
00000010: 0786 d339 dfe2 7c3a 6a2b 133c 30bf febb
00000020: 5891 cc3c 587d 3fba c7a5 f33b 8726 aa3c
00000030: 657f 8e3c f1b1 4b3c 1441 243c 0788 d43c
00000040: 676c 323b 4669 c13c a9a6 973c c8e9 123c
00000050: 480f 9e3c 865a 183c 8a57 4a3c 03f9 8d3c
00000060: 3f6f 0a3c 9ec5 a63c 7390 d13c 0c9d b53c
00000070: 46e4 813c aa07 b33c 7b88 973c 3854 dabc
00000080: db8f 023d 5bad 83ba 2a61 5e3c 352c 953c
00000090: 73a2 2fbc 731e 013c 401a 263d 3f61 f73b
000000a0: b1b2 bc3c 642e 13bc eb06 563c 64b6 103d
000000b0: 25e6 e53c 24ae a03c cac9 153d 87b3 c23c
000000c0: c579 c23c 2eab 0f3c 78b4 893c 4a2b 1a3d
000000d0: c3f0 f83c 4b6c abb9 bf63 18bd cc99 003d
000000e0: bb71 bd3c 7f1a d33c ff5c a5b9 9c26 9b3c
000000f0: 1d7c f73c fb6d 71bb acb1 ba3c d279 19ba
00000100: ce5b be3c 7c9b a93c 0cd3 9f3c 587c db3c
00000110: 52db 883c 66a6 263c 6a5e a03c a7a0 a53c
00000120: e2fe a23c da6c d739 d6bf 033d 0e3e e03c
00000130: de49 173d 866e fc3c fdc5 9b3c bd95 b0bb
00000140: 26f5 f63c c693 e63c efd1 a038 ed48 313d
00000150: edb3 ea3c b785 5a3c 453c 86bb b0f4 66bc
00000160: 35d7 ec3c 9bfa d03c 8d9d 023c 8f38 393b
00000170: e298 ac3c 28f2 5c3c 4b9e 8c3c 66a7 e13c
00000180: 609f 2a3d 38bf 823c 2b36 683c abde 893c
00000190: c13a de3a b241 d0bb 6164 f03c cbff 95bc
000001a0: 2642 333d d415 8c3c d331 0c3d 3877 233d
000001b0: 191e d63c 8bc9 c33b eea3 0e3d c2f1 8c3c
000001c0: dff3 bf3c e45e 2d3c 1dcb b13c e48a b03b
000001d0: 62c8 98bc e98d a83c 5ce1 0f3d fb36 563c
000001e0: 9fab fa3b f237 d13c 729a a13c f46d c03c
000001f0: 6e1c ef3c 412a b63c eb9e 0d3d 7854 e23c
00000200: 0bbd a73c d575 c43c 623c f03a 470f 0d3c
00000210: c94f 9e3c 79e2 9b3c d59d d03c cbf1 e6bb
00000220: 78c7 f43c a9ff 273d ff86 f03c 648d eb3c
00000230: ec76 763c b196 a13b 23eb 2cbc 966e 71bb
00000240: ad2e 03bc 208c 023d 88ff ff3c 0de8 2c3d
00000250: 26b0 eb3c c218 cf3c bbe1 913b f0c9 d33c
00000260: a506 d43c 8bd6 063d 1f9e 143a f73d 1e3d
00000270: 7c46 a13c 02ca 2d3b 2208 5bbb 3fdc f13b
00000280: 7222 493b b11a d33c 9685 da3c 0847 853c
00000290: 8312 953c ded4 813c e162 2f3c 0a8d 96b9
000002a0: f33f 903c 8f5a c23c 6162 5ebc 53c2 603c
000002b0: 08a1 e0b9 de7b 7f3c 0031 f93c 44ee 133d
000002c0: f670 fa3b b45c 353c ce88 953c 51dc 723c
000002d0: 4c4d 003c 2223 91bc baec 093d 8a08 92bb
000002e0: 1e84 eebb d79b d53c 081d 723c aea9 86bb
000002f0: 794d 73bc 6781 b83c c165 a33c f2b4 173c
00000300: d41a 6b3c 3185 20bc 2609 b53c d0a1 a13b
00000310: 321d 513b 0069 913c 2d4e 9e3c 2a6c 6f3c
00000320: 0b5f 803c d4ef c43c 1f17 873c 7d1a dc3c
00000330: 3fb4 cf3b d60b a73c 94af 953c bf93 1f3c
00000340: fa03 8b3b 9bab ad3c 1995 8b3c 8044 a13c
00000350: 238e 02bc ed18 8f3c 7169 4ebc 0db5 7d3c
00000360: 0b08 dc3c 1ebc 553c f043 273c c51e 9f3c
00000370: fa34 09bb 3365 ea3c 5f9b 803c c0a2 723c
00000380: a106 0cba ae57 6f3c 9390 523c 72ce a33c
00000390: c1c3 063d 0fbb 833c b6e6 f23c 5d3c 683b
000003a0: 784b 863c 6ae7 493c d0ac 9b3c 762a 9e3c
000003b0: 2500 263a 7647 ab3c 93a7 023d e58a 96b9
000003c0: 2299 9a3c 9cf9 cd3c 2024 d43c 767f 073d
000003d0: 8d78 343c 273c 9bbb d6c5 ca3c ad25 c23c
000003e0: 28cb 8abc 5b87 993c 3076 ec3c a4c4 08bb
000003f0: a567 db3c 8e74 fd3a b44a ccbb 87b1 f43c
0.010754925 0.025995534 0.012762928 -0.00052027375 0.00040344914 0.00096468435 0.008982519 -0.007774256
0.024971649 -0.00073047495 0.0074355337 0.020770324 0.01739473 0.012432561 0.010025281 0.02594377
0.0027225257 0.023609769 0.018512087 0.008966871 0.019294396 0.009298926 0.0123499725 0.017330652
0.008449375 0.020357903 0.025581574 0.022169612 0.01585592 0.02185424 0.018497696 -0.026651487
0.031875473 -0.0010046171 0.01357297 0.018209556 -0.010719883 0.007880795 0.040552378 0.0075494344
0.023034425 -0.008983228 0.013063173 0.03533019 0.028063843 0.019614287 0.036569394 0.023767246
0.023739705 0.00876884 0.016809687 0.03763894 0.030388242 -0.00032696346 -0.0372045 0.031396672
0.02312552 0.02576947 -0.0003154054 0.018939309 0.030210549 -0.0036839235 0.022789799 -0.00058546395
0.023237135 0.020704024 0.019509815 0.02679269 0.016706143 0.010171508 0.01957627 0.020218207
0.019896928 0.00041089096 0.03216537 0.02737334 0.03693568 0.03081442 0.019015307 -0.005388944
0.030146193 0.028146636 7.668498e-05 0.043282438 0.028650248 0.013337544 -0.00409654 -0.014096424
0.028911212 0.025510123 0.007972133 0.0028262471 0.021068994 0.013485469 0.017165324 0.027545642
0.041655898 0.01596032 0.014173071 0.01682981 0.0016954766 -0.0063554877 0.02934474 -0.018310448
0.043764256 0.017100252 0.034227204 0.039908618 0.026137399 0.0059749535 0.034824304 0.017205123
0.023431716 0.010581706 0.021703297 0.005387651 -0.018650237 0.02057548 0.03512703 0.013074632
0.0076498534 0.025539372 0.019726966 0.02348993 0.029188361 0.022236945 0.034575384 0.027628168
0.020475885 0.023981968 0.0018328542 0.008609599 0.019325154 0.019028889 0.025465885 -0.007047867
0.02988027 0.0410153 0.029361246 0.028753944 0.015043002 0.004931294 -0.010554108 -0.0036839596
-0.008006734 0.031871915 0.031249776 0.04221349 0.028770518 0.02528036 0.004451958 0.025853127
0.025882075 0.032919448 0.0005669314 0.038633313 0.01968693 0.002651811 -0.0033421596 0.0073809917
0.0030690697 0.025769563 0.026675027 0.016269222 0.018197304 0.015848573 0.010704727 -0.00028715312
0.017608618 0.023724822 -0.01357326 0.0137182055 -0.00042844587 0.015593497 0.030418873 0.0361159
0.0076428605 0.011069465 0.01825371 0.014823035 0.007830929 -0.017716948 0.033673026 -0.0044565843
-0.007278933 0.026075287 0.014777429 -0.004109583 -0.014850014 0.022522641 0.019945981 0.009259449
0.014349658 -0.00979738 0.022099089 0.0049326196 0.003190827 0.017750263 0.019324386 0.014613191
0.01567032 0.02404014 0.016490517 0.0268681 0.0063386257 0.020391386 0.018272199 0.009739815
0.0042424174 0.021199992 0.017038869 0.019685984 -0.007968458 0.01746794 -0.012598381 0.01548506
0.026859304 0.013045339 0.010209069 0.019423852 -0.0020936118 0.028612709 0.015699087 0.01480931
-0.0005341564 0.014608307 0.012851852 0.019995902 0.03290153 0.016080407 0.029651027 0.003543637
0.016393408 0.01232324 0.019003302 0.019307356 0.0006332419 0.020908099 0.031898092 -0.00028713714
0.018871848 0.025143437 0.025896132 0.03308054 0.01101507 -0.0047373953 0.024752539 0.023699606
-0.016942576 0.0187413 0.02886495 -0.002086916 0.02678282 0.0019337104 -0.0062344912 0.029869808

network_body._body_endoder.seq_layers.0.weight f4 [256, 383]
00000000: 3542 d13c 75ed 5abd 206a aa3c 7d44 9cbb
00000010: e287 afbd 7273 983d 1df4 08bd 8ca7 38bd
00000020: 4b06 5b3d 2308 c4bd 6faf 743d 377c 6a3d
00000030: c4b7 f1bc a6be 9ebc 80fc 00bc d4c4 d6bc
00000040: 301b 3f3d 0e80 80bb 0147 edbd 9133 61bb
00000050: 32cb 2f3d 2b7b c0bc 40fb acbc 9256 a0bc
00000060: 974d 693d 7e65 623c 4ae4 0a3d 2ebc f53d
00000070: a0de f03c 6952 9439 9242 eb3c 3b05 6e3d
00000080: 424f 08bc 981e d2ba b378 1a3b a532 af3b
00000090: 6b02 4cbd b130 293d c5ef 3f3d 8ae5 cd3c
000000a0: 9bbf 8fbd 4a2a 96bd dacc 0cbb 9db5 cfbc
000000b0: 4c62 b9ba 83c6 01bd 0b5a 9f3b 5996 3abd
000000c0: b497 d4bc 9c5f 8abd b075 9bbd effa e43c
000000d0: 6e20 3d3d b94c 37be 8303 4abd 93f6 debc
000000e0: 2765 e43c 879e 21bd 38d6 b0bd 4df1 fcbb
000000f0: 355e 4d3a 66da 87bc 32f8 193d 70d1 b43d
00000100: 5d48 51bd e59e 26bd 1c87 353c 356e a13c
00000110: 18bf 98bd 43c0 e33d bd36 18bd c0b6 303a
00000120: d503 b3bc 1fbe da3b e22e 14bd 8a46 c7bd
00000130: f3b2 af3a 1cae 84bd 791a ee3a ce28 2a3c
00000140: 1611 0bbd 6f31 54bc af6c 0dbd 385f 33bc
00000150: bc23 643b eceb 243d cde2 6a3c a371 b1bb
00000160: 579d 3c3d f455 cdbc b7c6 9a3c f833 a63c
00000170: 0eaf 303c a936 263d 50f5 94bd f46a 433d
00000180: 30ff df3d 55fc 543d e20d 62bd d3ad 32bd
00000190: 5b1f f6bc 9f38 09bd 6800 7d3a 0329 193d
000001a0: d69d 57bc dab2 69bb 467e 8cbd 0961 2e3d
000001b0: 834e d6bb cd9b 843d 862c ea3c 44e5 a8b9
000001c0: c254 22bc f44b 7ebd 6463 63bd f6c6 833d
000001d0: b84f 3ebc e95d 22bc 3dc2 373d 775e 38bc
000001e0: 9990 b03d 4828 37bd bbee b1bc bd65 7cba
000001f0: 740c 733d a492 5cbd 0a1f ba3d 83f9 da3d
00000200: 27dc dcbd 80c8 9f3a 91bd 13bc 5733 e73d
00000210: a9df db3b 273c a43d 9cdb 0ebd 6308 c73c
00000220: 3ed5 16bd 9bff 3a3d 0b06 663b 7584 b4bd
00000230: d1bf 34bc 1de6 723d 07ab 5bbd 8516 cb3d
00000240: ef6f 5abd d6c4 27bd 484f 33bc 6056 a9bd
00000250: df80 4e3b 307d c4bd c73d bfbd 391f 2b3c
00000260: ab7e 66bc e6ea db3c cc10 853c 8aa0 113c
00000270: 9a48 4e3d 3720 acbc 80bc 883d 8550 693d
00000280: 5d66 37bc 6092 593b 7f60 14bd 46f7 d4bc
00000290: 3413 50bd ff99 2d3d 2c70 193d e973 8cbc
000002a0: 3c73 d4bd 3c2c 49bd d239 76bd ee9b 553d
000002b0: 7781 05bc 21eb e03c 081d 7f3d 5e9c 443c
000002c0: 4a1d abbc 6e1c 09bd d84e 17bd e425 243d
000002d0: 6814 993c 2846 62bd 05ab dcbd 5cfb 5abc
000002e0: d894 e039 3a59 a6bd 5d5b 063d f0e7 adbd
000002f0: 518d 6bbd 468e f9bc bb33 083c 29fd 2e3d
00000300: 79e7 023c 956b 273d 75b1 293c 697e 3a3d
00000310: ed23 c2bc e196 753d 036b f5bc 24c8 dbbd
00000320: 675e c7bc 42f4 aabc e83d c3bc 22d7 2c3d
00000330: e370 7abc 485f c2bc e228 98bd 59d9 1bbd
00000340: d7e6 5ebd 8b63 c9bd 76a8 b5bc bcae 22bd
00000350: 4198 c4bd 8c73 77bc e615 debc 2dd1 8dbd
00000360: c4d5 b83d 8ca5 a03b 64da fc3b b801 8bbc
00000370: 479a 8abc 80c7 bfbb 3c54 11bd d02d 3d3d
00000380: 79d9 9f3c cb68 dd3d e708 783b 8904 4cbc
00000390: feee e0bd 279c c43c 78ec 93bd 92b0 aa3c
000003a0: aae1 da3d 2e76 3ebd b39b ad3c 4c03 f2bc
000003b0: 915b 593d 2635 c9bb 2c85 7cbc aeef 8bbd
000003c0: 46b4 34bd ceda 0d3d dbbe 9e3d ee7d 303b
000003d0: 04c0 7ebc 1e6a febd f063 043d 9e8d 873d
000003e0: 76c8 613d e066 c4bc 12c2 3fbd 0d6e 98bc
000003f0: e047 69bb d1d6 843c fb9a 37bd e242 7a3d
0.025544265 -0.053449113 0.020802557 -0.0047689066 -0.085708395 0.074438944 -0.03343593 -0.04508166
0.0534728 -0.095718645 0.05973762 0.057247367 -0.029506572 -0.019378018 -0.007872701 -0.026216902
0.046656787 -0.0039215153 -0.115858085 -0.0034363011 0.04291839 -0.023496231 -0.0211159 -0.01957253
0.05695876 0.013818143 0.03390912 0.11998783 0.02940303 0.0002829016 0.028718267 0.058110457
-0.008319678 -0.0016030846 0.0023570477 0.0053466135 -0.049806993 0.0413062 0.04685952 0.025133867
-0.07018968 -0.07332285 -0.0021484406 -0.025355155 -0.0014143675 -0.031683456 0.004863029 -0.04555354
-0.025951244 -0.06756517 -0.075908065 0.027951686 0.046173505 -0.17900361 -0.049319755 -0.027217185
0.027880264 -0.039457824 -0.08634609 -0.007719195 0.00078341673 -0.016583633 0.037590213 0.088290095
-0.0510944 -0.040678877 0.011079576 0.019705871 -0.07458323 0.111206554 -0.037161577 0.0006741099
-0.021852413 0.006675496 -0.036177523 -0.09730251 0.0013404771 -0.06478521 0.0018165848 0.010385705
-0.03395184 -0.012951239 -0.034527477 -0.010947995 0.0034811338 0.040264055 0.0143363 -0.005415158
0.04604849 -0.0250654 0.018893583 0.020288453 0.010783924 0.04057947 -0.07273352 0.04770942
0.10937345 0.051998455 -0.05518902 -0.043622803 -0.030044248 -0.033501264 0.00096512446 0.037392627
-0.01316019 -0.0035659582 -0.06860022 0.04257301 -0.006540121 0.06475029 0.028585684 -0.00032214273
-0.009907903 -0.062084153 -0.05551471 0.06434433 -0.011615686 -0.009910085 0.044862974 -0.011252991
0.0862133 -0.04471615 -0.02172028 -0.00096281973 0.059338048 -0.053850785 0.090879515 0.10692122
-0.10784178 0.0012190491 -0.009017364 0.11289089 0.006710012 0.08019286 -0.034877405 0.024295991
-0.036824457 0.04565392 0.0035098817 -0.08814327 -0.011032061 0.059301484 -0.0536299 0.09916405
-0.053329404 -0.0409592 -0.010944195 -0.08268428 0.0031509919 -0.0959419 -0.09337955 0.010444456
-0.014068286 0.026845407 0.016243361 0.008888373 0.050362207 -0.021011455 0.066765785 0.056961555
-0.011193839 0.0033198819 -0.03622484 -0.025996815 -0.050799564 0.04238319 0.03746049 -0.017145114
-0.10373542 -0.04911445 -0.060113735 0.05215066 -0.008148543 0.027455868 0.062283546 0.0120001715
-0.02088799 -0.03347438 -0.036940426 0.040075198 0.018686488 -0.055242687 -0.10774807 -0.013365593
0.00042835507 -0.08122487 0.032801975 -0.08491504 -0.057507817 -0.03046335 0.008313115 0.0427219
0.007989758 0.040874083 0.01035725 0.04553071 -0.023698771 0.059958342 -0.029958254 -0.10731533
-0.024337007 -0.020868424 -0.02383323 0.042197354 -0.015285703 -0.023727074 -0.07429673 -0.038049076
-0.054419365 -0.098334394 -0.022175055 -0.03971742 -0.09599353 -0.015103232 -0.027110051 -0.06924663
0.090251476 0.004902547 0.007716464 -0.016968593 -0.016919268 -0.0058526397 -0.035480723 0.04618627
0.019512879 0.10811003 0.0037847103 -0.012452253 -0.10983084 0.02400024 -0.07222837 0.020836148
0.10687573 -0.046499424 0.021192407 -0.029542588 0.05306584 -0.006140369 -0.01541261 -0.06832825
-0.044117235 0.034632497 0.077512465 0.0026930529 -0.01554871 -0.12422584 0.03232187 0.06618808
0.055122815 -0.023974836 -0.04681594 -0.018607164 -0.003559582 0.016215714 -0.044825535 0.06109894

network_body._body_endoder.seq_layers.2.bias f4 [256]
00000000: f436 7a3c a335 a2ba 8738 973c d830 e63b
00000010: fd08 e23c 3cca ab3c 5920 793c d3f3 8abb
00000020: 9eed 193c d792 3d3c e650 033a 0938 123c
00000030: 49aa f6ba 45cb 343c 6752 2a3c a304 a33b
00000040: 85ba 0a3c 7a46 443c d0f3 493c 08d0 783b
00000050: 3a60 413c dfe7 803c 0aff 10bc 0238 4e3c
00000060: e4f6 4a3c 7ddb c83c f92b c53c 7440 653c
00000070: 1557 363a 2d43 773b 60ca 0a3c 91b4 7b3c
00000080: 1c36 923c 59e9 983c 33a3 4e3a 2e29 643c
00000090: 8224 3a3c 8730 9e3c 9e3c 98bb 0dc5 1e3c
000000a0: e36c 8abc 14ef b63c 2511 f139 6f7e 71ba
000000b0: b97b 053d 80f3 e13c 8e33 f33b 6a46 653c
000000c0: 4c58 693c a7ea aa3c a21f ba3c a209 933c
000000d0: 2e5a db3c 3a67 603c 4de4 0a3c 39db b43c
000000e0: ac08 503c 5390 ea3c 6f12 c13c 8396 9f3c
000000f0: 0ba2 d43b c8a5 913c a03b 94bb b45f 983c
00000100: 9962 063d e7e1 133a 18ed 82bb b54e 913c
00000110: 6475 d538 2a4f 683c 69ee 483c ddb3 753c
00000120: f38b 983c 19bb 8d3c 1b74 de3b a2ce 8b3c
00000130: 1639 c63b c6fd 683c 1c01 ecbb 0357 543c
00000140: 6f22 ab3a f734 a6ba aa9f 053d f14a 9d3c
00000150: 6bd5 283c f09c 4a3c 7fcc a4ba 6302 ad3c
00000160: 3040 763c 0f52 913c c6e9 87bb 0b9b ac3c
00000170: 0bb2 8d3c c3fc b93c d7f5 b13c 0fd2 fb3b
00000180: c63d 453c 9ce2 3b3a a00d 22bc 801b 913c
00000190: 5b7f eb3b cec9 b23c 7ffc da3c c8f7 c33c
000001a0: 2c00 fd3c 2383 2d3c 6702 f83c 34be 9c3c
000001b0: 03fa 243c 582b 1cb9 d4a4 97bb 63d9 c03a
000001c0: 6fbd 473c 209b b13c d406 d93c 522b 263c
000001d0: b1d9 a13b 6c8e c3b9 e579 b3bb 1ad8 a63c
000001e0: 3900 553c 0857 373c b55f bd3c 8958 6c3c
000001f0: ad9a 443c 8474 b53c 01e1 a73c d6b3 92bb
00000200: 52aa 9abc c3a7 803c 545e 843c 6c90 84bb
00000210: 0f7b fb3c e747 343b f73f 163d 194c 273c
00000220: 1683 a53c 75ea 963c b006 983c ce15 d83b
00000230: 462f d4bb a628 85bb fbfb 393c 4799 903c
00000240: 61ac 0a3a ce59 443d ee53 2b3c 20a7 ea3c
00000250: a2c7 9bbb b5a2 703c b989 b83b 011e 7c3c
00000260: 1330 723c bffc e13c aef0 533c 0d04 253b
00000270: d299 c93c 8fa6 9d3a 0b8c 553b 9fdf 183c
00000280: 7bec eb3c 216a 9d3c d63a ab3c 6f13 1d3d
00000290: 29cf d83c 9334 33ba 2bb9 b63c 0af0 913c
000002a0: b367 1d3c 4f4e 0b3d caf6 fd3c baf6 e13c
000002b0: e263 963c 17b5 d83c 5c01 853c bcf9 723b
000002c0: 3fc3 5b3c 0dc9 64bc cd19 893c 4d4f 4d3b
000002d0: a620 943c 0757 103b bb3e 473c 5bbf 253b
000002e0: 784d c53c c672 d03c 1b22 a43c 5527 5e3c
000002f0: 1fe4 be3c cf9a 923c 31bf 453c 46c9 c43c
00000300: ec02 b23c df5a b33b 7899 613c 7d40 ae3c
00000310: ee0d e43c 1074 c33b 3394 853c 2ee8 583c
00000320: 1583 e53c f8c6 5c3c 9863 a13c 2b6a 87bb
00000330: d83b 8c3c a13e d73c 23b7 7f3c bc64 a33c
00000340: 8643 eb3c 2620 1ebb be7b c63c d4c8 393c
00000350: c58c 89bb e2d1 093d 7802 d33b ed9a 9e3c
00000360: 84ca 1f3c 4957 693c 674e 4a3c 868f 833c
00000370: cb11 913c c68f cc3c 47b2 9f3c 5922 9b38
00000380: 753c 473a 8a01 433a de76 ce3c 1e25 653a
00000390: 4a04 8b3c 2a47 7aba d671 6e3c dfc1 3cbc
000003a0: 42a7 bd3c cc5d 8d3c bbde 34bc 759a 433c
000003b0: f40e 833c da80 dbbb d1b6 a73c 0766 b43c
000003c0: e4d0 443c 12a5 213c b190 f03c e605 84bc
000003d0: 6519 a53c a3c8 953c 4cdc f73a 8fe3 af3c
000003e0: cd0d 0b3d 6ea5 573c 84a2 053d 691b e33c
000003f0: 6de9 a63c eb14 d53c f17b 243b 0d07 cf3b
0.015271891 -0.0012375604 0.018459572 0.0070248656 0.027592177 0.020970456 0.015205466 -0.004240492
0.009395031 0.011570654 0.0005009308 0.008924493 -0.001881906 0.011034791 0.010395623 0.004974918
0.008467321 0.011979694 0.012326196 0.0037965793 0.011802727 0.015735565 -0.008849869 0.0125865955
0.012387965 0.024518723 0.02406882 0.013992418 0.0006955725 0.003772925 0.0084711015 0.015362875
0.017848067 0.018665956 0.0007882595 0.013925834 0.011361243 0.019310249 -0.004645898 0.009690535
-0.016897624 0.022330798 0.00045979876 -0.00092122605 0.032588694 0.02758193 0.0074219173 0.013993839
0.014242243 0.020863844 0.022720162 0.01794893 0.0267764 0.013696486 0.008477283 0.02207719
0.01269738 0.028633272 0.02356836 0.01948095 0.0064890436 0.017779246 -0.0045237094 0.018600322
0.032808874 0.0005641267 -0.003995549 0.017737726 0.00010178497 0.01417903 0.012263873 0.014996496
0.01862142 0.01730113 0.006788743 0.017066304 0.0060492856 0.014220661 -0.0072022807 0.012960198
0.0013056527 -0.001268058 0.03262297 0.019200774 0.010304789 0.012366518 -0.0012573152 0.021119302
0.015029952 0.017739324 -0.004147741 0.021070024 0.017296812 0.022703534 0.02172367 0.007684953
0.012038654 0.00071672513 -0.009890944 0.017713308 0.007186813 0.021824744 0.026731728 0.023921862
0.030883871 0.010590347 0.030274583 0.019133665 0.010069373 -0.00014893466 -0.0046278033 0.0014713224
0.012191161 0.021680415 0.026492514 0.010142164 0.004939281 -0.0003729941 -0.0054771774 0.020366717
0.013000541 0.011190183 0.023116926 0.014425405 0.011999768 0.022150286 0.020493032 -0.0044770045
-0.018880043 0.015704995 0.01615826 -0.0040455367 0.030698327 0.0027508677 0.036682095 0.010211014
0.020204108 0.018422345 0.018557876 0.006594396 -0.006475362 -0.0040636836 0.011351581 0.017651213
0.00052899687 0.047937207 0.010457022 0.028644145 -0.0047540227 0.01468723 0.005631652 0.015388013
0.01478197 0.027586339 0.0129358005 0.0025179416 0.02460948 0.0012027788 0.0032584693 0.009330659
0.028799286 0.019215645 0.020902079 0.03834861 0.02646597 -0.0006836142 0.022305092 0.017814655
0.009607243 0.034010228 0.031001467 0.027583469 0.018358175 0.026453538 0.016236 0.0037075123
0.0134132495 -0.01396395 0.016735936 0.0031327785 0.018081974 0.0022024529 0.012160952 0.0025291059
0.024084792 0.025445353 0.020035794 0.013559182 0.023302136 0.017896084 0.012069509 0.024021756
0.021729909 0.005473479 0.0137695 0.021270985 0.027838673 0.0059647635 0.016306018 0.01323895
0.028016606 0.013475172 0.01970081 -0.0041325293 0.01711838 0.026274981 0.015607628 0.019945495
0.028718721 -0.0024128049 0.024228927 0.011339385 -0.0041976892 0.033647425 0.0064395033 0.019360984
0.009752873 0.014242002 0.012347794 0.016059648 0.01770868 0.0249709 0.019494189 7.397374e-05
0.00076002564 0.0007438889 0.025203165 0.00087411876 0.016969819 -0.00095473474 0.014553508 -0.011520832
0.023151044 0.01725664 -0.011039431 0.011938681 0.015998341 -0.00669871 0.020472916 0.022021307
0.012012694 0.009866016 0.02936587 -0.016116094 0.02015371 0.018284148 0.0018910258 0.021470813
0.03394871 0.013162 0.03262569 0.027723031 0.020374978 0.026010951 0.002509829 0.006317979

network_body._body_endoder.seq_layers.2.weight f4 [256, 256]
00000000: ae2e fabc d370 8f3c 2609 59bd 8a22 ee3c
00000010: 0e4d 6e3d 5c7a 303d ee68 bf3c a9e9 0fbd
00000020: a168 d4bd 7a37 3cbc b6cf 3dbd 1d0f 863b
00000030: cc71 41bb abe3 4f3d 0765 e63c 609e 89bb
00000040: 8428 213c e9f9 fe3c 0da2 a3bd 40cb febd
00000050: b804 7a3d 7cf4 743a b44e fdbc d7be ec3d
00000060: 5076 8ebd ce4c 04bc 02cf 1d3e 64bf 3e3d
00000070: e185 9f3d ad37 213e f8b5 b1bd eefb bbbb
00000080: 044c d13c d5a7 c3bb 5878 52bd 2752 38bc
00000090: d3d3 523d f8ba 9c3d 0cd2 63bd d140 adbd
000000a0: 214d 15bd 535f 253b 7f77 2bbd 3c80 903d
000000b0: 1af2 a5bb 55cd 723d 4e2b 5c3c c0ea a9bc
000000c0: d830 933d 9ec0 c73d 97d0 87bb c1b8 523d
000000d0: f5e8 89b9 a94c 0b3d 247c 0e3e abd2 883b
000000e0: e228 b13c 7701 2d3d 47eb b83c f3a7 e4bc
000000f0: 4045 693d 3d3c 243d 25cb 51bd 02c2 0ebd
00000100: 4e6b 923d 5bf2 063e ada2 a63d 695b 62bc
00000110: 24df 7ebd 665d 2c3d df6b 123e 128b 693c
00000120: 777d 4bbd f271 c1bd 0312 69bb f939 a33d
00000130: 8230 553d 7cb4 9bbb cb39 473d 96a6 2bbc
00000140: 5144 b13d 888e 27bc c9d8 2c3d a3d8 70bd
00000150: 8c6f eabd 86ad 9fbb cdc6 c3bd 41d3 aebc
00000160: d7dd b9bd b57f 223e 8cc1 89bc 39e2 9ebd
00000170: 0090 833d 71b0 143d dd35 673b d501 4fbd
00000180: fdff 4e3d 4a01 db3d 30ff 853c e306 0a3d
00000190: bbc0 bb3d 0b0f 87bd 212b 883d 24ab a4bd
000001a0: 1271 553d 1766 89bd d9c2 a43d 640e 293e
000001b0: a44c a33d 0656 9fbd 5281 1fbd 854e 943d
000001c0: 753c 4e3d 4801 db3b 7091 6b3d 3097 75bd
000001d0: 422d 95bb 94dd a2bd 29a6 bbbb 323b d03c
000001e0: 25d2 88bd bcad e3bb 1038 a63d 9ede 4e3d
000001f0: 2ad3 b43b c6a2 74bd 4bf9 413d 3a80 48bd
00000200: 0338 953d e512 233d 532c 3b3d b187 c53c
00000210: 0fe7 dd3c 50a8 8c3c df55 0fbe 5e2e 99bd
00000220: ad51 b53d 3153 413c 497b 63bc c3e8 0a3d
00000230: 37df 1b3c 5a8a 48bd a0e0 e43d 8130 1fbd
00000240: 5338 8cbd d7ae f63c 999a 90bc 3843 8abc
00000250: 0636 363d 5943 1ebd 2b02 bbbb 72ab 303c
00000260: 83f6 c9ba 50bb bbbd 2f6d 6d3d f411 47b9
00000270: 8ee6 183d 0834 4fbd bf01 c1bb af4e 27bd
00000280: 4421 fa3d daac dd3a 7c9b 2dbc 6d5f 1f3d
00000290: bd63 cdbd 41b1 f13d 0049 2a3e 3d76 26bd
000002a0: c557 cfbd cbcd a63d 4b72 e33b 066d d43d
000002b0: 575c 06bc 45a4 433d 1ee3 3f3d dd19 5cbc
000002c0: 6337 80bd 66fa 853d 0440 e0bd 43c2 753d
000002d0: a3c8 6e3d 1f55 ebbb 2c1b febc ed9f 06be
000002e0: 8b08 02bc 51a3 2e3d af24 abbd 90a4 c7bc
000002f0: ebb9 743d 3ffc 5fbd c34e a73c f77e d43c
00000300: 5621 f7bb be17 563d d7d2 2a3d f5ad 5f3c
00000310: d0c2 19bd 4739 84bc 519e 893d aff5 84bd
00000320: 1060 cabb 60e7 37bc ba19 173d f40c 12be
00000330: 2a39 7b3b 2163 1dbd 98d0 f3bd 740d fd3d
00000340: 02b4 17bb 95d9 d83d cddc d8bc 6450 18bd
00000350: 3cb0 e8bb b136 683d a5b6 ac3d 6162 63bd
00000360: 59e4 06bc 2bdf 853c 90c4 c13d 838c 9b3c
00000370: 4fed b23c df04 883d ad09 763d 4971 413d
00000380: 699e 94bb d302 50bd 61b7 aa3b 4e44 a43d
00000390: a20d 71bd cc12 bfbc 2bc7 1c3c d87c 0b3e
000003a0: a923 f1bc 7d9d 0a3e ba5c 333d 52d5 bdbc
000003b0: 9992 debc 8c3a fabc a79d e33d aeae 6bbd
000003c0: dd9d 83bd b746 c63d bcc4 963c d49e ec3b
000003d0: 67b0 753c 5aed f53c 3fb1 67bd f515 cd3d
000003e0: 1b70 82bd 2f25 26bd 5f71 7eba f293 96bb
000003f0: 3ff2 d83b b5bd 7dbd 8daa 623d cd47 df3c
-0.030539837 0.017509853 -0.05298724 0.029069204 0.058178954 0.04308544 0.023365464 -0.035134945
-0.10371519 -0.011487836 -0.046340667 0.004091157 -0.002951729 0.05075423 0.028124345 -0.004199788
0.00983632 0.031125026 -0.07989893 -0.124411106 0.061039656 0.00093442923 -0.030921318 0.11559837
-0.0695616 -0.008074952 0.15410998 0.046569243 0.07789207 0.15743895 -0.08677286 -0.0057368195
0.025548942 -0.005970935 -0.0513843 -0.011250055 0.051471543 0.07652849 -0.05562024 -0.084596284
-0.03645051 0.002523382 -0.041862007 0.07055709 -0.005064261 0.05927785 0.013438059 -0.02074182
0.071870506 0.09753536 -0.004144739 0.051445726 -0.00026304243 0.034008656 0.13914543 0.004175504
0.02162594 0.042237725 0.022573126 -0.027912116 0.056950808 0.04009651 -0.051219124 -0.03485299
0.07149373 0.13178389 0.08136497 -0.013815739 -0.062224522 0.04208126 0.14298962 0.014254348
-0.0496802 -0.094455615 -0.0035563714 0.07970042 0.052048214 -0.00475174 0.0486391 -0.010476729
0.086556084 -0.010226853 0.04219893 -0.05880035 -0.11447057 -0.0048729805 -0.095594026 -0.021340968
-0.09075516 0.15869029 -0.016815923 -0.07757992 0.0642395 0.03630108 0.0035279908 -0.050538857
0.0505371 0.10693605 0.016357034 0.033697974 0.0916762 -0.06594666 0.06648851 -0.08040455
0.052109785 -0.06708925 0.08044977 0.16509396 0.079736024 -0.077800795 -0.03894169 0.07241539
0.050350625 0.0066835023 0.057511747 -0.059958637 -0.0045525143 -0.07952419 -0.005726595 0.025418852
-0.06680707 -0.006948201 0.08116162 0.050505273 0.005518337 -0.059725545 0.047356885 -0.04895041
0.07286074 0.03981294 0.045696568 0.024112554 0.027087716 0.017170101 -0.13997601 -0.07479547
0.08853469 0.0117996195 -0.013884374 0.033913385 0.009513668 -0.048960067 0.11175656 -0.038864616
-0.068466805 0.030112667 -0.017651843 -0.016877756 0.044485115 -0.038638446 -0.0057070456 0.010783063
-0.0015408549 -0.091665864 0.057965454 -0.00018984807 0.03732925 -0.05058673 -0.0058901007 -0.040846523
0.12213376 0.0016912476 -0.010596152 0.038909364 -0.10028789 0.118013866 0.1662941 -0.040640105
-0.101241626 0.08144721 0.006941115 0.10372357 -0.0082007265 0.04776408 0.046847455 -0.013433901
-0.06260564 0.065419 -0.1094971 0.059999716 0.05829681 -0.007181778 -0.031018816 -0.13146944
-0.007936607 0.04263622 -0.08356606 -0.024370462 0.059747618 -0.05468392 0.020423299 0.025939448
-0.0075418158 0.052268736 0.04170498 0.013652314 -0.037539303 -0.016140593 0.067196496 -0.06492173
-0.0061760023 -0.011224598 0.03688977 -0.14262754 0.0038333633 -0.038424615 -0.119050205 0.123560816
-0.0023148065 0.105883755 -0.026472474 -0.03718604 -0.007101087 0.056692783 0.08433274 -0.055513743
-0.008233153 0.016341766 0.094613194 0.0189879 0.021841673 0.06641554 0.06006782 0.047227178
-0.0045354855 -0.050783943 0.0052098488 0.080208406 -0.058850892 -0.023324393 0.00956897 0.13621843
-0.02943595 0.1353664 0.043789603 -0.023173008 -0.027169513 -0.030545495 0.11114054 -0.057539634
-0.064265944 0.096814565 0.018404357 0.007221082 0.014995671 0.030020405 -0.05656552 0.100139536
-0.06369039 -0.040562805 -0.00097062247 -0.004595273 0.006620675 -0.061948497 0.05533843 0.027255917
