Assets/NN/Level1/CharacterBehav_old_dj.onnx (onnx, 268569 bytes, 9 tensors)

action_model._discrete_distribution.branches.0.bias f4 [3]
-0.07931207 0.042445265 0.008258662
00000000: 5e6e a2bd 16db 2d3d 574f 073c

action_model._discrete_distribution.branches.0.weight f4 [3, 128]
-0.0013360403 0.045391873 0.051811278 -0.12827195 -0.095151916 0.08267638 -0.025392998 0.048473798
0.055547643 0.06058013 0.041516356 -0.074264914 0.048022944 0.019920072 0.1613326 -0.04063393
0.019751417 0.060579445 -0.05868129 0.06595468 0.08670301 -0.027636474 0.08266035 -0.023122225
-0.009315106 -0.03765662 -0.067124665 0.028914168 -0.02776321 -0.039824307 0.0071209418 -0.09335667
0.040148556 -0.014246479 -0.053115517 0.100984104 0.018574504 -0.016621063 0.16397014 0.129737
0.06949091 -0.18397193 -0.04775377 -0.104211375 -0.030854411 0.0025394796 0.035871483 -0.056788467
0.07593486 -0.028966393 -0.021804057 -0.07382863 -0.04396221 0.16741791 0.09107345 -0.061578743
0.11852154 0.023077168 0.061556213 0.16511919 0.13238183 -0.038524363 0.13179585 0.0882964
-0.047549337 -0.016928945 -0.0042086137 0.09506063 0.02781694 -0.043276943 0.0075328024 0.12664008
-0.004615631 0.09384588 0.21249935 -0.08170243 -0.00097417017 0.0053841807 0.022933464 -0.10698186
0.074708745 0.038417555 0.08651758 -0.011070825 0.043789465 -0.16321482 0.06751163 -0.07051739
0.012827956 0.020302413 -0.04051238 0.06302638 0.062177647 -0.10009334 -0.069237955 0.058411546
-0.06022259 0.08029304 0.010138288 0.0073707644 0.07746457 0.02023999 -0.010836347 0.046538185
-0.09360497 -0.10050027 0.09599235 -0.056279905 0.11318895 0.08214657 -0.060794715 -0.042799186
-0.0038525031 -0.015995424 0.017398506 0.015999613 -0.0025705288 0.040837113 0.0073412806 0.040802415
0.029525941 -0.07997469 -0.0720683 -0.019476522 0.0064026313 0.008683475 0.044090204 -0.030756941
0.011806931 -0.05691357 -0.012961358 0.11129892 0.16433468 -0.06513593 0.10566283 0.025076324
-0.07106307 0.039281424 -0.029812919 -0.013300913 0.08122694 -0.051401097 0.009655823 0.024628721
0.19465117 -0.027207103 -0.07501648 -0.083382785 0.039198186 -0.01482356 -0.03243685 0.023958005
0.029575093 0.011492644 0.1872936 0.10110605 -0.064899586 -0.082434006 0.043251354 0.05345339
-0.001912993 -0.041990988 0.1322578 0.05392409 -0.21393242 0.026200984 0.07025168 -0.16965076
0.071480475 0.26254395 0.027838264 0.050977614 0.015765589 -0.051426042 -0.0771214 -0.028057922
-0.05987046 -0.061607327 0.01910698 -0.11191455 0.0034806572 -0.13768761 -0.05164619 -0.017020026
-0.09071554 -0.12210621 -0.01945442 -0.12027745 -0.05629605 0.029629787 -0.015298751 -0.10346957
0.04369793 0.048730824 -0.02536483 -0.029168053 0.03425919 -0.01807422 -0.044865757 -0.050893184
0.05292534 -0.08398509 0.009095263 0.06925492 -0.046468716 -0.0020524547 0.04077543 0.028137561
-0.030958848 -0.11019218 0.0071032974 0.018418884 -0.20982723 0.09708991 0.035694905 0.1269837
-0.0078813825 -0.1520275 -0.053465184 0.031474687 -0.0351346 0.14451644 -0.17315637 -0.122895636
-0.08134671 0.02262894 0.01633784 0.00196721 -0.042015526 0.023438126 -0.069800645 -0.047274392
0.021147482 0.13729234 -0.08728737 0.15204051 -0.08597556 -0.08908388 0.009387218 0.04587322
0.12524565 -0.0427623 0.0048175664 -0.04514942 -0.04903544 -0.02216019 0.01613785 0.0859699
-0.040891252 0.1849256 -0.1035251 -0.19992208 -0.012001284 -0.060069475 0.19193363 0.03920233
00000000: 131e afba d4ec 393d 1038 543d b959 03be
00000010: 02df c2bd 3c52 a93d fa04 d0bc 768c 463d
00000020: ed85 633d df22 783d 0e0d 2a3d 3418 98bd
00000030: b5b3 443d 6b2f a33c 6034 253e c46f 26bd
00000040: b9cd a13c 2722 783d cb5b 70bd 3f13 873d
00000050: 5991 b13d e365 e2bc d449 a93d d26a bdbc
00000060: 639e 18bc d43d 1abd a878 89bd 68dd ec3c
00000070: ac6f e3bc d01e 23bd ca56 e93b c831 bfbd
00000080: d072 243d 106a 69bc a88f 59bd c1d0 ce3d
00000090: 8f29 983c e528 88bc cae7 273e c7d9 043e
000000a0: 4051 8e3d 2363 3cbe 7599 43bd c66c d5bd
000000b0: 64c2 fcbc 666d 263b faed 123d 069b 68bd
000000c0: bc83 9b3d ee4a edbc 6c9e b2bc 7733 97bd
000000d0: b811 34bd 9a6f 2b3e b884 ba3d fe39 7cbd
000000e0: 6cbb f23d 540c bd3c 5e22 7c3d 0115 293e
000000f0: 1a8f 073e b9cb 1dbd 7ef5 063e bed4 b43d
00000100: 18c3 42bd 92ae 8abc 69e8 89bb 26af c23d
00000110: 5ae0 e33c 2a43 31bd bad5 f63b f0ad 013e
00000120: b83e 97bb 4532 c03d 6e99 593e 9b53 a7bd
00000130: 745f 7fba c86d b03b f6de bb3c 4e19 dbbd
00000140: e600 993d ba5b 1d3d 2130 b13d 6862 35bc
00000150: 955c 333d c921 27be 8a43 8a3d 6c6b 90bd
00000160: 592c 523c 3f51 a63c 4ff0 25bd fa13 813d
00000170: fdad 7e3d bdfd ccbd a1cc 8dbd f240 6f3d
00000180: f6ab 76bd ad70 a43d 101b 263c 7486 f13b
00000190: bfa5 9e3d 56ce a53c ef8a 31bc d39e 3e3d
000001a0: f6b3 bfbd 16d3 cdbd a397 c43d c285 66bd
000001b0: 9ccf e73d 763c a83d e103 79bd 334e 2fbd
000001c0: 477a 7cbb d608 83bc 5087 8e3c 9f11 833c
000001d0: 5176 28bb d144 273d 208f f03b 6f20 273d
000001e0: 63e0 f13c c5c9 a3bd 8b98 93bd 3a8d 9fbc
000001f0: 2acd d13b 2245 0e3c ee97 343d fbf5 fbbc
00000200: dc71 413c 341e 69bd e05b 54bc b0f0 e33d
00000210: 5a47 283e fd65 85bd c165 d83d dd6c cd3c
00000220: 8489 91bd 8fe5 203d 393a f4bc 13ec 59bc
00000230: 4f5a a63d f589 52bd 7533 1e3c 2cc2 c93c
00000240: a352 473e 6ee1 debc 3ea2 99bd 98c4 aabd
00000250: 478e 203d 84de 72bc 81dc 04bd 9443 c43c
00000260: 7747 f23c a54b 3c3c e5c9 3f3e b010 cf3d
00000270: 13ea 84bd 29d3 a8bd 5528 313d f1f1 5a3d
00000280: 65bd faba befe 2bbd 976e 073e 82df 5c3d
00000290: 1a11 5bbe 72a3 d63c 1de0 8f3d eeb8 2dbe
000002a0: 5b64 923d 296c 863e 120d e43c e7cd 503d
000002b0: d626 813c 1da4 52bd d3f1 9dbd bad9 e5bc
000002c0: ba3a 75bd f757 7cbd 3e86 9c3c 7533 e5bd
000002d0: bd1b 643b fbfd 0cbe f58a 53bd 956d 8bbc
000002e0: 12c9 b9bd d212 fabd e05e 9fbc 0654 f6bd
000002f0: b096 66bd 2bba f23c 9da7 7abc dbe7 d3bd
00000300: 9afc 323d f999 473d e7c9 cfbc d7f1 eebc
00000310: 5d53 0c3d 6310 94bc 28c5 37bd 5f75 50bd
00000320: 3ec8 583d 6000 acbd 4c04 153c 86d5 8d3d
00000330: fb55 3ebd 7a82 06bb 2304 273d be80 e63c
00000340: 699d fdbc 70ac e1bd c7c2 e83b 33e3 963c
00000350: f3dc 56be 13d7 c63d d234 123d 0408 023e
00000360: ea20 01bc 19ad 1bbe 4ffe 5abd 9aeb 003d
00000370: 4ce9 0fbd 1efc 133e e74f 31be b5b0 fbbd
00000380: 1b99 a6bd 5460 b93c efd6 853c 4fec 003b
00000390: 7918 2cbd 5001 c03c a4f3 8ebd cba2 41bd
000003a0: 7c3d ad3c 5d96 0c3e b8c3 b2bd 82b0 1b3e
000003b0: f413 b0bd 9c71 b6bd d9cc 193c 8fe5 3b3d
000003c0: 6540 003e 8627 2fbd addc 9d3b 99ee 38bd
000003d0: 63d9 48bd 4989 b5bc 8633 843c fd10 b03d
000003e0: 967d 27bd 235d 3d3e f804 d4bd 60b8 4cbe
000003f0: 09a1 44bc 690b 76bd 408a 443e 9f92 203d

action_model._discrete_distribution.branches.1.bias f4 [3]
-0.022134213 0.046846583 -0.034262378
00000000: cf52 b5bc 34e2 3f3d b556 0cbd

action_model._discrete_distribution.branches.1.weight f4 [3, 128]
0.0670858 0.03601167 -0.03157564 0.054954365 -0.019976174 0.021371447 -0.033048235 -0.07134878
0.041045647 0.06192474 -0.060389917 0.014276547 -0.024210775 0.028869621 -0.008800549 0.028244214
0.030919785 0.03025593 -0.031819277 0.0835092 -0.04140176 -0.041092347 -0.028929226 0.011517431
0.05124463 -0.019069724 -0.05555677 -0.042059742 -0.12077968 -0.10646621 0.082882635 0.053273536
-0.07571081 0.11819763 0.09997558 -0.0014462947 0.05419114 0.13101588 -0.0053485776 0.08722273
-0.045638707 -0.0760339 -0.036347844 -0.04011093 0.07126279 -0.010706386 -0.026246348 0.011305979
-0.08870803 0.01658446 0.0033464339 0.07066945 0.034688227 0.04141588 -0.036506645 0.050380126
0.08215961 0.0648064 -0.07638916 0.07828229 0.041057646 -0.10430836 0.10707495 0.008728867
0.008363692 0.049428627 0.091355085 0.0070073307 0.2189113 0.11170343 0.025303075 -0.027534848
0.0051304237 0.10668597 0.10129716 -0.02492009 0.1303257 0.048359267 0.00090638513 0.045404714
0.062731594 0.09027914 0.012174636 0.06520346 0.0021614165 -0.101476856 0.28553024 -0.04271726
0.093762904 0.026317785 0.06742268 -0.14171332 -0.0026886174 0.04193954 0.040808618 -0.116170995
0.01934299 0.05568618 0.06939047 -0.01936601 -0.050630745 0.113491565 0.2027362 0.048172135
0.016220465 -0.049984552 0.03714991 -0.0050452384 -0.08151008 0.07594327 0.015861183 0.051494174
-0.03629661 -0.13044736 0.12317079 -0.09088943 -0.0040111314 -0.026245985 0.12225295 -0.11325243
0.0504686 0.13521561 0.14529799 0.033261575 -0.05912744 0.0006599995 0.039151255 -0.018501263
-0.07408963 -0.06024587 0.06691666 -0.038868498 0.007637135 -0.13913779 0.025077168 0.114199854
-0.11053036 0.016289795 0.028579075 -0.16584852 -0.01357155 -0.25397465 0.015875172 -0.1319811
0.0009551129 0.09247757 -0.07439747 -0.2106395 0.025908677 -0.032583803 -0.034928378 0.109273724
0.0018392787 -0.068866044 0.02163608 0.018449122 0.14549156 0.06098872 -0.1190156 -0.018272975
0.04976308 -0.10076995 -0.07148644 -0.11159938 0.008646719 0.016388515 0.0308284 -0.06359491
0.0045727077 0.027357265 -0.023494026 0.18675704 -0.04395536 -0.055643633 0.0776831 0.02639868
-0.11993743 -0.11884901 0.015458874 -0.014657394 -0.06320435 -0.11430784 -0.06745794 0.01771782
-0.07403612 -0.053600274 -0.017935397 -5.8886533e-05 -0.083114594 0.21216224 -0.1435441 -0.0013510046
0.032906234 -0.15333754 -0.070389085 -0.018130587 0.05342436 -0.12843987 -0.092603564 0.119750984
0.008621816 -0.024653701 -0.10427922 0.12888607 -0.019632097 -0.15466802 0.02204394 -0.081476115
-0.12835275 -0.062462837 -0.043509737 -0.0041447906 0.0017626499 0.13553557 -0.2089252 -0.04508791
-0.021495244 0.008363742 -0.020475155 0.16758636 -0.040813718 -0.050368592 0.021673774 0.07020016
-0.100581124 0.09837888 -0.12795044 0.067532204 0.14178932 -0.09201062 -0.15121047 0.0057591163
0.1101089 -0.020714905 -0.07352233 -0.1004144 -0.046297535 0.034607887 -0.07270825 -0.039418958
-0.024270978 0.14757599 -0.06100914 0.03201128 -0.07581964 0.017566707 -0.048809208 0.18241936
-0.097234346 -0.10728955 -0.14304775 -0.04077341 -0.042876765 -0.008329706 0.035438735 0.11204596
00000000: 4864 893d f980 133d 7555 01bd d417 613d
00000010: 13a5 a3bc 2c13 af3c 965d 07bd 4f1f 92bd
00000020: 7b1f 283d cca4 7d3d 6b5b 77bd 2ee8 693c
00000030: ad55 c6bc fc7f ec3c 2e30 10bc 6960 e73c
00000040: 7d4b fd3c 49db f73c ee54 02bd df06 ab3d
00000050: e494 29bd 7350 28bd fcfc ecbc 9bb3 3c3c
00000060: e4e5 513d 1c38 9cbc 7f8f 63bd d646 2cbd
00000070: 565b f7bd f50a dabd 5fbe a93d 5a35 5a3d
00000080: 450e 9bbd 9911 f23d ffbf cc3d 9991 bdba
00000090: 87f7 5d3d 0729 063e 1f43 afbb d5a1 b23d
000000a0: a7ef 3abd a9b7 9bbd 7ae1 14bd 5c4b 24bd
000000b0: 3af2 913d d669 2fbc 9502 d7bc b73c 393c
000000c0: 8eac b5bd 22dc 873c d84f 5b3b 25bb 903d
000000d0: 3e15 0e3d b3a3 293d fe87 15bd 645b 4e3d
000000e0: 4c43 a83d 38b9 843d eb71 9cbd 7752 a03d
000000f0: 102c 283d 9f9f d5bd 1d4a db3d 8603 0f3c
00000100: de07 093c ac75 4a3d 6018 bb3d c09d e53b
00000110: 492a 603e c5c4 e43d 6548 cf3c c390 e1bc
00000120: 1d1d a83b 2d7e da3d e374 cf3d 3725 ccbc
00000130: 1a74 053e 5e14 463d 7a9a 6d3a 4bfa 393d
00000140: 6c79 803d 45e4 b83d 2078 473c 6489 853d
00000150: 8da6 0d3b 19d3 cfbd 0531 923e 4bf8 2ebd
00000160: c406 c03d 6598 d73c e714 8a3d 4c1d 11be
00000170: 8433 30bb ccc8 2b3d f026 273d 0feb edbd
00000180: 3175 9e3c 3117 643d 971c 8e3d 77a5 9ebc
00000190: 2f62 4fbd 446e e83d 149a 4f3e 2550 453d
000001a0: c8e0 843c 9abc 4cbd 812a 183d 8752 a5bb
000001b0: c2ee a6bd 2588 9b3d 50ef 813c 8eeb 523d
000001c0: c1ab 14bd fe93 05be f840 fc3d 3d24 babd
000001d0: cf6f 83bb d201 d7bc c15f fa3d e4f0 e7bd
000001e0: 2ab8 4e3d f675 0a3e ffc8 143e 4a3d 083d
000001f0: 9d2f 72bd d103 2d3a 115d 203d f68f 97bc
00000200: 4ebc 97bd 60c4 76bd 9a0b 893d 9334 1fbd
00000210: ef40 fa3b 237a 0ebe a26e cd3c 9de1 e93d
00000220: be5d e2bd 2d72 853c aa1e ea3c 32d4 29be
00000230: 355b 5ebc f708 82be a60c 823c 0e26 07be
00000240: 8b60 7a3a e164 bd3d b35d 98bd e2b1 57be
00000250: 6f3e d43c 9876 05bd 0f11 0fbd e7ca df3d
00000260: f413 f13a a409 8dbd 263e b13c 9d22 973c
00000270: bdfb 143e 4fcf 793d 73be f3bd 35b1 95bc
00000280: 5fd4 4b3d 7a60 cebd 7c67 92bd 378e e4bd
00000290: f8aa 0d3c 3541 863c d78b fc3c 0c3e 82bd
000002a0: a7d6 953b 581c e03c 8b76 c0bc 3d3d 3f3e
000002b0: 890a 34bd 94ea 63bd 5118 9f3d 0b42 d83c
000002c0: c1a1 f5bd 1c67 f3bd 3847 7d3c 9125 70bc
000002d0: 4871 81bd 3b1a eabd 6327 8abd f624 913c
000002e0: 40a0 97bd f68b 5bbd 41ed 92bc effc 76b8
000002f0: fc37 aabd 0f41 593e 39fd 12be 3114 b1ba
00000300: b0c8 063d 8404 1dbe 2728 90bd 9986 94bc
00000310: 80d3 5a3d be85 03be f0a6 bdbd 0140 f53d
00000320: 8442 0d3c 8ff6 c9bc 5890 d5bd b6fa 033e
00000330: 7ed3 a0bc 4b61 1ebe 7e95 b43c f3dc a6bd
00000340: e76e 03be 08d9 7fbd 4437 32bd 06d1 87bb
00000350: b708 e73a d6c9 0a3e 7df0 55be 1aae 38bd
00000360: cb16 b0bc 1408 093c 83bb a7bc c29b 2b3e
00000370: 492c 27bd 4c4f 4ebd 338d b13c 1ac5 8f3d
00000380: 7afd cdbd de7a c93d 7105 03be 534e 8a3d
00000390: 3831 113e 1070 bcbd ebd6 1abe f8b6 bc3b
000003a0: c680 e13d 4eb2 a9bc e092 96bd 11a6 cdbd
000003b0: 7ca2 3dbd 00c1 0d3d 10e8 94bd c675 21bd
000003c0: eed3 c6bc 291e 173e b8e4 79bd 431e 033d
000003d0: 5447 9bbd 0ee8 8f3c 2aec 47bd 24cc 3a3e
000003e0: cd22 c7bd a0ba dbbd 1c7b 12be 0502 27bd
000003f0: 8c9f 2fbd 5279 08bc 3528 113d 5a78 e53d

discrete_action_output_shape f4 [1, 2]
3.0 3.0
00000000: 0000 4040 0000 4040

network_body._body_endoder.seq_layers.0.bias f4 [128]
0.02360324 -0.026545528 -0.055580482 -0.048071653 -0.04077185 -0.07507925 -0.052869964 -0.0038398355
0.017024169 -0.043379206 -0.040948566 -0.00068217533 -0.06847319 -0.0236953 0.0080382135 -0.015210922
-0.085308656 -0.037348516 -0.011778016 0.02940047 -0.0666453 -0.013502796 0.012906413 -0.036566082
0.008248965 -0.14658989 -0.0021224061 -0.030460227 0.007999812 -0.030115027 -0.0019113513 -0.003665656
-0.013112 0.052774955 0.0022624834 0.010888195 0.010879587 -0.023117712 -0.07452821 -0.07561445
-0.055963937 -0.044354405 0.031908937 -0.001331358 0.057169683 -0.016650101 0.012127289 -0.002739193
0.0038894971 -0.009276773 -0.07414332 -0.026542336 -0.007896465 -0.010072735 -0.03315155 -0.02691697
-0.06824183 0.008673939 -0.022461737 -0.022843808 -0.018150875 -0.03135538 -0.019983716 -0.018888548
-0.027113363 0.026435133 -0.060205773 0.0043688007 0.020578537 -0.015888512 -0.019144444 -0.100643985
0.0087777255 0.002244918 0.0052549415 0.029312668 -0.055719074 -0.044087246 -0.041190136 -0.013028494
-0.10663852 0.015640108 -0.019627986 0.031940438 -0.016387029 -0.023693025 -0.054327115 -0.005616838
-0.039893128 -0.008917694 0.018900992 -0.0144359125 -0.021726388 -0.0045866393 -0.01040273 -0.048102885
-0.04586999 0.006759984 -0.044681206 -0.022888638 -0.03058306 0.010112728 -0.02275564 -0.03594444
0.052975 -0.03053944 -0.019189542 0.003372005 -0.013828226 -0.008727871 -0.041671645 -0.024395326
-0.081165396 -0.021945838 -0.02322155 -0.10005699 -0.019932259 -0.0035549682 0.034255512 -0.04115584
0.015455058 -0.018287446 0.022879353 -0.013196684 0.019982709 -0.030248772 0.04703117 -0.066428944
00000000: 955b c13c 0276 d9bc 5ca8 63bd c8e6 44bd
00000010: 6200 27bd 26c3 99bd 2d8e 58bd c0a5 7bbb
00000020: 4576 8b3c 65ae 31bd afb9 27bd 03d4 32ba
00000030: ac3b 8cbd a51c c2bc b6b2 033c 3b37 79bc
00000040: 4eb6 aebd c2fa 18bd 94f8 40bc 41d9 f03c
00000050: 557d 88bd d53a 5dbc 6b75 533c 51c6 15bd
00000060: ab26 073c a91b 16be 1118 0bbb ba87 f9bc
00000070: a511 033c cab3 f6bc 4f86 faba 813b 70bb
00000080: b7d3 56bc 8d2a 583d 2c46 143b 6664 323c
00000090: 4c40 323c 5b61 bdbc 3fa2 98bd c0db 9abd
000000a0: 713a 65bd f7ac 35bd f2b2 023d f680 aeba
000000b0: c22a 6a3d cb65 88bc 89b1 463c 0884 33bb
000000c0: efe6 7e3b 9bfd 17bc 74d8 97bd 506f d9bc
000000d0: 2d60 01bc 1d08 25bc ebc9 07bd fa80 dcbc
000000e0: 5fc2 8bbd 231d 0e3c ad01 b8bc f022 bbbc
000000f0: 25b1 94bc 806e 00bd e4b4 a3bc 28bc 9abc
00000100: d81c debc 7e8e d83c 549a 76bd 2828 8f3b
00000110: 5294 a83c a028 82bc cfd4 9cbc 6f1e cebd
00000120: 73d0 0f3c 791f 133b a531 ac3b 1f21 f03c
00000130: af39 64bd d494 34bd fdb6 28bd 7775 55bc
00000140: 4c65 dabd af1f 803c dfca a0bc fad3 023d
00000150: 173e 86bc e017 c2bc 1c86 5ebd 740d b8bb
00000160: fa66 23bd 851b 12bc 41d6 9a3c 9b84 6cbc
00000170: 8afb b1bc 854b 96bb 3670 2abc 8807 45bd
00000180: 2ce2 3bbd db82 dd3b a403 37bd f480 bbbc
00000190: 5389 fabc dbaf 253c 096a babc 7a3a 13bd
000001a0: 50fc 583d d92d fabc 6333 9dbc dbfc 5c3b
000001b0: c98f 62bc 58ff 0ebc e3af 2abd b5d8 c7bc
000001c0: 0b3a a6bd c2c7 b3bc 1f3b bebc aeea ccbd
000001d0: fa48 a3bc 78fa 68bb 824f 0c3d 0793 28bd
000001e0: 3637 7d3c 8ecf 95bc 7b6d bb3c e836 58bc
000001f0: c7b2 a33c 46cc f7bc c2a3 403d e60b 88bd

network_body._body_endoder.seq_layers.0.weight f4 [128, 383]
-0.08848772 -0.026464779 -0.006806774 0.012120167 0.095305525 0.057444748 -0.1539099 0.080340266
0.12567507 0.06409102 -0.027576348 0.043381993 -0.1932049 -0.036943927 0.123191595 -0.22961248
0.2583455 0.2353393 -0.32039663 -0.012824451 0.06291511 -0.13712972 0.02838565 -0.12304645
-0.14653672 0.16572432 0.19724406 -0.050221894 -0.033316404 -0.011972161 -0.16772342 -0.097640246
-0.008629141 -0.1332972 0.14103365 0.16138025 -0.010162979 -0.033601698 0.15921299 -0.15918101
0.015571986 -0.015154163 -0.14038442 0.036740184 0.08451772 -0.037193738 -0.047061767 0.25900453
-0.22858661 0.038823172 -0.2688941 -0.120610885 0.25436562 0.3100464 -0.029332498 -0.038397446
0.4356269 -0.049313694 0.09125424 0.111721754 -0.30688074 -0.10200481 -0.13446577 -0.049610805
-0.03747584 0.08967676 -0.24965447 0.047815718 -0.09347546 -0.13970794 0.2324553 0.25467318
-0.023188308 -0.04082244 0.19227043 -0.302718 0.3064894 0.084013835 -0.11224037 -0.090667084
-0.087436676 -0.025526268 -0.017920725 -0.17199625 -0.121258385 0.20357984 -0.05477256 0.0048574973
0.19766022 0.11963566 -0.13869755 0.024948211 0.14852278 -0.26773086 0.10091155 0.18499102
-0.09227765 -0.015498631 -0.07703045 0.03574308 0.012053639 0.058256168 -0.16272648 -0.031564474
-0.20969222 -0.057413246 0.14207919 0.08652624 -0.01230888 0.092056565 0.23995715 -0.27788433
-0.013117607 0.14418742 -0.15738954 -0.12110984 -0.032527566 0.06393245 0.029299958 0.13663356
-0.16483757 0.056901567 -0.14647026 0.023592805 -0.034555227 0.06093035 -0.11231896 0.057193935
0.22989494 -0.19441085 0.11579095 0.12737277 -0.09751668 0.04770071 -0.008762439 -0.044927232
0.05431377 0.25772867 -0.27308095 -0.22083631 -0.40891343 -0.015273104 -0.0011819657 -0.07034434
-0.14286047 0.018684186 0.29636806 -0.13465662 0.11971318 -0.028124958 0.007808445 -0.14435987
-0.1365871 0.050070915 0.016932143 0.08809328 -0.124331586 -0.12933545 -0.18619092 0.104979135
0.056757655 -0.14167373 -0.102729686 0.018830786 0.14935887 -0.19169393 -0.1090006 0.11397725
-0.078044266 0.09170164 -0.03382882 0.10759485 -0.063381076 0.06853712 0.14142646 0.008078961
-0.06324811 -0.047662538 -0.07151314 -0.22626817 0.19499283 -0.006364409 0.07258748 -0.15599303
-0.22940347 0.010444524 -0.037570536 0.02615437 -0.03609071 -0.12182546 -0.040129993 0.018634666
0.2750532 0.1584579 -0.18817759 -0.2008924 -0.059704557 -0.089000374 0.026101835 -0.039699722
-0.17528005 -0.10673079 0.0997316 0.0375113 0.21717449 0.14199574 0.09355803 -0.10378431
-0.0034290222 0.15150099 0.12723236 -0.08523936 -0.18620291 -0.0073181763 -0.2038298 -0.13318433
0.107310556 0.014503737 -0.14392757 0.09178848 -0.032936715 0.052043423 0.030558987 0.32043672
-0.051737636 -0.09226128 0.13038306 0.0590016 -0.20446461 0.111318395 0.13271603 -0.07279524
-0.18553182 -0.14531875 -0.033361286 0.0877745 -0.0042825653 -0.005870293 0.039645515 -0.12498529
-0.016792824 0.18409586 -0.019820822 -0.10294038 0.080889784 0.1003223 -0.18247607 0.0049245115
0.21089676 -0.22719327 -0.052410197 -0.1646931 0.11831276 0.11964412 -0.06563899 0.034760628
00000000: 0d39 b5bd aacc d8bc 5c0b dfbb aa93 463c
00000010: 8b2f c33d 2f4b 6b3d 8f9a 1dbe 7089 a43d
00000020: f7b0 003e 2742 833d cbe7 e1bc 51b1 313d
00000030: 81d7 45be 8452 17bd e04b fc3d 891f 6bbe
00000040: dd45 843e c9fc 703e 070b a4be a51d 52bc
00000050: a3d9 803d bc6b 0cbe 0689 e83c c7ff fbbd
00000060: b90d 16be a3b3 293e 59fa 493e 79b5 4dbd
00000070: c876 08bd e226 44bc b0bf 2bbe 9cf7 c7bd
00000080: 3e61 0dbc 107f 08be 206b 103e dd40 253e
00000090: a082 26bc efa1 09bd bb08 233e 5900 23be
000000a0: a521 7f3c 2b49 78bc efc0 0fbe e07c 163d
000000b0: a017 ad3d 7658 18bd d7c3 40bd 3e9c 843e
000000c0: 9c12 6abe 0c05 1f3d 7dac 89be d702 f7bd
000000d0: 363c 823e 67be 9e3e b54a f0bc a446 1dbd
000000e0: 7d0a df3e 28fd 49bd 81e3 ba3d 60ce e43d
000000f0: 791f 9dbe e6e7 d0bd 65b1 09be b334 4bbd
00000100: 4480 19bd 73a8 b73d 6ca5 7fbe 6ada 433d
00000110: 1070 bfbd 990f 0fbe c308 6e3e 8664 823e
00000120: 68f5 bdbc 6e35 27bd 8ae2 443e dbfd 9abe
00000130: 2eec 9c3e 720f ac3d 47de e5bd aaaf b9bd
00000140: 0012 b3bd 771c d1bc 7cce 92bc c91f 30be
00000150: 5156 f8bd 3c77 503e 3159 60bd a42b 9f3b
00000160: 7167 4a3e 8a03 f53d bb06 0ebe 3160 cc3c
00000170: 5b16 183e 0514 89be b7aa ce3d 496e 3d3e
00000180: 11fc bcbd f8ed 7dbc 24c2 9dbd 5667 123d
00000190: a07c 453c 059e 6e3d c5a1 26be c049 01bd
000001a0: 8fb9 56be 272a 6bbd 357d 113e ab34 b13d
000001b0: 2fab 49bc 2788 bc3d 54b7 753e db46 8ebe
000001c0: 3beb 56bc dea5 133e b92a 21be 7008 f8bd
000001d0: a03b 05bd 04ef 823d 7706 f03c abe9 0b3e
000001e0: 2ecb 28be 9e11 693d 4dfc 15be b345 c13c
000001f0: c889 0dbd 1a92 793d 7c07 e6bd 3044 6a3d
00000200: 9469 6b3e a313 47be ce23 ed3d 026e 023e
00000210: d3b6 c7bd d261 433d 5590 0fbc 9e05 38bd
00000220: 1e78 5e3d 03f5 833e 44d1 8bbe ea22 62be
00000230: 1a5d d1be 0b3c 7abc 30ec 9aba b110 90bd
00000240: 044a 12be 940f 993c 8ebd 973e 6de3 09be
00000250: 2f2c f53d 5066 e6bc fcdd ff3b 13d3 13be
00000260: 7ddd 0bbe 2917 4d3d 47b5 8a3c 406a b43d
00000270: 8fa1 febd 8370 04be d5a8 3ebe 4dff d63d
00000280: b77a 683d eb12 11be f163 d2bd 0543 9a3c
00000290: 88f1 183e 6a4b 44be b53b dfbd e86c e93d
000002a0: acd5 9fbd 12ce bb3d 1790 0abd b05a dc3d
000002b0: f0cd 81bd 315d 8c3d 19d2 103e 9e5d 043c
000002c0: 3a88 81bd cb39 43bd 7b75 92bd d8b2 67be
000002d0: 33ac 473e 888c d0bb bfa8 943d a3bc 1fbe
000002e0: bee8 6abe 821f 2b3c 90e3 19bd b041 d63c
000002f0: dad3 13bd a07f f9bd 595f 24bd baa7 983c
00000300: c6d3 8c3e ca42 223e a0b1 40be bdb6 4dbe
00000310: c48c 74bd d445 b6bd 84d3 d53c 2d9c 22bd
00000320: 9d7c 33be ac95 dabd 1540 cc3d 73a5 193d
00000330: fd62 5e3e 5567 113e 5a9b bf3d de8c d4bd
00000340: 72b9 60bb 1323 1b3e 3349 023e f991 aebd
00000350: faab 3ebe 50cd efbb c2b8 50be 7961 08be
00000360: a3c5 db3d 15a1 6d3c c061 13be 99fb bb3d
00000370: a6e8 06bd 7c2b 553d d756 fa3c 4810 a43e
00000380: d8ea 53bd 7bf3 bcbd 2383 053e a9ab 713d
00000390: 2c5f 51be e6fa e33d b6e6 073e ac15 95bd
000003a0: 0efc 3dbe 70ce 14be d8a5 08bd 1ec3 b33d
000003b0: c354 8cbb 965b c0bb 5663 223d 4af8 ffbd
000003c0: 1b91 89bc a083 3c3e 475f a2bc 68d2 d2bd
000003d0: 8ba9 a53d c775 cd3d 02db 3abe cc5d a13b
000003e0: 52f5 573e 5aa5 68be 13ac 56bd 4fa5 28be
000003f0: f64d f23d fa07 f53d bc6d 86bd 2961 0e3d

network_body._body_endoder.seq_layers.2.bias f4 [128]
-0.075010255 -0.112469584 -0.062059864 -0.048673097 0.018668633 -0.06161006 -0.0006074685 -0.0119893905
-0.0513415 -0.06090988 -0.10645303 -0.008986583 -0.05852581 -0.050378922 0.009624631 -0.015102431
0.008079819 -0.040988132 -0.06399754 -0.044438723 0.004081264 0.0067104367 -0.06527818 -0.003917064
-0.102182455 -0.044063535 0.019979505 0.010469885 -0.03452833 -0.023058834 -0.0068245535 -0.005760838
-0.035791453 0.01591887 -0.019484196 -0.05100616 -0.00655581 -0.057864647 0.003247685 -0.012766275
-0.042137265 -0.017334502 -0.016553668 0.0060755177 -0.020526852 -0.06324195 -0.040500935 -0.034574978
0.015127618 -0.012131801 -0.010327143 0.046344567 -0.072800085 0.0063244454 0.002629162 -0.015078004
-0.005933909 -0.030819966 -0.034959763 -0.0420736 -0.08370071 -0.0095116105 0.018857492 -0.044491418
-0.16710074 -0.034318082 -0.073246785 -0.074463695 -0.10935515 -0.02535344 -0.054287255 -0.023587527
-0.0640253 -0.053357095 -0.012366786 -0.0085787205 -0.124368586 0.03269736 -0.023173433 -0.03041752
-0.044480983 -0.014580746 -0.035175234 -0.03651481 -0.028779946 0.018638154 0.038218383 -0.011324517
-0.029579286 -0.04071624 -0.08322442 0.006491949 -0.09614853 -0.036982734 0.010080583 0.008132246
-0.02744036 -0.034790218 -0.0346118 -0.03881912 -0.05894977 -0.068479255 0.02839399 -0.09627897
-0.01455566 0.042666428 -0.014781246 0.004400942 -0.049762703 -0.05108484 -0.023108244 -0.08584103
0.064516015 -0.031292982 -0.061118506 -0.01427874 -0.026378555 -0.1576146 -0.028377254 -0.015479634
-0.05292498 0.014596383 -0.043027025 -0.029283075 -0.08778277 -0.0014117924 0.018030873 0.0011661766
00000000: fa9e 99bd 7456 e6bd 7c32 7ebd 715d 47bd
00000010: f6ee 983c d55a 7cbd 853e 1fba 266f 44bc
00000020: 774b 52bd a37c 79bd 0c04 dabd 763c 13bc
00000030: c2b8 6fbd 215a 4ebd a1b0 1d3c 3070 77bc
00000040: 3861 043c 2ce3 27bd 2411 83bd 6105 36bd
00000050: 20bc 853b 39e3 db3b 91b0 85bd b75a 80bb
00000060: 0945 d1bd f77b 34bd 0fac a33c e189 2b3c
00000070: 946d 0dbd e1e5 bcbc 81a0 dfbb 69c5 bcbb
00000080: 0f9a 12bd 4a68 823c 529d 9fbc d6eb 50bd
00000090: 1fd2 d6bb 7b03 6dbd 1dd7 543b a329 51bc
000000a0: 2098 2cbd 1601 8ebc 8f9b 87bc 2315 c73b
000000b0: ee27 a8bc ff84 81bd 4fe4 25bd 7e9e 0dbd
000000c0: d4d9 773c 76c4 46bc 2d33 29bc cdd3 3d3d
000000d0: 3618 95bd 4b3d cf3b 054e 2c3b bc09 77bc
000000e0: 3d71 c2bb 277a fcbc f831 0fbd 5e55 2cbd
000000f0: 476b abbd 96d6 1bbc 077b 9a3c a23c 36bd
00000100: 751c 2bbe 1e91 0cbd 6902 96bd 6c80 98bd
00000110: 98f5 dfbd 04b2 cfbc 505c 5ebd a13a c1bc
00000120: b21f 83bd f88c 5abd 0f9e 4abc c38d 0cbc
00000130: f5b4 febd abed 053d 36d6 bdbc 2a2e f9bc
00000140: b131 36bd 15e4 6ebc e813 10bd 8e90 15bd
00000150: ecc3 ebbc 0baf 983c e18a 1c3d 788a 39bc
00000160: 4250 f2bc 12c6 26bd 9171 aabd 6aba d43b
00000170: 85e9 c4bd 357b 17bd 0829 253c 1d3d 053c
00000180: 9bca e0bc 3080 0ebd 1ac5 0dbd cc00 1fbd
00000190: 5075 71bd da3e 8cbd 839a e83c e92d c5bd
000001a0: dd7a 6ebc fec2 2e3d 0a2d 72bc c735 903b
000001b0: fad3 4bbd 563e 51bd 804d bdbc 6ccd afbd
000001c0: f920 843d 122d 00bd 6657 7abd 60f1 69bc
000001d0: d717 d8bc b965 21be 6a77 e8bc 4a9e 7dbc
000001e0: ddc7 58bd ab25 6f3c 1b3d 30bd 0fe3 efbc
000001f0: 74c7 b3bd e40b b9ba 7bb5 933c 65da 983a

network_body._body_endoder.seq_layers.2.weight f4 [128, 128]
-0.085214086 -0.09595241 -0.05885354 -0.0053025195 -0.10304044 -0.08067868 0.1309479 0.035326507
-0.030669045 0.11002535 -0.15110934 -0.08247088 -0.012470788 -0.018952841 0.15382098 -0.027043112
-0.2001078 -0.19626144 -0.035112407 0.13868988 0.22283693 0.13144489 0.16690959 -0.03351528
0.2463981 -0.055174623 -0.19601329 0.058511302 0.10779831 -0.15349612 -0.17448191 -0.195424
-0.14839542 -0.06689498 -0.21051522 -0.15288678 0.10895557 0.19293894 -0.22813131 0.2266027
-0.10776695 0.04458925 -0.244248 0.062043887 -0.026798246 0.17431222 0.11024813 -0.17887786
0.0037910778 0.09987418 -0.26823482 -0.03375224 -0.07761098 0.10140245 -0.1302597 -0.12202943
-0.027701147 -0.060083225 -0.12314009 0.0969498 -0.15379667 0.10469521 -0.034795016 0.037654277
0.041162923 0.00553588 0.01631273 -0.07865992 0.070649765 -0.01532572 -0.091746576 0.008777316
-0.02164488 0.21107934 0.01132457 0.32230785 -0.0036079765 -0.023199227 0.0918213 -0.098507814
-0.121350214 0.22146286 -0.06041226 -0.17252767 -0.04891919 -0.124707185 -0.11270733 -0.098769814
-0.21274748 0.093937084 -0.03418838 0.0020633668 -0.0019037663 0.13699967 -0.16182213 0.11150143
0.09140382 0.005633328 -0.041135423 -0.06113482 -0.1615117 -0.097852334 -0.18317042 0.040274866
-0.18616788 0.0296738 -0.24935961 0.17260717 -0.02829057 -0.11711091 -0.04431284 0.0006446015
-0.06795672 -0.094884336 -0.05722635 -0.10750293 0.0054258713 -0.25323322 0.12162724 -0.07175183
-0.13620211 -0.055772737 -0.2913028 0.023406988 -0.01289989 0.06823407 -0.061439503 0.07595853
0.009973367 0.046666842 0.24988075 -0.021852748 0.08907045 -0.17953818 -0.00890421 0.00709847
0.12503001 0.026529595 -0.2603711 0.09592951 -0.2310735 -0.15092146 0.1816935 0.0789998
0.013259321 -0.041218795 -0.04965722 0.09941852 -0.0037045449 0.05586264 -0.10481761 -0.11376109
-0.12086942 0.061129093 -0.11424929 0.18694314 0.017284522 -0.06232746 -0.03121873 0.16240041
0.029583577 0.05760281 -0.051430468 -0.01934877 -0.15044653 0.16018549 0.0036009974 0.054967973
0.024794832 0.09015478 -0.08999354 -0.26976973 -0.11509949 -0.06881498 0.030954085 0.11493634
0.08929797 0.007905024 0.084118664 0.076728456 -0.006434621 0.22909261 -0.043372575 -0.19008967
0.24631059 -0.012130103 -0.06602104 -0.08277934 -0.2196049 -0.0011904779 -0.14179268 -0.047877423
-0.16056052 -0.108898394 -0.16895847 0.012508008 -0.059331425 -0.227766 -0.14936988 0.023052692
-0.0936119 0.12965654 0.13605872 -0.073957056 -0.14925353 0.024592571 0.05789168 -0.12014161
-0.16823953 0.04327686 -0.056482553 -0.24094811 -0.08617884 -0.13554764 -0.13538757 -0.09578863
0.028783856 -0.0009180232 0.07603812 -0.03553234 -0.02370788 -0.038461417 0.035588205 -0.06033974
0.11498455 -0.09898541 -0.06863775 -0.14338943 -0.065282434 -0.15086213 0.06456148 -0.01873065
0.13629463 -0.23430471 -0.06914092 0.024143094 0.2134209 0.038307447 -0.14463007 -0.033453267
-0.03890456 -0.018859005 -0.17135842 0.051061254 -0.041516744 0.09739236 -0.022038938 0.004222371
0.0770407 -0.062906764 0.084666416 0.13672061 -0.05800159 -0.22997178 -0.13054556 -0.0056746984
00000000: b984 aebd b282 c4bd 6910 71bd c2c0 adbb
00000010: de06 d3bd dd3a a5bd 3517 063e 87b2 103d
00000020: a63d fbbc f854 e13d 68bc 1abe 7ee6 a8bd
00000030: 4752 4cbc fd42 9bbc 3f83 1d3e 8489 ddbc
00000040: 0fe9 4cbe c2f8 48be 07d2 0fbd b804 0e3e
00000050: 5d2f 643e 7d99 063e 59ea 2a3e 5147 09bd
00000060: c94f 7c3e c9fe 61bd b5b7 48be 8ca9 6f3d
00000070: 5cc5 dc3d 162e 1dbe 63ab 32be 3b1d 48be
00000080: f8f4 17be 3c00 89bd 4d91 57be 5a8e 1cbe
00000090: 1924 df3d c991 453e 419b 69be 8a0a 683e
000000a0: ebb4 dcbd 38a3 363d 261c 7abe bb21 7e3d
000000b0: ff87 dbbc e77e 323e c6c9 e13d c22b 37be
000000c0: bb73 783b d68a cc3d 1356 89be ca3f 0abd
000000d0: 81f2 9ebd 16ac cf3d cc62 05be 91ea f9bd
000000e0: 84ed e2bc d419 76bd df30 fcbd 9e8d c63d
000000f0: e07c 1dbe 716a d63d 3885 0ebd 5f3b 1a3d
00000100: 749a 283d 5466 b53b 46a2 853c 7418 a1bd
00000110: d3b0 903d bb18 7bbc a1e5 bbbd bbce 0f3c
00000120: 9a50 b1bc 2f25 583e b08a 393c 8905 a53e
00000130: cd73 6cbb 4e0c bebc ce0c bc3d 77be c9bd
00000140: 7686 f8bd 29c7 623e d972 77bd 18ab 30be
00000150: 7d5f 48bd 7b66 ffbd 1ad3 e6bd d447 cabd
00000160: 7ada 59be 1662 c03d 1d09 0cbd 8d39 073b
00000170: cc87 f9ba a449 0c3e b3b4 25be dd5a e43d
00000180: ed31 bb3d c897 b83b 9e7d 28bd 8168 7abd
00000190: 5363 25be ce66 c8bd 0791 3bbe 42f7 243d
000001a0: cba2 3ebe 7816 f33c 2058 7fbe efbf 303e
000001b0: a0c1 e7bc d8d7 efbd 6181 35bd 79fa 283a
000001c0: e52c 8bbd b852 c2bd 2d66 6abd 7f2a dcbd
000001d0: 82cb b13b c9a7 81be b417 f93d a0f2 92bd
000001e0: 9178 0bbe f471 64bd a425 95be 03c0 bf3c
000001f0: 0f5a 53bc 4ebe 8b3d fda7 7bbd 2590 9b3d
00000200: 5567 233c bb25 3f3d bde0 7f3e 8904 b3bc
00000210: 916a b63d dbd8 37be f7e2 11bc 489a e83b
00000220: de07 003e 9854 d93c 5c4f 85be b176 c43d
00000230: 889e 6cbe 288b 1abe dc0d 3a3e a6ca a13d
00000240: a03d 593c 0ad5 28bd 5e65 4bbd f09b cb3d
00000250: f3c7 72bb 39d0 643d 9daa d6bd 93fb e8bd
00000260: 638a f7bd 8062 7a3d 88fb e9bd 066e 3f3e
00000270: 4598 8d3c 144b 7fbd 6cbe ffbc 4b4c 263e
00000280: 4259 f23c edf0 6b3d c1a8 52bd 5081 9ebc
00000290: a80e 1abe aa07 243e b6fe 6b3b 1926 613d
000002a0: 881e cb3c 12a3 b83d 884e b8bd 421f 8abe
000002b0: 48b9 ebbd deee 8cbd 6c93 fd3c be63 eb3d
000002c0: dbe1 b63d 1384 013c 6846 ac3d cf23 9d3d
000002d0: 83d9 d2bb 4197 6a3e 71a7 31bd dea6 42be
000002e0: d838 7c3e 57bd 46bc 0a36 87bd 3788 a9bd
000002f0: 1be0 60be cf09 9cba 1a32 11be 1e1b 44bd
00000300: fa69 24be 1f06 dfbd 7303 2dbe 63ee 4c3c
00000310: 8205 73bd 7e3b 69be 6bf4 18be 00d9 bc3c
00000320: 99b7 bfbd afc4 043e fa52 0b3e cc76 97bd
00000330: ebd5 18be 5c76 c93c d41f 6d3d ce0c f6bd
00000340: fc46 2cbe 1443 313d 405a 67bd 1abb 76be
00000350: 887e b0bd 00cd 0abe 0aa3 0abe d42c c4bd
00000360: 1fcc eb3c 7ea7 70ba e0b9 9b3d 5c8a 11bd
00000370: 0737 c2bc b889 1dbd f0c4 113d ce26 77bd
00000380: 057d eb3d ddb8 cabd f391 8cbd aed4 12be
00000390: ccb2 85bd 9a7b 1abe cf38 843d 0571 99bc
000003a0: d290 0b3e 93ed 6fbe c199 8dbd bdc7 c53c
000003b0: 028b 5a3e 45e8 1c3d e819 14be 4b06 09bd
000003c0: 635a 1fbd 337e 9abc 9578 2fbe 9b25 513d
000003d0: 760d 2abd a575 c73d 018b b4bc d15b 8a3b
000003e0: 84c7 9d3d 43d5 80bd 9665 ad3d 7d00 0c3e
000003f0: 1393 6dbd b97d 6bbe bcad 05be d2f2 b9bb
