results/test6/CharacterBehav.onnx (onnx, 170777 bytes, 9 tensors)

action_model._discrete_distribution.branches.0.bias f4 [3]
0	0xb80a2428	-3.2935437e-05
1	0x39c3a792	0.00037318148
2	0x3a7221fb	0.0009236631

action_model._discrete_distribution.branches.0.weight f4 [3, 128]
0	0x3c5bca43	0.013414922
1	0xbc0a85fa	-0.008454794
2	0xbb2fe9b3	-0.0026842176
3	0xbbde699b	-0.0067874915
4	0x398a04e6	0.0002632506
5	0xbbe49170	-0.0069753453
6	0x3b00c4a7	0.0019648464
7	0x3c072487	0.008248455
8	0xbb8c0d26	-0.0042740284
9	0x3b0f4b1c	0.0021864837
10	0xbb5acadb	-0.0033385071
11	0x3bcdaaa1	0.006276444
12	0x3c420604	0.011842255
13	0xbb4faad9	-0.0031687526
14	0xbb04b825	-0.002025136
15	0x3b5de128	0.0033856127
16	0x3c0a87c7	0.008455223
17	0x3b227004	0.0024786005
18	0x3b0a5441	0.0021107348
19	0x3bfdd581	0.007746399
20	0xbbe81bb5	-0.007083381
21	0x3b878d35	0.0041367062
22	0x3bfcd897	0.007716249
23	0xbbbb8170	-0.0057222173
24	0xbb928dcd	-0.0044724704
25	0x3a7d065d	0.0009652132
26	0x3c189d61	0.009314866
27	0xbc251ddc	-0.01007792
28	0xbc4831a1	-0.012218864
29	0xba17b6c9	-0.000578743
30	0x3b855e32	0.004070067
31	0xbbc70d5c	-0.0060745906
32	0xbc947e73	-0.018126702
33	0x3c757833	0.014982271
34	0x3a0c556b	0.00053533044
35	0x3c07e444	0.008294169
36	0xbc14e3bf	-0.009087502
37	0x3c9a13a2	0.01880819
38	0x3ae308a8	0.0017321305
39	0xbac4e5ef	-0.0015022139
40	0xbbe639dd	-0.007025941
41	0xbc66905a	-0.014072502
42	0x3b4824dd	0.003053955
43	0xbbd2410d	-0.006416446
44	0x3c005e99	0.007835054
45	0xbbf09217	-0.007341634
46	0x3bc74488	0.0060811676
47	0xbae43108	-0.0017409632
48	0xbbbec33e	-0.0058216145
49	0x3a2f0229	0.0006676042
50	0xbbd72059	-0.0065651354
51	0xbc1ae468	-0.00945387
52	0xbbe28c41	-0.006913692
53	0xba345cfb	-0.000688031
54	0x3ba762de	0.0051082214
55	0x3b97e695	0.004635642
56	0x3bc21d57	0.0059239077
57	0x3c8db114	0.017296351
58	0xbbb9d85e	-0.005671545
59	0xbbcdc100	-0.006279111
60	0xbb876ff3	-0.0041332184
61	0x3c1ac99e	0.009447483
62	0x3bd6acc7	0.0065513584
63	0xbb7ae32c	-0.0038282378
64	0xbc4820f9	-0.012214893
65	0xba2bfc39	-0.00065607164
66	0xbbfa50e4	-0.0076390374
67	0x3c85682a	0.01628502
68	0xbb6996e2	-0.0035642912
69	0xbae30702	-0.0017320814
70	0x3c0d5f35	0.008628656
71	0xbc5acd9d	-0.013354686
72	0xbc16cd6e	-0.009204252
73	0xbc3e6c0f	-0.011622443
74	0x3bb439b5	0.0055000433
75	0xbbb138ca	-0.005408381
76	0x3b9b0b08	0.0047315396
77	0xba218552	-0.0006161529
78	0xbc70036b	-0.014649252
79	0xbc20a7bf	-0.009805619
80	0x3c05c5db	0.008164848
81	0xbb3f0ad7	-0.0029150748
82	0x3be3aea8	0.006948311
83	0xbb88f2aa	-0.0041793184
84	0x3be49df1	0.006976836
85	0xbbc52032	-0.006015801
86	0xbbf9d082	-0.007623733
87	0xbc0e1e46	-0.00867421
88	0x3c2bfddd	0.010497537
89	0xba4c6d2c	-0.00077982503
90	0x3b2a7981	0.0026012363
91	0xbc5bc095	-0.013412614
92	0xbbc740eb	-0.006080737
93	0xbb7e249e	-0.003877915
94	0xbc9fb191	-0.01949385
95	0x3c41d520	0.011830598
96	0x3c30ab55	0.010783036
97	0xbcaf8b86	-0.021428835
98	0xbc2a3732	-0.010389136
99	0xbbc7b5c4	-0.006094666
100	0xbbbb7b18	-0.005721461
101	0x3bf5e37a	0.007503924
102	0x3bfe07cc	0.0077523943
103	0xbbca5b5a	-0.0061754407
104	0xbc63f01e	-0.013912229
105	0xbc74eb8e	-0.014948739
106	0x3b80d81e	0.003932013
107	0xbb491980	-0.0030685365
108	0xbc121032	-0.008914994
109	0x3a01deb0	0.00049541425
110	0xbc07ca5b	-0.008287991
111	0x3b3faa70	0.0029245876
112	0x3c6945f5	0.01423787
113	0x3c11ac63	0.008891198
114	0x3acbcd06	0.0015548773
115	0x3ab3f819	0.0013730555
116	0x3bf551ba	0.007486549
117	0x3c8e9957	0.017407103
118	0xb9bc03d2	-0.00035861
119	0xbbc69931	-0.0060607423
120	0x3c440f6c	0.0119665675
121	0x3bd15b82	0.0063890824
122	0x3c01bcb1	0.007918523
123	0x3aec607d	0.0018034127
124	0xb98f5899	-0.00027341096
125	0x3aad1303	0.0013204518
126	0x3c6e0658	0.01452788
127	0x3c95f079	0.018303143
128	0x3a7734d4	0.0009430174
129	0x3c84d85a	0.016216446
130	0xbc3685fd	-0.011140344
131	0xbc69d557	-0.014272056
132	0x3befc17e	0.0073167672
133	0x3ba5338e	0.005041546
134	0x3a64ed45	0.00087328657
135	0xbc459407	-0.012059218
136	0x39e569bf	0.0004375707
137	0xbc0058c8	-0.007833667
138	0xbc2bf127	-0.010494507
139	0x3ba66e47	0.005079064
140	0x3c429fb0	0.011878893
141	0xbbc69139	-0.0060597924
142	0x39e0d86b	0.00042885853
143	0xbbda9a06	-0.006671193
144	0x3c4c558b	0.012471567
145	0xbbc563c8	-0.0060238577
146	0x3c09986a	0.008398155
147	0xbc134de2	-0.008990737
148	0xbc3a3503	-0.011365178
149	0x3ba74fb0	0.005105935
150	0xbc631657	-0.013860307
151	0x3c3c8b92	0.0115078855
152	0xbc00c3d6	-0.007859191
153	0x3b1f778c	0.002433273
154	0xbc1d227a	-0.009590739
155	0x3be04939	0.0068446663
156	0x3bd4608a	0.006481235
157	0x3ba42645	0.005009445
158	0xbc5a88f9	-0.013338321
159	0x3b77495d	0.0037732937
160	0xbc06d39b	-0.008229162
161	0xbc34ebab	-0.011042516
162	0x3c6348c3	0.013872328
163	0xbc07ea8a	-0.008295665
164	0xb8d3f618	-0.000101071026
165	0x3c39ded6	0.011344632
166	0xba24062c	-0.0006257023
167	0x39d6dca1	0.00040981642
168	0xbb2d3e74	-0.002643493
169	0x3c09e835	0.008417179
170	0x3c0c9476	0.008580318
171	0x3a371709	0.00069843285
172	0xb9a45262	-0.00031341898
173	0xbbf63e50	-0.0075147524
174	0x3b8384a7	0.004013616
175	0x3b91d412	0.0044503296
176	0x3bce6746	0.0062989322
177	0x3c31c78c	0.010850798
178	0x3b65364b	0.0034974988
179	0xbb6181a8	-0.0034409557
180	0xbab73fbf	-0.001398079
181	0xbc153ba4	-0.009108458
182	0x3ba39e9e	0.004993274
183	0x3b4df8a0	0.003142871
184	0xbbac20ba	-0.0052529247
185	0xbb3fea6f	-0.002928402
186	0x3b6ffa2b	0.0036617618
187	0x3aeb414b	0.0017948536
188	0x3c02ac0f	0.007975592
189	0x3c856872	0.016285155
190	0x3ab67bb9	0.001392237
191	0xbc47f84f	-0.0122051975
192	0xbb8eb431	-0.0043549766
193	0xbbc039d8	-0.0058662705
194	0x3c5075ee	0.012723429
195	0xbadd0cb2	-0.0016864745
196	0x3bb9a3e0	0.0056652874
197	0x3bcae5c6	0.006191942
198	0xbc654cae	-0.013995333
199	0xbbffe416	-0.0078091724
200	0x3b526524	0.0032103742
201	0x3c6f8827	0.014619864
202	0xbc8f9820	-0.017528594
203	0xbc393d10	-0.011306062
204	0xbc28fccf	-0.0103141805
205	0xbba987c9	-0.0051736576
206	0xb9c3e961	-0.0003736718
207	0x3a2b32c7	0.0006530699
208	0x3bc87263	0.0061171516
209	0xba535136	-0.00080611126
210	0x3c4cd4f1	0.012501941
211	0x399c3371	0.00029792966
212	0xbc624ad1	-0.013811783
213	0xbb444ae1	-0.0029951858
214	0x3993f636	0.00028221466
215	0xbadfbb58	-0.0017069383
216	0x3a831adf	0.0010002515
217	0xbbeae387	-0.0071682367
218	0x3abe6c4d	0.0014528126
219	0xbc0a6a8a	-0.008448252
220	0xbae5b781	-0.0017526002
221	0xbb70a570	-0.0036719702
222	0xbbb2b2f8	-0.0054534636
223	0xbc1a352a	-0.009412089
224	0xbbb347cf	-0.0054712067
225	0xbc0b183b	-0.008489664
226	0x39b840b9	0.00035143437
227	0xbb39e66c	-0.0028366102
228	0xbbbc837e	-0.00575298
229	0x3b4b6394	0.0031034695
230	0x3bf35c04	0.0074267406
231	0xbc13fbe4	-0.009032223
232	0xbada037f	-0.0016633122
233	0xbaec47eb	-0.0018026804
234	0xbc273886	-0.010206347
235	0xbbe9f023	-0.007139222
236	0x3c4472cf	0.011990263
237	0x3c80de04	0.015730865
238	0xbc64ba28	-0.013960399
239	0x3bd10571	0.0063788225
240	0x3bd195a9	0.0063960147
241	0xbb945d38	-0.004527714
242	0xbc891633	-0.016734218
243	0x3bee507c	0.007272778
244	0xbadb73bb	-0.0016742864
245	0x3c17093f	0.009218513
246	0xba936f3c	-0.001124836
247	0x3b4b8a74	0.0031057866
248	0xbb87837c	-0.004135547
249	0xbc2f489a	-0.010698462
250	0x3c8596fe	0.01630735
251	0x3c1ab15c	0.0094417
252	0x3c27caa8	0.010241188
253	0x3c07f3f1	0.008297906
254	0x3aeebe87	0.001821474
255	0xbb916c4b	-0.0044379584

action_model._discrete_distribution.branches.1.bias f4 [3]
0	0x3963e3f1	0.00021733322
1	0xb9cc13bd	-0.00038924618
2	0x39e8d7a0	0.0004441114

action_model._discrete_distribution.branches.1.weight f4 [3, 128]
0	0xbc3261de	-0.010887591
1	0x3b8820b0	0.0041542873
2	0xbc97b2be	-0.018517848
3	0xbbdeb576	-0.006796534
4	0xbbc433cb	-0.0059876195
5	0xba0e3a55	-0.0005425562
6	0x3b3c0eef	0.0028695425
7	0xbbeda2de	-0.0072520813
8	0xbc68704f	-0.014186933
9	0xb7a8a26a	-2.010279e-05
10	0xbbb4c501	-0.0055166488
11	0x3c1b1636	0.009465745
12	0x3c01675b	0.007898177
13	0x3c526910	0.012842432
14	0x3c378c9f	0.01120296
15	0xbb6f681a	-0.0036530555
16	0x3b90ef0e	0.004423029
17	0xbba2c33c	-0.0049671214
18	0xbb80a57c	-0.0039259773
19	0xbbb14829	-0.0054102135
20	0xbc9cb04e	-0.019127037
21	0xbb7acf50	-0.003827054
22	0x3c4fb2a8	0.012676872
23	0xbae9b7de	-0.0017831286
24	0xbc18d7ae	-0.009328766
25	0x3c575b83	0.013144377
26	0x3c430cd6	0.011904916
27	0xbc130f7f	-0.0089758625
28	0x3b96e4a8	0.0046048947
29	0xbca7e38a	-0.020494241
30	0xbd0ebb4e	-0.034846596
31	0xbbac1ea3	-0.0052526756
32	0x3b4c6a00	0.003119111
33	0x3bd7e6a8	0.0065887757
34	0xbb5ca4d1	-0.0033667574
35	0xbbbb3ab3	-0.0057137846
36	0xbaab6beb	-0.0013078427
37	0x3b139d5e	0.0022524218
38	0x3c0b69dd	0.0085091265
39	0xbbc4333a	-0.005987552
40	0x3bf96ba8	0.0076117106
41	0x3c6e546f	0.014546498
42	0xbb23a008	-0.0024967212
43	0x3baa9885	0.00520617
44	0x3c5dca6f	0.013537033
45	0x3b7d4015	0.0038642932
46	0x3bae554c	0.005320227
47	0xbc87f81a	-0.016597796
48	0x3b916a9a	0.0044377567
49	0xbb2d7150	-0.0026465245
50	0xbc8367a4	-0.01604063
51	0xba9c7aa9	-0.0011938411
52	0xbb3cb0ed	-0.002879198
53	0x3b8dbe67	0.0043256762
54	0x3ba384df	0.0049902047
55	0xb80c93de	-3.3516313e-05
56	0x3aaff3b4	0.001342407
57	0x3939d5fe	0.00017722693
58	0x3b07fe00	0.002075076
59	0xbb47ff3f	-0.0030517129
60	0x39cb144e	0.00038734305
61	0x3c24b714	0.010053415
62	0x3c4ce4df	0.012505739
63	0xbc1513d8	-0.009098969
64	0x3b0f0d01	0.002182782
65	0x3a167c11	0.0005740533
66	0x3c14c17d	0.009079334
67	0xbb0f25fc	-0.0021842709
68	0xbc115a5d	-0.008871642
69	0x39876a64	0.00025828474
70	0x3b0d6bca	0.002157914
71	0x3c20e47a	0.009820098
72	0xbb35872f	-0.0027698984
73	0x3beee04b	0.0072899214
74	0xbb7e9fe0	-0.0038852617
75	0xbb73a40e	-0.0037176642
76	0xb9e89d0f	-0.00044367506
77	0xbc810fbd	-0.015754575
78	0xbc789270	-0.015171632
79	0x3c00f671	0.007871256
80	0xbc020261	-0.0079351375
81	0x3bad8821	0.005295769
82	0xbb316f59	-0.0027074425
83	0xbbc3aaba	-0.00597128
84	0x3c1e398b	0.009657274
85	0x3b9f9162	0.004869626
86	0xb9f8e94d	-0.0004747607
87	0xbbd552d5	-0.0065101185
88	0xbc459090	-0.012058392
89	0xbadac9ce	-0.0016692223
90	0x3c017235	0.007900764
91	0xbb048d8c	-0.002022597
92	0xbcc53896	-0.024074834
93	0xbc1ebc79	-0.00968849
94	0x3b0f0503	0.0021823056
95	0x3af2aae5	0.0018514065
96	0xbc6c53c6	-0.01442427
97	0xbcc659cd	-0.024212742
98	0xbc296809	-0.010339745
99	0xbb08f687	-0.0020898895
100	0xbcb153fc	-0.021646492
101	0xbc44d4b4	-0.012013603
102	0xbc01ceae	-0.007922811
103	0x3acdcd2b	0.0015701404
104	0x3c4f02a8	0.012634911
105	0xbc2fdd92	-0.010733979
106	0xbbcfa7f1	-0.006337159
107	0x3c05bb4e	0.008162333
108	0x3b5eab86	0.0033976748
109	0xbc42f469	-0.011899092
110	0x3c05bd8f	0.00816287
111	0x3b0036be	0.001956388
112	0xbb9cbcc6	-0.0047832457
113	0x3c1ef009	0.0097007835
114	0xbabf29ee	-0.001458464
115	0xbc176b18	-0.009241842
116	0x3b810449	0.0039372784
117	0xb9b883b6	-0.00035193347
118	0x3c6ba3b6	0.014382293
119	0xbb89c795	-0.0042047002
120	0x3b99b0a8	0.0046902485
121	0x3c8b9ff0	0.017044038
122	0x3bfb7008	0.0076732673
123	0xba910eb8	-0.0011067009
124	0xbc07a450	-0.008278921
125	0xbc5add02	-0.013358356
126	0xbb5f0f3c	-0.003403618
127	0xbba2ad53	-0.0049645095
128	0xbbd0a9be	-0.006367891
129	0x3c0535ea	0.00813053
130	0xbc3e32de	-0.011608807
131	0x3bb9e666	0.0056732176
132	0xbb691d3e	-0.0035570408
133	0x3c7d7840	0.015470564
134	0x3c4fa0c8	0.012672611
135	0x3c931652	0.01795498
136	0xbc50e152	-0.012749033
137	0x3c0d8e05	0.008639817
138	0xbb00e5a1	-0.001966812
139	0x3bec8da1	0.007219032
140	0xbb8938f9	-0.0041877
141	0xbb81a582	-0.0039564976
142	0xbb7c5820	-0.0038504675
143	0x3bcbb92a	0.0062171416
144	0x3a906092	0.0011015108
145	0x3baeebf6	0.0053381873
146	0xbb83ca93	-0.0040219515
147	0xbae14135	-0.0017185571
148	0x3bd7a3bf	0.0065807994
149	0xbbe1f9fd	-0.006896256
150	0x3a4399fa	0.0007461604
151	0xb9cf0544	-0.0003948604
152	0x3cc10005	0.02355958
153	0xbc0b233e	-0.008492289
154	0xbc1d6b5f	-0.009608119
155	0xbc307cf4	-0.010771979
156	0x3a8f8c92	0.0010951927
157	0xba136d66	-0.00056239066
158	0x3c64fc90	0.013976231
159	0x3c44913e	0.011997519
160	0xbc30dfb1	-0.01079552
161	0xb9c801ec	-0.00038148405
162	0x3c004d99	0.007831001
163	0xbc762ea3	-0.0150257675
164	0xbb5e409d	-0.0033913024
165	0x3c23d2e1	0.009999008
166	0xbbf25aed	-0.007396093
167	0x3c229050	0.009922102
168	0xbca6c343	-0.02035678
169	0x3c01e8d2	0.007929044
170	0xbab862e9	-0.0014067563
171	0xbb75718f	-0.003745172
172	0x3b894d6d	0.004190138
173	0x3bdf9017	0.006822597
174	0x3b9538fd	0.0045539127
175	0x3c485d53	0.0122292815
176	0xbb51164d	-0.0031904161
177	0x3abcbdb2	0.0014399795
178	0xbc63b51f	-0.013898163
179	0x3a9f0536	0.001213229
180	0xbbe275c0	-0.0069110096
181	0xbab7b967	-0.0014017046
182	0x3be1059f	0.006867125
183	0x3be579a5	0.0070030265
184	0xbc96963e	-0.018382188
185	0x3b448842	0.0029988443
186	0xbc5bed89	-0.013423332
187	0xbc15a5c0	-0.009133756
188	0xbc03da36	-0.008047631
189	0x3b056dab	0.0020359557
190	0x3b94a59b	0.0045363433
191	0x3b0c6c61	0.0021426904
192	0x3b7e06f7	0.0038761476
193	0x3c8b3c27	0.016996456
194	0xbc220f54	-0.00989135
195	0xbc466d25	-0.012110983
196	0x39ace4f6	0.00032976986
197	0x39322471	0.00016988978
198	0x3ba1c1e8	0.0049364455
199	0xbb34d285	-0.00275913
200	0x3c4352bb	0.01192158
201	0xbc5249f4	-0.012835015
202	0xba2da9b2	-0.0006624713
203	0xbaff252d	-0.0019466035
204	0x3aa1b7bc	0.0012338082
205	0xbc252f00	-0.010082006
206	0x3bbd4da1	0.0057770764
207	0xbc3069b2	-0.010767387
208	0x3b584f0f	0.0033006107
209	0xbb0d4592	-0.002155636
210	0xbb881a28	-0.0041535087
211	0xbc4072d0	-0.011746123
212	0x3b12d3dd	0.0022404112
213	0xbb3dfd65	-0.0028990146
214	0xbbdf6df8	-0.006818529
215	0xbc0ca656	-0.008584579
216	0x3bda937e	0.0066704145
217	0x3c2fc372	0.01072775
218	0xbbd74288	-0.0065692104
219	0x3c6a4ede	0.01430103
220	0x3c89c151	0.016815813
221	0x3bb551e8	0.0055334456
222	0x3c20528c	0.009785306
223	0x3b53d50c	0.003232303
224	0x3bb0ad65	0.005391764
225	0xbbcf0b17	-0.0063184607
226	0x3b9e90a7	0.0048390212
227	0xbb2bcebc	-0.0026215753
228	0x3c0df514	0.008664388
229	0xbb05ea0c	-0.0020433692
230	0x3bdea0f2	0.0067940885
231	0xbb1203b0	-0.002228003
232	0x3b8113b0	0.0039391145
233	0xbbe09444	-0.006853612
234	0x3bd41381	0.0064720516
235	0x3bf31a12	0.0074188793
236	0xbbf38307	-0.007431391
237	0x3c4ce2f8	0.012505285
238	0x3ba2704a	0.0049572336
239	0xba65931f	-0.00087575795
240	0x3c1e641c	0.009667423
241	0xbc5582c2	-0.013031663
242	0xbb05852a	-0.0020373561
243	0x3aaf77a6	0.0013387098
244	0x3c43de92	0.01195492
245	0xbc104120	-0.0088045895
246	0x39f72ef4	0.00047146494
247	0x384bdc8c	4.8604372e-05
248	0xbb3d4a9b	-0.002888358
249	0x3c9992f9	0.01874684
250	0xbb2bdfdb	-0.0026225958
251	0x3bae2caa	0.005315383
252	0xbb9c2bb8	-0.004765954
253	0x3bab3ed8	0.0052259974
254	0xbb624a20	-0.0034529045
255	0xb9a8ca25	-0.00032194066

discrete_action_output_shape f4 [1, 2]
0	0x40400000	3.0
1	0x40400000	3.0

network_body._body_endoder.seq_layers.0.bias f4 [128]
0	0x39574f6d	0.00020533586
1	0xbb167f8f	-0.0022964214
2	0xba87c30e	-0.0010357813
3	0x3893d2c7	7.0487666e-05
4	0xba25f083	-0.00063300895
5	0xb921a9ed	-0.00015417459
6	0xbb2b0e00	-0.0026100874
7	0x3ab0c514	0.0013486468
8	0xba25cda0	-0.0006324891
9	0xbad6da7e	-0.001639202
10	0x3b0c2da7	0.0021389516
11	0xbb1aedcf	-0.002364028
12	0xba830c82	-0.0009998234
13	0xba89b3f5	-0.0010505902
14	0xba04f2de	-0.00050715904
15	0xba3fbeb8	-0.0007314491
16	0xba940bcd	-0.0011295021
17	0xbb9c4b57	-0.0047697234
18	0xb9f31091	-0.00046360915
19	0xbab932c2	-0.0014129507
20	0x3aa9861b	0.0012933643
21	0xbacb76c2	-0.0015523063
22	0xb9907c58	-0.00027558464
23	0x3a44322c	0.0007484283
24	0x3a4c8b63	0.00078027527
25	0xbaa41f72	-0.0012521578
26	0x3b4d9ee0	0.0031375214
27	0xba84ae82	-0.0010122808
28	0x3ada9ea0	0.0016679354
29	0xba8543df	-0.0010167322
30	0x3a94eac6	0.0011361472
31	0x39e218ee	0.00043124653
32	0x3a9648c2	0.0011465775
33	0xbaf1ff2e	-0.001846289
34	0xbc0251b8	-0.007954054
35	0xba5abb00	-0.0008343905
36	0xba613d50	-0.0008592205
37	0x393ecdcb	0.00018196476
38	0xbacba82d	-0.0015537791
39	0xbb0c6018	-0.002141958
40	0xbb0c096d	-0.0021367923
41	0xbb44b027	-0.0030012222
42	0xbb748f07	-0.0037316696
43	0xb98c1480	-0.00026718155
44	0xbb58485a	-0.003300211
45	0x3aecc0d5	0.001806284
46	0xb9688ee3	-0.00022178474
47	0xb86c8b98	-5.639679e-05
48	0xbaa17e7f	-0.0012321024
49	0x3a22769f	0.00061974855
50	0xba572fb4	-0.00082087074
51	0x395503dd	0.00020314702
52	0x3b50ecab	0.0031879346
53	0xb9dfb2b2	-0.00042667013
54	0x3a578e1a	0.0008222774
55	0xbabcbc8b	-0.0014399452
56	0x3a3e7ca8	0.00072665
57	0xbb257204	-0.002524496
58	0x3b161d60	0.0022905692
59	0x3b0be02f	0.002134334
60	0x3a4ab782	0.0007733033
61	0xbad2be86	-0.0016078509
62	0x3883257f	6.253551e-05
63	0x38553376	5.0831084e-05
64	0xbae9b201	-0.0017829539
65	0xba179ad0	-0.0005783262
66	0xbaa86cf4	-0.0012849853
67	0xbb1ff6f4	-0.002440867
68	0xba1d7cb0	-0.00060076546
69	0x3a39f89e	0.0007094237
70	0xb9f0e135	-0.0004594416
71	0xbab7dd63	-0.001402777
72	0xbb163e42	-0.0022925292
73	0xb9d4da0d	-0.00040598252
74	0xba9d24d3	-0.0011989124
75	0xba2bd2e9	-0.00065545604
76	0xba93b727	-0.0011269794
77	0xbacdce7c	-0.0015701796
78	0xba6e4623	-0.00090894307
79	0xba0770d0	-0.00051666517
80	0xbb2ef977	-0.0026698986
81	0xbb2cc392	-0.0026361686
82	0x3a1daa1e	0.0006014424
83	0xbabc9c32	-0.0014389812
84	0x36f71f2d	7.364803e-06
85	0xbaa3ef70	-0.0012507271
86	0xba9bf105	-0.0011897391
87	0xb97e9751	-0.00024279697
88	0xba52cd2a	-0.0008041436
89	0x395f7ec2	0.00021314158
90	0xba4ab4a0	-0.00077326037
91	0x3b3af2f2	0.0028526154
92	0xb8f18246	-0.00011516041
93	0xbb239462	-0.002496027
94	0xbb520961	-0.0032049047
95	0xb718c2b6	-9.105241e-06
96	0xba1bdf8b	-0.0005946091
97	0xbb111972	-0.002214041
98	0xbb36d9d8	-0.002790084
99	0x3a8a52de	0.0010553261
100	0xba819188	-0.0009885291
101	0xbaa8a81b	-0.0012867482
102	0xba26a7d1	-0.0006357404
103	0xbadef95f	-0.0017011574
104	0xbae7b201	-0.0017676951
105	0xbabf2ffe	-0.0014586446
106	0xbb10dc0a	-0.002210381
107	0x38f702df	0.000117784126
108	0x3997c623	0.00028948588
109	0x3afda9d0	0.0019352976
110	0xbbb50e47	-0.0055253836
111	0xbaa53663	-0.001260471
112	0x3a3cc767	0.0007201344
113	0xbb3ac9e3	-0.0028501682
114	0xba70a5f6	-0.00091800035
115	0xb9d0189f	-0.00039691196
116	0xbb17feb5	-0.0023192589
117	0xbb190bc4	-0.002335296
118	0xbb15ceef	-0.0022858938
119	0x3980c7a7	0.00024562815
120	0x3a7db002	0.0009677411
121	0xbabed538	-0.0014559394
122	0xbb98d9cf	-0.0046646367
123	0xbb7a1767	-0.0038160922
124	0xb9fa4a63	-0.00047739138
125	0xba57a3e9	-0.00082260236
126	0xbaa3062f	-0.0012437756
127	0x39ccef3a	0.0003908815

network_body._body_endoder.seq_layers.0.weight f4 [128, 192]
0	0x3d6a3590	0.057179987
1	0x3d2aafc8	0.041671544
2	0x3d8c80a7	0.06860476
3	0xbd961ffe	-0.07330321
4	0xbb877f3c	-0.0041350406
5	0x3d4225ce	0.047399335
6	0xbd3b8c96	-0.04578837
7	0xbbda3929	-0.006659646
8	0xbe14a944	-0.14517695
9	0x3b42770c	0.0029673008
10	0xbd8cdd61	-0.06878162
11	0xbdd56ac6	-0.10420756
12	0xbde17478	-0.11008543
13	0xbd106b55	-0.03525861
14	0x3d6f78b4	0.05846472
15	0xbc832113	-0.016006982
16	0x3d0ccba0	0.03437388
17	0xbdcd98ec	-0.10038933
18	0xbc14e076	-0.009086719
19	0xbdefa60f	-0.11701595
20	0x3dde52bd	0.10855625
21	0x3cb805b9	0.022463666
22	0xbd156f16	-0.036482893
23	0xbdbbcde8	-0.09170133
24	0xbc9d68f9	-0.019215094
25	0xbd05f5aa	-0.032704987
26	0x3ce277c0	0.027644992
27	0x3d1db63c	0.03850387
28	0xbdd656b4	-0.10465756
29	0x3d392d27	0.045209076
30	0xbb2c4d34	-0.0026291134
31	0xbd2f2b21	-0.04276574
32	0xbd06c968	-0.03290692
33	0x3d531643	0.051534902
34	0x3ca64a6a	0.020299155
35	0x3c1b9615	0.009496232
36	0xbc8ef445	-0.017450461
37	0xbd4cc138	-0.049988955
38	0xbd527734	-0.051383212
39	0x3db2d18a	0.08731373
40	0xbd092446	-0.03348186
41	0xba97c235	-0.0011578264
42	0x3c140612	0.00903465
43	0x3d1b3561	0.037892703
44	0x3d4954bc	0.049153075
45	0xbcfaafbd	-0.030601377
46	0x3d4aed00	0.049542427
47	0x3d01adc0	0.03165984
48	0xbdb65351	-0.0890261
49	0xbdaf7653	-0.085674904
50	0xbdb5ff20	-0.08886552
51	0x3cc40ba8	0.02393134
52	0xbd8e654c	-0.069529146
53	0xbdbb8c20	-0.09157586
54	0xbac124d9	-0.0014735713
55	0xbe054f40	-0.13018513
56	0xbd00815f	-0.031373378
57	0xbdcccaf9	-0.099996515
58	0x3caac123	0.020844048
59	0x3d82fc6e	0.063958034
60	0x3d82b983	0.0638304
61	0x3e09e80f	0.1346743
62	0x3e39b9b7	0.18137251
63	0x3e35f17b	0.17767899
64	0xbd771215	-0.06031998
65	0x3d000e8f	0.031263884
66	0xbd03726c	-0.032091543
67	0xbdb0d794	-0.08634868
68	0xbd914f72	-0.07095231
69	0xbc66030e	-0.014038814
70	0xbda09a4f	-0.07841932
71	0xbd9c18c8	-0.07621914
72	0xbda5297a	-0.08064552
73	0x3d496249	0.049165998
74	0x3d984632	0.07435264
75	0xbcafdab5	-0.021466592
76	0xbd13606c	-0.035980627
77	0x3d3309cc	0.043710515
78	0x3cbe749f	0.023248969
79	0xbe1e6119	-0.15466727
80	0x3a7492b0	0.00093297195
81	0xbd68866c	-0.05676882
82	0x3d6d08f2	0.05786986
83	0xbce31e8d	-0.027724529
84	0x3d67f921	0.056634072
85	0xbda64c1e	-0.08119987
86	0x3c64ed63	0.013972613
87	0xbd938ce3	-0.072046064
88	0xbcf0d10b	-0.029396554
89	0xbd639bff	-0.05556869
90	0xbd710078	-0.058838338
91	0xbce1bff3	-0.027557349
92	0xbc0089f6	-0.007845392
93	0xbdab6aaf	-0.08369958
94	0xbc1e9a47	-0.009680337
95	0x3e54170d	0.20711918
96	0xbd5c6cf1	-0.053814832
97	0xbd519c44	-0.051174417
98	0x3e2b21fd	0.16712184
99	0x3c967fe0	0.018371522
100	0x3d72f96d	0.059319902
101	0x3c6eec5b	0.014582719
102	0xb8ab6244	-8.172219e-05
103	0x3d828fbe	0.06375073
104	0x3c031a33	0.008001852
105	0xbd1db9ff	-0.038507458
106	0xbd9f89e4	-0.077899724
107	0xbd1dc285	-0.038515586
108	0xbd878abb	-0.066182576
109	0xbbb78cbb	-0.005601493
110	0xbd1857cf	-0.037193116
111	0xbd405538	-0.04695627
112	0xbd791388	-0.060809642
113	0x3d88408b	0.066529356
114	0x3dcc6907	0.0998097
115	0x3d200746	0.039069436
116	0xbe316223	-0.17322592
117	0xbdc081d6	-0.09399764
118	0xbda1b220	-0.07895303
119	0xbc5b0504	-0.013367895
120	0xbd8267e9	-0.063674755
121	0x3cb244e7	0.02176137
122	0x3d8d88a3	0.06910827
123	0xbbb88458	-0.005631011
124	0xbdcba0c8	-0.09942776
125	0x3d46604f	0.04843169
126	0x3e199ca1	0.15001155
127	0x3d7c6847	0.061622884
128	0x3e4f2db4	0.20232278
129	0xbd1de4fe	-0.038548462
130	0x3d9efe70	0.07763374
131	0xbe11ef5f	-0.14251469
132	0xbd383d07	-0.044980075
133	0xbe08d2e3	-0.13361697
134	0xbe1215ba	-0.142661
135	0x3ca82b52	0.02052847
136	0x3cc171ed	0.023613894
137	0xbc15b809	-0.009138116
138	0xbd9b0888	-0.075699866
139	0x3e18f118	0.1493572
140	0x3db26bb6	0.087119505
141	0xbc30b608	-0.010785587
142	0xbdb627fa	-0.08894344
143	0xbcb6e8bc	-0.022327773
144	0xbdb8a263	-0.09015348
145	0x3dfb099d	0.12257693
146	0x3c412c4c	0.011790346
147	0x3db39575	0.08768741
148	0xbb9ff9be	-0.0048820665
149	0x3dfde453	0.12397065
150	0xbde82131	-0.11334456
151	0xbde0bd3d	-0.10973594
152	0x3d8d8473	0.06910028
153	0x3c826d4c	0.015921257
154	0x3b62b7c3	0.0034594394
155	0xbdce71ca	-0.10080297
156	0xbd013657	-0.031545963
157	0x3db9261f	0.09040474
158	0xbde0d11e	-0.10977386
159	0x3cc00572	0.023440097
160	0xbade7660	-0.0016972534
161	0xbd5a8d6a	-0.05335752
162	0x3cd7042e	0.02624711
163	0xbc7d6453	-0.015465814
164	0xbd1f09ce	-0.03882771
165	0x3c5071ea	0.012722472
166	0xbcaa2b3f	-0.020772574
167	0xbd3bb6c9	-0.045828614
168	0xbc7163be	-0.014733253
169	0x3ce49f73	0.027908063
170	0xbd87f590	-0.06638634
171	0xbca9d2bc	-0.020730369
172	0x3c5b5c4b	0.013388704
173	0x3d360a62	0.044443496
174	0x3da8f1fb	0.08249279
175	0x3db42a6c	0.08797154
176	0x3cd3e4c2	0.025865916
177	0x3c52099d	0.012819675
178	0xbd18fa7b	-0.03734825
179	0x3d62ea46	0.0553992
180	0x3dcab0a9	0.098969765
181	0xbcb09312	-0.021554504
182	0xbd4716ee	-0.04860585
183	0x3d55c44c	0.052189156
184	0xbd361f44	-0.04446341
185	0xbdc930cf	-0.098237626
186	0x3d9d8627	0.07691603
187	0xbcb9acd5	-0.02266542
188	0xbd6c7a23	-0.057733666
189	0xbdb8486b	-0.08998188
190	0x3d1c7268	0.038195044
191	0xbd1f2b33	-0.038859557
192	0x3d94cb81	0.07265378
193	0xbc01fd15	-0.007933875
194	0x3d6e6cb0	0.05820912
195	0xbd322c71	-0.043499414
196	0x3da08460	0.078377485
197	0xbdd878d2	-0.1056992
198	0x3dd97fbc	0.106200665
199	0x3d7ed990	0.062219203
200	0xbdae76ba	-0.08518739
201	0x3d53e138	0.051728457
202	0x3cd82c4a	0.026388306
203	0xbdced236	-0.10098688
204	0x3de021d0	0.10943949
205	0x3ddc77f6	0.10765068
206	0x3c980a6f	0.018559663
207	0x3d8d44da	0.06897898
208	0x3d2ed4d1	0.042683426
209	0x3d0b03d3	0.033939194
210	0xbe3e8e2b	-0.1860892
211	0xbd7f9d22	-0.062405713
212	0x3c8c1413	0.017099416
213	0x3df12566	0.11774711
214	0x3db17c6e	0.08666311
215	0xbd87bb83	-0.06627562
216	0x3e14873e	0.14504716
217	0xbcbf97a0	-0.02338773
218	0xbe17f11d	-0.14838071
219	0xbc780123	-0.01513699
220	0xbce62263	-0.028092569
221	0xbc2f4816	-0.010698339
222	0xbd93fd97	-0.07226103
223	0x3e0c1827	0.13681088
224	0xbd5da2a2	-0.054110177
225	0xbdbcf982	-0.09227277
226	0xbd0cd03b	-0.03437827
227	0x3cb36926	0.021900725
228	0xbd4ada6e	-0.049524717
229	0x3d25d443	0.04048563
230	0x3cd803ee	0.026369061
231	0x3dcea569	0.10090143
232	0x3c46bc15	0.012129803
233	0xbd611740	-0.054953814
234	0x3d866bc8	0.065635264
235	0xbc736a23	-0.014856848
236	0x3d5d8c8b	0.05408911
237	0xbd06189d	-0.032738317
238	0xbcba4a60	-0.022740543
239	0xbcb72fe8	-0.02236171
240	0xb93b669e	-0.00017871938
241	0x3e6dcab6	0.2322186
242	0xbd9c71c9	-0.0763889
243	0x3c957871	0.018245908
244	0xbc6f0d00	-0.014590502
245	0x3e37f8e0	0.17966032
246	0xbd06201d	-0.03274547
247	0xbc13cbd3	-0.009020763
248	0x3d6a5500	0.05720997
249	0xbdaedbe2	-0.08538033
250	0x3d31e405	0.043430347
251	0xbd94a64f	-0.07258283
252	0xbcdb7c5d	-0.0267927
253	0xbd63045c	-0.05542408
254	0xbd022954	-0.031777695
255	0x3b9c6e92	0.004773923

network_body._body_endoder.seq_layers.2.bias f4 [128]
0	0xbab2bd82	-0.00136368
1	0xb9d5b838	-0.0004076378
2	0x3b284cc0	0.0025680512
3	0xbab4817b	-0.0013771498
4	0xba592c82	-0.0008284525
5	0xbb268223	-0.0025407157
6	0xbaa68090	-0.001270311
7	0xbabb120b	-0.0014272345
8	0xbada41e7	-0.001665172
9	0xbaeed9d0	-0.0018222872
10	0xb9924453	-0.00027898196
11	0xbb244872	-0.0025067595
12	0xba8e2a60	-0.0010846369
13	0xba70dfa5	-0.0009188599
14	0xba659ad9	-0.0008758731
15	0xbb105f41	-0.0022029432
16	0xbb098fd8	-0.0020990279
17	0xbb4166c4	-0.0029510716
18	0xba3cb23a	-0.00071981887
19	0xbb059c2e	-0.002038728
20	0xba7d151f	-0.00096543314
21	0xba8e6e48	-0.0010866607
22	0xba99c848	-0.0011732662
23	0xbad66ee0	-0.0016359948
24	0xba7b655e	-0.0009589995
25	0xba289b76	-0.0006431857
26	0xbac08d13	-0.0014690481
27	0xbaf74180	-0.0018864125
28	0xba5b4e12	-0.00083658204
29	0xb998c699	-0.00029139666
30	0xba813ea2	-0.0009860585
31	0xba534985	-0.00080599665
32	0xbb1a7855	-0.0023570259
33	0xbb5245b1	-0.0032084996
34	0xba92cd02	-0.0011200013
35	0xbacc141f	-0.0015569961
36	0xbadd4397	-0.0016881105
37	0xbb055f4f	-0.0020350998
38	0xba31bcd7	-0.00067801535
39	0xba94d29f	-0.0011354274
40	0xba3b3e2d	-0.0007142749
41	0xba1d0bc3	-0.00059908273
42	0xb9f4742a	-0.00046625856
43	0xbacda32a	-0.0015688885
44	0xbab2f457	-0.0013653141
45	0xbb4d17bb	-0.0031294662
46	0xbabda372	-0.0014468266
47	0xbb2f9390	-0.0026790835
48	0xba509ab3	-0.00079576223
49	0xbb1a662c	-0.0023559434
50	0xbac6630d	-0.0015135721
51	0xb8cb9879	-9.7081946e-05
52	0xb98dc727	-0.00027041996
53	0xbadbb46d	-0.0016762145
54	0xbadf6a19	-0.0017045169
55	0xb991754b	-0.00027743945
56	0xba2baaf3	-0.0006548606
57	0xbab77233	-0.0013995826
58	0xbaafb718	-0.0013406007
59	0xbb42179d	-0.0029616125
60	0xba5d2bc2	-0.00084370014
61	0xba8b3cae	-0.0010622942
62	0xbac24110	-0.0014820416
63	0xba388299	-0.00070385035
64	0xba815e06	-0.000986994
65	0x3a663cea	0.00087828806
66	0xbb60a05f	-0.0034275276
67	0xbacb05fa	-0.0015489452
68	0xb9869bdd	-0.000256746
69	0xbb3beeb9	-0.0028676225
70	0x3acaceee	0.0015473047
71	0xba967226	-0.0011478111
72	0xba8d1c16	-0.0010765817
73	0xb942d585	-0.00018580824
74	0xba89089e	-0.0010454839
75	0xbaa66a37	-0.0012696449
76	0xbaf0c5ab	-0.0018369457
77	0xbaef7059	-0.0018267735
78	0xba2f4f4f	-0.0006687538
79	0xb9e430fc	-0.00043524045
80	0xba32ba27	-0.00068179
81	0xba95daba	-0.0011432983
82	0xbb8d333a	-0.004309085
83	0xbad45dd5	-0.001620228
84	0xbac59c12	-0.001507642
85	0xbae06e2d	-0.0017122679
86	0xba0df29e	-0.0005414876
87	0xba14a1db	-0.00056698703
88	0xb9f62819	-0.0004695065
89	0xbaec0b4d	-0.0018008739
90	0xba4b9c76	-0.000776715
91	0xba9c5098	-0.0011925874
92	0xba6eeb60	-0.0009114053
93	0xbafaf526	-0.0019146546
94	0xbb113ef8	-0.0022162776
95	0xbadbd6b3	-0.0016772359
96	0xba69fa46	-0.0008925538
97	0xba121d1a	-0.00055737945
98	0xba2451bd	-0.00062682835
99	0xbad310dd	-0.0016103048
100	0xba4d573d	-0.0007833129
101	0xbab28b35	-0.0013621809
102	0xbaa8f8b5	-0.0012891503
103	0xbb00e144	-0.0019665519
104	0xba9daac8	-0.0012029046
105	0xbb030001	-0.0019989016
106	0xbb0036e4	-0.0019563967
107	0xbaf3b632	-0.0018593727
108	0xba749a33	-0.0009330839
109	0xb9f939b0	-0.00047535961
110	0xbb0d26f2	-0.0021538106
111	0xba8ce116	-0.0010748233
112	0xbaf52acb	-0.001870477
113	0xba3205e5	-0.00067910395
114	0xba963457	-0.001145969
115	0xbab72324	-0.0013972265
116	0xb9b86f64	-0.00035178207
117	0xba6fde98	-0.00091502955
118	0xbaa797bc	-0.0012786309
119	0xbad3e0ef	-0.0016165058
120	0xba4558a1	-0.00075281603
121	0xba56f9ca	-0.00082006736
122	0xb9d7a557	-0.00041131183
123	0xba8aa55b	-0.0010577844
124	0xb998b346	-0.00029125268
125	0xb9ec0ccd	-0.00045022965
126	0xba4b90ec	-0.00077654305
127	0xb9e4c9d0	-0.0004363791

network_body._body_endoder.seq_layers.2.weight f4 [128, 128]
0	0x3bbfa99c	0.0058490764
1	0xbe1531c5	-0.14569767
2	0x3abcda8d	0.0014408395
3	0x3d32034c	0.043460175
4	0x3ddc3b20	0.10753465
5	0x3d45cdbd	0.04829191
6	0xbe04be6f	-0.1296327
7	0xbdcedabe	-0.101003155
8	0x3d71a4dc	0.058995113
9	0x3d9385ae	0.07203232
10	0x3ae8a380	0.0017748922
11	0xbd295bd1	-0.04134733
12	0xbb9e2d44	-0.0048271734
13	0x3e4712e8	0.19440806
14	0xbcd6bc5a	-0.02621286
15	0x3d3b7277	0.04576346
16	0xbba78622	-0.0051124254
17	0x3d5f14ac	0.054463074
18	0xbd200db5	-0.039075572
19	0x3b953829	0.004553814
20	0xbd758f50	-0.059951127
21	0x3d9ec572	0.077525035
22	0x3df67975	0.12034885
23	0xbd349d66	-0.04409542
24	0x3e154407	0.14576732
25	0x3cfcb3ae	0.030847397
26	0xbd744436	-0.059635364
27	0x3c0beae7	0.008539892
28	0xbd4e2837	-0.05033132
29	0xbd6ebc8c	-0.05828528
30	0xbd5ea71b	-0.054358583
31	0x3d8eb8c8	0.06968838
32	0xbd1ba85c	-0.038002357
33	0xbe10e9d9	-0.14151706
34	0x3c6a7464	0.014309976
35	0xbe56a108	-0.20959866
36	0xbc8c1616	-0.017100375
37	0xbd45385c	-0.04814945
38	0x3be2529d	0.006906821
39	0xbc88830e	-0.016664054
40	0x3d2a4776	0.041572057
41	0xbe74c4d5	-0.2390321
42	0x3c062bec	0.008189183
43	0x3d7ca68e	0.061682276
44	0xbd2426ff	-0.040076252
45	0xbd17023c	-0.036867365
46	0xbdd8eaac	-0.10591635
47	0xbd52b8ab	-0.051445644
48	0x3c7d0978	0.015444152
49	0x3c5b4848	0.013383932
50	0xbd383ce3	-0.04497994
51	0xbe077e75	-0.13231833
52	0xbd2b7b8b	-0.041865867
53	0xbddbd8ee	-0.107347354
54	0xbd8ad983	-0.06779768
55	0x3de7bd78	0.11315435
56	0x3c8e8dd4	0.017401613
57	0xbca122f7	-0.019669993
58	0x3afa4dc4	0.0019096662
59	0x3df6bd3d	0.12047813
60	0xbe2e72a2	-0.17035916
61	0xbd41ad6b	-0.047284525
62	0xbbccf66e	-0.0062549626
63	0x3d90da01	0.07072831
64	0xbb7d96dd	-0.0038694658
65	0x3df9ff9d	0.122069575
66	0xbc8cc70b	-0.017184755
67	0xbdab424c	-0.083622545
68	0xbd7f0375	-0.062259156
69	0xbd8a37ab	-0.06748899
70	0x3d7d3807	0.06182101
71	0xbd19fb96	-0.037593447
72	0x3d933c36	0.07189219
73	0xbc1d0ce4	-0.009585593
74	0x3d8be4e5	0.068307675
75	0xbe1023dd	-0.14076181
76	0x3e13565d	0.14388414
77	0x3dc7aee5	0.09750155
78	0x3e2ee6ae	0.17080185
79	0x3c963c14	0.018339194
80	0x3dafe8f1	0.08589352
81	0x3da9d81d	0.082931735
82	0x3b40f148	0.002944069
83	0xbd8b0f8a	-0.06790073
84	0x3c957dbe	0.018248435
85	0x3e150493	0.14552526
86	0x3cde5e65	0.02714462
87	0x3df31645	0.11869482
88	0x3d7a1b9f	0.061061498
89	0xbd0d7dac	-0.03454368
90	0xbd59f72f	-0.05321425
91	0x3ca3bfc3	0.0199889
92	0x3d122490	0.0356794
93	0xbd9c14e6	-0.076211736
94	0xbb013d6d	-0.001972045
95	0xbd34b53f	-0.044118162
96	0xbc89476e	-0.016757693
97	0xbe1f7869	-0.15573277
98	0xbdb297ca	-0.08720358
99	0x3ca7cc62	0.0204832
100	0xbd20a6e9	-0.039221678
101	0x3cfb5ba8	0.030683354
102	0xbdd660fd	-0.10467718
103	0x3dec4bef	0.11537921
104	0xbd74e7b3	-0.059791278
105	0xbd1df4da	-0.038563587
106	0x3d234f87	0.039870765
107	0x3d908e49	0.07058389
108	0x3dbc902c	0.09207186
109	0xbc4c772d	-0.012479586
110	0x3e318f00	0.17339706
111	0xbcbec5f3	-0.023287749
112	0xbd47da71	-0.048792306
113	0x3c22b7d8	0.009931527
114	0xbce7214a	-0.028214116
115	0x3cbbabe2	0.022909109
116	0x3c88fa94	0.016721047
117	0x3d0e02e9	0.034670744
118	0xbd8d69a0	-0.06904912
119	0xbd843363	-0.06455114
120	0xbc06b1af	-0.008221074
121	0xbd66ee63	-0.056379687
122	0x3d496bc2	0.04917503
123	0xbd8ed88f	-0.06974899
124	0xbd3e0360	-0.046389937
125	0x3dfddfee	0.12396227
126	0x3d4132ef	0.047167715
127	0xbd895090	-0.06704819
128	0xbdfdb2e8	-0.12387639
129	0x3da720f8	0.08160585
130	0x3c39971f	0.011327534
131	0x3c58e9a3	0.013239297
132	0xbd23fcec	-0.040036127
133	0x3b11517b	0.002217381
134	0xbd00a1c9	-0.03140429
135	0xbd5e1751	-0.054221455
136	0x3ca6a74a	0.020343442
137	0xbce941dc	-0.028473787
138	0xbe5c1882	-0.21493724
139	0xbbfbc893	-0.0076838224
140	0x3d946379	0.072455354
141	0xbce57c37	-0.028013332
142	0xbd615125	-0.055009026
143	0xbce83f52	-0.028350506
144	0xbd2713c9	-0.040790353
145	0x3d9e9aa5	0.0774434
146	0x3d04f96c	0.03246443
147	0xbcae5d20	-0.02128464
148	0x3da3fc6c	0.0800713
149	0x3d1ab7a8	0.037772804
150	0x3d572842	0.052528627
151	0x3c02272c	0.00794391
152	0x3d77b697	0.060476866
153	0xbd75a406	-0.059970878
154	0x3d3f7f9c	0.046752557
155	0xbbf6574a	-0.00751773
156	0xb9a32398	-0.00031116302
157	0x3e5d8a67	0.21634828
158	0xbd56a659	-0.052404735
159	0xbd87cdc8	-0.066310465
160	0x3d73b803	0.05950166
161	0xbcccea79	-0.025014149
162	0x3e23355c	0.15938324
163	0xbd616ce7	-0.055035498
164	0x3dba8d3b	0.09108969
165	0x3d93b0e3	0.07211473
166	0xbbd0807c	-0.006362973
167	0x3b8b416f	0.0042497437
168	0x3d5117ba	0.051048018
169	0xbc187c47	-0.009306974
170	0xbce15195	-0.027504722
171	0x3c828729	0.01593359
172	0xbdc25381	-0.09488583
173	0x3da99f56	0.08282344
174	0xbe0b4a0e	-0.13602468
175	0xbdd29761	-0.102827795
176	0x3d353bc9	0.04424647
177	0x3d048c3f	0.03236031
178	0x3ded7436	0.11594431
179	0xbd1dd79b	-0.038535696
180	0x3d8ce8e9	0.068803616
181	0x3e044eb4	0.12920648
182	0x3d9ad41c	0.07559988
183	0xbd2e3b09	-0.04253677
184	0xbbeae232	-0.007168078
185	0xbdb8fd0d	-0.090326406
186	0x3d5f3b15	0.054499704
187	0x3d5d62c4	0.05404927
188	0xbe0a2768	-0.13491595
189	0x3d4f4900	0.050606728
190	0x3a014492	0.0004931177
191	0x3dde9819	0.10868854
192	0x3dac056d	0.083994724
193	0x3d8f6f4c	0.0700365
194	0x3d7e5870	0.06209606
195	0x3d7920cd	0.060822297
196	0xbe6be253	-0.23035555
197	0xbc729212	-0.014805334
198	0xbca77a85	-0.020444164
199	0x3d0ceba2	0.034404404
200	0xbd9a8e9b	-0.07546731
201	0x3dcf4fd0	0.10122645
202	0xbe45668e	-0.19277403
203	0xbc86961d	-0.016429001
204	0x3bb56091	0.0055351933
205	0xbd45ac1b	-0.048259836
206	0x3e513009	0.2042848
207	0xbdb0d79b	-0.086348735
208	0x3cb46bb7	0.022024019
209	0xbdfb8f27	-0.122831635
210	0xbcd432dc	-0.025903158
211	0xbd3600e6	-0.04443445
212	0x3e032776	0.12808022
213	0x3ddff568	0.109354794
214	0xbe854e9a	-0.2603653
215	0xbe58ceb7	-0.21172605
216	0x3d8ad4e6	0.067788884
217	0xbe2dbc56	-0.16966376
218	0x3d3f238c	0.04666476
219	0x3cb3d2b9	0.021951066
220	0xbe1274e9	-0.1430241
221	0x3db6bd5c	0.08922836
222	0xbd4a31ca	-0.04936389
223	0xbd1297c4	-0.035789266
224	0xba9b9776	-0.00118707
225	0x3dc04fc4	0.09390214
226	0xbddf6895	-0.10908619
227	0x3d988333	0.07446899
228	0x3d839f0d	0.06426821
229	0xbd8449f6	-0.064594194
230	0xbd135372	-0.03596825
231	0x3d132a52	0.03592903
232	0xbe0cbfb3	-0.13745002
233	0xbc9aab7b	-0.018880596
234	0x3c844658	0.016146824
235	0xbb4969e1	-0.0030733275
236	0x3d3c30a6	0.045944832
237	0x3d4c9244	0.049944177
238	0xbca93081	-0.020653011
239	0x3c2cd677	0.010549179
240	0xbcfcc214	-0.030854262
241	0xb9215383	-0.00015385267
242	0x3d60cb48	0.054881364
243	0x3d0c6b54	0.034282044
244	0xbe6347b6	-0.22195324
245	0x3d0fdf80	0.035125256
246	0xbdc2a1cd	-0.09503517
247	0xbe3437be	-0.17599389
248	0xbd9bc4f0	-0.07605922
249	0xbdf8ce3a	-0.121487096
250	0xbcea254c	-0.028582238
251	0x3dd788ed	0.105241634
252	0xbd060048	-0.032715112
253	0xbda1aace	-0.078939065
254	0xbde4d456	-0.11173312
255	0x3e00dc13	0.12583952
