results/test8/CharacterBehav.onnx (onnx, 170777 bytes, 9 tensors)

action_model._discrete_distribution.branches.0.bias f4 [3]
000000 b5 24 17 b8 c5 8a 18 3a 6b 39 8c b9
       -3.603539e-05 0.0005819018 -0.0002674566

action_model._discrete_distribution.branches.0.weight f4 [3, 128]
000000 bc 77 07 3c 7e df de bb 10 72 be 3b e7 ea 98 bb
       0.008268293 -0.0068015447 0.005811937 -0.0046666744
000010 f7 b4 e1 bb 96 e1 d9 b9 ba ec 8e bc 98 06 c7 3b
       -0.006888028 -0.0004155754 -0.017446864 0.006073784
000020 57 d1 75 3b 52 44 b2 3a 1b 7c 26 bc fe de 92 bc
       0.003750881 0.0013600683 -0.010161425 -0.017928597
000030 e3 14 5d bb 9c d7 43 3c 70 df 41 3b a4 1a 9c ba
       -0.0033734373 0.011953261 0.0029582642 -0.0011909795
000040 f8 05 8c 37 a6 12 aa bc b8 bd 88 3c 7f 83 eb 3b
       1.669208e-05 -0.020760845 0.016692027 0.0071873064
000050 94 52 79 39 45 2e a7 b9 6c 7c b5 bb 70 67 54 bb
       0.00023777253 -0.00031887196 -0.005538514 -0.0032410286
000060 46 94 23 bb 89 24 a1 bc bd be 09 bc bf 71 45 bb
       -0.0024960204 -0.019670742 -0.008407292 -0.0030127612
000070 38 58 b2 39 18 9c 83 bb 40 44 de bb 8a 5a aa ba
       0.00034016534 -0.0040164106 -0.0067830384 -0.0012996953
000080 fa e0 1b 3a 18 6b 0c ba 1f 8d f8 bb b6 dd 25 bb
       0.0005946305 -0.00053565344 -0.0075851823 -0.0025309152
000090 38 5e 50 3c bf 2a 28 bc 60 01 90 3c 5d 1f ce bb
       0.012717776 -0.010264098 0.01757878 -0.00629036
0000a0 f7 37 81 bb 6f 48 33 3c 82 de 89 bb b2 0e 46 bc
       -0.003943439 0.0109425625 -0.004207433 -0.012088465
0000b0 ce 46 5c 3c a6 a5 f7 b8 89 aa 7c bc 78 da 19 3a
       0.0134446155 -0.00011808732 -0.015421518 0.0005869041
0000c0 17 fa fa bb 1c 05 46 bc 4b c3 77 bb 2a 8b 5d bb
       -0.0076592076 -0.012086179 -0.0037805613 -0.0033804872
0000d0 c6 7d 35 3b 93 22 6a 3b f4 7f e3 3b ed f1 8a ba
       0.0027693375 0.0035726174 0.0069427434 -0.0010600664
0000e0 57 06 02 bc 4f 88 46 3c 52 c7 10 3b 72 08 8e bb
       -0.007936082 0.012117459 0.002209146 -0.004334503
0000f0 2c fc bb 3b 79 0c bd bc dc c4 12 ba 3b 66 3b 3b
       0.0057368483 -0.023077236 -0.00055987923 0.002859487
000100 b2 9a 8b 3c c9 cc 40 3b ef db 7a 3a f7 fa 81 3a
       0.017041538 0.0029418936 0.0009569516 0.0009916712
000110 c5 fa 93 3b 01 3f e0 3b d5 94 39 bc 50 10 9e 3b
       0.004515978 0.006843448 -0.011326988 0.004823722
000120 b4 52 0e bc e4 2a 7b bb 75 7e 42 3b 43 b4 26 3c
       -0.00868671 -0.0038325125 0.0029677425 0.010174814
000130 fc 31 08 3c e6 3a a6 bb 35 36 81 bc e6 eb 83 bb
       0.008312698 -0.005072939 -0.015772918 -0.004025924
000140 0d d4 7d 3c f5 8a 8b 3b 81 65 34 3c 69 56 69 bb
       0.015492451 0.0042585083 0.011010529 -0.0035604483
000150 46 6b 10 3c ec 23 bd 3b 4c 00 63 bc a4 b8 b1 bc
       0.0088146385 0.0057721045 -0.013855051 -0.021694489
000160 3a 49 89 3b 62 da 31 bc bf 7b a2 3b 84 45 9b 3b
       0.0041896375 -0.010855289 0.0049585993 0.0047385115
000170 42 23 8c ba 9d 89 ea 3b e2 ca 6f bb b8 a6 90 bb
       -0.001069166 0.007157518 -0.0036589433 -0.0044144057
000180 13 3a 28 bc bd c7 ba 39 e6 84 4c bc 26 d6 cd 3b
       -0.010267752 0.000356255 -0.012482857 0.006281632
000190 a5 f0 61 bc 0f d2 6b bc 3a ef 9f 3c 66 2b 26 bb
       -0.013790284 -0.014393344 0.019523252 -0.0025355457
0001a0 06 59 a3 3b c4 5b f7 bb 7b 9a 78 3c 7d b0 9e 3b
       0.0049849777 -0.007548781 0.01517355 0.0048428164
0001b0 7c cb 3a b9 61 1b 26 bc 75 5d cc 3c 67 78 e3 3b
       -0.00017814146 -0.010138364 0.024946908 0.0069418433
0001c0 92 11 2a bc 50 f2 b0 bb c5 12 93 3b 28 fc 6d bc
       -0.010380166 -0.0053999797 0.0044883215 -0.014525451
0001d0 9d 47 2f 3c 18 35 1b bc c9 a4 b0 39 b0 9c f7 3a
       0.010698226 -0.009473108 0.0003369211 0.0018891301
0001e0 81 9a 4a 3c 65 a1 93 bb d2 7d 97 bb be 3f e4 bb
       0.012365938 -0.0045053237 -0.0046231532 -0.0069656065
0001f0 d4 07 9b bc 9d 34 45 ba 55 56 98 3b 24 0b b5 bb
       -0.018924631 -0.00075227936 0.0046489635 -0.0055250097
000200 b6 55 90 3b fb 61 93 3c a5 2e 2f 3c ca c2 8a bc
       0.004404749 0.017991057 0.010692273 -0.016938586
000210 56 8e 4d 3c b5 a3 e7 3b 18 52 b3 3c 38 a3 37 bc
       0.012546143 0.007069076 0.021889731 -0.011208348
000220 3d 23 62 bc 45 70 1d bc b7 e3 74 ba 6e 99 72 bb
       -0.013802347 -0.009609287 -0.00093417935 -0.003701772
000230 b7 dd 5c 3b b1 06 41 bc fe 3f b3 3a ba 98 07 bc
       0.0033701488 -0.0117813805 0.0013675687 -0.008276159
000240 a6 af 48 3b d7 e9 9e bc 27 e0 83 3b d6 bd d1 bb
       0.0030622273 -0.019398613 0.004024524 -0.006400804
000250 2a 67 04 bc 2e 52 d0 b9 12 a2 50 bc 9c a7 1f b9
       -0.008081237 -0.0003973408 -0.012733953 -0.00015225861
000260 a1 c6 60 bb 30 af b3 3b 6e 75 06 bb 37 5d 86 3b
       -0.003429808 0.0054835305 -0.002051677 0.0041004675
000270 07 81 e2 3b 5b 16 02 39 e7 26 59 bc 95 d1 8f bc
       0.006912354 0.00012406094 -0.013253904 -0.017555991
000280 e1 c9 ab 3b 5a 76 e5 3b 28 de bb 3b 11 bb cf 3a
       0.0052425717 0.007002634 0.00573327 0.0015848597
000290 87 9d e3 3b f1 3a fa 3a fd d5 97 bb 7e 86 81 3b
       0.006946269 0.0019091052 -0.0046336637 0.0039528003
0002a0 49 fa 71 3a cc f8 8c ba 1f c9 c5 3a d5 7d e6 3a
       0.0009230716 -0.00107553 0.0015089846 0.0017585108
0002b0 f2 a4 33 bc 6c 68 25 3b 25 0a c8 bb 45 e0 86 3b
       -0.010964619 0.0025239242 -0.006104725 0.0041160905
0002c0 38 db e8 3a b4 55 60 bc 1c 4e c8 ba 60 86 f1 bb
       0.0017765528 -0.013692308 -0.0015282067 -0.007370755
0002d0 31 c0 49 3c 25 a2 b1 3b ba 96 1d 3c a6 7e 89 bc
       0.012313888 0.0054209405 0.009618456 -0.016784023
0002e0 6c 68 96 bb 46 85 76 3c ab 59 14 3c 79 a9 c4 bb
       -0.004590085 0.015046423 0.009054582 -0.006001648
0002f0 5a 5e cb 3a 8f d7 06 3c cd 91 c6 3b 05 2a 8d bb
       0.001551579 0.008230104 0.0060598613 -0.0043079876
000300 4e fe 81 3b 50 d3 03 3c 5d dc 2b bb 57 e7 a2 bc
       0.003967083 0.008045986 -0.0026223876 -0.019885702
000310 d1 70 cf 3a 19 59 0c 3c 10 66 a1 bb d4 33 9b bb
       0.0015826469 0.008566164 -0.004925497 -0.004736403
000320 a1 4f 7e bc 5a d0 ca bb d4 8b 7f bb 87 e4 4f bc
       -0.015521915 -0.006189388 -0.0038993256 -0.0126887625
000330 e7 ac 8b bb 96 99 9b bc a0 ef ed bb 9f 15 0c bc
       -0.004262555 -0.018994134 -0.0072612315 -0.008550077
000340 b5 dd 0a bc 97 87 f8 3b 3c 16 d6 bb 57 ab 50 3c
       -0.008475711 0.007584523 -0.0065334123 0.012736163
000350 99 6d 5d 3b 03 75 48 3c 2c 60 8f 3c 34 a2 6c 3b
       0.003378725 0.012234929 0.017501913 0.0036107423
000360 93 50 19 bc 33 00 b2 b9 fe 9f e7 bb fc 3b 85 bb
       -0.009357589 -0.00033950954 -0.007068633 -0.0040659886
000370 dc ea ca ba 8c bd 52 bc bc 9c c9 bb c9 76 ab 3a
       -0.001548137 -0.012862574 -0.0061527174 0.0013081665
000380 a3 f8 cd 3b 76 4c 59 3c 6a 1a 11 3c 8e d4 8d 39
       0.0062857433 0.013262859 0.008856395 0.0002705198
000390 be ea 9d ba 7c e1 8c ba f2 2c 55 3c d1 65 22 3c
       -0.0012048108 -0.0010748352 0.013011204 0.00991197
0003a0 1c 77 7d 3a 43 06 e2 3b db 0d e5 ba ea e8 5a bb
       0.0009668933 0.006897719 -0.0017475443 -0.0033402988
0003b0 06 e4 9a bb ec 26 59 3c 81 2a 2f ba 95 ec 65 3c
       -0.0047268895 0.013253909 -0.0006682054 0.014033456
0003c0 6e 8b 84 bb 06 3e fa 3b b8 ca 06 bc a7 41 9c 3b
       -0.0040449416 0.0076367883 -0.008227043 0.0047685686
0003d0 b7 4d 4a bc 73 d3 06 3a 2d 66 81 3b b5 74 f1 3a
       -0.01234763 0.0005143203 0.003948948 0.0018421622
0003e0 39 3e 8c 3c b5 da be ba 55 7f 74 3b 64 1b 50 3c
       0.017119514 -0.0014561029 0.003730734 0.012701843
0003f0 d6 36 88 3b 54 ff af ba c0 df 52 bb 9a 29 19 bc
       0.0041569276 -0.0013427534 -0.0032176822 -0.0093482975

action_model._discrete_distribution.branches.1.bias f4 [3]
000000 e1 f9 5c 3a 09 99 a6 39 db 4a c7 b9
       0.0008429569 0.00031776007 -0.0003801201

action_model._discrete_distribution.branches.1.weight f4 [3, 128]
000000 f2 fa dc bb c7 0f c0 ba e9 a0 56 3c 23 a6 00 3b
       -0.006743782 -0.001465314 0.013099887 0.0019630275
000010 78 03 60 ba 11 e9 57 3a 64 34 3a 3c 7d 42 de bc
       -0.0008545439 0.0008236329 0.01136503 -0.027131313
000020 55 e1 38 bb ee 11 da bb 9d c0 2f bb c6 64 80 bb
       -0.002821048 -0.0066549694 -0.0026817687 -0.003918263
000030 df 87 4d 3c 99 25 27 3c 91 a6 57 3b d0 67 70 bc
       0.012544601 0.010201835 0.0032905678 -0.014673188
000040 d9 47 81 bc 99 9b b7 bb 7c 4d a8 b9 59 b6 d7 ba
       -0.01578133 -0.0056032655 -0.00032101187 -0.0016457542
000050 13 fa 7d ba 2a 30 a9 3c 41 c1 b8 3b 8e c1 31 ba
       -0.0009688448 0.02065285 0.005638272 -0.0006780856
000060 c2 a4 2e bb 50 82 14 bb f5 d4 ac bb 12 fc 12 3c
       -0.0026648496 -0.002266068 -0.00527441 0.008971231
000070 01 e1 4d bc e9 ce e7 3a a8 4c 01 37 67 82 9c 3b
       -0.012565852 0.0017685565 7.706847e-06 0.0047762874
000080 03 22 58 3c 0c dc 14 3c b2 5f 9c 39 35 72 b5 3b
       0.013191703 0.009085666 0.00029825937 0.005537296
000090 1a 79 c9 ba 2f a4 13 b8 f0 9d a0 3a 94 ea 43 3b
       -0.0015371174 -3.520044e-05 0.00122541 0.0029894458
0000a0 44 f6 33 3b 40 fe af 3b 0e 58 30 3b 7b a5 8e 3c
       0.0027460018 0.005370885 0.0026907953 0.017412892
0000b0 54 9d fd 3b fb 19 63 bc f9 a0 50 3b ee 66 48 3b
       0.0077397022 -0.013861175 0.0031834228 0.003057893
0000c0 1f a3 16 bb 70 7b d4 3a 38 33 e8 ba 44 1d 1a bb
       -0.0022985411 0.0016211104 -0.001771546 -0.0023515979
0000d0 bd 88 c2 bb be 16 94 b9 d2 dc d6 bb 66 5f e4 ba
       -0.0059367106 -0.00028245704 -0.0065570856 -0.001742345
0000e0 8b 2e ce 3b 8d 5a c8 3b e4 22 cd 3a c9 ad 35 39
       0.0062921694 0.00611431 0.0015650657 0.00017326245
0000f0 51 11 ef bb 5e 3e e6 3b 9c 1c 94 bb 6c b1 77 3c
       -0.0072957654 0.0070264777 -0.004520012 0.015117984
000100 32 ff 10 bc 74 de 5b bc 07 4a 9f bb 2a 57 0d bc
       -0.008849906 -0.013419736 -0.0048611197 -0.008626739
000110 69 2d 2d 3c 4c d5 0f 3c 1c f1 40 bb 66 eb 1e ba
       0.010569909 0.008778881 -0.0029440587 -0.0006062299
000120 1e e7 a9 bb 39 fb 00 3c 0b 89 6c 3a d7 2a cd bb
       -0.005185022 0.007872396 0.00090231065 -0.0062612104
000130 ab 0b 72 3c a7 e4 a4 bc 78 2d fa 3b 8c 69 09 bc
       0.01477329 -0.020128561 0.007634815 -0.008386981
000140 49 71 e0 ba df 55 d9 bb 9e 45 60 bc 85 48 79 bb
       -0.0017123605 -0.006632551 -0.013688473 -0.003803761
000150 c8 76 97 3a 6d 80 d3 bb e3 17 4c bc 5c 66 c8 3a
       0.0011555785 -0.0064545185 -0.012456867 0.0015289295
000160 7f fe 4e bc e2 b2 32 bc 60 5a b0 3b da 34 3c bc
       -0.012633919 -0.010906907 0.0053818673 -0.01148721
000170 b6 fb 36 3c 09 74 43 3b da ed 28 3c 3e 9b 8c bc
       0.011168411 0.00298238 0.0103106145 -0.017163869
000180 23 e5 55 3c 81 2d fb bb d1 bb 92 3b 2c cb 3a bb
       0.013055119 -0.0076653366 0.004477956 -0.0028502448
000190 63 20 5d bc 46 1c 24 bc 29 52 5d bc 14 72 93 bb
       -0.013496491 -0.010016507 -0.013508358 -0.004499683
0001a0 fa 96 cb bb c6 3c 2f 3c 4b d7 cc 39 3e 43 2e bb
       -0.006213066 0.010695642 0.00039070318 -0.0026590372
0001b0 4e 57 11 3c 71 26 b5 3b 65 eb 73 3b 7e 7c c4 3a
       0.008870913 0.005528264 0.0037219163 0.0014990715
0001c0 0e 19 87 3c 1f df 02 bc 47 36 86 3b 6b 3c 1e 3b
       0.01649144 -0.0079877665 0.004095826 0.0024144899
0001d0 f1 6f 44 bb ba 69 11 bb 79 e7 90 ba f4 b3 6c 3b
       -0.002997395 -0.0022188262 -0.0011055312 0.0036118003
0001e0 6b 38 d5 bb 94 15 1a bc b4 b0 a1 3b b8 50 28 3c
       -0.0065069697 -0.009404559 0.0049343947 0.010273151
0001f0 05 5b 8d 3b 39 de ee bb f6 39 9f 3b be 56 9d 3c
       0.004313829 -0.0072896746 0.0048592044 0.019206401
000200 0c 42 46 3c 3c c8 a0 bc be 55 97 3c ce fd 0f bc
       0.012100708 -0.01962673 0.018473502 -0.008788539
000210 39 2d 07 3c 36 f2 65 3c a8 2e b6 3b 0e af 43 3c
       0.008250528 0.014034798 0.005559761 0.011943592
000220 c2 d2 21 3b fb 83 11 3c 45 2c d8 bb c8 e0 79 3c
       0.0024692272 0.008881564 -0.006597074 0.015251346
000230 e4 ca e5 3a 0b aa 4f bb 70 63 fe bb 3a 2b 84 3a
       0.001753178 -0.0031687047 -0.0077633187 0.0010083683
000240 9b a4 23 3b ac b6 1a bc 49 0e f4 3b ec fd c5 bb
       0.0024969939 -0.009442966 0.007447992 -0.0060422327
000250 d4 59 0f 3c 0a 2d 0f 39 24 bc af 3b f7 f6 0c 3b
       0.008749444 0.00013654321 0.0053630043 0.0021509507
000260 0d a0 27 3a 64 3d dd bb c0 ac d5 bb f7 f8 63 3b
       0.0006394394 -0.006751703 -0.0065208375 0.0034785846
000270 fc 17 9b 3a 0b c4 8b bb 1e fc ad 3b ff a2 af bc
       0.001183271 -0.0042653135 0.0053095957 -0.021440027
000280 65 24 cc bb 6c a4 0e 3c d7 73 33 3c b3 fa 5a bc
       -0.0062299245 0.008706193 0.010952911 -0.013365435
000290 55 60 5c bb a3 f7 04 3b 03 41 aa 3b 42 71 2f bc
       -0.0033626754 0.0020289205 0.0051957383 -0.010708155
0002a0 27 3f 37 bb 51 ca ea ba ab 79 42 3c a7 95 98 3b
       -0.0027961226 -0.0017913078 0.011869828 0.004656512
0002b0 24 5b 03 ba 0b 85 2d bb 55 24 af 3b b3 95 36 bb
       -0.00050108344 -0.0026477005 0.0053449073 -0.0027860224
0002c0 89 6b bc 3b d0 04 23 bc 5e 78 b5 bb 32 71 5a 3c
       0.005750124 -0.009949878 -0.0055380305 0.013332652
0002d0 96 c2 58 bc ce 3b 00 bc d2 b2 ae bb ee 11 33 bc
       -0.013229987 -0.007826759 -0.0053313756 -0.010929568
0002e0 21 96 10 3c 1e 61 9f 39 77 66 4b 3c 44 e3 7d bc
       0.008824856 0.000303992 0.012414566 -0.015496079
0002f0 d0 f3 f3 3a 1e 3c 37 3c 69 6d 11 bc 65 d9 88 3c
       0.001861209 0.011183767 -0.008876183 0.016705224
000300 e5 2f 3e 3b 21 f8 65 3c 6c 62 c9 3b a9 1f 36 3c
       0.0029020247 0.014036209 0.006145766 0.011115947
000310 4f 62 65 3a b6 bd c8 bb 34 cc b3 3b bb 96 61 bc
       0.0008750306 -0.006126131 0.0054869894 -0.013768847
000320 93 a6 db 3b 69 5c a8 3b c6 e7 dc ba ce 82 63 38
       0.006703207 0.0051379693 -0.0016853742 5.424284e-05
000330 1c 9f 14 bc d0 e8 46 3c d1 07 3f bc fc 4d 09 3a
       -0.009071138 0.012140468 -0.011659578 0.0005237756
000340 08 e7 57 bb 05 e7 f2 ba ad ad d8 3a ec 8b 36 3c
       -0.0032944102 -0.0018531984 0.0016531252 0.011141758
000350 bc 61 5f 3c 7a 64 27 ba 48 15 ee bb a7 83 6d bc
       0.013634142 -0.00063855166 -0.0072657205 -0.01449672
000360 e3 63 38 bc af f7 92 3c 21 17 84 3c 8d ab 1e 3c
       -0.011254284 0.01794037 0.01612431 0.009684456
000370 7a 9e dc ba 8b 12 09 3a 0d 00 80 bb 44 bd 1f bc
       -0.0016831898 0.00052288984 -0.003906256 -0.009749714
000380 95 8e b5 3b ac 2a b5 bb cb e8 10 bb 31 2d a8 3b
       0.0055406787 -0.0055287685 -0.0022111412 0.0051323404
000390 73 60 31 bc 68 06 7b 3a b8 f0 10 bc b9 cd 34 3b
       -0.010826218 0.0009575845 -0.008846454 0.002758844
0003a0 ed 0e 1f bc a1 89 fd b9 71 5c 8c 3a 20 e0 73 3b
       -0.009708148 -0.00048358462 0.0010708702 0.0037212446
0003b0 6d bd 45 bc 5f 91 54 bc 11 25 d6 3b d9 ca 87 bb
       -0.012069088 -0.012974112 0.0065351804 -0.0041440544
0003c0 db 38 34 bc f4 a5 06 bc ee 53 80 3a 36 9c 19 bc
       -0.0109998835 -0.008218277 0.0009790638 -0.0093756225
0003d0 7d e2 bb 3c b6 10 b4 3b 2d b5 a9 bc 43 0f 94 3b
       0.022935146 0.005495156 -0.020716274 0.004518421
0003e0 7a 6e 0f 3c cc 12 d1 3b 94 b6 4e bc dc 6b c9 bb
       0.008754367 0.0063804146 -0.012616772 -0.006146891
0003f0 3d 57 3e 3b 95 c2 0f bb 69 8b 88 bb 77 53 ad 3b
       0.0029043697 -0.0021936048 -0.0041670096 0.005289491

discrete_action_output_shape f4 [1, 2]
000000 00 00 40 40 00 00 40 40
       3.0 3.0

network_body._body_endoder.seq_layers.0.bias f4 [128]
000000 5a d0 fc ba fb bf b3 3a 21 7c 38 ba 4d cb 1a 3a
       -0.0019288168 0.0013713831 -0.00070375396 0.0005904928
000010 e4 f7 c0 3a 8d 76 05 ba f7 a6 a9 ba de 6c 91 39
       0.0014722315 -0.0005091213 -0.0012943436 0.00027737668
000020 02 d5 64 ba d0 3a 86 ba 10 31 16 38 ce de 20 3a
       -0.00087292504 -0.0010240916 3.580848e-05 0.0006136716
000030 44 97 fb b9 41 c4 16 bb 0d 15 e3 ba 0a f5 88 ba
       -0.00047987152 -0.002300516 -0.0017324999 -0.0010449004
000040 c5 0e c6 38 12 a8 9a 38 61 89 71 3a a3 28 d2 ba
       9.444127e-05 7.374598e-05 0.00092138915 -0.0016033839
000050 ee 42 0f 3a e7 0f e8 b9 f7 a6 d1 3a 43 ce 36 3a
       0.00054649904 -0.00044262336 0.0015995194 0.00069734844
000060 6b d9 10 3a f9 fc e8 ba 0c a1 d9 3b 16 64 25 3a
       0.0005525562 -0.0017775587 0.0066415127 0.00063091645
000070 ba 76 3f ba bc 7e 7c ba 5d 9c 4b ba a4 47 b3 3b
       -0.00073037634 -0.0009631922 -0.00077671354 0.0054711867
000080 97 5b 3e ba e5 e7 34 39 70 98 13 3b 1c e8 db b9
       -0.0007261573 0.00017252525 0.002252128 -0.0004194387
000090 33 87 c2 ba 88 f9 2f 3a eb 8b 83 b9 1d cb 77 3a
       -0.0014841318 0.0006712903 -0.00025090514 0.00094525685
0000a0 b5 2e 41 bb 32 3d 98 ba 0c 7d 1c ba ee 19 b2 33
       -0.0029477302 -0.0011614917 -0.0005969561 8.2934875e-08
0000b0 c2 a4 df ba 4e 00 d8 b9 be 1e 94 ba 44 83 1d b9
       -0.0017062651 -0.00041198957 -0.0011300666 -0.00015021587
0000c0 94 cc 86 b4 a6 c1 34 ba c1 68 08 3a b6 13 5e b5
       -2.5108295e-07 -0.0006895311 0.0005203598 -8.273013e-07
0000d0 c6 37 d7 ba 17 ae 96 ba ff b1 14 3a cc db 00 bb
       -0.001641982 -0.0011495975 0.00056722754 -0.001966226
0000e0 ac 09 ba ba 3a d5 b8 3a e7 92 ab ba e5 47 62 b8
       -0.0014193556 0.0014101632 -0.0013090045 -5.3949556e-05
0000f0 56 6f 3e 3a aa 92 48 ba 38 01 4f 39 5b e3 ba 3a
       0.0007264515 -0.0007651249 0.00019741512 0.0014258431
000100 ba 8d 1f b8 fb 08 83 39 c9 dc 64 3b 42 65 18 3a
       -3.8040547e-05 0.00024992958 0.0034921637 0.00058134284
000110 a4 ba 0d ba 8b ae c8 b9 3c 7d b2 ba 58 eb 36 bb
       -0.0005406535 -0.00038277017 -0.0013617645 -0.0027911272
000120 09 8f e4 36 42 80 f4 ba 7a c5 8a bb ed a1 ce 3a
       6.811581e-06 -0.0018653946 -0.004234967 0.001576481
000130 73 75 36 39 0d 79 a2 3a 99 96 07 bb 08 30 47 ba
       0.00017400626 0.0012395695 -0.0020689128 -0.0007598405
000140 ff b1 14 3b c3 62 3d ba 56 3b 25 3a b6 6b a1 b9
       0.0022689102 -0.00072244945 0.0006303092 -0.00030788564
000150 72 0f 93 3b 4d c3 09 b8 cf 2b e7 3a ca 9d 8c 39
       0.004487925 -3.2845233e-05 0.0017636957 0.00026820443
000160 84 ea 98 ba 36 53 8d 3a cc d1 c9 ba 3c c2 47 3b
       -0.0011666571 0.0010782245 -0.0015397607 0.0030480763
000170 d4 fc 06 ba d5 4a 5f ba 24 64 2e bb a2 03 90 ba
       -0.00051493687 -0.0008517926 -0.0026609981 -0.0010987411
000180 3c 33 2e 3a 1e 31 31 b9 6e b9 51 39 43 f1 8f b9
       0.0006645208 -0.00016898333 0.00020000871 -0.0002745484
000190 da 86 62 ba 23 3d d4 ba 14 66 1b b7 3d 1a 96 ba
       -0.000864131 -0.0016192537 -9.262487e-06 -0.0011451911
0001a0 e0 46 9a bb 31 cc f5 b9 14 64 d5 b9 32 a2 b2 39
       -0.004708156 -0.00046882176 -0.0004070109 0.0003407165
0001b0 02 80 35 ba 83 3f 0a ba 24 f7 26 b8 57 3a 51 3a
       -0.00069236767 -0.0005273746 -3.980765e-05 0.00079814106
0001c0 f0 49 ed 3a ed 8c 09 bb 66 5e 39 bb a0 1d 5a ba
       0.00181037 -0.002098854 -0.0028285026 -0.00083204545
0001d0 ef 55 b1 ba 8f 0d 2c ba 74 0c 21 bb 5d 40 5b bb
       -0.0013529639 -0.00065632997 -0.0024574073 -0.0033455112
0001e0 33 c5 ce b9 69 13 18 3a f9 26 4c 3b b7 3d f3 ba
       -0.00039438307 0.0005801232 0.003115116 -0.0018557821
0001f0 8b a5 57 3a cb 85 9a b9 06 aa 13 bb 25 1f 42 b7
       0.0008226267 -0.00029472852 -0.0022531762 -1.15705525e-05

network_body._body_endoder.seq_layers.0.weight f4 [128, 192]
000000 7e d8 36 bd ee 80 05 bd 14 cb 30 3e 11 ce 91 bd
       -0.044640057 -0.03259366 0.17264968 -0.07119382
000010 d7 6f 03 be 0c 75 5a bc fb d2 36 bc a5 9c 65 3d
       -0.12835632 -0.01333357 -0.0111587 0.05605759
000020 b6 d8 81 3d dd 12 9d bc 8e 6a ff 3d 27 7f e9 bc
       0.063401625 -0.019174034 0.124714956 -0.028503014
000030 dd 88 e7 3c 65 bd 80 3b b5 f1 09 3d b5 fd cd 3d
       0.028263504 0.0039288276 0.033677775 0.100581564
000040 1d dc 85 3d 8b 16 04 be 75 a9 8d 3b 6d 0f b3 3b
       0.06536124 -0.12899224 0.0043231794 0.0054644854
000050 ce 76 c4 bc 1d 23 1d 3e 7a a8 3f 3d 50 f3 d1 3c
       -0.023982432 0.15345426 0.04679153 0.025628716
000060 70 81 d7 3d 4e 98 5b bd a6 38 56 3d c9 79 62 3d
       0.10522735 -0.053612046 0.052300118 0.055291925
000070 d6 46 93 bd 69 f4 99 bb 31 70 96 3d 96 f7 c9 3c
       -0.07191245 -0.0046983254 0.073456176 0.024654191
000080 7d 7b 38 3d 92 52 06 be 06 6d 19 3b ce 57 0a 3d
       0.045039643 -0.13117436 0.002341093 0.033775143
000090 07 6c ee bd 90 79 1a bb d7 04 91 3d af a1 6d bd
       -0.11641698 -0.0023570992 0.07081001 -0.05801552
0000a0 a5 65 93 bd 4b 82 82 3d 21 a9 1f be 84 46 a0 3d
       -0.071971215 0.06372508 -0.15591861 0.0782595
0000b0 4d f3 dc bc 74 83 a8 3d 8d 50 e6 bc 34 f7 63 bc
       -0.026971484 0.08228198 -0.028114581 -0.013913918
0000c0 e0 70 9b bc 3c b8 42 bd bb d1 2f bc 3b 88 64 3d
       -0.018974721 -0.04753898 -0.010731156 0.055793982
0000d0 e8 b6 8b bd ec fc 0f be 45 70 d1 3c a5 8d 82 bb
       -0.06821996 -0.14061326 0.02556623 -0.0039841705
0000e0 b5 cd 91 3c c5 6f 84 3d 66 bb 16 3d bd fb 1a bc
       0.017798284 0.06466631 0.03679981 -0.009459433
0000f0 f2 83 29 3d 32 8e 09 3d d1 1c 20 3b 28 2e 92 3d
       0.0413856 0.033582874 0.0024431238 0.0713771
000100 f4 35 0b 3e 39 3a 02 3e 80 af 09 3d f3 d2 c0 bd
       0.135948 0.12717523 0.033614635 -0.09415235
000110 2d 3f f2 3d dc 48 ba 3d e4 71 92 bc 58 ea 5d 3c
       0.11828456 0.09095928 -0.017876573 0.013544641
000120 57 4b b7 3d a5 84 36 3d 42 39 de 3c 6e f6 e5 3c
       0.08949917 0.044560093 0.027126912 0.028071608
000130 fb 3b 75 3c 1e df a4 3c 91 42 68 3d 17 b3 eb bd
       0.014967914 0.020125922 0.056704108 -0.11508768
000140 da 87 b0 3d a8 2d a3 bd b5 15 42 bd d9 c9 cb 3c
       0.08619662 -0.079676926 -0.047383983 0.024876522
000150 09 a7 14 ba cb 2e ab bd 8d 6a b3 bc 75 bb 03 be
       -0.0005670642 -0.083585344 -0.021901393 -0.12864478
000160 b3 bd d9 bd 8f db 7f bc 15 0b 11 bd 2c 47 63 bd
       -0.106318854 -0.015616312 -0.03541096 -0.055487797
000170 62 86 8d 3c e8 3d 62 bd af 4b 60 3d f8 be f8 bd
       0.017275993 -0.05523482 0.054759677 -0.121457994
000180 f7 cf 91 bc a4 12 52 3e bc 87 3c bc 88 fc a5 3d
       -0.01779936 0.20514923 -0.011506971 0.08104807
000190 75 40 d5 3c 48 42 ea bc 52 13 0f 3d bf 10 0f 3d
       0.026031712 -0.028596058 0.034930535 0.03492808
0001a0 18 c7 89 3d 2d 7a d8 bd a3 8d 93 3c 06 49 0b 3d
       0.06727427 -0.10570178 0.018011874 0.034005187
0001b0 88 1e 74 3d 4e 9f 01 bd 85 3d 34 bd ad 20 b8 3d
       0.05959943 -0.031646065 -0.044003982 0.089906074
0001c0 35 1c 83 bc 36 9a 30 bd c7 74 6c 3d e1 8e 11 3d
       -0.016004661 -0.043115817 0.057728555 0.03553665
0001d0 da 0f 5a bd 4f e5 a7 bd 8c 97 84 bc 41 36 d8 3d
       -0.053237773 -0.08198034 -0.016185544 0.10557223
0001e0 c8 2b 60 3e cc 30 43 bd 61 3c 33 bd fb 23 8f 3d
       0.21891701 -0.04765396 -0.043758754 0.069892846
0001f0 0e d7 10 bc 10 5e 3a bd b9 f9 78 3d 31 3d ad bd
       -0.0088403355 -0.04549986 0.06078503 -0.08458937
000200 29 74 a3 bd ea 2a c3 3d 11 2b 20 bd 1b cd 87 3c
       -0.0798114 0.095296696 -0.03910357 0.016577294
000210 91 88 f6 3d cd 9d b3 3d 54 d2 f2 bc 72 9e 24 be
       0.12037767 0.087703325 -0.029641308 -0.16076067
000220 a4 66 1e 3d b8 6e 20 bc c4 f8 32 bd 53 4a 89 3c
       0.038672104 -0.009792022 -0.043694273 0.016759073
000230 d0 04 b8 bd 70 a5 7a bc b2 4d c1 3c 05 89 c3 bd
       -0.08985293 -0.015298232 0.023596618 -0.09547619
000240 31 df bb bd 73 5b 8a 3d d8 f7 27 bd 6a b2 b5 bc
       -0.0917343 0.06755724 -0.041007847 -0.022179801
000250 f1 fd fc bd 6a 2f 92 3c 4f 28 80 3d 2c 0e 06 be
       -0.12353123 0.017844874 0.06257688 -0.13091344
000260 74 ba 38 bc 43 d1 f8 bc 4b 1a b9 3d 91 f4 36 3e
       -0.011274923 -0.030373221 0.09038218 0.17866732
000270 e9 11 3a bd 82 dd 9a 3d 69 ee 65 bd 1d 58 01 3d
       -0.045427237 0.075617805 -0.05613557 0.031578172
000280 4c 85 ec 3b cc 04 86 3d 8f ff 2b 3d 09 1f c3 3c
       0.0072180387 0.06543884 0.041991767 0.02381851
000290 0b ed 08 be 02 33 10 bd a7 a2 56 3b 1b d7 16 bc
       -0.13371675 -0.035204895 0.0032750757 -0.009206559
0002a0 51 68 c1 bb 9d a8 eb 3c 9a fb 17 3e 0a 7a 66 bc
       -0.005902328 0.028766925 0.14842072 -0.014067182
0002b0 80 7c ea bc a1 41 ea 3c b5 6d a9 bd 48 6a c6 3d
       -0.02862382 0.028595747 -0.08272878 0.0968824
0002c0 bd bf 83 bd 7c da 9f 3d 5d d9 28 bd 5e 61 28 3c
       -0.064330555 0.078053445 -0.04122292 0.01027712
0002d0 43 f8 77 bd e3 51 63 bd 1f bd c0 bb 75 b2 b4 3d
       -0.060539495 -0.055498015 -0.00588192 0.088231005
0002e0 ec 85 ee bc e2 43 8e 3d 7f 0a 20 be b7 4f 80 bd
       -0.029116593 0.06946541 -0.15629004 -0.062652044
0002f0 a6 b2 86 bc c6 40 64 3d 57 e5 16 3d e1 c1 a5 bc
       -0.016442608 0.055725835 0.03683981 -0.02023405
000300 b8 a2 d4 3c cd f8 30 3d f7 88 27 bd c0 23 bb 3d
       0.025956497 0.043206025 -0.040902104 0.09137678
000310 dd dc af 3c c4 23 68 3d a7 29 3f 3c 8e ac ab bd
       0.02146762 0.056674734 0.011667646 -0.083825216
000320 87 0c 11 3d 8a 97 cb bc 72 f7 0b 3c 91 1d 8f 3d
       0.035412338 -0.024852533 0.008542882 0.06988061
000330 d6 f8 e7 3d 75 4c bf 3c 46 43 c8 bd fe 3d 93 bd
       0.113267586 0.023351887 -0.097784564 -0.071895584
000340 df 6a bf 3c b5 06 c6 bd 97 60 d7 3d ef c1 87 bb
       0.02336639 -0.09669248 0.1051647 -0.0041429917
000350 0c 98 e7 3b 4b 1b 95 bd d4 85 89 3d ab 53 25 bd
       0.007067686 -0.07280596 0.06714979 -0.040362995
000360 6b 95 59 3d 22 26 71 3d 50 98 a7 bd 13 2f 2b bd
       0.05312101 0.058874257 -0.08183348 -0.04179294
000370 29 1b 3a 3e 33 50 05 3d b0 99 ff 3b 63 9f db bd
       0.18174423 0.032547187 0.0078003034 -0.1072376
000380 1b d7 c9 3d 7f c8 b6 bd 2e 63 b6 3d 3d 66 d7 bd
       0.09855481 -0.0892496 0.08905636 -0.10517547
000390 9e 4a d3 bc d3 1c bf bb 3c c4 c0 bb 78 f4 9c bd
       -0.025792416 -0.0058322935 -0.005882768 -0.07663816
0003a0 05 2a 00 3e 18 a1 9f bb 76 90 90 3d b7 8e 54 bc
       0.12516029 -0.004871499 0.07058804 -0.012973479
0003b0 15 66 ac 3d ce f3 0b 3d a9 97 b9 bc 13 25 56 bd
       0.08417908 0.034168057 -0.022655325 -0.05228145
0003c0 7a c2 b6 bd 16 8a d2 bc ec cc 2a bd 8c fe 5b 3e
       -0.08923812 -0.02570061 -0.041699335 0.2148382
0003d0 e1 cf 85 bd 93 4c 26 bd e2 bc bc 3d c1 04 69 3c
       -0.065337904 -0.04060037 0.09215714 0.014222325
0003e0 6a b0 80 3d 09 d2 41 b9 1d 18 75 3d ba 3f 8e 3d
       0.06283648 -0.00018484158 0.05983745 0.069457486
0003f0 ce 12 aa 3d c3 90 c2 bd 29 ee e5 bc d8 28 1d be
       0.08304368 -0.09500267 -0.028067665 -0.15347612

network_body._body_endoder.seq_layers.2.bias f4 [128]
000000 b2 a6 2b ba 05 ff d9 ba 71 a1 ee b8 4f 8f 40 ba
       -0.0006547972 -0.0016631788 -0.00011378795 -0.00073455734
000010 e2 7f bb b9 d5 59 d3 3a 97 90 e8 38 76 b4 a5 b9
       -0.000357627 0.0016124794 0.00011089554 -0.00031605706
000020 88 13 38 bb a5 55 6e 3a 25 90 ab b8 8c 6b ec 39
       -0.0028087813 0.00090917415 -8.1807644e-05 0.00045093556
000030 47 99 9a ba 70 da 4b 3a 50 c6 b3 ba ba 87 b2 b8
       -0.0011794948 0.0007776385 -0.0013715718 -8.5129825e-05
000040 4c 15 e5 ba 3a c6 b1 b9 c4 68 03 3a b9 cf a8 ba
       -0.001747766 -0.0003390776 0.0005012865 -0.0012879289
000050 4f d8 59 ba b8 5f b6 38 76 cc 8d ba 00 61 3f ba
       -0.00083101256 8.696265e-05 -0.001081838 -0.0007300526
000060 a9 fe 16 bb 14 64 83 b9 20 4f e6 ba 1c e1 87 ba
       -0.0023039973 -0.0002506083 -0.0017571189 -0.001036677
000070 07 b4 b2 ba 5a 69 ab ba 0b 8d 2e b9 e4 c8 fd b9
       -0.0013633975 -0.0013077662 -0.00016646476 -0.00048405596
000080 d2 6e 22 3a d3 b3 7d ba 4c 65 e6 b9 04 c0 e1 37
       0.0006196323 -0.000967798 -0.0004394449 2.6911504e-05
000090 31 b1 8e ba 4e f3 27 ba c4 37 08 ba 6a d3 d7 b9
       -0.0010886547 -0.00064067997 -0.0005196298 -0.0004116551
0000a0 c5 78 0d ba 19 00 83 b9 f4 a1 54 ba 8e 72 d2 3a
       -0.0005396719 -0.0002498634 -0.0008111291 0.0016055868
0000b0 38 bc 67 b9 d5 97 d2 3a 31 1c 4e 3a 9e 64 e4 b9
       -0.00022099994 0.0016066978 0.0007862477 -0.00043562514
0000c0 62 e4 76 39 fc 39 39 ba 3c 2e 97 ba 7f 07 79 b8
       0.00023545467 -0.000706583 -0.0011534165 -5.9373207e-05
0000d0 05 58 18 ba c1 f3 f8 ba ac 50 b2 ba d7 a4 05 ba
       -0.0005811456 -0.0018993543 -0.0013604364 -0.00050981104
0000e0 f3 29 35 bb 3d 5c 88 ba 0f ff bc ba 3a 91 10 39
       -0.0027643412 -0.0010403466 -0.0014419275 0.00013787011
0000f0 9b 79 4a bb 0d 07 21 b9 f4 ce 51 ba a7 13 76 ba
       -0.0030895236 -0.00015356783 -0.00080035557 -0.00093870837
000100 2f d6 6c ba 77 28 14 b6 51 26 8b ba e2 65 6b ba
       -0.00090346014 -2.2077272e-06 -0.0010616278 -0.00089797203
000110 7a ff c4 b9 c3 7d 77 ba 2b 69 24 ba 6c 88 0c ba
       -0.00037574378 -0.0009441042 -0.0006271775 -0.00053609046
000120 35 6c b0 ba d7 1b a4 b9 3d 8f ce ba 83 ea c6 ba
       -0.0013459983 -0.0003130126 -0.0015759241 -0.0015176091
000130 c8 af d4 b9 4a a7 85 b9 c8 f3 89 ba 75 2a 29 bb
       -0.00040566758 -0.00025492377 -0.0010524923 -0.002581266
000140 a1 5b 08 ba 82 12 ef ba a7 79 93 ba d6 b1 42 ba
       -0.0005201642 -0.0018239769 -0.0011251465 -0.00074270123
000150 73 02 46 3a 90 88 0d bb 84 cd a6 3a aa 87 96 ba
       0.00075534655 -0.002159629 0.0012726043 -0.0011484523
000160 12 4b a6 3b bb ac 2d ba 9b f9 92 bb 3c f0 07 3a
       0.005074867 -0.0006625165 -0.0044853217 0.0005185639
000170 af dd 43 b9 7c 4d 18 ba 5c 7b 61 ba b5 0f b0 b7
       -0.00018679233 -0.0005809886 -0.0008601451 -2.098815e-05
000180 1d 76 e1 b9 6b d7 f9 b9 09 de 0a 35 3f 69 07 bb
       -0.00043003345 -0.0004765348 5.173211e-07 -0.0020662097
000190 dc 59 08 3a 9a 23 c9 ba 28 0e 2c ba 2e f8 9e 3a
       0.00052013784 -0.0015345693 -0.0006563389 0.0012128407
0001a0 3d c6 b8 ba 31 9e c2 ba fe f3 5d ba 73 44 48 38
       -0.0014097166 -0.001484817 -0.00084668386 4.7747464e-05
0001b0 96 41 e6 b8 f0 70 cb b8 3e ca d6 b9 ba 42 f7 b9
       -0.00010979471 -9.7008306e-05 -0.00040967943 -0.00047161226
0001c0 56 cd bb b9 a0 8c 34 b9 fe 1b 04 3b ee 6b ba 38
       -0.00035820407 -0.00017218525 0.0020158286 8.8892746e-05
0001d0 05 4f 03 b9 b9 e7 e8 b9 ef 43 70 b8 f6 9c da ba
       -0.0001252257 -0.00044423135 -5.7283727e-05 -0.0016678858
0001e0 85 4d 30 3a 43 a8 dd ba 7a 91 ed b9 a7 da f8 3a
       0.00067254185 -0.0016911108 -0.0004531255 0.0018986062
0001f0 95 34 b7 ba d2 23 25 3b 0d 73 1c 39 dc e9 1f bb
       -0.0013977463 0.0025198353 0.00014920179 -0.0024400866

network_body._body_endoder.seq_layers.2.weight f4 [128, 128]
000000 69 e6 99 3d 69 2b c2 bd 3f 5d 90 3d 64 6c d2 3c
       0.075146504 -0.09480936 0.07049035 0.02568645
000010 0f 18 2d 3e aa 74 31 ba 7c 53 50 bd a7 ae b9 bc
       0.16903709 -0.00067693985 -0.050860867 -0.022666289
000020 42 5f 5e 3e c8 5a 91 bd 15 3b 38 bd 05 47 18 3d
       0.21716025 -0.07097393 -0.04497822 0.037177105
000030 d2 27 13 3c b5 ab e7 3d 14 2d 42 3d 04 cb 4d 3c
       0.008981662 0.113120474 0.04740627 0.01256061
000040 cc e9 03 3b 8d 49 c4 bd a0 76 2e be 37 04 82 3e
       0.0020128367 -0.09584341 -0.1703744 0.2539384
000050 32 66 ce bd b2 3c e6 3d d9 c8 a5 3c 31 9c e1 bc
       -0.10078086 0.112420455 0.020237373 -0.027540298
000060 59 6f d3 bd 3f f4 44 3d bd 65 91 be 9d 5a 1a 3d
       -0.10323972 0.048084494 -0.28397933 0.03768407
000070 88 ef 09 3e a8 cc f5 3d f4 15 e5 3d 1c f4 a0 bd
       0.1347028 0.12001926 0.11185828 -0.0785906
000080 a3 db a1 3d 41 03 1f 3d b8 68 a3 3d 31 0b c2 3d
       0.079032205 0.038821463 0.07978958 0.09474791
000090 db 36 44 3d 97 f7 03 be 6d 40 55 3e 47 99 11 bc
       0.047903877 -0.12887417 0.20825358 -0.008886642
0000a0 3b e4 b5 bd 86 ff 29 bd a0 64 00 be be 7d 4d 3d
       -0.08881422 -0.04150345 -0.12538385 0.050168745
0000b0 33 a0 f8 3a 14 fe 9b 3c 9b 04 ae 3d 7e 71 80 3b
       0.0018968642 0.019042052 0.08496972 0.0039197793
0000c0 f1 9c 70 3e e2 d5 de bd e4 ba 64 bd 82 46 25 be
       0.23497368 -0.10880639 -0.055842295 -0.16140178
0000d0 2e 76 61 ba 24 76 11 bd 9b c5 b4 bd 61 70 13 bd
       -0.0008600679 -0.03551306 -0.08826753 -0.035995845
0000e0 04 35 f2 bb d6 1f 45 bd 09 ac f4 bd f5 91 96 bd
       -0.007391574 -0.048126064 -0.119468756 -0.07352058
0000f0 0b c7 3e bc 8e 6d 2c be ba 8b 9d bd 17 e7 a3 bd
       -0.011644135 -0.16838667 -0.07692666 -0.08003061
000100 18 9d 73 3d 7b 57 a3 bd 1e 07 2a 3e dc 5c b4 3d
       0.05947599 -0.0797567 0.16604277 0.08806774
000110 57 0a 2a be dc 01 16 3d 50 64 84 3d 83 cb 89 3d
       -0.16605507 0.036622867 0.064644456 0.0672827
000120 ff 45 de bd 50 77 dd 3c 2e 95 e2 3d ba 3a bb bd
       -0.108531944 0.027034432 0.1106361 -0.091420606
000130 c3 12 05 3e 73 56 4f bd 66 05 24 bd 72 36 2c bd
       0.12995438 -0.050619554 -0.04004421 -0.04204411
000140 7a 17 24 be b9 f0 50 bd 67 68 e7 bd aa a7 47 bd
       -0.1602458 -0.05101082 -0.1129921 -0.04874388
000150 ef 3b e4 3c 8e d6 89 bd 13 a1 1d 3e 27 42 92 3b
       0.02786061 -0.06730376 0.15393476 0.0044634524
000160 89 05 f4 bd 46 bc 20 3d e8 2f 7f bd a5 3c 33 3e
       -0.11915118 0.03924205 -0.062301546 0.17503603
000170 e8 6e 58 bd 0d 92 bb bd fd 67 5e bd 98 2e a3 bc
       -0.052840143 -0.09158716 -0.05429839 -0.019919679
000180 db 8a 74 3d 4e 44 06 3e 56 ec 85 3a d1 4b d5 bd
       0.059702735 0.13111994 0.0010217528 -0.104148515
000190 20 f0 a4 3d f5 bd 53 3e 4d 48 5f 3d 7c 4d 3b 3d
       0.08053613 0.20677932 0.05451231 0.04572819
0001a0 11 1c 57 bd 9b db a5 bc 99 74 f4 bd d6 d2 b0 3b
       -0.052517 -0.020246318 -0.11936302 0.0053962274
0001b0 49 0f 61 bd bb 5b b4 3d 27 5a 15 bd 22 07 8d 3d
       -0.054946218 0.08806559 -0.03646293 0.06886126
0001c0 1d 0c 1e be 74 57 3a bd d0 00 28 be 36 a2 ea bd
       -0.15434308 -0.045493558 -0.1640656 -0.114567205
0001d0 42 c8 6d 3d 70 f2 d4 bd db 53 7a bd 2a 4e 54 bd
       0.05805231 -0.10397804 -0.061115127 -0.051832356
0001e0 a5 27 37 b8 d6 57 93 bd f3 b0 87 3b e7 e5 ce bc
       -4.3667522e-05 -0.07194488 0.004140967 -0.02525611
0001f0 4b 42 15 3d 1f 59 68 bd c3 c3 40 bb eb 80 24 b9
       0.036440175 -0.056725617 -0.0029413558 -0.00015688284
000200 d7 42 c2 3a b2 d0 c1 bd 0d cc 88 bd f2 52 64 bd
       0.0014820945 -0.094636336 -0.066795446 -0.055743165
000210 f3 da 09 bd 51 04 48 bd 74 e1 13 3e 02 ab 8d 3d
       -0.033656072 -0.04883224 0.14441472 0.06917383
000220 04 ab 3e bd b7 ab ae bc 48 a6 af bd e8 40 5f bc
       -0.046549812 -0.021322114 -0.085766375 -0.013626315
000230 d7 0c f1 bd 85 de 62 be 34 be 17 be e6 ab 02 3c
       -0.11770027 -0.22155197 -0.1481865 0.007975554
000240 9f 2b 0b be f0 5e a4 bc ab 30 23 bd 6d 30 70 bd
       -0.13590859 -0.020064801 -0.039841335 -0.058639932
000250 c9 d7 fe 3d d0 51 d8 3d 7a 26 b4 3e 3d 85 e3 bd
       0.124435015 0.105624795 0.35185605 -0.111093976
000260 4a 76 19 bd a3 73 82 3c b8 dc 06 3d d5 70 80 3d
       -0.037466325 0.01592428 0.032925338 0.06271521
000270 10 bf 20 3d ec c4 26 3d 9a 96 ec bc 5f 76 b8 3c
       0.03924471 0.040715143 -0.028880406 0.022517381
000280 f4 6c ec 3d 99 fa 7e 3c 44 a9 c1 3d 94 0c 69 bd
       0.11544219 0.015562677 0.09456113 -0.05689676
000290 eb 5d c4 bd 1c 42 66 bd 7e 75 6a 3d ff 38 be 3d
       -0.09588226 -0.05621539 0.057240956 0.09288215
0002a0 7a 99 9b 3c 31 38 91 3b 07 68 47 3d aa c0 49 bd
       0.018994082 0.0044317474 0.048683193 -0.049256004
0002b0 95 ef fc bd 4a b4 af 3d eb 4f 2d be 96 38 4e 3c
       -0.12350384 0.08579309 -0.16925018 0.012586733
0002c0 5c 45 9c 3d 8f d3 93 bd 8d c8 2b 3e 09 44 bc 3d
       0.07630417 -0.07218086 0.16775723 0.09192664
0002d0 59 8f 30 3d 2c 88 73 3d 85 cb f7 bc 41 7c f1 3d
       0.043105457 0.059456035 -0.030248413 0.11791278
0002e0 4a dc f7 3c 39 7a 9d ba a7 84 73 bd 07 70 36 bc
       0.03025641 -0.0012014575 -0.05945268 -0.011135108
0002f0 d5 f8 09 3e 65 18 99 3d b0 35 27 bd 8f 44 13 b9
       0.13473828 0.07475356 -0.040822685 -0.00014044553
000300 b2 3d 15 3e 1f d0 44 3c 86 43 2e be 34 67 35 be
       0.14574316 0.012012511 -0.17017946 -0.1771515
000310 44 e8 42 bb 5c c9 a9 3c d3 30 73 3d 9c 2b 83 3b
       -0.0029740492 0.020725898 0.059372734 0.0040030014
000320 30 2c 14 bd 44 90 98 3d 7d 49 48 bd d3 0a 9f bc
       -0.036174953 0.074493915 -0.04889821 -0.019414341
000330 6e 4f d7 bd a6 cc 33 3c 88 62 d7 bd e8 25 79 3d
       -0.10513197 0.010974085 -0.1051684 0.060827166
000340 6c 8e bf 3d 99 0a ee bb de 30 81 3d ac c8 16 bd
       0.09353337 -0.007264447 0.06308149 -0.03681247
000350 c5 5e c9 3d 63 b8 b0 bd df 6c d6 ba 92 93 94 bd
       0.09832529 -0.08628919 -0.001635935 -0.07254709
000360 3f f9 b2 bd a1 93 39 3e ce 8d ef bc bc 2c 90 bd
       -0.08738946 0.18122722 -0.029242422 -0.070397824
000370 a8 b6 3f 3e 73 a4 58 be 1a 09 9a 3b 67 f3 b6 3d
       0.18722022 -0.21156482 0.004700792 0.08933144
000380 8f 11 32 3d ec 3d 38 bd fa 14 ab 3d e5 ce 8e bc
       0.043473776 -0.04498093 0.0835361 -0.01743264
000390 33 8a 62 be 71 72 0b 3e d4 ff 65 3d 46 cb 04 bc
       -0.22123031 0.13617875 0.05615218 -0.008105105
0003a0 ec c7 51 bb 28 6e 6d 3e 2a 8e c4 bc bb 3c e6 bd
       -0.0032010032 0.23186553 -0.02399357 -0.11242052
0003b0 90 5a 2c 3d e0 3b 82 3c 6b 3c c4 bc d6 1e e8 bd
       0.042078555 0.015897691 -0.02395459 -0.113340065
0003c0 ae ad cd bd 5c e7 94 3d a7 1f a3 bd 25 06 81 3d
       -0.100428924 0.07270691 -0.079650216 0.063
0003d0 70 0f ad bd 0e 78 e4 bd 8d 3f f3 bc 31 2c 43 bd
       -0.0845021 -0.11155711 -0.02969339 -0.047649566
0003e0 cd 74 d8 3d 91 15 9a 3c e6 33 30 3e c8 7e 88 bd
       0.10569153 0.018809112 0.17207298 -0.066648066
0003f0 76 c9 8f 3d 6f 07 cd 3d da 4a d7 3d 88 eb 11 bd
       0.070208475 0.100111835 0.10512324 -0.03562501
