results/test6/CharacterBehav/CharacterBehav-49945.onnx (onnx, 170777 bytes, 9 tensors)

action_model._discrete_distribution.branches.0.bias f4 [3]
0	0xb9adfec8	-0.00033186958
1	0x3a5092ce	0.0007956446
2	0x3a3c4fc6	0.0007183518

action_model._discrete_distribution.branches.0.weight f4 [3, 128]
0	0x3c61004c	0.013732981
1	0xbc126fb3	-0.008937764
2	0xbb177aa7	-0.0023113878
3	0xbbf48048	-0.0074615814
4	0xba8726c2	-0.0010311233
5	0xbbd16369	-0.0063900244
6	0x3b15a6e0	0.002283506
7	0x3c0f0ed5	0.008731564
8	0xbb8b7a1b	-0.0042564995
9	0x3b20484b	0.0024457152
10	0xbb845466	-0.0040383814
11	0x3bbacc0f	0.005700595
12	0x3c1bd589	0.00951136
13	0xbb58a3a9	-0.0033056533
14	0xbb1c6a56	-0.0023867092
15	0x3b3b9541	0.0028622898
16	0x3c00c5ab	0.007859628
17	0x3b2d9325	0.002648541
18	0x3aeadc89	0.0017918508
19	0x3bf85911	0.007578977
20	0xbbdb9e97	-0.006702255
21	0x3b71781c	0.0036845272
22	0x3bf9e409	0.007626061
23	0xbbbef3dd	-0.0058274106
24	0xbb9b3187	-0.0047361287
25	0x3a111a22	0.0005535205
26	0x3c1826df	0.009286611
27	0xbc1e6091	-0.009666578
28	0xbc3deb71	-0.011591778
29	0xba018590	-0.0004940862
30	0x3b602aa3	0.00342051
31	0xbbd5cbcc	-0.0065245386
32	0xbc96a54f	-0.018389372
33	0x3c73e34b	0.014885734
34	0x3b03f865	0.0020137068
35	0x3c01bc3b	0.007918413
36	0xbc1b30f9	-0.009472125
37	0x3c9e7cf9	0.019346701
38	0x3a861051	0.0010228251
39	0x3a2d6c9a	0.0006615609
40	0xbbf094b9	-0.007341948
41	0xbc565f2d	-0.013084215
42	0x3ba11ac5	0.0049165213
43	0xbbc7d6b0	-0.006098591
44	0x3c0de387	0.008660204
45	0xbbf6afcf	-0.0075282822
46	0x3bd9a4e5	0.0066419714
47	0xbb10dd29	-0.0022104478
48	0xbbc7ee72	-0.006101423
49	0x39d0cf98	0.0003982752
50	0xbbcae756	-0.006192128
51	0xbc119fd7	-0.008888206
52	0xbbea4411	-0.0071492274
53	0xbad3ebb8	-0.0016168272
54	0x3b9ce8c9	0.0047884923
55	0x3b351e95	0.0027636637
56	0x3b962764	0.0045823324
57	0x3c8e95d5	0.01740543
58	0xbb9c8d8c	-0.004777616
59	0xbbcb97da	-0.0062131705
60	0xbb8e8811	-0.0043497165
61	0x3c16c7a0	0.009202868
62	0x3be441be	0.006965845
63	0xbb86506a	-0.0040989416
64	0xbc334a22	-0.010942968
65	0x39092609	0.00013079507
66	0xbc015494	-0.0078937
67	0x3c876646	0.01652826
68	0xbb25b28e	-0.002528343
69	0xba8e1973	-0.0010841325
70	0x3bca931a	0.0061820867
71	0xbc5ff954	-0.013670284
72	0xbc1bcae0	-0.009508818
73	0xbc41fbd5	-0.011839827
74	0x3bab7089	0.005231921
75	0xbbba3ddf	-0.005683645
76	0x3baf9f1b	0.005359543
77	0xba4c2b02	-0.0007788391
78	0xbc62dfeb	-0.0138473315
79	0xbc26a6ed	-0.010171634
80	0x3bfd56ef	0.0077313106
81	0xbb771274	-0.0037700208
82	0x3bd3b792	0.0064610923
83	0xbbb41df7	-0.005496736
84	0x3bd8d4eb	0.0066171787
85	0xbbd13cf4	-0.00638544
86	0xbbecea21	-0.007230059
87	0xbc134550	-0.008988693
88	0x3c1e3596	0.009656331
89	0xba92cbed	-0.0011199691
90	0x3b2392cf	0.002495933
91	0xbc5bf9b8	-0.013426237
92	0xbbc7b044	-0.0060940105
93	0xbb71d6b1	-0.0036901648
94	0xbca407b1	-0.020023199
95	0x3c434894	0.011919159
96	0x3c2c3b5d	0.0105122
97	0xbcb184c1	-0.021669747
98	0xbc2f98f6	-0.010717621
99	0xbbd11768	-0.006380964
100	0xbbcd8042	-0.006271393
101	0x3c0cf5f9	0.008603566
102	0x3bfd378c	0.007727569
103	0xbbde264e	-0.0067794686
104	0xbc6b2370	-0.014351711
105	0xbc792300	-0.015206099
106	0x3b75bc53	0.0037496283
107	0xbb1ae2fa	-0.0023633824
108	0xbc12ac39	-0.008952194
109	0x3846f814	4.743792e-05
110	0xbc1f985f	-0.009740918
111	0x3b220378	0.0024721306
112	0x3c62cb60	0.013842434
113	0x3c1a87d0	0.009431794
114	0x3a73e8fd	0.00093044323
115	0x3b3c7cb4	0.0028760852
116	0x3bf76865	0.0075502866
117	0x3c80e8f3	0.015736079
118	0xb9afccaa	-0.00033531088
119	0xbbfb2d79	-0.007665333
120	0x3c34523f	0.011005937
121	0x3bd6011c	0.006530894
122	0x3bed58a7	0.007243234
123	0x3ad5e55d	0.0016318966
124	0xb9546326	-0.00020254831
125	0x3a9aa44a	0.001179823
126	0x3c69ec7c	0.014277574
127	0x3c99abe5	0.018758724
128	0x3a00e3e8	0.0004916773
129	0x3c894216	0.016755145
130	0xbc3dd8be	-0.01158732
131	0xbc692e9c	-0.014232304
132	0x3c0b19af	0.00849001
133	0x3b915c45	0.004436048
134	0x39bf55a7	0.00036494175
135	0xbc4c6c72	-0.012477027
136	0x3a658e9f	0.0008756909
137	0xbc09a568	-0.008401252
138	0xbc25c781	-0.010118366
139	0x3bb48e0c	0.0055100974
140	0x3c600423	0.013672861
141	0xbbbd7c6c	-0.0057826545
142	0x3a5eb88b	0.0008496127
143	0xbbd9c6f0	-0.0066460297
144	0x3c5798c6	0.013158983
145	0xbbd12457	-0.006382506
146	0x3c0fc8ca	0.008775899
147	0xbc185919	-0.009298586
148	0xbc3f8930	-0.011690423
149	0x3bbabfd6	0.005699138
150	0xbc6142a9	-0.013748803
151	0x3c416f3d	0.011806306
152	0xbbf9c8b2	-0.0076228017
153	0x3b3fe371	0.0029279853
154	0xbc21226b	-0.009834866
155	0x3bd970f6	0.0066357804
156	0x3bc41938	0.0059844516
157	0x3ba1a3f1	0.0049328734
158	0xbc55edd7	-0.013057194
159	0x3b8da0d2	0.00432215
160	0xbc0be0f5	-0.008537521
161	0xbc351f27	-0.011054791
162	0x3c4f596b	0.012655596
163	0xbc0459b7	-0.00807803
164	0x39b089d0	0.00033672014
165	0x3c2ef4d9	0.010678493
166	0x3939afdf	0.00017708492
167	0xba81fe7e	-0.0009917764
168	0xbb12c8b0	-0.002239745
169	0x3c002d06	0.007823234
170	0x3c043c5f	0.008071034
171	0x39c6d681	0.0003792532
172	0xba9552b5	-0.0011392446
173	0xbbee1603	-0.0072658076
174	0x3b5cfc3c	0.003371968
175	0x3ba08218	0.004898321
176	0x3bdcd934	0.00673976
177	0x3c38689f	0.011255412
178	0x3b491c52	0.0030687046
179	0xbb81ae5c	-0.003957553
180	0xba6f9311	-0.0009139041
181	0xbc12fc04	-0.008971218
182	0x3bad11f1	0.00528168
183	0x3b5b4cb0	0.0033462457
184	0xbb8a12b3	-0.004213655
185	0xbb6fcd26	-0.0036590784
186	0x3b3dd52d	0.0028966174
187	0x3aca3772	0.0015427901
188	0x3c0940e0	0.008377284
189	0x3c8927ef	0.016742675
190	0x3a41fb68	0.0007399828
191	0xbc41fc17	-0.011839888
192	0xbbbc3192	-0.005743214
193	0xbbda5a39	-0.0066635874
194	0x3c544d06	0.012957817
195	0xbaff0291	-0.0019455721
196	0x3ba2a49d	0.004963471
197	0x3bbcadec	0.005758038
198	0xbc573b62	-0.013136717
199	0xbbf0d8c2	-0.0073500583
200	0x3b6f8203	0.0036546
201	0x3c764b70	0.015032634
202	0xbc8fb144	-0.017540582
203	0xbc3c254b	-0.011483501
204	0xbc34ce44	-0.011035506
205	0xbbaae1af	-0.005214892
206	0xba5a4511	-0.0008326332
207	0x3a92fd29	0.0011214364
208	0x3bda1e05	0.0066564106
209	0x38ea91df	0.0001118516
210	0x3c5017b9	0.012700968
211	0x3ade0311	0.001693817
212	0xbc5aed93	-0.013362306
213	0xbb2958fb	-0.002584039
214	0xb95ee2bb	-0.00021256034
215	0xbaa99431	-0.0012937841
216	0x3ae3a248	0.0017367089
217	0xbbe02f62	-0.006841586
218	0x3acf8d79	0.0015835009
219	0xbc094a26	-0.008379495
220	0xbad3867d	-0.0016138103
221	0xbb695a4e	-0.0035606804
222	0xbbb2ae01	-0.005452872
223	0xbc20eb38	-0.0098217055
224	0xbba5e72d	-0.0050629587
225	0xbc080d53	-0.008303958
226	0x3a388d67	0.00070401136
227	0xbb1aa93e	-0.0023599411
228	0xbbacba6d	-0.005271247
229	0x3b012a7d	0.0019709163
230	0x3bfb67ec	0.0076723006
231	0xbc218094	-0.009857316
232	0xbac61ff3	-0.0015115723
233	0xbacac5b5	-0.0015470298
234	0xbc2248ad	-0.009905023
235	0xbbf93162	-0.007604764
236	0x3c4f23ec	0.012642842
237	0x3c857c5f	0.016294656
238	0xbc61a08c	-0.0137711875
239	0x3bd924a3	0.006626682
240	0x3be021bd	0.0068399594
241	0xbb66f5a3	-0.0035241626
242	0xbc84b591	-0.016199859
243	0x3ba594c4	0.0050531346
244	0xbb0df568	-0.0021661166
245	0x3c17aced	0.009257537
246	0xba594a15	-0.0008288932
247	0x3b5f6a5e	0.00340905
248	0xbb79b48a	-0.0038101994
249	0xbc292fd8	-0.010326348
250	0x3c8c2247	0.017106188
251	0x3c1e0443	0.009644571
252	0x3c211f6e	0.009834154
253	0x3c0df220	0.008663684
254	0x3b0c9e1a	0.002145654
255	0xbba3bc04	-0.0049967784

action_model._discrete_distribution.branches.1.bias f4 [3]
0	0x37fee103	3.0383939e-05
1	0xba2ff049	-0.00067115255
2	0x3a5b557c	0.0008366925

action_model._discrete_distribution.branches.1.weight f4 [3, 128]
0	0xbc2e78ce	-0.010648919
1	0x3b7aeb06	0.0038287058
2	0xbc9595ba	-0.018259872
3	0xbbea91cf	-0.007158495
4	0xbbbebbba	-0.0058207186
5	0xb8c7df46	-9.5306474e-05
6	0x3b4cefdb	0.0031270895
7	0xbbe06c6f	-0.006848864
8	0xbc6258fd	-0.013815162
9	0xb9a960ac	-0.00032306218
10	0xbbbd20be	-0.0057717254
11	0x3c15e82a	0.0091495905
12	0x3bee8f17	0.007280241
13	0x3c4ff4b9	0.012692624
14	0x3c36328c	0.01112045
15	0xbb7250fb	-0.0036974538
16	0x3b8d9fca	0.004322027
17	0xbb9c57e5	-0.00477122
18	0xbb846241	-0.004040033
19	0xbba6d604	-0.0050914306
20	0xbc98e173	-0.01866219
21	0xbb873914	-0.0041266773
22	0x3c502025	0.012702976
23	0xbaf1e1ab	-0.0018454095
24	0xbc1c3a15	-0.009535332
25	0x3c544481	0.012955786
26	0x3c441481	0.011967779
27	0xbc10def9	-0.008842223
28	0x3ba3ea80	0.00500232
29	0xbca5ce4c	-0.020239972
30	0xbd0f94fe	-0.0350542
31	0xbbb3fc76	-0.005492742
32	0x3b3f8a91	0.002922688
33	0x3bdc0d29	0.006715436
34	0xbb3112d2	-0.0027019274
35	0xbbc37535	-0.0059649
36	0xbac1e1c1	-0.0014792011
37	0x3b17e6c0	0.002317831
38	0x3c07d55f	0.008290618
39	0xbb801241	-0.003908426
40	0x3bf2957a	0.007403073
41	0x3c7039dc	0.014662232
42	0xb9df417b	-0.0004258266
43	0x3bb99add	0.005664213
44	0x3c5e5684	0.013570432
45	0x3b76f496	0.0037682406
46	0x3bc01ad2	0.005862572
47	0xbc8bfbdf	-0.017087875
48	0x3b8be184	0.004268827
49	0xbb357c69	-0.0027692562
50	0xbc812edd	-0.015769416
51	0xba4e6283	-0.0007872956
52	0xbb4275b0	-0.0029672198
53	0x3b6c55df	0.0036061925
54	0x3ba0c228	0.0049059577
55	0x3832cce3	4.2629323e-05
56	0xb8bb6568	-8.935743e-05
57	0x3918ea16	0.00014583053
58	0x3b1621a5	0.0022908237
59	0xbb4480b8	-0.002998395
60	0x3952b7e9	0.00020095673
61	0x3c21b00c	0.009868633
62	0x3c4cdaa0	0.012503296
63	0xbc17bfe2	-0.009262057
64	0x3b4cdf6d	0.0031261102
65	0x3a7f600b	0.00097417895
66	0x3c14fecf	0.009093954
67	0xbb16f1dc	-0.0023032343
68	0xbc09d43b	-0.008412416
69	0x3a620fbf	0.0008623562
70	0x385efbd9	5.3163476e-05
71	0x3c1ed5f4	0.009694565
72	0xbb3f9d6a	-0.0029238113
73	0x3be7cc79	0.0070739356
74	0xbb856b59	-0.0040716347
75	0xbb8d7cd4	-0.004317859
76	0xb9385c84	-0.00017582072
77	0xbc7ef07b	-0.015560265
78	0xbc71a0b5	-0.014747788
79	0x3bfb0980	0.0076610446
80	0xbc0532d1	-0.008129791
81	0x3ba3498f	0.004983134
82	0xbb43c5b9	-0.002987249
83	0xbbd7e036	-0.0065880073
84	0x3c1a632a	0.009423057
85	0x3b994bb4	0.004678214
86	0xb9ccf031	-0.0003908887
87	0xbbd93eef	-0.0066298167
88	0xbc4cc5b0	-0.012498304
89	0xbadf6a2d	-0.0017045193
90	0x3bf736e4	0.0075443853
91	0xbb09ba1e	-0.0021015476
92	0xbcc3b1d8	-0.023888513
93	0xbc1bc103	-0.009506467
94	0x3b012873	0.0019707948
95	0x3b03bdd1	0.0020102153
96	0xbc6f8af8	-0.014620535
97	0xbcc59ac5	-0.024121651
98	0xbc2c486e	-0.010515315
99	0xbb11ef95	-0.0022268046
100	0xbcb3b01c	-0.021934561
101	0xbc3ec5c3	-0.01164383
102	0xbc00fcb7	-0.007872752
103	0x3ac54b7a	0.0015052401
104	0x3c4b19b7	0.012396268
105	0xbc34d324	-0.011036668
106	0xbbd33cf8	-0.006446477
107	0x3c0cc342	0.008591475
108	0x3b5776e3	0.0032877258
109	0xbc47a497	-0.012185237
110	0x3c01b3d7	0.007916412
111	0x3afda2a8	0.0019350844
112	0xbba3876e	-0.0049905097
113	0x3c275f5b	0.010215606
114	0xbae38ea8	-0.001736124
115	0xbc16b398	-0.009198092
116	0x3b76b4cd	0.0037644387
117	0xba77f3a9	-0.00094586104
118	0x3c6b460b	0.014359961
119	0xbbd591cc	-0.0065176245
120	0x3b9711f0	0.0046102926
121	0x3c8d6728	0.017261103
122	0x3beee1cc	0.0072901007
123	0xba8c8853	-0.001072178
124	0xbc0c4a04	-0.008562569
125	0xbc5c9dc2	-0.013465347
126	0xbb6c6e83	-0.0036076612
127	0xbba50dbf	-0.005037039
128	0xbbc85073	-0.006113106
129	0x3c012879	0.007883185
130	0xbc3b2dfb	-0.011424537
131	0x3be6d51b	0.007044447
132	0xbb8751dc	-0.0041296314
133	0x3c7e807e	0.015533565
134	0x3c524445	0.01283366
135	0x3c91a5b6	0.017779212
136	0xbc5248df	-0.012834757
137	0x3c16e55a	0.009209955
138	0xbab9cb31	-0.0014174936
139	0x3bea4609	0.007149462
140	0xbb88878c	-0.004166549
141	0xbb8cf916	-0.0043021543
142	0xbb8abf35	-0.0042342194
143	0x3bdaf932	0.0066825384
144	0x3a9b5b40	0.0011852756
145	0x3bbb33c7	0.0057129594
146	0xbb8f1b97	-0.0043673026
147	0xba7a0b23	-0.00095384027
148	0x3be9f73d	0.007140069
149	0xbbe6fb94	-0.0070490334
150	0x39fa3f99	0.000477311
151	0xba48ed14	-0.0007664722
152	0x3cbfdcc5	0.0234207
153	0xbc0e495b	-0.0086844815
154	0xbc1765ac	-0.009240549
155	0xbc30d67c	-0.010793325
156	0x3a89c4ee	0.001051096
157	0xb8542b09	-5.058482e-05
158	0x3c658eee	0.014011128
159	0x3c3ff920	0.011717111
160	0xbc31c5f4	-0.010850418
161	0xb96f85c3	-0.00022842646
162	0x3c07aa54	0.0082803555
163	0xbc6cfd30	-0.0144646615
164	0xbb6acc5c	-0.0035827374
165	0x3c297dff	0.010344981
166	0xbbf5b341	-0.0074981754
167	0x3c1f704a	0.009731362
168	0xbca94ac5	-0.020665536
169	0x3bf5e4f2	0.007504099
170	0xba88ea37	-0.0010445778
171	0xbb774014	-0.0037727403
172	0x3b8af4ef	0.004240624
173	0x3bd8eb47	0.006619844
174	0x3b9ef5f5	0.0048510977
175	0x3c566475	0.013085474
176	0xbb612170	-0.0034352206
177	0x3aa20911	0.0012362321
178	0xbc5e64a7	-0.013573802
179	0x3aa43c59	0.0012530192
180	0xbbef2d7d	-0.007299124
181	0xbae118c2	-0.0017173516
182	0x3be9f441	0.007139713
183	0x3bfe0797	0.0077523696
184	0xbc9881a5	-0.018616507
185	0x3b5ee64e	0.0034011784
186	0xbc5d0f6c	-0.013492446
187	0xbc134569	-0.008988717
188	0xbc085684	-0.008321408
189	0x3ae8ec7a	0.0017770671
190	0x3ba4d66d	0.0050304444
191	0x3af2dea5	0.0018529488
192	0x3ae460c9	0.0017423864
193	0x3c8d197b	0.017224064
194	0xbc1fee52	-0.00976141
195	0xbc4655ae	-0.012105389
196	0x3a18e02c	0.0005831744
197	0x39bcda08	0.000360206
198	0x3b9b8336	0.004745866
199	0xbb49a1c4	-0.0030766586
200	0x3c3f9f8d	0.011695755
201	0xbc5cbdb9	-0.013472968
202	0x3a612051	0.00085878844
203	0xbaaeacb6	-0.0013326618
204	0x3acae984	0.001548097
205	0xbc21a805	-0.009866719
206	0x3bc29263	0.005937861
207	0xbc34dfa8	-0.011039652
208	0x3b4b5138	0.0031023752
209	0xbb1a4d56	-0.002354463
210	0xbb80617d	-0.0039178715
211	0xbc422f3a	-0.01185208
212	0x3b0494ea	0.0020230361
213	0xbb4dd308	-0.0031406302
214	0xbbd1e477	-0.006405409
215	0xbc166599	-0.009179496
216	0x3bd9aad0	0.006642677
217	0x3c30619a	0.0107654575
218	0xbbe08333	-0.0068515777
219	0x3c6798fd	0.014135596
220	0x3c886d95	0.016653815
221	0x3ba8c624	0.0051505733
222	0x3c2ee322	0.01067427
223	0x3b699cef	0.0035646518
224	0x3bab9db5	0.005237306
225	0xbbdb7152	-0.0066968584
226	0x3b967d15	0.0045925477
227	0xbb321069	-0.0027170426
228	0x3c0aa3b3	0.0084618805
229	0xbad142a0	-0.001596529
230	0x3bd7acdd	0.006581886
231	0xbb191ba9	-0.0023362434
232	0x3b722812	0.0036950153
233	0xbbd29682	-0.0064266333
234	0x3bce23eb	0.006290903
235	0x3bfad8c3	0.0076552345
236	0xbbfdce8e	-0.0077455705
237	0x3c4a7941	0.012358011
238	0x3bd9046a	0.0066228407
239	0xba13c440	-0.00056368485
240	0x3c1a8aea	0.009432534
241	0xbc679d6a	-0.0141366515
242	0xbb12d0f3	-0.0022402375
243	0x3ac63b04	0.0015123789
244	0x3c4d1cb5	0.012519051
245	0xbc089963	-0.0083373515
246	0xb8669744	-5.497715e-05
247	0x3ae6f03d	0.0017619204
248	0xbb01ba94	-0.0019795047
249	0x3c9c6576	0.01909135
250	0xbb3a6aa3	-0.0028444908
251	0x3bb9c465	0.005669164
252	0xbb8a4a72	-0.0042203004
253	0x3ba36aa7	0.004987079
254	0xbb78272b	-0.0037865143
255	0x392534cf	0.00015755299

discrete_action_output_shape f4 [1, 2]
0	0x40400000	3.0
1	0x40400000	3.0

network_body._body_endoder.seq_layers.0.bias f4 [128]
0	0x39852882	0.00025397917
1	0xbaba1af9	-0.0014198712
2	0xba81b382	-0.0009895416
3	0xb92c52f6	-0.00016434104
4	0xba33c3b7	-0.0006857472
5	0xb90e66ad	-0.00013580425
6	0xbb072fbf	-0.0020627824
7	0x3a77bf13	0.00094507745
8	0xba50c42c	-0.0007963802
9	0xbafa762f	-0.0019108708
10	0x3b323daf	0.002719741
11	0xbb1374c5	-0.002250002
12	0xb9213428	-0.00015373586
13	0xba20b2da	-0.00061301666
14	0x396b8531	0.00022460964
15	0xba37d91b	-0.0007013247
16	0xbad9f2dd	-0.0016628165
17	0xbb800059	-0.0039062914
18	0x382fea96	4.1941727e-05
19	0xbaef9e4c	-0.0018281429
20	0x3a64b0a1	0.00087238295
21	0xba501e46	-0.00079390814
22	0x390e8f0d	0.00013595466
23	0x3a68f7a3	0.00088869984
24	0x3a2e33c3	0.00066452863
25	0xba6f60a2	-0.0009131526
26	0x3b109c7e	0.0022065933
27	0xba25a83e	-0.00063193205
28	0x3ac649fa	0.0015128248
29	0xb9971e25	-0.00028823424
30	0x3a51f590	0.0008009309
31	0x3a03e784	0.0005031752
32	0x3a1d44ee	0.0005999346
33	0xbac77c9b	-0.001521963
34	0xbbc55337	-0.006021883
35	0xba8a2698	-0.0010540066
36	0xba91f913	-0.0011136852
37	0xba26f431	-0.0006368785
38	0xbaa3f1be	-0.0012507958
39	0xbab3d350	-0.0013719592
40	0xba944661	-0.0011312478
41	0xbb03b63f	-0.002009764
42	0xbb3b2ffa	-0.0028562532
43	0xba26a5eb	-0.0006357121
44	0xbb3237ff	-0.002719402
45	0x3aacf6d0	0.0013196114
46	0xb94000cf	-0.00018310848
47	0x38aa28dc	8.113842e-05
48	0xbac0b1bb	-0.0014701405
49	0x388aacf5	6.6125685e-05
50	0xba2bcf5f	-0.0006554033
51	0x39a9cc39	0.0003238635
52	0x3aeebdf4	0.001821457
53	0xba38122d	-0.00070217514
54	0x3a9069b2	0.0011017828
55	0xba082a6c	-0.00051943096
56	0x3a801ee2	0.0009774829
57	0xbb2576ec	-0.0025247885
58	0x3b21df31	0.0024699683
59	0x3b0e34bc	0.0021698913
60	0x3a7a1be0	0.0009540897
61	0xbb0ba2c4	-0.0021306733
62	0xb9c163a5	-0.0003688607
63	0xb98bbeda	-0.00026654341
64	0xba7a2a57	-0.00095430523
65	0x3a3c40cd	0.0007181287
66	0xba2a0e34	-0.0006487102
67	0xbb219ad3	-0.0024658933
68	0xba136b51	-0.00056235964
69	0x3a8ae3ca	0.0010596451
70	0xb9cff628	-0.00039665517
71	0xba910709	-0.0011064719
72	0xbb1e8924	-0.002419063
73	0x3a626ea2	0.00086377014
74	0xbaa66850	-0.0012695882
75	0xb9ef4807	-0.00045639297
76	0xbb1445dd	-0.002262465
77	0xba7f4ce4	-0.00097389356
78	0xb99979bf	-0.00029273142
79	0xb90902de	-0.00013066406
80	0xbad6cde8	-0.0016388269
81	0xbb1d989a	-0.0024047256
82	0x3a169e04	0.0005745592
83	0xba6fca1a	-0.0009147242
84	0xb95eb94e	-0.00021240601
85	0xbac8e297	-0.0015326318
86	0xba03269d	-0.0005003007
87	0xb95e6eb2	-0.00021212807
88	0xb9d435cd	-0.00040475876
89	0xb82e31cf	-4.153122e-05
90	0xb97587ab	-0.00023415561
91	0x3a1109b4	0.0005532757
92	0x391cfcee	0.00014971543
93	0xbb16122d	-0.0022899017
94	0xbb18cf58	-0.0023316946
95	0xb895e9e9	-7.148443e-05
96	0xb99455c5	-0.00028292663
97	0xbad0a93d	-0.0015919578
98	0xba34caf6	-0.00068966986
99	0x39d56c16	0.00040707056
100	0xb9f6da42	-0.0004708339
101	0xbaa34247	-0.0012455665
102	0xb91d6cb6	-0.00015013185
103	0xbafd63ba	-0.0019332089
104	0xbac39b77	-0.0014923651
105	0xbaa1bc37	-0.0012339418
106	0xbaa293a4	-0.001240362
107	0x39a65bb4	0.00031730311
108	0x3a1b74bf	0.0005930177
109	0x3b4fd61e	0.0031713317
110	0xbb6df319	-0.0036308228
111	0xb8d71862	-0.000102565406
112	0x3895be16	7.14028e-05
113	0xbb2dff68	-0.002654994
114	0xba6443a0	-0.00087075867
115	0xba69011c	-0.000888841
116	0xbb044ae6	-0.0020186245
117	0xbadc4d40	-0.001680769
118	0xbad00199	-0.0015869617
119	0x39e0f535	0.00042907303
120	0xb9045034	-0.00012618379
121	0xba7078d0	-0.0009173276
122	0xbb83ac4d	-0.0040183426
123	0xbb629664	-0.0034574503
124	0xb8267a39	-3.9691313e-05
125	0xba3cff7a	-0.00072097
126	0xbac1f471	-0.0014797581
127	0x39f4fc5e	0.00046727335

network_body._body_endoder.seq_layers.0.weight f4 [128, 192]
0	0x3d61b550	0.055104554
1	0x3d27ad18	0.04093656
2	0x3d8f72fa	0.07004352
3	0xbd961ffe	-0.07330321
4	0xbae59ab8	-0.0017517423
5	0x3d4225ce	0.047399335
6	0xbd3b8c96	-0.04578837
7	0xbb98bfaf	-0.0046615223
8	0xbe142481	-0.1446705
9	0x39396fc3	0.0001768461
10	0xbd8fa414	-0.07013717
11	0xbdd41404	-0.1035538
12	0xbde17478	-0.11008543
13	0xbd07a455	-0.033115704
14	0x3d6f78b4	0.05846472
15	0xbc832113	-0.016006982
16	0x3d165d5b	0.036710124
17	0xbdcbbe54	-0.099484116
18	0xbc13ca2b	-0.009020369
19	0xbdf20e9f	-0.11819195
20	0x3ddd5292	0.10806765
21	0x3cb805b9	0.022463666
22	0xbd0b83fc	-0.034061417
23	0xbdbbcde8	-0.09170133
24	0xbc9d68f9	-0.019215094
25	0xbd02f92f	-0.03197592
26	0x3cdf686a	0.027271468
27	0x3d191a9f	0.037378903
28	0xbdd73d2a	-0.10509713
29	0x3d3ef68b	0.04662184
30	0xbb2c4d34	-0.0026291134
31	0xbd25afff	-0.040451046
32	0xbd06c968	-0.03290692
33	0x3d531643	0.051534902
34	0x3c9fe0bb	0.01951634
35	0x3c0e43d9	0.008683168
36	0xbc805d08	-0.01566936
37	0xbd513045	-0.051071424
38	0xbd59d96b	-0.05318586
39	0x3db2d18a	0.08731373
40	0xbcfe7340	-0.031060815
41	0xba97c235	-0.0011578264
42	0x3c140612	0.00903465
43	0x3d1e82aa	0.03869883
44	0x3d479536	0.048726283
45	0xbd12e132	-0.035859294
46	0x3d55564d	0.052084256
47	0x3d071213	0.03297622
48	0xbdb65351	-0.0890261
49	0xbda753c7	-0.08170276
50	0xbdb5ff20	-0.08886552
51	0x3cc40ba8	0.02393134
52	0xbd8cf924	-0.06883457
53	0xbdb902e9	-0.09033758
54	0x39b3528f	0.00034203051
55	0xbe028b0b	-0.12748353
56	0xbd03291d	-0.03202163
57	0xbdcccaf9	-0.099996515
58	0x3cc11d0a	0.023573417
59	0x3d82fc6e	0.063958034
60	0x3d82b983	0.0638304
61	0x3e087824	0.1332708
62	0x3e38dda0	0.18053293
63	0x3e302b9c	0.17204136
64	0xbd771215	-0.06031998
65	0x3d046065	0.03231849
66	0xbd0014c4	-0.031269804
67	0xbdabfaf5	-0.08397476
68	0xbd914f72	-0.07095231
69	0xbc66030e	-0.014038814
70	0xbd9c25cc	-0.07624397
71	0xbd982a31	-0.07429922
72	0xbda5bb60	-0.080923796
73	0x3d496249	0.049165998
74	0x3d96e6bd	0.073682286
75	0xbcafdab5	-0.021466592
76	0xbd0a4fe2	-0.03376759
77	0x3d3309cc	0.043710515
78	0x3cbe749f	0.023248969
79	0xbe1e0ccc	-0.15434569
80	0x3a801536	0.0009771946
81	0xbd7e29a9	-0.06205145
82	0x3d6d08f2	0.05786986
83	0xbcdd6383	-0.02702499
84	0x3d6218e9	0.055199537
85	0xbda42b14	-0.08016029
86	0x3c64ed63	0.013972613
87	0xbd8e2659	-0.06940908
88	0xbcd8c8ea	-0.02646299
89	0xbd5a35ff	-0.05327415
90	0xbd6ae7a8	-0.05734983
91	0xbce1bff3	-0.027557349
92	0xbc0ff0c7	-0.008785433
93	0xbdadee2e	-0.08492695
94	0xbc107721	-0.008817465
95	0x3e546599	0.20741881
96	0xbd62edb5	-0.055402476
97	0xbd51c9a6	-0.051217698
98	0x3e2ac6b0	0.16677356
99	0x3c78b204	0.015179161
100	0x3d787a79	0.060663674
101	0x3c66e709	0.014093169
102	0x3b005518	0.001958197
103	0x3d836d75	0.06417362
104	0x3c031a33	0.008001852
105	0xbd11f2dc	-0.035632
106	0xbd9ab6b3	-0.07554378
107	0xbd1c8ca7	-0.038220074
108	0xbd85f099	-0.06540031
109	0xbb90344e	-0.0044007665
110	0xbd1ef658	-0.03880915
111	0xbd404248	-0.04693821
112	0xbd6fcf8b	-0.058547538
113	0x3d88408b	0.066529356
114	0x3dd1ffbb	0.10253855
115	0x3d2418ae	0.0400626
116	0xbe2fac2c	-0.17155522
117	0xbdbfd251	-0.093662865
118	0xbd9ab49e	-0.07553981
119	0xbc7ff707	-0.015622861
120	0xbd7cdf7a	-0.06173656
121	0x3cbcf4d4	0.023065962
122	0x3d8d88a3	0.06910827
123	0xbbb88458	-0.005631011
124	0xbdcc9732	-0.09989776
125	0x3d4f8c7b	0.050671082
126	0x3e1be7d2	0.15225151
127	0x3d80c171	0.06286896
128	0x3e4ce199	0.20007934
129	0xbd1c47f3	-0.038154554
130	0x3da2888c	0.079362005
131	0xbe11ef5f	-0.14251469
132	0xbd383d07	-0.044980075
133	0xbe0639f6	-0.13108048
134	0xbe0f830d	-0.14014836
135	0x3cb5c73f	0.022189735
136	0x3cd9820e	0.026551273
137	0xbc46953f	-0.012120544
138	0xbd94c284	-0.072636634
139	0x3e1af60b	0.1513292
140	0x3db26bb6	0.087119505
141	0xbc30b608	-0.010785587
142	0xbdb4a163	-0.088198446
143	0xbca3c058	-0.019989178
144	0xbdb7ba46	-0.08971076
145	0x3dfe663a	0.12421842
146	0x3c334977	0.010942808
147	0x3db3b10a	0.08774002
148	0xbb52650d	-0.0032103688
149	0x3dfde453	0.12397065
150	0xbde82131	-0.11334456
151	0xbde99c00	-0.11406708
152	0x3d8fca1c	0.07020971
153	0x3c91e7eb	0.017810782
154	0x3be8948b	0.007097786
155	0xbdd3a770	-0.103346705
156	0xbcd1b933	-0.025601005
157	0x3dba71db	0.091037475
158	0xbde0d11e	-0.10977386
159	0x3cc00572	0.023440097
160	0xbade7660	-0.0016972534
161	0xbd50f2ec	-0.05101292
162	0x3ce79849	0.028270857
163	0xbc694634	-0.014237929
164	0xbd21f1b5	-0.03953715
165	0x3c5071ea	0.012722472
166	0xbc9f5b82	-0.019452814
167	0xbd3bb6c9	-0.045828614
168	0xbc7163be	-0.014733253
169	0x3ce49f73	0.027908063
170	0xbd8401f0	-0.06445682
171	0xbc979ea0	-0.018508255
172	0x3c80f883	0.0157435
173	0x3d2ef22c	0.04271142
174	0x3da8f1fb	0.08249279
175	0x3db52fcc	0.08847007
176	0x3cd3e4c2	0.025865916
177	0x3c52099d	0.012819675
178	0xbd18fa7b	-0.03734825
179	0x3d6abfdb	0.057311874
180	0x3dcf3db1	0.101191886
181	0xbc9d48b4	-0.019199707
182	0xbd4e2f24	-0.050337926
183	0x3d55c44c	0.052189156
184	0xbd341482	-0.04396487
185	0xbdc930cf	-0.098237626
186	0x3d9d8627	0.07691603
187	0xbcb9acd5	-0.02266542
188	0xbd64a48e	-0.055820994
189	0xbdb898a5	-0.0901349
190	0x3d1e20ef	0.038605627
191	0xbd1ef81f	-0.038810845
192	0x3d97b2c0	0.07407141
193	0xbc0df402	-0.008664133
194	0x3d62e563	0.05539454
195	0xbd322c71	-0.043499414
196	0x3da5bac8	0.08092266
197	0xbdd878d2	-0.1056992
198	0x3dd97fbc	0.106200665
199	0x3d80ce57	0.06289356
200	0xbdad38e1	-0.084581144
201	0x3d5ad1c2	0.053422697
202	0x3cd3969d	0.025828654
203	0xbdc9693b	-0.09834524
204	0x3de021d0	0.10943949
205	0x3de0eb06	0.10982327
206	0x3c980a6f	0.018559663
207	0x3d8d44da	0.06897898
208	0x3d2a4f8d	0.04157977
209	0x3d0843d6	0.03326782
210	0xbe3c4904	-0.18387228
211	0xbd80ff2a	-0.06298669
212	0x3c6fb2ec	0.014630061
213	0x3df12566	0.11774711
214	0x3db70e85	0.08938316
215	0xbd87bb83	-0.06627562
216	0x3e14873e	0.14504716
217	0xbcb3b706	-0.021937858
218	0xbe1697dc	-0.14706367
219	0xbc87276d	-0.016498292
220	0xbcee8593	-0.029116428
221	0xbc0767f2	-0.008264529
222	0xbd93fd97	-0.07226103
223	0x3e0f3d19	0.1398815
224	0xbd5da2a2	-0.054110177
225	0xbdbcf982	-0.09227277
226	0xbd09fa4b	-0.033685964
227	0x3cb6037d	0.02221846
228	0xbd563c11	-0.052303378
229	0x3d2274c4	0.039662138
230	0x3ce31179	0.027718293
231	0x3dcea569	0.10090143
232	0x3c72d768	0.014821865
233	0xbd611740	-0.054953814
234	0x3d866bc8	0.065635264
235	0xbc46c82b	-0.012132685
236	0x3d64cdb5	0.05586024
237	0xbd0169e5	-0.03159513
238	0xbcd19563	-0.025583928
239	0xbca4ff16	-0.020141166
240	0xb93b669e	-0.00017871938
241	0x3e70015d	0.2343802
242	0xbd9c71c9	-0.0763889
243	0x3c957871	0.018245908
244	0xbc717174	-0.014736522
245	0x3e372996	0.17886958
246	0xbd146f4b	-0.03623895
247	0xbc456410	-0.012047783
248	0x3d6c1ba9	0.057643566
249	0xbdaedbe2	-0.08538033
250	0x3d3d4e41	0.046217207
251	0xbd94a64f	-0.07258283
252	0xbcdb7c5d	-0.0267927
253	0xbd56704b	-0.052353185
254	0xbcf5f360	-0.030023277
255	0x3be3ef5f	0.0069560255

network_body._body_endoder.seq_layers.2.bias f4 [128]
0	0xbac0753f	-0.001468338
1	0x396a3114	0.00022334262
2	0x3a97dbc3	0.001158588
3	0xba3c1e6c	-0.0007176164
4	0x38ca4f8c	9.646927e-05
5	0xbb0a6194	-0.002111529
6	0xba82f4cb	-0.0009991167
7	0xbad22312	-0.001603218
8	0xbae59e76	-0.0017518539
9	0xba5eb05d	-0.0008494908
10	0xb984df3f	-0.00025343333
11	0xbb13073b	-0.002243473
12	0xba14258f	-0.00056513486
13	0xba85de4f	-0.0010213348
14	0xba2ba163	-0.0006547181
15	0xbb0fdc5b	-0.002195141
16	0xbabf7055	-0.0014605621
17	0xbb0ee9a6	-0.0021806746
18	0xb7b9eed9	-2.216494e-05
19	0xba8ed1d5	-0.0010896275
20	0xba16360f	-0.0005730101
21	0xba173d50	-0.0005769329
22	0xbaafe757	-0.0013420385
23	0xba47457e	-0.00076016027
24	0xba8b4099	-0.001062411
25	0xb94c6d86	-0.00019495757
26	0xba198496	-0.00058562437
27	0xbb2557f1	-0.002522942
28	0xba4ba2a1	-0.0007768069
29	0xb9f3157d	-0.00046364582
30	0xba868211	-0.0010262151
31	0xb94dff11	-0.00019645343
32	0xbb005389	-0.001958104
33	0xbb18c819	-0.0023312627
34	0xba5ac9d7	-0.00083461165
35	0xbafe8561	-0.0019418412
36	0xba8c1399	-0.0010686993
37	0xbab61020	-0.0013890304
38	0xb9d0467f	-0.00039725375
39	0xbacf87c8	-0.0015833313
40	0xb9d929f5	-0.00041420726
41	0xba44abb9	-0.00075023953
42	0xb9ea5f79	-0.0004470309
43	0xba8e4c22	-0.001085643
44	0xbaa5a2cd	-0.0012637019
45	0xbb4a78af	-0.0030894687
46	0xb9bd90b9	-0.00036156716
47	0xbaebd8b0	-0.0017993655
48	0xba005c00	-0.00048965216
49	0xbab90312	-0.0014115295
50	0xba42b511	-0.00074274937
51	0x394547e7	0.0001881417
52	0x39a3f926	0.00031275413
53	0xba9ad3be	-0.0011812372
54	0xbad035fa	-0.0015885227
55	0xba4907ed	-0.00076687225
56	0xba06f89b	-0.00051487394
57	0xba09b5c2	-0.0005253219
58	0xbabc038c	-0.0014344319
59	0xbb46bfe1	-0.003032677
60	0x3727e081	1.0006247e-05
61	0xba319f55	-0.00067757565
62	0xba6d04fb	-0.00090415747
63	0xba0bdb58	-0.0005335114
64	0xba7c9845	-0.0009635727
65	0xb98102f5	-0.00024607
66	0xbb540e78	-0.0032357257
67	0xbab65168	-0.0013909759
68	0xb9784a37	-0.0002367877
69	0xbb351bc3	-0.0027634955
70	0x39d5460f	0.00040678724
71	0xba6fbe0f	-0.00091454474
72	0xba7e07d4	-0.00096904975
73	0x3a026f59	0.00049756985
74	0xb9c8450d	-0.0003819842
75	0xba697824	-0.0008906147
76	0xbae3a8ca	-0.0017369029
77	0xbaf65761	-0.0018794351
78	0xba6f1e8d	-0.0009121679
79	0x3993ae2f	0.00028167802
80	0xb933859b	-0.00017120542
81	0xba7796d0	-0.0009444775
82	0xbb762235	-0.003755701
83	0xba7e9c74	-0.00097126444
84	0xbade3f62	-0.0016956145
85	0xbaaa11bd	-0.0012975257
86	0xba8763d9	-0.001032944
87	0x385d781c	5.2802367e-05
88	0xb8a0302d	-7.638368e-05
89	0xbb0a1530	-0.0021069758
90	0xba6362df	-0.0008674096
91	0xba453deb	-0.000752418
92	0xba6eba25	-0.0009106717
93	0xbad88602	-0.001651943
94	0xbaad53c9	-0.0013223822
95	0xba8f7b77	-0.001094683
96	0xba863554	-0.0010239282
97	0x383b0688	4.4590357e-05
98	0xba0fc467	-0.00054842833
99	0xbab07128	-0.0013461458
100	0xba154e12	-0.00056955323
101	0xbaab2ba5	-0.0013059272
102	0xbaa0bc1c	-0.0012263092
103	0xbae07827	-0.0017125652
104	0xba9662b9	-0.0011473513
105	0xbad37462	-0.0016132707
106	0xbb09dad1	-0.0021034966
107	0xbaa9835a	-0.0012932823
108	0xb9da9a4a	-0.00041695155
109	0xb8dde018	-0.00010579842
110	0xbb01ee87	-0.0019826011
111	0xba830fb2	-0.0009999184
112	0xbae31b10	-0.0017326791
113	0xba3a344c	-0.000710313
114	0xbaa67ee4	-0.0012702611
115	0xbaccb71a	-0.0015618533
116	0x39eadd6c	0.0004479693
117	0xbab2c51a	-0.0013639063
118	0xba87e3ea	-0.0010367606
119	0xba01de82	-0.0004954116
120	0xbaaff8df	-0.001342561
121	0xba9bb248	-0.0011878693
122	0x38cd4a24	9.7889715e-05
123	0xba37365e	-0.00069889973
124	0xb99225c6	-0.00027875433
125	0xb7ff1cfa	-3.0411862e-05
126	0xba4830b5	-0.00076366524
127	0x39d66aac	0.00040896737

network_body._body_endoder.seq_layers.2.weight f4 [128, 128]
0	0x3bc829a1	0.006108478
1	0xbe154835	-0.14578326
2	0x3ab23bbe	0.0013598127
3	0x3d31000d	0.04321294
4	0x3ddd78a7	0.10814028
5	0x3d45d1a4	0.048295632
6	0xbe046b25	-0.12931497
7	0xbdcea3a4	-0.10089806
8	0x3d715ac1	0.05892444
9	0x3d932d36	0.07186358
10	0x3ae73a7a	0.0017641329
11	0xbd29dc63	-0.041469943
12	0xbba0a389	-0.0049023074
13	0x3e470e62	0.1943908
14	0xbcd853d7	-0.026407165
15	0x3d3cdcb2	0.04610891
16	0xbba68c35	-0.005082632
17	0x3d5f7623	0.054556023
18	0xbd203931	-0.039117042
19	0x3baa522f	0.0051977853
20	0xbd74ce12	-0.059766836
21	0x3d9eb24a	0.0774885
22	0x3df698a5	0.120408334
23	0xbd3675cd	-0.044545937
24	0x3e1540ca	0.14575496
25	0x3cfc1916	0.03077368
26	0xbd746923	-0.05967058
27	0x3c0a38c4	0.008436386
28	0xbd4d0e5b	-0.05006252
29	0xbd6eb3e8	-0.05827704
30	0xbd5c199f	-0.05373537
31	0x3d8f23f7	0.069892816
32	0xbd1bdd2f	-0.038052734
33	0xbe111099	-0.14166488
34	0x3c690a44	0.014223639
35	0xbe56a6ea	-0.2096211
36	0xbc8b8357	-0.017030401
37	0xbd457f8f	-0.048217352
38	0x3bde8a41	0.0067913835
39	0xbc88b389	-0.016687172
40	0x3d29d2bf	0.04146075
41	0xbe74d8d8	-0.23910844
42	0x3c04c9a5	0.008104716
43	0x3d7d5da6	0.06185689
44	0xbd239c4c	-0.03994398
45	0xbd155750	-0.03646022
46	0xbdd8c5fa	-0.10584636
47	0xbd52925f	-0.05140912
48	0x3c7c9210	0.015415683
49	0x3c4278a0	0.01186958
50	0xbd387813	-0.045036387
51	0xbe07f489	-0.13276877
52	0xbd2c0d21	-0.04200471
53	0xbddab019	-0.10678119
54	0xbd88e967	-0.06685143
55	0x3de691bd	0.11258266
56	0x3c8eae1d	0.017417008
57	0xbca204cf	-0.019777684
58	0x3af04fd4	0.0018334338
59	0x3df5ed52	0.12008156
60	0xbe2e852e	-0.17042992
61	0xbd3f9185	-0.046769638
62	0xbbf89ec8	-0.0075872876
63	0x3d90d542	0.07071926
64	0xbb688687	-0.0035480575
65	0x3dfa10d8	0.12210244
66	0xbc8df650	-0.017329365
67	0xbdaaf34f	-0.08347189
68	0xbd7f2e5d	-0.062300075
69	0xbd8abe09	-0.067745276
70	0x3d7df4c1	0.062000994
71	0xbd1a0233	-0.037599754
72	0x3d9303f7	0.071784906
73	0xbc19ceeb	-0.009387712
74	0x3d8b481e	0.06800865
75	0xbe102220	-0.14075518
76	0x3e133553	0.1437581
77	0x3dc76956	0.09736888
78	0x3e2ee073	0.17077808
79	0x3c957553	0.018244421
80	0x3dafb7e5	0.08579997
81	0x3daa0c2c	0.08303103
82	0x3b61f458	0.0034477916
83	0xbd8b21be	-0.06793545
84	0x3c959294	0.01825837
85	0x3e14de54	0.14537936
86	0x3cde8e83	0.027167564
87	0x3df318fa	0.11869998
88	0x3d79ff08	0.061034232
89	0xbd0d5bd1	-0.03451139
90	0xbd58c53a	-0.052922465
91	0x3c9e3ebc	0.019317023
92	0x3d13570e	0.035971694
93	0xbd9b8a0e	-0.07594691
94	0xbb07b666	-0.0020708083
95	0xbd34b453	-0.044117283
96	0xbc8a72d6	-0.016900461
97	0xbe1fa056	-0.15588507
98	0xbdb2ccd2	-0.087304726
99	0x3ca9a4ca	0.02070846
100	0xbd20fa11	-0.039300982
101	0x3cfbe9c9	0.030751126
102	0xbdd69159	-0.104769416
103	0x3debee74	0.11520091
104	0xbd755166	-0.05989208
105	0xbd1e78ee	-0.038689546
106	0x3d232a3d	0.039835203
107	0x3d90509b	0.07046624
108	0x3dbc4fb8	0.09194893
109	0xbc48587e	-0.012228129
110	0x3e31a24d	0.17347069
111	0xbcc07fc6	-0.023498427
112	0xbd47ea51	-0.048807446
113	0x3c21a304	0.009865526
114	0xbce83441	-0.02834523
115	0x3cbb5c0b	0.022871038
116	0x3c88c6e8	0.016696408
117	0x3d0d8a9b	0.034556013
118	0xbd8d8707	-0.0691052
119	0xbd8476ec	-0.06467995
120	0xbc019773	-0.007909643
121	0xbd65b55b	-0.056081157
122	0x3d498cad	0.049206425
123	0xbd8f0ba4	-0.06984642
124	0xbd3f5bfe	-0.04671859
125	0x3dfdabff	0.12386321
126	0x3d3fcb35	0.046824653
127	0xbd897aa5	-0.06712846
128	0xbdff5146	-0.124666736
129	0x3da88565	0.08228568
130	0x3c43b437	0.011944822
131	0x3c4cacbd	0.012492356
132	0xbd25496a	-0.040353216
133	0x3b126b7f	0.0022341905
134	0xbd01b50a	-0.031666793
135	0xbd614a8b	-0.05500273
136	0x3cad392a	0.021145422
137	0xbcf05675	-0.0293381
138	0xbe5c8e47	-0.2153865
139	0xbbd2bae4	-0.0064309705
140	0x3d95d250	0.073155046
141	0xbcde7c6c	-0.027158938
142	0xbd66b97e	-0.056329243
143	0xbce4f131	-0.02794704
144	0xbd28d24b	-0.041216176
145	0x3d9c75ea	0.07639678
146	0x3cfc151f	0.03077179
147	0xbca5ee97	-0.02025537
148	0x3da3172a	0.079634026
149	0x3d1d6b48	0.03843239
150	0x3d5b8ee5	0.05360307
151	0x3bf13b19	0.0073617813
152	0x3d75c98e	0.06000667
153	0xbd735794	-0.059409693
154	0x3d3b155a	0.04567466
155	0xbbe150ee	-0.0068761026
156	0x3a7337a8	0.0009278008
157	0x3e5e1e8c	0.2169134
158	0xbd586050	-0.052826226
159	0xbd898b7c	-0.06716058
160	0x3d78384f	0.060600575
161	0xbcc87652	-0.024470482
162	0x3e23d252	0.159982
163	0xbd609c61	-0.054836635
164	0x3dbc445b	0.09192725
165	0x3d923bb6	0.07140295
166	0xbbbdb53c	-0.005789427
167	0x3ba0a05d	0.0049019293
168	0x3d538c8d	0.05164771
169	0xbc0fe423	-0.008782419
170	0xbce0c571	-0.027437897
171	0x3c7b44f7	0.015336267
172	0xbdc3a2d0	-0.095525384
173	0x3da91821	0.08256555
174	0xbe0a850b	-0.13527314
175	0xbdd230e4	-0.102632314
176	0x3d3819cd	0.04494648
177	0x3d01db5d	0.03170334
178	0x3def0770	0.116713405
179	0xbd1ed499	-0.038776968
180	0x3d8b8989	0.06813342
181	0x3e04a8e3	0.1295505
182	0x3d98e924	0.07466343
183	0xbd31350e	-0.043263488
184	0xbbf64bca	-0.007516359
185	0xbdb7b3ee	-0.08969866
186	0x3d61b655	0.055105526
187	0x3d5d8405	0.05408098
188	0xbe0973d9	-0.13423099
189	0x3d4f8ba0	0.050670266
190	0xba1e9ece	-0.00060508854
191	0x3ddcf7ee	0.10789476
192	0x3dae9850	0.08525145
193	0x3d8cc182	0.06872846
194	0x3d80aa9e	0.06282543
195	0x3d758115	0.059937555
196	0xbe6b1a73	-0.22959308
197	0xbc686524	-0.01418427
198	0xbca2140a	-0.019784946
199	0x3d112c80	0.03544283
200	0xbd9934e9	-0.07480795
201	0x3dcbec05	0.099571265
202	0xbe43851b	-0.19093744
203	0xbc8a8433	-0.01690874
204	0x3bea5f89	0.007152502
205	0xbd43fb57	-0.04784712
206	0x3e51f17d	0.20502277
207	0xbdaf7472	-0.08567132
208	0x3cb947b7	0.022617204
209	0xbdfbc8fb	-0.12294193
210	0xbccb3de1	-0.02480978
211	0xbd3342e1	-0.043764953
212	0x3e039112	0.12848309
213	0x3de1974a	0.11015184
214	0xbe85e0a0	-0.26147938
215	0xbe589dc0	-0.21153927
216	0x3d8d0aa5	0.06886796
217	0xbe2e4532	-0.17018583
218	0x3d3d36df	0.046194907
219	0x3ca31fbf	0.019912599
220	0xbe11a4f9	-0.14223088
221	0x3db7c088	0.08972269
222	0xbd4866c9	-0.04892615
223	0xbd1322d3	-0.035921883
224	0xbafb2f49	-0.0019163872
225	0x3dc14c27	0.09438353
226	0xbde2e63e	-0.110790715
227	0x3d959ca8	0.073052704
228	0x3d84f1ad	0.064914085
229	0xbd86ba79	-0.065785356
230	0xbd105aa5	-0.035242695
231	0x3d100eb9	0.03517029
232	0xbe0d3878	-0.13791072
233	0xbc94ce5e	-0.01816481
234	0x3c83d583	0.016093021
235	0xbb16825b	-0.0022965882
236	0x3d3e814e	0.046510033
237	0x3d4a2958	0.049355835
238	0xbcacc554	-0.021090187
239	0x3c2c91c4	0.0105328
240	0xbd025e45	-0.031828184
241	0x3a261214	0.00063350913
242	0x3d63b518	0.055592626
243	0x3d0f809d	0.035034765
244	0xbe62b02b	-0.22137515
245	0x3d120bfa	0.035655953
246	0xbdc4f8d3	-0.09617772
247	0xbe35dfb7	-0.17761122
248	0xbd9691b2	-0.07352008
249	0xbdf9fcf1	-0.12206448
250	0xbced6ee9	-0.02898355
251	0x3dd8d394	0.1058723
252	0xbd0807b9	-0.03321049
253	0xbda06e9f	-0.07833599
254	0xbde4ac4d	-0.11165676
255	0x3e0168d3	0.12637644
