results/test5/CharacterBehav/CharacterBehav-949959.onnx (onnx, 700066 bytes, 12 tensors)

109 f4 [1, 512, 128]
000000 96 11 51 3d cf d6 09 bd 08 84 13 3e 34 1c 14 3e
       0.051042162 -0.033652123 0.14405835 0.14463884
000010 52 4e cd bd a0 ca 10 bd d3 07 b8 3c 67 cf 04 be
       -0.10024704 -0.03534949 0.022464668 -0.12969743
000020 e6 be f8 bd a7 b6 8d bc 3e 84 94 3d 95 c3 60 bc
       -0.12145786 -0.01729901 0.07251786 -0.013718505
000030 45 f5 69 bd 7f 48 28 3e 3d ec 2c bd a2 87 46 3b
       -0.057118673 0.16433905 -0.042217482 0.0030293246
000040 c7 6c fc 3d a1 c2 0d be be 5e a4 bd b2 1c 7b bd
       0.12325435 -0.13843776 -0.08025883 -0.061306663
000050 0d f3 db bc 0a 29 1c 3e 96 04 3a 3e 60 ce 09 3e
       -0.026849294 0.1525003 0.18165812 0.13457632
000060 c7 df 10 be 90 d0 da 3d 5b 5d 50 bc 3b c9 ed 3d
       -0.14147864 0.106843114 -0.01271757 0.11610647
000070 91 f6 75 bd 0e 0c 77 bd 92 a5 10 3e e5 73 39 3e
       -0.060049597 -0.06031423 0.1412566 0.18110617
000080 7a 8b da 3d e4 97 e7 bc d2 79 05 be 2f d5 cc bc
       0.10671134 -0.02827067 -0.13034752 -0.025003998
000090 ed 19 a4 3d 98 ad 92 bd 56 a5 ec 3d 39 74 9c 3d
       0.080127575 -0.07162017 0.11554973 0.07639355
0000a0 b0 24 08 bd e9 96 0d be 9a 2c 0b 3e 0c 91 9b bd
       -0.033238113 -0.13827099 0.13591233 -0.07596025
0000b0 25 50 b0 bd 0d 03 f1 3c 14 87 b9 bc 60 d9 f0 3c
       -0.08609036 0.0294204 -0.022647418 0.029400527
0000c0 9c 80 d2 3c e1 7c aa bc 9b 7d 68 3d d9 d1 9b 3d
       0.025696091 -0.0208115 0.05676041 0.07608385
0000d0 a6 06 17 3b e1 c3 06 be 36 d3 ef bd 0d ac 06 be
       0.0023044734 -0.1316066 -0.11710207 -0.1315157
0000e0 26 79 25 3d 0c 49 70 be 79 56 5d 3b 6d 0c 8d bd
       0.04039874 -0.23465365 0.0033773466 -0.06887136
0000f0 26 a3 72 be b6 70 cb 3c 2f 86 e9 3c e5 3e ad 3c
       -0.23695049 0.024834018 0.028506367 0.021148155
000100 b8 56 ae 3b c9 06 26 bd c8 af 22 be fa c3 d1 3d
       0.0053203963 -0.040533815 -0.15887368 0.10242458
000110 ab 77 2a 3e d8 d0 18 be 62 e0 dc bd 22 6f 02 bc
       0.16647212 -0.14923418 -0.10784985 -0.007961066
000120 5c 36 04 3e 3d 6e 7d 3d 73 a9 8f 3c 7f 25 60 bd
       0.12911361 0.06187271 0.017536854 -0.05472326
000130 91 6d 26 bd af 06 10 3e 0d 64 d4 3d f7 aa 07 3e
       -0.040631834 0.1406505 0.10370646 0.13248812
000140 3f 96 11 3e 49 15 01 3e 2e a0 0d 3e c9 cf 68 bd
       0.1421747 0.12605776 0.13830635 -0.056838784
000150 4a bc 94 3d f2 fc 5b bd 5f f9 15 3e 16 44 ee bd
       0.07262476 -0.053708024 0.14645909 -0.1163408
000160 99 9c e7 bd 32 33 30 bd 2c 26 4d bc 2f 65 81 bd
       -0.113091655 -0.043017574 -0.012521308 -0.06318127
000170 25 de 94 bd e8 48 c2 3d 08 0e a4 bd ed e3 f7 bd
       -0.07268933 0.09486562 -0.08010489 -0.1210402
000180 e1 d2 ba bd 6f cf 19 bd de 07 11 3d 13 10 94 3d
       -0.09122253 -0.03755134 0.035407893 0.072296284
000190 f2 c0 91 bd 02 7b 81 bb f9 fa 16 3d 39 01 c3 3d
       -0.071168795 -0.0039514313 0.03686044 0.095217176
0001a0 50 ff a5 bd fc aa d7 bd 59 c3 0a 3e 60 24 92 bc
       -0.081053376 -0.105306596 0.13551082 -0.01783961
0001b0 2f c8 33 bd 1d 97 ed bd 81 17 ec 3a ab cb c5 3d
       -0.04389208 -0.11601088 0.0018012376 0.09657987
0001c0 4c 9b a9 bd 20 b2 00 be 68 45 85 bb 96 0c 09 be
       -0.08281574 -0.1256795 -0.0040671118 -0.13383707
0001d0 84 2f 28 3e 4c a5 8b 3c 6d c5 d2 3d e3 a6 76 bd
       0.16424376 0.017046593 0.10291562 -0.06021775
0001e0 44 39 08 be a5 da 10 3e 7c ba 63 bc b6 3c ed bd
       -0.13303095 0.14145906 -0.013899442 -0.11583845
0001f0 ec ee 42 bd 8a bc 10 3c db 8f 3e be ec 83 de bd
       -0.047591135 0.008834014 -0.18609564 -0.10865006
000200 1d 6b 87 bd 7d 90 0a 3e ba a0 f6 bd c6 7a 26 3e
       -0.06612227 0.1353168 -0.12042375 0.16257772
000210 c1 4e fe 3d 48 fc 8b 3d db df 96 bc e5 93 84 bd
       0.12417365 0.06835228 -0.01841729 -0.06473521
000220 32 ed b3 3c df c6 16 be c3 4b 2a bd d9 f9 a4 3d
       0.02196369 -0.14724301 -0.04157616 0.08055467
000230 6f d7 22 bc 2f b0 d7 bd fa c5 06 bd b9 e1 70 bc
       -0.009939059 -0.10531651 -0.03290365 -0.014702254
000240 bb 41 08 bc 8b 8d e6 3c 72 6c ff 3d 02 5b ec 3d
       -0.008316453 0.028143665 0.12471856 0.11540796
000250 6c 48 96 bd 7f 4c e7 bd 00 2f 01 be 74 28 a1 3c
       -0.07338032 -0.11293887 -0.12615585 0.01967261
000260 ab b1 19 bd f8 a7 fa bd 3c a3 2b bd 82 5e a6 bd
       -0.037522953 -0.12239069 -0.04190372 -0.08123495
000270 46 4b be bd de 67 9a bd 73 e8 e4 3d 31 af 9b 3d
       -0.09291701 -0.07539342 0.11177149 0.076017745
000280 cd 22 2b 3d 95 9e e3 3d 93 e5 0e 3e b8 f5 56 bd
       0.041781235 0.111142315 0.13954763 -0.05248043
000290 4b 55 ad 3d bb 44 a8 bc 11 b8 b8 bd 3d 77 9e bd
       0.08463534 -0.020540586 -0.09019483 -0.07737587
0002a0 b9 c2 fd 3c 00 9c e9 bb 79 de a6 3d 0f 9d 29 3e
       0.03097664 -0.0071291924 0.08147902 0.1656382
0002b0 4d 01 ff 3d 45 e0 85 3d 11 65 c1 3d b4 5e 77 3b
       0.1245142 0.06536917 0.09443105 0.0037745656
0002c0 61 5f 03 be b8 8d 9d bc 58 16 06 3d b9 f5 fa bc
       -0.12829353 -0.019232616 0.032736152 -0.030634748
0002d0 33 bb 00 3e 39 f5 74 b9 b2 46 2e be 1f 2a f4 bc
       0.12571411 -0.00023361006 -0.17019156 -0.029805241
0002e0 e4 ec f1 bd 11 d6 a0 bd 1d 61 07 3d b9 63 e5 3d
       -0.118127614 -0.0785333 0.0330516 0.11200661
0002f0 77 72 42 3e cd af af 3d 4c 6e bc bd 9c ee 14 3d
       0.18988977 0.08578453 -0.09200725 0.036360368
000300 31 88 1a be 07 c1 07 3e 45 a7 2b bd cf f7 9b 3c
       -0.15091015 0.13257228 -0.041907568 0.019039063
000310 6b 3c ba bd ad c4 2f 3d fb 79 ba bd a7 13 9e bd
       -0.09093555 0.042912174 -0.09105297 -0.07718592
000320 44 0b bc bc f3 de b6 39 61 f5 53 3c 25 bf 27 be
       -0.02295459 0.00034879855 0.012936921 -0.1638151
000330 ef 23 f8 bd a2 fe 2a be 6f 2f b3 bd 48 23 3e bd
       -0.12116229 -0.16698697 -0.087492816 -0.046420366
000340 1c ce cf 3d b7 e0 28 3d d1 1d 06 be bd 3b bf 3d
       0.10146734 0.04122993 -0.13097312 0.09337566
000350 0a 3a 96 bd 61 f9 92 3d ad 4b 14 bd e2 2b ff bd
       -0.07335289 0.071764715 -0.036204983 -0.12459542
000360 ae d4 17 be 87 98 de 3d ea bd 16 be 2d a6 d3 bc
       -0.14827225 0.10868936 -0.14720884 -0.025836075
000370 bd d4 81 3d 30 5d 99 3d 88 bf 10 3d 94 e4 b4 bd
       0.06339405 0.07488477 0.03533891 -0.0883266
000380 c5 bc 07 be f9 ae 35 3c 09 db 89 bd ff d1 c2 3d
       -0.13255604 0.01108908 -0.06731231 0.0951271
000390 cc 4c 60 3d 93 5a 79 bc ad f9 ba 3d 03 1c 03 be
       0.05476074 -0.0152193485 0.09129653 -0.12803654
0003a0 65 39 e2 3d b6 21 b6 3d e8 36 a4 3c 2c fc b1 3c
       0.110461034 0.088931486 0.020045713 0.02172669
0003b0 cc dc ee 3d 9e 2d f3 3d 38 3c d4 3d 0b 6a 1a 3e
       0.116632074 0.11873935 0.10363048 0.15079515
0003c0 e9 6d b7 bd 5b 98 93 3c 6c ee e7 3d b6 9e 40 3d
       -0.089565106 0.018016985 0.11324772 0.04702636
0003d0 65 58 06 3e ac 2e 6b bc 85 ca 28 3e 1a be 06 3c
       0.13119657 -0.014354389 0.16483505 0.008224035
0003e0 16 df 24 3e 43 7e e5 bb 80 a9 d4 bd 41 ae f0 3d
       0.16100726 -0.007003577 -0.10383892 0.11751986
0003f0 5c 46 a6 bc 84 63 61 3d 40 19 27 bd ec fa 5c bc
       -0.020297222 0.055026546 -0.040795565 -0.013487559

110 f4 [1, 512, 128]
000000 dc ac c3 3d df e4 93 3d 8a a5 09 3e b2 e0 9c 3d
       0.09554455 0.07221388 0.13442054 0.07660045
000010 b7 d1 ab bd 49 fc e2 bc 16 b7 e2 bd 85 52 f5 bc
       -0.08389609 -0.02770819 -0.11070077 -0.029946575
000020 ea e0 99 3c 4e f5 0a 3c 92 c1 9e 3d 0c 0f 3e 3d
       0.018784005 0.008481337 0.07751764 0.04640107
000030 bf 73 ac bd c7 16 3c bc c2 9a 70 bd 3a c1 eb 3d
       -0.08420514 -0.01148004 -0.05874134 0.115114644
000040 86 5a 1e be 4b cb 81 3c c6 bc 78 3d fc d5 94 3d
       -0.1546422 0.015844008 0.060726903 0.07267377
000050 08 cf c8 3d 91 66 97 bd 35 40 0f be 79 58 19 3e
       0.09805113 -0.0739261 -0.13989337 0.14975156
000060 fa 53 0f 3e 43 53 10 be e0 36 3b 3c 9c a3 0a 3e
       0.13996878 -0.14094262 0.011426657 0.13538975
000070 ac 75 7d 3b 21 f6 44 bc 9d 8d 98 3d 53 f3 e3 bd
       0.0038674874 -0.012021572 0.074488856 -0.11130395
000080 6c 0a 52 3d 85 7a 48 bb 0e e9 c1 ba 07 4c fa 3d
       0.05127947 -0.0030590605 -0.0014794187 0.12221532
000090 fd 63 c7 3d ca 4b 04 3e ec 98 25 3e d7 10 31 3e
       0.09735868 0.12919536 0.16171616 0.1729158
0000a0 f3 a1 54 3e f1 9d 44 3c 63 28 ff 3d cd 9b 39 3d
       0.20764904 0.012000547 0.12458875 0.0453146
0000b0 d0 86 17 3d 19 36 38 be 9f 76 3c 3d d3 06 ba bd
       0.0369938 -0.17989387 0.046011563 -0.09083333
0000c0 52 2c 8a 3d ad a5 71 3d e1 26 28 3d 85 27 f8 3d
       0.06746735 0.05899589 0.041052703 0.12116913
0000d0 7b 80 eb bd ac 38 4c 3d 36 80 b4 3d da df b3 bd
       -0.11499115 0.049858734 0.08813517 -0.08782931
0000e0 33 ff 01 be 71 48 ab 3d b5 1b ef 3c b4 53 65 3d
       -0.12695007 0.083634265 0.029188016 0.05598803
0000f0 e5 5f 69 bc 53 70 82 bd 3a 65 6f 3b f7 f8 a3 3d
       -0.014244054 -0.063690804 0.0036528842 0.08006471
000100 0b aa 27 bd 28 a2 9d 3c bf 0f 27 3a 9b eb be 3d
       -0.04093365 0.019242361 0.0006372891 0.09322282
000110 c5 af b7 3d 96 09 cb 3d d5 86 af 3d 11 dc 42 3d
       0.08969072 0.09913938 0.08570639 0.047573153
000120 a1 fc 37 bb 16 74 ca 3d 50 d8 2c be 63 c9 d4 3d
       -0.0028074163 0.09885423 -0.16879392 0.10389974
000130 4e a1 8d 3c 40 b0 c9 3b a2 af 94 3d 65 56 75 3c
       0.01728883 0.006155044 0.07260062 0.014974211
000140 99 b9 5d bd 92 39 5d bd 45 46 0e 3d 12 df 77 bc
       -0.054132078 -0.05400998 0.034734983 -0.015128868
000150 a6 68 db bc f6 f4 b1 bd 80 14 b5 bd b8 85 0c bd
       -0.026783299 -0.08689301 -0.08841801 -0.03430721
000160 33 db 72 bd 9d bb 2e 3d 1b b6 47 be fe d5 b8 bd
       -0.059291076 0.04265939 -0.19503061 -0.09025191
000170 11 f9 09 be 39 a2 33 bd 7b 4e 04 be a7 3d 34 3d
       -0.13473918 -0.04385588 -0.12920563 0.04400411
000180 f7 98 23 3d c2 c1 be 3d c3 d2 ee 3a b5 d6 93 bd
       0.0399408 0.093143 0.0018220771 -0.072186865
000190 0c 6a a3 bd de 50 03 3e 2a 5a e9 3c 26 15 16 bd
       -0.07979211 0.12823817 0.028485376 -0.036641262
0001a0 0e 19 47 be be 57 dc bd 99 7c 15 3e 7e 6d 85 bd
       -0.19443151 -0.10758923 0.14598311 -0.065150246
0001b0 1d b1 d3 bd 8a eb 2b 3d 03 6e ad 3d 58 7d b1 ba
       -0.10336516 0.041972674 0.08468249 -0.0013541384
0001c0 91 95 e8 3d a6 58 f5 bb 8a 1d 6b bc 1f 0b 83 bd
       0.113566525 -0.0074873744 -0.014350304 -0.063986056
0001d0 6c d9 b6 bd bf 8b 00 3e 65 17 a1 3d eb a1 c6 3d
       -0.08928189 0.12553309 0.0786579 0.09698852
0001e0 26 2a 07 be 7d 6c 85 3d 94 0f 23 be 36 2e f8 3b
       -0.13199672 0.06514833 -0.15923911 0.007573868
0001f0 fa ab 96 3d f3 ae 32 3e 21 a1 38 bc 2d 89 29 be
       0.07357021 0.1744955 -0.011268885 -0.16556235
000200 e7 bb d3 bd be d3 38 bd 05 3a 0d 3e ca a6 0b be
       -0.10338574 -0.045123808 0.13791664 -0.13637844
000210 32 dd 8c 3d a9 59 aa 3d e1 1d 3b 3d a3 82 ca 3d
       0.06878127 0.083178826 0.04568279 0.09888198
000220 47 c5 51 bd 55 11 8e bd 6a 6d f7 3d 91 82 15 bd
       -0.05121353 -0.069368996 0.12081416 -0.03650147
000230 60 3b 6a bd 8d 07 fc bc 26 ee e3 bc 63 c5 97 3c
       -0.05718553 -0.03076532 -0.027823519 0.018526739
000240 b3 52 09 bb 3f fd 10 be 94 76 98 bd 8d 6d 11 3e
       -0.0020953834 -0.14159106 -0.07444492 0.14201947
000250 dd 17 0a be f3 ed 0b 3d 68 d1 13 be 8c d4 03 be
       -0.13485666 0.034162473 -0.14435351 -0.12874049
000260 fa 23 9e 3d ce b7 e3 3c 8c c8 a1 3b 3d 7c 02 3e
       0.07721706 0.027797606 0.004937237 0.12742706
000270 ac a6 12 be f4 37 b4 3d a5 ff ef bc fe e1 02 3d
       -0.14321393 0.08799735 -0.029296705 0.031953804
000280 67 6e 7c 3d 56 ff d8 3c 9f c4 7e bd 8c 84 47 3d
       0.061628725 0.026488941 -0.06219923 0.04871039
000290 b5 ec b9 3d e9 0c 7a bd 15 1a 27 be 75 4c 08 3e
       0.090783514 -0.06104747 -0.16318543 0.13310416
0002a0 7d f7 36 be c1 8a cb 3c 00 d9 09 be 33 f2 11 be
       -0.17867847 0.024846436 -0.13461685 -0.14252548
0002b0 4f 54 9c 3c 6d 0d b4 bd 4f 44 06 3c f5 ee d4 3d
       0.01908317 -0.08791623 0.008194997 0.1039714
0002c0 64 3d 15 3e 8b 8c 02 3e 96 98 bd 3d c0 86 17 3d
       0.145742 0.12748925 0.09257619 0.036993742
0002d0 98 db 1a 3e a8 35 33 bc 5b 00 0d 3e ec 0c 34 3d
       0.15122831 -0.010938086 0.13769667 0.043957636
0002e0 a1 3d b1 ba 5a eb c3 bc 37 b5 05 3d c3 75 09 3e
       -0.0013522395 -0.023915935 0.032643523 0.13423829
0002f0 67 be 86 bc 85 73 0f be cb 94 bf bd cd a5 1c 3e
       -0.016448213 -0.14008911 -0.09354552 0.15297623
000300 94 00 f9 bc 04 7a 52 3d 3b 51 99 3d 68 29 a4 3d
       -0.030395783 0.051385894 0.074861966 0.0801571
000310 69 d5 f0 3d 27 07 28 3e 69 2f 98 3d b1 0f 35 3d
       0.11759455 0.16408978 0.07430918 0.044204418
000320 d8 e3 2e bd 94 cb 3e bd 92 79 bd bc dd ae 0f be
       -0.042697757 -0.046580866 -0.023129258 -0.14031549
000330 ff f7 df 3b 73 0b fc bd b8 19 99 bd 8c b2 02 be
       0.0068349834 -0.12306871 -0.074756086 -0.12763423
000340 03 e9 ec 3c 55 a2 38 3c c2 1a eb 3d a1 49 cd bc
       0.028919702 0.011269172 0.11479713 -0.025059523
000350 59 1f 4e 3d 75 9c 9d 3d ff 35 1c 3e ea 8f c2 3d
       0.050322864 0.076958574 0.15254973 0.09500106
000360 3e a2 a1 3d 1c bf 12 3e 40 1b c7 3d f6 a4 bf 3d
       0.07892273 0.14330715 0.097219944 0.09357636
000370 f3 a6 11 bd e3 92 ec bd 1e a6 ef bd c6 69 a9 bd
       -0.035559606 -0.11551454 -0.11701606 -0.08272128
000380 a7 21 a5 3d e1 52 4a bd 1b 8c f7 3d d0 ed 05 be
       0.08063059 -0.049395446 0.1208727 -0.13079
000390 9c 56 4a 3d 44 dd 1a 3d 06 21 0a 3e 9f 49 9f 3d
       0.049399003 0.03780867 0.1348916 0.07777714
0003a0 ac 38 ff 3d 81 91 05 bd 10 ee ff bd 63 12 23 bd
       0.12461981 -0.032609466 -0.12496579 -0.039812457
0003b0 44 e9 c9 bc a6 2f 52 3d 07 1e d8 bd 33 59 16 3e
       -0.024647363 0.051314972 -0.10552602 0.14682464
0003c0 c0 2c 9f 3c 79 99 0a 3e d6 3c 0b 3e 89 0b c3 3d
       0.019430518 0.13535108 0.13597426 0.095236845
0003d0 bf 59 cb 3b 68 bc 94 bd 22 47 18 be cd 25 05 3e
       0.006205767 -0.07262498 -0.14870885 0.13002701
0003e0 dd 08 ac 3c 99 55 bc bd 8f 43 a1 3d 31 be c8 bd
       0.02100032 -0.09196014 0.07874214 -0.09801901
0003f0 e1 aa 90 3d b9 33 c0 3c 2c 1a d9 bd b9 e9 c5 3d
       0.070638426 0.023462163 -0.10600695 0.0966372

111 f4 [1, 1024]
000000 a1 ba a4 bb b7 a4 0f bb df ab a3 3c c3 a2 fc bb
       -0.0050271307 -0.0021918246 0.019979415 -0.0077098324
000010 dd 20 ce 3a e4 c7 bc bb 7a 78 57 bc 97 a4 53 3b
       0.0015726347 -0.0057611335 -0.013151282 0.0032294148
000020 1f 65 6f 3a c3 84 fb b9 f7 ed 34 3c 88 4b 81 3c
       0.00091321947 -0.00047973366 0.011043063 0.015783086
000030 16 70 a9 3c dc 78 c8 bb 3e c9 ec bc a8 ee 7b 3c
       0.02068333 -0.006117923 -0.028904554 0.015376724
000040 d4 c4 f8 3a d7 4f e4 bb f8 d5 16 3c b5 b8 13 3b
       0.0018979558 -0.0069675255 0.009206288 0.0022540514
000050 78 dc 44 3b 11 30 00 bc 50 9c 27 bc b9 0d 06 3c
       0.0030038636 -0.00782396 -0.010230139 0.008181983
000060 82 bb b3 bb e5 e6 90 3b 29 9d 88 bc c8 58 d2 3a
       -0.005484999 0.004422056 -0.016676502 0.0016048187
000070 5e 6b b0 bb 4b 53 3c bc 70 31 7a bc 08 ab 9f 3c
       -0.005383893 -0.011494468 -0.015270576 0.019490734
000080 eb 61 ca 3c 49 e3 69 3c eb ac 51 3b 7c b7 c2 3c
       0.024704894 0.01427538 0.0031993936 0.023769133
000090 a7 be 0a 3d d2 f5 98 3c 07 05 00 bd 38 33 6a b9
       0.033873226 0.018671904 -0.031254794 -0.0002233506
0000a0 11 36 c3 bc fd 4f 68 bc 23 9c 92 3c 36 a0 5c 3c
       -0.023829492 -0.014179227 0.017896717 0.013465932
0000b0 e8 79 5d 3b 34 c6 bb 3b e1 1a 90 3c 5f 04 58 3c
       0.0033794586 0.0057304148 0.017590942 0.013184636
0000c0 2c e9 24 bc 2a fb a0 3c 55 72 b5 3b 65 32 2b 3c
       -0.010065358 0.019651014 0.005537311 0.010449027
0000d0 c4 20 7d 3c cc e0 b0 3c 80 73 ce 39 ce 3d dc bc
       0.015449706 0.021591567 0.00039377436 -0.02688494
0000e0 00 f8 21 3c 9b 1e 51 bc c7 db 47 3c 23 c2 ca ba
       0.009885788 -0.012763645 0.012198395 -0.0015469234
0000f0 b1 1b 28 bd 1f c7 ce 3a 1c 05 4d bb cb f5 82 3c
       -0.041042034 0.0015775895 -0.0031283563 0.015986344
000100 e5 cf c6 bb 29 bd 20 3b e3 ad cd bb 3a f9 d9 3b
       -0.0060672634 0.002452681 -0.0062768324 0.0066520246
000110 f1 0d f2 bc 42 79 d4 3b a8 19 7e 3c 5b e5 fd bb
       -0.029547663 0.0064841816 0.015509047 -0.0077482886
000120 6f 30 64 3c ca 4b da b9 85 f4 bb bc 96 69 4e bb
       0.013927563 -0.00041636667 -0.022943744 -0.003149604
000130 6c dd 90 3c 4a e3 50 3b be 09 d1 3c 9b 07 5f bc
       0.017683707 0.0031873756 0.02551734 -0.013612653
000140 67 2d 5d bc c1 2c 43 bc 3c a1 a9 3b f0 a5 7c 3c
       -0.013499594 -0.011912526 0.0051766913 0.015420422
000150 72 32 79 39 d6 94 b8 bc 71 54 7d ba 51 70 1b bd
       0.00023765283 -0.022531908 -0.0009663767 -0.03794891
000160 60 04 f2 3b 12 6b 34 3c ef 8e 6b 3a 4e a8 b8 bc
       0.0073857754 0.011011856 0.00089858373 -0.022541191
000170 3f a6 45 bc b6 38 cc 3b 96 55 60 bb 8f 6a 9a 3b
       -0.012063562 0.0062323464 -0.00342307 0.00471241
000180 02 2e dc ba 37 00 ae 3b 32 a7 ba 3b 5d cb 49 bb
       -0.0016798379 0.005310084 0.0056962008 -0.003079138
000190 c4 e4 fe 3a c1 c6 bc bc d0 e5 a3 3b 21 5b 77 3c
       0.001944684 -0.023043992 0.005001761 0.01509741
0001a0 11 7f b4 3b 13 bb a0 3c 2a 7f 47 3b 96 6c 84 bc
       0.0055083116 0.019620454 0.0030440786 -0.016165059
0001b0 d7 ee f5 bc 92 d6 a8 bc 84 d6 25 ba 58 d5 5d bb
       -0.030021114 -0.020610128 -0.0006326216 -0.0033849087
0001c0 ad 43 dc bb c6 4a 73 3c 1b a8 22 bd 05 c6 90 3b
       -0.006721935 0.01484937 -0.0397111 0.004418137
0001d0 1d a1 bd bc 41 18 1a 3b d9 d2 af 3b 44 9c c2 3a
       -0.023148114 0.0023512992 0.005365711 0.0014847596
0001e0 4b fb b0 3b a5 ed a5 b9 aa 7b 59 3c 41 00 68 ba
       0.00540105 -0.0003164831 0.013274113 -0.00088501355
0001f0 0f cf 25 3c a6 12 52 3c 6b 86 24 3c a1 30 26 3c
       0.010120167 0.012821829 0.010041813 0.01014343
000200 eb 0e ae 3c a1 83 20 3b 15 61 86 3c 0f 76 93 3a
       0.021247348 0.002449252 0.016403714 0.0011250394
000210 a5 55 8e 3c c4 7e 2a bc 99 62 15 bc 27 6d d7 3b
       0.017374823 -0.0104062 -0.009117746 0.0065742913
000220 2a a5 93 3c 94 fe 21 bb b7 57 9e bc 1b 3e 27 3c
       0.018023092 -0.002471839 -0.019328935 0.010207678
000230 d0 bc aa 3a 61 69 a4 3c e6 ae ad bb f9 5a 4e 3c
       0.0013026241 0.02006978 -0.0053003905 0.012594932
000240 3c b1 c0 bc 33 37 ba bb 5e 6c d4 39 83 a3 cd 3b
       -0.023522012 -0.00568285 0.0004051653 0.0062755956
000250 f6 e0 31 3b 6e 57 99 38 55 71 27 3c 98 67 b2 3c
       0.0027142144 7.3118936e-05 0.010219892 0.021777913
000260 fe 96 46 ba 71 36 70 3b 3f 61 ab bb c1 89 51 bc
       -0.00075756 0.0036653543 -0.0052300985 -0.012789191
000270 e6 a1 da bb 95 09 09 bc dd 94 4e bb f9 4a 58 3c
       -0.006672132 -0.008364101 -0.0031521835 0.013201469
000280 bd 5d b4 3c 67 3d c0 3c 21 65 5f bc 4e ab 8e 3c
       0.022017354 0.023466779 -0.013634951 0.017415669
000290 b5 14 fc 3c 44 fd 08 3c 91 53 6a 3c 03 62 09 37
       0.030771593 0.0083611645 0.01430215 8.1886565e-06
0002a0 cc c8 06 3a bb 76 29 bc 9e 4b 68 3c 07 90 2c 3b
       0.00051416154 -0.010343249 0.014178185 0.0026330964
0002b0 69 70 0a bc da bb 80 3a 55 ef ab bb df 95 4b 3b
       -0.008449652 0.0009821609 -0.0052470365 0.0031064672
0002c0 35 62 84 3c 84 b1 6b 3c 4a ab fa bb 3d 24 9d 3c
       0.01616011 0.014385585 -0.007649814 0.019182319
0002d0 13 79 b7 3b 70 5e ea 3c 21 09 87 3a 4a 4c e1 ba
       0.00559915 0.028609484 0.0010302403 -0.0017188874
0002e0 52 97 8c bb 98 65 b3 3b ab 31 77 3c 64 6e 75 bb
       -0.0042904997 0.0054747574 0.015087525 -0.003744983
0002f0 cd a8 5f 3c f4 8a 0e bb e5 17 9a bb 26 b6 47 bb
       0.013651085 -0.0021750303 -0.0047025555 -0.003047356
000300 9e 06 a6 bc bf 78 3c 3b 4e 44 46 3b 57 0e e3 ba
       -0.020266827 0.0028758494 0.0030253115 -0.0017322999
000310 c1 ad 01 3c 3a 10 ab bb e1 9d ce bb 1a 0a b2 3c
       0.007914961 -0.00522044 -0.0063054417 0.021733332
000320 b5 41 0f bc de 2a 3a bc 2d 0c d9 3c 79 cc 93 bc
       -0.008743693 -0.011362759 0.026495064 -0.018041836
000330 80 0d 9c 3c d7 9f d2 3a 91 4c 26 bc da 41 01 3c
       0.019049406 0.0016069365 -0.010150091 0.007889235
000340 12 70 97 3c 60 14 0c 3c 11 07 19 3c 5d 54 d3 3b
       0.018486056 0.00854978 0.009340064 0.006449266
000350 db 53 45 3c ee 11 33 3c 0f 00 c8 3b 04 47 0c 3b
       0.0120439185 0.010929568 0.0061035226 0.0021404633
000360 bc 6c fe 3b b9 f8 25 3c 1f c8 b9 3c 89 9e 66 bc
       0.007764427 0.010130101 0.022678433 -0.014075884
000370 b3 d1 82 3b 49 0c 3a 3c 44 4e 24 3c 4a 6f 4c bc
       0.0039922833 0.011355468 0.010028426 -0.012477705
000380 52 08 f1 ba e2 b6 03 bc 97 13 ab 3c bf 46 92 3b
       -0.001838932 -0.008039208 0.020883365 0.004464
000390 4b 24 ca 3b 4e 5a e5 bc 43 87 09 bc d9 7e 20 bc
       0.0061688772 -0.027997162 -0.008394065 -0.009795868
0003a0 8f 7f 51 bc ce 62 9e 3b 7c 2e 21 bb 2e 92 35 bc
       -0.01278676 0.004833556 -0.0024594357 -0.011082215
0003b0 26 5f 79 3c 0b 80 1f bc 26 2c 7e bc 8a e4 bf bc
       0.015220439 -0.009735118 -0.0155134555 -0.023424406
0003c0 39 de f3 3b cb 52 4c 3c 7d d9 8f 3b da 7a f5 ba
       0.0074422625 0.012470911 0.0043899403 -0.0018728629
0003d0 2c 64 06 ba c9 04 37 bb 58 d3 a3 bc 65 3b 83 3c
       -0.0005126621 -0.0027926436 -0.019998237 0.016019532
0003e0 bd 81 48 bc 6c d1 0a 3c f6 7c 93 3b 4a 82 80 3c
       -0.012237963 0.008472782 0.0045009805 0.015687127
0003f0 61 a8 66 3b b8 5f 12 3d 1a ef 93 bc 61 43 38 3c
       0.0035195576 0.035735816 -0.018058348 0.011246533

action_model._discrete_distribution.branches.0.bias f4 [3]
000000 1c f0 26 3b 80 5f 1e 3c b4 ec 3c bc
       0.0025472706 0.009666324 -0.011531044

action_model._discrete_distribution.branches.0.weight f4 [3, 128]
000000 d8 27 94 bc 84 61 07 bc 26 64 cd bc b7 87 fe 3c
       -0.018085405 -0.008262996 -0.025072169 0.031070573
000010 d6 b9 f7 3a da d3 a7 3c 71 51 03 3c b6 69 91 3c
       0.0018899988 0.02048676 0.008015023 0.017750602
000020 60 d4 bc 3c aa 9f 44 bc 53 72 ea 3b b5 51 7f 3c
       0.023050487 -0.0120009575 0.007154742 0.015583445
000030 f8 50 d2 3c 3b 84 f2 bc 1b ca 81 3a 9b fb a7 3b
       0.025673375 -0.029604068 0.0009902151 0.0051264293
000040 55 88 82 bb bd 49 00 bc 6e ab 11 3c 02 24 37 bc
       -0.003983537 -0.007830081 0.00889097 -0.0111780185
000050 e2 73 c4 bb 79 28 e6 bc 85 ce 83 3c 3e 28 a9 bb
       -0.0059952596 -0.02809547 0.016089687 -0.005162268
000060 51 57 7c 3b 9c 64 a2 3a f3 53 9a 3a 77 03 14 3c
       0.0038504193 0.0012389603 0.0011774286 0.009034029
000070 5a cb a7 3a ae 5c 6d 3c 5e ed 38 3c 7b 07 dc 3b
       0.0012801692 0.014487429 0.0112870615 0.006714759
000080 24 bf 9e bc b9 d5 02 3c 01 6a 2c bb 3b b5 bd bb
       -0.019378252 0.007985526 -0.00263083 -0.0057894266
000090 8a be ad bb 43 76 1c 3b ff f1 78 bc a4 60 9c bc
       -0.005302255 0.00238742 -0.015194415 -0.01908905
0000a0 2f 40 8c bc ec f5 a4 3c 44 cf e6 3c c5 36 23 bb
       -0.017120449 0.020136796 0.028175004 -0.0024904471
0000b0 81 0d 80 bc f8 49 43 ba 00 a2 a5 bb 1f a9 a3 3a
       -0.01563144 -0.0007449682 -0.0050547123 0.0012486315
0000c0 69 75 9b ba b2 95 53 3c 88 50 31 3c 4c da 61 3c
       -0.0011860552 0.012914108 0.010822423 0.013784956
0000d0 2b 39 93 3c 3a 18 9c bd 5a f6 10 3c e6 2c 16 3c
       0.017971596 -0.07621808 0.008847797 0.009165978
0000e0 bf 06 68 3c 2c f9 9e 3c b2 f4 bb bc 33 72 15 bc
       0.014161765 0.019405924 -0.022943828 -0.0091214655
0000f0 cc 45 30 bc 6b 4d 60 bc ad 5e 84 bb 99 59 55 bb
       -0.010758828 -0.013690333 -0.0040396065 -0.0032554625
000100 69 31 45 3b cf 6d df 3b df 89 5d bc a5 ae b1 3c
       0.0030089265 0.00681851 -0.013521641 0.021689722
000110 d1 0f 41 3b 33 6b 8d 3d 3e 8e ce 3b 52 db c0 bc
       0.002945889 0.06905212 0.0063035777 -0.02354208
000120 bb 73 1d 3c c7 be c9 bc 95 4e 5e 3c 82 dd fc bb
       0.009610112 -0.024627103 0.01356854 -0.0077168355
000130 3f 3f 13 3d 8c 18 04 bc 2f e1 09 3c 97 c3 62 bc
       0.035948988 -0.008062493 0.008415504 -0.013840578
000140 d6 6e 27 3c 81 dc 01 bc 7b 69 78 3c fd 75 08 bb
       0.010219296 -0.007926107 0.015161867 -0.002082228
000150 27 03 66 bc 6e e8 84 3c 97 51 76 3b f8 40 d2 ba
       -0.0140388375 0.016224112 0.0037585252 -0.0016041091
000160 ed b1 0c bd 3a 8f eb bb 72 7e 69 3b 4c 44 2a bc
       -0.03434937 -0.007188705 0.0035628346 -0.01039226
000170 33 86 31 bd e0 c8 bc 3c 0e 09 de 3b 15 5b 70 bb
       -0.043340873 0.023045003 0.0067759817 -0.0036675383
000180 9b 1b 71 3c 48 9f 6b ba 19 7c 40 bc 93 18 ab 3c
       0.014716054 -0.00089882733 -0.011748337 0.020885741
000190 37 6c e3 bc 86 1d 02 3c 08 fc 05 3b 71 3d 59 3c
       -0.027761562 0.007941609 0.0020444412 0.013259278
0001a0 32 7d e1 3c 44 c0 e0 bc a3 41 7d bc fa e4 a4 bc
       0.027525518 -0.02743543 -0.015457544 -0.020128716
0001b0 f4 9c 96 3c eb 7a a1 bc a4 46 81 3c 03 19 88 3a
       0.018385388 -0.019711932 0.015780754 0.0010383431
0001c0 b3 4a 01 3c 38 b4 eb 3c bf 5e 33 3c 21 c2 cb 3c
       0.007891345 0.028772458 0.010947882 0.024872841
0001d0 2c f7 36 bb 33 84 cf bb c8 f7 67 bb 33 e2 94 bb
       -0.0027918322 -0.006332898 -0.0035395492 -0.0045435666
0001e0 55 06 85 ba 62 65 d4 3a 2d 31 a5 bc 7e 92 a1 bb
       -0.0010148982 0.0016204531 -0.02016505 -0.0049307933
0001f0 56 9f e9 3c 21 fe 43 bd 8c 17 12 bd a8 42 7e 3c
       0.02851836 -0.047849778 -0.035666987 0.015518822
000200 90 e7 69 bc 5c 11 82 3c f2 62 a7 3d c1 b7 2e bd
       -0.0142764 0.015877418 0.08173169 -0.04265571
000210 12 c6 d4 bc c0 37 be 3b da eb 5d bc 4b 29 d6 bc
       -0.025973354 0.0058049858 -0.013545001 -0.026142737
000220 d9 43 8a 3d 97 98 4f bc 6b 52 e4 bb a3 14 2d bb
       0.06751222 -0.012670658 -0.006967833 -0.0026410006
000230 8a 8a 35 bd 0a bb 77 3c 18 ab 18 bc ba 77 68 3c
       -0.044321574 0.015120277 -0.009318136 0.014188701
000240 ff b3 25 3c 76 bd a3 ba 91 5d 32 bc ed d7 4b 3d
       0.010113715 -0.0012492377 -0.010886566 0.04976647
000250 35 3d 38 bc e2 ab a1 bc 3a 8b ce bc 3c 75 9d bb
       -0.011245062 -0.01973528 -0.025212873 -0.004805235
000260 3c fe 57 3b af ab 2c 3b 81 bd 47 bb fd 09 7e bb
       0.0032957932 0.0026347449 -0.0030477943 -0.0038763278
000270 66 00 2b bc aa e2 25 bc ef bb 4f bc 2b 59 ac 3c
       -0.010437107 -0.010124842 -0.012679084 0.021038612
000280 bb ac 85 bc c5 17 73 bd 89 a7 13 3c 3d 24 54 3b
       -0.016317716 -0.05934884 0.009012111 0.0032370233
000290 f0 c3 03 3d eb a8 b6 bb 73 5e 94 3d d3 e9 89 3c
       0.032169282 -0.005574336 0.07244577 0.016835129
0002a0 bb c2 34 3d e2 e9 4f bb f6 17 b2 3d c6 28 49 bd
       0.044131022 -0.0031725098 0.086959764 -0.04911115
0002b0 bb 9c e8 3c 03 cc c4 3b 74 09 73 3a 98 8b 54 3d
       0.028395047 0.0060057654 0.0009271123 0.05189094
0002c0 c2 9a 58 bc da c1 29 bd 46 ef bb 3c 8e b3 3e 3c
       -0.013220491 -0.041444637 0.022941243 0.011639489
0002d0 ee 16 a2 3b 17 86 e7 3d ce e7 dd ba cc c2 84 3b
       0.004946581 0.113048725 -0.0016930045 0.004051542
0002e0 dd 87 4c 3b a8 a5 71 3c 33 2f fe 3c 24 6b 01 bc
       0.003120891 0.014748968 0.031028366 -0.0078990795
0002f0 fd bc cb 3c 1f d3 9e 3c 6e d1 1d bd f4 51 8e bc
       0.02487039 0.01938778 -0.038529806 -0.017373063
000300 5a b9 53 bc 68 9f 1f 3d 96 6a 11 bc 10 bf 94 bd
       -0.012922609 0.03897038 -0.00887551 -0.07263005
000310 e4 40 01 3d d1 9e 9c bd 01 53 c5 bb 74 af 96 bc
       0.031556025 -0.07647479 -0.0060218577 -0.01839421
000320 fe b3 01 bd d4 14 9f 3c 8e 19 7d bc 69 74 bf ba
       -0.031665795 0.019419111 -0.015447987 -0.0014606836
000330 f1 15 12 bc e6 37 89 3d 9d 32 f7 3b f6 27 8a 3a
       -0.008916364 0.06700115 0.0075438754 0.0010540474
000340 be 22 15 3d 54 57 9e 3b 68 1c a6 bd 6f 5c 9b b8
       0.036410086 0.0048321877 -0.08110887 -7.408193e-05
000350 da c8 15 3d 77 3d 5d bc d5 c4 f6 bc ff 86 9f bc
       0.0365685 -0.013503424 -0.030123154 -0.01947355
000360 af b7 44 3c fa c3 98 3d 9e 2d e9 bc 6e 4c 22 3d
       0.012006684 0.074592546 -0.028464135 0.03962367
000370 9f c2 fb 3c c4 50 76 bd c5 a8 bb bc d0 75 20 bd
       0.030732451 -0.060135618 -0.022907624 -0.039174855
000380 63 1d 1a 3b 14 45 be 3c 74 41 d1 bc 16 0e bc bb
       0.002351605 0.023226298 -0.025543906 -0.005738984
000390 a1 5c 95 bc 82 3b 6c 3b 02 82 d6 bb b8 14 82 bd
       -0.018232645 0.0036046212 -0.00654626 -0.06351608
0003a0 8a 14 83 bd c4 88 af 3d d8 77 91 3d 1a ae b1 bb
       -0.06400402 0.08571008 0.071029365 -0.005422366
0003b0 10 71 cd bc 38 c3 4c 3c 47 c9 b2 bb e8 46 87 bb
       -0.025078326 0.012497716 -0.005456123 -0.0041283257
0003c0 55 f6 33 bc 09 29 7a bd b4 0b ae bb 3b 67 48 bd
       -0.010984023 -0.06107429 -0.0053114537 -0.048926573
0003d0 1f 96 83 bc 19 81 42 3d 80 a2 39 3b 93 50 3d bc
       -0.016062794 0.0474864 0.0028325617 -0.011554855
0003e0 b9 29 39 ba 7c c8 0b 3a 52 de 8c 3c 6c ed 75 3c
       -0.0007063407 0.00053323037 0.017195854 0.015010219
0003f0 49 70 a5 bd cb 55 05 3d 3c 1c b5 3d 56 a9 d6 bc
       -0.08078057 0.03255252 0.08843276 -0.026203793

action_model._discrete_distribution.branches.1.bias f4 [3]
000000 e9 53 16 bc c2 1f 4b 3c 19 de 46 bb
       -0.009175279 0.012397708 -0.0030344783

action_model._discrete_distribution.branches.1.weight f4 [3, 128]
000000 26 f9 fc 3c 45 11 cd 3c 54 30 fb bb 16 61 c9 3c
       0.030880522 0.025032649 -0.0076656733 0.024582427
000010 02 dc 12 bc e0 29 a2 bb 38 05 50 3b 26 c5 55 3c
       -0.008963587 -0.0049488395 0.0031741392 0.013047492
000020 83 f2 06 bd a3 db 85 ba 94 56 8c 3b 92 82 33 3b
       -0.03294612 -0.0010212552 0.004282782 0.0027391058
000030 a6 12 a3 bc 14 86 1d bc f5 4d ba b9 62 de 18 bc
       -0.019906353 -0.009614486 -0.00035534767 -0.009330364
000040 8c c9 72 3a 04 31 4b 3c 49 7a f1 bc 9b 4c 39 3b
       0.00092616 0.012401823 -0.029477255 0.002827442
000050 fc e3 96 3b 35 ee 96 3c 36 52 55 3b 2d 25 51 3c
       0.0046048146 0.018424133 0.0032550222 0.012765211
000060 73 51 06 bc a8 37 38 3b 35 37 3e ba 18 e7 eb bc
       -0.00819813 0.0028109346 -0.00072561513 -0.028796718
000070 e3 a0 9f bb 5d 42 7a bc 7c dd d3 3b 1b 15 68 bc
       -0.004871474 -0.015274611 0.006465612 -0.014165188
000080 a7 2c 08 3c 7f b6 86 bc 88 35 25 bc f7 ed ba 3c
       0.008311427 -0.016444443 -0.010083564 0.022818549
000090 a6 53 b4 3b 36 a9 61 bc 85 95 ea 3b 0e 61 36 3c
       0.0055031357 -0.013773253 0.0071589374 0.011131538
0000a0 3f a3 a9 3c 10 47 79 bb 08 f2 9d ba d6 d6 c1 ba
       0.020707725 -0.0038036741 -0.001205028 -0.0014788758
0000b0 df 8b d9 3b 45 b3 bf ba 86 94 13 bc 64 bf e8 3c
       0.0066389884 -0.001462557 -0.009007579 0.028411575
0000c0 53 07 0b 3c 7a 7d 65 bd 03 c7 fe 3b 24 54 26 bc
       0.008485633 -0.056027867 0.007775189 -0.010151897
0000d0 58 bf a8 3c d4 c7 99 3c 05 2c 28 3b 30 99 d4 bb
       0.020599052 0.018772043 0.0025661003 -0.006487988
0000e0 12 6e ae bc 1f 89 96 b9 a3 82 1a 3c 80 ec 23 3c
       -0.02129272 -0.00028712393 0.00943056 0.010005116
0000f0 f9 67 81 3c 5c 05 dd 3b f1 11 85 bc 77 d3 a1 bc
       0.015796648 0.0067450237 -0.016243907 -0.019754155
000100 ba be e8 3a 1f 80 71 bc b0 e0 d8 bb 33 a6 29 bc
       0.0017757036 -0.014740019 -0.0066185817 -0.010354566
000110 0c bf 60 bc 42 73 83 3c c0 3c 0f bc 18 ad e1 3c
       -0.013717424 0.01604617 -0.008742511 0.027548358
000120 95 14 8e 3c 1e 7e c2 bc 7b e7 29 bc 98 dd 44 3c
       0.017343799 -0.023741778 -0.010370131 0.012015723
000130 e8 b6 55 bd 86 39 87 bc 54 1d 3c 3c 0c 03 23 3d
       -0.052176386 -0.016506921 0.011481602 0.039797828
000140 1f 1c 90 3c e7 d8 39 3c 7c 1d f9 ba b6 5a 2d bc
       0.017591534 0.011343217 -0.0019005979 -0.010580709
000150 6c b1 a6 3c 70 48 92 bc 21 b2 ab bc fe aa 90 bc
       0.020348273 -0.017856807 -0.020958962 -0.01765966
000160 00 9e 3f bc b5 d2 21 3c 11 ca 73 3d f3 77 75 bb
       -0.011695385 0.009876897 0.059518877 -0.0037455529
000170 cb 92 1d 3d 7e c5 6c 3c 75 42 c2 ba e1 2c 9c 3c
       0.03847007 0.014451383 -0.0014820831 0.019064369
000180 2d 90 cf 3a c8 b2 8c 3a d2 38 53 3d d0 1c eb 3b
       0.0015835814 0.0010734433 0.05156786 0.0071750656
000190 29 6d a5 3c 0d d4 bb 3b b6 f0 07 3d 02 6b 03 bc
       0.020193653 0.0057320655 0.033188544 -0.008021118
0001a0 56 5d 63 bc 9a bf 79 3c e4 82 9a 3a ff e9 75 bb
       -0.0138772335 0.015243435 0.0011788276 -0.0037523506
0001b0 41 02 98 3c cb 43 8e 3c 1e c4 8f bc 28 45 97 3a
       0.018555762 0.01736631 -0.01754957 0.0011540996
0001c0 f0 4b 11 bc 38 6f c0 bc e9 72 a5 bc fc 7c e3 3b
       -0.008868203 -0.023490533 -0.020196395 0.0069423895
0001d0 db a5 85 bc f7 5a c5 bc 49 9d b4 3c cc aa bc 3c
       -0.016314438 -0.024091227 0.022047656 0.023030661
0001e0 6f d9 9f bb f8 f7 0f bb 50 97 4f 3c 2d 94 2a bd
       -0.004878215 -0.002196787 0.012670353 -0.041645218
0001f0 7b 9f b7 bb f8 8f d0 3c ad 3a b4 bc fe 86 11 bd
       -0.0056037284 0.025459275 -0.022000635 -0.03552913
000200 26 d4 51 3d 53 c5 4d bd f2 3b cc bc fa 91 0d ba
       0.05122771 -0.05023701 -0.024930928 -0.00054004753
000210 ea 06 15 3d 09 23 87 3c c7 82 1a 3c 60 04 9d 3c
       0.036383547 0.016496198 0.009430594 0.019167125
000220 cd bb bd bb df fb f2 3b 00 55 86 bc 7a f2 f9 bc
       -0.00579021 0.0074152793 -0.016397953 -0.03051113
000230 9e 4c 21 3d d1 7b 95 bc 21 d5 3a bc e9 db 11 3c
       0.03937971 -0.018247517 -0.011403353 0.008902528
000240 8d d1 40 3c 84 38 2b 3c 03 7c 32 3c 49 04 3b 3c
       0.011768711 0.010450486 0.0108938245 0.011414596
000250 b4 aa ad bc 94 f3 9b bb eb 7c 13 bd 33 e5 19 bd
       -0.021199562 -0.0047592614 -0.036007803 -0.037572097
000260 c7 0f 5e bc 79 e0 d9 bc 11 ac 87 39 be c3 d3 3c
       -0.013553566 -0.026596295 0.00025877406 0.025850173
000270 de 70 d9 bb 79 40 56 bb 03 22 88 3c 9a 4d ad 3c
       -0.0066357693 -0.0032692237 0.01661778 0.021155167
000280 0d 73 6a 3d 91 0b 98 bd d0 d1 82 bc e7 1e 14 bd
       0.057238627 -0.07424081 -0.015969187 -0.036162283
000290 28 dd 1e bc a4 9f b0 3a ea 31 6f bd c1 b0 3d bd
       -0.009696282 0.0013475311 -0.05839721 -0.046311144
0002a0 c0 92 ed bc 3c 23 eb 3a 13 73 a5 bb 08 91 4c 3c
       -0.02900064 0.0017939578 -0.0050491183 0.01248575
0002b0 65 df 09 bd 19 b4 0b 3d ef 79 d7 bc 31 e8 8a bc
       -0.03366031 0.0341073 -0.02630326 -0.01695642
0002c0 e0 6d a2 3c 70 2e 3b 3d 87 97 00 bc 94 0c 88 3c
       0.019827783 0.045698583 -0.007848627 0.01660756
0002d0 5a b9 9c bc 5f e7 f3 bc c4 62 0c 3b 10 df 31 3c
       -0.019131351 -0.029773412 0.0021421174 0.010856405
0002e0 43 6c 02 3d 51 1e 71 bc 17 68 ab ba a0 da ae bc
       0.031841528 -0.014716701 -0.0013077286 -0.021344483
0002f0 50 99 c0 bc fc 28 8f bb 2c 1e 23 3c 4b 40 fe 3c
       -0.023510605 -0.0043688994 0.009955924 0.031036517
000300 1d 67 a1 ba c7 c8 42 bc c3 f6 68 bb 7d e6 d4 3b
       -0.0012314055 -0.011888689 -0.0035547472 0.006497203
000310 eb f7 49 3c c5 a2 27 bd a0 a8 af bb 98 dc dc 3b
       0.012327175 -0.040926713 -0.005360678 0.006740164
000320 f3 23 10 3b 20 88 6b 3d 78 ec 2e 3d 5e da 1b 3c
       0.0021994084 0.057502866 0.042705983 0.009512512
000330 7b 6d 0a bc d5 26 93 3b f8 e1 4e 3d 3c b6 34 3c
       -0.008448954 0.004490713 0.05050847 0.011029776
000340 e3 ac ec bc b9 1e 85 bc da 48 22 3c d5 79 16 bd
       -0.028891033 -0.016250001 0.0099050645 -0.03673728
000350 e4 48 35 bb ea 3d 2b 3c 02 6d 80 bc 0f 3f bc 3a
       -0.0027661854 0.010451773 -0.015676979 0.0014362055
000360 02 10 21 bd 2b ac e1 bc 18 06 bd 3c a6 30 a1 bc
       -0.039321907 -0.027547916 0.023074195 -0.019676518
000370 77 ba 87 3b ab 99 32 3c 06 7f f6 bc 7e d3 5a 3c
       0.0041421014 0.010900895 -0.030089866 0.013356088
000380 64 3b 64 bb ac d0 12 3b df 64 c3 3c d2 cc ab bc
       -0.0034825439 0.002240221 0.02385181 -0.02097169
000390 09 42 b6 3c 75 cc 83 bc 34 ef 2d bc e6 ee 8f 3c
       0.022248285 -0.016088704 -0.0106161125 0.01756997
0003a0 e2 63 5f 3d f6 34 07 bd 0a 7d a7 bc b5 aa 4f bc
       0.054538615 -0.03300949 -0.020445365 -0.012674977
0003b0 a3 43 ea 3b 64 0d 59 bc 3f 0f fb ba 1d 34 94 3b
       0.007149176 -0.0132478215 -0.0019154324 0.004522814
0003c0 ac c0 92 3c 10 d4 56 3d 3a 6c f2 3c a4 9d 01 3d
       0.017914139 0.052448332 0.029592622 0.03164448
0003d0 fc 9c 35 3c 36 6a 67 bc bd fe db bc 92 16 ec bc
       0.011084791 -0.014124444 -0.026854867 -0.028819356
0003e0 37 c3 22 3c c1 74 d4 bc 57 69 08 3a 7e 59 8d bc
       0.009934238 -0.025934579 0.0005203685 -0.017254587
0003f0 1f ea 0b 3c 77 3c 0e bc 64 a3 88 bc cd f0 9d 3d
       0.008539706 -0.008681408 -0.016679473 0.07711945

discrete_action_output_shape f4 [1, 2]
000000 00 00 40 40 00 00 40 40
       3.0 3.0

network_body._body_endoder.seq_layers.0.bias f4 [128]
000000 64 08 a1 3b 51 6d 97 bc 94 c5 6c bc b3 ff 1c bb
       0.0049143303 -0.018484743 -0.014451403 -0.002395612
000010 09 21 65 bc 2d c4 5f b6 4e 0f 08 bc b5 7a 2c 3c
       -0.013984927 -3.3343779e-06 -0.00830443 0.0105273025
000020 22 f6 8c bc df 2a c8 bb 17 88 05 3c 0a 34 95 bc
       -0.017207209 -0.0061086263 0.008150122 -0.01821329
000030 52 6d 43 bc 62 d4 30 bc 50 26 a3 bc be c7 cc b7
       -0.011927919 -0.0107928235 -0.01991573 -2.4411707e-05
000040 69 39 9e bb 9b 09 12 bb 87 55 45 b4 26 ea 07 3c
       -0.004828621 -0.0022283557 -1.837817e-07 0.008295571
000050 07 06 0f bc ea 83 02 bb e6 05 dd 3c c6 0d 1d bc
       -0.008729464 -0.0019915053 0.026980352 -0.009585803
000060 19 36 34 bc 28 4a 86 bc c0 69 44 bc e7 a1 04 3d
       -0.010999226 -0.016392782 -0.011988103 0.032380965
000070 f8 ee 0e ba 99 f3 32 bc e1 46 c0 bc 30 94 91 bc
       -0.0005452479 -0.010922336 -0.023471298 -0.017770857
000080 2c 1b bf 3b 34 66 35 bc 8d 9b 1f ba 0a aa d6 bb
       0.0058320966 -0.01107173 -0.00060885475 -0.006551032
000090 e8 c5 84 bc 30 4a c7 36 53 46 7e bc d6 e5 3c bc
       -0.01620765 5.9392987e-06 -0.015519696 -0.0115294065
0000a0 7c 10 6c 3c 02 21 60 38 b9 d5 d7 b4 74 09 bd ba
       0.014408227 5.3436503e-05 -4.0202374e-07 -0.0014422373
0000b0 ac 25 29 bc 9c 28 c5 ba ae 29 5e ba f1 9a b0 36
       -0.010323923 -0.001504201 -0.00084748387 5.2632463e-06
0000c0 79 ab e3 bb 70 db 30 bc 23 6f 37 bb f0 2f af 3b
       -0.0069479314 -0.0107945055 -0.0027989827 0.005346291
0000d0 4f 45 b4 3b d8 26 6d bc c6 5f 03 3d bc 94 45 bb
       0.0055014263 -0.014474593 0.03207376 -0.0030148467
0000e0 22 db 1c 3d b0 b0 a4 bb 42 9a bb bc e8 e1 c8 3b
       0.03829492 -0.0050259456 -0.022900704 0.0061304457
0000f0 b8 4f f9 bb 29 0c a4 3b 19 cf 52 bc 48 91 e1 bb
       -0.00760838 0.0050063324 -0.012866759 -0.006883774
000100 43 d6 3b 3c 0e 3d 6e bc 2f b9 96 bb 64 cf 92 bb
       0.011464658 -0.014540924 -0.0045997123 -0.0044802893
000110 c1 7d 07 bc 90 e9 7a bc 3c 6d b6 3c 5e 64 d0 3c
       -0.008269728 -0.015314475 0.022268884 0.025438484
000120 50 e2 52 3b e8 27 9b 3a a1 34 68 bc e9 3e 81 bc
       0.003217835 0.0011837455 -0.014172704 -0.015777068
000130 4c fa 03 bc 24 27 d1 bb f4 9e 82 3c d1 9d a8 b9
       -0.008055281 -0.0063828398 0.015944935 -0.0003216104
000140 10 d3 ff ba 7d 05 58 bc 1b e1 54 38 e1 31 de bb
       -0.0019517858 -0.013184902 5.0754385e-05 -0.0067808484
000150 d3 10 1b bc 60 fe 30 3c 52 dd b4 bc 52 07 04 bb
       -0.00946446 0.010802835 -0.02207819 -0.0020145965
000160 2d 3b 1d bc 19 65 f7 bb 22 70 d9 3b 8b f0 0b ba
       -0.009596628 -0.0075498936 0.0066356817 -0.0005338273
000170 ae 16 ce 3c 32 77 9b 3b 7b 00 0f bc 12 72 2c bc
       0.025157299 0.004744434 -0.008728142 -0.010525243
000180 39 ff 6c bb 4f f5 81 bc 39 b6 00 bc d7 34 ab bc
       -0.0036162867 -0.015864043 -0.007855945 -0.02089922
000190 ca 48 90 bc 86 33 cb 3b db 43 f5 bc fd 13 6c 3c
       -0.017612834 0.0062012104 -0.029939583 0.014409062
0001a0 ad db 09 3c e6 32 71 bc 4b c5 94 3c 58 12 b8 b7
       0.008414191 -0.014721608 0.018160483 -2.1943051e-05
0001b0 ae 3b 56 bc 6d 0a c3 3c 4e 67 d8 bc 17 bd 48 bc
       -0.013075752 0.023808682 -0.026416447 -0.012252114
0001c0 f2 ae 86 bb 9a fc f9 bb 15 6f 5b bb 94 b7 83 3c
       -0.0041102106 -0.0076289894 -0.0033482958 0.016078748
0001d0 26 6f e6 3c 42 7d 0e 3d 43 20 a1 bb 01 81 01 bb
       0.028129172 0.034787424 -0.004917176 -0.001976073
0001e0 d5 a9 c3 3a 81 33 8c b8 fe a6 8b bc f8 05 de b8
       0.0014927933 -6.6853136e-05 -0.017047402 -0.00010586897
0001f0 f2 ee 75 3c 27 46 ec 3a 19 22 66 bb 20 a3 62 3a
       0.015010582 0.0018026278 -0.0035115539 0.00086455233

network_body._body_endoder.seq_layers.0.weight f4 [128, 192]
000000 db 4c b9 3d 3d a7 29 3c 62 18 2f be 68 84 4a 3c
       0.09047862 0.010354814 -0.17099145 0.01236067
000010 06 79 cc bd d2 26 6d bd bf c5 d5 bd b3 5c 8d bd
       -0.09984021 -0.05789835 -0.10438108 -0.069024466
000020 c2 4d d1 bc 30 c0 dd 3d 54 90 5c 3d e7 51 cb 3d
       -0.025549773 0.108276725 0.05384858 0.09927731
000030 4b 73 05 3d f0 40 af 3d 79 9d 60 3c 72 1e 42 3b
       0.032580655 0.08557308 0.013709419 0.0029620198
000040 53 83 4b bd 62 af 5a bd 6e 53 05 bd 0e ec 75 3d
       -0.049685787 -0.053389914 -0.032550268 0.060039572
000050 d0 5c 91 3d f8 88 91 bd 2f bc 30 3c c2 8c bf bd
       0.07097781 -0.07106203 0.010787054 -0.09353019
000060 22 71 e0 bd 11 23 66 bc a6 4b cd 3d f8 9a 3f bd
       -0.10959078 -0.014046446 0.100241944 -0.04677865
000070 43 c7 48 bd a0 36 37 bd 2e 8f 5d bd e8 0d 5d 3c
       -0.049018156 -0.04472983 -0.054091625 0.013492085
000080 c2 db 90 3d 08 56 e8 3c fa ef 33 3d ad bf 9c 3b
       0.070731655 0.028361335 0.04393003 0.0047835917
000090 22 52 13 be 16 1d 0c 3e a3 e6 1b 3d bd 36 98 bd
       -0.143868 0.1368297 0.03806175 -0.074323155
0000a0 f8 62 a9 bd 3e 87 ce bb 66 05 b8 bd 05 6e e8 bc
       -0.0827083 -0.006302743 -0.08985405 -0.028372774
0000b0 11 5c ce 3c 6e f3 1c 3d 58 56 e9 bd 13 ad 75 3d
       0.025190385 0.03831809 -0.11393422 0.05997951
0000c0 64 f1 08 3c 92 0f dd bd 2a eb 88 bd 0a 5a 12 bc
       0.008358333 -0.107939854 -0.06685479 -0.0089326
0000d0 48 69 b2 3d 56 13 06 be fb 9a 12 bc ab 26 75 bc
       0.08711487 -0.13093314 -0.008948083 -0.014962832
0000e0 53 27 1c 3e 09 9c 94 3d 74 0c 0c 3d 57 b0 19 3b
       0.15249376 0.07256324 0.034191564 0.0023451054
0000f0 c8 88 df 3d 81 46 bd bd d1 8e fb 3c a4 5c 6e 3c
       0.10914761 -0.09241963 0.030707749 0.014548454
000100 c2 62 64 bd d1 68 b9 3d 7d 70 85 bd c1 1a 03 3e
       -0.055758245 0.09053195 -0.06515596 0.12803175
000110 7d 77 7a ba f3 1b 86 bd cc 8a 18 3e ca 95 7f bd
       -0.00095545483 -0.065483 0.14896697 -0.06239871
000120 db 93 55 3d 3a 51 47 bc ca 7a 20 3e 2f 92 63 3d
       0.05214296 -0.012165362 0.1567184 0.055559333
000130 76 92 a8 bc c2 ab f6 bc 13 b6 a5 bd fe 8b 00 be
       -0.02057765 -0.030111197 -0.080913685 -0.12553403
000140 4e 21 67 bd ef fb 14 3d 07 2b fa 3d 45 af 16 3c
       -0.056428246 0.036373075 0.12215238 0.009197061
000150 d0 09 52 bd ba cd 7a 3c 9d 57 9b bd 40 73 6e 3e
       -0.05127889 0.015307838 -0.0758507 0.23286152
000160 d1 e0 61 3c e1 70 1d bc e2 dc e6 3d b2 fc b8 3c
       0.013786511 -0.009609432 0.11272599 0.022581432
000170 c1 24 33 bb 36 9d 3a 3d b7 4c 67 3d ef 63 03 3e
       -0.002733514 0.045560084 0.056469645 0.1283109
000180 63 3b c2 bc ba 71 3f be 4d 5c ab 3d ed 44 bc 3d
       -0.023709958 -0.18695727 0.08367214 0.09192834
000190 b0 b0 12 3d 02 58 72 bd 8f e0 0f be 52 9b 86 3d
       0.035813034 -0.059165962 -0.14050506 0.06572594
0001a0 ec bb bf bd 72 13 53 3d a0 1f 30 be 38 44 d1 bc
       -0.09362015 0.051532216 -0.17199564 -0.025545225
0001b0 fa 8f 67 3d 12 84 fb bd 83 a7 6f bc b9 88 1b 3d
       0.05653379 -0.1228105 -0.01462734 0.037972186
0001c0 37 d6 76 3d f7 14 35 3c 1b 3d 08 3e a3 1d 03 3c
       0.060262885 0.011052362 0.1330456 0.008002671
0001d0 ce 2e 27 bd 08 53 8d bc fa b0 d4 3c 64 2a de bd
       -0.04081612 -0.017251506 0.025963295 -0.10847929
0001e0 1b e0 ac 3d 89 0f 1f bd 66 3d 40 bd ae a4 01 3d
       0.08441182 -0.038833175 -0.046933554 0.03165119
0001f0 2f 69 3c bd 8f c0 d1 3d 4a df dd bc e6 ce f4 3c
       -0.04599875 0.10241806 -0.027084012 0.029883813
000200 33 4b c8 3d 90 ad b1 bd 9c 36 c6 bd 20 20 78 bd
       0.09779968 -0.086756825 -0.09678385 -0.06057751
000210 b7 db 16 bd c3 a3 16 be 07 c5 1d be 54 01 a7 3c
       -0.03683063 -0.14710908 -0.15407191 0.020386375
000220 ab 2b 97 bd 6b 4a 2e 3d de c0 ba bc f0 80 ef bd
       -0.07381376 0.04255144 -0.022797044 -0.11694515
000230 3a a6 6d 3d 63 40 de 3b 25 b1 69 bd fb 78 1b 3d
       0.058019854 0.006782578 -0.057053704 0.037957173
000240 4f 15 fa bc d8 78 2b bd 95 69 1e 3c 85 a5 d4 3d
       -0.030527739 -0.041863292 0.009668727 0.10383133
000250 84 4c a9 bc 67 7f 15 bd be fd 2d 3b f0 cd 87 3d
       -0.020666368 -0.036498453 0.0026548947 0.06631076
000260 02 dc 7b bd cd 75 58 3d 0e a1 4d bb 03 ff 34 bd
       -0.061489113 0.05284672 -0.0031376514 -0.04418851
000270 2a 02 30 3d 8e ae a4 bd 05 e2 5d 3b 58 29 29 bc
       0.042970814 -0.08041106 0.0033856642 -0.0103247985
000280 ef d2 2c 3c 9f 6c ed bd 39 e8 ae bc 57 4b ac bd
       0.010548337 -0.115929835 -0.021350967 -0.084128074
000290 35 59 b4 3c 59 8d 5e bd d8 a3 65 bc 2c 2c 03 bd
       0.022015193 -0.05433402 -0.014016114 -0.032024547
0002a0 b1 61 88 3d 2c ed a2 bd 32 62 ed bc 01 1c d3 bc
       0.06659258 -0.07955393 -0.028977487 -0.02577019
0002b0 69 97 6e bc 2e 7f 4f 3e 35 74 86 bc 1c d8 b7 3d
       -0.014562466 0.20263359 -0.016412834 0.089767665
0002c0 4c 4c 6c bd d9 26 b4 bc 17 17 93 bd 40 41 2d bd
       -0.05768995 -0.02199118 -0.071821384 -0.042298555
0002d0 46 6c a7 3d 33 5b d3 3c 55 ee 65 3d c9 21 91 3a
       0.081749484 0.025800323 0.056135494 0.0011072691
0002e0 2f 96 29 be 17 83 e5 bd a0 d8 1b bc 22 1e 86 3c
       -0.16561197 -0.11206644 -0.009512097 0.01637179
0002f0 5e 54 0a 3d 2a 56 93 bb 54 a5 df bd 4b c1 5a bd
       0.033771865 -0.0044963555 -0.10920206 -0.053406995
000300 4e f1 73 bd 14 91 ba bb 28 73 6d bd 3c 13 70 bd
       -0.059556298 -0.005693564 -0.05797115 -0.058612093
000310 00 99 a8 3c 4b 46 8d 37 1e bd 8c bc 14 57 99 3c
       0.020580769 1.6841243e-05 -0.017180022 0.01871828
000320 4a a3 41 3d ce d8 31 bc 71 a1 d6 bc 65 88 93 bd
       0.047274865 -0.010854913 -0.026200028 -0.072037496
000330 61 17 a3 bd f2 85 01 3e 21 46 32 bd eb 5d e3 3c
       -0.079634435 0.12648752 -0.04352391 0.027754745
000340 60 22 33 bd ff 5f 21 bd d9 81 ea 3c 72 1d 9a 3c
       -0.043733954 -0.03939819 0.02862637 0.018812869
000350 71 38 c5 bd 5f de 52 bd c0 3a cc 3d 57 fe 0b 3d
       -0.09629906 -0.0514816 0.09972143 0.034178104
000360 09 5c 11 bd d5 e1 43 3d e0 86 aa 3d 74 a7 c9 3d
       -0.035488162 0.047822792 0.083265066 0.09846392
000370 b3 6e 8e bd 67 18 14 3d 4c c4 fa bc b7 aa 92 3c
       -0.06954708 0.036156084 -0.03061118 0.017903669
000380 cb 91 c0 bd 47 93 e4 3c ec b5 10 bc 7e ba 8d 3d
       -0.09402808 0.027902259 -0.008832436 0.06920336
000390 bd 15 67 3d 36 5a 0b 3e 43 80 0b bd 1f 95 a1 bb
       0.056417216 0.13608631 -0.034057867 -0.0049311067
0003a0 de 61 c5 3c 7d d5 16 bc 19 f3 b4 3d d7 86 ff 39
       0.024094518 -0.009206173 0.0883543 0.00048737854
0003b0 f2 80 9e bd 62 63 ee 3d 4b ca 06 3c a8 aa 42 bd
       -0.07739438 0.116400495 0.008226941 -0.04752603
0003c0 66 30 25 3d 75 d7 42 3d d5 02 92 bc 2a 0e 9a 3c
       0.04032936 0.047568757 -0.017823616 0.018805582
0003d0 51 18 42 bc 00 b0 9b 3d 5f 65 87 bd a0 fe ba bd
       -0.011846618 0.07601929 -0.06611132 -0.09130597
0003e0 6d e1 d2 3b b1 10 4b bd 8e b7 f6 3d 01 62 c8 bc
       0.0064355643 -0.049576465 0.12046729 -0.024460794
0003f0 95 72 32 3d a6 1e b4 3d 25 9b af 3d 69 25 f5 bc
       0.043566305 0.08794908 0.08574513 -0.029925065
