results/test5/CharacterBehav/CharacterBehav-899984.onnx (onnx, 700066 bytes, 12 tensors)

109 f4 [1, 512, 128]
0.05079441 -0.03295578 0.13721728 0.14430664 -0.10071979 -0.034555312 0.023080872 -0.12980258
-0.12202488 -0.016763134 0.07379986 -0.012955897 -0.056916006 0.16363838 -0.043771077 0.0036871438
0.12571193 -0.13802184 -0.08061862 -0.062305707 -0.026112577 0.15246312 0.18076481 0.13555963
-0.14104797 0.106935486 -0.011052672 0.11733851 -0.059749443 -0.05980808 0.14213035 0.18111189
0.10571407 -0.029819801 -0.12997967 -0.025966816 0.08031132 -0.07033456 0.116020694 0.07768919
-0.033598594 -0.13806388 0.13707201 -0.07779792 -0.086123504 0.028498592 -0.023188567 0.0293876
0.025328178 -0.020170534 0.056875408 0.08310883 0.00016025998 -0.13247904 -0.116216265 -0.1311148
0.04028015 -0.234326 0.0013602468 -0.068182975 -0.23538837 0.025145093 0.028803386 0.02070811
0.0044970755 -0.040958166 -0.15876898 0.1012656 0.16638207 -0.15359373 -0.10741407 -0.007170004
0.12985443 0.061232142 0.018759154 -0.05341515 -0.046837438 0.14131579 0.1029749 0.13204928
0.14219248 0.12640518 0.13754177 -0.056425266 0.071498655 -0.05329305 0.14621122 -0.117072344
-0.11313369 -0.045265313 -0.012164225 -0.062291257 -0.072223 0.095390424 -0.08002492 -0.12152165
-0.09042753 -0.037655998 0.035230126 0.07192832 -0.07107356 -0.0038327035 0.030416852 0.096029714
-0.0781372 -0.107368864 0.13603835 -0.017861892 -0.047309723 -0.115725435 0.0021918872 0.09647852
-0.08286351 -0.12610453 -0.0038713643 -0.13379648 0.168464 0.016060283 0.103156894 -0.05755922
-0.13219891 0.14201002 -0.01556848 -0.11567572 -0.04717168 0.008559679 -0.1873169 -0.10827305
-0.055918775 0.14522967 -0.12645152 0.16569853 0.121616244 0.06513687 -0.0127656 -0.060003616
0.020743787 -0.14818786 -0.037081763 0.08027003 0.010199317 -0.10552887 -0.038628772 -0.014513666
-0.0065317885 0.02335244 0.123487085 0.12447591 -0.06496183 -0.1080918 -0.12882899 0.0146659035
-0.025752796 -0.12326668 -0.04369758 -0.08204289 -0.085172586 -0.06464159 0.12368014 0.07304925
0.039538573 0.1075086 0.14890471 -0.052483078 0.09051491 -0.0059330896 -0.079544224 -0.0852659
0.030043932 0.0025525722 0.086569265 0.16129436 0.1348352 0.058655117 0.09231107 0.0015423734
-0.123305425 -0.025070619 0.0324347 -0.008845122 0.12803112 0.004318129 -0.16400784 -0.016012022
-0.10024164 -0.06328916 0.031556163 0.12382427 0.19880456 0.092020325 -0.080011904 0.03128315
-0.15305047 0.1487887 -0.026522169 0.016320547 -0.088473506 0.047747016 -0.08492788 -0.079815276
-0.01216493 0.00013849986 0.015999645 -0.17130043 -0.111128874 -0.1610168 -0.084569275 -0.056671597
0.101333395 0.051304426 -0.13853532 0.09157944 -0.08230404 0.08080667 -0.03779403 -0.13247804
-0.13599078 0.10807917 -0.14018656 -0.017195793 0.07137573 0.050934717 0.0348773 -0.094298705
-0.12992962 0.01091202 -0.07048005 0.09954399 0.054413617 -0.007967084 0.08083984 -0.1227426
0.10402984 0.08483098 0.028826378 0.021758683 0.113254905 0.12443276 0.10844041 0.15020336
-0.089728065 0.02941845 0.12046796 0.058218595 0.12991624 -0.01373443 0.16351976 0.020758836
0.1664204 -0.00012340733 -0.11096644 0.12661074 -0.031567622 0.05621579 -0.024804756 -0.0054115513
00000000: cd0d 503d a4fc 06bd b082 0c3e 1fc5 133e
00000010: 2d46 cebd df89 0dbd 1914 bd3c f8ea 04be
00000020: 2ee8 f9bd d752 89bc 6224 973d f844 54bc
00000030: c220 69bd d290 273e 4d49 33bd 02a4 713b
00000040: a1ba 003e 9955 0dbe 601b a5bd 4534 7fbd
00000050: 0bea d5bc 4b1f 1c3e 691a 393e 25d0 0a3e
00000060: e16e 10be fe00 db3d 4416 35bc 2c4f f03d
00000070: d5bb 74bd 51f9 74bd 9e8a 113e 6575 393e
00000080: 9e80 d83d a848 f4bc 6419 05be 5cb8 d4bc
00000090: 437a a43d 910b 90bd 429c ed3d 831b 9f3d
000000a0: ae9e 09bd 9e60 0dbe 9b5c 0c3e 8454 9fbd
000000b0: 8561 b0bd e175 e93c f3f5 bdbc 44be f03c
000000c0: 0a7d cf3c ad3c a5bc 30f6 683d f634 aa3d
000000d0: 760b 2839 96a8 07be cb02 eebd f542 06be
000000e0: ccfc 243d 28f3 6fbe 4f4a b23a 84a3 8bbd
000000f0: a609 71be 15fd cd3c 14f5 eb3c 0ea4 a93c
00000100: 345c 933b c0c3 27bd 5694 22be 5764 cf3d
00000110: 1060 2a3e ad47 1dbe e8fb dbbd 5af2 eabb
00000120: 8ff8 043e 8ece 7a3d ccac 993c d8c9 5abd
00000130: 9dd8 3fbd 16b5 103e 81e4 d23d ed37 073e
00000140: e89a 113e 5c70 013e c0d7 0c3e 2e1e 67bd
00000150: e36d 923d d049 5abd 65b8 153e a0c3 efbd
00000160: a3b2 e7bd 1f68 39bd 754c 47bc 1e25 7fbd
00000170: a7e9 93bd 0e5c c33d 1be4 a3bd 58e0 f8bd
00000180: 1232 b9bd 2d3d 1abd 774d 103d 284f 933d
00000190: 048f 91bd 182e 7bbb c32c f93c 3aab c43d
000001a0: 6506 a0bd 35e4 dbbd a34d 0b3e 1a53 92bc
000001b0: d7c7 41bd 7501 edbd c4a5 0f3b 8896 c53d
000001c0: 58b4 a9bd 8c21 01be b7b6 7dbb f201 09be
000001d0: d481 2c3e db90 833c ec43 d33d 37c3 6bbd
000001e0: 275f 07be 136b 113e f012 7fbc 64e7 ecbd
000001f0: 1737 41bd e53d 0c3c 00d0 3fbe 43be ddbd
00000200: 160b 65bd 16b7 143e 827c 01be e0ac 293e
00000210: f011 f93d 7b66 853d cf26 51bc 5ac6 75bd
00000220: e0ee a93c 8fbe 17be 0ce3 17bd 9d64 a43d
00000230: 091b 273c 851f d8bd 3439 1ebd baca 6dbc
00000240: 9d08 d6bb 9e4d bf3c cce6 fc3d 3aed fe3d
00000250: b50a 85bd 3c5f ddbd bfeb 03be 4249 703c
00000260: 87f7 d2bc 3e73 fcbd 3cfc 32bd 1a06 a8bd
00000270: f76e aebd cf62 84bd 034c fd3d d89a 953d
00000280: 33f3 213d 782d dc3d 7a7a 183e 7ff8 56bd
00000290: e25f b93d 5d6a c2bb 15e8 a2bd e39f aebd
000002a0: b11e f63c 0e49 273b 3a4b b13d 592a 253e
000002b0: 3d12 0a3e 5940 703d 960d bd3d 7729 ca3a
000002c0: 8e87 fcbd e660 cdbc 3fda 043d 21eb 10bc
000002d0: 971a 033e 177f 8d3b acf1 27be a52b 83bc
000002e0: 7d4b cdbd bf9d 81bd 0941 013d 9497 fd3d
000002f0: 6c93 4b3e 2775 bc3d 48dd a3bd c322 003d
00000300: 43b9 1cbe 115c 183e 0545 d9bc abb2 853c
00000310: 9931 b5bd 6092 433d abee adbd 3176 a3bd
00000320: 6a4f 47bc 463a 1139 b011 833c 6169 2fbe
00000330: 8997 e3bd 97e1 24be a832 adbd 7a20 68bd
00000340: e287 cf3d 9724 523d 34dc 0dbe 008e bb3d
00000350: 058f a8bd f87d a53d eacd 1abd 53a8 07be
00000360: 2b41 0bbe 9d58 dd3d 118d 0fbe 31de 8cbc
00000370: 702d 923d eca0 503d 80db 0e3d ae1f c1bd
00000380: 450c 05be 54c8 323c d857 90bd b8dd cb3d
00000390: d0e0 5e3d 5f88 02bc 5c8f a53d 7960 fbbd
000003a0: 990d d53d ddbb ad3d 4c25 ec3c 443f b23c
000003b0: 30f2 e73d 9ad6 fe3d 0116 de3d e9ce 193e
000003c0: 59c3 b7bd f6fe f03c e8b7 f63d 9f76 6e3d
000003d0: c308 053e 6006 61bc b971 273e 6f0e aa3c
000003e0: 1c6a 2a3e e766 01b9 5f42 e3bd 3fa6 013e
000003f0: 0d4d 01bd 8742 663d 5833 cbbc 6253 b1bb

110 f4 [1, 512, 128]
0.09409589 0.07274801 0.13232963 0.07604651 -0.08725871 -0.027624978 -0.11065972 -0.029934296
0.019165132 0.008488966 0.07680181 0.048285842 -0.08602512 -0.011392297 -0.058923118 0.115334235
-0.15375495 0.02148736 0.060078707 0.07287527 0.10139636 -0.06938603 -0.14010288 0.14953995
0.13992941 -0.14178914 0.011457962 0.13490734 0.002350651 -0.012238073 0.07440431 -0.111099444
0.05257571 -0.0030616596 -0.0015323826 0.122424334 0.09745604 0.12939124 0.16173716 0.17474364
0.20758814 0.012004168 0.124801055 0.044772394 0.036475714 -0.1803481 0.04640206 -0.09196432
0.06916202 0.058392834 0.04149817 0.1209928 -0.115202904 0.055316303 0.08846667 -0.087562464
-0.12671797 0.08363846 0.029042294 0.054852158 -0.012460248 -0.06604317 0.003656813 0.08007637
-0.042386554 0.01959452 0.00069525203 0.093026266 0.08950528 0.09914587 0.085355714 0.047990624
-0.0037669083 0.09885786 -0.16936779 0.10727466 0.016856154 0.0063328478 0.07191202 0.014852331
-0.054006767 -0.055418737 0.034352094 -0.013000478 -0.021975603 -0.08690172 -0.088291265 -0.034031224
-0.0587751 0.04286938 -0.19721232 -0.090539254 -0.13496245 -0.04402086 -0.13465396 0.04400649
0.039948285 0.09335525 0.0006944957 -0.07196344 -0.08163882 0.12825325 0.027130658 -0.038445722
-0.19417666 -0.107385136 0.14619112 -0.065445915 -0.10353237 0.04202304 0.08474426 -0.0012282609
0.11412727 -0.008037694 -0.014316123 -0.064666666 -0.089281246 0.1254581 0.079227164 0.09472249
-0.13293506 0.06465683 -0.15722254 0.014991969 0.0731861 0.17021398 -0.011841645 -0.16667138
-0.10325283 -0.050112486 0.12817325 -0.13186416 0.085489765 0.08340648 0.04565707 0.09052033
-0.04956216 -0.06918363 0.12218219 -0.033647034 -0.038583834 -0.031689826 -0.02800802 0.027810445
-0.0054837526 -0.15501866 -0.065494955 0.14862984 -0.14058739 0.03344687 -0.15321422 -0.1378931
0.077251285 0.031903442 0.0048142346 0.13037413 -0.14653648 0.07987298 -0.035938736 0.041092824
0.06995175 0.019939138 -0.06251765 0.04481282 0.09382837 -0.05188855 -0.16317603 0.1240669
-0.17791258 0.024869248 -0.1257809 -0.14715408 0.018573927 -0.07325439 -0.0062742746 0.115617216
0.14964588 0.1324361 0.10531479 0.027793203 0.14207414 -0.015806172 0.1289152 0.045455843
-0.0012992794 -0.024094118 0.034737006 0.13492185 -0.025255045 -0.11925408 -0.0942344 0.15299086
-0.03355466 0.053640973 0.07463085 0.07242413 0.116862446 0.16406514 0.07032107 0.07104539
-0.04884332 -0.046595268 -0.010060588 -0.13637345 -0.008555576 -0.1174521 -0.076468326 -0.12775165
0.027917651 0.0067114993 0.110469215 -0.040853478 0.044483196 0.076962486 0.13460541 0.09485854
0.08123196 0.15433943 0.11617621 0.09168021 -0.03533277 -0.12445516 -0.11741522 -0.08272454
0.08067501 -0.039515983 0.14009039 -0.15487799 0.046692617 0.03782352 0.13730398 0.07398325
0.12308003 -0.025073808 -0.11869943 -0.036521163 -0.024935987 0.051401876 -0.10545222 0.14509267
0.019695692 0.15481092 0.13598785 0.09357097 0.0062014298 -0.0854476 -0.15645154 0.12053344
0.025631823 -0.10532822 0.073378846 -0.103410035 0.06469474 0.04145309 -0.105587065 0.11016428
00000000: 59b5 c03d e9fc 943d 6b81 073e 46be 9b3d
00000010: b2b4 b2bd c74d e2bc 90a1 e2bd c538 f5bc
00000020: 3200 9d3c 4e15 0b3c 444a 9d3d 60c7 453d
00000030: f02d b0bd c2a6 3abc 5e59 71bd 5b34 ec3d
00000040: f071 1dbe 4306 b03c 1715 763d a13f 953d
00000050: e5a8 cf3d 431a 8ebd 2177 0fbe 0021 193e
00000060: a849 0f3e 2c31 11be 2dba 3b3c 2625 0a3e
00000070: 610d 1a3b 3382 48bc 4961 983d 1b88 e3bd
00000080: a159 573d 20a6 48bb 3ada c8ba 9cb9 fa3d
00000090: 0897 c73d 237f 043e 6d9e 253e ffef 323e
000000a0: fc91 543e 21ad 443c b297 ff3d 4263 373d
000000b0: 8f67 153d 2cad 38be 1610 3e3d ca57 bcbd
000000c0: d1a4 8d3d 532d 6f3d fcf9 293d 13cb f73d
000000d0: 80ef ebbd 5993 623d 032e b53d f353 b3bd
000000e0: 5bc2 01be a44a ab3d 1bea ed3c a8ac 603d
000000f0: 1126 4cbc a441 87bd 24a7 6f3b 14ff a33d
00000100: 869d 2dbd b084 a03c 9341 363a 8e84 be3d
00000110: 8b4e b73d fd0c cb3d face ae3d d191 443d
00000120: 3cde 76bb fd75 ca3d c06e 2dbe d1b2 db3d
00000130: eb15 8a3c c783 cf3b 9c46 933d 3157 733c
00000140: 3336 5dbd c2fe 62bd c8b4 0c3d f5ff 54bc
00000150: 2e06 b4bc 87f9 b1bd 0dd2 b4bd 5364 0bbd
00000160: 29be 70bd ce97 2f3d 07f2 49be a56c b9bd
00000170: 9933 0abe 384f 34bd bae2 09be 2640 343d
00000180: d0a0 233d 0a31 bf3d d10e 363a 9161 93bd
00000190: 4132 a7bd d254 033e 1d41 de3c 4379 1dbd
000001a0: 3fd6 46be bdec dbbd 20b3 153e 8208 86bd
000001b0: c708 d4bd 5a20 2c3d 668e ad3d 99fd a0ba
000001c0: 8fbb e93d 88b0 03bc 2c8e 6abc f56f 84bd
000001d0: 16d9 b6bd 1778 003e da41 a23d ddfd c13d
000001e0: 2120 08be cd6a 843d f2fe 20be e0a0 753c
000001f0: 98e2 953d 934c 2e3e 7603 42bc e7ab 2abe
00000200: 3876 d3bd c042 4dbd d93f 033e 6607 07be
00000210: 4215 af3d 04d1 aa3d e802 3b3d b962 b93d
00000220: b101 4bbd 26b0 8dbd a83a fa3d 79d1 09bd
00000230: 150a 1ebd 31cd 01bd 1371 e5bc bbd2 e33c
00000240: 0db1 b3bb 36bd 1ebe 3822 86bd 6c32 183e
00000250: 24f6 0fbe 96ff 083d 30e4 1cbe d933 0dbe
00000260: ec35 9e3d 2fad 023d bac0 9d3b cc80 053e
00000270: a90d 16be 7294 a33d 7f34 13bd f350 283d
00000280: dd42 8f3d 6757 a33c 4109 80bd a68d 373d
00000290: 1729 c03d 1789 54bd 9e17 27be c916 fe3d
000002a0: b72e 36be 98ba cb3c b5cc 00be 8faf 16be
000002b0: 5928 983c 6606 96bd 6e98 cdbb b8c8 ec3d
000002c0: c53c 193e 549d 073e 48af d73d 92ae e33c
000002d0: e27b 113e f27b 81bc 5902 043e e82f 3a3d
000002e0: 954c aaba 0761 c5bc 6448 0e3d f428 0a3e
000002f0: abe3 cebc 7c3b f4bd f7fd c0bd a3a9 1c3e
00000300: 9c70 09bd a3b6 5b3d 0fd8 983d 1a53 943d
00000310: 9455 ef3d b100 283e 7e04 903d 3f80 913d
00000320: ef0f 48bd aeda 3ebd 2ad5 24bc 7ba5 0bbe
00000330: b02c 0cbc ba8a f0bd 6d9b 9cbd 54d1 02be
00000340: 8fb3 e43c 23ec db3b af3d e23d fa55 27bd
00000350: 0334 363d 829e 9d3d 00d6 093e 3245 c23d
00000360: f15c a63d 280b 1e3e cbed ed3d d5c2 bb3d
00000370: 18b9 10bd 59e2 febd 6477 f0bd 7c6b a9bd
00000380: f138 a53d 83db 21bd db73 0f3e 5698 1ebe
00000390: c240 3f3d d6ec 1a3d 6a99 0c3e 8884 973d
000003a0: 6211 fc3d 9667 cdbc b018 f3bd 3797 15bd
000003b0: 8e46 ccbc c68a 523d 55f7 d7bd 2c93 143e
000003c0: dc58 a13c c186 1e3e 6640 0b3e 23a2 bf3d
000003d0: 5d35 cb3b 27ff aebd d534 20be 3cda f63d
000003e0: d4f9 d13c 52b6 d7bd a647 963d a4c8 d3bd
000003f0: ad7e 843d b7ca 293d 083e d8bd cf9d e13d

111 f4 [1, 1024]
-0.0045850044 0.0066673034 0.020079538 -0.0058147605 0.0022710117 -0.0052016745 -0.013474434 0.0045139664
0.0012053021 -0.0003995461 0.011415386 0.011583388 0.020738212 -0.0060081957 -0.027763965 0.015329843
0.0018920098 -0.006906509 0.017927662 0.002371473 0.0029711258 0.008616066 -0.011187912 0.00806082
-0.005482602 0.0041729202 -0.016875757 0.001631659 -0.0051546106 -0.0094869565 -0.01325395 0.019447224
0.024694959 0.014914921 0.0033467284 0.023063267 0.034203596 0.018562408 -0.03179524 -0.0001963632
-0.023863148 -0.014036733 0.017685307 0.013528161 0.0058099576 0.0049420646 0.017201336 0.013995529
-0.009279755 0.019830976 0.004911373 0.011377907 0.015472619 0.017532693 -0.003223044 -0.023940114
0.00983738 -0.012620418 0.012224633 -0.00044715754 -0.027010059 5.2274452e-05 -0.0069927056 0.01625752
-0.0062218695 0.0014574334 -0.0049224203 0.00655812 -0.029970119 0.0064837406 0.015156521 -0.0018092553
0.0061201616 -0.00044713437 -0.01932462 -0.0031163685 0.016290726 0.0019543758 0.023968166 -0.013433906
-0.013088748 -0.01118833 0.0014098677 0.0153826615 0.0068812487 -0.0223818 -0.006294332 -0.036503684
0.0067611956 0.010908419 0.0012503301 -0.022516336 -0.012132141 0.0022850672 -0.003925203 0.004710617
-0.0016512377 0.005279765 0.0054187323 -0.0023221844 -0.0001899376 -0.02176754 -0.0077474257 0.015073242
0.0055206753 0.019904858 0.0031256753 -0.016175272 -0.027653905 -0.020607075 -0.0007473969 -0.0034272263
-0.005087829 0.014688436 -0.03929601 0.004415701 -0.023531035 3.4056e-05 0.0053763217 0.004297747
0.005378483 -0.00043811894 0.008177356 0.0028306965 0.004036574 0.009773753 0.0091830455 0.010142299
0.02179665 0.0052998737 0.016274694 -0.00046202895 0.017525816 -0.00997142 -0.009122095 0.005968647
0.018197149 -0.0024512704 -0.018484099 0.004826866 0.003015801 0.02012097 -0.005035264 0.012287225
-0.023178337 -0.005022386 0.0033357844 0.00985865 0.002671607 -0.0075822887 0.0076331124 0.023704346
-0.0007507739 0.00084527984 -0.005233881 -0.0037780332 -0.00656521 -0.0071642804 -0.0027411089 0.014581416
0.021325475 0.01853017 -0.013392426 0.014561759 0.03127055 0.011505681 0.014270256 0.0053954297
-0.0031223176 -0.010243261 0.01652992 -0.00011346106 -0.009994991 0.0025930714 -0.006420444 0.004279193
0.013327644 0.021444509 -0.0031894546 0.017334355 0.0052789142 0.028590208 0.00054343883 -0.0016789548
-0.0034691768 0.0054927887 0.015825238 -0.0037361009 0.012232785 -0.0025313343 -0.0064827763 -0.00039295355
-0.017091583 0.00071632286 0.0030351665 -0.0009610114 0.006958138 -0.0019806072 -0.0033144536 0.019312436
-0.006609078 -0.012038659 0.026542136 -0.017953264 0.022220917 0.0028496278 -0.011877152 0.00798909
0.019166455 0.00850071 0.009570125 0.008877913 0.010726537 0.010926294 0.005896788 0.0021463684
0.008527372 0.008137523 0.023224982 -0.017195811 0.0040615136 0.011222823 0.009853754 -0.0123451445
-0.0018221505 -0.011652638 0.020315506 0.0083889095 0.0061452035 -0.0231528 -0.009986844 -0.014512985
-0.011536471 0.006626591 -0.0041809105 -0.011137676 0.015241942 -0.009546052 -0.015208293 -0.023533737
0.009275843 0.014697245 0.004405198 -0.0043871836 -0.00051358837 -0.002575116 -0.012526733 0.019155437
-0.009655264 0.008628732 0.006910187 0.017185181 0.004482805 0.03385694 -0.01648805 0.012984962
00000000: ce3d 96bb 6579 da3b d87d a43c bf89 bebb
00000010: 41d5 143b cf72 aabb dfc3 5cbc e5e9 933b
00000020: 3afb 9d3a 2b7a d1b9 9907 3b3c 40c8 3d3c
00000030: 2fe3 a93c 66e0 c4bb 4171 e3bc 062a 7b3c
00000040: 50fd f73a ff4f e2bb 08dd 923c b76a 1b3b
00000050: 38b7 423b 662a 0d3c 814d 37bc 8811 043c
00000060: 66a7 b3bb febc 883b 073f 8abc 64dd d53a
00000070: 02e8 a8bb 2e6f 1bbc 1827 59bc c94f 9f3c
00000080: 154d ca3c b65d 743c c954 5b3b 2def bc3c
00000090: 1219 0c3d 3110 983c ba3b 02bd d8e6 4db9
000000a0: a67c c3bc 53fa 65bc c7e0 903c 38a5 5d3c
000000b0: 7561 be3b 0bf1 a13b d1e9 8c3c 814d 653c
000000c0: 1d0a 18bc 9274 a23c 95ef a03b 676a 3a3c
000000d0: de80 7d3c b9a0 8f3c b539 53bb 0f1e c4bc
000000e0: f62c 213c dfc5 4ebc d449 483c 7870 eab9
000000f0: 3344 ddbc 4441 5b38 1123 e5bb 7e2e 853c
00000100: d3e0 cbbb 5a07 bf3a 414c a1bb 7fe5 d63b
00000110: e583 f5bc 8f75 d43b 0f53 783c 8924 edba
00000120: a38b c83b 5c6d eab9 aa4e 9ebc fd3b 4cbb
00000130: 2174 853c fc14 003b e358 c43c e319 5cbc
00000140: 3072 56bc 424f 37bc 4fcb b83a 8f07 7c3c
00000150: 197c e13b 095a b7bc af40 cebb e384 15bd
00000160: 058d dd3b 3ab9 323c 1ee2 a33a 2e74 b8bc
00000170: e3c5 46bc 11c1 153b fd9e 80bb 855b 9a3b
00000180: 586e d8ba e101 ad3b 9f8f b13b ca2f 18bb
00000190: fc29 47b9 d751 b2bc 1ede fdbb c2f5 763c
000001a0: c8e6 b43b 830f a33c 21d8 4c3b 0182 84bc
000001b0: 718a e2bc 2bd0 a8bc f5ec 43ba 519b 60bb
000001c0: ceb7 a6bb c4a7 703c daf4 20bd 96b1 903b
000001d0: 28c4 c0bc 5ad7 0e38 db2b b03b 1dd4 8c3b
000001e0: fc3d b03b 54b3 e5b9 51fa 053c 3583 393b
000001f0: 3d45 843b 1722 203c 7c74 163c e32b 263c
00000200: e38e b23c 90aa ad3b 8252 853c 7a3c f2b9
00000210: 4d92 8f3c 2b5f 23bc d774 15bc a494 c33b
00000220: 3012 953c 7ea5 20bb f76b 97bc b02a 9e3b
00000230: bfa4 453b bcd4 a43c dbfe a4bb 5b50 493c
00000240: 7fe0 bdbc d492 a4bb 2d9d 5a3b 2d86 213c
00000250: 2116 2f3b d974 f8bb 301f fa3b 9e2f c23c
00000260: 95cf 44ba c595 5d3a fa80 abbb e198 77bb
00000270: f920 d7bb 57c2 eabb 2da4 33bb e4e6 6e3c
00000280: c3b2 ae3c 95cc 973c e86b 5bbc 7294 6e3c
00000290: 8c15 003d 5382 3c3c cbcd 693c 25cc b03b
000002a0: cc9f 4cbb 5ad3 27bc c169 873c f1f1 edb8
000002b0: 08c2 23bc 85f0 293b 9762 d2bb 7938 8c3b
000002c0: 315c 5a3c 65ac af3c 2b06 51bb c700 8e3c
000002d0: befa ac3b 0336 ea3c 9075 0e3a 6010 dcba
000002e0: 215b 63bb dafc b33b eea3 813c 5fd9 74bb
000002f0: 056c 483c bee4 25bb 786d d4bb 5505 ceb9
00000300: a603 8cbc 9dc7 3b3a a5e9 463b 62ec 7bba
00000310: 1801 e43b 13cd 01bb 4e37 59bb 1d35 9e3c
00000320: f790 d8bb cc3d 45bc e56e d93c b912 93bc
00000330: a408 b63c d2c0 3a3b 6398 42bc ace4 023c
00000340: f802 9d3c 9046 0b3c 03cc 1c3c aa74 113c
00000350: 5bbe 2f3c 3304 333c d839 c13b 16aa 0c3b
00000360: 64b6 0b3c 3f53 053c 5142 be3c 3bde 8cbc
00000370: 7216 853b eedf 373c a471 213c 4a43 4abc
00000380: 3ad5 eeba b5ea 3ebc b46c a63c a371 093c
00000390: b45d c93b f1aa bdbc dc9f 23bc dfc7 6dbc
000003a0: 7703 3dbc e023 d93b 0500 89bb cd7a 36bc
000003b0: 57b9 793c 0b67 1cbc 342c 79bc d3c9 c0bc
000003c0: b5f9 173c b7cc 703c 7b59 903b 5dc2 8fbb
000003d0: 55a2 06ba 47c3 28bb ed3c 4dbc ddeb 9c3c
000003e0: 1d31 1ebc 865f 0d3c da6e e23b f0c7 8c3c
000003f0: 7ee4 923b 93ad 0a3d f211 87bc e1be 543c

action_model._discrete_distribution.branches.0.bias f4 [3]
0.0060493015 0.009721891 -0.015331985
00000000: 3839 c63b 9148 1f3c 0233 7bbc

action_model._discrete_distribution.branches.0.weight f4 [3, 128]
-0.017271442 -0.013392941 -0.028859053 0.036832653 0.007035067 0.020833967 0.008017232 0.027603835
0.022560524 -0.012473622 0.008554406 0.010868023 0.029717274 -0.03023696 0.0009624869 0.008694526
-0.006163354 -0.008066958 0.012321994 -0.011636272 -0.001505666 0.00907829 0.012955018 -0.008716457
0.0038515406 -0.00038940983 0.0011679721 0.0140304435 0.001373528 0.015042828 0.012105407 0.010257868
-0.016431522 0.009995903 -0.0028380663 -0.01146121 -0.00909671 0.005943985 -0.015187363 -0.023568496
-0.018992724 0.020162731 0.028498512 -0.0012857789 -0.021331936 0.0039879563 -0.0065402235 -0.010858852
0.0032258865 0.017398372 0.011060266 0.009985453 0.014425052 -0.08105632 0.004286813 0.009295246
0.013407508 0.019012127 -0.024332797 -0.0091655245 -0.017346552 -0.014717309 -0.0014368652 -0.0026402662
0.003433578 0.0058286265 -0.013199436 0.022129426 0.0016886749 0.07042965 0.007250298 -0.01818101
0.010227874 -0.02434657 0.017496536 -0.0077292873 0.039136272 -0.00873837 0.007208426 -0.013858986
0.010361563 -0.005937606 0.0167765 -0.0061985264 -0.019651318 0.01624082 0.004101573 -0.0015045307
-0.03469401 -0.009638141 0.008332701 -0.012378635 -0.04451723 0.024582475 0.00729961 -0.0036584404
0.0155040175 -0.0032179058 -0.007199278 0.018273234 -0.025633894 0.00780853 0.0033021509 0.014391333
0.03379176 -0.028118873 -0.016268708 -0.020255782 0.013884596 -0.019907223 0.016531 0.0010486612
0.009528793 0.03323183 0.010585715 0.025605757 -0.0027677333 -0.00926284 -0.007492988 -0.008123586
-0.0010024558 -0.0027048492 -0.027158042 -0.011052488 0.028309831 -0.04028543 -0.03598575 0.019689675
-0.016169073 0.016029924 0.08150147 -0.039594304 -0.02667727 0.005877094 -0.013545004 -0.023776583
0.06803322 -0.013486681 -0.007875292 -0.0019713265 -0.044254936 0.01477562 -0.009342259 0.014308908
0.009948444 -0.0016156893 -0.011293237 0.049023572 -0.009710517 0.0022292857 -0.024497122 -0.004914971
0.0032959203 0.0044103805 -0.0030459045 -0.003952563 -0.010500956 -0.009826345 -0.012451012 0.021149063
-0.015926331 -0.058135927 0.0089014275 0.0037700546 0.030508464 -0.0057020052 0.07243988 0.016379923
0.04413901 -0.00316806 0.08705393 -0.048723202 0.028092377 0.0052356278 0.0008680773 0.050580844
-0.013570963 -0.041339643 0.023674536 0.011545152 0.004837213 0.110004134 -0.0014531774 0.0039926916
0.0037578526 0.014732634 0.028597511 -0.007813073 0.024402702 0.018547995 -0.03777957 -0.017334934
-0.013193953 0.039678223 -0.009268592 -0.07163985 0.030981204 -0.07765169 -0.0073205447 -0.015389363
-0.031518545 0.018997911 -0.015326905 -0.0014496827 -0.008861467 0.06588022 0.0098033985 0.0011022551
0.03665416 0.0053108498 -0.08128777 -5.3587206e-05 0.0350216 -0.013496335 -0.030020865 -0.019663129
0.012441137 0.07450397 -0.028322749 0.038808595 0.032876614 -0.059899993 -0.022758486 -0.039189655
0.0015139822 0.023310652 -0.025631089 -0.0046798475 -0.020097185 0.0035817877 -0.006027691 -0.06356839
-0.06376518 0.08518489 0.07015176 -0.00568476 -0.027207445 0.012784444 -0.0052017733 -0.0041321996
-0.011416848 -0.061112214 -0.0054853023 -0.049078893 -0.016052067 0.04738897 0.0021564544 -0.011599063
-0.00076126185 0.000383678 0.014585977 0.014905022 -0.079522595 0.030380024 0.08886005 -0.02582106
00000000: d77c 8dbc 116e 5bbc d269 ecbc d6dd 163d
00000010: 6b86 e63b ffab aa3c b55a 033c 7021 e23c
00000020: d9d0 b83c 2a5e 4cbc c827 0c3c cb0f 323c
00000030: a471 f33c 80b3 f7bc 674f 7c3a 7c73 0e3c
00000040: f6f5 c9bb 462b 04bc 30e2 493c 10a6 3ebc
00000050: c459 c5ba 1cbd 143c 4941 543c 78cf 0ebc
00000060: 216a 7c3b b429 ccb9 a416 993a f2df 653c
00000070: f407 b43a 3276 763c c255 463c 9e10 283c
00000080: 669b 86bc dbc5 233c dafe 39bb cdc7 3bbc
00000090: 5e0a 15bc c3c5 c23b 6bd4 78bc b812 c1bc
000000a0: a196 9bbc 502c a53c b675 e93c 9587 a8ba
000000b0: 50c0 aebc 67ad 823b 5f4f d6bb 54e9 31bc
000000c0: 6569 533b 0887 8e3c 1e36 353c 079a 233c
000000d0: 0e57 6c3c db00 a6bd 6578 8c3b 164b 183c
000000e0: 2aab 5b3c 52bf 9b3c 9355 c7bc ff2a 16bc
000000f0: 5b1a 8ebc de20 71bc 3255 bcba 5108 2dbb
00000100: e105 613b 10fe be3b 7242 58bc c548 b53c
00000110: 8756 dd3a 6c3d 903d e893 ed3b 57f0 94bc
00000120: d092 273c 7572 c7bc e554 8f3c f645 fdbb
00000130: 5b4d 203d 612b 0fbc a934 ec3b cd10 63bc
00000140: 8cc3 293c 4090 c2bb df6e 893c 021d cbbb
00000150: cdfb a0bc 780b 853c 7d66 863b ac33 c5ba
00000160: 4e1b 0ebd 4be9 1dbc e285 083c c2cf 4abc
00000170: b357 36bd 3061 c93c 9131 ef3b 72c2 6fbb
00000180: 9004 7e3c 80e3 52bb ece7 ebbb c0b1 953c
00000190: 2cfe d1bc b2de ff3b e668 583b a0c9 6b3c
000001a0: 3b69 0a3d 8d59 e6bc f445 85bc 74ef a5bc
000001b0: 377c 633c 7914 a3bc 056c 873c 3b73 893a
000001c0: a81e 1c3c 191e 083d b56f 2d3c 2ac3 d13c
000001d0: dc62 35bb 2bc3 17bc bd87 f5bb ca18 05bc
000001e0: d664 83ba d743 31bb 8b7a debc 7f15 35bc
000001f0: 05ea e73c 5602 25bd cb65 13bd 3e4c a13c
00000200: 0175 84bc 3051 833c 3eea a63d a32d 22bd
00000210: 4a8a dabc a394 c03b ddeb 5dbc 1cc7 c2bc
00000220: 0055 8b3d 3df7 5cbc 5e07 01bc 5f31 01bb
00000230: aa44 35bd 7115 723c 4610 19bc e96f 6a3c
00000240: ccfe 223c 89c5 d3ba 4507 39bc f1cc 483d
00000250: dc18 1fbc 3519 123b 30ae c8bc c40d a1bb
00000260: 5e00 583b f484 903b cc9d 47bb 8084 81bb
00000270: 340c 2cbc aefe 20bc 54ff 4bbc cd40 ad3c
00000280: f077 82bc f01f 6ebd 4bd7 113c 0513 773b
00000290: e3ec f93c e3d7 babb 5c5b 943d 302f 863c
000002a0: 1bcb 343d 3a9f 4fbb 5549 b23d fb91 47bd
000002b0: fc21 e63c a18f ab3b ae8f 633a dc2d 4f3d
000002c0: bf58 5ebc c253 29bd 1af1 c13c e127 3d3c
000002d0: 7c81 9e3b d949 e13d 8b78 beba 20d5 823b
000002e0: 4e46 763b 2561 713c 5445 ea3c 6702 00bc
000002f0: 2de8 c73c f7f1 973c c0be 1abd fe01 8ebc
00000300: 732b 58bc a285 223d 4bdb 17bc eab7 92bd
00000310: 4bcc fd3c d907 9fbd 2ee1 efbb ab23 7cbc
00000320: 9719 01bd 82a1 9b3c b31d 7bbc 4803 beba
00000330: b02f 11bc 35ec 863d 6f9e 203c 8b79 903a
00000340: ac22 163d a306 ae3b 347a a6bd d3c2 60b8
00000350: cf72 0f3d bb1f 5dbc 51ee f5bc 9214 a1bc
00000360: e9d5 4b3c 8a95 983d 1c05 e8bc c3f5 1e3d
00000370: a1a9 063d b259 75bd 0170 babc 5585 20bd
00000380: d070 c63a fbf5 be3c 4af8 d1bc 6859 99bb
00000390: daa2 a4bc 6dbc 6a3b f083 c5bb 2530 82bd
000003a0: 5297 82bd 6a75 ae3d baab 8f3d 3947 babb
000003b0: 26e2 debc d875 513c a373 aabb 6767 87bb
000003c0: bb0d 3bbc cd50 7abd 0dbe b3bb f306 49bd
000003d0: a07f 83bc f01a 423d 4d53 0d3b ff09 3ebc
000003e0: 6b8f 47ba 6428 c939 06fa 6e3c 3234 743c
000003f0: bedc a2bd 87df f83c 42fc b53d b086 d3bc

action_model._discrete_distribution.branches.1.bias f4 [3]
-0.0111847455 0.013181626 -0.0017855555
00000000: 3940 37bc bff7 573c 4d09 eaba

action_model._discrete_distribution.branches.1.weight f4 [3, 128]
0.040165782 0.023222031 -0.009908848 0.02111362 -0.008372011 -0.0050630025 0.003187213 0.00881988
-0.03902902 0.0014576259 0.0041718027 0.0007425716 -0.019252436 -0.009491648 -0.00034053958 -0.011333186
0.0009077071 0.013064211 -0.030683173 -0.004463255 0.008072284 0.020066153 0.004743918 0.0147618065
-0.008199365 -0.012553689 -0.0007251074 -0.026714584 -0.004754413 -0.010548501 0.011305923 -0.016166864
0.011597661 -0.019819785 -0.010058699 0.018018331 -0.0007936999 -0.015906125 0.007123728 0.009570273
0.01970711 -0.0038094514 -0.0075961347 0.004952129 0.0036363148 -0.000782432 -0.008182943 0.02416965
0.013626257 -0.054246724 -0.0009589797 -0.008166379 0.022601511 0.01678823 0.0040764324 -0.0067300904
-0.02302587 -1.6258857e-05 0.010169482 0.009915673 0.014739173 0.0057161152 -0.016604291 -0.020453656
0.0030255073 -0.020020785 -0.005313882 -0.0017017431 -0.013230974 0.018215613 -0.004532379 0.027847953
0.024908252 -0.023280043 -0.009595013 0.0119842775 -0.037405364 -0.02419655 0.01535754 0.03986416
0.017824255 0.011398342 0.0059268083 -0.011312781 0.021288866 -0.017852671 -0.011927695 -0.017494151
-0.02141584 0.002279761 0.060404804 -0.004091584 0.036782846 0.025272964 -0.0010057498 0.019083856
-0.00083590636 -0.0065937983 0.051856447 0.00046478875 0.028409528 0.006008029 0.03276483 -0.002954165
-0.010632908 0.007847812 -0.0068829455 -0.004746902 0.019797446 0.016818741 -0.017755985 0.0012253491
-0.009901329 -0.022893734 -0.020248137 0.013739899 -0.016314354 -0.022463873 0.021001969 0.023014959
-0.0051681213 -0.0033393463 0.010715219 -0.043269332 0.0016889087 0.021219764 -0.02616599 -0.034468718
0.04704413 -0.048036892 -0.02465043 0.0010861339 0.035890225 0.01665497 0.0093945125 0.023964502
-0.0018493558 0.0041183657 -0.01640889 -0.02634958 0.03868671 -0.018349187 -0.011416975 0.009705204
0.01219874 0.010501801 0.010582842 0.016293311 -0.02457462 -0.0013274539 -0.034260936 -0.038378313
-0.013552722 -0.018227903 0.0002605487 0.02362973 -0.0067634075 -0.0064677484 0.013033091 0.021959905
0.05495031 -0.07342704 -0.016065763 -0.03220741 -0.0056828363 0.0020097198 -0.058371563 -0.044620726
-0.02832696 0.0018007309 -0.0010740157 0.007891783 -0.030956283 0.03361747 -0.025362786 -0.013213068
0.017858556 0.04395749 -0.001554614 0.015824055 -0.019937998 -0.026698764 0.00221014 0.011026075
0.031966876 -0.015117448 -0.0050488263 -0.02140982 -0.021252533 -0.00427541 0.010218708 0.03182139
-0.0017761553 -0.0078538405 -0.0036601836 0.0006611213 0.011824728 -0.041973077 -0.0073935655 0.00663031
-0.0024674397 0.05746833 0.04162424 0.009569642 -0.01612975 0.0091657685 0.048261445 0.010971494
-0.029093828 -0.015269062 0.00486518 -0.035975035 -0.0017600358 0.010454621 -0.021985598 0.0013121935
-0.03280306 -0.022448573 0.02193763 -0.019690378 0.004730181 0.003681967 -0.030171402 0.01334666
-0.00014642328 0.00779316 0.023626255 -0.017145714 0.01771446 -0.016375696 -0.0058953864 0.014691357
0.051740203 -0.028035568 -0.015165487 -0.012114031 0.0064996663 -0.01312734 -0.0014434981 0.004450927
0.018832684 0.051656786 0.029591268 0.027597595 0.011092556 -0.017173257 -0.025919802 -0.028772352
0.010172236 -0.024799038 0.003438298 -0.016245754 0.003706604 -0.005089971 -0.014238196 0.07606112
00000000: e084 243d 213c be3c b958 22bc 78f6 ac3c
00000010: c22a 09bc 8be7 a5bb 90e0 503b 4281 103c
00000020: e5dc 1fbd cf0d bf3a 9eb3 883b 23a9 423a
00000030: 49b7 9dbc db82 1bbc 738a b2b9 d4ae 39bc
00000040: 31f3 6d3a 460b 563c 475b fbbc 7f40 92bb
00000050: 9d41 043c c661 a43c de72 9b3b 81db 713c
00000060: a156 06bc fdad 4dbc 2215 3eba 8bd8 dabc
00000070: e8ca 9bbb 9fd3 2cbc 7a3c 393c 5f70 84bc
00000080: 1e04 3e3c 1a5d a2bc 3ecd 24bc 2e9b 933c
00000090: 4c10 50ba 904d 82bc 296e e93b a2cc 1c3c
000000a0: ce70 a13c fda7 79bb ffe8 f8bb 7845 a23b
000000b0: 3d4f 6e3b 1f1c 4dba c011 06bc 6eff c53c
000000c0: aa40 5f3c d031 5ebd 0a64 7bba 47cc 05bc
000000d0: ce26 b93c 7887 893c 9893 853b 1788 dcbb
000000e0: c0a0 bcbc a163 88b7 e69d 263c 5975 223c
000000f0: 937c 713c 404e bb3b b905 88bc 6d8e a7bc
00000100: 9747 463b a102 a4bc 1320 aebb 060d dfba
00000110: bac6 58bc e938 953c 5a84 94bb 6421 e43c
00000120: 640c cc3c cab5 bebc 6734 1dbc b459 443c
00000130: 5e36 19bd d837 c6bc 319e 7b3c 9a48 233d
00000140: 2c04 923c 1dc0 3a3c ac35 c23b 3e59 39bc
00000150: fd65 ae3c c43f 92bc 616c 43bc e54f 8fbc
00000160: 4670 afbc 0b68 153b 076b 773d b212 86bb
00000170: 9ca9 163d 3f09 cf3c 5dd3 83ba bf55 9c3c
00000180: ba20 5bba ca10 d8bb 6d67 543d e4ae f339
00000190: 19bb e83c 00df c43b 6a34 063d aa9a 41bb
000001a0: a635 2ebc 1c94 003c 558a e1bb e68b 9bbb
000001b0: 412e a23c 75c7 893c 0075 91bc e59b a03a
000001c0: 2f39 22bc a48b bbbc 6cdf a5bc 501d 613c
000001d0: aea5 85bc 2806 b8bc 520c ac3c de89 bc3c
000001e0: 5859 a9bb efd8 5abb e38e 2f3c 2f3b 31bd
000001f0: 5f5e dd3a 12d5 ad3c 0f5a d6bc 122f 0dbd
00000200: 58b1 403d 55c2 44bd b3ef c9bc 9b5c 8e3a
00000210: a101 133d 0170 883c 71eb 193c 3451 c43c
00000220: 1566 f2ba 5bf3 863b f06b 86bc 13db d7bc
00000230: f575 1e3d 0951 96bc 440e 3bbc 9302 1f3c
00000240: 39dd 473c bf0f 2c3c a863 2d3c 8d79 853c
00000250: b750 c9bc f6fd adba 3255 0cbd 9432 1dbd
00000260: 3c0c 5ebc af52 95bc 419a 8839 2393 c13c
00000270: 939f ddbb 68ef d3bb bf88 553c 42e5 b33c
00000280: 9413 613d ea60 96bd 599c 83bc ebeb 03bd
00000290: 1637 babb 81b5 033b 0517 6fbd 39c4 36bd
000002a0: f10d e8bc 8106 ec3a fdc5 8cba 894c 013c
000002b0: 0898 fdbc 79b2 093d 9ec5 cfbc a07b 58bc
000002c0: 1b4c 923c c50c 343d 31c4 cbba 73a1 813c
000002d0: 0355 a3bc 5eb7 dabc ffd7 103b b6a6 343c
000002e0: b3ef 023d 2caf 77bc a070 a5bb a663 afbc
000002f0: cb19 aebc bd18 8cbb 5e6c 273c 2557 023d
00000300: e2cd e8ba 65ad 00bc b1df 6fbb 194f 2d3a
00000310: 81bc 413c f6eb 2bbd b945 f2bb 1243 d93b
00000320: c5b4 21bb e963 6b3d 2e7e 2a3d fdc9 1c3c
00000330: 8a22 84bc 052c 163c cbad 453d c8c1 333c
00000340: 2e56 eebc 162b 7abc 166c 9f3b 8f5a 13bd
00000350: 00b1 e6ba dc49 2b3c 241b b4bc e8fd ab3a
00000360: 805c 06bd 12e6 b7bc 8bb6 b33c b74d a1bc
00000370: a2ff 9a3b 284d 713b 042a f7bc f3ab 5a3c
00000380: 3389 19b9 c45d ff3b d98b c13c 2b75 8cbc
00000390: ea1d 913c 5326 86bc 162e c1bb 04b4 703c
000003a0: 89ed 533d d9aa e5bc aa78 78bc ee79 46bc
000003b0: 27fb d43b 0e14 57bc c233 bdba 15d9 913b
000003c0: 0047 9a3c 1196 533d 6369 f23c 5a14 e23c
000003d0: 8dbd 353c eeae 8cbc c455 d4bc ffb3 ebbc
000003e0: 73a9 263c 5a27 cbbc 1155 613b d115 85bc
000003f0: 7fea 723b c5c9 a6bb 5347 69bc efc5 9b3d

discrete_action_output_shape f4 [1, 2]
3.0 3.0
00000000: 0000 4040 0000 4040

network_body._body_endoder.seq_layers.0.bias f4 [128]
0.004871368 -0.019929754 -0.010326213 -0.0053172857 -0.015113552 -1.1623484e-06 -0.008183785 0.011191086
-0.015032882 -0.005977805 0.008048069 -0.019040503 -0.011369669 -0.009886507 -0.020915523 0.0011980389
-0.0048362142 -0.002266414 -1.3279524e-07 0.008138436 -0.0063660024 -0.0009029526 0.02709508 -0.008832148
-0.006110741 -0.014703206 -0.009812602 0.03070563 0.0021445716 -0.011315818 -0.021137109 -0.015791671
0.0061178263 -0.009788562 -0.001610095 -0.010730199 -0.01805009 4.8507873e-06 -0.01717995 -0.010867098
0.0148708075 3.973649e-05 4.949045e-07 -0.0016553772 -0.010960042 -0.0022168434 -0.0008538418 3.0166198e-06
-0.006786487 -0.011389838 -0.0035921219 0.0045340965 0.005486788 -0.016683381 0.03373834 -0.0027576773
0.037749078 -0.003495521 -0.024514936 0.0039773486 -0.0056500025 0.00503343 -0.015032604 -0.0054927655
0.011309482 -0.014819826 -0.0036815873 -0.0025743595 -0.009333128 -0.016766544 0.022797469 0.024644205
0.0038270906 0.001155692 -0.012620397 -0.01338639 -0.008557676 -0.006107427 0.016503472 -0.001914294
-0.00046669846 -0.013767334 -0.0024285517 -0.008214937 -0.0060213893 0.0084186755 -0.018050358 -0.00048510433
-0.011355092 -0.008870608 0.007662532 -0.00066418544 0.022580884 0.0036421313 -0.011100025 -0.01122043
-0.00094966753 -0.014169306 -0.00863193 -0.020829363 -0.017272295 0.0048196693 -0.03208926 0.013835913
0.0076811174 -0.012106943 0.016276076 -1.6683918e-05 -0.0104227 0.024235722 -0.021641243 -0.011956503
-0.004258234 -0.00825276 -0.002650825 0.015111862 0.026745435 0.036623504 -0.004069107 -0.0011452213
0.0032201128 -5.9274742e-05 -0.018558804 -0.00093646505 0.014220631 0.0011349563 -0.0030042713 0.0002078229
00000000: ff9f 9f3b b943 a3bc 472f 29bc a03c aebb
00000010: d59e 77bc fd01 9cb5 4815 06bc d15a 373c
00000020: 7a4c 76bc 76e1 c3bb 0cdc 033c d4fa 9bbc
00000030: d947 3abc 04fb 21bc 0857 abbc 8407 9d3a
00000040: 1b79 9ebb 1e88 14bb 7a96 0eb4 1357 053c
00000050: e699 d0bb 20b4 6cba 80f6 dd3c b7b4 10bc
00000060: 9c3c c8bb b7e5 70bc 09c5 20bc 608a fb3c
00000070: f18b 0c3b fb65 39bc bb27 adbc 895d 81bc
00000080: 0c78 c83b 3460 20bc d309 d3ba b7cd 2fbc
00000090: c8dd 93bc f2c3 a236 f7bc 8cbc ea0b 32bc
000000a0: b0a4 733c bbaa 2638 94d9 0435 3ef9 d8ba
000000b0: bf91 33bc 7648 11bb 5ad4 5fba 2271 4a36
000000c0: 2e61 debb 719c 3abc ce69 6bbb c292 943b
000000d0: 84ca b33b 96ab 88bc 3731 0a3d 26ba 34bb
000000e0: c79e 1a3d 1c15 65bb 8cd3 c8bc 6b54 823b
000000f0: a823 b9bb 79ef a43b 504b 76bc a8fc b3bb
00000100: 684b 393c dbce 72bc c946 71bb 96b6 28bb
00000110: fae9 18bc fe59 89bc c2c1 ba3c a5e2 c93c
00000120: edcf 7a3b 977a 973a c8c5 4ebc 9752 5bbc
00000130: 7f35 0cbc d020 c8bb 4a32 873c 0ce9 faba
00000140: 35af f4b9 6290 61bc 5628 1fbb f197 06bc
00000150: 134f c5bb 7cee 093c 58de 93bc 9a55 feb9
00000160: b50a 3abc 0756 11bc fa15 fb3b bb1c 2eba
00000170: 8cfb b83c d3b0 6e3b e1dc 35bc e5d5 37bc
00000180: 1cf3 78ba 6026 68bc f06c 0dbc 57a2 aabc
00000190: a17e 8dbc 51ee 9d3b 0770 03bd 06b0 623c
000001a0: e2b1 fb3b 335c 46bc 6855 853c 71f4 8bb7
000001b0: f9c3 2abc fe89 c63c fa48 b1bc 35e5 43bc
000001c0: a888 8bbb 9636 07bc 77b9 2dbb be97 773c
000001d0: 3e19 db3c 8702 163d 2556 85bb 401b 96ba
000001e0: 8708 533b c59d 78b8 a208 98bc 1b7d 75ba
000001f0: a6fd 683c d0c2 943a 4fe3 44bb 09eb 5939

network_body._body_endoder.seq_layers.0.weight f4 [128, 192]
0.09406251 0.0038351396 -0.1682693 0.012381063 -0.0999035 -0.05789835 -0.10438108 -0.06142672
-0.025880009 0.109355114 0.048666224 0.10497113 0.03468857 0.085853994 0.013709419 0.0029620198
-0.04475677 -0.054153245 -0.03146238 0.05434591 0.071482345 -0.07096841 0.010711247 -0.09353019
-0.10959078 -0.0062566693 0.10085437 -0.047541127 -0.051427264 -0.041472804 -0.05192986 0.014227467
0.070731655 0.028361335 0.04545851 0.004118475 -0.14796619 0.13293043 0.040191785 -0.069705725
-0.07791912 -0.006302743 -0.08985405 -0.023253571 0.025769267 0.040006973 -0.11314274 0.062065307
0.009007646 -0.10647476 -0.06685479 -0.0089326 0.08533177 -0.13240784 -0.010806715 -0.013630161
0.1547307 0.083494395 0.03765261 0.0023451054 0.10914761 -0.093642235 0.029765785 0.014304023
-0.058678422 0.09469679 -0.06595085 0.129631 -0.0005569006 -0.065483 0.14720747 -0.064037204
0.049744986 -0.015908694 0.15687053 0.051507592 -0.014763609 -0.023994476 -0.080913685 -0.124484
-0.055727623 0.033966735 0.12121723 0.014931731 -0.052474793 0.017969958 -0.06660324 0.23244104
0.012938314 -0.011192052 0.110966064 0.021646282 -0.0031680993 0.048123732 0.05955603 0.12952007
-0.029835394 -0.18574461 0.083770126 0.086274005 0.030910578 -0.05425445 -0.14160533 0.07485361
-0.093677096 0.048519727 -0.16476929 -0.024877567 0.06294983 -0.11676527 -0.01781825 0.028095093
0.06624705 0.010981268 0.12596487 0.008898406 -0.042098954 -0.012960378 0.028260078 -0.10954848
0.07941157 -0.034928672 -0.046933554 0.030635808 -0.059118375 0.09741661 -0.021262173 0.037726182
0.09525314 -0.09110434 -0.09731387 -0.06057751 -0.03683063 -0.14940594 -0.15481356 0.017713213
-0.073859915 0.043741144 -0.015716622 -0.11421923 0.058019854 0.006782578 -0.059348635 0.037511468
-0.026408141 -0.03243766 0.008539784 0.09685621 -0.023191655 -0.036498453 0.0026488577 0.06544186
-0.06044512 0.052425522 0.0073472587 -0.04583192 0.048077717 -0.080745116 0.0033856642 -0.0103247985
0.008625525 -0.11858854 -0.024740584 -0.07534432 0.023400592 -0.05758345 -0.009400064 -0.032024547
0.06659258 -0.07977505 -0.026213983 -0.027888127 -0.003025056 0.20567589 -0.014916926 0.08702376
-0.05768995 -0.02199118 -0.073839255 -0.038124137 0.07963157 0.03733774 0.059177816 0.002603182
-0.16835573 -0.11206644 -0.009512097 0.01435393 0.037946284 -0.004476282 -0.11053719 -0.053450197
-0.05599036 -0.015366642 -0.057906054 -0.058602996 0.020030497 1.6841243e-05 -0.017180022 0.022847336
0.0462659 -0.009398623 -0.034688745 -0.07238587 -0.08033688 0.12580174 -0.04352391 0.027754745
-0.03908718 -0.039054073 0.030656856 0.009535899 -0.09591126 -0.051416036 0.09917067 0.034178104
-0.035488162 0.051990543 0.083050475 0.09847601 -0.0796184 0.041264832 -0.031783614 0.01746333
-0.09402808 0.027902259 -0.006074775 0.06819623 0.052205466 0.12510642 -0.031491708 -0.0040939627
0.024457801 -0.009206173 0.0883543 0.0064111883 -0.07796167 0.114487804 0.006741438 -0.04256431
0.03862741 0.047349997 -0.017823616 0.018805582 -0.014938983 0.07362892 -0.0652739 -0.09209649
0.0057875384 -0.049414225 0.1210834 -0.024460794 0.043566305 0.08609536 0.083624214 -0.031972937
00000000: d8a3 c03d f756 7b3b ca4e 2cbe f1d9 4a3c
00000010: 359a ccbd d226 6dbd bfc5 d5bd 969a 7bbd
00000020: 5002 d4bc 93f5 df3d 3c56 473d 1bfb d63d
00000030: 9a15 0e3d 38d4 af3d 799d 603c 721e 423b
00000040: e052 37bd cbcf 5dbd b2de 00bd d199 5e3d
00000050: 5665 923d e357 91bd 3a7e 2f3c c28c bfbd
00000060: 2271 e0bd bf04 cdbb bc8c ce3d 7cba 42bd
00000070: 65a5 52bd 63df 29bd 68b4 54bd 521a 693c
00000080: c2db 903d 0856 e83c b432 3a3d 46f4 863b
00000090: 7384 17be ea1e 083e 24a0 243d e0c1 8ebd
000000a0: 0f94 9fbd 3e87 cebb 6605 b8bd 467e bebc
000000b0: 121a d33c 5ade 233d 62b7 e7bd 3138 7e3d
000000c0: ce94 133c 700f dabd 2aeb 88bd 0a5a 12bc
000000d0: 6cc2 ae3d ec95 07be a60e 31bc 0a51 5fbc
000000e0: ba71 1e3e 1cff aa3d a039 1a3d 57b0 193b
000000f0: c888 df3d 80c7 bfbd 60d7 f33c 6c5b 6a3c
00000100: c958 70bd 64f0 c13d 3d11 87bd fdbd 043e
00000110: f7fc 11ba f31b 86bd 8ebd 163e f025 83bd
00000120: 66c1 4b3d f352 82bc aba2 203e a0f9 523d
00000130: 10e3 71bc 1090 c4bc 13b6 a5bd 78f1 febd
00000140: a642 64bd b420 0b3d bd40 f83d 38a4 743c
00000150: cfef 56bd bc35 933c 4867 88bd 0605 6e3e
00000160: 39fb 533c de5e 37bc 2d42 e33d 8b53 b13c
00000170: e39f 4fbb 641d 453d 06f1 733d e9a0 043e
00000180: 5b69 f4bc d633 3ebe ac8f ab3d 6db0 b03d
00000190: 2e38 fd3c ea39 5ebd fd00 11be d94c 993d
000001a0: c7d9 bfbd 9fbc 463d 48b9 28be 0acc cbbc
000001b0: d7eb 803d a122 efbd 94f7 91bc ae27 e63c
000001c0: 89ac 873d c7ea 333c effc 003e 9fca 113c
000001d0: f46f 2cbd c457 54bc ae81 e73c f45a e0bd
000001e0: 89a2 a23d 5e11 0fbd 663d 40bd f2f7 fa3c
000001f0: 1c26 72bd 5c82 c73d 022e aebc c586 1a3d
00000200: 1414 c33d ea94 babd 7f4c c7bd 2020 78bd
00000210: b7db 16bd dffd 18be 7287 1ebe 4d1b 913c
00000220: de43 97bd ea29 333d 25c0 80bc c6eb e9bd
00000230: 3aa6 6d3d 6340 de3b 8e17 73bd a0a5 193d
00000240: e355 d8bc 5add 04bd 73ea 0b3c 8c5c c63d
00000250: 6dfc bdbc 677f 15bd 7598 2d3b 6206 863d
00000260: 4d95 77bd 25bc 563d 46c1 f03b 40ba 3bbd
00000270: 24ed 443d b25d a5bd 05e2 5d3b 5829 29bc
00000280: 1352 0d3c 8cde f2bd c4ac cabc 1f4e 9abd
00000290: 99b2 bf3c a0dc 6bbd ba02 1abc 2c2c 03bd
000002a0: b161 883d 1a61 a3bd b5be d6bc a475 e4bc
000002b0: 0540 46bb b39c 523e 1f66 74bc 8339 b23d
000002c0: 4c4c 6cbd d926 b4bc 0939 97bd 0e28 1cbd
000002d0: e015 a33d 75ef 183d 7064 723d 269a 2a3b
000002e0: 7265 2cbe 1783 e5bd a0d8 1bbc bf2c 6b3c
000002f0: 906d 1b3d c6ad 92bb 5361 e2bd 98ee 5abd
00000300: 2656 65bd 5ec4 7bbc e62e 6dbd b209 70bd
00000310: ff16 a43c 4b46 8d37 1ebd 8cbc 562a bb3c
00000320: 5081 3d3d affc 19bc c915 0ebd 0b3f 94bd
00000330: aa87 a4bd 2cd2 003e 2146 32bd eb5d e33c
00000340: e119 20bd 2af7 1fbd 1624 fb3c 763c 1c3c
00000350: 1f6d c4bd 9f99 52bd fe19 cb3d 57fe 0b3d
00000360: 095c 11bd 09f4 543d 5e16 aa3d caad c93d
00000370: f90e a3bd 5005 293d 892f 02bd 420f 8f3c
00000380: cb91 c0bd 4793 e43c e80e c7bb 77aa 8b3d
00000390: 66d5 553d e61b 003e 73fd 00bd a626 86bb
000003a0: ba5b c83c 7dd5 16bc 19f3 b43d f214 d23b
000003b0: 5eaa 9fbd 9578 ea3d 48e7 dc3b ea57 2ebd
000003c0: c637 1e3d 12f2 413d d502 92bc 2a0e 9a3c
000003d0: a3c2 74bc c2ca 963d 53ae 85bd 169d bcbd
000003e0: 64a5 bd3b 9266 4abd 93fa f73d 0162 c8bc
000003f0: 9572 323d c452 b03d 2c43 ab3d 0ef6 02bd

network_body._body_endoder.seq_layers.2.bias f4 [128]
0.018213397 -0.00117505 0.01313929 0.015768388 -0.015783807 -0.0066876225 -0.0020423892 -0.003149364
-0.014602858 -0.00956052 -0.0032468506 0.007710414 0.009254665 0.0029798734 -0.009341996 -0.01108408
-0.0066284426 -0.011250147 -0.009526567 0.002311084 0.0013417285 0.02381007 -0.011931898 -0.009986857
0.0012934647 -0.0022033968 -0.008843849 0.0034600536 0.013122426 -0.011170898 -0.004247904 0.00085868756
-0.013002961 0.007875674 -0.0094086975 0.0032740526 -0.0007906909 0.0054036127 0.0012150281 -0.008845728
-0.00082829926 0.005324088 -0.0072040213 -0.008822529 -0.00045060334 -0.0061018984 0.0003542843 -0.005310189
0.017259764 -0.0068085203 -0.0067877676 -0.0024493972 -0.00022750148 -0.0021871454 -0.0015902906 0.0064040893
0.0030075163 0.00718467 0.0011916903 0.005615902 -0.008002427 0.0050927694 0.004435056 -0.011413601
-0.016979003 -0.0040360824 0.017581308 -0.008894947 -0.00095678866 0.0052588037 0.009462601 0.010209402
-0.0055167726 -0.0147930505 0.002221383 -0.010287143 0.01989466 -0.014694868 0.014179656 0.0075751683
-0.010865661 -0.0030358213 -0.012568922 -0.009279544 -0.016736502 0.0046713897 -0.0032828355 -0.006999384
0.010642216 0.010886807 0.016208544 0.0076332726 0.0019319416 0.0065820096 -0.012524257 -0.023591584
-0.007221215 -0.010572464 -0.01582508 0.00021900881 -0.005390626 -0.0035284692 -0.0140021965 0.001144024
-0.0003413496 -0.014838276 -0.009623513 -0.0023297574 -0.0065979715 0.020820437 -0.0065316698 -0.012224449
-0.0036791677 0.0023895274 0.027292669 0.0007487395 0.005908443 0.00606423 -0.016368104 0.018408012
-0.004241208 0.0051019094 -0.012537714 0.0008856949 0.0014128513 0.0031267535 0.01878408 0.0005020378
00000000: 4334 953c 2304 9aba 2d46 573c b52c 813c
00000010: 0b4d 81bc d823 dbbb 9bd9 05bb 8f65 4ebb
00000020: d340 6fbc baa3 1cbc 1dc9 54bb a4a7 fc3b
00000030: e1a0 173c fb49 433b 2c0f 19bc 009a 35bc
00000040: 6833 d9bb 8952 38bc 5115 1cbc 8e75 173b
00000050: f0dc af3a 560d c33c 027e 43bc ea9f 23bc
00000060: 7989 a93a dd66 10bb cbe5 10bc 11c2 623b
00000070: 72ff 563c 2406 37bc 0032 8bbb 8c19 613a
00000080: 5f0a 55bc f908 013c f026 1abc 7d91 563b
00000090: 5e46 4fba ca10 b13b 9441 9f3a aced 10bc
000000a0: 3922 59ba b075 ae3b b60f ecbb 5e8c 10bc
000000b0: f53e ecb9 6ff2 c7bb 3cbf b939 1801 aebb
000000c0: 5964 8d3c 021a dfbb ec6b debb 1186 20bb
000000d0: 778d 6eb9 3656 0fbb 4c71 d0ba 65d9 d13b
000000e0: c019 453b 616d eb3b 7e32 9c3a 9a05 b83b
000000f0: 9d1c 03bc 3fe1 a63b f253 913b 1d00 3bbc
00000100: 8d17 8bbc 1d41 84bb ad06 903c 1dbc 11bc
00000110: 00d1 7aba 0b52 ac3b 0609 1b3c 5645 273c
00000120: 0bc6 b4bb 8d5e 72bc 9f94 113b 688b 28bc
00000130: 20fa a23c bec2 70bc ca51 683c 1e39 f83b
00000140: e305 32bc a1f4 46bb e1ed 4dbc 3b09 18bc
00000150: fd1a 89bc 7512 993b d724 57bb 175b e5bb
00000160: b05c 2e3c 945e 323c c8c7 843c 8820 fa3b
00000170: 3439 fd3a e6ad d73b 8b32 4dbc 2343 c1bc
00000180: f19f ecbb 2138 2dbc 99a3 81bc bba5 6539
00000190: d9a3 b0bb e43d 67bb 7869 65bc 13f3 953a
000001a0: 2bf7 b2b9 3e1c 73bc f0ab 1dbc d8ae 18bb
000001b0: cc33 d8bb 9f8f aa3c 9e07 d6bb 0e49 48bc
000001c0: 311e 71bb 9e99 1c3b e094 df3c 0f47 443a
000001d0: 9d9b c13b 73b6 c63b 6716 86bc 66cc 963c
000001e0: d5f9 8abb eb2d a73b fc6a 4dbc fb2d 683a
000001f0: 6c2f b93a 38ea 4c3b 12e1 993c 309b 033a
