results/test5/CharacterBehav/CharacterBehav-999971.onnx (onnx, 700066 bytes, 12 tensors)

109 f4 [1, 512, 128]
00000000: c2f4 4d3d 4897 09bd efa2 143e 19a6 133e
00000010: 213f cdbd 6456 0bbd 8154 b23c bb41 05be
00000020: 4eda f7bd 5a78 8cbc d987 933d 5b9a 5ebc
00000030: 3e3c 71bd 0035 283e 4165 2abd 5d2e 503b
00000040: 0aab fa3d 9aa2 0cbe 2ad7 a3bd 2c7a 77bd
00000050: b1be e1bc 8da1 1b3e 6009 3a3e ea26 0a3e
00000060: 21f5 11be 816a d33d 928b 4fbc a7e3 f33d
00000070: 492f 78bd 7127 75bd 29b1 0f3e 7281 393e
00000080: a272 da3d 1ba4 e0bc 5048 06be 9f8f cabc
00000090: 667e a33d cc2c 94bd 6523 eb3d 683d 9e3d
000000a0: aabe 07bd d314 0ebe 327a 0a3e 9416 9bbd
000000b0: f00f b1bd bde5 f33c 2f80 c1bc 0625 f43c
000000c0: f8b8 dc3c a444 a7bc 579f 683d 2f5f 993d
000000d0: ce67 2b3b 0f85 06be e336 f1bd 3c2d 07be
000000e0: c60e 1e3d 473c 70be 3743 843b 75c8 8fbd
000000f0: 2e08 73be 95c3 c63c fb29 e33c 96ed ad3c
00000100: 3c8d ad3b 33dd 2cbd 47e3 23be 88d7 d23d
00000110: e0fc 293e b54b 17be 76f8 ddbd a0f6 fbbb
00000120: 73a6 033e 742d 7d3d 437c 8a3c dc54 5dbd
00000130: a260 23bd 1617 0f3e 0b17 d43d bbca 073e
00000140: 789a 113e ac8a 003e 7df9 0d3e 4c5f 68bd
00000150: 0ccd 913d 481b 5ebd a35a 173e b9e7 ebbd
00000160: 7442 e9bd 33dc 2cbd 2cb0 55bc a1a9 82bd
00000170: 7a8b 96bd 23ba c33d 40f6 a3bd a24d f7bd
00000180: 2eef bbbd c48d 19bd 5897 0f3d 0c56 933d
00000190: d378 91bd d37a 96bb 382d 173d 20bd c23d
000001a0: 72e1 a5bd d88b d5bd 8af2 093e 8d1f 92bc
000001b0: d84b 21bd bb92 eebd e3f1 b13a dc13 c63d
000001c0: 0a9c a9bd 6a28 01be b478 8fbb 03bd 09be
000001d0: 40c4 283e 93c0 893c 41a2 d23d ccbe 78bd
000001e0: 994a 0abe 5f26 103e 17df 6fbc d214 efbd
000001f0: 76f2 46bd a601 0b3c db87 3fbe 8a94 dfbd
00000200: a704 86bd 93c3 0e3e 4c57 edbd 9f25 263e
00000210: c46a fc3d 5f18 8b3d 83ba a0bc 988d 84bd
00000220: a4bb aa3c d81e 17be 2ce2 27bd 76fe a43d
00000230: 12f1 15bc ac77 d7bd e1ff 09bd e9ac 37bc
00000240: 1eb7 07bc 660f f63c 7a41 ff3d 7229 f63d
00000250: 1985 93bd 82aa e7bd 94bb ffbd 1d30 9e3c
00000260: a3a4 18bd 9b74 f5bd e4fa 2bbd dc03 c4bd
00000270: 56c0 bebd a106 9abd b638 e73d 9005 9e3d
00000280: e1a4 283d ef93 e33d 2cb3 103e 39a4 51bd
00000290: 1801 ac3d 2683 96bc 4878 b6bd ea7b 9ebd
000002a0: a464 fc3c 6592 99bb d6ef a43d 6802 2a3e
000002b0: 9a51 003e ad54 863d fc0f c13d 8157 393b
000002c0: 360f f7bd c123 79bc 2b0d 063d eaf1 e5bc
000002d0: f22b 023e 52f4 04bb ac01 31be f76f d9bc
000002e0: b7b3 ebbd 708e 9bbd e45d 113d 8747 eb3d
000002f0: f639 483e e07e ac3d 9a48 b9bd 095e 123d
00000300: d27d 1cbe 4774 0a3e 8778 23bd e409 ab3c
00000310: 506b b9bd 9ee7 443d 567f bcbd 7a8a 9dbd
00000320: 49ed b4bc 5979 f339 7c8a 6d3c 7084 29be
00000330: 7b74 eebd 1bba 2bbe 7d24 b3bd 7562 46bd
00000340: d333 cf3d 1d3d 2a3d 1a50 08be 568e be3d
00000350: 7d1f 94bd c125 8e3d 5b88 12bd b551 00be
00000360: 68cb 16be b9bb dd3d cd42 16be ed0d d0bc
00000370: a943 843d fdef aa3d 3fd2 103d ef2b b9bd
00000380: e73b 08be b8d4 293c 439b 8abd 4d65 c03d
00000390: f68b 603d f382 87bc 8cb2 b33d f587 02be
000003a0: 1b9b dc3d 4470 b13d 32e3 973c c271 af3c
000003b0: fdba e53d 095b f13d fc29 d33d 8336 1a3e
000003c0: 016a b7bd c499 b33c 3293 e73d de13 433d
000003d0: 108b f93d 5bfe 67bc a37a 283e e008 3f3c
000003e0: cef9 273e 7843 f7bb 1545 d7bd 3139 f73d
000003f0: 6834 cbbc c54d 603d a8a5 18bd 9a7a 87bc
0.050282247 -0.03359154 0.14515279 0.1441883 -0.100218065 -0.034017935 0.02176881 -0.13013355
-0.12102185 -0.017147232 0.07203645 -0.013586606 -0.058895342 0.16426468 -0.04160047 0.0031765916
0.12239654 -0.13733903 -0.08000024 -0.060419247 -0.027556749 0.15198345 0.18167639 0.13491407
-0.14253666 0.103230484 -0.0126675535 0.119086556 -0.06059197 -0.059852067 0.14032425 0.18115786
0.10666396 -0.027422002 -0.13113523 -0.024726687 0.07983093 -0.07235107 0.1148136 0.07726556
-0.033140816 -0.13875131 0.13523176 -0.07572666 -0.08645618 0.029772634 -0.023620693 0.02980281
0.026943669 -0.020418473 0.056792583 0.07488858 0.0026154402 -0.13136695 -0.11778047 -0.1320085
0.038588308 -0.23460494 0.004036333 -0.07020656 -0.23733589 0.024263183 0.027729979 0.021231454
0.0052963775 -0.04220314 -0.16004668 0.102950156 0.1660037 -0.14774974 -0.10838406 -0.007689312
0.12856464 0.061810926 0.016904956 -0.054036006 -0.039887078 0.1397365 0.103559576 0.1326093
0.14219081 0.12552899 0.13864703 -0.056731507 0.07119188 -0.054225236 0.14780669 -0.11518807
-0.11389628 -0.042202186 -0.013042491 -0.063800104 -0.07350822 0.09556987 -0.08005953 -0.12075354
-0.09176479 -0.037488714 0.035056442 0.071941465 -0.071031235 -0.0045922785 0.03690836 0.09508729
-0.08099641 -0.10427064 0.13471428 -0.01783731 -0.03937897 -0.1164908 0.0013576116 0.096717566
-0.08281715 -0.12613073 -0.0043784026 -0.13451008 0.16481113 0.01681546 0.10284854 -0.060728833
-0.13505019 0.14077137 -0.014640591 -0.11673893 -0.048571073 0.00848428 -0.18704168 -0.109170035
-0.06543856 0.13941793 -0.11588916 0.16225289 0.123250514 0.06791758 -0.019620186 -0.06472319
0.020841427 -0.1475786 -0.04098718 0.08056347 -0.009151714 -0.105208725 -0.03369129 -0.011210659
-0.008283405 0.03003664 0.124636605 0.12019624 -0.07203121 -0.11311819 -0.124869496 0.019310052
-0.037266385 -0.11985131 -0.041987315 -0.095710486 -0.09314029 -0.075207956 0.11290114 0.07715905
0.041172866 0.111122005 0.14130849 -0.051182006 0.08398646 -0.018373083 -0.089096606 -0.077384785
0.030809708 -0.004686641 0.080535576 0.1660248 0.12531129 0.065591194 0.09426877 0.0028280916
-0.12063448 -0.015206278 0.0327274 -0.028069455 0.12712076 -0.0020287228 -0.17285794 -0.026542647
-0.11508887 -0.07595527 0.03548993 0.11488252 0.1955336 0.08422637 -0.09047051 0.03573421
-0.15282372 0.13520919 -0.039909866 0.02087874 -0.09053671 0.04807245 -0.09203975 -0.07692428
-0.022085803 0.00046438983 0.014498349 -0.16554427 -0.11643311 -0.16770212 -0.08747194 -0.04843374
0.101173066 0.04156219 -0.13311806 0.09304492 -0.072325684 0.06940795 -0.03577457 -0.12531169
-0.14726031 0.10826821 -0.1467392 -0.025397265 0.06458218 0.083465554 0.035356756 -0.09041583
-0.13304101 0.0103656575 -0.06767895 0.093943216 0.054820977 -0.016541934 0.087742895 -0.12747176
0.107717715 0.08663991 0.018540952 0.021416549 0.11217306 0.11784942 0.10310742 0.15059857
-0.089557655 0.021923907 0.11307372 0.04762637 0.12184727 -0.014159764 0.16453032 0.011659831
0.16403887 -0.0075458847 -0.10511223 0.12071455 -0.024805263 0.054761667 -0.037267357 -0.016537953

110 f4 [1, 512, 128]
00000000: c54a c13d ddc9 933d 3069 093e 8f9e 973d
00000010: 90ae aabd e5e3 e2bc fa9f e2bd 5667 f5bc
00000020: 03bc 933c 85f5 0a3c 43c6 9e3d b8a6 3a3d
00000030: 6a34 acbd f027 3abc 9152 70bd 0348 ea3d
00000040: f5c9 1dbe d1f0 813c 3cd5 783d 9b61 933d
00000050: 28ce ca3d 5d05 97bd c086 0ebe 4b11 1a3e
00000060: 8b51 0f3e ac19 11be 4655 3b3c 629d 0a3e
00000070: d1ed b53b e052 39bc 376c 9a3d a962 e5bd
00000080: 8bab 4e3d 50e9 83ba 374b b7ba 8fe3 f93d
00000090: 032c c63d a392 033e 1523 253e 1e0a 313e
000000a0: 4a98 543e fb9d 443c 69b6 fd3d 08cd 3c3d
000000b0: 5761 133d 4d04 37be 08e0 3d3d 0cb6 babd
000000c0: f948 8a3d ffbd 713d 7f75 243d 1697 f93d
000000d0: a10e eabd b982 3d3d 56a5 b53d aa1e b4bd
000000e0: c60f 02be cb3f ab3d e629 e93c d481 653d
000000f0: 9bae 80bc 0fad 82bd 330a 703b 36f7 a33d
00000100: 9b3d 2abd 9da0 973c 12ae ee39 fe60 c03d
00000110: 9cca b73d 1807 cb3d c686 ab3d 845c 353d
00000120: 28d6 04bb d770 ca3d 53ce 2cbe d7a1 d03d
00000130: 6166 953c 90ee b13b 1acc 963d 5e4f 763c
00000140: 07cc 5dbd 2d54 5dbd 0349 113d 63b5 77bc
00000150: f54f c2bc 29f2 b1bd bc44 b3bd b180 0ebd
00000160: 24f7 76bd eed8 2b3d bbeb 47be 0ffa b8bd
00000170: 3e98 09be 72aa 30bd a4d7 04be 853a 343d
00000180: ce99 233d 104f bd3d b485 0a3b 73a1 94bd
00000190: f12e a3bd fa50 033e e431 ea3c a86c 12bd
000001a0: 25f3 46be 9ed1 ddbd 69bd 143e 91b0 85bd
000001b0: f3b2 d3bd a663 2c3d bc58 ad3d 18f4 d9ba
000001c0: 7ab9 e73d 5402 f9bb 0a22 6bbc 515d 81bd
000001d0: 98d9 b6bd 3d7b 013e 410f a13d f179 c93d
000001e0: 1794 08be 6746 863d 656c 23be f482 283c
000001f0: 4b18 983d 2417 333e 8b02 3dbc 3a6d 29be
00000200: ca93 d2bd 2189 35bd 4b81 0c3e c447 0fbe
00000210: e961 903d 872e ab3d 334c 3d3d 9f35 c23d
00000220: babd 51bd ec1f 8ebd 1856 f73d 1c5d 1dbd
00000230: 8a9f 63bd 3fbd f4bc 1c7b e3bc 6bee 9d3c
00000240: 4255 3ebb 9f77 10be 32b9 93bd 6e45 123e
00000250: cb95 0abe 862d 263d c655 14be 7f95 04be
00000260: 761e 9e3d b860 f43c 8e49 a23b a02e 043e
00000270: 40a4 0abe f75e b43d da37 eabc d0e2 053d
00000280: 4b82 7f3d 4cfd d43c 8c3b 7fbd 1e53 333d
00000290: 59b6 c13d 840a 77bd d916 27be c8e1 073e
000002a0: 7d17 39be 8295 cb3c 3539 0bbe 6317 15be
000002b0: 400a 8e3c ed25 b1bd 3d34 113c 9f6f cc3d
000002c0: 9274 143e a7d9 033e bbf1 c13d 74d0 143d
000002d0: 951b 1a3e 5675 34bc 94ec 0b3e 8cb8 333d
000002e0: 2575 90ba c7f4 c3bc a315 083d 5a73 093e
000002f0: 9388 b2bc 3259 0ebe 9015 bfbd 643c 1c3e
00000300: edbb dfbc 1417 523d b772 993d 8b4e a13d
00000310: f47b f13d 2e07 283e 8f02 9c3d 0f1f 233d
00000320: 9fc4 31bd bfcb 3ebd c42e b6bc 28bb 0fbe
00000330: cff9 0e3c b456 f6bd 83c4 9abd 05c6 02be
00000340: 63ee ea3c b76f 343c 7bf5 e93d 71d2 d7bc
00000350: a4e1 663d dda0 9d3d 7f4e 193e 2587 c23d
00000360: fb38 a33d 930b 123e 6473 c83d 7a9b b63d
00000370: 698d 11bd 70c8 ecbd fce7 efbd 176a a9bd
00000380: 1c12 a53d cb57 4abd 5aca fa3d 6001 0cbe
00000390: a2ad 493d eb8e 1a3d 0e0a 053e 21cc 9c3d
000003a0: 7673 053e b464 f7bc 0d19 fdbd 9485 32bd
000003b0: 37eb b5bc 6e37 523d 5e0f d6bd 4113 1c3e
000003c0: 71e7 9f3c b2ab 0c3e 904b 0b3e 7a19 c13d
000003d0: 6052 cb3b d5d4 75bd 3320 18be 8063 043e
000003e0: 61bb 993c 176f bebd 3f8f a13d 5339 c0bd
000003f0: 6926 8c3d d543 d03c e110 d9bd a597 c73d
0.09438089 0.07216237 0.13419032 0.074032895 -0.083340764 -0.02769656 -0.11065669 -0.029956501
0.018033987 0.008481388 0.07752659 0.04556915 -0.08408435 -0.011362061 -0.05867249 0.114395164
-0.15409072 0.0158619 0.06075023 0.07196351 0.099026024 -0.0737407 -0.1391859 0.15045659
0.1399595 -0.1416995 0.011433905 0.135366 0.0055520316 -0.011311263 0.075401716 -0.112004586
0.050456565 -0.0010064039 -0.0013984208 0.122016065 0.09676363 0.12848906 0.16126664 0.17289016
0.20761219 0.012000556 0.123883076 0.04609397 0.035981502 -0.17872734 0.04635623 -0.09116754
0.067522 0.059019085 0.040151116 0.121870205 -0.114285715 0.046267245 0.08869426 -0.08794911
-0.1270133 0.08361777 0.028462362 0.056032017 -0.015708258 -0.063806646 0.0036627173 0.08006136
-0.041562658 0.018509204 0.0004552459 0.093935 0.089741915 0.099134624 0.08375315 0.044277683
-0.0020269249 0.09884804 -0.16875581 0.101871185 0.018237295 0.00543005 0.07363148 0.015033571
-0.054149654 -0.054035354 0.03547002 -0.01511893 -0.023719767 -0.086887665 -0.087533444 -0.0347907
-0.060294285 0.041954927 -0.19523518 -0.0903207 -0.13436982 -0.0431313 -0.12972885 0.04400112
0.0399416 0.092435956 0.0021136822 -0.072573565 -0.07967938 0.12823859 0.028588243 -0.035748154
-0.1942869 -0.10830997 0.14525379 -0.06527818 -0.10336866 0.04208722 0.0846419 -0.0016628532
0.11314674 -0.0075991545 -0.014351377 -0.06316627 -0.089282215 0.12644668 0.078642376 0.098377116
-0.13337742 0.06556397 -0.15959318 0.010285128 0.074265085 0.17489296 -0.011536251 -0.16545573
-0.10282095 -0.04432023 0.13721196 -0.1399222 0.07049925 0.08358484 0.046215247 0.09482884
-0.051206328 -0.06939682 0.12076968 -0.038418874 -0.05557207 -0.029875396 -0.027768664 0.019278726
-0.0029042517 -0.14108132 -0.072130576 0.14284298 -0.13533704 0.04057076 -0.14485845 -0.12947653
0.07720654 0.029831275 0.004952616 0.12908411 -0.13539219 0.088071756 -0.028591085 0.03268701
0.062380116 0.025999688 -0.062312648 0.04378044 0.09458608 -0.060312763 -0.1631731 0.13269722
-0.18075366 0.024851564 -0.13596042 -0.14559703 0.017338872 -0.08649812 0.008862552 0.099822275
0.14497593 0.12875997 0.094699346 0.03633161 0.15049584 -0.011014303 0.13664466 0.04387717
-0.001102124 -0.02392043 0.03322376 0.1342291 -0.02179364 -0.13901213 -0.093302846 0.15257412
-0.02731129 0.05129154 0.07492583 0.07876309 0.1179122 0.16408989 0.076176755 0.03982454
-0.043400403 -0.046581026 -0.022239096 -0.14036238 0.008726551 -0.12028256 -0.07557013 -0.12770851
0.028678125 0.011012963 0.11423775 -0.026345463 0.05636753 0.07696698 0.1497135 0.09498433
0.079698525 0.14262228 0.09787634 0.089163736 -0.03553525 -0.11561668 -0.117141694 -0.08272188
0.08060095 -0.049400132 0.12245627 -0.136724 0.049237855 0.037733953 0.12992117 0.07656122
0.13032326 -0.030199386 -0.12358294 -0.04358442 -0.022206886 0.051322393 -0.1045215 0.1524172
0.01951954 0.13737372 0.13603044 0.094286874 0.006204888 -0.060017426 -0.14856033 0.12928581
0.018766107 -0.092985325 0.0788865 -0.09385934 0.06843264 0.02542297 -0.105989225 0.09745721

111 f4 [1, 1024]
00000000: 734d bbbb 3f2d beba 7ed4 a33c a7de 1fbc
00000010: 7c50 0db9 7ae2 b1bb a5f5 50bc 863e f53a
00000020: 6551 5e3b 817a fdb9 d9d7 343c c988 b93c
00000030: 603f a93c 3b16 ccbb adc1 f0bc 57e4 7b3c
00000040: b6a7 f93a 636a e3bb effa 30bb e515 003b
00000050: 88eb 453b c60a 5cbc 6157 28bc 7253 223c
00000060: 9cb6 b3bb c70e 923b d679 88bc ad66 d03a
00000070: 9ec6 a5bb 568c 65bc 68ee 65bc ee02 a03c
00000080: 065b ca3c 2eb2 523c 1aaa 4f3b e456 d33c
00000090: ea7c 0d3d a0f1 983c 2016 abbc 6d09 72b9
000000a0: dbc9 bfbc 74eb 67bc a4f6 923c f21a 5c3c
000000b0: 671c 483b 9e89 273c b674 903c e089 4e3c
000000c0: 4151 36bc 961c a13c e75c ab3b e0f2 563c
000000d0: 3b66 7c3c e20a b73c 5d96 2bbb f580 debc
000000e0: c9d3 213c bf90 4dbc 82c3 463c 14ca 31bb
000000f0: 42b3 41bd 5b39 cd3b 42d5 93bb caad 833c
00000100: dcd6 d2bb 75cc 5f3b 8ad4 b6bb 22de a23b
00000110: 6855 f8bc 077a d43b 7962 573c d7f5 92bb
00000120: 5b86 5f3c 8876 02ba 72a9 c1bc 4cf5 47bb
00000130: 2bae 8e3c 85de 113b e580 f83c e37b 62bc
00000140: 9bd0 68bc 3d9a 2dbc 9d5d 013c ec85 7c3c
00000150: ef8c 4e39 4e2d b7bc f16b f2bb 039c 27bd
00000160: 2820 393c 1133 343c 2153 383a e288 b9bc
00000170: 72c5 70bc 95c7 a43b db70 48bb ee78 9a3b
00000180: 50fd e2ba fc27 b03b bc16 073c 1b91 ebbb
00000190: d715 753b 9e9d bcbc e6c4 e539 7392 783c
000001a0: 0f89 b43b 65b8 9f3c 2a5a 513b c6b1 82bc
000001b0: 5926 ffbc dfce a5bc 89c4 76ba 25a4 53bb
000001c0: f84a d7bb 30d3 723c 9458 23bd 2786 8c3b
000001d0: f12f bdbc 0a80 9e3b 2ed6 af3b 1991 603b
000001e0: 1dd9 b13b e12e f4b9 1193 073c b75e 16bb
000001f0: 01b3 353c 1822 983c a25b 253c 8133 263c
00000200: a70c b63c 10f2 923a 0020 883c 08c7 223b
00000210: 9655 8f3c 7f39 28bc 0d6a 14bc 5522 083c
00000220: 4fa2 9e3c 3dad 26bb 6a11 a1bc 7b49 013c
00000230: 0211 5bbb 1910 a43c 3ea3 adbb 1c34 5f3c
00000240: e2f9 bfbc 93fe babb 12a0 8dba 3ce7 e83b
00000250: 0e6c 123c 12cd 0ebc c22a 943b d8e5 b13c
00000260: 2419 46ba d134 c93a 7664 abbb 561f 1dbc
00000270: 8341 d4bb 8157 13bc 5bbd 50bb 5d00 5e3c
00000280: ebcd c83c 4683 bf3c f62e 5bbc 7733 973c
00000290: 29a3 fe3c 60f7 183c efa8 6a3c 0cf8 6739
000002a0: cd6b 943b 5b3c 29bc a2ec 7d3c 824c 353b
000002b0: fa06 1abc 12e3 133b ca8a 8bbb 02f1 b53b
000002c0: 81a1 7f3c 3be5 463c 78e3 31bc 2de8 9b3c
000002d0: dac4 b93b 9325 e93c fc00 853a a4a5 e2ba
000002e0: c174 82bb 8066 b33b 0545 853c 8261 74bb
000002f0: 75cd 443c 9496 aabb adfe a6bb c4a5 34bb
00000300: 1eea 9dbc b3a6 b23b 7b3a 463b 3dca feb9
00000310: 686f fc3b 0f7b dabb 215a 1bbc f501 bb3c
00000320: e785 2dbc 0417 2abc 4c35 da3c 3e50 91bc
00000330: bf12 e33c 8159 313b 0488 63bc 698d 003c
00000340: faa4 ad3c f659 0d3c c9c9 223c 3c08 e93b
00000350: 1d63 413c a512 333c d201 ca3b a8e0 073b
00000360: c05c a73b 8483 2a3c 855c cf3c ffca 37bc
00000370: ebda 803b bdb5 3b3c 84f9 233c f328 48bc
00000380: 5d3d 01bb 10bb 38bc cdc6 ab3c 2b48 173c
00000390: 13c3 113b e811 e4bc 19c9 2cbc f1a3 1cbc
000003a0: 3849 1ebc f904 d73b c913 09ba ba91 32bc
000003b0: 4aa7 793c 061f 21bc b0a0 7dbc dedb bbbc
000003c0: aacd fb3b cfe1 083c 86a5 903b 2324 8dba
000003d0: 6966 06ba e13d 4abb d464 89bc 467e 9a3c
000003e0: 872a 46bc e237 3f3c 1640 c13b 5fb3 813c
000003f0: 0b39 9b3b c013 1b3d f5ba 97bc 128f 4a3c
-0.00571602 -0.0014509334 0.019998785 -0.009757674 -0.0001347679 -0.0054286094 -0.012753879 0.001871065
0.0033923027 -0.00048347193 0.01103779 0.022648232 0.020660102 -0.006228236 -0.029389227 0.015374265
0.0019047174 -0.0069401725 -0.0027005037 0.00195443 0.0030200202 -0.013430303 -0.010274739 0.00990759
-0.005484415 0.004457328 -0.016659658 0.001589974 -0.0050590774 -0.0140105095 -0.014033891 0.019532647
0.024701606 0.012859864 0.0031687082 0.025798269 0.034542955 0.018669903 -0.020884573 -0.0002308243
-0.023411682 -0.0141552575 0.017939873 0.013434159 0.0030534507 0.010225682 0.017633777 0.012606114
-0.011127771 0.019666951 0.0052295807 0.013119429 0.015405233 0.022344057 -0.0026182153 -0.0271611
0.009877154 -0.012546717 0.012131574 -0.0027128505 -0.047290094 0.006262941 -0.0045115063 0.01607408
-0.0064343046 0.0034148965 -0.005579536 0.004970328 -0.030314162 0.0064842734 0.013146036 -0.004484873
0.013642873 -0.0004976769 -0.023640368 -0.0030511199 0.017417034 0.0022257876 0.0303349 -0.013823482
-0.014209892 -0.010595855 0.007895854 0.015412789 0.00019698193 -0.02236047 -0.0073981215 -0.04092027
0.011299171 0.010998503 0.000703143 -0.022648279 -0.014695512 0.005028675 -0.0030584845 0.004714123
-0.0017317925 0.0053758603 0.008245166 -0.007188929 0.003739705 -0.023024376 0.00043824984 0.015171635
0.0055095027 0.019497106 0.003194461 -0.01595391 -0.031146215 -0.020240245 -0.00094134413 -0.0032293883
-0.0065702163 0.014820859 -0.039879397 0.004288453 -0.02309415 0.004837041 0.0053661084 0.0034266172
0.0054274932 -0.00046574234 0.008274809 -0.0022944638 0.011090041 0.018570945 0.010092648 0.010144115
0.02222283 0.0011211056 0.016616821 0.002483787 0.017496865 -0.010267614 -0.009058488 0.008308967
0.019364504 -0.0025432848 -0.019661624 0.007891054 -0.0033426885 0.020027207 -0.005299001 0.013623264
-0.023434583 -0.005706617 -0.0010805151 0.0071076434 0.008936895 -0.008715885 0.0045216987 0.021716043
-0.0007556847 0.0015350824 -0.0052304817 -0.009589991 -0.006477536 -0.0089930305 -0.0031851146 0.013549891
0.024512252 0.023378026 -0.013377896 0.018457158 0.03108366 0.009336323 0.0143225035 0.00022122281
0.0045294524 -0.010329331 0.015498312 0.002766401 -0.009401077 0.0022565764 -0.0042584883 0.005552412
0.01560247 0.012139614 -0.010857455 0.019031608 0.0056692185 0.0284603 0.0010147388 -0.0017291796
-0.0039812033 0.0054748654 0.016268263 -0.0037289564 0.012011875 -0.0052059386 -0.0050962777 -0.0027564624
-0.019276675 0.005452001 0.003024726 -0.00048597335 0.0077037103 -0.0066675018 -0.009481938 0.022828082
-0.010591007 -0.010381464 0.026636742 -0.017738458 0.0277189 0.0027061405 -0.013887409 0.007846215
0.021196831 0.008627405 0.009935805 0.0071115773 0.011803416 0.010929738 0.006164768 0.002073327
0.005107492 0.010407332 0.025312671 -0.011217832 0.003932347 0.011456904 0.01000822 -0.012216794
-0.0019720413 -0.011275068 0.020968819 0.009233515 0.0022241517 -0.02784057 -0.010545992 -0.009560571
-0.009661011 0.006561872 -0.00052290835 -0.010899002 0.015237639 -0.009834057 -0.015480205 -0.02293199
0.007684429 0.008354618 0.004414263 -0.0010768216 -0.00051269546 -0.0030859637 -0.016771711 0.01885904
-0.0120951 0.011671038 0.005897532 0.015832601 0.0047370247 0.037860632 -0.018521765 0.012363212

action_model._discrete_distribution.branches.0.bias f4 [3]
00000000: 8dab 1c3b c494 483c e1e2 63bc
0.0023905963 0.0122425 -0.013909073

action_model._discrete_distribution.branches.0.weight f4 [3, 128]
00000000: 3621 5bbc 1152 41bc 0866 ddbc 6390 fe3c
00000010: 7bd9 993b bb80 a83c f69e 043c e041 9c3c
00000020: c56b 993c 248b 2dbc fdb3 e03b 2bb0 663c
00000030: 839d e73c d3d4 f1bc f0fc 803a c527 a33b
00000040: 73c5 86bb 2740 00bc 399d 393c f339 87bc
00000050: d1a4 ecba afbd b4bc 220e 873c 4423 a4bb
00000060: cf55 7c3b 7b2c ddbb d3ef 993a 1af7 433c
00000070: 950a f93a 6411 933c 1195 723c 0e20 d73b
00000080: ee26 91bc 138c 053c 8c23 32bb 165d 5cbc
00000090: 6c0d 27bc 39b2 123b 3fb8 7dbc a7ca b5bc
000000a0: 0bad a7bc b611 a53c 8111 d63c 5eb1 6c3b
000000b0: e46e 9bbc 2adf b5b7 2f7f acbb 3a51 d7bb
000000c0: 11af 3f39 0e59 813c 69c7 c53b 8324 653c
000000d0: c976 943c d2dd 99bd 129b 0d3c 0ee7 153c
000000e0: 5785 663c eaae 9d3c b3d1 b4bc be7d 18bc
000000f0: 8290 47bc 3540 8bbc 6b70 adba a8a7 33bb
00000100: 4325 8f3b 80b2 103b e196 5bbc 1204 df3c
00000110: 8373 553b f98a 8d3d daaa f53b 747f c2bc
00000120: ca48 803c 82a9 c8bc 8a8c 853c a1cf fdbb
00000130: 6493 393d 4c75 68bc 603e 573c a43f 61bc
00000140: 6d0b 2a3c 5b56 0fbc b691 ac3c 2f4d 95bb
00000150: 4b42 81bc 8b15 853c a29c 0d3c a664 00bb
00000160: 2ec7 30bd 80f9 16bc 5a86 d73b 8e8c 66bc
00000170: da95 30bd d5a4 ed3c 73de e63b a2f6 6ebb
00000180: b6fd 413c 402e c4bb f524 29bc 69c8 b13c
00000190: 020c c7bc 82d1 013c 3458 26bb afdb 933c
000001a0: 0482 033d d5e7 04bd 17ae abbc d5f7 a5bc
000001b0: d021 973c 487d a1bc 1d2d 843c 30ed 823a
000001c0: 7680 023c 535a 013d 2a5a 333c 48ff fe3c
000001d0: 2164 36bb 7247 1bbc ffe6 d3bb 0f0c b5bb
000001e0: bf68 90ba b0d2 6dba 0509 9bbc dcbf bfbb
000001f0: e279 093d 9c13 44bd c866 1bbd ccb9 953c
00000200: e8e4 9abc b707 903c 85ec aa3d aaff 26bd
00000210: 3535 dbbc 0453 bc3b 4bbe 5ebc 3e30 dcbc
00000220: e1dc 953d 2bd9 5abc b23c d4bb 5abe 5dbb
00000230: 226f 3abd bc01 783c 3732 18bc e04c 893c
00000240: f3a1 273c f0e1 96ba 1b78 35bc e19e 683d
00000250: c737 7fbc c895 9ebc e23a e6bc 88b2 f1bb
00000260: 0802 583b 6d04 643c 4e75 47bb 1e0c acbb
00000270: 3625 2ebc 26b9 70bc e28b 8abc e663 c13c
00000280: a2ac 85bc f7ab 75bd e025 153c 3d68 aa3b
00000290: ab70 1b3d 1b74 44bb b8ce 943d c584 993c
000002a0: cc0c 383d 982b 51bb d9b4 b83d 1f23 68bd
000002b0: 0d0b f73c 305f 013c 92a2 f539 cb4c 623d
000002c0: 80f1 5bbc 4584 2fbd 9361 f73c 34dd 0e3c
000002d0: ace5 1b3b 27af dd3d bc7e 78bb dc36 853b
000002e0: cc6a 523b ac55 743c 6619 083d 6faa febb
000002f0: 9cf7 c03c 0203 c73c 212a 27bd a7d7 90bc
00000300: fd24 6dbc c070 363d 853e 14bc 1d1a a3bd
00000310: 324e 003d 5c80 9cbd e13d 00bc 3ca1 a2bc
00000320: 41a8 22bd 1c41 9e3c d84f 89bc 1ceb bbba
00000330: 9832 93bc 9567 993d 5208 973a 4a64 7d3a
00000340: d47a 153d 1760 913b a54c b5bd 151f 5a3a
00000350: b649 123d 426a 5dbc 7d73 19bd a530 99bc
00000360: 06a3 b83c 94d4 a03d fd57 f4bc f599 2a3d
00000370: 31a5 f23c 4552 8abd b54c bdbc 398c 20bd
00000380: 39ed 4d3b edaf e93c 7c6b d1bc 5008 fdbb
00000390: 3270 bebc 43fc 6c3b 65e2 b4bb 80c7 8ebd
000003a0: 3b92 87bd 55f3 bc3d ceec a03d efe3 b4bb
000003b0: 10bd c8bc 729f 4b3c f5cd c1bb adc4 81bb
000003c0: ae84 32bc 32af 7fbd 27de adbb f440 67bd
000003d0: d4ae 83bc ae7b 4a3d 1290 903b 6c89 49bc
000003e0: 972b 17ba 8f77 d53a ea1b 343c daaf 813c
000003f0: 2a7a b4bd 861a 153d f92b bc3d c8c6 e0bc
-0.013374617 -0.011799351 -0.027026191 0.031074708 0.004695115 0.020569196 0.00809454 0.01907438
0.018728146 -0.010592256 0.006857394 0.014080088 0.02827335 -0.029520428 0.0009841006 0.004979106
-0.0041128932 -0.007827795 0.011328989 -0.016507125 -0.001805449 -0.022063104 0.016486231 -0.005009087
0.0038503294 -0.0067496873 0.0011744447 0.011960769 0.0019000346 0.017952628 0.014806048 0.0065651005
-0.017718758 0.008151072 -0.0027181832 -0.013449928 -0.010196071 0.002238406 -0.015485822 -0.022191359
-0.020468256 0.020150047 0.026131393 0.0036116461 -0.018973775 -2.16808e-05 -0.005264185 -0.0065709623
0.00018280397 0.015789535 0.0060357344 0.013985756 0.018123047 -0.07513012 0.008642929 0.009149326
0.014069877 0.019248445 -0.022072649 -0.009307323 -0.012180449 -0.01699839 -0.0013232356 -0.0027413163
0.0043684556 0.002207905 -0.013402672 0.02722362 0.003257007 0.069112726 0.0074971737 -0.023742415
0.015659709 -0.02449489 0.016302366 -0.0077456986 0.04530658 -0.014188122 0.01313743 -0.013748083
0.010378701 -0.008748616 0.021065574 -0.00455632 -0.015778681 0.016245624 0.008643301 -0.001959124
-0.043158703 -0.009214759 0.0065772953 -0.014071597 -0.04311166 0.029009262 0.007045561 -0.0036462923
0.011840275 -0.0059869587 -0.010323753 0.021702008 -0.024297718 0.007923486 -0.0025382163 0.01804909
0.032106414 -0.032447655 -0.020957036 -0.020259777 0.01844874 -0.019713059 0.016134793 0.00099889
0.007965198 0.03158028 0.01094679 0.031127587 -0.0027830678 -0.009477483 -0.006466746 -0.005525119
-0.0011017545 -0.00090722274 -0.0189252 -0.005851729 0.033563502 -0.047870263 -0.037939817 0.018277071
-0.01890798 0.017581804 0.08345894 -0.040771164 -0.02675877 0.005747201 -0.013595174 -0.026878472
0.0731752 -0.013357441 -0.006476962 -0.0033835382 -0.04551614 0.015137132 -0.009289316 0.01676029
0.010231483 -0.0011511426 -0.011075999 0.056792144 -0.015577263 -0.01935853 -0.02810425 -0.007376019
0.0032960195 0.013917071 -0.003043491 -0.005250468 -0.010628989 -0.01469258 -0.016912404 0.023607206
-0.01631767 -0.05997845 0.009103268 0.0052004145 0.037949245 -0.002997643 0.07265991 0.018740067
0.04493408 -0.0031916853 0.09018869 -0.05667412 0.030156637 0.00789623 0.00046851166 0.055249017
-0.013424277 -0.04285075 0.030197894 0.008719731 0.0023788018 0.10824423 -0.0037917336 0.0040653776
0.0032107113 0.014913004 0.033227347 -0.007771782 0.02355557 0.024293426 -0.04081166 -0.017680956
-0.014474151 0.04454112 -0.009048109 -0.07963965 0.031324573 -0.0764167 -0.007827253 -0.019852273
-0.03971124 0.019318156 -0.016761705 -0.0014337036 -0.01796846 0.0749046 0.0011522865 0.00096661283
0.03649409 0.0044365036 -0.088525094 0.00083206716 0.035714827 -0.013514103 -0.037463654 -0.018699953
0.022538673 0.07853046 -0.029827112 0.04165073 0.029619785 -0.06753973 -0.023107866 -0.039196227
0.0031421913 0.02852627 -0.025563948 -0.007721938 -0.023246858 0.0036161102 -0.0055201524 -0.06971645
-0.06619688 0.092260994 0.07857667 -0.005520336 -0.024504215 0.012428151 -0.0059144446 -0.003960213
-0.010895891 -0.06242294 -0.0053060236 -0.05645843 -0.016074575 0.049434356 0.004411706 -0.01230083
-0.0005766688 0.0016286242 0.010992983 0.015830923 -0.088123634 0.036402248 0.091880746 -0.027438536

action_model._discrete_distribution.branches.1.bias f4 [3]
00000000: f0c6 27bc 32f3 5d3c f83d 52bb
-0.0102403015 0.013546752 -0.0032080393

action_model._discrete_distribution.branches.1.weight f4 [3, 128]
00000000: 7d8c 0b3d 316e cb3c 1e90 31bc b8c8 d13c
00000010: a841 05bc b900 a1bb c88c 4f3b b7b6 6e3c
00000020: 92ae 10bd d0f5 7cba f422 893b d178 b23b
00000030: d6f4 9dbc c445 1ebc 1ff7 c6b9 7867 2abc
00000040: 2a18 8b3a 777a 493c 4e80 f7bc b9f5 013b
00000050: 0d8a bc3b 3c9e 1d3c ed1d 983b b6a0 623c
00000060: 3951 06bc 67b5 4739 28d1 3eba f770 ecbc
00000070: 9b21 b5bb 5736 6dbc be3f dd3b 1cbc 79bc
00000080: 931c 2f3c 5bbd aebc 3f15 26bc 1b5b cc3c
00000090: 296a 8f3b c439 73bc c4b1 ce3b 7174 393c
000000a0: 1f3e a73c c060 79bb d7ba c137 27a9 693a
000000b0: f91c dd3b efab 17bb 8f0e 17bc d811 fb3c
000000c0: 0da4 df3b dd79 67bd 1db2 c23b 85c9 11bc
000000d0: c67c b13c 8646 cc3c a09a 813b dff6 d3bb
000000e0: 30e6 b6bc e536 c7b9 ab5e 0d3c 7430 1f3c
000000f0: 5475 8e3c 050f c23b 1325 7abc d238 a0bc
00000100: df13 3139 294e 8abc da21 b3bb 6eb8 11bc
00000110: 6307 61bc bcd1 873c 9424 16bc 230a ec3c
00000120: 6d2b 963c be18 c0bc bb15 26bc 15b8 443c
00000130: a5dc 5dbd cc71 97bc 6f1a 463c e6e6 223d
00000140: 634f 933c 58ad 833c cc8b 99ba df7a 31bc
00000150: af3e 993c a566 92bc 9221 88bc 6459 89bc
00000160: c55e 47bc 3437 293c 8a0b 743d cdcb 6bbb
00000170: 7389 133d 7476 7d3c 5654 82ba f466 9c3c
00000180: 9bc2 503b 928a 493a ec02 553d 0024 243c
00000190: e611 b93c f407 bc3b 4f29 0d3d 978a e9bb
000001a0: 83f2 7abc 708a 5d3c a1a8 0c39 5349 06bb
000001b0: 8480 923c 0f8f 8d3c 5f0b 8bbc 85d4 793a
000001c0: 8365 11bc f64e bbbc 4a98 a5bc a8de 113c
000001d0: e299 85bc 4888 e8bc 825c b13c 0b6e b93c
000001e0: 6317 94bb 27a9 1cbb c846 913c 1f75 31bd
000001f0: 0c4b 7dbb 7796 bf3c 4f7a cabc 95fa 10bd
00000200: 35b3 543d fd90 54bd 14ea e4bc 73b5 aabb
00000210: 52ef 1d3d 0563 873c 3c2d 1b3c 2eb8 973c
00000220: 4ee5 efbb 2e14 fe3b 9cf5 85bc d294 14bd
00000230: 1fe4 293d a96a 94bc b4ba 3abc 4913 253c
00000240: cf07 3e3c 017c 2c3c f339 553c c801 3a3c
00000250: d0b2 b0bc 6346 163b 537a 17bd b6ad 1ebd
00000260: 9410 5ebc 41f3 00bd 688d 8839 f501 e63c
00000270: 9284 e0bb 02c2 43bb fd87 923c fddb b63c
00000280: b42e 7a3d f49d 9ebd 48ea 82bc ead9 25bd
00000290: db78 25bc 33d0 253b ef76 6ebd 7cf3 44bd
000002a0: a765 f4bc 3021 eb3a 494a b4bb b410 443c
000002b0: 5a89 13bd 1233 133d a1ed d9bc 9863 aabc
000002c0: 4a30 a83c 4749 433d 96e3 f4bb fa8f 7a3c
000002d0: 0c4c a6bc 9dcd f8bc 7948 673a ed95 313c
000002e0: 942a 013d e3e0 71bc 0823 28ba 8306 afbc
000002f0: 4a57 c0bc be97 253a 97c5 1a3c 31cf fd3c
00000300: ac31 3eba c728 5bbc de2b 5dbb b2a3 d53b
00000310: b2ca 4c3c a3d4 25bd 2ad2 acbb cf03 d03b
00000320: f0c3 073b 2e35 6d3d aeb7 363d 55ea 1b3c
00000330: a187 bbbb eefc a83b d6fa 543d 0f5d 343c
00000340: 4866 f2bc fe22 9fbc 6fff 2f3c 660a 1fbd
00000350: 7615 a93a 5234 2b3c 208a 96bc a118 563a
00000360: 5abd 26bd 34a9 e1bc 1800 d13c a624 acbc
00000370: 8315 833b eed0 3f3c 4a3f f7bc 9333 5b3c
00000380: b525 58bb f60c b93a 573c d23c a3aa e4bc
00000390: aacf c13c 2cdf 83bc 320f 65bc 2c97 8e3c
000003a0: 90f0 6a3d 92ae 06bd a90a a8bc d5d8 60bc
000003b0: 3109 013c 77b3 59bc 723e f6ba b2c2 973b
000003c0: 83a6 933c e4a0 5f3d 518c f23c e00a 083d
000003d0: 8889 353c 67e4 31bc cd57 e9bc 0a06 fdbc
000003e0: 7e00 233c 469e e4bc 8385 ff39 81f0 74bc
000003f0: e026 003c af79 bdbb 1f55 94bc 534e a23d
0.034069527 0.024832817 -0.010837583 0.025608405 -0.008133329 -0.004913416 0.0031669606 0.01456993
-0.035322733 -0.0009649666 0.004185075 0.0054465313 -0.019281786 -0.009660188 -0.00037949622 -0.010400645
0.001061206 0.012297264 -0.030212548 0.00198303 0.0057537616 0.009620246 0.0046422393 0.013832262
-0.008198076 0.00019045697 -0.00072790915 -0.02886246 -0.0055276877 -0.014478288 0.0067519834 -0.015242603
0.010687965 -0.021330526 -0.010136901 0.024945786 0.004376669 -0.014845315 0.0063078124 0.011319266
0.020415364 -0.0038052052 2.3094397e-05 0.00089134503 0.0067478386 -0.0023143252 -0.00921978 0.030648157
0.0068249763 -0.056512702 0.005941643 -0.008898144 0.021665942 0.024935972 0.0039552003 -0.0064686383
-0.022326559 -0.00037997137 0.008628528 0.009716142 0.01738993 0.0059222006 -0.015267628 -0.019558344
0.00016887438 -0.016882973 -0.005466682 -0.008894069 -0.013734671 0.016579501 -0.009163994 0.028813427
0.018331254 -0.023449298 -0.010137017 0.012006779 -0.0541655 -0.01848688 0.012091263 0.039770983
0.01798219 0.016073868 -0.0011714636 -0.010832517 0.018706648 -0.01787121 -0.01661757 -0.016766258
-0.012168591 0.010328103 0.059581317 -0.003597963 0.036019754 0.015470136 -0.0009943347 0.01909206
0.0031854275 0.000768819 0.05200474 0.010018349 0.022591542 0.005738253 0.034463223 -0.007127117
-0.015316608 0.013521776 0.0001341426 -0.0020490482 0.017883547 0.01728013 -0.016973196 0.0009530264
-0.0088743 -0.0228648 -0.020214219 0.008903183 -0.016308729 -0.028385296 0.021650556 0.02263548
-0.0045193895 -0.0023904534 0.017733946 -0.043324586 -0.0038649468 0.023387177 -0.024716524 -0.035395224
0.051928718 -0.051896084 -0.027943648 -0.0052096187 0.03855831 0.016526708 0.009471234 0.01852044
-0.0073210364 0.0077538704 -0.016352467 -0.03627474 0.04147732 -0.018117266 -0.011397053 0.010075399
0.011598541 0.010527612 0.013014304 0.011352964 -0.02156964 0.0022930137 -0.03698189 -0.038739882
-0.013553757 -0.031481985 0.00026045297 0.028077105 -0.006851741 -0.0029870276 0.01788711 0.022321695
0.061079696 -0.07744971 -0.015980855 -0.040491022 -0.010099615 0.0025301098 -0.058218893 -0.048083767
-0.029833628 0.0017938968 -0.0055020195 0.011966873 -0.03601966 0.035937376 -0.026602568 -0.020799443
0.020530839 0.047677305 -0.0074734194 0.015293116 -0.020299934 -0.030371482 0.000882275 0.010838968
0.031534746 -0.01476309 -0.00064139115 -0.02136541 -0.023479123 0.0006316862 0.009446523 0.030982586
-0.00072553265 -0.013376421 -0.003374807 0.006519758 0.012499498 -0.04048599 -0.005274077 0.0063481103
0.0020716153 0.057912044 0.044608764 0.009516318 -0.0057229553 0.0051571047 0.05199703 0.011008515
-0.029589787 -0.019425865 0.010742052 -0.038828276 0.0012900073 0.010449486 -0.01837641 0.0008167122
-0.040707923 -0.027546503 0.02551274 -0.02101357 0.004000367 0.011707528 -0.030181546 0.0133789955
-0.003298146 0.0014118243 0.025663538 -0.027913397 0.023658592 -0.016097628 -0.013980674 0.017406069
0.057358325 -0.032881327 -0.020512896 -0.013723572 0.007875727 -0.013287417 -0.0018786921 0.004631364
0.018023735 0.054596797 0.029607924 0.033213496 0.011080153 -0.010857678 -0.02848425 -0.030886669
0.009948848 -0.027907502 0.00048736864 -0.014949919 0.0078217685 -0.005782328 -0.018106995 0.079250954

discrete_action_output_shape f4 [1, 2]
00000000: 0000 4040 0000 4040
3.0 3.0

network_body._body_endoder.seq_layers.0.bias f4 [128]
00000000: be86 933b b3c8 65bc e4ca 57bc 84cd 22bb
00000010: 7fd9 7dbc 37b8 78b6 e389 0dbc 8ed5 343c
00000020: 88d1 82bc db86 e5bb 3ef2 073c 9b3d 9bbc
00000030: 48b1 4abc 444f 2fbc 2124 a9bc a704 ba3b
00000040: b789 8ebb a834 fab9 ecbd a5b4 1227 073c
00000050: 1ef6 18bc d4bc 71bb ec8e e53c 4413 26bc
00000060: faf0 38bc bf68 52bc e190 59bc 142b dc3c
00000070: 8f4b 23bb e697 2bbc 814a e0bc b480 a9bc
00000080: 3926 8b3b 2e15 5fbc f151 66b9 bc37 a3bb
00000090: 6c4a 7bbc 49da c736 db65 96bc ec69 37bc
000000a0: 7a1f 6a3c 3366 6138 ab93 c2b5 7aac afba
000000b0: d44a 30bc b75f b7ba 1d76 65ba 6af9 c036
000000c0: c24d c7bb 4e2f 11bc 0ded 0ebb ae0d f83b
000000d0: e2f1 aa3b 7746 44bc fac6 fd3c a560 22bb
000000e0: f54b 1d3d 1fab 39bb 1694 bdbc fe39 ab3b
000000f0: 9399 0ebc 6426 c63b 10e8 58bc c527 bbbb
00000100: c6b6 3a3c 99cd 62bc 913e a4bb 49dd bcbb
00000110: 37f8 0bbc 8019 5ebc 6e0b b43c b344 cd3c
00000120: b22e 7f3b 7e7f 813a bd6c 6cbc 8ff6 89bc
00000130: 6007 1bbc 39b6 aebb f176 8c3c bdbc 3b3a
00000140: 1518 20bb 1299 4bbc face 7eba b809 11bc
00000150: 2aa7 1cbc fb36 283c 8f81 b0bc 5e40 c7ba
00000160: d020 68bc d537 c1bb 315d 0e3c a5f6 c4b9
00000170: 616a c53c f27c 473b eaab dcbb 800c 1bbc
00000180: 0955 4abb 8916 92bc 128d ccbb fb92 a2bc
00000190: d285 9cbc 5b1f c63b 8f4d f1bc 6d1d 5f3c
000001a0: c9e6 0c3c c26b 61bc 0bfc 8d3c dc4b c2b7
000001b0: ccbe 69bc dd41 c23c ae10 fabc 6a5c 3ebc
000001c0: 1be9 afbb 3d59 c9bb 4490 2cbb c338 863c
000001d0: 4660 d83c b116 093d 6247 b9bb e6e4 963a
000001e0: 2c71 103b 7c62 89b8 74d1 7bbc 9a3a 9839
000001f0: 0e3b 5f3c fd8f f139 6627 60bb b53d 4fbb
0.0045021465 -0.014024901 -0.0131709315 -0.0024841735 -0.01549375 -3.7062107e-06 -0.008638832 0.0110372435
-0.015969053 -0.0070046014 0.008297501 -0.018950274 -0.012371369 -0.010700051 -0.02064711 0.005676824
-0.004349913 -0.00047722948 -3.087183e-07 0.008249061 -0.009336023 -0.0036886232 0.028022252 -0.010136429
-0.011287922 -0.012842356 -0.013279171 0.02687601 -0.0024916863 -0.010473227 -0.027379276 -0.020691253
0.0042465 -0.0136158895 -0.00021965035 -0.0049810093 -0.015337568 5.956074e-06 -0.018359115 -0.011194687
0.014289731 5.373936e-05 -1.4497103e-06 -0.0013402842 -0.010760028 -0.0013990317 -0.0008753257 5.7510815e-06
-0.0060822675 -0.008861376 -0.0021808774 0.00756999 0.005216823 -0.011979691 0.030978668 -0.0024776843
0.038402516 -0.0028330756 -0.023141902 0.005225419 -0.008703607 0.006047057 -0.013238922 -0.005711528
0.011396116 -0.013842964 -0.0050123413 -0.005763684 -0.008543066 -0.013555884 0.021978106 0.025057172
0.0038937745 0.0009879915 -0.014430222 -0.016841201 -0.009462208 -0.005331781 0.01714656 0.0007161608
-0.0024428417 -0.0124266315 -0.0009720173 -0.008852415 -0.009561339 0.010267015 -0.021546153 -0.0015201678
-0.014167979 -0.0058965483 0.008689211 -0.00037567798 0.024098577 0.0030439463 -0.006734361 -0.009463429
-0.0030873439 -0.017833011 -0.006242403 -0.019845476 -0.01910678 0.0060462183 -0.029455928 0.0136178555
0.008599945 -0.013758602 0.017332098 -2.3161927e-05 -0.014266681 0.023713047 -0.030525532 -0.011618713
-0.0053683645 -0.0061446712 -0.0026331106 0.016384488 0.026413094 0.033468906 -0.0056542614 0.0011512309
0.0022040112 -6.551013e-05 -0.015369762 0.0002903536 0.01362492 0.00046074382 -0.003420317 -0.0031622474

network_body._body_endoder.seq_layers.0.weight f4 [128, 192]
00000000: 388b a63d d27b 4d3c 1229 2ebe 6884 4a3c
00000010: 11f9 cfbd d226 6dbd bfc5 d5bd d6cf 88bd
00000020: 0c7e bbbc 7626 e03d e71d 683d 0a4f c63d
00000030: 0867 003d a569 ad3d 799d 603c 721e 423b
00000040: 9d56 60bd 7988 5dbd 4358 25bd d82d 7c3d
00000050: c2ab 913d f888 91bd e9e4 173c c28c bfbd
00000060: 2271 e0bd c219 49bc 2cc7 d03d e9f6 41bd
00000070: 4746 45bd c76d 36bd a4d3 62bd 1541 683b
00000080: c2db 903d 0856 e83c 3dcd 333d 51ed b43b
00000090: 5e6e 16be ed43 0b3e a00d 063d 4e2b 9cbd
000000a0: 1b96 afbd 3e87 cebb 6605 b8bd 1c78 a9bc
000000b0: 42d3 e93c b471 233d b3f6 e6bd 4328 7d3d
000000c0: 010d de3b 96a6 e6bd 2aeb 88bd 0a5a 12bc
000000d0: f41c ae3d 1db3 07be 2f43 4cbc e56b febb
000000e0: 26a5 183e 11a6 8f3d 13a9 003d 57b0 193b
000000f0: c888 df3d acc6 b6bd 511c 0d3d 0083 953c
00000100: a570 76bd f658 be3d 8b49 86bd e0c7 fd3d
00000110: c404 10bb f31b 86bd 8b9f 163e 6123 83bd
00000120: 51a3 493d c714 8ebc c450 1d3e ac14 633d
00000130: 3d12 78bc 4cb7 ecbc 13b6 a5bd c1e3 f9bd
00000140: 1707 59bd 6010 1e3d a831 ef3d 6109 513c
00000150: e027 7dbd 2efb 1d3c c810 a1bd d08c 6d3e
00000160: 8dd2 4a3c fdf0 38bc d4f3 ec3d 2617 8d3c
00000170: 967d f1bb b7a3 5f3d 5461 7e3d 4b66 033e
00000180: c6d1 02bd e174 3ebe a666 b03d 8a22 ba3d
00000190: 07f7 033d b612 64bd f645 0abe 83af 783d
000001a0: 18f4 bcbd 48e4 483d 73f6 30be 238c e2bc
000001b0: 1b5c 7e3d 579b febd c76a a6bc 2b88 1e3d
000001c0: e082 813d fd52 353c acd8 053e 5660 3c3c
000001d0: 93d2 16bd d507 74bc 2687 ae3c 369b ddbd
000001e0: 20cc a83d 470e 3ebd 663d 40bd dca7 023d
000001f0: 1dcc 47bd d1b3 d43d 2e01 8fbc 5ed3 f53c
00000200: 2c38 bd3d 730e b8bd c3c1 b9bd 2020 78bd
00000210: b7db 16bd a951 15be 4227 1ebe 1245 b43c
00000220: 7164 9abd 4a6e 233d bf56 d2bc 0e42 efbd
00000230: 3aa6 6d3d 6340 de3b caba 73bd 1c06 243d
00000240: 4360 babc aa6c 3bbd 57e4 d23b 09e3 d53d
00000250: 6e06 c4bc 677f 15bd ac32 2e3b 3367 893d
00000260: 02d4 83bd 40d5 5c3d aaef 6dbb a12d 36bd
00000270: 759d 343d b7a8 b2bd 05e2 5d3b 5829 29bc
00000280: cdff 1f3c b9a1 ecbd 2cd9 dcbc 7642 afbd
00000290: 424a bf3c 25f7 5dbd 69ba c6bb 2c2c 03bd
000002a0: b161 883d d1eb a2bd b61f d4bc ed3b c7bc
000002b0: d9f1 81bc 221e 4c3e 0174 86bc 973c be3d
000002c0: 4c4c 6cbd d926 b4bc 59b8 94bd 54e2 32bd
000002d0: 4b64 aa3d 08b5 c83c 2b6a 583d 3725 913a
000002e0: f163 26be 1783 e5bd a0d8 1bbc 0c32 7f3c
000002f0: 47b3 043d 90c6 75bb d65f dfbd 0a74 5cbd
00000300: 8a61 8cbd c3fb a3bb 0f3a 6cbd 3c13 70bd
00000310: 3d27 ab3c 4b46 8d37 1ebd 8cbc 5d0e f33c
00000320: d112 663d ef49 1abb d61b d1bc 637f 94bd
00000330: 3394 a3bd c236 023e 2146 32bd eb5d e33c
00000340: faac 32bd 5ebc 1bbd 8c68 053d 6214 a93c
00000350: a871 c5bd 5fde 52bd 50a8 cc3d 57fe 0b3d
00000360: 095c 11bd 6015 4c3d 03cb b13d 149f ce3d
00000370: ae72 8abd 1b8b 283d d9a1 fbbc 9926 7c3c
00000380: cb91 c0bd 4793 e43c 9035 eebb 641b 963d
00000390: 2295 763d cd6f 0c3e 8883 1dbd 7f42 a9bb
000003a0: 4bb5 c43c 7dd5 16bc 19f3 b43d 379b 033c
000003b0: bcec 8dbd 13a4 f83d b169 323c 1d90 36bd
000003c0: 95b9 253d 1af6 433d d502 92bc 2a0e 9a3c
000003d0: d31c 5abc c573 9e3d 97fa 81bd 55cc b6bd
000003e0: 9762 d03b 85da 4bbd 1e81 f63d 0162 c8bc
000003f0: 9572 323d e7eb bc3d 0582 bd3d 37d4 ecbc
0.081320226 0.012541728 -0.17007855 0.01236067 -0.101549275 -0.05789835 -0.10438108 -0.066802666
-0.022887252 0.10944836 0.056669142 0.09683044 0.03134826 0.08467416 0.013709419 0.0029620198
-0.0547701 -0.05408523 -0.040367376 0.061567158 0.07112838 -0.07106203 0.009270885 -0.09353019
-0.10959078 -0.012274208 0.10194239 -0.047354612 -0.048162725 -0.044538286 -0.055377617 0.0035439183
0.070731655 0.028361335 0.043896902 0.0055214544 -0.14690539 0.1360013 0.032727838 -0.07625447
-0.08573552 -0.006302743 -0.08985405 -0.020687155 0.028543118 0.039903358 -0.11277523 0.061805975
0.0067764525 -0.112622425 -0.06685479 -0.0089326 0.08501616 -0.1325192 -0.01246719 -0.007764327
0.14906749 0.070140965 0.03141124 0.0023451054 0.10914761 -0.089246124 0.034450833 0.018250942
-0.06016602 0.09294312 -0.06556996 0.12391639 -0.0021975497 -0.065483 0.14709298 -0.06403232
0.049228016 -0.017343892 0.15362841 0.055439636 -0.015141067 -0.028895997 -0.080913685 -0.12201644
-0.052985277 0.038589835 0.11679393 0.012758584 -0.061805606 0.009642405 -0.07864529 0.23198247
0.012379301 -0.011287925 0.11569944 0.017222952 -0.0073697073 0.05459949 0.062104538 0.1283199
-0.031938337 -0.18599273 0.08613329 0.09088619 0.032218006 -0.055681907 -0.1350325 0.060714256
-0.09226245 0.04904583 -0.17281513 -0.027654713 0.062099557 -0.124319725 -0.020314587 0.03870408
0.063237906 0.011067149 0.13070935 0.011497578 -0.036821913 -0.014894445 0.021304678 -0.1082062
0.08242059 -0.046400335 -0.046933554 0.031898364 -0.048778642 0.1038586 -0.017456617 0.030008014
0.092392296 -0.08987131 -0.0907016 -0.06057751 -0.03683063 -0.14581932 -0.15444663 0.022005592
-0.07538689 0.0399001 -0.02567613 -0.11682521 0.058019854 0.006782578 -0.059504308 0.04004489
-0.02275098 -0.045757927 0.0064359116 0.10443694 -0.023928847 -0.036498453 0.0026580496 0.06709137
-0.06436922 0.05391431 -0.003630618 -0.04447711 0.044095475 -0.08723586 0.0033856642 -0.0103247985
0.0097655775 -0.11554284 -0.026959024 -0.08557598 0.023350839 -0.054190774 -0.0060647023 -0.032024547
0.06659258 -0.07955135 -0.025894027 -0.024320567 -0.015862392 0.1993337 -0.016412737 0.092889
-0.05768995 -0.02199118 -0.07261724 -0.043672875 0.083199106 0.024500385 0.052835625 0.0011073713
-0.16249062 -0.11206644 -0.009512097 0.015575897 0.032397535 -0.0037502386 -0.10906951 -0.0538216
-0.068545416 -0.0050043776 -0.057672556 -0.058612093 0.020892734 1.6841243e-05 -0.017180022 0.029669935
0.05617029 -0.0023542603 -0.025525969 -0.072508596 -0.07987251 0.12716201 -0.04352391 0.027754745
-0.043621995 -0.038021438 0.032570407 0.020639602 -0.09640819 -0.0514816 0.099930406 0.034178104
-0.035488162 0.049825072 0.086812995 0.100889355 -0.06760155 0.041148286 -0.030716823 0.015390062
-0.09402808 0.027902259 -0.0072695687 0.07329443 0.060200818 0.13714524 -0.038455516 -0.0051653977
0.024012228 -0.009206173 0.0883543 0.008032612 -0.06929919 0.1214067 0.010889457 -0.04457103
0.040460188 0.047842123 -0.017823616 0.018805582 -0.013312536 0.07736925 -0.06346624 -0.08925692
0.006359409 -0.049768943 0.12036346 -0.024460794 0.043566305 0.09224682 0.09253315 -0.028909786

network_body._body_endoder.seq_layers.2.bias f4 [128]
00000000: 6bd9 763c 2a72 9cbb 3f5f 753c c863 1d3c
00000010: 5d73 86bc eb8a 12bc ba3a 193b 2c17 09bc
00000020: 4856 5ebc 58c1 33bc cc81 b3b9 70d8 1e3c
00000030: e6b2 3e3c 9dba b23a 69df ddbb dc8c 16bc
00000040: 6500 e8ba 1663 4bbc 4103 19bc 57ba 553b
00000050: 4364 083b 33e2 cb3c b774 2abc 53b6 28bc
00000060: 7ddf e03b d32d 453c 6281 4cbc d799 133b
00000070: 03ec 223c f4f8 1dbc 9705 19bc 7d7b ceba
00000080: 376f 58bc 34e8 ed3b 4960 edbb 6f4a 973a
00000090: f580 a7ba 3891 ed3b 7a5c 973a db31 0ebc
000000a0: 7a3d 163a 0bdb e53b c8d4 34bb 9a27 6abc
000000b0: cd2f 9eba cb01 fabb 7aee 643a bb12 18bc
000000c0: 57e6 9d3c 76cb a8bb 1888 ecbb 59c0 8c3b
000000d0: f446 c2bb f60b 08bc c537 3db7 a78d 0f3c
000000e0: c238 fc3b 8921 eb3b 1884 023a 5abf b13b
000000f0: 59df 10bc 3982 003c 3800 c43b 6b27 1cbc
00000100: 8608 74bc e9d3 49bb 8af9 a93c 3584 bebb
00000110: 9dba c439 1324 8c3b d511 1d3c 4191 153c
00000120: 9647 b8bb 3551 47bc 9545 173c 69f6 4bbc
00000130: 5a54 113c a23d 47bc 54ad b33b d401 043c
00000140: 26b2 3cbc 6059 0ebb c0c4 73bc aa79 33bc
00000150: a538 88bc c10b cb3b b683 e2bb 8d32 04bc
00000160: ae71 3c3c 18ae d13b 3ca4 683c 93ae 713c
00000170: 2511 023c 2e44 853a ece8 66bc cede bdbc
00000180: ba18 cbbb 1a3b 32bc f1a2 8dbc 9cd0 a3bb
00000190: 099a d1bb 74da d4bb d0ae 59bc 22b6 4d3b
000001a0: bb24 8dbb 979a 8bbc e939 3ebc 3f7f 47bb
000001b0: cc98 85bb bd18 a33c 41a7 0cbc 56f0 4abc
000001c0: 2836 74bb f509 0439 36a7 d93c e673 25ba
000001d0: e4e7 c7b8 f910 423b 714b 87bc b67c a23c
000001e0: 939b 38bb a663 d83b 838b 57bc 5678 9c3a
000001f0: a38c d13a e349 983b a565 8d3c 5b4e 853a
0.015066485 -0.0047743516 0.014976322 0.009606309 -0.016412431 -0.008944253 0.002338095 -0.008367341
-0.013570376 -0.01097139 -0.00034238247 0.009695157 0.011639332 0.0013635937 -0.0067710173 -0.009188857
-0.0017700313 -0.012413761 -0.009339155 0.0032612288 0.0020811714 0.024888134 -0.010403804 -0.010297376
0.0068625794 0.012034851 -0.012482019 0.0022522116 0.009943965 -0.009641875 -0.009339712 -0.0015753355
-0.013210109 0.007260347 -0.007244144 0.0011542569 -0.0012779521 0.0072499774 0.0011547946 -0.008678879
0.00057312066 0.0070146373 -0.0027592648 -0.014291668 -0.0012068689 -0.0076296083 0.00087330455 -0.009281809
0.019274874 -0.0051512076 -0.007218372 0.0042953906 -0.0059288684 -0.008303633 -1.1278263e-05 0.0087618
0.0076971957 0.0071756286 0.000497879 0.005424422 -0.008842313 0.0078435475 0.0059814714 -0.009530882
-0.01489461 -0.0030796474 0.020748872 -0.0058141 0.0003752307 0.0042767613 0.009586771 0.0091288695
-0.005623768 -0.012165357 0.009232898 -0.0124488855 0.008870209 -0.0121606905 0.005483309 0.0080570765
-0.011517083 -0.0021720752 -0.014878452 -0.0109543 -0.016628573 0.0061964695 -0.006912674 -0.008068693
0.011501713 0.0063989274 0.014199313 0.014751094 0.007938658 0.0010167414 -0.014093619 -0.02317753
-0.006198016 -0.010878349 -0.01728961 -0.0049992334 -0.0063965362 -0.006495768 -0.013286307 0.0031389077
-0.004307357 -0.017041488 -0.011610487 -0.0030440835 -0.0040770527 0.019909257 -0.008584798 -0.012386402
-0.0037263725 0.0001259221 0.02656899 -0.00063115207 -9.5322524e-05 0.0029612167 -0.016515465 0.019834857
-0.0028168901 0.006603676 -0.013155821 0.0011937718 0.0015987348 0.00464748 0.017260382 0.0010170446
