results/test5/CharacterBehav/CharacterBehav-1049985.onnx (onnx, 700066 bytes, 12 tensors)

109 f4 [1, 512, 128]
0	0x3d50376b	0.0508341
1	0xbd0e2e7a	-0.034712292
2	0x3e155906	0.14584741
3	0x3e13ab5e	0.1442084
4	0xbdcdd799	-0.100508876
5	0xbd0ab295	-0.033861715
6	0x3cb64c02	0.02225304
7	0xbe04bb40	-0.12962055
8	0xbdf3bf3a	-0.11901708
9	0xbc8c6bf2	-0.017141316
10	0x3d938d9c	0.07204744
11	0xbc65baf3	-0.014021623
12	0xbd6fb84a	-0.05852536
13	0x3e27f2e5	0.1640125
14	0xbd2cfabc	-0.042231306
15	0x3b3c05dc	0.0028690016
16	0x3dfb6bda	0.122764304
17	0xbe0ba900	-0.13638687
18	0xbda3396f	-0.07969939
19	0xbd692638	-0.056921214
20	0xbcdee1ab	-0.027207216
21	0x3e1c18d8	0.15243852
22	0x3e3a9e59	0.18224467
23	0x3e0a2013	0.13488798
24	0xbe117b65	-0.14207228
25	0x3dd2906a	0.10281451
26	0xbc52d12c	-0.012867253
27	0x3df32a57	0.1187331
28	0xbd7688e8	-0.060189158
29	0xbd721076	-0.05909773
30	0x3e102c95	0.14079507
31	0x3e39ae7e	0.1813297
32	0x3ddb4936	0.10707323
33	0xbcde671e	-0.02714878
34	0xbe0625ee	-0.13100407
35	0xbccd6b26	-0.025075506
36	0x3da3bc53	0.07994904
37	0xbd949a0f	-0.07255947
38	0x3debc1db	0.11511584
39	0x3d9d02a0	0.07666516
40	0xbd05fa3f	-0.032709356
41	0xbe0d8b34	-0.13822633
42	0x3e0b631c	0.13612026
43	0xbd9b1868	-0.075730145
44	0xbdb1a90e	-0.08674823
45	0x3ceec24b	0.02914538
46	0xbcbd950a	-0.023142356
47	0x3cf21140	0.029549241
48	0x3cc74686	0.02432562
49	0xbcb0a45a	-0.021562744
50	0x3d67c991	0.056588713
51	0x3d9bbf3d	0.07604835
52	0x3b53a501	0.0032294395
53	0xbe067e89	-0.13134207
54	0xbdf126dd	-0.11774991
55	0xbe071cec	-0.13194627
56	0x3d1eb3b9	0.038745616
57	0xbe726667	-0.23671876
58	0x3b9e43ee	0.004829875
59	0xbd937d91	-0.07201684
60	0xbe73c42e	-0.23805305
61	0x3ccbe7f7	0.024890883
62	0x3ce77d2e	0.028257933
63	0x3ca4ebca	0.020131964
64	0x3bbdcc9b	0.005792213
65	0xbd2c6df3	-0.042097043
66	0xbe233948	-0.1593982
67	0x3dd100bd	0.10205219
68	0x3e2a719f	0.16644906
69	0xbe177f1e	-0.14794585
70	0xbddd2bd5	-0.10799376
71	0xbc0b52b4	-0.008503605
72	0x3e03dccd	0.12877198
73	0x3d807042	0.062714115
74	0x3c867552	0.016413365
75	0xbd5e97dd	-0.054344047
76	0xbd232c2c	-0.039837047
77	0x3e0f59a7	0.13999043
78	0x3dd4dacc	0.10393295
79	0x3e082594	0.13295585
80	0x3e119cbc	0.14219946
81	0x3e017b8e	0.12644789
82	0x3e0e00f1	0.13867547
83	0xbd68a126	-0.056794308
84	0x3d91c4eb	0.07117637
85	0xbd5b2a40	-0.05350709
86	0x3e1759d6	0.14780363
87	0xbdecc9a7	-0.115619
88	0xbde899fa	-0.11357494
89	0xbd2c2bcd	-0.04203396
90	0xbc509b97	-0.012732408
91	0xbd81ae6a	-0.06332095
92	0xbd960db5	-0.07326833
93	0x3dc3a445	0.09552816
94	0xbda44406	-0.08020787
95	0xbdf7b80b	-0.1209565
96	0xbdbb79a0	-0.091540575
97	0xbd19264d	-0.037390042
98	0x3d0eb732	0.034842677
99	0x3d94f9ba	0.07274194
100	0xbd91b2c1	-0.07114173
101	0xbb929672	-0.004473501
102	0x3d229f8d	0.03970294
103	0x3dc2692e	0.09492718
104	0xbda6076c	-0.08106884
105	0xbdd4ac40	-0.103844166
106	0x3e0a4389	0.13502325
107	0xbc9215f9	-0.017832743
108	0xbd1bb99e	-0.038018815
109	0xbdedf456	-0.11618869
110	0x3ad3973a	0.0016143091
111	0x3dc600ca	0.09668119
112	0xbda9b50a	-0.082864836
113	0xbe02acfa	-0.12761298
114	0xbb8d0cdf	-0.004304513
115	0xbe090fb1	-0.13384892
116	0x3e28eec4	0.16497332
117	0x3c92de02	0.017928127
118	0x3dd13972	0.10216035
119	0xbd7e5c5f	-0.06209981
120	0xbe0d0744	-0.13772303
121	0x3e10a45b	0.14125197
122	0xbc7519e1	-0.014959783
123	0xbdef5566	-0.1168621
124	0xbd457b37	-0.04821321
125	0x3c1cdd29	0.009574213
126	0xbe40fd40	-0.18846607
127	0xbdde79b9	-0.108630605
128	0xbd7c5a9b	-0.061609846
129	0x3e15954e	0.14607736
130	0xbde41dfb	-0.11138531
131	0x3e25a6e1	0.1617694
132	0x3df73efd	0.12072561
133	0x3d8ad94f	0.067797296
134	0xbca7221e	-0.02040201
135	0xbd80f946	-0.06297545
136	0x3ca882a7	0.020570112
137	0xbe177bda	-0.1479334
138	0xbd169c61	-0.03677023
139	0x3da50b4d	0.08058796
140	0xbbb4faf9	-0.0055230823
141	0xbdd881de	-0.10571645
142	0xbd162678	-0.03665778
143	0xbbede63f	-0.0072601135
144	0xbbf0eed4	-0.0073526893
145	0x3cfb7d01	0.030699255
146	0x3dfc48cd	0.12318573
147	0x3e00ecbc	0.12590307
148	0xbd8ae522	-0.06781985
149	0xbde69a20	-0.11259866
150	0xbe055b4f	-0.13023113
151	0x3ca8784c	0.020565175
152	0xbd0b483b	-0.03400443
153	0xbdf072f8	-0.117406785
154	0xbd2d6bd9	-0.04233918
155	0xbdc8ca4d	-0.09804211
156	0xbdba1813	-0.09086623
157	0xbd91bc0c	-0.07115945
158	0x3df0f1aa	0.11764844
159	0x3d952845	0.072830714
160	0x3d1c5481	0.038166527
161	0x3ddd3e5d	0.108029105
162	0x3e1467f7	0.14492784
163	0xbd537816	-0.051628195
164	0x3daa5c4b	0.08318385
165	0xbc7b62b3	-0.015343356
166	0xbdaf8993	-0.08571162
167	0xbda00856	-0.0781409
168	0x3cfbab2f	0.030721275
169	0xba666c26	-0.0008789919
170	0x3daa9b87	0.08330446
171	0x3e2a0ce1	0.16606475
172	0x3e04d5f3	0.1297224
173	0x3d7df9e8	0.062005907
174	0x3dc145ff	0.09437179
175	0x3b38f7e5	0.0028223929
176	0xbde8cc96	-0.11367147
177	0xbc92f6ed	-0.017940009
178	0x3d05ba62	0.03264845
179	0xbcb8460c	-0.022494338
180	0x3e06f7b0	0.13180423
181	0xbb49545e	-0.0030720453
182	0xbe308eb7	-0.17241941
183	0xbcb99c52	-0.022657547
184	0xbde3e33d	-0.11127327
185	0xbd955938	-0.07292408
186	0x3d31efb6	0.043441497
187	0x3df49d76	0.11944096
188	0x3e4d99a5	0.20078142
189	0x3db010e8	0.085969746
190	0xbdb0931a	-0.086218074
191	0x3d0c4390	0.03424412
192	0xbe19f14f	-0.15033458
193	0x3e0ebc6f	0.13939069
194	0xbd11b771	-0.035575334
195	0x3cd1bb70	0.025602072
196	0xbdbcc381	-0.09216977
197	0x3d56ba22	0.052423604
198	0xbdbbdbc5	-0.09172777
199	0xbd9d916f	-0.07693755
200	0xbc99aa92	-0.018758092
201	0x3a831b95	0.0010002727
202	0x3c5c47ec	0.013444882
203	0xbe2ab2a3	-0.16669707
204	0xbdeb79ce	-0.11497842
205	0xbe2be6ad	-0.16787215
206	0xbdb33684	-0.087506324
207	0xbd1db124	-0.038499013
208	0x3dce02f6	0.100591585
209	0x3d41b53c	0.04729198
210	0xbe0c0381	-0.13673212
211	0x3dbd09ec	0.09230408
212	0xbd9564f3	-0.07294645
213	0x3d8f7534	0.070047766
214	0xbd135482	-0.035969265
215	0xbe04213e	-0.12903306
216	0xbe1369b7	-0.14395796
217	0x3ddbefbc	0.10739085
218	0xbe13740b	-0.14399736
219	0xbcb14011	-0.021636995
220	0x3d8b2eeb	0.06796058
221	0x3da4b2b2	0.08041896
222	0x3d0edbcc	0.034877583
223	0xbdb5ff8f	-0.088866346
224	0xbe0887a1	-0.13332988
225	0x3c1dd127	0.009632385
226	0xbd8d3f47	-0.06896835
227	0x3dbfb7ea	0.09361251
228	0x3d607311	0.054797236
229	0xbc85ebbd	-0.01634776
230	0x3db71423	0.08939388
231	0xbe023db1	-0.12718846
232	0x3dd57fbb	0.10424753
233	0x3dabc3e9	0.08386976
234	0x3c91e060	0.017807186
235	0x3caad7ca	0.02085485
236	0x3ddf1d44	0.10894254
237	0x3def5f32	0.11688079
238	0x3dd1d3dd	0.10245488
239	0x3e1a7d60	0.1508689
240	0xbdb7f36b	-0.08981975
241	0x3cd0cc0a	0.025487918
242	0x3de812e7	0.1133173
243	0x3d55821e	0.052126043
244	0x3dee50d2	0.11636509
245	0xbc6c40b6	-0.014419725
246	0x3e28589f	0.16440056
247	0x3c899b5e	0.016797718
248	0x3e2bf3ad	0.16792174
249	0xbbb9560f	-0.005656011
250	0xbddce681	-0.10786153
251	0x3dfe77ae	0.12425171
252	0xbcecd09c	-0.028908066
253	0x3d5bbdd6	0.05364784
254	0xbd08a09c	-0.033356294
255	0xbc8e76f0	-0.017390698

110 f4 [1, 512, 128]
0	0x3dc349ca	0.095355585
1	0x3d93c223	0.07214763
2	0x3e093ec6	0.13402852
3	0x3d997541	0.074930675
4	0xbdaa7547	-0.0832315
5	0xbce2c4f9	-0.027681815
6	0xbde2854c	-0.110605806
7	0xbcf586d7	-0.029971523
8	0x3c978e1a	0.018500376
9	0x3c0af693	0.008481639
10	0x3d9ef2d9	0.07761163
11	0x3d45548b	0.04817633
12	0xbdac1bf0	-0.08403766
13	0xbc3f0117	-0.011657975
14	0xbd7053af	-0.058673557
15	0x3deb6456	0.11493747
16	0xbe1db823	-0.15402274
17	0x3c81ebd2	0.015859518
18	0x3d78d565	0.060750384
19	0x3d947e92	0.07250704
20	0x3dcbbf9b	0.09948655
21	0xbd9716c7	-0.07377391
22	0xbe0f13f0	-0.1397245
23	0x3e1984d8	0.14992082
24	0x3e0f8fce	0.14019701
25	0xbe0fa644	-0.14028269
26	0x3c3bcc7e	0.011462329
27	0x3e0a92b0	0.1353252
28	0x3b72a825	0.0037026491
29	0xbc205b8f	-0.009787454
30	0x3d9a2f1b	0.07528516
31	0xbde4524d	-0.1114851
32	0x3d51cce5	0.051220793
33	0x399d7d59	0.00030038765
34	0xbaa8d118	-0.0012879698
35	0x3df726c6	0.12067942
36	0x3dc73d01	0.097284324
37	0x3e041fe3	0.12902789
38	0x3e252615	0.16127808
39	0x3e30a789	0.1725141
40	0x3e547aca	0.20749965
41	0x3c449b6c	0.011999946
42	0x3dfecf14	0.12441841
43	0x3d3a8dee	0.04554551
44	0x3d1252dd	0.035723556
45	0xbe34930a	-0.17634216
46	0x3d3fc773	0.04682107
47	0xbdbb4e4c	-0.09145793
48	0x3d8a8915	0.067644276
49	0x3d71c170	0.059022367
50	0x3d2863ff	0.04111099
51	0x3df859ce	0.12126504
52	0xbdeb275a	-0.11482115
53	0x3d29b578	0.041432828
54	0x3db4d536	0.08829729
55	0xbdb432ec	-0.08798775
56	0xbe022082	-0.12707713
57	0x3dab0aa0	0.08351636
58	0x3ced27f2	0.028949711
59	0x3d6715f3	0.056417417
60	0xbc808c27	-0.01569183
61	0xbd7fc9c9	-0.062448297
62	0x3b705cbd	0.003667637
63	0x3da3ef28	0.080046
64	0xbd29eeda	-0.041487552
65	0x3c9fdec5	0.019515404
66	0x3a9e8c61	0.001209628
67	0x3dbe7c2b	0.09301027
68	0x3db7ab01	0.08968163
69	0x3dcb0752	0.099135056
70	0x3dab657b	0.08368965
71	0x3d4950d3	0.049149346
72	0xbb2f829b	-0.0026780728
73	0x3dca7278	0.098851144
74	0xbe2cd8b7	-0.16879545
75	0x3df8cd79	0.12148566
76	0x3c8ff2ae	0.017571773
77	0x3bcbdc06	0.006221297
78	0x3d968b89	0.07350833
79	0x3c76ba1b	0.015059019
80	0xbd5d0b77	-0.05396601
81	0xbd642cd7	-0.055706825
82	0x3d0f6638	0.035009593
83	0xbc787bf6	-0.015166273
84	0xbccb0dde	-0.024786886
85	0xbdb1f0c6	-0.08688502
86	0xbdb45b9e	-0.08806537
87	0xbd0e45c5	-0.034734506
88	0xbd7409b0	-0.05957955
89	0x3d2e0e28	0.04249397
90	0xbe4408b9	-0.19143952
91	0xbdb92936	-0.090410635
92	0xbe099301	-0.13434984
93	0xbd32fa67	-0.043695834
94	0xbe02fd8d	-0.12792034
95	0x3d346153	0.044038128
96	0x3d239b72	0.039943166
97	0x3dbe659e	0.09296726
98	0x3b005d2e	0.001958679
99	0xbd9a1bda	-0.075248435
100	0xbda27e7f	-0.079342835
101	0x3e0351e7	0.12824212
102	0x3cee1139	0.029060947
103	0xbd14e243	-0.036348592
104	0xbe46f0a3	-0.19427733
105	0xbddbfa9f	-0.107411616
106	0x3e159900	0.14609146
107	0xbd836d7f	-0.06417369
108	0xbdd47ea4	-0.10375717
109	0x3d2ca4be	0.042149298
110	0x3dace16d	0.08441434
111	0xbae74329	-0.0017643917
112	0x3de79afe	0.11308859
113	0xbbf53227	-0.0074827853
114	0xbc6b37ed	-0.014356595
115	0xbd828521	-0.063730486
116	0xbdb6d9c0	-0.08928251
117	0x3df67ca4	0.12035492
118	0x3d9f5b05	0.077810325
119	0x3dc53b85	0.09630493
120	0xbe09d2cc	-0.13459319
121	0x3d89d9aa	0.06730969
122	0xbe27b5cb	-0.16377942
123	0x3c13b4f1	0.009015308
124	0x3d96d382	0.07364561
125	0x3e35b4b5	0.17744716
126	0xbc3abb72	-0.0113972295
127	0xbe286fce	-0.164489
128	0xbdd1f03a	-0.10250898
129	0xbd3e9b18	-0.046534628
130	0x3e094c4a	0.13408008
131	0xbe158ede	-0.14605281
132	0x3d9692b6	0.07352202
133	0x3daec22e	0.085331306
134	0x3d41c3cf	0.04730588
135	0x3dc670f0	0.0968951
136	0xbd50c87e	-0.050972454
137	0xbd8e0541	-0.06934596
138	0x3df78509	0.12085921
139	0xbd2788e6	-0.04090204
140	0xbd56838e	-0.052371554
141	0xbcf78781	-0.03021598
142	0xbce33c22	-0.027738634
143	0x3cb89d57	0.022535963
144	0xbbf004b5	-0.00732478
145	0xbe0f0d67	-0.13969956
146	0xbd946ad4	-0.07246938
147	0x3e1296a1	0.14315273
148	0xbe090f1f	-0.13384674
149	0x3d267828	0.040641934
150	0xbe1977cd	-0.14987107
151	0xbe07e932	-0.1327255
152	0x3d9e270d	0.07722292
153	0x3cf86c1f	0.030324994
154	0x3b9b64a1	0.0047422205
155	0x3e06fd85	0.13182648
156	0xbe0ea899	-0.13931502
157	0x3dad49b7	0.084613256
158	0xbd106dd6	-0.035260998
159	0x3d12aeef	0.03581136
160	0x3d86d904	0.06584361
161	0x3cd26847	0.025684489
162	0xbd8130b9	-0.06308121
163	0x3d67f570	0.05663055
164	0x3dbd01fc	0.09228894
165	0xbd69b9eb	-0.05706207
166	0xbe273095	-0.16327126
167	0x3e04ef8a	0.12982002
168	0xbe433ec8	-0.19066918
169	0x3ccc0a55	0.02490727
170	0xbe07c49e	-0.13258597
171	0xbe15e78e	-0.14639112
172	0x3c6fabbe	0.014628349
173	0xbdaa4d5c	-0.083155364
174	0x3c0bde74	0.008536924
175	0x3dc1fade	0.09471677
176	0x3e1620e1	0.1466098
177	0x3e06161a	0.13094369
178	0x3dc3dcd7	0.09563606
179	0x3d076857	0.03305849
180	0x3e16c7b4	0.14724618
181	0xbc552a15	-0.013010521
182	0x3e077ecd	0.13231964
183	0x3d33cde4	0.043897524
184	0xba7acb3e	-0.00095670286
185	0xbcca01e1	-0.024659099
186	0x3d2b33a1	0.041797284
187	0x3e09014b	0.133794
188	0xbc96b73c	-0.01839792
189	0xbe0ab7f0	-0.13546729
190	0xbdbc4cc3	-0.09194329
191	0x3e1d0673	0.15334491
192	0xbce0f70b	-0.02746155
193	0x3d557434	0.052112773
194	0x3d999837	0.07499736
195	0x3da0cbe4	0.07851389
196	0x3df1b170	0.11801422
197	0x3e28072e	0.16408989
198	0x3d9bd045	0.07608084
199	0x3d400702	0.046881683
200	0xbd3383f1	-0.043827
201	0xbd3ecbf2	-0.046581216
202	0xbc9d05e0	-0.01916784
203	0xbdee5d78	-0.116389215
204	0x3b9619b6	0.0045807017
205	0xbdf4a6cf	-0.11945879
206	0xbd9ac9b1	-0.07558001
207	0xbe02c9bd	-0.1277227
208	0x3cde4eab	0.027137121
209	0x3acc17a8	0.0015571015
210	0x3de81008	0.11331183
211	0xbcf1d37e	-0.029519793
212	0x3d830180	0.063967705
213	0x3d9de1e1	0.077090986
214	0x3e146fee	0.14495823
215	0x3dc286c7	0.09498363
216	0x3db36a3c	0.08760497
217	0x3e124729	0.14284958
218	0x3dcf0fce	0.101104364
219	0x3daee62e	0.08539997
220	0xbd118794	-0.035529688
221	0xbdee8d91	-0.116480954
222	0xbdee4d13	-0.116357945
223	0xbda96a3e	-0.08272217
224	0x3da5164d	0.08060894
225	0xbd4aaf99	-0.04948387
226	0x3e00cb04	0.12577444
227	0xbe10f10b	-0.1415445
228	0x3d49a74d	0.049231816
229	0x3d1a0d10	0.037610114
230	0x3dffbd53	0.124872826
231	0x3d981222	0.074253336
232	0x3e08a1e9	0.13343014
233	0xbcf5693e	-0.02995741
234	0xbdfc87e3	-0.12330606
235	0xbd34991a	-0.04409132
236	0xbca84205	-0.020539293
237	0x3d522a0d	0.051309634
238	0xbdcd487d	-0.10023592
239	0x3e0b3c4a	0.13597217
240	0x3ca3e382	0.020005945
241	0x3e0fdcfb	0.14049141
242	0x3e0b47a1	0.13601543
243	0x3dc0188d	0.09379683
244	0x3bcb4646	0.0062034456
245	0xbd6b5698	-0.05745563
246	0xbe1b5bbc	-0.15171713
247	0x3e0105f6	0.1259993
248	0x3ca322e4	0.019914098
249	0xbdc4ead6	-0.09615104
250	0x3d9c11f9	0.076206155
251	0xbdb3d87d	-0.08781526
252	0x3d8ad30f	0.067785375
253	0x3cebe3b9	0.02879511
254	0xbdd916bd	-0.1060004
255	0x3dce1f5c	0.10064575

111 f4 [1, 1024]
0	0xbbb0ba63	-0.005393313
1	0x3b0c88c8	0.0021443833
2	0x3ca3ec01	0.020009996
3	0xbc6289b7	-0.013826779
4	0x3a50d674	0.00079665263
5	0xbbae2389	-0.0053142947
6	0xbc4db295	-0.012554784
7	0x3bc81848	0.00610641
8	0x3b9329ec	0.0044910815
9	0xb9f36ce6	-0.00046429707
10	0x3c34d724	0.011037622
11	0x3cc04415	0.023469964
12	0x3ca9d944	0.020733483
13	0xbbce4893	-0.0062952726
14	0xbcf47f30	-0.029845804
15	0x3c7beb02	0.015375854
16	0x3af4fad5	0.0018690476
17	0xbbe90322	-0.007110969
18	0xbb9997ae	-0.004687271
19	0x398a64d2	0.00026396528
20	0x3b463321	0.0030242878
21	0xbbe87acf	-0.007094718
22	0xbc4cbe6c	-0.012496572
23	0x3c5d5f15	0.013511439
24	0xbbb38874	-0.005478913
25	0xbbd960a7	-0.0066338363
26	0xbc87d42f	-0.01658067
27	0x3abcfacf	0.0014418009
28	0xbb47d40c	-0.003049138
29	0xbca98895	-0.02069501
30	0xbc8036f8	-0.015651211
31	0x3c9e4d2e	0.019323912
32	0x3cca7527	0.024714066
33	0x3c468695	0.012117048
34	0x3b5914b6	0.0033123917
35	0x3cb2cd60	0.021826446
36	0x3d15e1c9	0.03659228
37	0x3c98c671	0.018649312
38	0xbc84117a	-0.016121615
39	0xb9411bb3	-0.00018416233
40	0xbca8906d	-0.02057668
41	0xbc67d232	-0.014149236
42	0x3c924342	0.017854337
43	0x3c506463	0.012719247
44	0x3b6da723	0.0036262951
45	0x3c0e7d1c	0.008696821
46	0x3c911b96	0.01771335
47	0x3c496ecb	0.0122944815
48	0xbc3ba28a	-0.011452327
49	0x3ca16a9d	0.019704157
50	0x3b600b44	0.0034186402
51	0x3c6d521c	0.014484908
52	0x3c80f8c0	0.015743613
53	0x3c8fddcc	0.017561816
54	0xba31adc2	-0.0006777906
55	0xbcddfd63	-0.027098363
56	0x3c223ba6	0.009901917
57	0xbc3efe08	-0.011657245
58	0x3c45bfe9	0.012069681
59	0xbb4e2cae	-0.0031459737
60	0xbd4d17c3	-0.05007149
61	0x3b8adbe1	0.0042376374
62	0xbb7cea55	-0.0038591821
63	0x3c86f275	0.016473034
64	0xbbcfa0c8	-0.0063363053
65	0xbbc0c803	-0.0058832183
66	0xb9c363fb	-0.0003726779
67	0xbc81c55d	-0.01584118
68	0xbcfb67cb	-0.03068914
69	0x3bd474ad	0.0064836354
70	0x3c57bdb3	0.013167786
71	0xbbd26d04	-0.006421687
72	0x3c510a32	0.012758778
73	0xb9f39fc9	-0.0004646762
74	0xbc9bfbbc	-0.019040935
75	0xbc4b74b6	-0.012417963
76	0x3cb4b039	0.022056686
77	0xbaa3da68	-0.0012501003
78	0x3cfaa4aa	0.030596096
79	0xbc5fead8	-0.013666831
80	0xbca25319	-0.019815015
81	0xbc763035	-0.015026142
82	0x3c07cf25	0.008289133
83	0x3c80871b	0.015689423
84	0xbb8d87f8	-0.0043191873
85	0xbcb4e5da	-0.022082258
86	0xba8af96a	-0.0010602896
87	0xbd289cb5	-0.041165072
88	0x3c3eebcc	0.011652898
89	0x3c2f8000	0.01071167
90	0x3ad96dc4	0.0016588499
91	0xbcb9d709	-0.022685545
92	0xbc7491ce	-0.014927341
93	0x3b9718f5	0.0046111294
94	0xbbbf9d91	-0.005847641
95	0x3b9a56b3	0.0047100424
96	0xbae58aab	-0.001751264
97	0x3babdc00	0.005244732
98	0x3c2d556b	0.010579447
99	0xbc60fcea	-0.013732174
100	0x3b68f38b	0.0035545554
101	0xbcbc23d1	-0.022966297
102	0xbb27820a	-0.0025559687
103	0x3c78a877	0.015176884
104	0x3bb47545	0.0055071437
105	0x3a377eda	0.00069997984
106	0xba09f6e2	-0.00052629237
107	0xbc72db02	-0.014822723
108	0xbd00a122	-0.03140367
109	0xbca052a0	-0.019570649
110	0xbb93609d	-0.004497601
111	0xbb36bd0e	-0.0027883681
112	0xbbd8e615	-0.006619225
113	0x3c7314a2	0.014836462
114	0xbd24120f	-0.040056285
115	0x3b3f7b37	0.002921773
116	0xbcbe6aae	-0.023244228
117	0x3c278349	0.010224172
118	0x3bb0181a	0.005373967
119	0x3b82770e	0.0039814776
120	0x3bae0b3a	0.005311397
121	0x37c4e323	2.347079e-05
122	0x3c0c6193	0.008568185
123	0xbb65962d	-0.0035032139
124	0x3c256a2b	0.010096113
125	0x3ca75720	0.020427287
126	0x3c23d053	0.009998399
127	0x3c27a5e0	0.010232419
128	0x3c9c7f86	0.019103777
129	0x3a7fbc1b	0.0009755508
130	0x3c889665	0.016673276
131	0x3b31650e	0.002706829
132	0x3c9008ae	0.017582264
133	0xbc251cfa	-0.010077709
134	0xbc13de37	-0.009025148
135	0x3c2dcdf5	0.010608186
136	0x3ca26b6b	0.019826612
137	0xbb25b2f8	-0.0025283676
138	0xbca142b8	-0.019685134
139	0x3c4aaaf2	0.012369858
140	0xbb8a27a9	-0.0042161536
141	0x3ca3f4e1	0.020014228
142	0xbbaf0f40	-0.005342394
143	0x3c5f2ede	0.013622014
144	0xbcc41a28	-0.023938254
145	0xbbbc6fef	-0.005750648
146	0xbacb4019	-0.0015506773
147	0x3bd9cbf6	0.0066466285
148	0x3c42e9dd	0.011896578
149	0xbc537867	-0.012907124
150	0x3bf86779	0.0075806943
151	0x3cc107a1	0.023563208
152	0xba42021b	-0.00074008264
153	0x3ab037d4	0.0013444372
154	0xbbab33ca	-0.0052246796
155	0xbc07448e	-0.008256091
156	0xbbd2bdff	-0.0064313407
157	0xbba770ae	-0.005109868
158	0xbb0eead9	-0.002180746
159	0x3c4a4b39	0.012347036
160	0x3cd70f46	0.0262524
161	0x3cc5dbf4	0.024152733
162	0xbc57cfca	-0.013172099
163	0x3ca74467	0.020418359
164	0x3d007632	0.03136272
165	0x3c1f91ce	0.009739352
166	0x3c621da2	0.01380101
167	0x3b0fcdef	0.0021942814
168	0x3bb5e4a4	0.0055509377
169	0xbc292203	-0.01032305
170	0x3c8117b4	0.015758373
171	0x3b2614b1	0.0025341923
172	0xbc31558b	-0.010823618
173	0x3b7af917	0.0038295442
174	0xbb3232ef	-0.0027191003
175	0x3ba3962a	0.004992266
176	0x3c7cb19b	0.015423204
177	0x3c4eb53f	0.012616455
178	0xbc486beb	-0.012232761
179	0x3c835691	0.016032489
180	0x3bbee1f2	0.0058252746
181	0x3ce8d280	0.028420687
182	0x3b141824	0.0022597397
183	0xbae2129c	-0.0017247978
184	0xbb3762e0	-0.0027982518
185	0x3bb3e0d6	0.005489449
186	0x3c862aa1	0.016377749
187	0xbb6d7357	-0.0036232078
188	0x3c3c1abd	0.011480984
189	0xbabbe85d	-0.0014336217
190	0xbb8f8029	-0.0043792916
191	0xbaa89dda	-0.0012864426
192	0xbc97eb79	-0.0185449
193	0x3bb17838	0.0054159425
194	0x3b491f9d	0.003068901
195	0xbb149930	-0.0022674315
196	0x3bfb9b9e	0.007678463
197	0xbbda3480	-0.0066590905
198	0xbc255456	-0.010090908
199	0x3caefdb8	0.021361217
200	0xbc35e86f	-0.01110278
201	0xbc2f6aca	-0.010706613
202	0x3cdbabf8	0.0268154
203	0xbb7b4d58	-0.003834566
204	0x3cff8329	0.031190472
205	0x3b1c62db	0.0023862633
206	0xbc7c6da5	-0.015407001
207	0x3c00dbf6	0.007864943
208	0x3ca3452d	0.019930447
209	0x3c154ce0	0.009112567
210	0x3c609297	0.013706825
211	0x3c1b013f	0.009460746
212	0x3c410090	0.011779919
213	0x3c332398	0.010933779
214	0x3bcb5562	0.006205247
215	0x3b060280	0.0020448267
216	0x3c082455	0.0083094435
217	0x3c1a4759	0.009416425
218	0x3cd91fb9	0.026504384
219	0xbc3784de	-0.011201112
220	0x3b826bf0	0.0039801523
221	0x3c3e0321	0.011597426
222	0x3c13fec5	0.00903291
223	0xbc2238fd	-0.009901282
224	0xbb054a0d	-0.0020338327
225	0xbc62af27	-0.013835705
226	0x3cae03d7	0.021242065
227	0x3c4e04eb	0.012574415
228	0x3bbe256b	0.0058028004
229	0xbce019e9	-0.027356105
230	0xbb99d8e6	-0.0046950458
231	0xbbfedba4	-0.007777648
232	0xbc69acba	-0.014262373
233	0x3bc5827e	0.006027519
234	0x386db68d	5.6675217e-05
235	0xbc288add	-0.010287014
236	0x3c7998ac	0.015234154
237	0xbc1967ef	-0.009363159
238	0xbc7796e0	-0.015111655
239	0xbcb8e243	-0.022568827
240	0x3bff801c	0.0077972542
241	0x3c0272ac	0.00796191
242	0x3b910955	0.0044261613
243	0x393e2598	0.00018133817
244	0xba066ae5	-0.0005127623
245	0xbbc3c022	-0.0059738318
246	0xbc35f8c9	-0.011106678
247	0x3c982b5c	0.018575363
248	0xbc2fbdf6	-0.010726443
249	0x3c73b1e3	0.0148739545
250	0x3bfb7596	0.0076739294
251	0x3c6b8563	0.014375064
252	0x3b02b917	0.0019946748
253	0x3d19f314	0.037585333
254	0xbc8c95b2	-0.017161224
255	0x3c81c693	0.015841758

action_model._discrete_distribution.branches.0.bias f4 [3]
0	0xbabe0f13	-0.0014500342
1	0x3c82f1fc	0.015984528
2	0xbc5f5d86	-0.013633138

action_model._discrete_distribution.branches.0.weight f4 [3, 128]
0	0xbc401912	-0.011724727
1	0xbc45320e	-0.01203586
2	0xbcb7ba33	-0.022427654
3	0x3cf94f50	0.030433327
4	0x3a9bdfb7	0.0011892234
5	0x3ca7b36f	0.020471303
6	0x3c04c1b7	0.008102826
7	0x3cb4176d	0.021983827
8	0x3c89c0d4	0.01681558
9	0xbc37d45e	-0.011220066
10	0x3bdc73ca	0.0067276703
11	0x3c9c5557	0.019083662
12	0x3ccd7ff6	0.02508543
13	0xbcf0be18	-0.029387519
14	0x3a8587ee	0.0010187605
15	0x3aa1e741	0.0012352244
16	0xbb68583c	-0.0035452982
17	0xbbfcb801	-0.0077123647
18	0x3c397890	0.011320248
19	0xbc970218	-0.018433616
20	0xbbdc30f5	-0.0067197033
21	0xbca8a406	-0.020586025
22	0x3ca8f3e7	0.020624114
23	0xbaa70baf	-0.0012744571
24	0x3b7c42d0	0.0038491972
25	0xbbc4f3e9	-0.0060105217
26	0x3a9aea68	0.0011819126
27	0x3c36369a	0.011121416
28	0x3b622564	0.003450715
29	0x3caafd9a	0.02087288
30	0x3c8ef547	0.017450942
31	0x3b473791	0.003039811
32	0xbcb25ce8	-0.021772817
33	0x3c2c6c0a	0.010523805
34	0xbb371b7d	-0.0027939968
35	0xbc919731	-0.017772289
36	0xbc1bfcda	-0.009520734
37	0xbac42713	-0.0014965258
38	0xbc847c8f	-0.016172675
39	0xbc9569d3	-0.018238937
40	0xbcbf5373	-0.023355221
41	0x3ca52186	0.020157587
42	0x3caecca4	0.021337815
43	0x3bef1446	0.007296118
44	0xbc8b169d	-0.016978556
45	0xbb9121ee	-0.0044290936
46	0xbbd2ef2a	-0.006437202
47	0xbbceecd2	-0.0063148523
48	0x3a875338	0.0010324484
49	0x3c80998a	0.015698213
50	0x3b5b672d	0.0033478246
51	0x3c91a3d5	0.017778317
52	0x3cb304b5	0.02185283
53	0xbd8e1bd5	-0.06938902
54	0x3c3f57dd	0.011678663
55	0x3c15d7ef	0.009145721
56	0x3c67cf95	0.0141486125
57	0x3c9e3544	0.019312508
58	0xbca81aad	-0.020520533
59	0xbc1f9138	-0.009739213
60	0xbc576f71	-0.013149128
61	0xbcc4ef5b	-0.024039915
62	0xba02e032	-0.0004992514
63	0xbb0d741f	-0.0021584106
64	0x3b94df6c	0.0045432355
65	0xba95a619	-0.0011417299
66	0xbc5e50c6	-0.013569063
67	0x3cfd6cdb	0.030935695
68	0x3b5518c2	0.0032515978
69	0x3d8d5afc	0.069021195
70	0x3c00208c	0.00782026
71	0xbcda0b40	-0.026616693
72	0x3c9869e0	0.018605173
73	0xbcc835df	-0.02443975
74	0x3c47f9ce	0.012205554
75	0xbcdfb26f	-0.027306763
76	0x3d5a1052	0.05323822
77	0xbc8905c7	-0.016726388
78	0x3c4efbc0	0.012633264
79	0xbc60fc37	-0.013732008
80	0x3c2ffaf5	0.010740985
81	0xbb6a6940	-0.00357683
82	0x3cc3e820	0.023914397
83	0xba69f781	-0.00089251256
84	0xbc64f542	-0.01397449
85	0x3c85040b	0.01623728
86	0x3c63e58a	0.013909707
87	0xbb0727c9	-0.002062308
88	0xbd51a50e	-0.0511828
89	0xbc70eb79	-0.014704579
90	0x3b08d773	0.002088037
91	0xbc5a321a	-0.013317609
92	0xbd304d70	-0.0430426
93	0x3d001e10	0.03127867
94	0x3c022532	0.007943438
95	0xbb7012a3	-0.0036632202
96	0x3c2f77a6	0.010709679
97	0xbc2696a0	-0.010167748
98	0xbc741d0d	-0.014899504
99	0x3ce13d75	0.027495125
100	0xbcc59d82	-0.024122957
101	0x3c01b382	0.007916333
102	0xbbcb9f6e	-0.006214074
103	0x3ca65725	0.020305226
104	0x3d000dad	0.031263042
105	0xbd0f2f1e	-0.034957044
106	0xbcdda7d8	-0.027057573
107	0xbcab3a9c	-0.02090197
108	0x3c96850e	0.018373992
109	0xbc9fd4f7	-0.01951073
110	0x3c85e775	0.016345719
111	0x3ac4b264	0.0015006778
112	0x3c00c8b9	0.007860356
113	0x3ce54dd9	0.027991222
114	0x3c335b10	0.010947004
115	0x3d0566f7	0.032568898
116	0xbb36044c	-0.0027773557
117	0xbbb245ce	-0.0054404503
118	0xbb217fea	-0.0024642893
119	0xbab35aff	-0.0013683735
120	0xbaaad055	-0.0013032058
121	0x3b22825a	0.0024796934
122	0xbc389b2e	-0.0112674665
123	0xbb79d704	-0.0038122544
124	0x3d1676d2	0.03673441
125	0xbd59ce02	-0.05317498
126	0xbd1b2048	-0.037872583
127	0x3c6811d2	0.014164405
128	0xbcc26dca	-0.023733992
129	0x3c859009	0.016304033
130	0x3da35f0d	0.07977114
131	0xbd250c2e	-0.04029482
132	0xbcc9b79c	-0.024623685
133	0x3bbcf391	0.00576634
134	0xbc5dede7	-0.01354549
135	0xbcd14a96	-0.02554826
136	0x3d9d6507	0.07685285
137	0xbc42925a	-0.011875713
138	0xbbcfc6e0	-0.0063408464
139	0xbbce8d73	-0.006303483
140	0xbd31f5f7	-0.04344746
141	0x3c7614d5	0.015019615
142	0xbc1862aa	-0.009300867
143	0x3ca81141	0.02051604
144	0x3c1d0214	0.009583015
145	0xbaa0728f	-0.0012241172
146	0xbc330a46	-0.010927742
147	0x3d764156	0.060120903
148	0xbc5b0039	-0.013366752
149	0xbc9b75ed	-0.01897713
150	0xbd045541	-0.032307867
151	0xbc362637	-0.01111751
152	0x3b581709	0.0032972714
153	0x3c8a25b5	0.016863683
154	0xbb47ec24	-0.003050574
155	0xbb65f033	-0.0035085797
156	0xbc3d817f	-0.011566519
157	0xbc952767	-0.018207265
158	0xbca28a6b	-0.019841393
159	0x3cdf23bf	0.027238725
160	0xbc3ffd9d	-0.011718181
161	0xbd80ff46	-0.062986895
162	0x3c157f4f	0.009124591
163	0x3bf742fc	0.007545827
164	0x3d2601d6	0.040529095
165	0x3a4449b6	0.00074877904
166	0x3d9c59a7	0.07634287
167	0x3c832ad4	0.016011633
168	0x3d2cca66	0.04218521
169	0xbb514d43	-0.003193692
170	0x3dc0b5af	0.094096534
171	0xbd789cfe	-0.060696594
172	0x3ce6a288	0.028153673
173	0x3c45b692	0.012067454
174	0xb9acca1b	-0.00032956977
175	0x3d5a3272	0.053270765
176	0xbc575523	-0.013142857
177	0xbd29d682	-0.041464336
178	0x3d0c3744	0.034232393
179	0x3ba0d2f0	0.004907958
180	0xbab264cb	-0.0013610361
181	0x3dd35989	0.10319812
182	0xbbf1ef3d	-0.0073832558
183	0x3b85708f	0.004072256
184	0x3b5959be	0.0033165063
185	0x3c7380f1	0.014862285
186	0x3d16280c	0.036659285
187	0xbbfa0035	-0.007629419
188	0x3cc2b8e4	0.023769803
189	0x3cf397b0	0.029735416
190	0xbd248e11	-0.040174548
191	0xbc90650c	-0.017626308
192	0xbc70763c	-0.014676627
193	0x3d476770	0.04868263
194	0xbc1a013f	-0.009399711
195	0xbdab696d	-0.08369718
196	0x3d003d04	0.03130819
197	0xbd9c7a3c	-0.07640502
198	0xbc01b4b5	-0.007916619
199	0xbc747960	-0.014921516
200	0xbd33657f	-0.043797966
201	0x3c9d5926	0.019207548
202	0xbc641996	-0.013922116
203	0x3c93f18f	0.01805952
204	0xbcccbcd4	-0.024992384
205	0x3da1e8e5	0.07905749
206	0xb92629d8	-0.00015846582
207	0x3a770f82	0.0009424613
208	0x3d12eb8e	0.035869174
209	0xbab0c228	-0.0013485597
210	0xbdbd4f0c	-0.092435926
211	0xbaed708e	-0.0018115209
212	0x3d0ead35	0.03483315
213	0xbc5d02b8	-0.013489418
214	0xbd2f3f8f	-0.042785224
215	0xbc98ec9a	-0.018667508
216	0x3cf2cd94	0.029639043
217	0x3da9dbb9	0.08293862
218	0xbcd9871d	-0.026553685
219	0x3d2322bb	0.039828043
220	0x3cf2c48c	0.029634736
221	0xbd93e92e	-0.0722221
222	0xbcc3e520	-0.023912966
223	0xbd20d895	-0.03926905
224	0x3b85a322	0.004078285
225	0x3d02e416	0.0319558
226	0xbcb1c9f9	-0.021702753
227	0xbc682cc4	-0.014170829
228	0xbccc9772	-0.024974559
229	0x3b6d3d96	0.0036200038
230	0xbbfd079e	-0.0077218553
231	0xbd962c2e	-0.07332645
232	0xbd85041a	-0.06494923
233	0x3dc3fba5	0.09569482
234	0x3da3935e	0.079870924
235	0xbbac8b3e	-0.0052656224
236	0xbcc840c6	-0.024444949
237	0x3c4d0855	0.012514194
238	0xbbc15fa2	-0.005901293
239	0xbb807262	-0.0039198855
240	0xbc2fc502	-0.010728123
241	0xbd76618e	-0.06015163
242	0xbbae4847	-0.0053186747
243	0xbd767a6d	-0.060175348
244	0xbc83aeb9	-0.016074525
245	0x3d3f222d	0.046663452
246	0x3abb540d	0.0014292017
247	0xbc83a65a	-0.016070534
248	0xb9c23a0a	-0.00037045806
249	0xba6f2bdd	-0.00091236626
250	0x3b9cc8ff	0.004784703
251	0x3c626721	0.013818533
252	0xbdbe1799	-0.09281845
253	0x3d2b963d	0.041891325
254	0x3dbf7fd7	0.093505554
255	0xbcc8c6ca	-0.024508853

action_model._discrete_distribution.branches.1.bias f4 [3]
0	0xbc70de1e	-0.014701394
1	0x3c7beeb8	0.015376739
2	0xba11e88d	-0.0005565964

action_model._discrete_distribution.branches.1.weight f4 [3, 128]
0	0x3d261ea4	0.040556565
1	0x3ccefd92	0.025267396
2	0xbc75fbf3	-0.015013683
3	0x3cef398f	0.02920225
4	0xbc1690ae	-0.009189768
5	0xbba4b6db	-0.005026681
6	0x3b4d1fe2	0.0031299521
7	0x3c42a465	0.011880015
8	0xbd2a73f1	-0.041614477
9	0xbaad3c93	-0.0013216905
10	0x3b816aab	0.0039494834
11	0x3ab250a6	0.0013604357
12	0xbca827f1	-0.020526858
13	0xbc1cff69	-0.009582379
14	0xb9d91a94	-0.00041409268
15	0xbc74966e	-0.014928443
16	0x3ac8e1f1	0.0015326125
17	0x3c47bd84	0.01219118
18	0xbcf4c2c3	-0.029878026
19	0xbb92dc10	-0.0044818
20	0x3bcccf81	0.0062503223
21	0x3c230f71	0.009952412
22	0x3c2c170b	0.010503541
23	0x3c964d11	0.018347295
24	0xbc065b02	-0.008200409
25	0xbc10d36c	-0.008839469
26	0xba3d893e	-0.00072302285
27	0xbcf60655	-0.030032316
28	0xbb743f8d	-0.0037269325
29	0xbc197d48	-0.009368248
30	0x3c4c0337	0.012451938
31	0xbca170fc	-0.019707195
32	0x3bbcd5e7	0.005762804
33	0xbce0b1c0	-0.027428508
34	0xbc256fd2	-0.010097461
35	0x3c9727e2	0.018451635
36	0x39c60323	0.0003776784
37	0xbc9eecdf	-0.019400058
38	0xbb0d3b79	-0.002155034
39	0x3c4b0528	0.012391366
40	0x3cc90610	0.024539024
41	0xbb7a0674	-0.003815082
42	0xbb9be774	-0.004757816
43	0x3c031091	0.007999555
44	0x3bff2448	0.0077863075
45	0xbb485af5	-0.0030571793
46	0xbc14b3ab	-0.009076039
47	0x3d0816c5	0.03322484
48	0x3bd15126	0.0063878475
49	0xbd6a9df6	-0.05727955
50	0xba0ac658	-0.0005293838
51	0xbb8e86a7	-0.004349548
52	0x3cd68407	0.026186002
53	0x3ce4ed2b	0.027945122
54	0x3c0a39ed	0.008436662
55	0xbbd43aae	-0.0064767217
56	0xbcbaf920	-0.02282387
57	0xb94e52d3	-0.00019676545
58	0x3b12cf38	0.0022401344
59	0x3c211045	0.009830539
60	0x3c886d92	0.01665381
61	0x3b07e5f0	0.0020736419
62	0xbc8649ce	-0.016392615
63	0xbca4dcf8	-0.020124897
64	0x39cf608f	0.00039554058
65	0xbcb93fb8	-0.022613391
66	0xbb6839c4	-0.0035434822
67	0xbb0a4e53	-0.0021103814
68	0xbc6098bf	-0.0137082925
69	0x3c8a0674	0.01684878
70	0xbc0fb538	-0.008771233
71	0x3cd24064	0.02566547
72	0x3ccd1a78	0.025037035
73	0xbcbf1e25	-0.023329804
74	0xbc38a5d6	-0.011270007
75	0xbb83e000	-0.0040245056
76	0xbd391f02	-0.045195587
77	0xbcd1dc67	-0.025617791
78	0x3c99cdb2	0.018774841
79	0x3d230cfa	0.039807297
80	0x3c9007df	0.017581878
81	0x3cd1ddb6	0.025618415
82	0x3bc39aa3	0.005969362
83	0xbc1bed0b	-0.009516965
84	0x3c804347	0.01565708
85	0xbc92b3a6	-0.017907929
86	0xbc0157f5	-0.007894506
87	0xbc87419d	-0.016510779
88	0xbcb52fdb	-0.022117546
89	0x3be3900b	0.0069446615
90	0x3d6d416c	0.05792372
91	0xbabb01c3	-0.0014267493
92	0x3d11f7f5	0.03563686
93	0x3cb97b5a	0.022641826
94	0xbb1b899d	-0.0023733147
95	0x3c9ee7ae	0.019397583
96	0x3b34bdb1	0.0027578885
97	0xbb954bd8	-0.0045561604
98	0x3d4f3d41	0.050595526
99	0x3c732d65	0.014842366
100	0x3cf55281	0.029946567
101	0x3bbc2c2f	0.005742572
102	0x3d13b8a6	0.036064766
103	0xba28fdd9	-0.00064465177
104	0xbc87a036	-0.016555887
105	0x3be6567a	0.007029352
106	0xba0076d9	-0.0004900522
107	0xbac423a4	-0.0014964235
108	0x3c8f890f	0.01752141
109	0x3c88a542	0.016680364
110	0xbc91f347	-0.017816199
111	0x3adb3823	0.0016725104
112	0xbc12da79	-0.008963221
113	0xbcc55145	-0.024086604
114	0xbca588b6	-0.02020679
115	0x3c825a85	0.015912304
116	0xbc858e40	-0.016303182
117	0xbce5ccba	-0.028051723
118	0x3cbd0eb3	0.023078298
119	0x3cc8466a	0.024447639
120	0xbb9aa93b	-0.004719881
121	0xbab16a76	-0.0013535756
122	0x3cb7bf01	0.022429945
123	0xbd36904e	-0.044571213
124	0x3b6e2215	0.0036336232
125	0x3c8f6254	0.017502941
126	0xbd03418e	-0.03204494
127	0xbd1716b1	-0.036886875
128	0x3d66b0b7	0.056320872
129	0xbd5cf06b	-0.053940218
130	0xbd077493	-0.03307016
131	0xbc0ce675	-0.008599867
132	0x3d28c6e6	0.04120531
133	0x3c88b91a	0.016689826
134	0x3c1c4aca	0.0095393155
135	0x3cb7d183	0.02243877
136	0xbc0b8d4d	-0.008517575
137	0x3c0a0aec	0.008425456
138	0xbc86921b	-0.01642709
139	0xbd2628c2	-0.040566213
140	0x3d3531ee	0.04423707
141	0xbc94ec3f	-0.018179057
142	0xbc3a9807	-0.011388785
143	0x3c41dab6	0.01183193
144	0x3c2a9a8a	0.010412822
145	0x3c2e01c9	0.010620543
146	0x3c541a9e	0.012945799
147	0x3c32dfe6	0.010917639
148	0xbca83bc8	-0.020536318
149	0x3b27435b	0.0025522325
150	0xbd22df4d	-0.039763737
151	0xbd25dafd	-0.040492047
152	0xbc5e12ce	-0.013554288
153	0xbd1b737f	-0.037951943
154	0x3981f7e7	0.000247895
155	0x3cfe09ee	0.031010594
156	0xbc13714e	-0.008999182
157	0xbba4bc89	-0.005027358
158	0x3c8fb555	0.01754252
159	0x3cc4280a	0.023944873
160	0x3d81f481	0.063454635
161	0xbdae10f4	-0.08499327
162	0xbc838420	-0.016054213
163	0xbd0bd2f3	-0.034136724
164	0xbc35d7fe	-0.01109886
165	0x3b8caae3	0.004292832
166	0xbd7c6158	-0.06161627
167	0xbd50cdb9	-0.050977442
168	0xbd170a1b	-0.03687487
169	0x3aeb7521	0.0017963984
170	0xbba39cd7	-0.004993062
171	0x3c4ffa24	0.0126939155
172	0xbd205c28	-0.039150387
173	0x3d20f1f9	0.039293263
174	0xbcdf2d4f	-0.027243285
175	0xbcd37a45	-0.025815139
176	0x3cb2ebf8	0.021841034
177	0x3d4b8f4e	0.049697213
178	0xbc082e5f	-0.008311837
179	0x3c5bcdde	0.013415782
180	0xbcb4a44c	-0.022051
181	0xbd089319	-0.03334341
182	0xbab3ca17	-0.0013716844
183	0x3c31a09d	0.010841516
184	0x3d01bf91	0.031676833
185	0xbc76fc60	-0.015074819
186	0x3b8ccaa6	0.0042966185
187	0xbcaf9e75	-0.021437863
188	0xbcb6ed53	-0.022329962
189	0x3b55dcac	0.0032632751
190	0x3c48fcb0	0.012267277
191	0x3d00f204	0.031480804
192	0xba09449f	-0.00052363606
193	0xbc742a34	-0.01490264
194	0xbb3bd695	-0.0028661836
195	0x3bf4a7c2	0.0074662874
196	0x3c4d5b7f	0.012534021
197	0xbd2673db	-0.040637832
198	0xbba222c0	-0.00494799
199	0x3c48715c	0.012234058
200	0x3b2da0da	0.002649358
201	0x3d6ce280	0.057833195
202	0x3d434ee3	0.047682654
203	0x3cfc1eef	0.030776469
204	0xbc09cad2	-0.008410173
205	0x3b984de6	0.004647958
206	0x3d66c775	0.05634256
207	0x3c33ef8c	0.010982405
208	0xbcf5a9e9	-0.029988246
209	0xbcbd690a	-0.023121376
210	0x3c3b75c8	0.011441655
211	0xbd2b9229	-0.041887436
212	0x3b95f1b9	0.0045759347
213	0x3c2b7528	0.010464944
214	0xbca89266	-0.02057762
215	0x3a4c26e3	0.0007787777
216	0xbd24158c	-0.04005961
217	0xbceeeeaf	-0.029166548
218	0x3cf044d3	0.029329693
219	0xbccee76d	-0.025256837
220	0x3b7f19e8	0.0038925353
221	0x3c3437b7	0.010999612
222	0xbce439fd	-0.027859682
223	0x3c5d8409	0.013520249
224	0xbb468b5a	-0.0030295462
225	0x387320aa	5.7966136e-05
226	0x3cf4d87c	0.029888384
227	0xbd0b9694	-0.03407915
228	0x3cea2467	0.028581811
229	0xbc83fc29	-0.01611145
230	0xbc964659	-0.018344091
231	0x3c91bff4	0.017791726
232	0x3d7aae11	0.06120116
233	0xbd09b84c	-0.033623025
234	0xbc9d610d	-0.019211316
235	0xbc68bab1	-0.014204667
236	0x3c045603	0.008077147
237	0xbc5e1e2d	-0.013556999
238	0xba471c95	-0.00075955066
239	0x3b567cc0	0.0032728165
240	0x3c940263	0.018067544
241	0x3d6b1e80	0.057402134
242	0x3cf27864	0.029598422
243	0x3d0cf6af	0.034414943
244	0x3c358937	0.011080078
245	0xbc506255	-0.012718757
246	0xbd02f9e6	-0.031976603
247	0xbd0bd3a0	-0.03413737
248	0x3c2195bd	0.009862361
249	0xbcfeacfc	-0.031088345
250	0xbaed79f2	-0.0018118008
251	0xbc53537d	-0.012898323
252	0x3bf35e3c	0.007427005
253	0xbb8ec70a	-0.0043572234
254	0xbcb5b35f	-0.022180257
255	0x3da9249f	0.08258938

discrete_action_output_shape f4 [1, 2]
0	0x40400000	3.0
1	0x40400000	3.0

network_body._body_endoder.seq_layers.0.bias f4 [128]
0	0x3b9f767f	0.0048664208
1	0xbc8a6d0e	-0.016897704
2	0xbc5c2086	-0.013435489
3	0xbb37429d	-0.0027963289
4	0xbc89cf00	-0.016822338
5	0xb64e900a	-3.0780234e-06
6	0xbc01e0ec	-0.007927161
7	0x3c3ad2d7	0.011402807
8	0xbc89c570	-0.016817778
9	0xbc006de4	-0.0078387
10	0x3c10513b	0.008808429
11	0xbca3760f	-0.019953756
12	0xbc487b57	-0.012236438
13	0xbc240c9f	-0.010012775
14	0xbca9764a	-0.020686287
15	0x3b929380	0.00447315
16	0xbb871b73	-0.0041231452
17	0x3a7019ea	0.0009159135
18	0xb481ed0f	-2.4200605e-07
19	0x3c093418	0.0083742365
20	0xbbebc899	-0.007195544
21	0xbb1abfc5	-0.0023612839
22	0x3ce48927	0.02789743
23	0xbc4ce772	-0.012506353
24	0xbc2cd260	-0.010548204
25	0xbc3b5104	-0.01143289
26	0xbc4b83af	-0.0124215325
27	0x3cd2acb7	0.025717122
28	0xba98ed90	-0.0011667479
29	0xbc2ce875	-0.010553469
30	0xbccbc531	-0.024874302
31	0xbca618da	-0.020275522
32	0x3b9b2e17	0.004735719
33	0xbc56f9fa	-0.0131211225
34	0xbab46a08	-0.001376451
35	0xbbf44dd1	-0.0074555655
36	0xbc944795	-0.01810054
37	0x36ae4cc8	5.1945426e-06
38	0xbc977746	-0.018489491
39	0xbbf6aae0	-0.007527694
40	0x3c662696	0.014047286
41	0x383b6d28	4.4685934e-05
42	0xb5f3eb78	-1.8173441e-06
43	0xbae6d138	-0.001760996
44	0xbbe6483a	-0.007027653
45	0xbaf60619	-0.0018770128
46	0xba6b3f8d	-0.00089740084
47	0x36facaa3	7.4741706e-06
48	0xbbbb6a89	-0.005719487
49	0xbc33b4d9	-0.01096841
50	0xb7c561bc	-2.3529741e-05
51	0x3c03b4ac	0.008038681
52	0x3bdbf0ac	0.00671204
53	0xbc351bf4	-0.011054028
54	0x3d015b0c	0.03158097
55	0xbb4a934f	-0.0030910557
56	0x3d1c568c	0.038168475
57	0xbb8d0eae	-0.0043047285
58	0xbcd491bf	-0.025948403
59	0x3b356794	0.0027680146
60	0xbc16949e	-0.009190707
61	0x3c015133	0.007892895
62	0xbc39482c	-0.011308711
63	0xbc090159	-0.008362138
64	0x3c336608	0.010949619
65	0xbc6f5088	-0.0146066025
66	0xbbb25b02	-0.005442978
67	0xbbd573ba	-0.00651404
68	0xbc027147	-0.007961578
69	0xbc6bd52f	-0.014394089
70	0x3cb33144	0.021874078
71	0x3cdb61d5	0.026780048
72	0x3b5753cb	0.003285634
73	0x3a1af617	0.0005911304
74	0xbc3426ea	-0.010995606
75	0xbc9380a2	-0.018005673
76	0xbc4b709c	-0.012416985
77	0xbb4689b6	-0.0030294484
78	0x3c8b5456	0.017007988
79	0x3a3089bd	0.0006734392
80	0xba896912	-0.0010483584
81	0xbc73eaa2	-0.014887484
82	0xbb1f8722	-0.002434202
83	0xbc0fe99d	-0.008783725
84	0xbc01a10e	-0.007911934
85	0x3c28dc1e	0.010306386
86	0xbca2d373	-0.019876217
87	0xbb511084	-0.0031900713
88	0xbc46cce7	-0.012133813
89	0xbba7ff25	-0.005126851
90	0x3bfe9d48	0.007770214
91	0xb993efad	-0.00028216597
92	0x3cba8ff2	0.022773717
93	0x3b101c65	0.002198958
94	0xbc28efe0	-0.010311097
95	0xbc5f0441	-0.013611854
96	0xbaead537	-0.0017916326
97	0xbc8d12b3	-0.01722083
98	0xbbc4d838	-0.0060072206
99	0xbcaafa06	-0.020871174
100	0xbcbde5d2	-0.023180876
101	0x3b3d1eec	0.0028857542
102	0xbceeb2d2	-0.029138003
103	0x3c5487ad	0.012971801
104	0x3c0913b0	0.00836651
105	0xbc588e70	-0.0132175535
106	0x3c86c66f	0.016452042
107	0xb7bd3070	-2.2553111e-05
108	0xbc663884	-0.01405156
109	0x3cc350ff	0.023842333
110	0xbcfe5e3c	-0.031050794
111	0xbc83de9a	-0.016097356
112	0xbba03b93	-0.0048899143
113	0xbb96faee	-0.00460755
114	0xbb6b865e	-0.0035938243
115	0x3c85cf9f	0.016334353
116	0x3cd581dc	0.026062898
117	0x3d08ed07	0.033429172
118	0xbba16991	-0.0049259146
119	0x3a86b892	0.0010278395
120	0x3b8e61a7	0.004345137
121	0xb89477e1	-7.079519e-05
122	0xbc9776c1	-0.018489243
123	0x3a403bf1	0.0007333151
124	0x3c5c4a4d	0.013445449
125	0xb9c5443b	-0.00037625604
126	0xbb8edf1a	-0.004360092
127	0xbba63f5c	-0.005073471

network_body._body_endoder.seq_layers.0.weight f4 [128, 192]
0	0x3da8faa8	0.08250934
1	0x3c666047	0.01406104
2	0xbe2a2fe4	-0.16619831
3	0x3c872a7e	0.016499754
4	0xbdcd1b9e	-0.10015033
5	0xbd6d26d2	-0.05789835
6	0xbdd5c5bf	-0.10438108
7	0xbd8e1d26	-0.069391534
8	0xbcba11f2	-0.022713635
9	0x3dda7733	0.10667267
10	0x3d6845ba	0.05670712
11	0x3dc6455e	0.096811995
12	0x3d17c711	0.03705508
13	0x3dac1ab0	0.08403528
14	0x3c609d79	0.013709419
15	0x3b421e72	0.0029620198
16	0xbd53c255	-0.051699
17	0xbd57fcd3	-0.052731346
18	0xbd266460	-0.04062307
19	0x3d80c333	0.06287231
20	0x3d94e82b	0.07270845
21	0xbd91150a	-0.07084091
22	0x3c31c91d	0.010851172
23	0xbdbf8cc2	-0.09353019
24	0xbde07122	-0.10959078
25	0xbc5e2dd3	-0.01356073
26	0x3dd1dbc0	0.10246992
27	0xbd4aff2d	-0.04955976
28	0xbd4d1904	-0.050072685
29	0xbd571025	-0.05250563
30	0xbd4b21cc	-0.049592778
31	0x3b99f4f3	0.0046983897
32	0x3d90dbc2	0.070731655
33	0x3ce85608	0.028361335
34	0x3d4fa6e8	0.050696284
35	0x3c01c748	0.0079210475
36	0xbe1d4439	-0.15358056
37	0x3e0bc8c2	0.13650802
38	0x3d0e6790	0.034766734
39	0xbd9a7b8d	-0.07543097
40	0xbdad09dd	-0.08449147
41	0xbbce873e	-0.006302743
42	0xbdb80566	-0.08985405
43	0xbc897861	-0.016781034
44	0x3d00b02f	0.03141802
45	0x3d39ac0f	0.045330103
46	0xbdde2bb9	-0.10848183
47	0x3d793dd6	0.060849987
48	0x3c4c13df	0.0124559095
49	0xbde61723	-0.11234882
50	0xbd88eb2a	-0.06685479
51	0xbc125a0a	-0.0089326
52	0x3da83528	0.08213264
53	0xbe09ea7d	-0.13468356
54	0xbc848aed	-0.016179526
55	0xbb8a165f	-0.0042140926
56	0x3e1cb275	0.15302451
57	0x3d9175ed	0.07102571
58	0x3d057d33	0.032590102
59	0x3b19b057	0.0023451054
60	0x3ddf88c8	0.10914761
61	0xbdb7d5fd	-0.08976362
62	0x3d0c6e24	0.034284726
63	0x3ca8b486	0.020593893
64	0xbd688473	-0.05676694
65	0x3dc1df05	0.09466366
66	0xbd8059fa	-0.06267162
67	0x3df6da9e	0.12053417
68	0xbb88d6db	-0.0041760034
69	0xbd861bf3	-0.065483
70	0x3e167f6a	0.14697042
71	0xbd8307b7	-0.06397956
72	0x3d484dab	0.048902195
73	0xbc6af0b8	-0.014339618
74	0x3e1bec78	0.15226924
75	0x3d77537f	0.060382362
76	0xbc4c2f30	-0.012462422
77	0xbcde3218	-0.027123496
78	0xbda5be53	-0.08092942
79	0xbdf5f132	-0.12008895
80	0xbd522a4f	-0.05130988
81	0x3d10bccd	0.035336304
82	0x3def8a14	0.11696258
83	0x3c78453c	0.0151532255
84	0xbd85de42	-0.06536533
85	0x3c57c97d	0.013170597
86	0xbd95a293	-0.07306399
87	0x3e6a97cf	0.22909473
88	0x3c6c3405	0.014416699
89	0xbc2b9266	-0.010471916
90	0x3dfcb873	0.123398684
91	0x3c8e78d7	0.017391605
92	0xbc290494	-0.010316033
93	0x3d4e712a	0.05040089
94	0x3d7b03c2	0.06128288
95	0x3e02ac6d	0.12761088
96	0xbcf4f299	-0.029900836
97	0xbe404c36	-0.18779072
98	0x3db1dd81	0.08684827
99	0x3db412e8	0.087926686
100	0x3d0470cf	0.032334145
101	0xbd49250f	-0.049107607
102	0xbe04c2a8	-0.1296488
103	0x3d6594af	0.05605
104	0xbdbdb019	-0.092621036
105	0x3d51b319	0.05119619
106	0xbe31839e	-0.17335364
107	0xbce5f205	-0.028069505
108	0x3d7ad73f	0.06124043
109	0xbdfe8101	-0.12426949
110	0xbc9dcc2c	-0.019262396
111	0x3d494416	0.049137197
112	0x3d89ff14	0.067381054
113	0x3c354206	0.0110631045
114	0x3e033dbf	0.12816523
115	0x3bace312	0.0052760923
116	0xbd1c01b2	-0.038087554
117	0xbc87de22	-0.016585413
118	0x3c9ea2d3	0.01936475
119	0xbdcc3f13	-0.09972968
120	0x3daada67	0.08342438
121	0xbd522d2d	-0.051312614
122	0xbd403d66	-0.046933554
123	0x3d1a3855	0.03765138
124	0xbd43240a	-0.04764179
125	0x3ddceb6f	0.10787093
126	0xbcbcf9df	-0.023068367
127	0x3cf8a06e	0.030349936
128	0x3dc3a57f	0.0955305
129	0xbda938a6	-0.08262758
130	0xbdb41670	-0.08793342
131	0xbd782020	-0.06057751
132	0xbd169723	-0.03676523
133	0xbe19cfa7	-0.1502062
134	0xbe1ce139	-0.1532029
135	0x3c8e2d37	0.017355544
136	0xbd989a40	-0.07451296
137	0x3d3f16ef	0.04665273
138	0xbc9eb795	-0.019374648
139	0xbdeddade	-0.11614011
140	0x3d6da63a	0.058019854
141	0x3bde4063	0.006782578
142	0xbd6c1f9c	-0.057647333
143	0x3d3863a6	0.045016907
144	0xbcd53bac	-0.02602943
145	0xbd3e5b96	-0.046474062
146	0x3c0cf96c	0.008604389
147	0x3dd6649a	0.10468407
148	0xbcb02351	-0.021501215
149	0xbd157f67	-0.036498453
150	0x3b2e32ac	0.0026580496
151	0x3d8e7ad5	0.06957022
152	0xbd785346	-0.06062629
153	0x3d509027	0.050918724
154	0xbb4e70a2	-0.003150024
155	0xbd202664	-0.039099112
156	0x3d394fba	0.04524205
157	0xbdb9e72c	-0.09077296
158	0x3b5de205	0.0033856642
159	0xbc292958	-0.0103247985
160	0x3c35eee4	0.011104319
161	0xbdee9ca9	-0.11650974
162	0xbcd69e56	-0.026198547
163	0xbdafd38c	-0.08585271
164	0x3cc9d021	0.024635376
165	0xbd4bedcc	-0.049787328
166	0xbc11c8b6	-0.008897951
167	0xbd032c2c	-0.032024547
168	0x3d8861b1	0.06659258
169	0xbda24214	-0.0792276
170	0xbcb7331b	-0.022363236
171	0xbc8e92a7	-0.017403914
172	0xbc83905d	-0.016060049
173	0x3e499dbf	0.19689082
174	0xbc82aa7a	-0.01595043
175	0x3dcb8d34	0.09939042
176	0xbd6c4c4c	-0.05768995
177	0xbcb426d9	-0.02199118
178	0xbd91b9d7	-0.07115524
179	0xbd4d07c7	-0.050056245
180	0x3db88ea0	0.090115786
181	0x3cc71684	0.024302728
182	0x3d4e68b9	0.05039284
183	0x3acdbd98	0.0015696762
184	0xbe1fbba7	-0.15598927
185	0xbde58317	-0.11206644
186	0xbc1bd8a0	-0.009512097
187	0x3c8b9322	0.017037932
188	0x3cd51ba6	0.02601416
189	0xbb84d932	-0.004054212
190	0xbdde63b4	-0.108588606
191	0xbd5af375	-0.053454835
192	0xbd89b5b9	-0.06724114
193	0xbc26da2d	-0.010183853
194	0xbd6c9da7	-0.057767536
195	0xbd6e208d	-0.05813651
196	0x3c9b5472	0.018961165
197	0x378d464b	1.6841243e-05
198	0xbc8cbd1e	-0.017180022
199	0x3d079f13	0.03311069
200	0x3d67bc6f	0.05657619
201	0x3b98df7a	0.0046653124
202	0xbd07654d	-0.033055592
203	0xbd9fbf94	-0.078002125
204	0xbda1a85e	-0.078934416
205	0x3dfee37e	0.124457344
206	0xbd324621	-0.04352391
207	0x3ce35deb	0.027754745
208	0xbd23acab	-0.03995959
209	0xbd20dbcd	-0.03927212
210	0x3d0103c4	0.03149773
211	0x3c661b73	0.01404463
212	0xbdbd1540	-0.09232569
213	0xbd53bf8d	-0.05169635
214	0x3dc8b320	0.097997904
215	0x3d0bfe57	0.034178104
216	0xbd115c09	-0.035488162
217	0x3d5ffcdf	0.054684516
218	0x3db3dfc0	0.08782911
219	0x3ddd7187	0.10812669
220	0xbd923466	-0.071389005
221	0x3d22d111	0.039750163
222	0xbcf05422	-0.029336993
223	0x3c6ef42c	0.014584582
224	0xbdc091cb	-0.09402808
225	0x3ce49347	0.027902259
226	0xbc1803bf	-0.009278237
227	0x3d8fe2f6	0.07025711
228	0x3d6e3081	0.058151726
229	0x3e07f1c8	0.13275826
230	0xbd17c987	-0.037057426
231	0xbbbd34bb	-0.005774108
232	0x3cb50a1c	0.022099547
233	0xbc16d57d	-0.009206173
234	0x3db4f319	0.0883543
235	0x3c48c28e	0.012253417
236	0xbd8b88ec	-0.06813225
237	0x3e01e856	0.12686285
238	0x3c69b96e	0.014265401
239	0xbd22f8af	-0.039787944
240	0x3d2c318e	0.042039447
241	0x3d3c89b5	0.046029765
242	0xbc9202d5	-0.017823616
243	0x3c9a0e2a	0.018805582
244	0xbcb34576	-0.021883707
245	0x3d9381b3	0.072024725
246	0xbd8153ed	-0.06314836
247	0xbdb52732	-0.088453665
248	0x3bd74612	0.0065696323
249	0xbd4e6f19	-0.05039892
250	0x3df29c3d	0.11846206
251	0xbcc86201	-0.024460794
252	0x3d327295	0.043566305
253	0x3dbb7e9b	0.091550075
254	0x3dbcdff5	0.09222404
255	0xbcc0dc09	-0.023542421

network_body._body_endoder.seq_layers.2.bias f4 [128]
0	0x3c7fd660	0.015615076
1	0xba3577b3	-0.00069224386
2	0x3c5ee942	0.013605418
3	0x3c071f26	0.008247172
4	0xbc7b2dbd	-0.015330729
5	0xbc2d8cf8	-0.010592692
6	0x3a9a60c8	0.0011778111
7	0xbbbb882f	-0.0057230215
8	0xbc6cf0bd	-0.014461693
9	0xbc3cbe7d	-0.011520025
10	0x3b6d2f1c	0.003619141
11	0x3c27bdeb	0.010238151
12	0x3c2bde67	0.010490037
13	0x3b884d07	0.004159573
14	0xbbc29ae6	-0.0059388755
15	0xbc16c151	-0.009201364
16	0xbae8c2af	-0.0017758216
17	0xbc7d8735	-0.01547413
18	0xbc0e2867	-0.008676625
19	0x3bda9a9c	0.006671263
20	0x3b7c6748	0.003851371
21	0x3cba8987	0.022770656
22	0xbc0c2358	-0.0085533485
23	0xbc4db45d	-0.012555209
24	0x3ba01c78	0.0048862062
25	0x3ba163c5	0.0049252235
26	0xbc592aac	-0.013254803
27	0x3b1865f4	0.0023254128
28	0x3c45b048	0.0120659545
29	0xbc202d53	-0.009776431
30	0xbbd9f461	-0.0066514467
31	0xbb27da92	-0.0025612456
32	0xbc58b8f5	-0.013227691
33	0x3c133e2d	0.008986992
34	0xbc025f29	-0.007957258
35	0x3a6bf0dd	0.000900043
36	0xbae5938b	-0.0017515285
37	0x3be411b8	0.00696012
38	0x396440ac	0.00021767867
39	0xbc383622	-0.011243375
40	0xbafea465	-0.0019427655
41	0x3befb283	0.0073149814
42	0xbad7bcff	-0.0016459523
43	0xbc7595e0	-0.014989346
44	0xbac5923b	-0.0015073487
45	0xbba42ecb	-0.005010461
46	0x395695dd	0.00020464459
47	0xbc0fe286	-0.008782035
48	0x3cbc28ff	0.022968767
49	0xbbb1c357	-0.0054248977
50	0xbbed7824	-0.007246988
51	0x3bd7e4a1	0.006588534
52	0xba8b3255	-0.0010619859
53	0xbc0d8836	-0.008638432
54	0x3af8135f	0.0018926671
55	0x3be1408f	0.006874151
56	0x3bc6f7c2	0.0060720155
57	0x3bacc056	0.0052719517
58	0xb9a752a7	-0.00031914303
59	0x3baa38b1	0.0051947464
60	0xbbcc7ed4	-0.006240705
61	0x3c13e94b	0.009027789
62	0x3c087885	0.008329515
63	0xbc1d0374	-0.009583343
64	0xbc8baa6e	-0.01704904
65	0xbb60239b	-0.003420091
66	0x3cbc8d41	0.023016574
67	0xbb8b6209	-0.00425363
68	0xbb894b2b	-0.004189869
69	0x3b9d3297	0.0047972905
70	0x3c240e2f	0.010013147
71	0x3c348b0d	0.01101948
72	0xbbdcbe93	-0.0067365854
73	0xbc18e838	-0.009332709
74	0x3b9c96cc	0.0047787186
75	0xbc568268	-0.013092615
76	0x3c04d66c	0.008107763
77	0xbc30819f	-0.010773092
78	0x3bc3ad06	0.0059715537
79	0x3c09daf7	0.008414022
80	0xbc37f612	-0.011228101
81	0x3b422a88	0.0029627401
82	0xbc81ea60	-0.015858829
83	0xbc31c36b	-0.010849814
84	0xbc86791e	-0.016415175
85	0x3b8c5a8f	0.0042832564
86	0xbbeca7e0	-0.0072221607
87	0xbbb65f61	-0.0055655693
88	0x3bddacea	0.0067649977
89	0x3bdee337	0.0068019885
90	0x3c721eb9	0.014777833
91	0x3c70295a	0.0146582965
92	0x3bba6b27	0.005689043
93	0xba9ba14f	-0.0011873635
94	0xbc5c2719	-0.013437056
95	0xbc888d17	-0.01666884
96	0xbc01f1c9	-0.007931181
97	0xbc3880e3	-0.011261198
98	0xbc940200	-0.01806736
99	0xbb8a00dd	-0.0042115287
100	0xbbd2566e	-0.0064189946
101	0xbc17ef82	-0.009273412
102	0xbc8a850a	-0.016909141
103	0x3b94300a	0.0045223283
104	0xbbc4ffa3	-0.0060119196
105	0xbc8aa54f	-0.016924528
106	0xbc5f7961	-0.013639779
107	0xbb5254a0	-0.0032093897
108	0xbbbd1bd3	-0.005771139
109	0x3c983301	0.018579008
110	0xbc0a584e	-0.008443905
111	0xbc40fab1	-0.0117785195
112	0xbb6d6a23	-0.0036226592
113	0xbb30f9c2	-0.0027004336
114	0x3cc7f25a	0.024407554
115	0x3ae83f7b	0.0017719114
116	0x3992db8d	0.00028010868
117	0x3b831e24	0.004001396
118	0xbc8ff996	-0.017575067
119	0x3cace990	0.021107465
120	0xbb92e6bc	-0.004483072
121	0x3c09790a	0.008390674
122	0xbc4e5d13	-0.012595433
123	0xb8a86d5e	-8.0312355e-05
124	0x3badd97b	0.0053054667
125	0x3bb3c090	0.0054856017
126	0x3c89391c	0.016750865
127	0xb9c97ac1	-0.00038429166
