results/test1/My Behavior/checkpoint.pt (torch, 342807 bytes, 14 tensors)

discrete_act_size_vector f4 [1, 2]
0	0x40400000	3.0
1	0x40400000	3.0

network_body._body_endoder.seq_layers.0.weight f4 [128, 192]
0	0x3da0b35c	0.0784671
1	0x3dac8f17	0.0842573
2	0x3d4d9d84	0.050199047
3	0x3e2587b7	0.16165052
4	0x3c10ac27	0.008830107
5	0x3cda32c6	0.026635539
6	0xbd64e51e	-0.055882566
7	0x3d078f4c	0.033095643
8	0xbe572b06	-0.21012506
9	0x3c3ccf05	0.011523967
10	0x3cd1b32c	0.025598131
11	0xbb5266f3	-0.003210482
12	0x3dc973cb	0.09836539
13	0xbd7b63a6	-0.06137433
14	0xbe5705ce	-0.20998308
15	0xbd98328e	-0.074315175
16	0x3d7fc3ee	0.062442712
17	0x3d33b311	0.043871943
18	0x3cb83f1e	0.022491034
19	0x3de0f717	0.10984629
20	0xbe180544	-0.14845759
21	0x3d7f4a0a	0.06232647
22	0xbbde909a	-0.00679214
23	0xbc05506f	-0.008136853
24	0x3d31bc5a	0.043392517
25	0x3d1583c7	0.036502626
26	0xbdd33ec3	-0.10314705
27	0xbd2806eb	-0.041022222
28	0xba85e07d	-0.0010213997
29	0xbdd56f35	-0.10421602
30	0xbd8b5043	-0.06802418
31	0xbd607992	-0.05480344
32	0xbd58d4b7	-0.052937236
33	0xbd941191	-0.07229913
34	0x3c95e9f6	0.018300038
35	0x3c253a7b	0.010084744
36	0x3b532a0e	0.0032221111
37	0xbccdab1b	-0.025106004
38	0x3ce3f6c1	0.027827622
39	0xbdc4956f	-0.09598815
40	0xbdc0b7e2	-0.09410073
41	0xbdb6face	-0.08934556
42	0x3df1112e	0.11770855
43	0xbd22f267	-0.039781954
44	0xbc046393	-0.008080381
45	0x3de447b1	0.111464866
46	0xbd0d3033	-0.034469794
47	0xbda1ac69	-0.07894213
48	0x3d638a3f	0.055551764
49	0x3d9b72de	0.075902686
50	0x3d8f1d8b	0.06988057
51	0x3daaae53	0.08334031
52	0x3ccede92	0.025252614
53	0xbd46db2b	-0.04854886
54	0x3e32bd36	0.1745499
55	0x3d2c882d	0.042122055
56	0xbbc42b51	-0.005986609
57	0xbbd92354	-0.006626526
58	0x3d75e3cc	0.060031697
59	0xbc414b13	-0.011797684
60	0x3dab4cfb	0.08364292
61	0xbd659aae	-0.056055717
62	0xb98b5b03	-0.00026579955
63	0x3c873286	0.016503584
64	0xbdf569a3	-0.11983039
65	0xbd238bb2	-0.039928146
66	0x3cd01dbd	0.025404805
67	0x3cc3cafd	0.023900503
68	0x3d89109f	0.06692623
69	0x3dbbf072	0.09176721
70	0xbd417bab	-0.04723708
71	0xbd8f5c1f	-0.069999926
72	0x3d70a2bc	0.058748946
73	0xbd7bd2d8	-0.061480373
74	0x3cfa474c	0.030551575
75	0x3cd68205	0.026185045
76	0xbe398b1b	-0.18119471
77	0x3cb5d570	0.022196501
78	0xbe01a3be	-0.12660119
79	0xbc8f9c3d	-0.017530555
80	0xbd3bac63	-0.045818698
81	0xbca29502	-0.019846443
82	0x3d12f28a	0.035875835
83	0xbdce89e4	-0.10084894
84	0xbe0cd51b	-0.13753168
85	0xbdfb5cc9	-0.12273557
86	0xbdd17f81	-0.102293976
87	0xbd8458ad	-0.06462226
88	0x3d7cbae0	0.061701655
89	0x3d01ae4f	0.031660374
90	0xbd8436ec	-0.06455788
91	0x3d303fe3	0.043029677
92	0x3bc31b5f	0.0059541906
93	0x3cde8da2	0.027167145
94	0xbcf34dc5	-0.02970017
95	0xbd6dc16b	-0.058045786
96	0x3d3da4ae	0.04629963
97	0xbd6311fe	-0.05543708
98	0x3d8476f1	0.06467999
99	0xbc2a3787	-0.010389215
100	0xbcfcc6bc	-0.030856483
101	0x3cac7a32	0.021054361
102	0x3d905090	0.07046616
103	0x3dd3b202	0.10336687
104	0xbd028a85	-0.031870384
105	0x3d1ad89a	0.037804224
106	0xbcf41c7b	-0.029798737
107	0x3c7b2f3b	0.015331085
108	0x3a6108cd	0.000858438
109	0x3d8ce491	0.06879533
110	0xbbd63598	-0.0065371506
111	0x3c8630d3	0.016380703
112	0xbd9d2aab	-0.07674154
113	0x3d84afbc	0.06478831
114	0x3c8cb97c	0.01717829
115	0x3d1ec694	0.038763598
116	0xbd9a4525	-0.075327195
117	0xbe2f8bf8	-0.17143238
118	0x3b1d2c97	0.0023982876
119	0x3d9e9b2c	0.077444404
120	0x3d094f69	0.033522997
121	0x3d71d940	0.059045076
122	0xbd1e6170	-0.038667142
123	0xbd1a8599	-0.037725065
124	0xbd5d634f	-0.054049786
125	0x3d060654	0.03272088
126	0x3d8f92f4	0.07010451
127	0x3d126fd3	0.035751175
128	0x3dd3cd51	0.10341895
129	0xbd65b4c1	-0.056080583
130	0xbd52c8c9	-0.051461015
131	0x3ce4931a	0.027902175
132	0xbd3bbbe5	-0.045833487
133	0x3dddfd77	0.1083936
134	0xbdd50ae1	-0.104024656
135	0xbd5e8244	-0.05432345
136	0x3ddf0445	0.10889486
137	0xbcf422c9	-0.029801743
138	0x3d40a195	0.047029097
139	0x3b8bfd20	0.004272118
140	0x3b218e9a	0.0024651648
141	0x3cb0cff6	0.021583539
142	0xbcc1777f	-0.02361655
143	0x3e88cbcb	0.26717982
144	0xbe165e53	-0.1468442
145	0xbc81a812	-0.015827212
146	0x3cdc9c2e	0.026929941
147	0x3c91aa1f	0.017781315
148	0xbda5a4c4	-0.08088067
149	0xbc8044ea	-0.01565786
150	0x3d87f2b9	0.066380925
151	0x3c09d51f	0.008412628
152	0xbdf1e4ae	-0.11811195
153	0x3c4cda18	0.0125031695
154	0xbde50d52	-0.11184181
155	0xbd784754	-0.0606149
156	0x3ce3cdfc	0.027808182
157	0xbe09040d	-0.13380452
158	0x3e10ce65	0.14141233
159	0x3cf11f8e	0.029433992
160	0x3d17b49a	0.03703747
161	0x3cbbf9ff	0.022946356
162	0xbe0ac65f	-0.13552235
163	0xbd27fe8c	-0.04101424
164	0x3d6d010f	0.057862338
165	0x3d8d93e5	0.06912974
166	0x3cb41ad7	0.021985454
167	0x3d18d602	0.03731347
168	0x3cb70bfc	0.022344582
169	0xbc9b9608	-0.018992439
170	0x3d0a6d81	0.033795837
171	0x3c08b5c1	0.008344115
172	0xbd3ef985	-0.04662468
173	0x3ccb25ca	0.024798293
174	0x3d6a4e73	0.05720372
175	0xbd35617b	-0.044282418
176	0x3d2869b4	0.04111643
177	0xbe04149d	-0.12898488
178	0xbcbaa805	-0.022785196
179	0x3cce1070	0.025154322
180	0x3ce41bb3	0.02784524
181	0xbd8153c4	-0.06314805
182	0xbda7a18c	-0.081851095
183	0x3e3c9138	0.18414772
184	0x3c652982	0.013986947
185	0x3d13773e	0.03600239
186	0xbd63ddfa	-0.055631615
187	0xbcef1f8f	-0.029189853
188	0xbca66477	-0.020311577
189	0xbe1d3d58	-0.15355432
190	0x3d81a5e5	0.0633047
191	0xbe195327	-0.14973126
192	0x3a802b19	0.0009778469
193	0x3dbeab36	0.0931
194	0xbd86db43	-0.065847896
195	0x3d52ea8d	0.051493216
196	0x3dbc55c4	0.09196046
197	0x3ca8e757	0.020618124
198	0xbb81c43b	-0.00396016
199	0xbc16b55b	-0.009198512
200	0x3cff4ef7	0.031165583
201	0xbd1a71e1	-0.03770626
202	0x3e5b8a39	0.21439447
203	0x3d1267cc	0.03574352
204	0xbdaa4b46	-0.083151385
205	0x3ce15a28	0.02750881
206	0x3d00b56c	0.031423017
207	0xbd08ce2d	-0.03339975
208	0x3c741f74	0.014900077
209	0xbc8cb142	-0.017174367
210	0xbd0badd7	-0.034101333
211	0x3da25058	0.079254806
212	0x3d174b2a	0.036936916
213	0x3d3acb5e	0.045604102
214	0xbe092db0	-0.13396335
215	0xbd57b1bc	-0.052659735
216	0x3c0ad04d	0.008472514
217	0xbdb2c157	-0.08728283
218	0xbd2e7bf5	-0.042598683
219	0x3bcadde1	0.006191001
220	0x3db94b6d	0.090475895
221	0x3d5d57b0	0.054038703
222	0x3e0deecb	0.13860624
223	0xbd11a549	-0.03555802
224	0x3c89567b	0.01676487
225	0xbde94e6a	-0.113919094
226	0x3c0f71c0	0.008755147
227	0xbd92b227	-0.07162886
228	0xbe1608ee	-0.14651844
229	0xbdb86e08	-0.09005362
230	0x3d284e57	0.041090336
231	0xbd0c5879	-0.03426406
232	0x3df4a666	0.119458005
233	0xbbb361f6	-0.0054743243
234	0x3d238af1	0.039927427
235	0x3da7cb5c	0.081930846
236	0x3ddda771	0.108229525
237	0x3ca9118b	0.020638248
238	0x3da0febc	0.07861087
239	0x3d2df7f1	0.042472783
240	0x3dfc6701	0.12324334
241	0x3e684083	0.2268086
242	0x3c44feb6	0.012023618
243	0xbd959215	-0.073032536
244	0xbada6774	-0.0016662912
245	0xbc1a17a6	-0.009405052
246	0x3b902df4	0.0044000093
247	0xbd986973	-0.07441988
248	0xbd5a2528	-0.05325809
249	0x3d62683d	0.05527519
250	0xbcf10465	-0.02942104
251	0x3dc4c9af	0.096087806
252	0xbce1f7f7	-0.02758406
253	0xbdab3e77	-0.083615236
254	0xbd7980f5	-0.060914
255	0xbda3b10a	-0.07992752

network_body._body_endoder.seq_layers.0.bias f4 [128]
0	0x00000000	0.0
1	0x00000000	0.0
2	0x00000000	0.0
3	0x00000000	0.0
4	0x00000000	0.0
5	0x00000000	0.0
6	0x00000000	0.0
7	0x00000000	0.0
8	0x00000000	0.0
9	0x00000000	0.0
10	0x00000000	0.0
11	0x00000000	0.0
12	0x00000000	0.0
13	0x00000000	0.0
14	0x00000000	0.0
15	0x00000000	0.0
16	0x00000000	0.0
17	0x00000000	0.0
18	0x00000000	0.0
19	0x00000000	0.0
20	0x00000000	0.0
21	0x00000000	0.0
22	0x00000000	0.0
23	0x00000000	0.0
24	0x00000000	0.0
25	0x00000000	0.0
26	0x00000000	0.0
27	0x00000000	0.0
28	0x00000000	0.0
29	0x00000000	0.0
30	0x00000000	0.0
31	0x00000000	0.0
32	0x00000000	0.0
33	0x00000000	0.0
34	0x00000000	0.0
35	0x00000000	0.0
36	0x00000000	0.0
37	0x00000000	0.0
38	0x00000000	0.0
39	0x00000000	0.0
40	0x00000000	0.0
41	0x00000000	0.0
42	0x00000000	0.0
43	0x00000000	0.0
44	0x00000000	0.0
45	0x00000000	0.0
46	0x00000000	0.0
47	0x00000000	0.0
48	0x00000000	0.0
49	0x00000000	0.0
50	0x00000000	0.0
51	0x00000000	0.0
52	0x00000000	0.0
53	0x00000000	0.0
54	0x00000000	0.0
55	0x00000000	0.0
56	0x00000000	0.0
57	0x00000000	0.0
58	0x00000000	0.0
59	0x00000000	0.0
60	0x00000000	0.0
61	0x00000000	0.0
62	0x00000000	0.0
63	0x00000000	0.0
64	0x00000000	0.0
65	0x00000000	0.0
66	0x00000000	0.0
67	0x00000000	0.0
68	0x00000000	0.0
69	0x00000000	0.0
70	0x00000000	0.0
71	0x00000000	0.0
72	0x00000000	0.0
73	0x00000000	0.0
74	0x00000000	0.0
75	0x00000000	0.0
76	0x00000000	0.0
77	0x00000000	0.0
78	0x00000000	0.0
79	0x00000000	0.0
80	0x00000000	0.0
81	0x00000000	0.0
82	0x00000000	0.0
83	0x00000000	0.0
84	0x00000000	0.0
85	0x00000000	0.0
86	0x00000000	0.0
87	0x00000000	0.0
88	0x00000000	0.0
89	0x00000000	0.0
90	0x00000000	0.0
91	0x00000000	0.0
92	0x00000000	0.0
93	0x00000000	0.0
94	0x00000000	0.0
95	0x00000000	0.0
96	0x00000000	0.0
97	0x00000000	0.0
98	0x00000000	0.0
99	0x00000000	0.0
100	0x00000000	0.0
101	0x00000000	0.0
102	0x00000000	0.0
103	0x00000000	0.0
104	0x00000000	0.0
105	0x00000000	0.0
106	0x00000000	0.0
107	0x00000000	0.0
108	0x00000000	0.0
109	0x00000000	0.0
110	0x00000000	0.0
111	0x00000000	0.0
112	0x00000000	0.0
113	0x00000000	0.0
114	0x00000000	0.0
115	0x00000000	0.0
116	0x00000000	0.0
117	0x00000000	0.0
118	0x00000000	0.0
119	0x00000000	0.0
120	0x00000000	0.0
121	0x00000000	0.0
122	0x00000000	0.0
123	0x00000000	0.0
124	0x00000000	0.0
125	0x00000000	0.0
126	0x00000000	0.0
127	0x00000000	0.0

network_body._body_endoder.seq_layers.2.weight f4 [128, 128]
0	0xbdc545fc	-0.09632489
1	0x3dea1165	0.11429099
2	0xbdd13f1b	-0.102171145
3	0x3d8148b1	0.06312693
4	0xbe1d544d	-0.1536419
5	0x3e8fab60	0.28060436
6	0x3d1801aa	0.037110962
7	0xbcb6e9aa	-0.022328217
8	0xbe27379f	-0.16329812
9	0x3daad699	0.083417125
10	0x3dc3a32a	0.095526055
11	0xbd3af3d8	-0.045642704
12	0x3cc7d0e3	0.024391597
13	0x3cb03b51	0.02151266
14	0x3cd3fb5a	0.02587669
15	0x3dd2c07f	0.10290622
16	0x3c9ddf10	0.019271404
17	0xbbf42f8c	-0.007451957
18	0x3dd533e2	0.104102865
19	0xbd3eb4e9	-0.046559248
20	0xbbe8e741	-0.0071076457
21	0xbda4be5c	-0.08044121
22	0xbd21eb8d	-0.03953128
23	0xbccf1d98	-0.025282666
24	0x3d4fa163	0.05069102
25	0x3e0f566f	0.13997816
26	0xbd61e480	-0.055149555
27	0xbdf8d3ca	-0.121497706
28	0xbdc0a403	-0.09406283
29	0xbde7abc0	-0.113120556
30	0xbd8bc50f	-0.06824695
31	0xbb932d03	-0.00449145
32	0xbc160338	-0.009156041
33	0x3d878c70	0.06618583
34	0x3da21932	0.07914962
35	0xbca2dd18	-0.019880816
36	0xbdc9da7b	-0.09856125
37	0xbcfc58b9	-0.030804025
38	0xbd594d9a	-0.053052522
39	0x3e00f641	0.12593938
40	0x3dbb5032	0.091461554
41	0x3b5d4cea	0.0033767768
42	0x3c9303fe	0.01794624
43	0x3c9e8b08	0.019353405
44	0x3c93a3e5	0.018022487
45	0x3d0153d0	0.03157407
46	0xbd83c5ed	-0.06434236
47	0x3dc51cf6	0.096246645
48	0x3dc5e40c	0.09662637
49	0xbd6e3ae6	-0.05816164
50	0x3d2d5924	0.04232134
51	0x3d522964	0.051309004
52	0xbd5f3f0b	-0.05450348
53	0x3e04b2fd	0.12958904
54	0xbe1bf4f7	-0.15230165
55	0xbe2c2c1c	-0.16813701
56	0x3de531bf	0.11191129
57	0xbaac6aa5	-0.0013154341
58	0xbcc1fc32	-0.023679826
59	0x3c699fba	0.014259273
60	0x3cd77aad	0.026303614
61	0xbdd9b62b	-0.10630449
62	0x3d228da3	0.039685857
63	0xbdb692cf	-0.0891472
64	0xbdf3fb3a	-0.11913152
65	0xbdc546a5	-0.09632615
66	0x3d80519a	0.06265564
67	0x3d568048	0.052368432
68	0xbcd8ad7a	-0.026449908
69	0x3dc57ca9	0.09642918
70	0x3dadd1e7	0.08487301
71	0xbdc279c1	-0.09495879
72	0xbe29d5e6	-0.16585502
73	0x3c23c54d	0.009995771
74	0xbdb756e3	-0.08952119
75	0xbe31cc66	-0.17363128
76	0xbd06e207	-0.0329304
77	0xba35d811	-0.00069367985
78	0x3d825148	0.063631594
79	0xbd503d10	-0.050839484
80	0x3da2325c	0.079197615
81	0x3dfc3101	0.12314034
82	0xbdcc4063	-0.09973218
83	0x3cd66f0c	0.026175998
84	0xbc5b2660	-0.0133758485
85	0xbe2146c7	-0.15749656
86	0x3bd52489	0.0065045995
87	0xbdf3282b	-0.11872896
88	0xbd198921	-0.037484292
89	0x3e4bb965	0.19894941
90	0x3dba864c	0.09107646
91	0x3e23e97c	0.16007036
92	0xbd3068d9	-0.04306874
93	0x3dbdc58e	0.09266196
94	0xbd44634d	-0.047946263
95	0xbd9e63fa	-0.07733913
96	0xbdd12272	-0.10211648
97	0x3d307344	0.043078676
98	0xbd9a7879	-0.075425096
99	0x3bcaa1e3	0.006183849
100	0x3da71eec	0.08160195
101	0xbdf5947b	-0.11991211
102	0x3e2a6930	0.16641688
103	0xbd262dca	-0.04057101
104	0x3dbb0b9c	0.09133074
105	0xbd8ee187	-0.0697661
106	0xbd2a30e2	-0.041550525
107	0xbe19e5ab	-0.15029018
108	0x3db33124	0.08749607
109	0x3d788b32	0.060679622
110	0xbbbb3f7e	-0.005714356
111	0x3dcba26d	0.0994309
112	0xbe294b3f	-0.1653261
113	0xbdbc2312	-0.09186377
114	0x3d821bcd	0.06352959
115	0x3cd2e58d	0.025744224
116	0xbdb2d8c3	-0.0873275
117	0xbd2ac2f1	-0.041689817
118	0x3d86b417	0.06577318
119	0x3cbf301d	0.023338372
120	0x3bd64c9a	0.0065398933
121	0xbe17d887	-0.14828692
122	0x3b8eea21	0.0043614064
123	0xbc0535d6	-0.008130511
124	0x3cd8ad83	0.026449924
125	0xbdca9b60	-0.09892917
126	0x3d25c383	0.040469658
127	0x3e40ae3c	0.18816465
128	0x3dc2043b	0.09473463
129	0xbcd17334	-0.025567628
130	0x3e11d172	0.14240053
131	0x3e133c75	0.14378531
132	0x3e265d00	0.16246414
133	0x3c081249	0.008305141
134	0x3cc7ef8e	0.02440622
135	0x3d135231	0.035967056
136	0xbdcd8ea3	-0.100369714
137	0x3e04106c	0.1289689
138	0x3e280ade	0.16410396
139	0xbd15ff65	-0.036620516
140	0x3d992bba	0.07479043
141	0xbd223106	-0.039597534
142	0x3b8ba526	0.0042616306
143	0xbc5f6b7c	-0.013636466
144	0xbccdce03	-0.025122648
145	0xbd86aa55	-0.06575457
146	0x3d8223a8	0.06354457
147	0x3d8069c8	0.06270176
148	0x3e2ab438	0.1667031
149	0x3d5f6566	0.05454006
150	0xbdb05554	-0.08610025
151	0xbcfe2dba	-0.031027663
152	0x3d980201	0.07422257
153	0x3c2742b7	0.010208777
154	0x3d6ac4e9	0.057316694
155	0x3e0f9495	0.14021523
156	0x3d810154	0.062990814
157	0xbd50f1b7	-0.051011767
158	0xbdde3920	-0.108507395
159	0x3c1fc17d	0.009750721
160	0xbc7dc47c	-0.01548874
161	0x3dfa549b	0.122231685
162	0x3d208dd0	0.039197743
163	0x3d09c408	0.033634216
164	0xbde7ac30	-0.11312139
165	0x3ca4c785	0.02011467
166	0xbdf1414f	-0.11780035
167	0xbbd50876	-0.0065012528
168	0xbe10d439	-0.14143457
169	0xbe085112	-0.13312176
170	0xbd76104d	-0.06007414
171	0x3d45ecf3	0.048321676
172	0xbd8e6072	-0.06951989
173	0xbdac4f01	-0.08413506
174	0x3cc0be0c	0.023528121
175	0xbd64fea2	-0.0559069
176	0xbdf920ab	-0.12164434
177	0x3e5e0e5a	0.21685162
178	0x3db1731e	0.08664535
179	0xbcb6b739	-0.022304164
180	0x3ca68ffc	0.020332329
181	0xbe6476da	-0.22310963
182	0x3d832e83	0.06405356
183	0xbc391ef3	-0.011298883
184	0xbce2f950	-0.027706772
185	0x3ddf09a2	0.10890509
186	0x3d94abef	0.07259356
187	0xbdb4e4c9	-0.088327
188	0x3d8e9d5f	0.0696361
189	0x3dac11d6	0.084018394
190	0xbd8e1f9f	-0.06939625
191	0xbd8dbd79	-0.06920905
192	0xbde6bdcf	-0.11266672
193	0xbd41df78	-0.047332257
194	0xbc3a4a35	-0.011370231
195	0xbc9b5d56	-0.018965404
196	0x3e2ff402	0.17182925
197	0xbda323e8	-0.07965833
198	0xbd6ed9e9	-0.058313284
199	0xbe4ccbd0	-0.19999623
200	0xbe2094ce	-0.15681764
201	0xbb8b69ac	-0.0042545404
202	0x3de58493	0.11206927
203	0x3ba62da4	0.0050713588
204	0xbb964a25	-0.0045864754
205	0xbe4659cc	-0.19370192
206	0x3d6bf155	0.0576032
207	0x3d1c29a4	0.03812565
208	0xbc550a3a	-0.0130029265
209	0xbe0542fb	-0.13013832
210	0xbd853d81	-0.065058716
211	0x3c01768a	0.007901797
212	0xbd90c592	-0.070689335
213	0xbd11fa58	-0.035639137
214	0x3defa942	0.11702205
215	0x3c86a839	0.016437637
216	0x3c9c705a	0.019096542
217	0xba4deab7	-0.00078551046
218	0xbbca95f0	-0.0061824247
219	0xbc05a946	-0.008158034
220	0x3b33bc0d	0.002742532
221	0x3e6faada	0.23405018
222	0xbe0a91ed	-0.13532229
223	0x3dd9ad11	0.10628713
224	0x3c7b3d00	0.015334368
225	0xbaf66482	-0.0018798264
226	0xba59702a	-0.0008294607
227	0x3dd41fca	0.10357626
228	0xbc29c4b5	-0.01036184
229	0x3ddb3245	0.107029475
230	0xbd514be8	-0.05109778
231	0xbd2d0350	-0.042239487
232	0x3d378cee	0.044812135
233	0x3e11d531	0.14241482
234	0xbcf154b1	-0.02945933
235	0xbd7af7dc	-0.061271533
236	0x3de710c9	0.112824984
237	0xbc0fbe39	-0.00877338
238	0x3d8d0f47	0.068876795
239	0xbd206025	-0.03915419
240	0xbd0d1a7a	-0.03444908
241	0xbd2beb52	-0.041972466
242	0x3d3cd703	0.04610349
243	0x3ce2f5c8	0.027705088
244	0xbd9a27b3	-0.07527103
245	0x3e22fdd0	0.15917134
246	0xbd5e9947	-0.054345395
247	0xbc9a5367	-0.018838597
248	0xbd817478	-0.06321043
249	0x3d076747	0.033057477
250	0xbc2a52d6	-0.010395726
251	0x3d1d78a8	0.038445145
252	0xbc14519c	-0.00905266
253	0xbccdd755	-0.025127092
254	0x3dfe7603	0.12424853
255	0xbcc69db5	-0.024245122

network_body._body_endoder.seq_layers.2.bias f4 [128]
0	0x00000000	0.0
1	0x00000000	0.0
2	0x00000000	0.0
3	0x00000000	0.0
4	0x00000000	0.0
5	0x00000000	0.0
6	0x00000000	0.0
7	0x00000000	0.0
8	0x00000000	0.0
9	0x00000000	0.0
10	0x00000000	0.0
11	0x00000000	0.0
12	0x00000000	0.0
13	0x00000000	0.0
14	0x00000000	0.0
15	0x00000000	0.0
16	0x00000000	0.0
17	0x00000000	0.0
18	0x00000000	0.0
19	0x00000000	0.0
20	0x00000000	0.0
21	0x00000000	0.0
22	0x00000000	0.0
23	0x00000000	0.0
24	0x00000000	0.0
25	0x00000000	0.0
26	0x00000000	0.0
27	0x00000000	0.0
28	0x00000000	0.0
29	0x00000000	0.0
30	0x00000000	0.0
31	0x00000000	0.0
32	0x00000000	0.0
33	0x00000000	0.0
34	0x00000000	0.0
35	0x00000000	0.0
36	0x00000000	0.0
37	0x00000000	0.0
38	0x00000000	0.0
39	0x00000000	0.0
40	0x00000000	0.0
41	0x00000000	0.0
42	0x00000000	0.0
43	0x00000000	0.0
44	0x00000000	0.0
45	0x00000000	0.0
46	0x00000000	0.0
47	0x00000000	0.0
48	0x00000000	0.0
49	0x00000000	0.0
50	0x00000000	0.0
51	0x00000000	0.0
52	0x00000000	0.0
53	0x00000000	0.0
54	0x00000000	0.0
55	0x00000000	0.0
56	0x00000000	0.0
57	0x00000000	0.0
58	0x00000000	0.0
59	0x00000000	0.0
60	0x00000000	0.0
61	0x00000000	0.0
62	0x00000000	0.0
63	0x00000000	0.0
64	0x00000000	0.0
65	0x00000000	0.0
66	0x00000000	0.0
67	0x00000000	0.0
68	0x00000000	0.0
69	0x00000000	0.0
70	0x00000000	0.0
71	0x00000000	0.0
72	0x00000000	0.0
73	0x00000000	0.0
74	0x00000000	0.0
75	0x00000000	0.0
76	0x00000000	0.0
77	0x00000000	0.0
78	0x00000000	0.0
79	0x00000000	0.0
80	0x00000000	0.0
81	0x00000000	0.0
82	0x00000000	0.0
83	0x00000000	0.0
84	0x00000000	0.0
85	0x00000000	0.0
86	0x00000000	0.0
87	0x00000000	0.0
88	0x00000000	0.0
89	0x00000000	0.0
90	0x00000000	0.0
91	0x00000000	0.0
92	0x00000000	0.0
93	0x00000000	0.0
94	0x00000000	0.0
95	0x00000000	0.0
96	0x00000000	0.0
97	0x00000000	0.0
98	0x00000000	0.0
99	0x00000000	0.0
100	0x00000000	0.0
101	0x00000000	0.0
102	0x00000000	0.0
103	0x00000000	0.0
104	0x00000000	0.0
105	0x00000000	0.0
106	0x00000000	0.0
107	0x00000000	0.0
108	0x00000000	0.0
109	0x00000000	0.0
110	0x00000000	0.0
111	0x00000000	0.0
112	0x00000000	0.0
113	0x00000000	0.0
114	0x00000000	0.0
115	0x00000000	0.0
116	0x00000000	0.0
117	0x00000000	0.0
118	0x00000000	0.0
119	0x00000000	0.0
120	0x00000000	0.0
121	0x00000000	0.0
122	0x00000000	0.0
123	0x00000000	0.0
124	0x00000000	0.0
125	0x00000000	0.0
126	0x00000000	0.0
127	0x00000000	0.0

action_model._discrete_distribution.branches.0.weight f4 [3, 128]
0	0xb8bd796d	-9.0348396e-05
1	0x3b727388	0.0036995132
2	0x3b060ad2	0.0020453227
3	0x3bb12e87	0.005407158
4	0x3c42f48b	0.011899124
5	0x3c279ceb	0.010230283
6	0x3c43358b	0.011914621
7	0x3c3f5f14	0.011680383
8	0x3c4428ac	0.011972588
9	0xbb3ca588	-0.0028785188
10	0x3b6b6797	0.0035919899
11	0xbc2c528c	-0.010517728
12	0x3bd02555	0.0063521066
13	0x3c83b405	0.016077051
14	0xbc43cbbf	-0.011950432
15	0xbc3f5c19	-0.011679673
16	0x3ca24b29	0.01981123
17	0x3baaf55f	0.005217239
18	0xbbffc0bd	-0.0078049586
19	0xbc3327f1	-0.010934816
20	0xbc217618	-0.009854816
21	0xba1e6287	-0.00060419034
22	0x3a6b1b98	0.00089686504
23	0x3c1c9dbb	0.00955909
24	0xbb54503d	-0.0032396459
25	0x3ba95880	0.0051680207
26	0x3b370839	0.0027928485
27	0x3be4614d	0.006969607
28	0xbc8a47a9	-0.016879873
29	0xbc1d9109	-0.009617099
30	0xbc59d165	-0.013294552
31	0xbc5426f2	-0.012948738
32	0x3bc7d11e	0.0060979268
33	0x3b100ec8	0.0021981467
34	0x3bb48f78	0.005510267
35	0x3bf98bc3	0.007615538
36	0x3bd78fe0	0.0065784305
37	0xba61c517	-0.00086124375
38	0x3bbdadcf	0.005788542
39	0x3b66f60f	0.0035241877
40	0xbc90c7ea	-0.017673451
41	0x3c2dd6f5	0.010610332
42	0x3c530f0a	0.012882004
43	0xbb9342f8	-0.0044940673
44	0xbc02de4f	-0.007987573
45	0x3c9b3b97	0.018949313
46	0x3bcf7c80	0.00633198
47	0xbb5915fb	-0.0033124674
48	0xbb86b7f8	-0.0041112863
49	0xbb8188fe	-0.0039530983
50	0xbb296e9f	-0.0025853289
51	0xbba0dc1a	-0.0049090507
52	0x3bcfefe5	0.0063457363
53	0xbc41d54b	-0.011830638
54	0xbaaf1544	-0.0013357778
55	0x3c1c281f	0.00953105
56	0xbbe51dd0	-0.0069920793
57	0xb9d86cbd	-0.00041279747
58	0xbac48548	-0.0014993334
59	0xbc50e65d	-0.012750235
60	0x3c7cfc10	0.015440956
61	0x3b0dfb55	0.0021664698
62	0xbc01a201	-0.00791216
63	0x3a8c222a	0.0010691334
64	0xbbeef755	-0.007292668
65	0xbc1799e2	-0.009252997
66	0xbb85f20f	-0.0040876935
67	0x39d64b45	0.0004087334
68	0x3cb8a482	0.022539381
69	0x3bf5a61b	0.007496608
70	0xbb86241d	-0.0040936605
71	0xbb94dda7	-0.0045430246
72	0xbb565730	-0.0032705776
73	0x3be1e6a2	0.0068939487
74	0x3b6c2423	0.0036032281
75	0x3b253286	0.0025207116
76	0xba1c3ab8	-0.00059596775
77	0xbc1d46f3	-0.009599435
78	0x3c06634f	0.008202388
79	0xbc1cd6b2	-0.009572672
80	0xbb11668a	-0.0022186362
81	0x39ec8ce0	0.00045118388
82	0x3bad377e	0.005286156
83	0x3bd2b30d	0.006430036
84	0xbc4a552c	-0.012349408
85	0xbc3842ed	-0.011246425
86	0xbb0376c0	-0.0020059794
87	0x3c2ce9a3	0.01055375
88	0xbaa23717	-0.0012376037
89	0xbb54ab18	-0.0032450613
90	0xbb7b889a	-0.0038380981
91	0xbb9a5662	-0.0047100047
92	0x3c4ae4c7	0.012383646
93	0xbbbb39ba	-0.0057136687
94	0x3a94df08	0.0011357972
95	0x3c421513	0.011845845
96	0xbad73103	-0.0016417805
97	0xbad4346a	-0.0016189937
98	0x3c73c76d	0.01487909
99	0x3b2a064c	0.0025943695
100	0xb9947e59	-0.00028322896
101	0x3bc840f4	0.0061112586
102	0x3a65429b	0.0008745582
103	0xbc2fc4e7	-0.0107280975
104	0xbb173516	-0.0023072413
105	0xbc2c9893	-0.010534423
106	0xbc86bf93	-0.016448772
107	0xbc7a62cb	-0.015282343
108	0xbc68f6a8	-0.014218964
109	0xbb8fc1b5	-0.0043871053
110	0xbc176362	-0.009240003
111	0xbc273126	-0.010204589
112	0xbc4e4ee0	-0.012592047
113	0x3a5b8302	0.00083737087
114	0xbc0a0437	-0.008423856
115	0x3b61ed77	0.0034473815
116	0x3ba75bd8	0.005107384
117	0x3c5c475d	0.013444749
118	0xbc2134b3	-0.009839225
119	0xbc4875f9	-0.012235158
120	0xbb953dfd	-0.0045545087
121	0x3bc9f377	0.0061630565
122	0x3b22826b	0.0024796973
123	0x3a8dd668	0.0010821344
124	0x3b14e81d	0.0022721358
125	0x3bccc608	0.006249193
126	0x3b9767c4	0.004620524
127	0xbc47658a	-0.012170205
128	0xbb9bec06	-0.004758361
129	0xbc34ea07	-0.011042125
130	0x3beecc4f	0.007287539
131	0xbbb14ef2	-0.0054110223
132	0x3bd13cba	0.006385413
133	0xbb82e713	-0.0039948313
134	0xbca08b48	-0.019597664
135	0x3cc1698a	0.023609895
136	0x3b9a91c9	0.004717086
137	0xbc64f563	-0.01397452
138	0xbc44da47	-0.012014932
139	0xbc835bef	-0.016035048
140	0x3ba10cc9	0.004914854
141	0xbbf67f07	-0.007522467
142	0x3c4ec11f	0.012619286
143	0xbc382b0f	-0.011240735
144	0xbc204b34	-0.009783555
145	0xbb014c57	-0.001972934
146	0xbb13c16f	-0.0022545715
147	0x3c8a02a7	0.016846968
148	0xbc547f9d	-0.0129698785
149	0xbc350bbb	-0.01105016
150	0xbc56edaf	-0.013118192
151	0x3c8fa54e	0.017534878
152	0x3c0eedf4	0.008723725
153	0x3c47087c	0.012148019
154	0xbc3973a0	-0.011319071
155	0xbc0b06e2	-0.008485528
156	0xba6b9cda	-0.0008987911
157	0x3c1fc462	0.009751411
158	0x3c106e5d	0.008815375
159	0xb873837f	-5.805818e-05
160	0xbcac1375	-0.021005372
161	0x3b11432b	0.002216528
162	0x3baf2516	0.005344997
163	0x3a9c5153	0.0011926092
164	0xbbbb0a21	-0.0057079946
165	0x3b9bbbc3	0.0047526076
166	0x3c46d8ab	0.012136619
167	0xbc1a7013	-0.009426135
168	0x3bce1bc5	0.0062899315
169	0x3b91a7ca	0.004445051
170	0xbbf28a23	-0.007401721
171	0xbca63c4f	-0.02029243
172	0xbafa2a08	-0.0019086013
173	0xbccb2e28	-0.024802282
174	0xbb4655cb	-0.003026354
175	0x3c4a013b	0.012329395
176	0x3be35f00	0.006938815
177	0xbbc29903	-0.0059386506
178	0x3c12c371	0.00895773
179	0xbc139c17	-0.009009383
180	0xbca4b6fb	-0.020106783
181	0xbc1c03f7	-0.00952243
182	0x3b41132b	0.0029460888
183	0x3b37a573	0.00280222
184	0x3b9842d2	0.0046466375
185	0xbc70ba3f	-0.014692842
186	0xbb241eab	-0.0025042694
187	0x3aa17af6	0.001231997
188	0xbbadfc43	-0.005309613
189	0x3c026f58	0.007961117
190	0x3c071c8d	0.008246553
191	0xbbbd72c2	-0.0057815025
192	0x3b229c85	0.0024812531
193	0x3bc79ef1	0.0060919453
194	0x3c4b9627	0.012425936
195	0x3c0433ca	0.008068988
196	0xbc1cdab7	-0.00957363
197	0x3b48f472	0.003066328
198	0x3c0dde3d	0.008658943
199	0xbc0817a7	-0.00830642
200	0xbbbb2b1c	-0.005711926
201	0x3b249eaa	0.0025118985
202	0x3cab2300	0.020890713
203	0xbaaebea7	-0.0013331965
204	0x3b489e33	0.0030611872
205	0xba1cd0e9	-0.0005982058
206	0x3a1766ea	0.0005775528
207	0x3b9c4e26	0.004770058
208	0xbafdc560	-0.001936119
209	0x3bd1f4ef	0.006407372
210	0xbc1a5b5c	-0.009421196
211	0xbbaae046	-0.0052147238
212	0x3b83ca1f	0.0040218974
213	0x3c84c29a	0.016206075
214	0x3bc084ef	0.005875222
215	0x3a4eb1a7	0.00078847486
216	0x3bbad60b	0.0057017854
217	0xbbb1db2e	-0.0054277396
218	0x3c6bf30f	0.014401211
219	0x3bef41f7	0.007301565
220	0xbb497b14	-0.0030743526
221	0xbb9ae8f3	-0.0047274767
222	0x3c38141c	0.011235263
223	0xbc75275f	-0.014963
224	0x3c539d38	0.012915902
225	0x3bae6e2f	0.0053231935
226	0xbc3adaa2	-0.011404665
227	0x3bb5b65f	0.005545422
228	0x3bbeec80	0.005826533
229	0xbbed3073	-0.0072384416
230	0x39cf7342	0.0003956799
231	0xbb6cee03	-0.0036152608
232	0x3bd778f8	0.0065757
233	0xb74d540f	-1.2238524e-05
234	0x3c3e1b9c	0.011603262
235	0x3cc4cbea	0.024023015
236	0x3c9d74b3	0.019220686
237	0xbac14249	-0.0014744486
238	0x3b422993	0.002962683
239	0x3c1cac25	0.009562527
240	0xbb6b5015	-0.0035905887
241	0x3ba0b082	0.004903854
242	0x3919abe3	0.0001465525
243	0x3a52f4d0	0.0008047344
244	0x3a16fa77	0.0005759368
245	0xbbde4b33	-0.006783867
246	0x3c0af87a	0.008482093
247	0xbbf131b5	-0.007360662
248	0xba89ba2a	-0.0010507752
249	0x3a53bc6b	0.00080770877
250	0x3b99ebfc	0.004697321
251	0xba4f0788	-0.00078975456
252	0x3bfe046a	0.007751991
253	0x3ac92acf	0.0015347841
254	0x3c2fed7b	0.010737772
255	0xbc38f5ae	-0.011289043

action_model._discrete_distribution.branches.0.bias f4 [3]
0	0x00000000	0.0
1	0x00000000	0.0
2	0x00000000	0.0

action_model._discrete_distribution.branches.1.weight f4 [3, 128]
0	0x3c6fd30a	0.014637718
1	0xbb57b125	-0.0032911983
2	0xba285af2	-0.00064222433
3	0x3c043f2b	0.008071701
4	0xba66c85f	-0.00088036613
5	0xbb84d30a	-0.004053478
6	0x3bcbdd6c	0.006221464
7	0x3b27ca2b	0.002560268
8	0x3b40eefb	0.0029439318
9	0xbc5c6b22	-0.013453277
10	0x3b450507	0.003006281
11	0xbba82a57	-0.0051320004
12	0x3c5eb42f	0.013592764
13	0x3c752a55	0.014963706
14	0xbc44600f	-0.011985793
15	0xbc64d3ea	-0.01396654
16	0x3bf3ac27	0.0074362936
17	0x3b182727	0.0023216696
18	0xbb23e72f	-0.0025009622
19	0xbc371c03	-0.011176112
20	0xbce8aa4d	-0.028401518
21	0xbc160a5e	-0.009157745
22	0xbc69f5d7	-0.014279804
23	0x3c2dce1e	0.010608224
24	0x3c6043cd	0.01368804
25	0xbc50beaa	-0.01274077
26	0x3c554fc0	0.013019502
27	0xbac752eb	-0.0015207207
28	0x3ca97c0f	0.020689039
29	0xbc1c4f1c	-0.0095403455
30	0x3c646d58	0.013942085
31	0xbbe4fc28	-0.006988067
32	0x3c5a2de7	0.013316608
33	0xbb98d4a9	-0.004664023
34	0x3a8de846	0.0010826669
35	0x3c5fdac2	0.013662996
36	0x3b5c346b	0.003360058
37	0xbab8fb09	-0.00141129
38	0x3b9dcb0f	0.0048154662
39	0xba98aa70	-0.0011647474
40	0xbbdfb04b	-0.0068264357
41	0x3c268a18	0.01016476
42	0xbb09629f	-0.0020963324
43	0x3c23a5f3	0.009988296
44	0xbb37be36	-0.0028036959
45	0x3b33ec3b	0.0027454037
46	0x3ad4703d	0.0016207766
47	0x3b435150	0.0029803105
48	0x3c46fffd	0.012145993
49	0x3b97a6fc	0.0046280604
50	0xbc0e1631	-0.008672283
51	0xbb9a5981	-0.0047103767
52	0x3bfb6432	0.0076718563
53	0xbb589fa0	-0.0033054128
54	0x3beacbd3	0.007165411
55	0xba1dea04	-0.0006023946
56	0x3caa54ee	0.02079245
57	0xbc55e685	-0.013055448
58	0xbb228cc4	-0.002480314
59	0x3c6f0347	0.014588184
60	0xbaa59e0f	-0.0012635606
61	0xbba17b53	-0.0049280315
62	0xbbc46b64	-0.0059942473
63	0xbc2eedc2	-0.010676803
64	0xbb1359ee	-0.0022484022
65	0x3b12d3b2	0.0022404012
66	0xbaac2cd6	-0.0013135921
67	0x3c4db22d	0.012554687
68	0x3c508627	0.012727297
69	0xbc2cde92	-0.010551112
70	0x3bfb5a9b	0.007670713
71	0xbb3bc773	-0.0028652817
72	0x3a2a9066	0.00065065024
73	0x3c124a6a	0.0089288745
74	0xbc1dcba5	-0.009631072
75	0x3bd7e95d	0.0065890984
76	0xbb9509e7	-0.0045482996
77	0xbc26a32c	-0.010170739
78	0x3bbc553f	0.005747467
79	0xbbc1ea10	-0.005917795
80	0x3c8bd07f	0.017067192
81	0xbbe0dab0	-0.006862007
82	0xbc34ba42	-0.011030735
83	0x3b999510	0.004686959
84	0xbba773eb	-0.005110254
85	0xbbcc1491	-0.0062280376
86	0x3c0af3a9	0.008480945
87	0x3b70db77	0.0036751905
88	0x3b3271d7	0.0027228498
89	0x3b24586b	0.0025077115
90	0x3c0a8842	0.008455338
91	0x3c3ee6a0	0.011651665
92	0xbbfce7d8	-0.0077180676
93	0x3b90a663	0.004414366
94	0xbc18b383	-0.009320143
95	0xbbb991cf	-0.0056631337
96	0xba3bad47	-0.0007159304
97	0xba42bb51	-0.0007428425
98	0x3b354992	0.002766226
99	0xbb14e657	-0.00227203
100	0x3bcf44a5	0.0063253217
101	0x3c91e914	0.017811336
102	0xbba56898	-0.005047869
103	0xbc36c71d	-0.011155871
104	0xbb4bb54f	-0.003108341
105	0x3c7ed7e2	0.0155544
106	0xbba558f9	-0.0050460068
107	0x3bc09d5b	0.0058781332
108	0xb9352e3c	-0.00017278729
109	0xbc56be8f	-0.013106956
110	0x3c3df214	0.01159336
111	0xbcb241cb	-0.021759888
112	0x3b674c6b	0.0035293351
113	0xbb2871fe	-0.002570271
114	0xbc903587	-0.017603649
115	0xbbf4f95f	-0.0074760164
116	0xbc0ed1ab	-0.008716981
117	0x3ab5308f	0.0013823676
118	0x3c302b53	0.010752517
119	0xbc9e9bc1	-0.019361379
120	0xbc847e57	-0.016173525
121	0xbcbc4734	-0.022983171
122	0x3aa2b43e	0.0012413335
123	0xbc1432f0	-0.009045348
124	0x3bf909e8	0.007600058
125	0x3c1f8218	0.009735607
126	0x39ef9fed	0.00045704786
127	0xbb5282e3	-0.0032121472
128	0x3c327f77	0.010894648
129	0xbc0ad863	-0.008474442
130	0xbbda3a3d	-0.0066597746
131	0x3bf9bff5	0.00762176
132	0xbad2d707	-0.0016085812
133	0xb9896194	-0.00026203378
134	0xb92a7165	-0.00016254706
135	0x3c8b54c9	0.017008202
136	0xbc36169c	-0.011113789
137	0x3c29d504	0.010365728
138	0xbc41e813	-0.011835116
139	0xbacd85f8	-0.0015680185
140	0x3c084a69	0.008318522
141	0xbbc11514	-0.0058924053
142	0xba8683fb	-0.0010262722
143	0xbc273c68	-0.010207273
144	0xbc3d203d	-0.011543331
145	0xb8595b77	-5.1822015e-05
146	0x3b42ba0a	0.0029712939
147	0xbb9b5fdc	-0.004741652
148	0xba4146ec	-0.0007372934
149	0xbb9a2e73	-0.004705244
150	0xbc318939	-0.010835939
151	0x3bf71237	0.007540013
152	0x3ad4bfb3	0.0016231447
153	0xbb9dad13	-0.004811892
154	0xbbfc8c7a	-0.007707176
155	0x3abb1490	0.0014273096
156	0xbbf54c02	-0.0074858675
157	0xbc8bfede	-0.017089304
158	0x3b0f6b94	0.002188419
159	0xba09b814	-0.0005253565
160	0xba8c3279	-0.0010696194
161	0x3b8e896e	0.004349879
162	0xbc3d33df	-0.011548012
163	0x3bd39823	0.006457345
164	0x3b53915d	0.0032282688
165	0x3be1a657	0.0068862843
166	0x3b8f5872	0.004374557
167	0xbbe40873	-0.006959015
168	0x3c3ea384	0.011635665
169	0xbc2b4b0b	-0.010454903
170	0x3ca6cc0c	0.020360969
171	0xbaa48c89	-0.001255409
172	0xbbe4e362	-0.006985114
173	0xbc49e51d	-0.012322691
174	0x3c6fea17	0.014643214
175	0x3c6cbf23	0.014449867
176	0xbae7c94a	-0.001768389
177	0x3b725fa7	0.0036983283
178	0x3b6b4518	0.0035899337
179	0xbbe4ea20	-0.0069859177
180	0x3c8ec270	0.0174267
181	0xbc01b190	-0.007915869
182	0x3b5ece45	0.0033997458
183	0x3b038e1b	0.0020073715
184	0xbcb13051	-0.021629484
185	0x3c8254cf	0.01590958
186	0x3c981290	0.018563539
187	0xbcd926fd	-0.026507849
188	0x3cbf2811	0.023334535
189	0xbb8c7ed4	-0.00428758
190	0x3af454fd	0.0018641051
191	0xbc00c807	-0.00786019
192	0xbae75b38	-0.0017651087
193	0xbc2398c0	-0.009985149
194	0x3bbe5721	0.0058087264
195	0xbb0ebf0c	-0.0021781353
196	0xbc6c5878	-0.0144253895
197	0xbbf9acfd	-0.0076194988
198	0xbc5c1c00	-0.01343441
199	0x3c0ca30a	0.008583793
200	0xb916ecaa	-0.00014393279
201	0x3c003b1e	0.007826595
202	0x3c05443f	0.008133947
203	0x3d04d14c	0.032426164
204	0x382b6ef7	4.087292e-05
205	0xbc28e8ec	-0.010309439
206	0x3ab85097	0.0014062104
207	0x3c2308a4	0.009950791
208	0x3a387547	0.00070365187
209	0xbacd9bdd	-0.001568671
210	0x3c00a2de	0.007851331
211	0x3c102ea7	0.008800185
212	0x3b43fc72	0.0029905108
213	0x3bda5255	0.006662647
214	0x3c2ef061	0.010677428
215	0x3c5acdfb	0.013354774
216	0x3906b9c8	0.00012848445
217	0x3bc394f7	0.0059686857
218	0xbc84e139	-0.016220676
219	0x3c00c0ea	0.007858494
220	0x3b75bd82	0.0037496989
221	0x3b8de981	0.0043308144
222	0xbbad33c4	-0.005285712
223	0xba1f940f	-0.0006087431
224	0x3c57ece5	0.013179039
225	0xba233c78	-0.0006226967
226	0xbbeed1a3	-0.0072881742
227	0xbab2834d	-0.0013619453
228	0xbabc332b	-0.0014358511
229	0xbc09ba7b	-0.008406277
230	0x389fa030	7.611548e-05
231	0xbbe8ae5d	-0.007100864
232	0xba5ecf27	-0.0008499496
233	0x3b597885	0.0033183408
234	0x3c89537f	0.016763447
235	0xba083b95	-0.00051968667
236	0xbb8af663	-0.0042407974
237	0x3c100c65	0.008792018
238	0x3ba4577a	0.005015311
239	0xbc03fe24	-0.008056197
240	0x3a47f6a1	0.0007627998
241	0xbc24b241	-0.010052265
242	0x3c14fa6c	0.009092908
243	0x3c1ec56f	0.0096906265
244	0xbc539c60	-0.012915701
245	0xbc06275f	-0.008188098
246	0xbab29feb	-0.0013627982
247	0xbb90eaeb	-0.0044225357
248	0xbc995c0f	-0.018720655
249	0xbb2b9126	-0.0026179045
250	0x3bbc9793	0.0057553737
251	0xbc25c388	-0.010117419
252	0xbc033503	-0.008008244
253	0xba61efd0	-0.00086188037
254	0xbc3a6e5b	-0.01137885
255	0x3cad4b7b	0.021154156

action_model._discrete_distribution.branches.1.bias f4 [3]
0	0x00000000	0.0
1	0x00000000	0.0
2	0x00000000	0.0

network_body._body_endoder.seq_layers.0.weight f4 [128, 192]
0	0x3c843f83	0.016143566
1	0x3c7e940e	0.015538229
2	0xbdb6a79f	-0.0891869
3	0xbc35a7f3	-0.0110874055
4	0x3d0f97e9	0.035056982
5	0xbd8a7004	-0.067596465
6	0xbad3cfe0	-0.0016159974
7	0xbd6ada71	-0.05733723
8	0x3cb0fe54	0.021605648
9	0x3d192886	0.03739216
10	0xbd38af01	-0.04508877
11	0x3e2a7379	0.16645612
12	0x3ceb51df	0.028725563
13	0x3dd8351f	0.10557007
14	0x3bd095f0	0.00636553
15	0x3d0c3883	0.03423358
16	0xbd282952	-0.04105503
17	0x3d31703e	0.043319933
18	0x3e23c232	0.15992048
19	0xbdb4df0e	-0.08831607
20	0x3e03872a	0.1284453
21	0xbda6e6b3	-0.08149471
22	0xbd3d7374	-0.046252683
23	0xbca046ab	-0.019564947
24	0x3db0e0f9	0.0863666
25	0x3d2842ce	0.041079335
26	0x3da4d466	0.08048324
27	0x3cb0da45	0.021588454
28	0xbcc84dcb	-0.024451157
29	0x3dd110cd	0.102082826
30	0xbd4084b0	-0.04700154
31	0xbd439e52	-0.047758408
32	0xbdbdc8e6	-0.09266834
33	0x3d775f1d	0.06039344
34	0x3c9f4323	0.019441193
35	0x3c954a6e	0.018223967
36	0xbde4db2d	-0.11174617
37	0xbcf47282	-0.029839758
38	0x3d8e60a5	0.06952027
39	0x3bbe1a7c	0.005801497
40	0xbdca70a8	-0.09884769
41	0x3d960800	0.07325745
42	0x3d09304e	0.033493333
43	0x3ccae3f3	0.024766898
44	0x3c803578	0.015650496
45	0xbd142e99	-0.03617725
46	0x3d3a5ded	0.04549973
47	0xbdbeadea	-0.09310515
48	0x3bf449de	0.0074550947
49	0xbc78afe6	-0.015178656
50	0xbc62afb2	-0.013835834
51	0x3da7af36	0.08187716
52	0x3d07f216	0.033189856
53	0x3e1c00ab	0.1523463
54	0x3d7eafb2	0.062179275
55	0xbd611c89	-0.054958854
56	0xbd1bbd2c	-0.038022205
57	0x3d130098	0.035889238
58	0xbdc0a09c	-0.09405634
59	0xbe17296a	-0.14761892
60	0x3de5957a	0.11210151
61	0x3d9be447	0.076119
62	0x3ce861ed	0.028367007
63	0xbce47a83	-0.02789045
64	0xbd73cf6b	-0.05952398
65	0xbd4960c5	-0.049164552
66	0xbc870eb5	-0.016486505
67	0x3cb61b62	0.022229854
68	0x3e4133b6	0.18867382
69	0xb8b49250	-8.610322e-05
70	0x3cf2fff3	0.029663062
71	0x3d159156	0.036515556
72	0x3da41a47	0.080128245
73	0x3990c3fd	0.00027611843
74	0x3d32a791	0.043616835
75	0x3d691006	0.056900047
76	0xbcbb4ba7	-0.022863222
77	0x3e43a5de	0.19106242
78	0xbc0273a8	-0.007962145
79	0x3d24a8e0	0.040200114
80	0x3b887060	0.004163787
81	0x3c78df93	0.015190023
82	0xbdaf9872	-0.085739985
83	0xbc22317c	-0.009899493
84	0x3d1842a7	0.03717294
85	0x3d67cbfa	0.05659101
86	0xbd9605fb	-0.073253594
87	0xbe51e919	-0.20499076
88	0xbce47fd0	-0.027892977
89	0xbdb44ddd	-0.08803914
90	0x3d4e2dbe	0.050336592
91	0xbb9a3cd7	-0.0047069597
92	0xbcf8d20c	-0.030373596
93	0xbd8eda3f	-0.06975221
94	0xbde0185b	-0.109421454
95	0xbdf814a2	-0.121133104
96	0xbc5ccbb7	-0.013476304
97	0xbd4a7f1e	-0.049437635
98	0x3c96ded2	0.018416796
99	0xbd8876e0	-0.066632986
100	0x3da4bec0	0.08044195
101	0xbc5b0c2b	-0.0133696
102	0xbdbe3261	-0.09286953
103	0x3d6b1086	0.057388805
104	0x3ddb05f4	0.10694495
105	0x3dd24491	0.10266984
106	0x3c41d268	0.01182995
107	0x3e1ee901	0.15518571
108	0x3c0a290c	0.008432638
109	0xbdcc59b7	-0.09978049
110	0xbd16c4ea	-0.036808886
111	0x3d2d5198	0.042314142
112	0xbdb0db72	-0.08635606
113	0x3db3a4b1	0.08771647
114	0xbd3cee88	-0.04612592
115	0xbcb1ebde	-0.021718916
116	0xbd07971f	-0.033103105
117	0xbc72db1a	-0.014822746
118	0x3d61d3f9	0.055133794
119	0x3d897d3f	0.06713342
120	0xbd52cf45	-0.0514672
121	0x3e12e920	0.14346743
122	0xbd929095	-0.07156483
123	0xbcfbc7ac	-0.03073486
124	0x3e0dc7b5	0.13845713
125	0xbc8a27e3	-0.016864723
126	0x3c88cee8	0.016700223
127	0xbd2be301	-0.041964535
128	0x3cecd9ca	0.028912444
129	0x3d3d83cf	0.04626828
130	0x3cb57d9f	0.022154627
131	0x3d0dcd35	0.03461953
132	0x3ddc7243	0.10763981
133	0xbe0cdb5a	-0.13755551
134	0xbd983238	-0.074314535
135	0xbd1d8a5b	-0.038462024
136	0x3b941447	0.004519019
137	0x3d066140	0.03280759
138	0x3c1e4785	0.009660606
139	0xbd771245	-0.060320158
140	0xbcbdaef8	-0.02315472
141	0xbddf6a3e	-0.10908936
142	0x3cb4ddd4	0.022078432
143	0x3cce7d80	0.025206327
144	0x3dbf2d2a	0.09334786
145	0xbddeaca8	-0.10872775
146	0xbd7389d6	-0.059457622
147	0x3ce48a1b	0.027897885
148	0x3d98afd9	0.07455415
149	0x3b08d313	0.0020877763
150	0x3c430a19	0.011904263
151	0x3d5cba0c	0.053888366
152	0x3e15e062	0.14636377
153	0x3d7890ad	0.06068485
154	0x3ca2976f	0.0198476
155	0x3d0f9716	0.035056196
156	0xbd8996bd	-0.06718204
157	0x3c9e93f2	0.019357655
158	0xbd4c63ae	-0.04989975
159	0x3d82a13d	0.0637841
160	0xbda5783d	-0.08079574
161	0x3b13bc95	0.0022542824
162	0xbc9cb483	-0.019129043
163	0xbdb77043	-0.08956959
164	0x3d59091e	0.05298721
165	0x3dbb8f32	0.09158172
166	0x3b20b7e8	0.002452368
167	0x3e01d863	0.12680201
168	0xbd115e3d	-0.035490263
169	0xbdcbef50	-0.099577546
170	0xbb784b28	-0.0037886593
171	0x3d3ce6ce	0.04611855
172	0x3ab87d4e	0.001407543
173	0x3e0045db	0.12526648
174	0xbd70b9c3	-0.058770906
175	0x3cb7114b	0.022347113
176	0xbe04b161	-0.1295829
177	0x3e1d49b2	0.15360144
178	0xbbec0243	-0.007202418
179	0xba801cb4	-0.0009774179
180	0x39613603	0.00021477793
181	0xbda1a9a5	-0.07893685
182	0x3d1257bc	0.0357282
183	0xbcf81213	-0.030282056
184	0x3da3d1a5	0.07998971
185	0x3d3598cd	0.044335175
186	0x3c0979fc	0.0083909
187	0x3d75414a	0.059876718
188	0xbcb83476	-0.022485953
189	0xbdd975d3	-0.10618176
190	0x3da0c573	0.078501604
191	0xbc0e1efc	-0.008674379
192	0x3d8c7849	0.0685888
193	0x3df3852b	0.11890634
194	0xbdc75f2c	-0.097349495
195	0xbd3c9d46	-0.046048425
196	0xbc8f13c1	-0.017465474
197	0x3d89ac35	0.06722299
198	0xbd3c711d	-0.04600631
199	0xbd694beb	-0.056957167
200	0xbd089dc4	-0.033353582
201	0x3c8fac1a	0.01753812
202	0xbd5acaa6	-0.053415917
203	0xbc7b575d	-0.015340653
204	0xbcf542ee	-0.029939141
205	0x3c947041	0.018119933
206	0xbc996193	-0.018723285
207	0x3ccb1015	0.024787942
208	0xbcfea6aa	-0.031085331
209	0x3c42740c	0.011868488
210	0x3d8588e1	0.06520248
211	0x3dee6817	0.11640947
212	0xbc01669e	-0.007898001
213	0x3db1b165	0.086764134
214	0xbcd9f384	-0.026605375
215	0x3c9ff050	0.01952377
216	0x3d2e2a9a	0.042521097
217	0x3d9286df	0.07154631
218	0xbd7dd011	-0.061966006
219	0x3c1e5d12	0.009665744
220	0xbdac27eb	-0.08406051
221	0xbcf6dfad	-0.030135954
222	0x3ca055d5	0.019572178
223	0xbd1ab04a	-0.03776578
224	0xbd2aa275	-0.041658837
225	0x3bb059a5	0.00538178
226	0xbd294207	-0.041322734
227	0xbcba630a	-0.022752304
228	0x3da007fb	0.07814022
229	0xbe08dfb7	-0.1336659
230	0x3d122377	0.035678353
231	0x3c344e86	0.01100505
232	0x3ddf0178	0.10888952
233	0xbd44708a	-0.047958888
234	0xbd1976f9	-0.037466977
235	0xbc3b8aca	-0.011446664
236	0x3d80d539	0.06290669
237	0x3ce88c0d	0.028387094
238	0x3c050889	0.008119711
239	0x3d4b699a	0.049661256
240	0x3caf6755	0.021411577
241	0x3db1aa4c	0.0867506
242	0xbdb00b8a	-0.08595951
243	0x3d09d8b9	0.03365395
244	0xbdb256bf	-0.08707952
245	0xbd47b7f0	-0.0487594
246	0xbd578a44	-0.052622095
247	0x3dd977e7	0.10618573
248	0xbc08fe56	-0.00836142
249	0x3d1fb2c4	0.038988844
250	0xbe29ad39	-0.16569985
251	0xbd956d8d	-0.07296286
252	0xbcfbed3d	-0.030752772
253	0x3dba0487	0.09082895
254	0xbd91e815	-0.07124344
255	0xbd09fb63	-0.033687007

network_body._body_endoder.seq_layers.0.bias f4 [128]
0	0x00000000	0.0
1	0x00000000	0.0
2	0x00000000	0.0
3	0x00000000	0.0
4	0x00000000	0.0
5	0x00000000	0.0
6	0x00000000	0.0
7	0x00000000	0.0
8	0x00000000	0.0
9	0x00000000	0.0
10	0x00000000	0.0
11	0x00000000	0.0
12	0x00000000	0.0
13	0x00000000	0.0
14	0x00000000	0.0
15	0x00000000	0.0
16	0x00000000	0.0
17	0x00000000	0.0
18	0x00000000	0.0
19	0x00000000	0.0
20	0x00000000	0.0
21	0x00000000	0.0
22	0x00000000	0.0
23	0x00000000	0.0
24	0x00000000	0.0
25	0x00000000	0.0
26	0x00000000	0.0
27	0x00000000	0.0
28	0x00000000	0.0
29	0x00000000	0.0
30	0x00000000	0.0
31	0x00000000	0.0
32	0x00000000	0.0
33	0x00000000	0.0
34	0x00000000	0.0
35	0x00000000	0.0
36	0x00000000	0.0
37	0x00000000	0.0
38	0x00000000	0.0
39	0x00000000	0.0
40	0x00000000	0.0
41	0x00000000	0.0
42	0x00000000	0.0
43	0x00000000	0.0
44	0x00000000	0.0
45	0x00000000	0.0
46	0x00000000	0.0
47	0x00000000	0.0
48	0x00000000	0.0
49	0x00000000	0.0
50	0x00000000	0.0
51	0x00000000	0.0
52	0x00000000	0.0
53	0x00000000	0.0
54	0x00000000	0.0
55	0x00000000	0.0
56	0x00000000	0.0
57	0x00000000	0.0
58	0x00000000	0.0
59	0x00000000	0.0
60	0x00000000	0.0
61	0x00000000	0.0
62	0x00000000	0.0
63	0x00000000	0.0
64	0x00000000	0.0
65	0x00000000	0.0
66	0x00000000	0.0
67	0x00000000	0.0
68	0x00000000	0.0
69	0x00000000	0.0
70	0x00000000	0.0
71	0x00000000	0.0
72	0x00000000	0.0
73	0x00000000	0.0
74	0x00000000	0.0
75	0x00000000	0.0
76	0x00000000	0.0
77	0x00000000	0.0
78	0x00000000	0.0
79	0x00000000	0.0
80	0x00000000	0.0
81	0x00000000	0.0
82	0x00000000	0.0
83	0x00000000	0.0
84	0x00000000	0.0
85	0x00000000	0.0
86	0x00000000	0.0
87	0x00000000	0.0
88	0x00000000	0.0
89	0x00000000	0.0
90	0x00000000	0.0
91	0x00000000	0.0
92	0x00000000	0.0
93	0x00000000	0.0
94	0x00000000	0.0
95	0x00000000	0.0
96	0x00000000	0.0
97	0x00000000	0.0
98	0x00000000	0.0
99	0x00000000	0.0
100	0x00000000	0.0
101	0x00000000	0.0
102	0x00000000	0.0
103	0x00000000	0.0
104	0x00000000	0.0
105	0x00000000	0.0
106	0x00000000	0.0
107	0x00000000	0.0
108	0x00000000	0.0
109	0x00000000	0.0
110	0x00000000	0.0
111	0x00000000	0.0
112	0x00000000	0.0
113	0x00000000	0.0
114	0x00000000	0.0
115	0x00000000	0.0
116	0x00000000	0.0
117	0x00000000	0.0
118	0x00000000	0.0
119	0x00000000	0.0
120	0x00000000	0.0
121	0x00000000	0.0
122	0x00000000	0.0
123	0x00000000	0.0
124	0x00000000	0.0
125	0x00000000	0.0
126	0x00000000	0.0
127	0x00000000	0.0

network_body._body_endoder.seq_layers.2.weight f4 [128, 128]
0	0x3d6f61c2	0.05844284
1	0xbc99d503	-0.01877833
2	0xbcd54e83	-0.026038414
3	0x3d8be3d6	0.06830566
4	0xbc389cbe	-0.011267839
5	0xbe31f020	-0.17376757
6	0xbbf68bd5	-0.0075239935
7	0xbce7831c	-0.02826076
8	0xbda54771	-0.08070267
9	0xbd93ad89	-0.072108336
10	0xbd086cdd	-0.033306945
11	0xbd6dd18a	-0.05806116
12	0x3d1a7089	0.03770498
13	0x3c5bd257	0.013416848
14	0x3cdd6d9b	0.027029803
15	0xbd2b425f	-0.041811343
16	0xbdd644f4	-0.104623705
17	0x3df0a232	0.11749686
18	0x3cbc5354	0.022988953
19	0x3df22038	0.118225515
20	0xbdc6cc5d	-0.09706948
21	0x3d4f637a	0.050631978
22	0xbd0c2127	-0.034211304
23	0xbe532967	-0.20621262
24	0xbc152840	-0.009103835
25	0x3d12887a	0.035774685
26	0xbe31e987	-0.1737424
27	0x3c863feb	0.0163879
28	0x3d5b1c24	0.053493634
29	0x3cf7ced9	0.03025
30	0x3d653c6c	0.055965826
31	0x3d6603be	0.056155913
32	0x3d846c89	0.06466014
33	0xbe15de69	-0.14635624
34	0xbc87c4ef	-0.016573397
35	0xbcbe77db	-0.02325051
36	0x3cd10f63	0.025520032
37	0x3d37c4b1	0.044865314
38	0xbda790a0	-0.08181882
39	0x3e26f3fc	0.1630401
40	0x3da347ee	0.07972704
41	0xbc0727e1	-0.008249254
42	0x3bddb15a	0.0067655267
43	0x3dc7232f	0.097235076
44	0x3d12a3eb	0.035800856
45	0x3d8513ea	0.06497939
46	0x3cfcc8d8	0.030857489
47	0x3e000307	0.12501155
48	0x3d28dd16	0.04122647
49	0xbd05eab2	-0.032694526
50	0xbd79ba86	-0.0609689
51	0x3e0ceeaf	0.13762926
52	0xbc1e735e	-0.00967106
53	0xba83de69	-0.001006079
54	0x3da69d4b	0.0813547
55	0x3e0dcc59	0.13847484
56	0x3c34f6fb	0.011045213
57	0xbca7e85e	-0.020496543
58	0x3c7a450d	0.015275252
59	0x3c08da7c	0.008352872
60	0xbda396a4	-0.07987717
61	0xbd43c676	-0.04779669
62	0x3daa5d23	0.08318546
63	0xbd276349	-0.04086617
64	0x3e319ed6	0.17345747
65	0x3e08129c	0.13288349
66	0x3e30a41b	0.17250101
67	0x3bfb5e08	0.0076711215
68	0xbd323e2d	-0.043516327
69	0xbd2bd16d	-0.04194777
70	0x3daaf810	0.083480954
71	0xbd81acac	-0.06331763
72	0x3d7213a6	0.05910077
73	0x3c90b34a	0.017663617
74	0x3e05032c	0.12989491
75	0x3dd76484	0.10517219
76	0xbd81937a	-0.06326957
77	0x3d92cd51	0.07168067
78	0x3d2d4f4e	0.04231196
79	0xbd9ce4f8	-0.0766086
80	0xbd7bca81	-0.06147242
81	0x3c8127e7	0.015766097
82	0xbdc9de7a	-0.09856887
83	0x3de5dc78	0.11223692
84	0xbc161d57	-0.009162269
85	0x3e12d5f4	0.14339429
86	0x3d97724d	0.07394848
87	0x3d8ecc5d	0.06972573
88	0xbdfe53d3	-0.12418332
89	0x3cdbfa9d	0.0268529
90	0x3dd77170	0.10519683
91	0x3dab4dd8	0.08364457
92	0xbc3237a0	-0.01087752
93	0xbda70733	-0.0815567
94	0x3d3f6db5	0.046735484
95	0x3d381aca	0.044947423
96	0x3ceb755c	0.028742485
97	0x3c104623	0.008805784
98	0xbd31f994	-0.043450907
99	0xbc9c7d72	-0.019102786
100	0x3cc892d7	0.024484081
101	0xba268f2a	-0.00063537306
102	0x3e228500	0.15871048
103	0xbd5b3c0f	-0.053524073
104	0xbd5340fc	-0.051575646
105	0xbd744448	-0.05963543
106	0x3d2a3485	0.041553993
107	0xbbde997a	-0.006793198
108	0x3cc2c97d	0.023777718
109	0xbce8b2f9	-0.028405653
110	0xbca2ca4b	-0.019871851
111	0xbdbc7130	-0.09201276
112	0xbcc36b3f	-0.02385485
113	0x3d09578d	0.03353076
114	0x3e47242d	0.19447394
115	0xbd782bd6	-0.06058868
116	0xbd97e883	-0.07417395
117	0x3d842bd5	0.06453673
118	0x3e168f24	0.14703041
119	0x3c300c7d	0.010745165
120	0xbce46258	-0.027878925
121	0x3afcc012	0.0019283316
122	0x3d804bb8	0.06264442
123	0xbd981ef0	-0.07427776
124	0x3d43ded7	0.04781994
125	0x3cb8b4e0	0.022547185
126	0x3da3878b	0.07984837
127	0xbd9e70c8	-0.07736355
128	0xbd9e3eee	-0.07726847
129	0xbd32d72b	-0.04366223
130	0xbddcf3c9	-0.10788686
131	0x3ce056cb	0.027385136
132	0xbca767ae	-0.02043518
133	0xbd708fbb	-0.058730822
134	0xbd384a4d	-0.044992734
135	0x3d3bdf23	0.045867097
136	0x3d078404	0.033084884
137	0x3e375b6f	0.17905973
138	0xbd9cdc35	-0.07659189
139	0xbe31ccb5	-0.17363246
140	0x3d9b2a17	0.075763874
141	0xbc6a1e72	-0.014289485
142	0xbb94b393	-0.0045380085
143	0xbdeabff2	-0.11462392
144	0xbcd21b8d	-0.025647903
145	0x3df50730	0.119642615
146	0xbd952a19	-0.0728342
147	0xbdcd348b	-0.100197874
148	0xbe3f4495	-0.18678506
149	0xbe06595c	-0.13120025
150	0xbd2dc589	-0.042424712
151	0xbd0046af	-0.03131741
152	0xbc9368e1	-0.017994346
153	0x3d761841	0.060081724
154	0xbd3a5ccc	-0.045498654
155	0xbd580062	-0.05273474
156	0xbc8ceab1	-0.017201753
157	0x3d1eaac0	0.03873706
158	0x3d312771	0.043250505
159	0x3d3f847b	0.046757203
160	0xbcb10a5f	-0.02161139
161	0x3d781b3e	0.060572855
162	0xbd4172c6	-0.047228597
163	0xbd8e7e15	-0.06957642
164	0xbd54bbcd	-0.051936913
165	0x3e04b649	0.12960161
166	0xbd8d6e97	-0.06905859
167	0x3d822129	0.06353981
168	0xbe41d264	-0.18927914
169	0x3d9abfb0	0.07556093
170	0xbdf37fa9	-0.118895836
171	0x3db109b1	0.086444266
172	0xbd21bf4a	-0.039489068
173	0xbd9f8aab	-0.07790121
174	0x3dbc7ef9	0.092039056
175	0x3de7b03d	0.11312912
176	0x3d6348bf	0.055489298
177	0x3c843a1b	0.016140988
178	0x3d725fa0	0.059173226
179	0x3d8d0a7f	0.068867676
180	0xbcb169d7	-0.021656914
181	0x3d345079	0.044022057
182	0xbc9d3fa4	-0.019195385
183	0xbe113692	-0.14180973
184	0xbd6a0009	-0.05712894
185	0x3dc957b8	0.09831184
186	0xbc46aa4e	-0.012125565
187	0x3e010675	0.1260012
188	0x3c16ffc9	0.009216257
189	0x3daa34c9	0.08310849
190	0x3df7c0a6	0.12097292
191	0xbc254ad6	-0.010088643
192	0xbc710467	-0.014710522
193	0xbce6b2ae	-0.028161373
194	0xbe1085c5	-0.14113529
195	0x3d623406	0.055225395
196	0xbafb33ea	-0.0019165252
197	0xbdb47042	-0.08810474
198	0xbe1a029f	-0.15040062
199	0xbd594de0	-0.053052783
200	0xbd9c7f5c	-0.076414794
201	0x3d240c5f	0.04005086
202	0xbd7332e2	-0.059374698
203	0xbe9d699c	-0.30744636
204	0xbca1fba1	-0.019773306
205	0x3c937765	0.018001268
206	0xbc5f05fd	-0.013612268
207	0x3dbfc7f4	0.0936431
208	0xbe251f2e	-0.16125175
209	0x3cfc64ee	0.030809846
210	0xbd4e8378	-0.050418347
211	0xbe208f60	-0.15679693
212	0xbd8238d1	-0.06358493
213	0xbd11bc7a	-0.035580136
214	0xbdbefbba	-0.09325357
215	0xbd9ca0c9	-0.07647855
216	0x3db9f952	0.09080757
217	0x3d76a9fe	0.06022071
218	0xbe8148a9	-0.25250748
219	0x3d3c65a4	0.04599537
220	0x3d9b0ed6	0.07571189
221	0x3d9774f1	0.07395352
222	0x3d241c6e	0.040066175
223	0xbd55e9fd	-0.0522251
224	0x3b53ca02	0.003231645
225	0x3e617fb2	0.22021368
226	0x3cf1f6e4	0.029536672
227	0xbda67bbc	-0.08129069
228	0xbd4c912c	-0.049943134
229	0xbda4f87d	-0.08055208
230	0xbd9fcbe1	-0.07802559
231	0x3c9c8366	0.019105624
232	0x3dbc3027	0.09188872
233	0xbda99425	-0.082802095
234	0x3d0b8b60	0.034068465
235	0xbdfa12e8	-0.12210637
236	0x3dcd5d5e	0.10027574
237	0x3d886ff1	0.06661976
238	0xbc680212	-0.01416065
239	0x3d918864	0.071060926
240	0x3d198583	0.037480842
241	0x3e3d3817	0.18478428
242	0x3ae08090	0.0017128158
243	0xbca89a7b	-0.020581475
244	0xbd05a032	-0.032623477
245	0xbcc7ebed	-0.02440449
246	0xbccdb221	-0.025109353
247	0xbc86ecf9	-0.01647042
248	0x3d819fc2	0.063292995
249	0xbcfbe903	-0.030750757
250	0x3e3c2083	0.18371777
251	0xbe098aa1	-0.13431789
252	0xbd2a4fbd	-0.04157995
253	0xbde19a0e	-0.11015712
254	0xbdf4bb6c	-0.119498104
255	0x3cc540d1	0.024078758
