results/test7/CharacterBehav.onnx (onnx, 170777 bytes, 9 tensors)

action_model._discrete_distribution.branches.0.bias f4 [3]
00000000: c232 0739 090e d539 d7e8 15ba
0.00012893512 0.00040636983 -0.0005718595

action_model._discrete_distribution.branches.0.weight f4 [3, 128]
00000000: ff1e 31bb 18a8 20bb c454 a3bb 74a6 053c
00000010: f5b0 b8bb cc81 cbba 0db1 983b d21c 3b3a
00000020: 82b6 733b 8b31 e33b e7dd 93b8 8cb8 b13b
00000030: 5426 39bc 9830 683b da48 403c 7923 2a3c
00000040: 9b47 2dbc e72a 643c 7863 d0ba bcc8 973a
00000050: 7432 d2bb 0cf4 073c a8e3 163c 4fb3 753c
00000060: 40b2 403b b011 9dbb d758 20bb 3fe8 3e3b
00000070: 68f9 103c bf01 8c3c 7564 f6bb 244c 543c
00000080: 8c7d b3bb 89a4 a5ba c88c 173c 0e93 eabb
00000090: e1a9 fc3a 9a51 1d3c 91d0 d13b f1b6 ec39
000000a0: ed90 083c 1f08 22bc 1544 c8bb b2bd 0bbc
000000b0: 3f47 54bc ef12 07bb 42b6 26ba 7972 24bc
000000c0: 149e 5f3b e41e 123c 85a0 9c3b 1891 b33b
000000d0: 404d efbb 249c f93b 566a 083c bfc5 0f3c
000000e0: 87f0 40bb 932d d43b 54e7 c3ba b400 1f3b
000000f0: 46c7 95bb 0a1c ba3c 6672 3a3b 68cc b83b
00000100: a6cf 2bbc 855e b7bc 17ff 953b b577 22bc
00000110: 4a4c 33bb 3b6d b2bb 951a 82bb 60c9 66bb
00000120: a412 edbb a9eb fabb 47bf 8dbb 7a95 bb3a
00000130: 7663 343b 41d4 ca3b 9bc2 383c f155 4bbb
00000140: aede f43b db87 863b 7eb3 12bc b1d3 35bc
00000150: 4046 2fbb 102b 70bc 2d53 8e3a 45a5 133c
00000160: 1e44 073c a338 233c ad9c 38bb 636b 7ebc
00000170: d574 2abb d67f 5e3b bcf2 6b3a 8a56 69bc
00000180: a549 aebb aa69 0bbc d24b f33a 4ce2 553c
00000190: d773 eb3b 954a c8bb 78ec 0ebc 14ed 563a
000001a0: 1225 e3bb 579d ee3b f059 3c3b f6a6 c0bb
000001b0: faca 5ebb ecfa 26bc 7662 333a 3a66 333c
000001c0: 7051 fa3b 60bb 5ebb b064 cbbc 7e12 b9bb
000001d0: fe23 333c 3385 1c3c eeff 593b 754b 123c
000001e0: b020 abbc c578 203b e021 76b7 9b67 793b
000001f0: 22f0 743c f073 2bbc dbc5 e7bb d97b cb3b
00000200: ccdb b739 06a5 4c3a f768 253b 5a63 ebbb
00000210: 609d 03bb 3a38 ed3b 138c 813c b3ad 2f3c
00000220: cbff e2ba a042 41bc 6147 74bc 6bb8 85bb
00000230: 13be 743b 73ca 3e3c 4dab fcbb 1aa8 a6bb
00000240: 89e5 2fbc 820b fe3b 9fe7 07bb d4f5 be3b
00000250: 391e 6a3b f54c 0d3b 0d68 4cbc 7f37 8cbb
00000260: 3c3c 38bc 09bf bc3b e1c6 e9bb 1af7 c53c
00000270: 862e e9bb 3f81 e9bb 0605 4e3c 36a7 343c
00000280: 96bb d03c 3b3b 1e3c 7079 4ebb 2408 84bb
00000290: bd82 cb3b b0b4 2ebc 4771 e73b 93f6 50bb
000002a0: c56e 1ebb cee8 66bb a8d4 3bbb bda2 a13b
000002b0: 9683 a6bc 6848 503c 21d1 fd3b 79a3 9fbb
000002c0: 2ba6 9bbc 006b 38bb e814 15bc 9788 8fbb
000002d0: 91d5 ccbb e973 c03b 4661 3d3c 8010 103c
000002e0: ba4d 8c3b acc7 17bb f395 35bb 0b3d a3ba
000002f0: 0860 ac3c 3381 a0ba b867 3abb 8bc7 eb3b
00000300: f2ad 3c3b 4c7d 88ba 0d49 8d3c dd64 d73a
00000310: cdde 0d3c 50d2 903b 3ff8 203c b66b c33b
00000320: b032 b0bb fb94 903c ade1 063c 321d babb
00000330: 8350 0fbc 46c2 f7bb c9c9 27bc 0813 0a3c
00000340: 0f81 46bb fe40 3a3b 87e3 83ba a3b6 713c
00000350: ff44 903c 450d 76bc 49d6 09bb 5946 14bc
00000360: 734a 433a c19b c5bb af65 d2bb dfea e6ba
00000370: c78d 213b 29f6 c8b9 bdfa 3bbc 57d0 c03a
00000380: 2b77 fd3a 6426 78bc 0e86 afbb aca7 a739
00000390: 8ef6 a0bc c172 8a3b 5684 40bb 0b7f d43a
000003a0: c981 b13b 971d c4ba a5b5 953b 4f94 adba
000003b0: 1210 9bbc 2e64 0d3c b53e 9b3a a916 21bb
000003c0: 1c1f 68bc a475 e1bb 6c6c d3bb 2a72 0bbb
000003d0: 6d01 33bc 81ea bc3a 4149 d6bb 08dc fb3a
000003e0: 3c70 2d3c 2ac5 8c3c fc83 023b b5fc cc3a
000003f0: 903b 16b7 117a 5f3c eb24 e23b 44e4 94bc
-0.0027026532 -0.0024514254 -0.00498447 0.008157361 -0.0056363293 -0.0015526353 0.004659778 0.00071377784
0.003718764 0.006933396 -7.050839e-05 0.005423611 -0.011300642 0.0035429355 0.011736119 0.010384434
-0.010576154 0.013926244 -0.0015898785 0.0011580209 -0.006414706 0.008297931 0.009209551 0.014996364
0.002940312 -0.0047933683 -0.0024467015 0.0029130129 0.008848526 0.017090676 -0.0075192996 0.012957606
-0.005477613 -0.0012637536 0.009249873 -0.0071586436 0.0019276702 0.009601975 0.006403037 0.0004514973
0.008335334 -0.0098896315 -0.0061116316 -0.008529114 -0.0129564395 -0.002061065 -0.0006359556 -0.010037058
0.0034121322 0.008918498 0.0047798776 0.005479943 -0.00730291 0.0076174904 0.008326134 0.008775174
-0.002944024 0.0064751594 -0.001494626 0.0024261894 -0.0045708744 0.022718448 0.0028449534 0.0056396015
-0.010486519 -0.022383938 0.004577528 -0.009916236 -0.0027358704 -0.00544515 -0.003970454 -0.0035215244
-0.007234888 -0.0076574874 -0.0043257806 0.0014311515 0.0027525104 0.0061898534 0.011276866 -0.0031026567
0.0074728345 0.0041055507 -0.008953927 -0.011097834 -0.0026744753 -0.014658704 0.0010858529 0.009011571
0.0082559865 0.009962234 -0.0028169558 -0.015528533 -0.0026009579 0.0033950708 0.0009000709 -0.014241824
-0.0053188377 -0.008509079 0.0018562025 0.013054442 0.00718544 -0.0061124065 -0.008723371 0.00081987795
-0.0069319094 0.00728194 0.002874013 -0.0058792783 -0.0033995495 -0.01019166 0.000684298 0.010949666
0.0076391026 -0.0033986196 -0.024828285 -0.0056479564 0.010933874 0.009553242 0.0033264118 0.008929123
-0.02088961 0.0024486047 -1.467063e-05 0.0038056138 0.01494983 -0.010464653 -0.0070731468 0.006209832
0.0003506824 0.0007806573 0.0025239566 -0.0071834745 -0.0020082816 0.0072393687 0.015813863 0.010722565
-0.0017318664 -0.01179567 -0.014909596 -0.004080822 0.0037344738 0.011644947 -0.0077108503 -0.0050859572
-0.010735878 0.0077528367 -0.0020737422 0.005827645 0.003572358 0.0021560763 -0.0124759795 -0.0042790766
-0.01124483 0.005760078 -0.007134304 0.024165679 -0.0071161417 -0.007126003 0.01257444 0.011026194
0.025480073 0.009657676 -0.0031505488 -0.0040292908 0.0062106536 -0.010663196 0.0070630643 -0.003188525
-0.002417491 -0.0035233977 -0.0028660689 0.00493273 -0.020326417 0.0127125755 0.0077458774 -0.0048717824
-0.019000133 -0.002813995 -0.009099223 -0.0043802965 -0.006251045 0.0058731926 0.011558836 0.008792996
0.0042817267 -0.0023159785 -0.0027707785 -0.0012454105 0.021041885 -0.0012245536 -0.002844317 0.0071954182
0.0028790203 -0.0010413318 0.017246747 0.0016433258 0.008659077 0.0044196025 0.0098248115 0.005963768
-0.005377136 0.017649164 0.008232516 -0.00567975 -0.008747223 -0.007561001 -0.01024098 0.008427389
-0.0030289327 0.0028420086 -0.0010062315 0.014753017 0.017611025 -0.015017812 -0.0021032265 -0.009049975
0.00074497535 -0.00603053 -0.006420813 -0.0017617604 0.0024651156 -0.00038330376 -0.011473355 0.0014710528
0.0019337883 -0.015145872 -0.0053565567 0.00031977647 -0.019648816 0.0042251055 -0.0029375753 0.0016212178
0.005417083 -0.0014962432 0.004568773 -0.0013243052 -0.018928561 0.008629842 0.001184425 -0.0024580157
-0.014167573 -0.006880479 -0.006452134 -0.0021277764 -0.010925633 0.0014413149 -0.0065394943 0.0019215355
0.010585841 0.017183859 0.0019915095 0.0015639277 -8.954565e-06 0.013639943 0.0069013736 -0.018175252

action_model._discrete_distribution.branches.1.bias f4 [3]
00000000: 3ce0 ff39 4fab 55ba fe38 3739
0.00048804458 -0.0008150832 0.00017473471

action_model._discrete_distribution.branches.1.weight f4 [3, 128]
00000000: 635b d6bb c919 113c 4c95 74bc 7ffe a5bb
00000010: 3421 dd3a 479f 13bc 1e4e 09bc 64ae 083c
00000020: f90a 0a3b 6cc3 a0bc 39c6 1e3c 72dd ce3b
00000030: b7da ca3b 9e04 66bb a461 20bc 8aba 643b
00000040: 01ce 863b a7b6 e0bb 5e52 77bc 056f 773c
00000050: b002 15bc 1141 f8ba a16f 723b a9ca a53b
00000060: 0bdd 8b3c 31b1 84bc 5c47 ac3b e3d9 c1bb
00000070: 8e11 aebb 0afa 62bb 9d15 1abb 0fe4 d53b
00000080: b52c 2e3b 6e50 b2bb 56f6 00bc da77 ad3a
00000090: b07e 9cbc 33d2 0dbc 29f1 09bc 5040 83bb
000000a0: a432 113c a266 7e3c ba91 163b 477f a73b
000000b0: 7728 b93c 6684 4f3c 95c3 79bb abfd 36bc
000000c0: 2edb a63c e83e fc3b 8eeb 4e3c 3287 8dbb
000000d0: f7ed 6bbc c380 5cba c066 0a3b 6c59 25bc
000000e0: 0e43 8dba 147d d8bb bdbe 4ebc 7fe9 3f3c
000000f0: 939c 6eb9 e892 933a 1ce5 72bb cfa7 67bb
00000100: c455 7c39 185e 74bb 4bbd ea3a 4570 e63b
00000110: 9ad8 ff3b c484 6ebc 514b f23b 634a 11b8
00000120: e5c9 803c c405 5839 e026 773c 23f9 4e3c
00000130: 6712 90b9 7acc 2439 078e bb3b e2f2 513a
00000140: bfe6 443c a3d2 84bb 7b36 cfbc 98c0 a13c
00000150: 65f9 993b db31 c93a 695e bfba a0b1 b83b
00000160: ffb7 da3b ce2a 503c b9ae 043b 848d 38bc
00000170: 633e 96bc d9e9 ca3b 2d77 753c 6f5e e7bb
00000180: c361 6dbb 6af9 873b fbe8 89bb 411f 82b9
00000190: 7667 8c3b 56f9 3e3c 0870 6f3a e99e b1bb
000001a0: 92bb b0bb 3e28 89ba b3ea bfba ba55 5cbb
000001b0: b617 17bc 7f20 cb3a eee0 29bb 28a1 313b
000001c0: a0d0 f6ba 1df5 9dbb 6e5b 87bb 4752 1dbc
000001d0: 7a14 80bb 0c0e 3cbb c928 57bc 7d75 603b
000001e0: 5c3c bc39 a1f8 44bc 9435 bfbb 669e 5ebc
000001f0: 476f a9bc e49d 0fbc 7adc 4b3c a91b 69bb
00000200: e44a 263c aa85 96bb cf09 5d3c c63c 5d3b
00000210: 29b9 f2bb 3795 fc3b 0048 71bb 2a74 3bbc
00000220: 6825 5b3c 3edc 41bc 0f29 a83b 27ac 1fbb
00000230: 393c 133c 5d60 41bb 2cbd 52bc a58d 133c
00000240: ae8e 803b 36ed 7d3b ce58 173c 96b0 2dbb
00000250: c3c6 623b 74a0 b33b 23bb 4e3c fa49 143c
00000260: 5899 2c3b 9e8f 573c 132e 7b3b a367 7e3c
00000270: a6e4 9fbb 7260 663c d165 f0ba 1637 2fbc
00000280: 66e4 67bb a69c 5cbb c5ad 29bc 4b40 003c
00000290: bbf1 28bb 55d8 1cbc 9316 603a 6af7 8abc
000002a0: 76dd debb d328 1a3c 4c78 b63b c5e0 d8bb
000002b0: 4dd2 06bb 8a33 513c c267 1bbb ae35 18bc
000002c0: 5efe f9ba c390 d6ba ad41 54bc a0f9 ed3b
000002d0: 849b 7fbc 92c9 eebb 055b 5d3c ef3c 09bb
000002e0: 5960 043c 3f92 02bb cd4d 33bc 55a4 d8bb
000002f0: 4a2d 26bc d42b 67bc fd74 a9bc 14a9 15bc
00000300: 7974 453c e246 ff3b f8cd 99bb 9129 a4b9
00000310: ede0 09bc ec10 d7bb c5a5 05ba 96b0 5fbc
00000320: a8fa 7d3c c43e b23a 2815 813c 482b c33c
00000330: 56ad 53bc 294e 2abb d36a 65bb 8074 85bc
00000340: 96e9 623b 9e63 3d3b 45d1 033c 0b16 143a
00000350: 2e53 593c ab6b 023c f913 493c f71d 6239
00000360: 0258 37bb 466d 9e3b c11a 91bb da0c 12bb
00000370: 2be6 5b3c bb33 083c e4fa 87ba 2ad5 4bbb
00000380: f0a5 da3b 9ae4 6ebb c000 353c 27a9 4cbc
00000390: 221c d33b 1068 23bb 9fa9 d63b 8fad ab3b
000003a0: 62a0 123b 8218 b8b8 a106 deba fa42 92bb
000003b0: f40a 963c 99ff 15ba eccf a23c 8613 393b
000003c0: a871 813b 71ea 403b 8bae 843c 4f16 58bc
000003d0: 103d 333c 012d 97bb 2dab 033b 963e 80bb
000003e0: a5bb 21bc ab6f 8d3a 6cb9 0e3b eba9 b83b
000003f0: 69ba 49bc 7dbc cebb 3e50 c0bc 57fa 6fbc
-0.006541656 0.008856245 -0.014928173 -0.0050657387 0.0016870857 -0.009010143 -0.008380441 0.008342359
0.002106367 -0.019624434 0.009690815 0.0063130194 0.0061906236 -0.0035097967 -0.009788904 0.0034901225
0.004113913 -0.0068577114 -0.015095321 0.015102153 -0.009094879 -0.001894029 0.0036992806 0.0050595594
0.017073175 -0.016197773 0.00525753 -0.0059158667 -0.0053121513 -0.0034633898 -0.0023511418 0.006527431
0.002657694 -0.005441717 -0.007871231 0.0013234571 -0.019103378 -0.008656072 -0.0084193135 -0.0040054694
0.008862171 0.015527399 0.0022975043 0.005111608 0.022602303 0.012665844 -0.003811096 -0.011168878
0.020368185 0.0076979287 0.012629403 -0.004319095 -0.014399997 -0.0008411521 0.0021118373 -0.010092121
-0.001077743 -0.0066067073 -0.012618718 0.011713385 -0.00022755777 0.0011258991 -0.003706283 -0.0035347824
0.00024064543 -0.003728753 0.0017909197 0.0070324265 0.0078078033 -0.014558021 0.0073942323 -3.4639972e-05
0.01572127 0.00020601513 0.015084952 0.012632641 -0.0002747953 0.00015716432 0.005723718 0.00080089096
0.012017905 -0.00405343 -0.025294533 0.019745156 0.0046989196 0.0015349941 -0.001460028 0.005636409
0.006674766 0.012705518 0.0020245744 -0.011264209 -0.018340295 0.0061924276 0.014982027 -0.007060818
-0.00362216 0.0041496055 -0.0042086816 -0.00024818818 0.0042847944 0.011656126 0.00091338204 -0.005420555
-0.005393454 -0.0010464264 -0.0014642089 -0.0033620433 -0.009221962 0.0015497355 -0.0025921422 0.0027104113
-0.0018830486 -0.0048204795 -0.0041307723 -0.009602136 -0.003908691 -0.0028694896 -0.0131322825 0.0034249716
0.00035903126 -0.012022168 -0.0058352444 -0.01358757 -0.020682944 -0.008765671 0.012442702 -0.0035569465
0.010149691 -0.0045935707 0.013491108 0.0033758148 -0.0074073267 0.0077082175 -0.0036816597 -0.01144127
0.013375618 -0.011832295 0.0051318477 -0.0024364085 0.008986526 -0.00295069 -0.012862485 0.009005939
0.0039232587 0.0038746125 0.009237481 -0.0026502958 0.0034603334 0.005481774 0.012617859 0.0090508405
0.0026336517 0.0131568 0.0038327023 0.015527639 -0.004879552 0.01406108 -0.001834089 -0.010694286
-0.0035383939 -0.0033662706 -0.010356371 0.007827829 -0.0025778848 -0.009573062 0.00085482857 -0.01696368
-0.0068013025 0.009409147 0.0055685397 -0.0066185915 -0.0020572126 0.0127686355 -0.0023712968 -0.009290142
-0.0019073 -0.0016370047 -0.012955111 0.0072624236 -0.015601043 -0.0072872126 0.01351047 -0.002094086
0.008079612 -0.0019923595 -0.010943842 -0.006611387 -0.010142634 -0.0141095705 -0.020685667 -0.00913455
0.012051695 0.0077904323 -0.004693743 -0.00031311487 -0.008415443 -0.0065632965 -0.0005098249 -0.013652941
0.015501656 0.0013599028 0.015757158 0.023824349 -0.0129197445 -0.0025986528 -0.00350063 -0.016290903
0.0034624091 0.0028898488 0.008045499 0.00056490366 0.0132644605 0.00796024 0.012272828 0.00021564202
-0.002797604 0.0048348038 -0.004428238 -0.0022285492 0.013421576 0.008313115 -0.0010374454 -0.0031102397
0.0066726133 -0.0036452175 0.011047542 -0.012491501 0.0064425627 -0.0024933852 0.006550982 0.0052391957
0.0022373428 -8.778369e-05 -0.0016939231 -0.0044635506 0.01831577 -0.0005721986 0.019874536 0.0028240397
0.0039503165 0.0029436613 0.01619651 -0.0131889125 0.010939851 -0.004613519 0.0020091042 -0.003913711
-0.009871398 0.0010790726 0.0021778 0.00563549 -0.01231251 -0.0063090906 -0.023475762 -0.014647088

discrete_action_output_shape f4 [1, 2]
00000000: 0000 4040 0000 4040
3.0 3.0

network_body._body_endoder.seq_layers.0.bias f4 [128]
00000000: 6cf6 acba 810d 9fba 34d7 4bb9 c8a9 5dba
00000010: c5b5 fc3a 007e bb3a 6584 47ba 1095 653a
00000020: a50f bfba 7580 733b dcfc 10ba 55da 34ba
00000030: 1b65 0039 d5fc 683a b031 b83a e1c2 753a
00000040: 60ca 0cb9 b324 b23a 9e21 1e3a 4ca1 d939
00000050: db62 e73a 037c 13ba 65cd 36ba 3cb2 1c3b
00000060: 79c1 74ba 6659 94b7 c649 a439 fce6 c139
00000070: dd16 bcb9 38df d2ba 1454 0e39 5fb5 2cba
00000080: 0950 1a3a 964c 7bba 0635 2f3b 5f7c 133a
00000090: 0b67 2f38 9008 b9b8 8114 d7ba c628 eaba
000000a0: 8589 f9ba 9017 88ba d15f fdb9 d045 19ba
000000b0: 68ff aeba 76c7 32ba dd9e c03a bb98 efba
000000c0: aa82 7eb9 f319 e5b8 ac51 393b 1707 efba
000000d0: a963 a43a d2e7 e8b9 196a 0eb9 3617 1537
000000e0: 274d 863a 6ea7 6c3a 9342 4d37 ccc2 9a39
000000f0: 6f04 73bb ee70 96b8 fcd1 533a f76b c93a
00000100: d5bf ca3a a476 23ba dbbf 1eba 202f 13ba
00000110: b25d 963b 3b9a f7b9 0de7 443b 849b 0c3b
00000120: 05a7 ceba f884 63ba 1e02 9eba e9d7 e7ba
00000130: 9add 813a 6b16 f439 13bd f039 2a26 8ab8
00000140: c8d6 f1b8 ce19 62b8 8b70 8dbb 0695 05bb
00000150: 8f16 5dba 9f58 08b9 ff77 00b8 2ca1 8bba
00000160: 42d3 95b9 54e3 163b 8be4 f6ba 5467 923a
00000170: 5e35 3aba 92a8 e2b8 06d3 9c3b c543 91ba
00000180: 40f9 5d3a 25c2 8cbb ec9d 83b9 51d3 22bb
00000190: bc5f 51ba a3e5 9a37 a530 bd3b 705c ba3b
000001a0: b864 2aba 1233 c03a 0983 8d39 cd6a 82bb
000001b0: c601 36ba 4ca9 70bb 53fb 00b9 27ab 7239
000001c0: ca74 4dba fb5c 90b9 0690 dcba 30f0 a03a
000001d0: 9ec9 03bb 60ab 733a 955b 42ba 1164 24ba
000001e0: f2ca bab9 cb1e d4b8 e112 96ba ed49 d33a
000001f0: 5f8b e2ba 7659 b6b9 a941 57bb 5cbf 84ba
-0.0013195998 -0.0012134762 -0.00019439758 -0.00084557803 0.0019280246 0.0014304519 -0.0007610976 0.0008757869
-0.0014576806 0.0037155424 -0.0005530843 -0.0006898989 0.00012244696 0.00088877726 0.0014052894 0.00093750475
-0.00013426831 0.001359126 0.0006032231 0.0004150964 0.0017653363 -0.0005626084 -0.0006973355 0.0023909947
-0.0009336691 -1.7684604e-05 0.00031335483 0.00036983925 -0.0003587519 -0.0016088253 0.00013573497 -0.00065883057
0.000588656 -0.00095863023 0.0026734485 0.0005626138 4.1819218e-05 -8.823082e-05 -0.0016409309 -0.0017864935
-0.0019038176 -0.0010382999 -0.0004832731 -0.00058468897 -0.0013351263 -0.0006819883 0.0014695782 -0.001827977
-0.00024272004 -0.00010924404 0.002827744 -0.0018236366 0.0012541908 -0.00044423208 -0.000135817 8.886496e-06
0.0010246382 0.00090276345 1.2234453e-05 0.00029518304 -0.00370815 -7.173592e-05 0.00080803013 0.0015367259
0.0015468547 -0.00062356354 -0.00060558104 -0.0005614627 0.004588806 -0.00047226422 0.0030044944 0.0021455
-0.0015766328 -0.00086791767 -0.0012055074 -0.0017688248 0.0009907961 0.0004655601 0.00045917238 -6.5874614e-05
-0.00011531782 -5.390663e-05 -0.0043163947 -0.0020383014 -0.00084338424 -0.00013002985 -3.0629333e-05 -0.0010652891
-0.00028576894 0.0023023682 -0.0018836422 0.001116971 -0.0007103289 -0.000108079184 0.004785898 -0.0011082819
0.0008467622 -0.004295605 -0.00025103928 -0.0024845193 -0.0007986983 1.8465164e-05 0.005773621 0.005687289
-0.00064999936 0.0014663658 0.00026991245 -0.003980017 -0.0006943013 -0.0036722003 -0.00012300657 0.00023142678
-0.00078375323 -0.00027535096 -0.001682759 0.0012278613 -0.0020109187 0.0009295251 -0.00074141595 -0.00062710146
-0.0003562789 -0.000101146834 -0.0011449718 0.0016120054 -0.0017283967 -0.000347804 -0.0032845533 -0.001012783

network_body._body_endoder.seq_layers.0.weight f4 [128, 192]
00000000: 0541 66bc 7551 b43c e55f 2c3d 247a bcbd
00000010: 5435 c2bc 6274 403d 9a86 c13c e68d 0a3b
00000020: 438a 9ebd aefd 02be c0dc c03c d2f1 e73c
00000030: df5e a03d e77b 09bd eca7 9bbd 1028 b7bd
00000040: ecc0 b8bb 42b7 63bc b9a7 c9bd 802c 26be
00000050: aed1 483c 74e2 833d 9c53 38be ad06 4cbd
00000060: 05b6 9abc b9ba 713c 83f7 7b3d 5e8f 74bd
00000070: 0a18 bfbc 4988 afbd 1380 85bc 341f bebd
00000080: c11a 803d 5a39 a63c cae7 b23c 0bf0 f6bd
00000090: 41ad 863d 4562 bb3d 7c6c 993c 4e34 79bd
000000a0: 03db 813d 271f 7abd 81f3 863d 6d3e 2abd
000000b0: aff5 903d 954d 283d aa66 1cbc f9b3 63bd
000000c0: 5e5a 463b d136 b33c 2ed6 d1bc 4088 adbd
000000d0: c142 68bc 0860 dfbc ed8a dcbb 3578 74bc
000000e0: 2cbe 04be 3243 3a3c cd15 dabc 5a01 8dbc
000000f0: 39e6 cabc b599 313e 17dd 393c e406 1bbe
00000100: 2d32 30bd b90c 96bd 56b1 f63d 8d7f 863d
00000110: f74c 1b3e 131c 8d3d 2e6c acbc b1bb afba
00000120: 1b55 95bd 0ecb 3b3d 5aa1 973d 003a 4abd
00000130: 3ed1 283e c7ca 0abd efe7 e0bc 5078 6bbd
00000140: cf0c 02bd abf9 32be 8bf2 883c e0f7 3b3c
00000150: f770 28bd 38d8 a33c 9d8e 37be e694 bcbd
00000160: bb8e d7bc 010e a1bd 3a70 e93d a300 463c
00000170: 10e7 873c b1c7 cebd 2708 b63d 7de2 ff3c
00000180: 295b 2e3e 4db8 0ebd 5c30 d63c da1f 95bd
00000190: 210e 3d3c bb6e 65be c318 1fbd 80bc b83d
000001a0: 5bf0 c53d 0e5a 7e3d b52e 093b 6f9b 60bc
000001b0: d79c 70bc ca6a 40bc 72df 04bd 4532 c9bc
000001c0: 0bb6 073d 58a2 9abc 8b0b 99bd 4d6f d83d
000001d0: 286b 0ebd 6765 3cbc 1eb8 ffbd 1cd3 553d
000001e0: 6c45 4abd 4d2b 0d3e 311b f9bd 032d 483d
000001f0: abb8 163d 2cb7 ae3c 8097 97bd 8cf6 d6bd
00000200: 92c3 41bc 6da0 2e3d 7165 693d 8ce9 fc3d
00000210: 5037 d63d 7e97 79bd 8e4c 553d 820e 1ebd
00000220: 9b34 10bd 01c6 233d 5d3d 443d 99f4 553d
00000230: 6885 39bd 5d46 7abc 439a 0abc 41e6 7b3d
00000240: 7b60 c03c 582f e5bc 1bd4 d3bc 494b f73b
00000250: b54a 27be 6845 c03d 1c86 62bd ebf0 34bd
00000260: fce3 b7bd 7392 ce3c 8e46 d5bb 1334 1c3d
00000270: b472 5eba 2fed cc3c 0705 86bd 3a35 85bd
00000280: 0314 3ebd 3319 3bbd 2d03 15be c6e1 9bbd
00000290: f6e7 1bbc ae81 913c 5967 733d 1d0c 003e
000002a0: 111a 2dbd 7211 b93d cd02 cb3d 661f 113d
000002b0: cf35 f23d f855 d03c 33a3 91bd 5c5f acbc
000002c0: ea45 c6bc 1d41 b03d 2cee 25bd c477 5dbe
000002d0: 5898 553d f4a1 82bd 45ea 0c3d 29a0 14bc
000002e0: f48c 40bc 2cbd 4b3d 44e4 b0bc dd5a 373d
000002f0: 8013 773d cc18 c43d 8e65 d7bc cd58 ffbc
00000300: 5d96 53bd 65c4 163c 0b0b 64bd dca8 91bd
00000310: 39a9 2e3d 419e 54bd a3f7 30ba 1a98 ebbd
00000320: 7c4b 7bbd ed66 40bd 2d68 40b9 5512 b43d
00000330: 1c77 0f3d b066 cc3d dba3 473d d4f7 693c
00000340: 0e22 4ebc bb5d 033d fa09 353d c6da f6bd
00000350: dd17 93bd 4c47 733d 590b 3c3d b80b 113d
00000360: 83e0 88bd 4840 983d 54c0 92bc 3a32 d03d
00000370: c31c 42bc 170d 823d 6c02 c5bd 0acf 283d
00000380: 2ed8 cc3d bce6 94bd 1d68 a6bd 4579 b83d
00000390: 3bea a6bc e272 98bd afd6 10be 3443 00be
000003a0: ca27 14be 04e2 933d 1efe e53a e239 d7bb
000003b0: c937 ad3c 256f a23d b804 abbc 9c33 f53d
000003c0: 9de4 8cbd 098e 323d 1eca cc3a 29c1 423c
000003d0: 5bad 7a3c 5e2c 89bd df65 b73d 93c7 60bb
000003e0: 013c fc39 b730 5ebc 8469 353d 55ed aabd
000003f0: 6015 f43d 297d 723d ece7 263d f91a 63bd
-0.014053588 0.022011498 0.04208364 -0.09202984 -0.02370707 0.04698599 0.023623753 0.0021141707
-0.07741215 -0.12792084 0.023542762 0.028313551 0.07830595 -0.033565428 -0.07600388 -0.08943188
-0.0056382325 -0.013898673 -0.09846444 -0.16227913 0.012257023 0.06439677 -0.18000644 -0.049811054
-0.018885622 0.014753991 0.061515342 -0.059707038 -0.023326892 -0.08570916 -0.016296422 -0.09283295
0.06255103 0.02029102 0.021839041 -0.12057503 0.06576014 0.09149603 0.018728487 -0.060840897
0.06340601 -0.061064865 0.065894134 -0.04156344 0.070781104 0.041089613 -0.009545961 -0.055591557
0.0030266265 0.021876724 -0.025614824 -0.08473253 -0.014176072 -0.027267471 -0.0067304284 -0.014921238
-0.1296317 0.01136856 -0.026621724 -0.017212559 -0.024767982 0.17343791 0.011344216 -0.15139347
-0.0430166 -0.073266454 0.12045543 0.06567297 0.15166079 0.0689012 -0.021047678 -0.0013407377
-0.07291623 0.045847945 0.07403822 -0.04937172 0.1648607 -0.03388479 -0.027454345 -0.057487786
-0.031750496 -0.17478053 0.016717216 0.011472672 -0.041123357 0.020000562 -0.17925496 -0.092080876
-0.026313176 -0.07863999 0.11398359 0.012085113 0.016589671 -0.10096682 0.08888274 0.031235928
0.17026962 -0.03484373 0.026146106 -0.07281466 0.011539013 -0.22405522 -0.038841974 0.090203285
0.09664985 0.0620976 0.002093238 -0.013708933 -0.014685831 -0.0117442105 -0.032439657 -0.024560103
0.033132594 -0.01887624 -0.07472905 0.10568104 -0.03477016 -0.011498786 -0.124862894 0.052203283
-0.049382612 0.13786049 -0.121633895 0.04887105 0.036797207 0.021327578 -0.07401943 -0.10496244
-0.011826413 0.042633463 0.056981508 0.12349233 0.10459769 -0.06093549 0.05207496 -0.038588054
-0.03520642 0.039983753 0.047910083 0.05223522 -0.04529324 -0.015275565 -0.00845963 0.061498884
0.023483505 -0.027976677 -0.025857976 0.0075468165 -0.16337092 0.09388238 -0.055303678 -0.04417507
-0.089790314 0.025216317 -0.006508655 0.0381356 -0.000848572 0.025015442 -0.06543928 -0.06504293
-0.046405803 -0.04567833 -0.14551993 -0.07611422 -0.009515753 0.017762031 0.059424732 0.12504621
-0.042261187 0.090365306 0.099126436 0.035430335 0.118266694 0.025431618 -0.07111206 -0.021041565
-0.02420326 0.086061694 -0.04051034 -0.21627718 0.05214724 -0.06378546 0.034403104 -0.009071388
-0.011752356 0.049740955 -0.02159322 0.04476439 0.06032133 0.09575042 -0.026293542 -0.031170273
-0.05165707 0.009202098 -0.055674594 -0.071122855 0.042641852 -0.051908735 -0.0006750768 -0.115036204
-0.061351284 -0.046973158 -0.00018349355 0.08792559 0.0350257 0.099805236 0.04874025 0.014280278
-0.012581361 0.03207181 0.044198968 -0.120534465 -0.07182286 0.059394166 0.04590926 0.035411566
-0.06683447 0.07434136 -0.017913975 0.1016583 -0.011847678 0.06350153 -0.096196026 0.041213073
0.100021705 -0.072705716 -0.08125327 0.09007505 -0.020375362 -0.07443787 -0.14144395 -0.12525636
-0.14468303 0.072208434 0.0017547046 -0.0065681795 0.021144764 0.079313554 -0.020876274 0.11972734
-0.06879542 0.043592487 0.00156242 0.011886873 0.01530012 -0.066979155 0.08954977 -0.0034298643
0.00048109892 -0.013561419 0.04429008 -0.08346049 0.119181395 0.059201393 0.04074852 -0.055445645

network_body._body_endoder.seq_layers.2.bias f4 [128]
00000000: fddc a63a b660 4838 9945 87ba 3c82 13ba
00000010: 9e7e 56ba 57b4 2aba 8ad9 3eb8 ef91 a639
00000020: d57d 26b9 9c4b 3bba b180 593b 8105 96ba
00000030: 7b6c 933b 3ac2 0a3a e5c5 fd38 6f70 70ba
00000040: b20c 4aba b0a2 07ba be38 0c3b 809f adba
00000050: d222 2136 640a 3aba 7fe8 1a38 6884 e1ba
00000060: 0462 78ba 139f 46ba 20aa 94ba ee8c c239
00000070: 6673 b6ba 5f8b 9839 f48c 5e37 bd2b 0abb
00000080: 49ff 933a 4925 31ba 3239 08b9 fc2e 4439
00000090: cec5 a8b7 32d5 bfba e6d2 a4ba 7b36 ebb9
000000a0: f88b 99ba 15b0 8eb9 3734 e3ba 40a0 ccba
000000b0: 0c24 2bba 334d 2eba 934a d7b8 e53c 99ba
000000c0: 4c5e 47ba 8058 00b8 30ae 57b9 3923 9dba
000000d0: ca0f 32ba 9d0c 0abb 15ed b83a da08 5aba
000000e0: d2b2 04ba 1966 6cba b33f 893a 273a 5cba
000000f0: 882e ea39 cb55 7bba d924 56ba 569e 28b9
00000100: 18c1 4aba ae43 49ba 7968 62ba f03c beba
00000110: 75ef 63ba d0d0 8ab8 8ac6 f139 9134 2739
00000120: 59da 33ba cb34 4338 0fcb c9b9 bed3 2c3b
00000130: eb8a e6b9 1afa 6538 941f 67ba 358b b3ba
00000140: 582c 28ba 7520 31ba c57d ccb9 17f0 b4ba
00000150: 79ec 6eba 225b aeb8 be80 64b9 7ceb 82ba
00000160: 09bd d7b7 c7ce 79ba 2eb2 32bb c54b 3cba
00000170: 98df 11ba 7e3d ecba aac6 10ba 68f9 29ba
00000180: 28ad d9b9 5e7f 8f3a 025d 34ba af5f 1dba
00000190: f57e aeba 8ba7 adba b635 3aba 537f 2eba
000001a0: f2d3 68ba 889a 8eb9 1a57 fcba 483a 02bb
000001b0: c574 61b9 21da 4ab9 9b85 99ba 55e6 a3ba
000001c0: c318 113b 0163 52bb 4047 9cba 2cdc 46ba
000001d0: 0715 563a b815 c3b8 346d 9bba 2af1 803a
000001e0: cd51 adb9 7a9b 98b9 a036 b337 7faa 0abb
000001f0: 34a9 1fba 8871 e0b7 cfa8 453a 0f0b 693b
0.0012730655 4.7773785e-05 -0.0010320424 -0.00056270114 -0.00081823196 -0.0006511858 -4.550213e-05 0.00031770716
-0.0001587787 -0.00071447506 0.0033188278 -0.0011445732 0.004499016 0.0005293224 0.00012100841 -0.00091720273
-0.000770758 -0.00051740836 0.0021396126 -0.0013246387 2.4011138e-06 -0.0007096885 3.693299e-05 -0.0017205598
-0.00094750547 -0.00075768045 -0.0011342205 0.00037107564 -0.001391989 0.0002909554 1.3265049e-05 -0.00210832
0.0011291291 -0.000675757 -0.00012991278 0.0001870952 -2.011927e-05 -0.0014635681 -0.001257506 -0.00044863284
-0.0011714688 -0.00027215542 -0.0017334287 -0.0015611723 -0.0006528504 -0.0006649077 -0.000102658894 -0.0011691122
-0.0007605299 -3.06e-05 -0.00020568888 -0.0011988647 -0.0006792514 -0.0021064647 0.0014108742 -0.0008317359
-0.00050620467 -0.0009017899 0.0010471254 -0.00084009994 0.00044666626 -0.0009587674 -0.0008168943 -0.00016080713
-0.00077344617 -0.00076776266 -0.00086367835 -0.001451401 -0.00086950447 -6.619247e-05 0.00046115025 0.00015945944
-0.00068608444 4.654079e-05 -0.00038488998 0.0026371325 -0.0004397252 5.483078e-05 -0.0008816656 -0.0013698103
-0.0006415299 -0.00067568506 -0.00039003618 -0.0013804463 -0.00091142167 -8.313941e-05 -0.00021791735 -0.0009988393
-2.5718024e-05 -0.00095294084 -0.0027266848 -0.00071829214 -0.0005564629 -0.0018023697 -0.00055227673 -0.0006484003
-0.00041518477 0.0010947993 -0.00068803143 -0.00060033327 -0.0013312983 -0.0013248784 -0.00071033405 -0.0006656546
-0.000888168 -0.00027199485 -0.0019252033 -0.0019871164 -0.00021501172 -0.0001934548 -0.0011712791 -0.0012504557
0.0022140003 -0.0032102468 -0.001192309 -0.0007585909 0.00081665855 -9.30237e-05 -0.0011858107 0.0009837497
-0.00033058078 -0.00029107538 2.13639e-05 -0.0021158752 -0.0006090582 -2.6755748e-05 0.0007540108 0.003555957

network_body._body_endoder.seq_layers.2.weight f4 [128, 128]
00000000: 2a2b 89bd 01c8 48bd a356 393d 3e37 c03d
00000010: a802 6fbd 6183 2cbe 52c3 023e 8ca5 cfbd
00000020: 192f efbc 5bf3 383d 9439 a6bd eed9 33bd
00000030: 1819 89bd d7f3 4c3d 63e2 e33c 093c b5bc
00000040: 776c fa3d 3373 263e 53ca f8bd 754f a03b
00000050: 32a8 453e 0e22 c63d 8f96 7ebd 1e5c c93d
00000060: 2806 a53d 1b28 6abd 06c8 abbd 4811 b43b
00000070: 29f6 dcbd 2567 da3a da6a 89ba d157 00bd
00000080: 65a5 35bc f92d 063d bffb 053d 347e 823c
00000090: 2e39 da3d a80c f3bd d5e3 df3d df2f c4bd
000000a0: 6016 b1bd 0e4b a13c 35e4 d1bd 39d2 143e
000000b0: f248 9ebd 359c 5cbd 27d8 593c bc2c 4a3d
000000c0: b211 9e3d 6e17 bbbd 4b0b 88bc 04a8 d4bd
000000d0: 0b61 a23d 3e0c c63d 0a84 ba3d e630 76bc
000000e0: 95ba f5bc 43d4 9cbd c582 153e b2a0 513c
000000f0: 314a 25bd 8c94 853d 6829 83bd ba4c 873b
00000100: e497 7dbd 6331 4abd 39a4 04bd f8a5 7a3c
00000110: db62 9c3d 52bd 6cbc 48e6 24bd a6cf e53c
00000120: acfd 113d 0983 0b3c c95e 1f3c b6c6 e53c
00000130: 1520 6abd a981 25bd 39ee 9d3d 85b0 033c
00000140: 11d9 33be 32ad 5cbd 0f91 22bd 71d6 cfb8
00000150: 34eb 853e 987c 05bd b87d b4bb 01db 083d
00000160: 646e bbbe d9ec c63c f1f4 05bd bad1 ee3d
00000170: b6eb 133e 53ac 95bd b553 eebd 514c 173d
00000180: 0de7 e83d 1baa d93d 726d cdbc 69c4 c9bd
00000190: 54be babd 4327 0c3e b63e 293d 0fa7 3dbc
000001a0: b737 a9bd a0f7 0d3d 7fcf 8a3d ca41 8b3d
000001b0: dbce d63d e5c9 693d a447 c23d fb7d 01bd
000001c0: 9218 41bd f8ca 163d f17d 2e3d f772 d9bc
000001d0: 5e15 a3bd 866f 833d 77b3 3abd 7d1e 9fbb
000001e0: bd01 adbc 63fd c9bc da45 cd3d 5a4b 05be
000001f0: 80e3 f5bd 610f 8e3c 5abc 99bd f9b0 c1bd
00000200: 8e82 10be d4ef df3b 92dc c4bd 8e1d a6bd
00000210: 2df6 543d b75b 9abc 94d4 a3bb 0c7e dcbd
00000220: c3a2 b8ba eca1 9bbb 1708 b0bd 09c6 21b9
00000230: 26e5 023e a632 dfbc a1cb 4cbd 841e c33d
00000240: 020b 55be 1c96 4a3c 6cba b03c 977a 2f3c
00000250: 9f11 c9bd 15be 95bd 6c75 73bc 3486 08be
00000260: 13a2 dc3d dbd0 8d3d beb0 193d 7628 3c3a
00000270: 802f 073e f6d2 193e 8483 7dbe a8b1 e5bd
00000280: f5a4 843c 4603 3fbe 7aa6 ac3d ae9f 2bbe
00000290: 15b8 613c 819c 5a3c ed1b aebd 7065 133c
000002a0: 6f44 d33c a1b8 0dbd 9780 1a3d 32f1 a8bd
000002b0: 6b89 c83c c57a dcbc b6f3 143d c65f 6bbd
000002c0: 8967 773d d3f4 843d 4df1 583e d7ae d93c
000002d0: 8377 72be ef6a 33bd 8239 c93d ab6c 2d3e
000002e0: 40ab a0bd 9825 a7bc 2693 8bbc b406 f23d
000002f0: aa37 63bd ff3e b7bd b9e3 d43b 6e25 ec3d
00000300: 3eec 17bd 573c 043e 63c0 273c df75 c23c
00000310: bbb0 e83d f565 d53d 7c4f 56be a215 db3c
00000320: a4c4 323d 4fac 04bd 65f9 f9bc 7cdc 5fbd
00000330: 1fc4 abbd f23e 0dbd bb82 bfbd 4598 263c
00000340: 3d24 04be 8af0 fcbd bf18 e63d 8f67 25be
00000350: 3a11 bf3d 9bdf 93bd 0c83 42bd d7aa 34be
00000360: 7b05 833d 80be c6bd edea fb3d 96e9 393e
00000370: 1795 bfbc 9a7c 883b e864 fcbd 4e07 92bd
00000380: df4e f3bc bfbc 0b3e 21d2 aebc 7af2 39be
00000390: 9f61 d4bc 3187 31be b001 b8bc 9f1b f0bc
000003a0: f90f c83c 7d7f 15be 43fb bfbc 4f75 e33d
000003b0: 2f68 cd3d b719 b03c 0f44 873d 36a0 f4bc
000003c0: 2339 053d a5c2 9cbb 3076 cf3c b46d d03d
000003d0: 7ce1 8cbc 7664 883d a2eb 05be 6a5a cd3d
000003e0: 89f5 08be d104 84bc 2e11 5f3c efaa 4cbe
000003f0: 1c3b 23bd 966c d43c 87ff ccbc e4ce d03c
-0.06697686 -0.049018864 0.04524864 0.093855366 -0.058352143 -0.16846992 0.12769821 -0.101389974
-0.029197263 0.045153957 -0.08116451 -0.043909006 -0.066942394 0.05003723 0.02781791 -0.022123354
0.12227719 0.16254883 -0.12147965 0.0048922845 0.19302443 0.09674464 -0.062155303 0.09832023
0.08057815 -0.057167154 -0.08387761 0.005495224 -0.10789139 0.001666282 -0.0010484115 -0.03133375
-0.011086796 0.032758687 0.032710787 0.015929319 0.106554374 -0.11867648 0.109321274 -0.09579443
-0.08646846 0.01968911 -0.10248605 0.14533319 -0.07728757 -0.053859908 0.013296164 0.04935907
0.07718219 -0.09135328 -0.016606947 -0.10383609 0.07928666 0.09670304 0.09107216 -0.015026307
-0.029996196 -0.07657673 0.14600666 0.01279466 -0.040353958 0.06522474 -0.06404382 0.0041290196
-0.061912432 -0.049363505 -0.032383177 0.015298359 0.07636043 -0.014449434 -0.040258676 0.028053116
0.03564231 0.008515128 0.009727188 0.028048854 -0.057159502 -0.040406857 0.07711453 0.008037691
-0.17563273 -0.05387611 -0.03968912 -9.910472e-05 0.26156008 -0.032589525 -0.005508151 0.033411983
-0.3660766 0.02428286 -0.032704297 0.11661096 0.14445385 -0.07308259 -0.116370596 0.036938015
0.113721944 0.10628148 -0.025076602 -0.098519154 -0.091183335 0.13686852 0.04131957 -0.011575474
-0.0826258 0.03465998 0.06777858 0.06799658 0.10488673 0.057077307 0.094863206 -0.031614285
-0.047142573 0.03681466 0.042600576 -0.026544077 -0.0796306 0.06417756 -0.045581307 -0.0048559294
-0.021118993 -0.024656957 0.10023089 -0.13017026 -0.12006283 0.017341318 -0.07506628 -0.09457583
-0.14112303 0.0068340097 -0.09612383 -0.08111106 0.051992584 -0.018842561 -0.0049997065 -0.10766229
-0.0014086593 -0.004749527 -0.08595293 -0.0001542793 0.12782726 -0.02724583 -0.049998883 0.09527305
-0.2080498 0.01236489 0.021573268 0.01071038 -0.09817814 -0.07311646 -0.0148595385 -0.13332444
0.10773101 0.06924602 0.03752207 0.000717766 0.13201714 0.15021881 -0.247572 -0.11215526
0.016191939 -0.18653592 0.084301904 -0.16760132 0.013776799 0.0133429775 -0.0850142 0.008996353
0.025789468 -0.034599904 0.03772029 -0.08249129 0.024479588 -0.02691401 0.036365233 -0.057464384
0.060401473 0.06492009 0.21185799 0.026572628 -0.23678403 -0.04380315 0.09825422 0.16935985
-0.07845163 -0.020403668 -0.01703794 0.11817685 -0.055473007 -0.089475624 0.006496873 0.11530577
-0.037090532 0.12913643 0.01023874 0.023737846 0.11361834 0.104198374 -0.20928758 0.026743714
0.043644562 -0.03239089 -0.030514428 -0.05465363 -0.083870165 -0.034483857 -0.09351107 0.01016814
-0.12904449 -0.12350567 0.11235189 -0.16152786 0.093294576 -0.07220384 -0.047488257 -0.17643295
0.0639753 -0.09704304 0.12300668 0.18155512 -0.023386521 0.0041652443 -0.12323934 -0.071302995
-0.029700695 0.1364622 -0.021340432 -0.18158904 -0.025925456 -0.17336728 -0.022461742 -0.029310046
0.024421679 -0.14599414 -0.02343524 0.11106359 0.10029637 0.021496637 0.06604778 -0.02986155
0.032525193 -0.0047839456 0.02532491 0.10177174 -0.017197363 0.066597864 -0.13078168 0.10027011
-0.13374914 -0.016115578 0.013614936 -0.19987081 -0.039851293 0.025930684 -0.025024189 0.025489278
