results/test2/My Behavior/My Behavior-207458.onnx (onnx, 170777 bytes, 9 tensors)

action_model._discrete_distribution.branches.0.bias f4 [3]
000000 64 87 87 bb 35 4b 58 3b f2 3f 29 3b
       -0.004136013 0.0033003811 0.0025825468

action_model._discrete_distribution.branches.0.weight f4 [3, 128]
000000 2d 19 fc 3a 23 67 6c 39 b4 b2 13 3c e1 24 cd b9
       0.0019233577 0.00022545135 0.009014774 -0.00039128124
000010 78 8b ec bb c0 8b d9 bb 58 4e b9 bc d7 11 f4 bb
       -0.0072187744 -0.006638974 -0.022620365 -0.0074484157
000020 ed 42 86 3b 20 06 36 bc 1f 1e 36 bc 1e f2 f6 3b
       0.0040973336 -0.011109859 -0.01111558 0.007536187
000030 34 89 3f 3a 67 d1 db 3b 2b 2b a2 3c 93 13 1e 3c
       0.00073065166 0.0067083123 0.019795975 0.009648222
000040 c0 38 c3 ba 85 5d d4 3b 25 3d ba 3c 31 d5 96 3c
       -0.0014894232 0.006480875 0.022734234 0.018412204
000050 18 54 b7 3b b9 85 10 3c e8 44 d2 3b d4 a7 5c 3c
       0.0055947416 0.0088209445 0.0064169057 0.013467748
000060 bc fb 1d bc 67 e3 79 ba 82 91 dc 3a ac 90 ec 3b
       -0.009642538 -0.0009532482 0.0016828033 0.0072193947
000070 84 e2 70 3b 69 e5 de 3b ce 18 62 3c 25 eb c9 ba
       0.0036756108 0.00680225 0.013799859 -0.0015405162
000080 96 ac 1f 3c 6b 28 69 bc 6e 12 e0 3b 71 38 77 3c
       0.009745738 -0.014230828 0.0068381345 0.01508914
000090 09 cc 8b bc 3e 1b 94 3a 8c 0d 76 3b d4 66 68 3b
       -0.017065065 0.0011299623 0.0037544696 0.003546168
0000a0 e6 b4 da ba cb a8 df 3b bf f0 03 3b 7b d0 85 3b
       -0.0016685992 0.0068255416 0.002013251 0.0040836907
0000b0 b5 b3 a5 3b 5c b3 59 bc 2a 21 53 3c 6c 47 9a ba
       0.005056823 -0.0132873915 0.012886325 -0.0011770553
0000c0 a9 e7 4c bb 28 98 89 3a c5 f0 b2 3b c3 58 8a 3c
       -0.003126601 0.0010497617 0.005460831 0.016888028
0000d0 0f a4 6e bc 3c 37 26 3c 4f be 4d ba 79 9b be bb
       -0.014565482 0.010145005 -0.00078484876 -0.0058168736
0000e0 c9 ca f4 b9 c0 67 ca 3b 9a c2 e5 3b b7 53 0b 3c
       -0.00046690393 0.0061769187 0.0070117237 0.008503846
0000f0 5b 4d 71 3c 01 27 bc bb 8e 2f 82 bc 0e 79 fc bb
       0.014727916 -0.0057419543 -0.015891816 -0.0077048605
000100 6d b1 47 3b a2 76 38 bb ea 6c 5d 3c f8 7f 02 bc
       0.0030470744 -0.0028146883 0.013514737 -0.00796508
000110 ae ea a3 3b 0f c1 26 ba b6 a2 6c 3c ae 5c 2d 3c
       0.0050023412 -0.00063611654 0.01444309 0.010581179
000120 45 06 15 bc ef 0f 4f b9 1f 90 db 3b b5 6f 22 bc
       -0.009095733 -0.00019746994 0.00670053 -0.009914328
000130 c6 8a 66 b9 ee 95 38 bc 81 2f 93 bb f0 6e 59 bc
       -0.00021986206 -0.011266215 -0.004491747 -0.0132710785
000140 6a 00 ca bb 6a ac 80 bc cb 37 78 bb 67 eb 83 3c
       -0.0061646 -0.015707213 -0.0037875052 0.01610346
000150 d9 3a 3a 39 a1 fc 68 bb 16 05 0e bc 26 94 42 3c
       0.00017760265 -0.003555097 -0.008668205 0.011876142
000160 43 a6 f1 bb 81 55 9d bb c6 dd 23 bc 75 15 d6 bb
       -0.0073745563 -0.0048014526 -0.010001605 -0.0065333196
000170 33 85 82 bb da 51 aa 3b e5 ab e5 3b 4f 68 ef 3a
       -0.0039831637 0.0051977457 0.007009017 0.0018265339
000180 4b 64 18 3c 03 5e 45 3b c3 1a 19 3c 9a 42 86 bb
       0.009301255 0.003011585 0.009344759 -0.004097295
000190 85 a8 a1 bb 23 79 11 bc fa f4 b4 3b 91 d7 58 bb
       -0.004933419 -0.008878979 0.0055223675 -0.0033087472
0001a0 96 e8 39 3b 50 38 96 bc ba 98 ad 3b fb e6 b6 bc
       0.0028367392 -0.018337399 0.0052977474 -0.022326937
0001b0 52 e6 98 3b 8c 4c e7 3b 50 49 87 3b 18 a7 40 bc
       0.004666128 0.0070586856 0.0041286126 -0.011758588
0001c0 bc 45 87 3b 0d b5 cc 3a 6d 32 75 bc 25 e4 ad bb
       0.004128186 0.0015617922 -0.014965636 -0.005306738
0001d0 7b 93 5f 3c f9 c3 3b bc 11 27 3c bb 7f 26 c0 3b
       0.013646002 -0.011460298 -0.0028709809 0.005863964
0001e0 9a 78 a0 3a 78 66 06 ba ad f9 28 3b f7 46 7f 3b
       0.0012242973 -0.00051269634 0.0025783584 0.003895221
0001f0 e6 c4 e6 bb 1b 64 45 ba e9 1e 12 3b a7 b9 8b 3c
       -0.007042515 -0.00075298705 0.0022296256 0.0170563
000200 9d 34 9a 3a d2 ef f3 3b cf bc 40 bc f8 b2 46 bc
       0.0011764948 0.0074443603 -0.0117637655 -0.01212763
000210 28 de d1 bc b7 d0 08 3c a6 18 b8 3c 5b fd 44 3b
       -0.025618628 0.008350543 0.02247269 0.0030058238
000220 bc cc 28 3c 1b 92 00 3c e8 88 25 3c 79 10 08 bc
       0.010302719 0.007847334 0.010103442 -0.008304709
000230 4f 19 49 ba ce e6 6c bb 6b 2d 54 3c 37 40 21 3c
       -0.0007671313 -0.0036148313 0.012950282 0.00984197
000240 e4 64 c8 3b 04 df 21 bc 78 6d 6e 3b 06 49 af 3c
       0.0061155427 -0.009879831 0.0036381166 0.021397125
000250 be 22 11 3b 70 d6 9d bc c0 a1 db bb 61 1c ec ba
       0.0022145952 -0.01926729 -0.0067026317 -0.0018013829
000260 da 62 00 bd 87 b9 ab bc 61 21 ba 3a 9d e2 1f bb
       -0.031344272 -0.02096249 0.0014200622 -0.0024396547
000270 d8 4d 5d bc 25 68 19 bd 5e b3 d2 3b 33 6c ae bc
       -0.013507329 -0.037452836 0.0064300736 -0.021291828
000280 0f 91 1c 3c 1e 43 03 bc 4b d3 e5 3c 55 1d 0d 3c
       0.009556069 -0.008011607 0.028054854 0.00861295
000290 9e fb de 3a c2 8c 2c bc 9d f8 f3 3a 41 1c 55 bb
       0.0017012244 -0.010531606 0.0018613521 -0.0032518061
0002a0 2e 49 4c bb f6 6e 30 3c 79 32 80 bb bb 2a 1f 3a
       -0.0031171548 0.010768643 -0.003912267 0.0006071736
0002b0 21 7d 83 bb fc f4 ec ba 5b d7 02 3c ab aa 18 3c
       -0.0040127193 -0.0018078382 0.007985915 0.009318034
0002c0 37 fb 5d bc 90 c6 a6 3c db 50 5d 3c f3 9b 65 3c
       -0.013548664 0.020358354 0.013508047 0.014014232
0002d0 66 81 ae b9 77 69 ed bb 8c 78 95 bc f5 26 99 bb
       -0.00033284276 -0.0072452384 -0.018245958 -0.0046738335
0002e0 c7 0a 4f 3c 3c 70 03 bc db 88 1f bc 95 93 1b bc
       0.012636847 -0.008022364 -0.009737219 -0.0094956355
0002f0 14 b9 bc bb fd 57 91 3c 98 80 7e 3c 8a 99 1a bc
       -0.0057593677 0.017742151 0.015533589 -0.009436021
000300 d7 a9 56 3b 7f 00 a2 3c 6c 8c ce 3c b7 50 0d bd
       0.003275504 0.019775627 0.025213443 -0.034500804
000310 e7 e8 a1 bb 38 8f 44 bc 37 55 a7 b9 c8 03 79 bc
       -0.004941094 -0.011997037 -0.00031916212 -0.015198655
000320 d6 8f 1b 3d 41 0f 12 3c 95 6a b7 3b 6f de 8f 3c
       0.03797897 0.00891477 0.0055974224 0.01756212
000330 46 72 1b bc 17 fe 97 3c 7a 4e 7c bb 31 f7 0f 3c
       -0.009487694 0.018553777 -0.0038498924 0.008786962
000340 0f 3a cb ba 7b 12 3c 3c 68 2f 6d 3b e7 8e ef bc
       -0.0015504974 0.011479015 0.0036191586 -0.029242946
000350 bb 1a 7f bb a8 2c 01 bc 71 24 3a 3c 67 5c 0c 3b
       -0.0038925845 -0.007884182 0.011361227 0.002141738
000360 d1 84 d5 bb 20 59 8c 3c 4d 99 69 bc 6d e3 4b 3c
       -0.006516077 0.017132342 -0.014257741 0.012444359
000370 ae 34 38 bc 87 06 3d 3b 65 96 02 3c 8b 97 12 3c
       -0.011243029 0.0028843002 0.007970427 0.0089472635
000380 6e 6c 56 bc 72 81 a0 3a ac 8d 70 bc 66 81 34 bb
       -0.013087375 0.0012245609 -0.014682215 -0.0027542948
000390 5b 35 18 bb 70 f7 93 bc d1 e2 a1 bb 21 7a f4 bb
       -0.0023225162 -0.018062323 -0.0049403687 -0.007460848
0003a0 45 e6 8d 3c 52 55 37 3b 57 2d 81 3b f8 83 90 3b
       0.017321715 0.002797444 0.0039421725 0.004410263
0003b0 5d 8c a2 bc 92 f4 09 bc 5b ce 55 bc 48 71 95 3b
       -0.019842321 -0.0084201265 -0.013049687 0.0045606233
0003c0 47 d4 5c 3c 76 eb 0f 3c 1b f2 95 bb 4f a8 5d bc
       0.013478345 0.008784166 -0.0045759804 -0.013528897
0003d0 90 4d d9 ba 73 25 81 3b ee a4 26 bb 29 b6 d8 3b
       -0.0016578902 0.003941232 -0.0025427896 0.006613512
0003e0 67 f2 87 bc f8 a4 63 b9 16 80 56 bc 96 bb 12 3b
       -0.016595079 -0.00021709863 -0.0130920615 0.0022389642
0003f0 eb b4 74 3a a0 3c 68 bb 56 4c cc 3b ef 7e 33 bc
       0.000933482 -0.0035436526 0.006234686 -0.010955556

action_model._discrete_distribution.branches.1.bias f4 [3]
000000 09 60 d9 bb f5 ba 24 3c 9b c8 90 bb
       -0.0066337627 0.01005434 -0.0044184453

action_model._discrete_distribution.branches.1.weight f4 [3, 128]
000000 61 ab 30 bc 5e 91 19 3c 5b 94 a6 3b 95 ef b7 3c
       -0.010783047 0.009373037 0.0050836033 0.022453109
000010 e8 45 5c bb 2a 8a 25 3c a1 93 00 bb 71 59 ab ba
       -0.0033611003 0.010103742 -0.0019619244 -0.001307292
000020 98 0e 64 bc 0e 2e 57 bc df 06 7d 3c 2e 67 16 3c
       -0.013919495 -0.013133539 0.015443533 0.009179873
000030 d1 66 e2 ba 2a 68 79 ba 9c 91 af 3c 04 bb 4a bc
       -0.0017273073 -0.0009514118 0.021431737 -0.01237369
000040 6e 5e 28 3c 40 e0 4e 3b a9 66 77 3b d5 90 a0 3c
       0.01027642 0.003156677 0.00377504 0.019600311
000050 a8 4f bd 3a 8b e4 52 3c f9 d3 9b 3c cf d1 e9 3b
       0.0014443295 0.012871872 0.019021975 0.007135607
000060 c7 ae f4 3b 30 ae ae 3b c6 bc 66 bb 30 ba 03 bc
       0.007467124 0.0053308234 -0.0035207733 -0.008039996
000070 70 46 a3 bb 91 1f d0 3b 62 74 90 bc d0 e3 26 3b
       -0.004982762 0.0063514193 -0.01763362 0.0025465377
000080 40 fc a3 bb 1d db 3d 3c 63 40 7d bc 0e 20 79 bc
       -0.005004436 0.011587885 -0.0154572455 -0.015205396
000090 c2 df 3c bb b2 a9 dd 3b 60 f6 ce bb 11 39 ea 3b
       -0.0028819893 0.006764614 -0.0063159913 0.007147916
0000a0 62 d0 e7 bb d8 2b 4b bc f8 e6 f8 bb 37 48 82 bb
       -0.0070744017 -0.01240059 -0.007595893 -0.003975894
0000b0 68 19 44 3c 55 7d 2d bb 05 92 2d bb e1 a2 3f 3c
       0.011968948 -0.0026472409 -0.002648474 0.011696548
0000c0 c3 9c 5b 3c d3 fb 4c bc 8d 9a de 3b bd 10 81 3b
       0.013404074 -0.012511211 0.006793326 0.003938763
0000d0 41 24 69 bb 4e e3 7e 3c 0a 9e 0e 3c 1b df 74 bc
       -0.0035574588 0.015557123 0.008704672 -0.014945771
0000e0 f4 ba 57 3a 34 4e d2 bc f3 64 be 3b 6e 3c 29 3c
       0.00082294573 -0.025672056 0.005810374 0.010329349
0000f0 31 42 18 bc 79 aa 80 bc b0 9a 58 bc d4 3b 76 3c
       -0.009293125 -0.015706288 -0.013220474 0.015028913
000100 33 2b 5b 3c 3f d9 8e bc 39 37 f8 bc 7e 36 3e bc
       0.013376999 -0.017437575 -0.03029977 -0.011609672
000110 b3 da d8 3c bf be 02 3c 88 b1 87 bb 93 62 eb 3b
       0.026471471 0.007980048 -0.0041410364 0.007183382
000120 d2 31 0c bc 97 11 c7 3a 4b 85 05 bc 2a 9f a5 3b
       -0.0085568 0.0015187737 -0.008149455 0.005054374
000130 a7 56 26 bb 91 38 bb 3b 52 e2 09 bc 89 71 b4 3c
       -0.0025381239 0.0057135304 -0.008415775 0.022026794
000140 3b 63 05 bc 12 1f 60 3b a6 a4 37 3b 16 0e 7f 3c
       -0.008141334 0.0034198207 0.0028021722 0.015567323
000150 4a 9c 2b bc f4 7f b7 3c 06 89 5d bc 6d 18 0d 3c
       -0.010474274 0.02239988 -0.013521438 0.008611781
000160 12 69 b1 3c ee 29 8d bc 31 f4 05 3b 78 75 da 3a
       0.021656547 -0.017231908 0.002043974 0.0016667088
000170 3d 85 2c 3b 10 1b 21 3c 7f c1 14 bc fe c2 8a bc
       0.0026324533 0.009833112 -0.009079336 -0.016938683
000180 06 79 c3 bb bc 66 47 3c a4 91 f7 3b cf da d4 39
       -0.005965355 0.01217049 0.0075552035 0.00040598816
000190 94 cf 03 3a 83 e6 92 3c ce c1 3b bb 23 9c c6 bb
       0.0005028185 0.017932182 -0.0028649452 -0.0060610934
0001a0 69 91 04 b8 9d 59 94 3b 64 a6 11 3c f0 b2 44 3c
       -3.1606676e-05 0.0045272843 0.008889768 0.012005553
0001b0 2d 3c b4 3c 68 c8 60 bc b2 8a 36 bc ca 1e 5b bb
       0.02200135 -0.013719656 -0.011141466 -0.00334351
0001c0 fc b3 93 3b c8 2f 5a bc 76 f9 98 bc 91 d9 4c 3c
       0.00450754 -0.013317056 -0.01867364 0.012503044
0001d0 e3 39 6a 3b f5 4d 46 bc e4 ac aa bc 19 d4 0a bc
       0.003574007 -0.012103547 -0.020834394 -0.00847342
0001e0 62 48 da bb a4 f5 6b 3c df 86 1b ba e4 25 6e bc
       -0.0066614607 0.014401827 -0.0005932878 -0.014535401
0001f0 c1 71 2f 3b cc f9 cd 3c a7 1e 8a bc 0a f6 8d bb
       0.0026770683 0.025143526 -0.01686032 -0.0043323087
000200 30 6b 33 bb 16 6d 48 bb fd aa ca 3b bb 92 33 bc
       -0.002737712 -0.0030582598 0.006184934 -0.010960276
000210 76 85 84 bb b3 18 24 3b c6 50 cb bb 7b d9 1e 3b
       -0.00404423 0.0025039136 -0.0062046973 0.0024238515
000220 f7 3f 95 3c 19 7a a5 3c 50 a2 1c 3c 99 b5 4e 3b
       0.018218977 0.020199822 0.009560183 0.0031541346
000230 22 af d4 3c 68 f8 13 3c c8 b8 83 39 aa 2f 85 3c
       0.025962416 0.009031393 0.0002512394 0.01625808
000240 2c 09 26 bc 6e 54 8f bc 7a 58 1d bc 75 71 87 bb
       -0.010134023 -0.017496314 -0.009603614 -0.004133398
000250 b2 e7 f1 bb 6b c3 a6 bc 07 5a 30 bc 96 21 c7 bc
       -0.0073823566 -0.020356854 -0.010763652 -0.024308007
000260 d1 66 55 bc 6c 68 19 bc 8f c1 4c bc 08 6e f3 bb
       -0.013025002 -0.009363275 -0.01249732 -0.007428888
000270 66 22 37 3c 7a 99 4c bc f0 85 b2 bb 1a 3d c0 39
       0.011177635 -0.012487764 -0.0054480955 0.00036666618
000280 be 99 33 3b ba 5a 83 bc 95 ff 9a 3c 10 5c bc 3c
       0.002740487 -0.016034473 0.0189207 0.022993118
000290 b4 01 36 3c d9 3c cf 3b 47 44 2c bb 25 cb d0 bc
       0.0111088045 0.0063243923 -0.0026285814 -0.025487492
0002a0 f6 85 88 bb ba 01 02 3d f8 25 22 bc b2 5c c5 3c
       -0.00416636 0.031739928 -0.009896748 0.024092052
0002b0 05 8e 45 bb 44 56 81 bc 51 b8 15 3c ef ba 28 bc
       -0.0030144465 -0.015788205 0.009138183 -0.010298475
0002c0 c2 a6 29 38 2f b0 30 3c 09 42 70 3c ef a4 a4 b9
       4.0448045e-05 0.010784193 0.0146641815 -0.00031403403
0002d0 03 07 bf bb 7d 9e 47 bc 73 9d e0 39 ee de e3 3c
       -0.0058296933 -0.012183783 0.00042841918 0.027816262
0002e0 31 c6 43 3c 63 a3 9f 3c 1c 08 69 bc fc 18 45 3c
       0.011949108 0.019487089 -0.014223125 0.0120298825
0002f0 79 41 bd 3c cc 37 05 3d 56 1d 4f 3c ca 83 f1 bb
       0.023102509 0.032523915 0.012641272 -0.007370447
000300 36 92 77 3b a0 07 9e 3b 07 0c c1 3c bd 7d 4f bc
       0.0037776357 0.0048226863 0.023565305 -0.012664256
000310 56 12 ce bc 0c 26 da bb b3 dd 70 bb f9 4b a4 bc
       -0.025155228 -0.0066573676 -0.0036753237 -0.020055758
000320 58 ca ad 3b 06 af 27 3c 20 7d 79 ba 20 53 6e bc
       0.0053036623 0.0102346 -0.0009517241 -0.014546186
000330 88 3e c7 bb 80 7a 32 3c b6 fb 83 bc c3 54 87 3c
       -0.0060804524 0.010893464 -0.016111236 0.01651991
000340 d3 85 46 bc e6 09 87 3c a4 3b 88 ba 0e 00 95 3a
       -0.012116867 0.016484212 -0.0010393751 0.0011367814
000350 e1 33 65 3c 6e bd 65 bb ce 05 06 3c c6 c9 8c 3b
       0.01398942 -0.0035055536 0.008180095 0.004296514
000360 64 1d 76 bc a8 bd 46 3c b4 c8 a8 bc b9 22 3d bc
       -0.015021656 0.0121301785 -0.020603515 -0.011543923
000370 af a7 1f bc e2 65 05 bb d2 7b ec 3c ea 4f 10 3c
       -0.009744569 -0.0020354916 0.028867636 0.0088081155
000380 31 19 bf bc e8 46 9b bc 98 31 d9 bb 33 5f 80 3c
       -0.023327442 -0.01895471 -0.0066282265 0.015670395
000390 49 bf 53 3b 98 ee 32 bc 63 9d 7f bc bb e7 14 ba
       0.003231006 -0.010921143 -0.015601489 -0.00056802825
0003a0 cc 40 e7 bc c8 e9 fc bb 10 d6 30 3b 59 08 0a bc
       -0.02822914 -0.0077182986 0.002698306 -0.008424842
0003b0 4c 36 97 bb 33 d7 66 3b f6 4a a3 3c ca 54 59 3b
       -0.004614627 0.0035223484 0.019933205 0.003316211
0003c0 a7 d2 34 bc 44 af 53 3c d7 c8 06 ba 73 b2 de bb
       -0.011036552 0.012920205 -0.0005141622 -0.006796175
0003d0 01 32 9d bc c9 39 36 ba a4 e4 1d b7 0c 53 0f 3c
       -0.019188883 -0.00069513597 -9.411164e-06 0.008747827
0003e0 48 ac 92 bc 84 17 b3 bc 96 dd e8 bb 82 1e 93 3c
       -0.017904416 -0.021861799 -0.007106493 0.017958883
0003f0 7f 87 0a bc 44 33 ac ba e7 82 f3 3c 27 3b ac 3b
       -0.008455156 -0.0013137837 0.029725505 0.005256075

discrete_action_output_shape f4 [1, 2]
000000 00 00 40 40 00 00 40 40
       3.0 3.0

network_body._body_endoder.seq_layers.0.bias f4 [128]
000000 bd 6f 40 3c da 2b a6 3b f6 d5 9e 3a 32 4f 1c bb
       0.0117453905 0.0050711455 0.0012118209 -0.0023850915
000010 0d 0d 0d bc 8f 57 6c bb 2e 8f 04 bb c5 89 e1 bb
       -0.008609069 -0.0036062931 -0.0020226943 -0.0068828785
000020 39 fe be 3b ea 2f 24 3c 5b 25 92 3b 66 f3 80 bc
       0.0058286455 0.010021189 0.0044600195 -0.015741061
000030 b0 ec 6b bc 7d 14 1e bb 5d d8 a1 3b 35 86 05 bc
       -0.014399692 -0.0024121099 0.0049391226 -0.008149673
000040 ed 18 8b 3c 2e f6 b2 bb 2d fc da bb 34 1b 29 bc
       0.016979659 -0.005461476 -0.0066828937 -0.010321427
000050 02 7e ef 3b 29 1c cc bb 18 3f 05 bb 12 03 dc 3a
       0.0073087225 -0.006228943 -0.0020331796 0.0016785583
000060 58 42 97 3b 3a 9f 38 3b d2 24 79 ba cf 92 ac 3a
       0.004616063 0.0028171078 -0.0009504083 0.0013166311
000070 e7 be 95 3b b5 44 cf 3b 16 9c 71 3b 7a 18 bb 3a
       0.0045698765 0.006325329 0.0036866716 0.0014274262
000080 e3 bf 8d bb d5 cd 39 3c ee df 84 bc 3b 03 ff b9
       -0.004325853 0.011340578 -0.01622006 -0.00048639797
000090 a7 36 fa 3b cb 6f 20 ba 7f 13 f8 bb bc 33 ac 3b
       0.0076359096 -0.0006120174 -0.0075706835 0.0052551907
0000a0 5a be 83 bb 76 ed 3d bc 8e 54 cf 3b 74 11 f4 bb
       -0.0040204944 -0.01159226 0.0063272184 -0.0074483696
0000b0 25 1d fa 3b 5a 45 44 bc 01 aa b3 3b a5 e5 68 bb
       0.007632869 -0.011979425 0.0054829125 -0.003553727
0000c0 81 e3 82 3b 3e 12 38 3c cf a7 6d bb 35 95 fa bb
       0.0039944057 0.011234818 -0.0036263352 -0.0076471814
0000d0 13 a1 7e 3c cd c0 24 bb e5 c7 89 3a ef 39 00 3c
       0.015541333 -0.0025139332 0.0010511844 0.007826312
0000e0 a4 9f 39 3b 9e 23 2c bc ef 84 d6 bb 2d 93 c8 bb
       0.0028323913 -0.010506539 -0.0065466086 -0.0061210603
0000f0 74 fe 7a 3b e2 19 1d 3a 60 3d e6 bb 1e 68 b5 bb
       0.0038298639 0.00059929315 -0.0070263594 -0.0055360934
000100 3e b6 57 3b de 90 1a 3c 31 80 a1 3b 08 8b 52 3c
       0.0032915021 0.009433953 0.0049286117 0.01285053
000110 ef f7 63 3c 9a d1 2e ba ec 8b a3 bc 79 5c 8d bc
       0.013914092 -0.00066688063 -0.01996418 -0.017256008
000120 e1 18 88 3b 17 e3 02 3c 10 28 c0 3a 53 31 9c bc
       0.0041533564 0.007988713 0.0014660377 -0.019066488
000130 a5 9a 4d 3c 94 dc 16 bc 2e 17 79 3b 39 ea da 3b
       0.012549077 -0.009207863 0.00380082 0.0066807535
000140 0c 47 3d bc 82 88 9f ba 7f cb 91 ba cf 1a 35 bb
       -0.011552583 -0.001217142 -0.0011123269 -0.0027634387
000150 2b f9 21 3a 83 90 d4 bb a4 64 bc 3b c7 9b 81 bc
       0.00061787915 -0.0064869537 0.005749302 -0.01582135
000160 0e d5 09 bb 52 42 9f bb b5 b4 f6 ba 7b e6 cd ba
       -0.0021031532 -0.004860201 -0.0018822165 -0.0015708947
000170 bf 95 5e bc 7d e0 dc bc 33 8e ad bb 03 7a a0 3c
       -0.013585507 -0.026962513 -0.0052964925 0.01958943
000180 54 24 0d 3b 5e 42 e7 ba c0 85 ed bb 90 b0 65 3c
       0.0021536546 -0.001764368 -0.0072486103 0.014019147
000190 85 bc e1 3b bd b8 02 bc 73 d8 bd bb dd 1a a5 bb
       0.0068889284 -0.007978615 -0.005793625 -0.0050386027
0001a0 73 c3 31 bc 62 7a 06 3c 51 8e d6 3b 8e f7 2c 3c
       -0.010849821 0.008207889 0.006547727 0.0105570685
0001b0 7b d6 d3 3c c5 b5 3d 3c 64 f6 cf 3b 2f 46 33 bc
       0.025859108 0.011578982 0.0063465107 -0.010942026
0001c0 68 3f 67 3b 79 3a cf bb 73 ff da 3c 4b 8f 07 3b
       0.0035285596 -0.006324109 0.026733136 0.0020684774
0001d0 be 94 57 ba 0b 4b 0f 3c f0 3b 19 bc f3 d5 40 3b
       -0.00082237634 0.008745919 -0.009352669 0.0029424399
0001e0 b2 eb e3 3a 17 1a 12 ba 9a fd ee 3a 37 66 23 bb
       0.0017388968 -0.00055733457 0.0018233538 -0.002493275
0001f0 a9 18 bc 3c 3c 1b 35 3c a3 eb 00 3c a4 bf 4b bc
       0.022960978 0.011053856 0.00786868 -0.012435827

network_body._body_endoder.seq_layers.0.weight f4 [128, 192]
000000 21 87 f9 3d 4e d6 2f bd d1 42 a6 bd 5a 64 6a bd
       0.12183977 -0.042928986 -0.08118213 -0.05722461
000010 da f9 11 3d ce 49 70 bd 9d d7 7d bd 17 33 97 3c
       0.035638668 -0.058664136 -0.061973203 0.018456979
000020 af 58 d4 bd 8b 9b 5e bb 9e 62 93 3a 6b bd 27 bd
       -0.103684776 -0.0033967223 0.00112446 -0.040952127
000030 4b ad 93 3c fd 15 12 3b 4a d0 fe 3d 51 52 06 bd
       0.018026968 0.0022290938 0.12442072 -0.032793347
000040 95 c7 a5 3c a8 bf 81 bd ed 0a db bd 5a b8 6a bc
       0.02023677 -0.06335384 -0.10695443 -0.014326179
000050 dc 31 8f 3d 79 6b 97 bd c7 fe 85 3d b6 e6 25 bd
       0.06991932 -0.07393546 0.065427355 -0.040503226
000060 6c d5 1f 3e c5 37 8f 3d b8 9b d9 3c d9 57 5a 3d
       0.15608758 0.06993059 0.02656351 0.053306434
000070 a0 4c 50 3d d8 72 79 bb a5 93 19 3d f8 74 7f bd
       0.050854325 -0.0038062837 0.03749432 -0.06236741
000080 b4 a2 50 bc f9 0a 54 3d 2c 6d a2 bd 8c b1 32 bd
       -0.012734104 0.051768277 -0.07930979 -0.043626353
000090 92 3b a6 3c 61 5d c7 3b b7 16 40 bd c0 32 e3 bd
       0.020292077 0.0060841297 -0.046896663 -0.11093664
0000a0 b3 00 18 be e4 d7 8b bc ee 42 a9 bc f4 05 84 3d
       -0.14844017 -0.017070718 -0.020661797 0.06446448
0000b0 ae 32 01 3d 85 d7 0a bd c8 89 9e 3c 48 bd 14 bc
       0.031542473 -0.03389694 0.019352809 -0.009078331
0000c0 16 65 b0 bd cc b4 f9 3d 12 f2 1f bd cf b7 18 3e
       -0.086130306 0.121926874 -0.039049216 0.14913867
0000d0 70 9f 51 bd b7 07 b1 39 8b 7d 71 bd 97 e7 45 3b
       -0.051177442 0.0003376582 -0.058957618 0.0030197853
0000e0 f5 49 a6 bd b5 17 d9 ba 93 f6 0d 3e 06 f7 61 bd
       -0.08119575 -0.0016562851 0.13863592 -0.05516722
0000f0 39 ad 0d bd a2 23 3a bd 55 d1 97 3b 1c 10 b7 3d
       -0.034589026 -0.04544414 0.0046331086 0.089386195
000100 b9 e1 83 bd 1b b4 86 bd 85 fd 9d 3d cf 4e c3 bd
       -0.064395376 -0.06577321 0.07714371 -0.09536516
000110 4d 54 ed b9 2e 58 61 3d f5 b3 e3 3c 5c c8 28 bd
       -0.00045266972 0.055015735 0.027795771 -0.041206703
000120 e2 cb ac bd fa 99 96 3c e4 7e bc bc 03 66 9d bd
       -0.08437325 0.018383969 -0.023009725 -0.07685473
000130 54 e6 ca 3d 4e 7f 50 3d 8f c9 27 3e 90 66 06 bc
       0.09907213 0.050902657 0.16385482 -0.008203164
000140 f2 44 1d 3d 7d 7a e9 3c 70 e0 5f bd d1 35 df 3d
       0.03839583 0.02850079 -0.0546574 0.108989365
000150 c7 3d 39 bd a8 af cc b9 4c 89 95 bd 24 df 9f bc
       -0.04522493 -0.00039040786 -0.07301578 -0.019515581
000160 49 e6 c0 3d 58 64 59 3d 94 c5 5e bd 1b 2b 56 bc
       0.094189234 0.05307421 -0.054387644 -0.013071801
000170 14 ff 31 3c d3 7b 3e 3d 8a 0c bc bb bc 86 38 3c
       0.010864038 0.046504807 -0.0057387995 0.011262592
000180 95 13 5a 3d 7e 4b a2 3d b7 ad aa ba 8f 06 48 bc
       0.05324133 0.07924555 -0.0013021742 -0.012208595
000190 bd 44 85 3c 1f ef ae bd d1 04 74 3d e9 a5 49 bc
       0.016268129 -0.085417025 0.059574906 -0.0123076225
0001a0 cc 9a 4a be bc 68 8f bc 0f 73 84 3c 96 3f 98 36
       -0.19785613 -0.017505996 0.016168145 4.5373554e-06
0001b0 d5 89 89 3d 8c d1 39 3d 00 23 d5 3d c2 5c 92 3b
       0.067157425 0.045365855 0.10407066 0.004466624
0001c0 c6 e1 4a 3e 86 1f dc bc 90 b1 76 3d 76 7a eb bd
       0.19812688 -0.0268705 0.06022793 -0.11497967
0001d0 d1 eb 81 bd e8 3a 0a 3e ad 66 49 bd 18 09 0b 3d
       -0.063438065 0.13499033 -0.049170185 0.03394422
0001e0 93 57 9f 3d ff f6 c4 bd 1b af 0c bd 08 7e e2 3d
       0.07780375 -0.09617423 -0.03434668 0.11059195
0001f0 f7 45 23 3d 71 28 af 3a 69 ec 3a bd d8 0e 08 be
       0.039861646 0.0013363493 -0.045635615 -0.13286912
000200 b2 de e6 3c d1 38 8f bb a2 96 09 3e 76 ec a6 3d
       0.028182361 -0.0043707867 0.13436368 0.0815057
000210 17 54 1b bd 17 e6 10 3e 11 7c d9 3c 88 fb c5 bc
       -0.03792199 0.14150272 0.026548417 -0.024167791
000220 1d 2d 28 3d 00 d4 00 bc 93 dc 4b 3d 5d 5a bf 3c
       0.04105865 -0.007863045 0.049770903 0.023358518
000230 93 e3 d1 3d ee 8e 97 bd 84 47 f7 bc d7 0f 15 3d
       0.102484845 -0.074003085 -0.030185468 0.03639206
000240 e5 dd 20 3d 4d 28 86 bc b2 02 de 3d 77 c1 28 3d
       0.039274115 -0.016376639 0.10840358 0.041200127
000250 c4 8f 56 3c 42 b5 28 bd 54 64 8a 3d ac 6b 1f 3c
       0.0130958 -0.041188486 0.06757417 0.009730261
000260 7f 82 01 3c 69 bd 47 bc 5e 40 e1 3c aa 54 10 bb
       0.007904648 -0.012191155 0.027496513 -0.002202312
000270 81 4d 89 3d ac 8c 7e 3d 78 ac 85 bd 64 e2 bd bd
       0.06704236 0.062145874 -0.065270364 -0.09271696
000280 ae 8f 0b 3e 09 68 9e 3d 2e 17 b1 3d 38 6c 00 bd
       0.13629028 0.07734687 0.08646999 -0.031353205
000290 b2 f2 16 3d d4 07 c0 bd fa 75 33 bc 00 40 02 3c
       0.036852546 -0.09376493 -0.010953421 0.007949829
0002a0 72 92 26 be 93 81 d9 3d f7 92 ce bb 87 d3 e5 3d
       -0.16266802 0.106204174 -0.0063041407 0.11221986
0002b0 5c 2d 0b 3d 7e d3 81 bd b4 03 ad 3d 74 b9 b7 3d
       0.033978805 -0.06339167 0.08447972 0.08970919
0002c0 04 50 ab 3c f6 9e 01 3d 6c 6a 7c bc 3b ed c9 bd
       0.020912178 0.031645738 -0.015406232 -0.09859701
0002d0 30 a8 2a bd f3 e2 3a bc ee b8 97 3d 32 89 53 3e
       -0.041664302 -0.011406648 0.074083194 0.20657805
0002e0 c9 63 05 3e cb db 40 3c cb b1 a0 bc 30 30 b6 bd
       0.13026346 0.011771153 -0.019616028 -0.0889591
0002f0 94 18 b9 bc ed 0f 77 3e d6 92 9c 3d 09 43 09 3b
       -0.022594728 0.24127169 0.07645194 0.0020944497
000300 51 90 8b bb bb 49 b3 3c ef d1 25 3d 0f e2 30 bd
       -0.004259147 0.021885743 0.04048341 -0.043184336
000310 c2 fd ef 3d 27 8b c9 bd 36 53 77 3c 1c b9 d6 bc
       0.11718322 -0.09840994 0.015095523 -0.026211314
000320 84 e6 31 3d c3 d6 05 be e3 8e 22 3e ad 4a b8 bd
       0.043432727 -0.13070206 0.1587482 -0.08998618
000330 73 dd 84 bd f3 bb 0e be 78 a5 f5 3d ea 33 0a 3c
       -0.064875506 -0.13938884 0.11994451 0.008435229
000340 10 42 23 3d e5 51 04 3d d4 c7 47 3d 86 d6 05 3d
       0.039857924 0.032304663 0.048774555 0.03267529
000350 dd de b1 bd 7b 9e 92 3b f7 0c af 3d 87 7c 14 bd
       -0.08685086 0.0044744588 0.08547395 -0.03625157
000360 5f b9 30 be 58 31 8b 3d b7 fd e1 3d b7 62 d1 3b
       -0.17258213 0.06796521 0.110347204 0.0063899416
000370 db 12 e2 bc 7e e3 8a 3b 67 d6 a6 3c 09 42 40 be
       -0.027596882 0.004238545 0.020365907 -0.1877519
000380 e9 6b d2 bc 99 6c 22 be 60 6c 19 bd ec 65 54 bd
       -0.025686221 -0.15861739 -0.03745687 -0.051855013
000390 aa 95 2c 3d 9a 5f 98 3c 83 1a dc 3a 62 42 6c 3d
       0.04213492 0.018600274 0.0016792569 0.057680495
0003a0 65 a4 98 bd 0a 58 79 3d 57 0e 9a bd 35 fa c6 3d
       -0.07453231 0.060874976 -0.07522266 0.09715692
0003b0 d9 f7 68 3d 2a c8 ac bc 6b 76 ec 3d 68 37 be bd
       0.05687699 -0.02109154 0.11546024 -0.09287912
0003c0 b9 1f b5 3d 7f 2b d7 3c 64 e5 7b 3c 92 a1 10 bd
       0.08843941 0.026265858 0.015374515 -0.035310335
0003d0 c6 fa bc ba 36 c0 de 3d c2 b3 d6 3d c0 64 2e be
       -0.0014417998 0.10876505 0.10483505 -0.1703062
0003e0 50 ed 1c 3c 06 af 35 3d 54 a9 55 3b c3 85 9a 3c
       0.009578064 0.04435637 0.0032602148 0.01886261
0003f0 71 08 a2 3b d4 4e 9f 3d c2 f7 2a 3d bd 99 4f bc
       0.004944854 0.07778707 0.041740187 -0.012670931

network_body._body_endoder.seq_layers.2.bias f4 [128]
000000 0d 21 a1 3c 34 5e 12 3c 6f 2a aa 3b 24 64 e9 ba
       0.01966908 0.008933593 0.0051930468 -0.0017806333
000010 28 09 02 3c 23 da 9d 3b 89 fe d8 3b 5c b3 bf ba
       0.007936753 0.0048172637 0.00662214 -0.0014625597
000020 ca 41 0f 3c 49 63 01 3c fd 27 45 3c b1 e7 10 bc
       0.008743713 0.007897207 0.01203346 -0.008844302
000030 da f0 d6 3b 83 6f 52 bb 08 21 66 ba 62 3a ab 3b
       0.0065594735 -0.0032109923 -0.0008778726 0.0052254656
000040 87 19 71 bb 53 0e ef ba 24 32 e0 3a f7 48 2e bc
       -0.0036788897 -0.0018238522 0.0017104787 -0.010637513
000050 91 27 01 3c fa 27 9a 3b 03 a3 fd bb 49 75 33 bb
       0.0078829685 0.0047044726 -0.00774038 -0.002738314
000060 18 93 60 3c b8 53 1e 3c e5 f9 1c bc 11 db 25 bc
       0.013706945 0.009663515 -0.009581064 -0.01012303
000070 e8 8a 5f 3a 84 e4 72 3c 13 97 de 3a 36 da eb bb
       0.00085274735 0.01482499 0.001698228 -0.0071976436
000080 8e 36 18 bc f3 b0 83 3c 9c 06 da 3b 8f 47 08 3c
       -0.009290351 0.016075587 0.00665362 0.008317842
000090 7a 07 72 3c ea 3e e6 39 ff b9 1f bc b4 32 47 ba
       0.01477229 0.00043915893 -0.009748935 -0.0007598803
0000a0 4c 91 89 ba af e0 2e 3c ba 32 a1 bb 1e ff 7a 3b
       -0.0010495572 0.010673686 -0.004919377 0.0038299034
0000b0 de bd b8 bb 5f b9 87 3c c7 c2 33 3a 23 c5 98 3c
       -0.0056378683 0.016567884 0.0006857332 0.01864869
0000c0 99 f1 2f bb c7 75 73 3b eb b8 16 ba aa 1e 2d bc
       -0.0026846884 0.0037149058 -0.0005749601 -0.010566393
0000d0 09 8e 9c ba 6d 10 c6 3b 86 3b b1 3a 3d e0 ce 3b
       -0.0011944185 0.0060444386 0.0013521768 0.0063133524
0000e0 cd 10 67 39 fa 58 01 3c ae db c6 bb c1 23 b4 ba
       0.00022036135 0.007894749 -0.0060686683 -0.0013743566
0000f0 83 17 87 3b f8 08 07 3c 69 fd b7 3b b5 23 72 3c
       0.004122676 0.008241884 0.0056149256 0.014779021
000100 17 34 f3 ba 14 ea cd 3b f6 30 04 3c 97 22 d8 3a
       -0.0018554953 0.006284008 0.008068314 0.0016489801
000110 14 ef d9 ba e3 5c 04 3c b8 26 f2 bb ae 1c 8e 3b
       -0.0016627037 0.008078787 -0.0073898695 0.004336915
000120 5a da e3 3b 12 a6 22 3a e1 db a6 bb 93 3a a0 ba
       0.00695352 0.0006204556 -0.0050921296 -0.0012224488
000130 96 29 df bb 9f eb 1a 3b e5 57 2c 3c 7b 9a 84 3b
       -0.0068103774 0.0023638976 0.010519003 0.004046736
000140 40 bc 2c bc 4b ec c7 3b a7 97 3e 3c d5 67 45 3c
       -0.010542929 0.0061011664 0.011632836 0.012048681
000150 14 75 c2 39 be 17 ca bb b0 57 af b9 52 c5 71 3a
       0.00037089793 -0.006167381 -0.00033443933 0.00092228234
000160 5d df 17 bb a5 d8 0f 3c f6 25 d2 3a 3b ca 68 ba
       -0.0023173906 0.008779679 0.0016033042 -0.00088802323
000170 de 8b 8a 3c e1 94 3b bc 4f f2 68 3c b9 5e b8 3b
       0.016912397 -0.01144907 0.014217927 0.005626526
000180 4e 06 a4 3b 17 6f 0b bb 72 31 82 3c c4 de 52 3a
       0.0050056344 -0.0021275932 0.015892718 0.0008044059
000190 6f 51 eb 39 cb 34 35 3c af 22 3f 3a 49 f7 ab 39
       0.00044883366 0.01105995 0.000729124 0.00032799903
0001a0 55 79 3a bb 45 2c da 3b fa d3 1a bc 44 1a 96 3c
       -0.0028453667 0.0066581094 -0.009449953 0.018323071
0001b0 ca 72 7a 3c 1a e6 d5 ba 56 dc 71 3b 23 d8 9b bb
       0.015286157 -0.0016319186 0.0036905012 -0.00475599
0001c0 f1 6b f2 bb 23 cd d9 3b 62 25 b7 3a d1 e3 85 3b
       -0.0073981215 0.0066467687 0.0013972933 0.0040859957
0001d0 d8 1e a5 b9 58 ff 90 bb 7a 2f c4 ba 36 7d 07 3b
       -0.00031494233 -0.0044249706 -0.0014967762 0.0020673997
0001e0 c3 77 de bb 45 6d a8 3b 1c d7 d2 3b 4b b0 80 3b
       -0.006789179 0.005139979 0.0064343344 0.0039272658
0001f0 d0 2d 58 3b 22 47 ba 3b f5 5c 08 3c 8d 91 8f bb
       0.003298629 0.005684749 0.008322944 -0.0043813647

network_body._body_endoder.seq_layers.2.weight f4 [128, 128]
000000 d7 e4 5f 3c d1 bd b3 3d 9a 8b 71 bd 3e 06 da bc
       0.0136653995 0.08776439 -0.058971025 -0.026614305
000010 2b 2e 87 bd aa 63 9d 3d 15 e0 b0 3e 9e 0d e3 bc
       -0.06600603 0.07685025 0.3454596 -0.027716454
000020 eb 4b 3d bb ea a1 5e bd de ac 9f bc f7 0b c0 bd
       -0.0028884362 -0.054353632 -0.01949161 -0.09377282
000030 84 59 7d bd b5 df 9e 3d 9e 9f 36 3d ee 44 85 bc
       -0.061852947 0.077575125 0.044585817 -0.01626822
000040 15 42 57 bd d8 27 3f bc 33 9b 46 bd fc b2 d7 3d
       -0.052553255 -0.011667214 -0.048487853 0.105321854
000050 2e 10 b8 bb bc c6 60 3c 33 4e 91 3d f9 50 ed 3c
       -0.005617163 0.013719257 0.070949934 0.028969275
000060 07 e5 29 bc de 62 1c 3e b9 0d 99 3d 5f c8 8c bd
       -0.010369546 0.1527209 0.074733205 -0.06874155
000070 04 0e d4 3c 51 01 1e be 36 62 b6 bd a8 30 06 3e
       0.02588559 -0.1543019 -0.08905451 0.13104498
000080 c5 3b 69 3c 8b b4 bb bd 8b fc 9f 3c 89 b7 06 be
       0.014235442 -0.09165295 0.019529602 -0.1315595
000090 2e 57 8f bd 3c 79 e4 bd e0 ff 26 3e 3f 97 24 3d
       -0.0699905 -0.11155936 0.16308546 0.040183302
0000a0 18 4e 58 3e 8d ce 46 3d 48 35 f0 bc 4d 08 46 bd
       0.2112354 0.048536826 -0.029322281 -0.04834776
0000b0 a9 c6 d6 bd 40 f9 eb 3c 2e a1 b3 3d e8 7d 0c 3e
       -0.1048711 0.028805375 0.08770977 0.13719904
0000c0 e3 97 17 3e 9e 4e a3 bd 7b 08 35 3d 28 f8 eb bc
       0.14804034 -0.079739794 0.04419754 -0.028804854
0000d0 45 7c 0f 3e 28 51 e8 3c c9 a2 0b 3e 4d 15 f2 3c
       0.14012249 0.02835901 0.13636316 0.029551173
0000e0 04 ad 6d 3d 7f 5d 4b be 61 8e 48 3c 6e 46 ab 3a
       0.05802633 -0.19859885 0.012240977 0.0013067254
0000f0 bc 7c a9 bb 7c 27 30 3c aa 91 60 3c 10 4c 6c bd
       -0.00517234 0.010751601 0.013706604 -0.057689726
000100 a8 66 d3 3a e5 f2 18 b9 51 44 2d 3e d0 6a 72 3d
       0.0016128616 -0.00014586335 0.16920592 0.059183896
000110 0e c2 af bd 2b 94 08 3b 40 dd 43 3d e4 7d 00 be
       -0.08581935 0.0020840268 0.047818422 -0.12548023
000120 08 a7 04 3e 46 87 31 bd 2f f0 20 bd 05 87 04 be
       0.12954342 -0.043341897 -0.039291557 -0.12942131
000130 89 4d ff 3c f3 53 93 bd db 58 77 3c f8 20 bb 3c
       0.031164901 -0.071937464 0.015096868 0.02284287
000140 79 92 9d 3d 67 f5 2c 3e 1f 0d e9 bd 74 ae a7 ba
       0.07693953 0.16890489 -0.11379456 -0.001279308
000150 21 e1 f0 3c 24 a4 8c bd 93 e8 11 bc 46 bf 5d bc
       0.029404225 -0.06867245 -0.008905548 -0.013534373
000160 90 16 cb bc 7a e5 b3 bb 17 9e 13 3d 25 05 83 bd
       -0.024791032 -0.005490002 0.036039438 -0.063974656
000170 3e 18 da 3c b4 7e 48 bd fc 1f c3 3c 2a c6 3e bd
       0.026622888 -0.04894896 0.023818962 -0.046575703
000180 08 ad ef 3d 86 12 a3 3d 3a cf 3b 3c 32 4c a0 bd
       0.11702925 0.079625174 0.011462981 -0.07827033
000190 ae 68 91 bc 26 1f 75 be bf 3d 1a 3e 01 9b 89 3d
       -0.01775011 -0.23937663 0.15062617 0.06719018
0001a0 70 c2 18 be 20 a3 18 3d a1 71 8b 3d fe 46 29 bd
       -0.14917922 0.037264943 0.06808782 -0.04132747
0001b0 d1 c2 09 be fc 15 0c bb a3 1f e0 bd d1 6f 93 bc
       -0.13453223 -0.0021375408 -0.10943534 -0.017997654
0001c0 a9 d1 82 3b 96 f8 0b bd dd 63 0d be 1c 54 33 3d
       0.0039922786 -0.034172617 -0.13807626 0.043781385
0001d0 b1 b4 33 3d ec 3f 8b bc 25 6a bb bc 96 ee b9 3c
       0.043873493 -0.016998254 -0.022877762 0.022696774
0001e0 cf b7 2f 3c df ed 5c bd b5 aa cb 3c 16 4e 19 3d
       0.010724976 -0.05393779 0.024861673 0.037427984
0001f0 48 ea 9c 3c 16 de a3 3d 37 0e f2 bc a0 26 2a 3b
       0.019154683 0.08001344 -0.029547794 0.0025962964
000200 ca 9e 38 be 74 11 7c 3d 94 38 0d be cf d3 b6 bb
       -0.18029323 0.061540082 -0.13791114 -0.005579449
000210 fe 2b 84 bd e0 2e 22 3e d3 ea 09 3e 2b cb f9 3d
       -0.06453703 0.15838194 0.13468485 0.12196954
000220 00 7c 34 3c dd 52 a2 3c fc c6 9a 3d f7 3a 3e be
       0.011015892 0.019814903 0.075574845 -0.18577181
000230 0b c0 87 bc 21 59 10 3e 3e 00 38 3d 38 a3 4e bd
       -0.016571065 0.140965 0.044922106 -0.050448626
000240 eb 9f 84 bc 1d d2 4f 3d 98 f1 06 bd dc f4 1d bd
       -0.016189536 0.05073749 -0.032945246 -0.038563594
000250 a9 e1 a7 3d 2a 2d c0 bd 8b fc e0 bd e8 15 45 bd
       0.08197338 -0.09383614 -0.10985669 -0.048116595
000260 d6 30 a7 bc 2a 03 30 3d a9 e5 ba bd bd a5 6f be
       -0.020409029 0.042971767 -0.091258354 -0.23403068
000270 50 f1 46 bd 5f ef 85 bc f4 3a f8 bd a2 1e 44 bc
       -0.048569977 -0.016349493 -0.121206194 -0.011970194
000280 84 83 23 3d ae 3f 48 bc 54 36 a5 3d 17 20 e5 bc
       0.039920345 -0.012222214 0.08067003 -0.027969403
000290 f2 50 fa 3d 2c af b0 bd a3 f9 53 3c 01 e4 e4 3d
       0.1222247 -0.086271614 0.012937936 0.11176301
0002a0 cf f2 f5 3c 04 58 fa bd d9 a7 cf 3d 98 61 70 bc
       0.030023007 -0.12223819 0.10139436 -0.014671706
0002b0 c3 f2 21 be ad 09 92 3d e6 6f 15 be 14 be e8 3c
       -0.15815262 0.07130752 -0.14593467 0.028410949
0002c0 14 83 be 3b 39 ee c1 bb 49 2d 2a 3e d4 f2 9c bb
       0.0058139656 -0.005918291 0.16618837 -0.0047896896
0002d0 e9 0a 95 3c 0b 25 53 bd de 63 c4 bd 4f 3a e6 bc
       0.018193679 -0.051549 -0.09589361 -0.028103976
0002e0 b4 2b 8f bd 8d c2 02 bd 0d f1 1f be 65 ab 2f bd
       -0.069907576 -0.03192382 -0.15619297 -0.042888064
0002f0 34 07 9b 3c bb 83 c5 3b 23 94 a6 bd 21 fd ba 3c
       0.018924333 0.0060276664 -0.081337236 0.02282578
000300 b4 85 d6 3d c5 06 20 be b7 ad 5e bd 6b be 00 bc
       0.104747206 -0.15627582 -0.054364886 -0.007857899
000310 8a d9 94 b9 01 ea d2 bc 5e 97 32 3e e4 82 8e 3d
       -0.0002839084 -0.025746347 0.17440554 0.06958559
000320 80 54 ae ba 54 82 03 be de 89 22 be 86 20 4d be
       -0.001330033 -0.12842685 -0.15872905 -0.20031938
000330 39 97 bf 3b 78 00 7b bd 05 73 3a bd 9b d5 44 3d
       0.0058468846 -0.061279744 -0.045519847 0.048055273
000340 83 7e fa 3d d5 5c e0 3d 22 24 e4 bd 63 60 c9 3d
       0.122311614 0.10955206 -0.11139704 0.098328374
000350 ee b3 3c 3c 46 74 c9 bd cc 6c b1 bd bd b5 9f bd
       0.011517508 -0.098366305 -0.086633295 -0.07798336
000360 b0 ef 56 3d 90 d4 2a 3d a2 1b 83 3d 17 ec 59 bc
       0.052474678 0.04170662 0.06401755 -0.013300917
000370 bd d8 11 3e a7 cb 6f 3e 52 31 67 be d2 c3 08 bd
       0.14242835 0.23417531 -0.22577408 -0.033389874
000380 56 28 0c 3e 33 4d 5b bd 8b d0 af bd 10 14 49 be
       0.13687262 -0.05354042 -0.08584698 -0.1963656
000390 3b c7 b7 3d 53 81 0b be f7 ca 56 b9 fe d2 df 3d
       0.08973547 -0.13623552 -0.0002048424 0.109289154
0003a0 ac b7 c9 3d 87 37 b7 3d dc 2f fb bd 73 68 06 bd
       0.09849486 0.08946138 -0.12264988 -0.032814454
0003b0 1f 06 4e 3d 46 65 f7 bd f3 51 d0 bc 8c 17 dc 3c
       0.050298806 -0.12079863 -0.025429701 0.026866697
0003c0 06 28 34 3d ca 3b c5 bd b1 3b 33 be 6f 80 5f 3d
       0.04398348 -0.096305445 -0.17503239 0.054565843
0003d0 b8 61 c1 bd 5d 58 e3 bd 74 81 8b 3d 56 59 b4 bd
       -0.094424665 -0.11100838 0.068118006 -0.08806102
0003e0 28 06 3e bc cb b8 7b 3d a9 9b 19 3c 24 e9 5f 3d
       -0.011598147 0.06145553 0.009375491 0.0546657
0003f0 63 cb b2 3b 58 98 92 bc 47 d2 3b 3d 66 c5 c0 3d
       0.0054563745 -0.017894909 0.045854833 0.09412651
