results/test2/My Behavior/My Behavior-195155.onnx (onnx, 170777 bytes, 9 tensors)

action_model._discrete_distribution.branches.0.bias f4 [3]
00000000: 1865 70bb 6f12 693b e49a ea3a
-0.003668135 0.0035563966 0.0017898944

action_model._discrete_distribution.branches.0.weight f4 [3, 128]
00000000: 1bf5 d73a 61f5 ec3a 45c1 0b3c ab95 77ba
00000010: c88a 0abc 8f0e 02bc 7aa0 b8bc 88c4 f6bb
00000020: aa92 8c3b 4360 32bc 16ca 4dbc e757 fe3b
00000030: 0c8a 923a 292b de3b d856 a73c cedb 313c
00000040: ea34 c6ba 3281 dd3b 1992 ba3c fbed 973c
00000050: fd9d ef3b fb72 063c cd5a d13b 8469 573c
00000060: 4062 25bc c4f9 d4ba 5195 833a 5dcc e73b
00000070: 74bb 763b 92fc ce3b 2632 5a3c 6d5e 9bba
00000080: ddd9 203c 6b50 6abc 565d ec3b 3870 7b3c
00000090: 77e6 87bc 77eb 463a 9522 803b b5a4 563b
000000a0: eaa1 8aba 4e25 ea3b 6192 db3a 4f47 8f3b
000000b0: 8fe6 8d3b 9a4a 5dbc 7409 543c 7c55 22ba
000000c0: 4516 61bb 0a44 c23a f928 bd3b 7b45 8d3c
000000d0: 3275 72bc 5c89 233c a7d0 b9ba edda adbb
000000e0: 28e3 99b9 6ab9 d23b 5e5b f23b 0177 113c
000000f0: 489a 773c 7d04 c1bb 7673 7ebc 8ebc 00bc
00000100: 3c28 863b f5a9 1cbb 2aeb 643c 9898 07bc
00000110: 28d3 9b3b 2b93 43ba 9b9c 6b3c 0285 273c
00000120: 10be 0abc bef9 d1b9 84f5 e93b 174d 28bc
00000130: ab6b 90b8 9214 35bc cc4f a2bb 78f2 63bc
00000140: 9ef5 c8bb 808b 81bc b5ea 97bb 8b05 833c
00000150: d572 bb39 9f56 84bb 91db 05bc ca5d 443c
00000160: 5668 02bc fb3c 9abb 4018 27bc 6295 bfbb
00000170: c0aa 8fbb 9d09 9f3b 4b42 f33b 08d8 363b
00000180: 16ed 113c 1821 dd3a 0318 133c 43df 7ebb
00000190: 7869 abbb 62a8 18bc c1bd b33b 9f42 62bb
000001a0: 40ab 0b3b 9ec2 96bc 4722 a73b 0300 b7bc
000001b0: 3936 983b 81a4 e23b 97b4 8c3b bf47 3ebc
000001c0: 763a 883b 94d8 ea3a 6131 70bc b321 b8bb
000001d0: 1084 5b3c f916 31bc 36f7 33bb 274f cb3b
000001e0: 9eb0 2d3a 4ad2 1eba 254f 443b 3c47 913b
000001f0: 6292 eabb d1b1 9bba 8a14 243b d560 923c
00000200: 3b29 a13a 443f c03b 6253 43bc b97c 44bc
00000210: 691d d3bc 7cfa 133c c0cf ba3c 6cd0 553b
00000220: 33f6 2d3c 46fb 013c 2bb4 443c 7277 0ebc
00000230: 0483 8cba 3879 67bb a905 4c3c acf5 163c
00000240: e50f ba3b f231 31bc a4fd 463b ac56 ac3c
00000250: 6f2c 11b8 dcc6 98bc 5d65 e6bb ceeb fcba
00000260: dba7 f6bc 5ce3 a4bc 8637 5d3a 4965 17bb
00000270: 20f3 59bc bcc5 17bd 8837 e83b 6418 b1bc
00000280: 872c 263c 28f6 febb 9663 e53c 25b9 083c
00000290: 932c ce3a 0a5e 2fbc ab6b 823a 9542 66bb
000002a0: d923 65bb 518e 303c e3a5 90bb 0190 fc39
000002b0: c4cb 85bb 05bf c0ba 64f8 0d3c 68e8 113c
000002c0: a9c4 5dbc 8478 a73c c062 513c 76d2 5e3c
000002d0: d651 3eba 4aed f3bb 2b0d 92bc fcbf a1bb
000002e0: 865b 4b3c 6614 febb 8c58 34bc 8dce 23bc
000002f0: 4370 c0bb 3dc9 903c cf48 7f3c e235 1dbc
00000300: 368f 0c3b 8d16 9b3c 940a cb3c 8f94 07bd
00000310: e0a9 a8bb 162e 3cbc 51f5 09ba 22f4 7cbc
00000320: b9ab 173d decd 113c c0e6 a53b a312 873c
00000330: 3519 20bc b04d 993c 8809 6bbb d54a 183c
00000340: 1eea b6ba 4d6b 433c a213 783b a344 eebc
00000350: 7f56 82bb 882b 04bc 32d8 333c 7c88 013b
00000360: 782f dabb 094d 8f3c 4115 64bc f1a5 403c
00000370: dbda 3bbc 21e5 273b 8c9b fd3b cff9 063c
00000380: 874c 4dbc ad8a b03a 8665 62bc 046c 24bb
00000390: d787 f7ba 4e41 90bc 1c12 b4bb 4438 ddbb
000003a0: 1222 913c 48a2 3d3b b150 803b f6da a53b
000003b0: ad92 9dbc 7479 05bc f3f1 58bc 4bc5 8a3b
000003c0: 9615 583c e686 0a3c 2809 a1bb b28d 58bc
000003d0: 2f9d e5ba 9c82 673b 3ec3 32bb 48a4 d63b
000003e0: f384 87bc 8298 44b9 0784 67bc e37a e63a
000003f0: f204 7a3a fa24 68bb 5cf9 c63b 6229 3fbc
0.0016476245 0.00180785 0.008529966 -0.00094446045 -0.00845594 -0.007938041 -0.022537459 -0.0075307526
0.0042899447 -0.010887208 -0.012560388 0.0077619436 0.0011180057 0.0067800474 0.020427153 0.010855628
-0.0015121971 0.006759786 0.022774743 0.018546095 0.007312535 0.008206124 0.006388998 0.0131477155
-0.010094225 -0.0016248752 0.0010039007 0.0070739225 0.0037648352 0.00631673 0.01331762 -0.0011853703
0.009817568 -0.0143014 0.007213275 0.015346579 -0.016589386 0.00075881876 0.0039103725 0.0032751982
-0.0010576819 0.0071455603 0.0016751998 0.0043725143 0.0043304632 -0.013506556 0.012941707 -0.0006192548
-0.003434555 0.0014821303 0.0057727066 0.017245045 -0.014798449 0.0099814795 -0.0014176563 -0.005305639
-0.0002935168 0.0064307945 0.0073961457 0.00887847 0.015112467 -0.0058904276 -0.015530458 -0.007857455
0.004094152 -0.0023905013 0.013972083 -0.008276127 0.0047553964 -0.00074605894 0.014380599 0.010224583
-0.008468166 -0.0004004966 0.0071398634 -0.010272286 -6.88651e-05 -0.011052268 -0.00495336 -0.0139127895
-0.0061327955 -0.01581359 -0.0046361336 0.015993854 0.00035752976 -0.0040386464 -0.0081700245 0.011985252
-0.007959446 -0.0047069765 -0.010198653 -0.0058466652 -0.0043843687 0.004853441 0.007423674 0.002789976
0.008906623 0.0016870825 0.008977893 -0.0038890399 -0.0052310787 -0.009317489 0.005485267 -0.0034524573
0.002131179 -0.018403348 0.0051005217 -0.022338873 0.0046451357 0.006916583 0.004293989 -0.011613785
0.0041573597 0.0017917329 -0.01466021 -0.0056192516 0.013398185 -0.0108087 -0.0027460582 0.006204504
0.0006625744 -0.0006058557 0.00299544 0.0044335406 -0.0071585635 -0.0011878555 0.0025036656 0.017868439
0.0012295613 0.005866917 -0.0119217355 -0.011992627 -0.02577086 0.009031888 0.022804141 0.003262545
0.0106177805 0.007933443 0.012005846 -0.00869547 -0.0010720198 -0.0035320055 0.012452521 0.009213846
0.0056781643 -0.010815131 0.0030363584 0.021037422 -3.4612076e-05 -0.018649511 -0.0070311264 -0.001929635
-0.030109337 -0.020127945 0.00084387546 -0.0023101142 -0.013302594 -0.03705381 0.007086698 -0.021618076
0.010142452 -0.007780809 0.028001588 0.008344923 0.0015729837 -0.010703573 0.00099503 -0.00351349
-0.0034963994 0.010776118 -0.0044143065 0.00048172477 -0.0040831286 -0.0014705366 0.008665178 0.008905508
-0.013535657 0.020443209 0.0127798915 0.0135999825 -0.00072601193 -0.0074440585 -0.017828545 -0.0049362164
0.012411958 -0.0077538965 -0.011007439 -0.009997976 -0.0058727576 0.017674083 0.015581324 -0.009595366
0.0021447665 0.018931651 0.024785317 -0.03310066 -0.005147204 -0.011485597 -0.000526269 -0.015439065
0.037029 0.00889918 0.005062908 0.016488379 -0.009771635 0.018713802 -0.0035863835 0.009295185
-0.001395527 0.011927438 0.00378535 -0.029085463 -0.0039775963 -0.008067019 0.010976838 0.001976519
-0.0066584907 0.017492788 -0.013921083 0.0117583135 -0.011465753 0.002561875 0.00773949 0.00823827
-0.012530453 0.0013469063 -0.01381815 -0.0025088796 -0.0018885088 -0.017609265 -0.005495323 -0.006751092
0.017716441 0.0028935838 0.003915869 0.0050615026 -0.01923498 -0.008146632 -0.013241279 0.004234945
0.01318874 0.008455014 -0.0049144216 -0.013217377 -0.0017518158 0.0035325652 -0.0027277018 0.0065503456
-0.016542887 -0.0001874883 -0.014130599 0.001758423 0.000953748 -0.003542243 0.0060722064 -0.011667581

action_model._discrete_distribution.branches.1.bias f4 [3]
00000000: 63fc dfbb 2492 1a3c 6c7e 65bb
-0.0068355068 0.009434257 -0.003501798

action_model._discrete_distribution.branches.1.weight f4 [3, 128]
00000000: 7999 3abc da5e 153c f924 b43b fd7b b93c
00000010: 7a59 97bb e6b1 2d3c 0243 e1ba 19ca d1ba
00000020: 6fc6 67bc d23e 5abc a22d 8d3c d441 123c
00000030: 39f6 05bb 2d47 86ba f5ce ac3c 9269 58bc
00000040: 7a7a 2d3c 957c a43b df21 6b3b f9b2 a23c
00000050: 6745 0f3b 1c27 4e3c 4c9e 9b3c db82 f13b
00000060: 5097 e73b 2b60 b13b ae4f 70bb 2705 06bc
00000070: 16e0 a2bb cc5d c93b 5aa1 91bc 645c 253b
00000080: df96 a5bb 6585 403c 976c 85bc 9c99 76bc
00000090: 02f1 07bb 6376 d13b 9880 cabb 9fd1 ef3b
000000a0: 5895 eabb fda8 48bc 0d03 f6bb 7f6b 9ebb
000000b0: 95de 443c 8736 27bb 398c 47bb 7640 433c
000000c0: c92d 5e3c 2120 5abc 37d7 e43b 0b35 683b
000000d0: d3a2 62bb 4011 7f3c 3ff2 113c a048 7fbc
000000e0: bbaa c039 065b d2bc 21c4 e83b 018c 283c
000000f0: 72bb 25bc e5d6 82bc 170d 65bc 41f1 783c
00000100: 5351 5f3c aeee 8bbc 4265 f6bc bbda 48bc
00000110: d199 da3c 0958 023c 71e6 86bb 7c0f f13b
00000120: 2234 05bc 9868 a23a f8cb 11bc 1310 bc3b
00000130: bcea 35bb d60d af3b 1791 02bc 4420 b03c
00000140: 9a6a 02bc 2db2 413b 2250 483b a77d 793c
00000150: 42fd 2abc 7eda bb3c 7c99 59bc 4a6e 143c
00000160: ec24 b23c 58c9 92bc 028c e43a d379 ef3a
00000170: 2f45 583b 2bf7 1f3c aa96 13bc 8429 93bc
00000180: bbe9 c6bb 7233 4e3c a609 e93b 6bf8 c139
00000190: 02fc 1f3a d46b 933c 09fe 54bb 2876 ccbb
000001a0: 09b0 2139 7a63 9c3b b243 133c 92e2 403c
000001b0: 4103 b23c c902 63bc e225 38bc eefd 6ebb
000001c0: c9d1 993b 046b 57bc b423 9cbc a214 4f3c
000001d0: 4a09 673b 924f 47bc 75ab acbc 635a 10bc
000001e0: 7d1e d1bb 49e9 6a3c bc0e a1ba 5ea8 74bc
000001f0: eaa4 293b d3fd d33c 1a1d 8abc c6ce e8bb
00000200: 45b9 39bb 0c66 18bb 0037 ce3b 0781 2ebc
00000210: 9861 4fbb 303b a43a bb69 cdbb 0dfc 233b
00000220: 238f 943c 9b96 a63c 8a25 0b3c 7eeb 3e3b
00000230: 1813 da3c 6f23 143c 699d 9939 8216 913c
00000240: d0c4 32bc b73b a5bc 364a 24bc 9766 a4bb
00000250: 807b 15bc ebb9 a5bc 6367 29bc 6657 c6bc
00000260: 7489 5abc 6b9b 17bc 7dd5 48bc 4028 fabb
00000270: e7ec 363c eb97 45bc 987b abbb 0e94 02b9
00000280: 0f5a 353b 2880 86bc d964 9e3c ce0d bc3c
00000290: 64d8 2b3c d0e3 cb3b 2ab8 15bb b0a6 cdbc
000002a0: de44 94bb 5e73 003d e6cd 18bc 5a11 ca3c
000002b0: 7473 6cbb a4df 83bc d4f9 153c df1c 35bc
000002c0: 072e 9539 2417 353c cabf 723c 63a6 4eba
000002d0: ebed aebb dc0c 51bc 03d4 4c39 3cb5 e33c
000002e0: cf78 413c a2e3 9c3c 9dfd 7ebc 11c1 3c3c
000002f0: adb1 bd3c 271c 043d 267a 563c 4e9b 03bc
00000300: d31c 373b ec4f a03b 2380 bf3c 2469 53bc
00000310: e8a2 cbbc 53cc e0bb 023d 54bb fdaf aabc
00000320: e80d b03b 0b26 243c 9774 9eba 457b 65bc
00000330: 6344 d3bb b632 323c aece 85bc f30c 883c
00000340: b329 56bc b081 863c 5703 40ba 1728 bb3a
00000350: c8c6 653c 841b 64bb b627 023c 511e 823b
00000360: fe67 80bc ba35 4d3c c643 abbc 0c30 43bc
00000370: 7152 2cbc 33a7 1fbb f46f eb3c c17b 193c
00000380: ea0c bdbc 7d2a a2bc 78e8 d7bb e879 7e3c
00000390: 7b2c 3d3b 01e3 34bc 848e 83bc 0845 80ba
000003a0: 01e8 e5bc 28e6 02bc 08ac 343b 1043 0ebc
000003b0: fdeb 9ebb 26d5 6f3b 799a a43c fd44 493b
000003c0: 82b3 3ebc d657 533c d610 8238 9caf e3bb
000003d0: 942a 9abc 2291 96ba e1a8 dcb9 5ea9 0b3c
000003e0: e8b8 92bc dab2 b1bc ce31 ecbb 7b60 933c
000003f0: 90b4 0fbc 53ff a5ba dd8e f33c c177 f43b
-0.01138913 0.009116853 0.0054975715 0.02264213 -0.0046188207 0.010601496 -0.0017186108 -0.0016005664
-0.014146431 -0.013320642 0.017233673 0.008926827 -0.002044095 -0.0010244601 0.021094779 -0.013208764
0.010588283 0.005019734 0.0035878343 0.019860731 0.0021861435 0.012582567 0.01899638 0.0073703355
0.0070675984 0.0054130754 -0.0036668587 -0.008179939 -0.004970561 0.0061452147 -0.017777134 0.002523207
-0.0050533856 0.011750554 -0.016287131 -0.015051272 -0.0020743017 0.0063922866 -0.0061798804 0.00731869
-0.0071589164 -0.012247321 -0.007507688 -0.004834592 0.012015958 -0.0025514679 -0.003044857 0.011917224
0.013560721 -0.013313324 0.0069836634 0.0035432007 -0.0034581914 0.015568078 0.008907854 -0.01558128
0.00036748298 -0.025678169 0.0071034585 0.010287286 -0.010115491 -0.01597161 -0.013980172 0.015194238
0.013630229 -0.017081585 -0.03007758 -0.012259181 0.026684674 0.0079555595 -0.004116826 0.007356582
-0.008130105 0.001239079 -0.008898728 0.005739221 -0.002775832 0.0053422255 -0.007969162 0.02149976
-0.007959986 0.0029555664 0.003056534 0.015227712 -0.010436358 0.022931334 -0.013281222 0.009059498
0.021746121 -0.017918274 0.0017436745 0.0018270559 0.003300022 0.009763519 -0.009008089 -0.017964132
-0.0060703433 0.012585508 0.007111746 0.00036996914 0.0006102921 0.017995752 -0.003250005 -0.0062396713
0.00015419735 0.0047726007 0.008988308 0.011772769 0.021730067 -0.0138556445 -0.011239501 -0.0036467272
0.004694198 -0.013148073 -0.019059993 0.012639197 0.003525334 -0.012164967 -0.02107785 -0.008810612
-0.0063818083 0.014337846 -0.0012287716 -0.01493272 0.002588565 0.025877869 -0.01685958 -0.0071047274
-0.002833919 -0.0023254184 0.0062931776 -0.01065088 -0.0031643864 0.0012529846 -0.0062687076 0.002502206
0.01813466 0.020335486 0.008492837 0.0029132064 0.026620433 0.009041651 0.00029299714 0.017710928
-0.010911182 -0.020170076 -0.010027459 -0.0050171125 -0.009123683 -0.020230254 -0.010339591 -0.024211597
-0.013338435 -0.009253363 -0.012257931 -0.0076341927 0.01116488 -0.012060146 -0.0052332394 -0.00012452921
0.0027672087 -0.016418532 0.019335197 0.022955801 0.010488603 0.0062222257 -0.0022845366 -0.025103897
-0.004524811 0.031360023 -0.009326434 0.024666477 -0.0036079558 -0.016097851 0.009153802 -0.011054247
0.00028453788 0.01105288 0.014816234 -0.000788307 -0.0053384206 -0.012759414 0.00019533937 0.02779638
0.011808588 0.019151513 -0.015563396 0.01152064 0.023156011 0.03225341 0.013090646 -0.008032633
0.0027940765 0.00489234 0.02337653 -0.012903485 -0.024857953 -0.006860295 -0.0032384996 -0.02083587
0.0053727515 0.010018836 -0.001208919 -0.0140064405 -0.0064473613 0.010876348 -0.016333904 0.016607737
-0.013071465 0.016419262 -0.00073247164 0.0014278915 0.014024444 -0.003480644 0.007944038 0.003970899
-0.015674587 0.012525016 -0.02090634 -0.011913311 -0.010517702 -0.0024361133 0.028739907 0.009367884
-0.023077447 -0.01979565 -0.0065889917 0.015531994 0.0028865624 -0.01104045 -0.016059168 -0.0009786198
-0.02806473 -0.007989444 0.002756836 -0.008682981 -0.0048499093 0.0036595552 0.02009319 0.0030711286
-0.011639478 0.01289936 6.202019e-05 -0.0069484245 -0.018819131 -0.0011487345 -0.00042087495 0.008524267
-0.017910436 -0.021691728 -0.0072080856 0.017990341 -0.008771077 -0.0012664594 0.029731208 0.007460565

discrete_action_output_shape f4 [1, 2]
00000000: 0000 4040 0000 4040
3.0 3.0

network_body._body_endoder.seq_layers.0.bias f4 [128]
00000000: 486d 543c 83a2 ae3b 4f42 503b 83f4 1dbb
00000010: 004a 03bc 8678 4bbb e6b9 15bb 3b91 e4bb
00000020: c816 c33b eefa 213c 8884 943b bf47 32bc
00000030: 93ce 5fbc ac63 b3ba 3ffd a43b 7b6b dbbb
00000040: 2cf6 8a3c 365d c2bb bb30 e1bb d412 14bc
00000050: f0f2 e13b dfc3 d3bb 4232 15ba 5246 d53a
00000060: 2e7a 5b3b 85f5 553b 146f afb9 7ea2 bf3a
00000070: 43df 913b 94eb e23b cc42 893b 6567 9e3a
00000080: 4f34 5abb 10fc 413c 045a 79bc fa3a c2b8
00000090: 6d75 eb3b 751b 77ba d68e cfbb 18e6 a83b
000000a0: 1099 94bb 4dbd 3bbc 44d8 cd3b 53f6 cabb
000000b0: 9eae f43b 0d18 49bc 6303 d33b cd73 89bb
000000c0: 4adc 813b 7296 353c 55c2 8dba 9f59 d0bb
000000d0: 49ce 8a3c 4c5f bcba eae7 5539 d5a8 f93b
000000e0: a3ba 803b 7cd6 20bc 19a1 e2bb d740 c7bb
000000f0: fbef 643b 7fd1 0d3a d63c aebb c1e3 b0bb
00000100: 6650 4f3b 2271 1b3c f18d 933b 549a 453c
00000110: 9399 683c ac80 67ba 25c2 99bc 7838 8cbc
00000120: 2de2 a63b b3c3 ef3b 7f45 d73a d1c8 99bc
00000130: ddee 623c 4eb6 07bc 8a30 403b 58cd de3b
00000140: 90d6 3bbc ba87 f2b9 2a35 05bb 628f 28bb
00000150: cb88 ff39 f667 bdbb 3ae4 c63b 1eed 80bc
00000160: ed4f e4ba c860 6bbb 619f d5ba 68fc e2ba
00000170: c27f 53bc ad4c c0bc a215 9cbb 6620 a33c
00000180: e007 073b 064e 07b8 2e05 e5bb 4602 6c3c
00000190: 3b07 d63b 1566 02bc 290f a6bb bd90 60bb
000001a0: 1bf2 1cbc f942 163c 1001 df3b 0903 4b3c
000001b0: ed47 d73c 6e0f 3d3c eb2a d43b 9d79 32bc
000001c0: 5d2f 573b a31f d1bb a5d5 e03c 4090 be3a
000001d0: 86fe 59ba f4d0 f53b 2fe3 03bc 95c4 3d3b
000001e0: 26ec 763b 4909 4fba 260d ac3a 32a3 09bb
000001f0: 7d90 cf3c 5cd9 603c 1401 003c cd83 3bbc
0.012965508 0.0053294315 0.0031777804 -0.002410204 -0.008013248 -0.003104718 -0.00228464 -0.0069753206
0.0059536435 0.009886486 0.0045324005 -0.010881363 -0.013660091 -0.0013686321 0.005035072 -0.0066961623
0.016963087 -0.0059315218 -0.006872264 -0.009037692 0.0068954155 -0.0064625586 -0.0005691388 0.0016271567
0.0033489573 0.0032647562 -0.0003346136 0.001462057 0.0044516637 0.0069250558 0.004188871 0.0012085257
-0.0033295339 0.011839882 -0.015219215 -9.261626e-05 0.007185629 -0.00094263937 -0.006334166 0.0051543824
-0.004534848 -0.011458707 0.0062818844 -0.006193915 0.007467105 -0.012273801 0.0064396127 -0.0041947127
0.003963028 0.011083232 -0.0010815362 -0.00635834 0.016944068 -0.0014371662 0.00020399658 0.0076190033
0.003928499 -0.009816762 -0.006916177 -0.0060807276 0.0034933079 0.00054099405 -0.005317311 -0.005398244
0.0031633615 0.009487422 0.0045030047 0.0120607205 0.014196771 -0.0008831124 -0.018769333 -0.01711677
0.00509288 0.0073170303 0.001642391 -0.018772515 0.013850895 -0.008283211 0.0029325807 0.006799381
-0.01146473 -0.0004625896 -0.0020325878 -0.0025720228 0.0004873931 -0.0057802154 0.006069687 -0.015738066
-0.0017418839 -0.003591584 -0.0016298109 -0.0017317655 -0.012908878 -0.023474062 -0.004763321 0.01991291
0.002060406 -3.2259173e-05 -0.006989143 0.014404839 0.0065316237 -0.007958909 -0.005067725 -0.0034265958
-0.009579207 0.009171241 0.0068055466 0.01239086 0.026279414 0.011539323 0.006474843 -0.010893253
0.0032834627 -0.006381945 0.027445624 0.001453884 -0.000831582 0.007501716 -0.00804977 0.0028956283
0.0037677377 -0.0007897807 0.0013126477 -0.0021001813 0.025337452 0.0137236975 0.007812757 -0.011444998

network_body._body_endoder.seq_layers.0.weight f4 [128, 192]
00000000: f190 fb3d ecbe 28bd 0f7b a3bd b72b 71bd
00000010: b832 183d ce49 70bd 09d4 7dbd 52ef 9d3c
00000020: 6192 d2bd eae2 53bb 58bf 7e3b df03 22bd
00000030: 29c9 863c 1d81 803b 4ad0 fe3d e84f 06bd
00000040: 9d9b ab3c 36c6 7fbd 3239 dabd 6d4c 3dbc
00000050: c4c6 893d d275 9abd 8bd5 883d b6e6 25bd
00000060: 5ad6 1f3e 5dd3 913d a55a e43c b042 583d
00000070: 702d 5a3d 3444 60bb e9cb 123d 7930 7abd
00000080: b4a2 50bc 120c 543d a686 9fbd 8b73 2cbd
00000090: 4db2 b53c d979 073c 07fd 47bd eb4c e5bd
000000a0: 8fdf 16be e4d7 8bbc c93c a9bc 869a 853d
000000b0: 1787 043d 6443 09bd 2a41 aa3c f39c 0fbc
000000c0: ca05 b2bd c4cd fb3d 8dec 1fbd 0bb8 183e
000000d0: 834d 4cbd baf3 b23a aafd 6dbd a056 af3b
000000e0: 113a a5bd 001c 33bb 75d4 0e3e 06f7 61bd
000000f0: 37aa 0dbd d251 38bd bfaf b03b ff5f b73d
00000100: 7088 7ebd 8b5a 86bd 8f60 9e3d 7328 c2bd
00000110: 3c03 97b9 0c66 613d dc74 ee3c db5a 24bd
00000120: 5b3a acbd 3e01 ae3c 649b bcbc c9e3 9fbd
00000130: c6cc cc3d be1e 503d 26c8 273e c67f e9bb
00000140: 2aea 213d 3c7e ea3c e71d 5cbd deeb df3d
00000150: 6970 3bbd cd50 42b9 3c93 95bd 2406 a0bc
00000160: 08db c43d 672c 5f3d 5652 5bbd 0121 47bc
00000170: b709 373c b8cf 3b3d 3cd6 c3bb b27a 383c
00000180: 4d24 5a3d 484d a63d 5727 8fb8 44f8 3fbc
00000190: 3133 863c a358 aebd 61f1 723d dc4c 3dbc
000001a0: 8fbe 4bbe ddf6 8dbc 5bfa 9a3c 44c2 363b
000001b0: 5af7 8a3d 6746 3a3d 0184 d73d 8ccb 8a3b
000001c0: ca71 4b3e 7709 89bc 81b0 763d eac4 e8bd
000001d0: 9c0d 7cbd dbcd 0a3e 75b5 49bd e595 133d
000001e0: f3fe 9f3d 8764 c4bd 1baf 0cbd 0373 e23d
000001f0: d4fc 223d 92cd 693b b0d8 36bd 3217 08be
00000200: 4d57 f73c aad3 8ebb 0c80 0a3e 76ec a63d
00000210: e14b 1bbd be5f 0f3e 3fc5 e03c bfa8 b7bc
00000220: cdd5 283d 0918 eebb b821 4b3d 9366 cc3c
00000230: 93e3 d13d 188e 97bd 0b08 f0bc 7af4 1a3d
00000240: 3d8c 253d b2e3 86bc 2fcd e03d 67ca 283d
00000250: df20 5e3c 42b5 28bd 2965 8a3d 0f3f 413c
00000260: 5358 1b3c 4cd4 3abc e16d ea3c 3761 13ba
00000270: df30 893d 6343 803d 78ac 85bd 75e1 bdbd
00000280: 056a 0c3e c9b1 a33d cadd b23d 986e 01bd
00000290: 2f9d 1e3d 6001 c0bd 55ff 29bc 0040 023c
000002a0: 1592 26be f281 d83d d0bf b2bb cc63 e73d
000002b0: ec28 093d 6ff7 7bbd 45fc ac3d 47e9 b93d
000002c0: 0450 ab3c 87a0 013d f67e 80bc 8a31 c7bd
000002d0: a487 27bd bbf4 42bc b490 9b3d 7985 533e
000002e0: b27b 063e cbdb 403c abae a0bc a2c2 b6bd
000002f0: d129 aebc 6e3f 753e bb61 a03d da95 b53b
00000300: 35ed 8ebb f68b b53c 2924 293d 3ec4 31bd
00000310: 0560 f13d 278b c9bd a15b 773c 9cca d4bc
00000320: 55d1 333d aa17 05be ab53 223e 3e22 b9bd
00000330: 9be5 85bd 7d5f 0ebe 78a5 f53d 783c 0a3c
00000340: e3c4 243d cffc 063d b67f 483d 34f6 063d
00000350: 9057 b0bd 388e 8e3b 0231 b03d 877c 14bd
00000360: abb8 30be 6a58 8b3d ede9 e13d 4582 c93b
00000370: 15ad e1bc 0bbf 953b 9bb8 a33c 3bc1 3fbe
00000380: e96b d2bc 376c 22be 9964 17bd a07b 51bd
00000390: 3310 2c3d 0640 8c3c 3f2b 313b 1d2a 6e3d
000003a0: a386 97bd 0a58 793d 800d 9abd 1530 c73d
000003b0: 777c 693d b945 b2bc 6937 eb3d e110 bdbd
000003c0: 6dd5 b33d 5086 da3c 73ed 7b3c a3a0 10bd
000003d0: 8613 45ba 6525 e03d 13c2 d43d b59d 2fbe
000003e0: f3e9 293c e2ea 373d c592 753b c385 9a3c
000003f0: 4a19 a23b 7a38 a03d 6561 2c3d 60a7 46bc
0.12283505 -0.041197702 -0.07982456 -0.05887958 0.037157744 -0.058664136 -0.06196979 0.019279156
-0.10281826 -0.0032331296 0.0038871374 -0.039554473 0.016453343 0.0039216415 0.12442072 -0.03279105
0.020948226 -0.062444888 -0.106554404 -0.011553866 0.06727365 -0.07542004 0.06681355 -0.040503226
0.15609112 0.071203925 0.027875254 0.052797973 0.05326599 -0.003422034 0.035838995 -0.061081383
-0.012734104 0.051769324 -0.07789354 -0.042102378 0.022179747 0.008268797 -0.04882529 -0.111963116
-0.14733718 -0.017070718 -0.020658867 0.06523614 0.032355394 -0.033511534 0.020783026 -0.008765447
-0.086925104 0.12295106 -0.03904395 0.14913957 -0.04987861 0.0013652958 -0.05810324 0.0053509027
-0.08067716 -0.0027329922 0.13948233 -0.05516722 -0.034586158 -0.044999905 0.0053920443 0.08953857
-0.062141836 -0.065602385 0.07733261 -0.09480371 -0.00028803374 0.05502896 0.029108457 -0.04012571
-0.08409568 0.021240827 -0.023023315 -0.078071184 0.09999995 0.050810568 0.16384944 -0.0071258275
0.039529957 0.028624646 -0.053739455 0.1093366 -0.0457615 -0.00018531382 -0.07303473 -0.019534178
0.096120894 0.054485705 -0.05354532 -0.012153865 0.01117175 0.045852393 -0.0059764665 0.011259722
0.053257275 0.08120209 -6.826099e-05 -0.011716906 0.016381832 -0.08513 0.059312228 -0.011553969
-0.19896911 -0.017329628 0.018918207 0.0027886787 0.0678546 0.045477297 0.105232246 0.0042356905
0.19867626 -0.016728146 0.06022692 -0.113656834 -0.061536416 0.1355509 -0.049245317 0.036031622
0.078122996 -0.095894866 -0.03434668 0.11057093 0.039791897 0.0035675508 -0.044640243 -0.13290098
0.030192995 -0.0043587284 0.13525409 0.0815057 -0.03791416 0.14001366 0.027437804 -0.022419332
0.04121952 -0.007266049 0.049592704 0.024951255 0.102484845 -0.07400149 -0.02930071 0.037830807
0.040416945 -0.016465995 0.10976636 0.04120865 0.013557642 -0.041188486 0.06757576 0.0117948195
0.009481507 -0.011403155 0.028616847 -0.0005622091 0.066987745 0.06262853 -0.065270364 -0.09271518
0.13712318 0.07992894 0.08733709 -0.03159961 0.03872412 -0.09375262 -0.010375817 0.007949829
-0.16266663 0.1057166 -0.0054549947 0.112983316 0.03348629 -0.061515268 0.08446554 0.09077697
0.020912178 0.03164723 -0.01568554 -0.09726246 -0.04090084 -0.011899169 0.07595959 0.20656385
0.13133124 0.011771153 -0.019614538 -0.08923842 -0.021260174 0.23949978 0.078311406 0.0055415453
-0.0043617734 0.022161465 0.04129425 -0.04340004 0.117858924 -0.09840994 0.01509753 -0.025975518
0.043900806 -0.12997308 0.1585223 -0.09039734 -0.065379344 -0.13903613 0.11994451 0.008437268
0.04022683 0.03295594 0.04894992 0.03294964 -0.08610451 0.00435045 0.086030975 -0.03625157
-0.17257945 0.06803973 0.11030946 0.0061495625 -0.027548352 0.0045698932 0.019985488 -0.18726055
-0.025686221 -0.15861593 -0.03696117 -0.05114329 0.042007636 0.017120373 0.0027033833 0.05814563
-0.07398727 0.060874976 -0.07522106 0.09725968 0.057003465 -0.021761762 0.11485178 -0.09231735
0.08780942 0.026675373 0.0153764365 -0.035309445 -0.0007517863 0.109446324 0.10388579 -0.17150004
0.010370719 0.044901736 0.0037471515 0.01886261 0.0049468623 0.07823272 0.04208507 -0.012124866

network_body._body_endoder.seq_layers.2.bias f4 [128]
00000000: 1f96 a33c 8123 1f3c d457 ae3b 96e3 ecba
00000010: 1fa9 023c 9419 c53b f736 ff3b 4247 afba
00000020: dd36 0b3c 813e fb3b 4c68 533c 48e8 0abc
00000030: a18c d23b 9b73 3ebb f028 29ba 290f ad3b
00000040: e4a4 26bb 2751 c4b9 52c5 463b daef 23bc
00000050: 92af 1e3c d7e8 833b 160c 01bc 7611 0ebb
00000060: f02d 443c e5fc 043c aee3 08bc 654f 1abc
00000070: 594f f739 fa66 603c b196 383b ec13 debb
00000080: 95b9 11bc 299a 7c3c 0419 df3b d1e2 043c
00000090: 5c2e 6a3c 603c 4c3a 8c24 1abc 26ce 2f39
000000a0: 6533 03b9 2f22 2e3c 5a69 93bb 5a57 713b
000000b0: 71d8 b8bb ec54 883c bc42 e138 96e4 9f3c
000000c0: 4864 66bb fe84 823b 2526 2bb7 04de 14bc
000000d0: 4a1f 22ba f404 ef3b ffcb a23a dca9 bc3b
000000e0: a2e6 863a 956d fc3b 0571 a9bb 77c8 04ba
000000f0: 95e6 923b 2195 073c eb42 bb3b 19b7 713c
00000100: edb8 a838 a444 d73b 93b3 063c b43c fa39
00000110: f985 ebba c38a dd3b cd5b edbb 076b a43b
00000120: a4c8 dd3b 79e0 9e38 0a11 7fbb e86a 98ba
00000130: 7229 a2bb f33e f83a 89f7 2a3c 6221 913b
00000140: 596e 15bc e9a6 ce3b 23a5 483c c1f4 353c
00000150: 3bf8 d039 c9b7 abbb 4871 6139 ec9a 9139
00000160: 4fd7 d9ba e4ff 113c e805 8a3a 9321 f7b9
00000170: c9ed 8b3c f032 1bbc 99c3 633c 6ad6 c33b
00000180: 196b 963b 004b 8fba dc16 6d3c 23ec e439
00000190: e251 9638 1198 343c 72a6 fe3a f7f8 db39
000001a0: 0c90 07bb 2945 e33b 40e0 1cbc 8a27 933c
000001b0: cc23 643c c8ea eeba 5c7e 773b 6ee7 8cbb
000001c0: 6915 d6bb efc4 dc3b 0eee ca3a 270a 6d3b
000001d0: ee8e 84b9 7d24 57bb ada2 89ba 10f3 173b
000001e0: 4333 d3bb 14d8 ad3b 84fb e33b a98e 853b
000001f0: 771d 963b 5ab7 d63b 006e 0a3c 5ed5 6cbb
0.019969044 0.009713055 0.0053205285 -0.0018073197 0.007974892 0.006015012 0.0077885347 -0.0013372677
0.008496967 0.007667363 0.012903284 -0.008478232 0.0064254557 -0.0029060605 -0.00064529385 0.0052813482
-0.0025427872 -0.00037444496 0.0030330014 -0.010005916 0.009685414 0.0040255594 -0.007876417 -0.0021677888
0.011973843 0.008116935 -0.008355064 -0.009418343 0.0004717063 0.0136964265 0.002816599 -0.006777277
-0.008894344 0.015417614 0.006808402 0.008110718 0.0142932795 0.0007790979 -0.0094081275 0.00016766097
-0.0001251228 0.010628267 -0.004498643 0.0036825747 -0.005641036 0.016642056 0.00010741266 0.019518178
-0.0035154987 0.003983139 -1.02012755e-05 -0.009086136 -0.0006184472 0.0072942916 0.0012420415 0.0057575535
0.0010292123 0.007703493 -0.0051709437 -0.0005065272 0.004483054 0.008275301 0.0057147644 0.014753127
8.0453094e-05 0.006569462 0.008221525 0.00047728943 -0.0017969004 0.0067609265 -0.0072436095 0.0050176415
0.006768303 7.5758384e-05 -0.0038920068 -0.001162854 -0.0049487883 0.0018939659 0.010434994 0.0044290284
-0.009120547 0.0063065183 0.012246403 0.011105717 0.00039857798 -0.0052404148 0.00021499873 0.0002777198
-0.0016619953 0.008911107 0.0010530325 -0.00047136526 0.017081158 -0.009472594 0.013901615 0.005976488
0.0045904038 -0.0010932386 0.014470782 0.00043663484 7.167809e-05 0.011022584 0.0019428267 0.00041956428
-0.0020685224 0.006935735 -0.00957495 0.01796319 0.01392455 -0.0018227929 0.0037764525 -0.0043000495
-0.006533314 0.0067373435 0.0015482323 0.0036169381 -0.00025283493 -0.0032828145 -0.0010500752 0.0023185648
-0.00644532 0.0053052995 0.0069574732 0.0040758443 0.004581149 0.006552619 0.008449078 -0.003613792

network_body._body_endoder.seq_layers.2.weight f4 [128, 128]
00000000: c887 663c bed9 b53d 10df 6abd cc9c cdbc
00000010: e778 86bd 83b2 9f3d fe57 b03e db70 d0bc
00000020: 745d 95ba 075a 60bd 0e75 a1bc 7bc9 bbbd
00000030: 9a11 77bd 234c a23d 42a6 383d 337c 6dbc
00000040: f50b 52bd b20e 31bc 2c9b 4abd 631c db3d
00000050: 12ab 99bb 8161 563c c455 953d 9b09 e93c
00000060: 6492 3abc c711 1e3e 429b 9c3d c3e5 8cbd
00000070: 1824 c93c 193f 1cbe 97bd b2bd dc88 073e
00000080: 9f18 a03c 47cc babd 8edb af3c 8c6f 06be
00000090: b26e 8bbd cc1f e4bd 5f00 283e 6cb0 213d
000000a0: 9813 5a3e 9515 4b3d 9384 f9bc 93c3 3fbd
000000b0: 4828 dabd 71c8 e83c 3137 b53d d012 0e3e
000000c0: 0192 193e c1b9 a3bd 7029 3d3d 96ce dfbc
000000d0: 9052 113e 1aea f73c 2cc5 0a3e 0793 013d
000000e0: b838 683d 8ba3 4abe 8e62 393c d596 033b
000000f0: 726a 83bb be3d 493c 0595 7b3c ce23 66bd
00000100: 7a53 9d3a ac02 b9ba 5f24 333e 749d 733d
00000110: d3a5 adbd 35da 9e3a f380 4c3d f515 00be
00000120: 48f8 053e 02a9 29bd 64aa 24bd 29ec 02be
00000130: 141a 063d b08a 8fbd 3eb3 6e3c 7381 a63c
00000140: 3f55 a03d b193 2e3e 600c ecbd 1244 2db9
00000150: ee0a eb3c bdeb 89bd 9a2f f2bb d195 45bc
00000160: e45b c1bc 6b18 d7bb 06db 173d 699c 87bd
00000170: dbdd d13c 0820 42bd 7519 c53c 6931 38bd
00000180: f504 f33d a64f a13d 9245 473c 9957 9dbd
00000190: 1ab7 82bc 3ba9 73be eeae 1b3e ce22 8d3d
000001a0: 1c16 17be 8089 1f3d 278f 8e3d 5274 21bd
000001b0: 62d4 08be ec4e 04ba 9862 ddbd 4c4d 96bc
000001c0: f599 c13b 5002 10bd 9c3a 0bbe dc12 2f3d
000001d0: f4ae 393d 4ec8 5ebc 8a34 b0bc 9e4f c43c
000001e0: 3fc9 1e3c 8198 5dbd 3b80 c83c dd13 133d
000001f0: cae6 aa3c d844 a73d 9697 f5bc 95f5 3e3b
00000200: ed7d 39be f853 813d 167b 0bbe c79a b6bb
00000210: 651e 84bd e0e8 233e d6b0 093e 98a4 fc3d
00000220: 2510 4f3c 46a1 a23c 340a 9a3d 1acb 3cbe
00000230: bc78 72bc 6015 123e 105c 383d 7bc8 47bd
00000240: 07b0 6bbc 90e4 523d ac1b 06bd 5cdb 16bd
00000250: bfdf a73d 8d07 c0bd 93f4 ddbd da35 47bd
00000260: c717 abbc fb61 363d 71a7 b7bd f1e3 6fbe
00000270: 6feb 47bd 8bf4 6fbc 4ee4 f4bd d870 2dbc
00000280: 9922 1f3d 8482 30bc 7b73 a83d c269 dabc
00000290: d15b fd3d 82a5 b1bd e840 553c bc7d e43d
000002a0: 5ac9 003d e9ad fbbd b1b7 cf3d 14af 53bc
000002b0: ccbf 22be c9f6 913d 3c2b 14be 87ca f53c
000002c0: d310 e63b 3ac6 e1bb 86bb 2b3e 4003 4cbb
000002d0: 7602 a33c 84ee 4cbd 9098 c4bd 1ed4 e7bc
000002e0: 53d9 8fbd de6f f6bc 8802 20be faba 2ebd
000002f0: de9a a83c 12ed f93b 9245 a3bd 0d7f bd3c
00000300: b1e0 d63d 711d 20be b1dc 61bd 8b65 02bc
00000310: d1e5 0fbb 0725 d4bc b074 343e 0108 8d3d
00000320: b105 c738 f527 03be 2b22 22be ceff 4cbe
00000330: 0424 fb3b fbd7 73bd 3d7d 39bd 167b 403d
00000340: 8ac4 f93d a107 e13d 25cd e4bd b902 c93d
00000350: 11ec 333c 7c04 c6bd 5e49 b1bd cb9e 9cbd
00000360: a665 573d 11ee 253d d742 833d edd0 51bc
00000370: 7d9f 113e 0e94 713e 3906 66be 8728 09bd
00000380: fdef 0d3e ebe8 5dbd d587 b0bd c914 49be
00000390: a71a bb3d 3d4f 0abe cf3a 9f3a d325 e33d
000003a0: 9020 cd3d c9c4 ba3d 5a01 fbbd 2c1d 00bd
000003b0: 83d2 543d 712f f4bd b350 cebc bd9d db3c
000003c0: 83db 393d ac04 c5bd 8d7d 31be 14e6 5f3d
000003d0: 1e51 bebd c018 e5bd 6947 8f3d 017e b0bd
000003e0: f829 4bbc 38a7 793d 3b17 113c e298 5c3d
000003f0: 5088 e93b 742d 85bc dd7f 3c3d 327c c03d
0.014070459 0.08879422 -0.057341635 -0.02509918 -0.06566029 0.0779772 0.34442133 -0.025444439
-0.0011395649 -0.054773357 -0.019709136 -0.09169289 -0.06031952 0.07924678 0.04508043 -0.014494943
-0.051280934 -0.010806726 -0.04946439 0.10698774 -0.0046895826 0.01308477 0.07291749 0.028446963
-0.011387441 0.15436469 0.076468006 -0.06879761 0.024553344 -0.15258445 -0.08727568 0.13235801
0.01954299 -0.09120994 0.021466997 -0.1312849 -0.06808223 -0.11138877 0.16406392 0.03947489
0.21296537 0.04958113 -0.030458724 -0.046817373 -0.10652214 0.02841589 0.088484176 0.13874364
0.14997102 -0.07994414 0.046182096 -0.027320188 0.14191651 0.030262996 0.13551778 0.031634357
0.056694716 -0.19788949 0.011315001 0.0020078917 -0.004010492 0.012282787 0.015355353 -0.05618649
0.0012003027 -0.0014115176 0.17494343 0.05947633 -0.08478894 0.0012119474 0.049927663 -0.12508376
0.13082993 -0.041420944 -0.04020156 -0.127854 0.032739714 -0.070088744 0.014569102 0.020325398
0.078287594 0.17048527 -0.11525798 -0.00016523924 0.028691735 -0.06734417 -0.0073909285 -0.012059645
-0.023603387 -0.00656419 0.03707411 -0.0662163 0.025618484 -0.04739383 0.02405999 -0.044968996
0.1186618 0.0787652 0.012162583 -0.076827236 -0.01595645 -0.23795025 0.15203449 0.06891404
-0.14754528 0.03894949 0.06960898 -0.039417572 -0.13362268 -0.00050471607 -0.10809821 -0.018347405
0.0059082457 -0.035158455 -0.13596576 0.042742595 0.045332864 -0.013597561 -0.021509428 0.023963746
0.0096915355 -0.054100517 0.024475208 0.035907615 0.020862002 0.08167428 -0.029979508 0.0029138078
-0.18114443 0.06314844 -0.13621172 -0.00557265 -0.0645111 0.16006804 0.13446364 0.12336081
0.0126381265 0.019852292 0.07521477 -0.18436852 -0.014799293 0.14265966 0.045009673 -0.048775177
-0.01438523 0.051487505 -0.032741234 -0.03683029 0.08196973 -0.0937644 -0.108376645 -0.04863534
-0.020885361 0.044527035 -0.08967484 -0.23426796 -0.04880851 -0.014645706 -0.11957608 -0.010585986
0.038851354 -0.010773305 0.08225151 -0.026661757 0.12371028 -0.08674146 0.013015963 0.111567944
0.031442024 -0.1228903 0.10142458 -0.01292016 -0.15893477 0.07127149 -0.14469618 0.0300038
0.0070210486 -0.0068900855 0.16770753 -0.0031129867 0.019898634 -0.050032154 -0.095994115 -0.028299388
-0.07023873 -0.03008264 -0.15625966 -0.042658783 0.020581659 0.007627138 -0.07972254 0.023131872
0.10492075 -0.15636231 -0.05514211 -0.00795878 -0.002195705 -0.025896562 0.17622638 0.06886292
9.4901196e-05 -0.12808211 -0.15833347 -0.20019457 0.0076642055 -0.059532147 -0.045285452 0.046992384
0.1219569 0.10987783 -0.11171941 0.098149724 0.010981576 -0.09668824 -0.08656572 -0.07647475
0.052587174 0.04051024 0.06409233 -0.012806159 0.14220996 0.23591635 -0.22463311 -0.033485916
0.1386108 -0.054177206 -0.08619658 -0.19636835 0.09135943 -0.1350679 0.0012148264 0.11091199
0.100159764 0.09119565 -0.12256117 -0.03127782 0.051958572 -0.11923111 -0.025184965 0.026808614
0.04537536 -0.09620032 -0.1733305 0.05466278 -0.092928156 -0.11186361 0.06996042 -0.08617783
-0.012400143 0.060950488 0.008855636 0.053856738 0.0071268454 -0.016257025 0.046020377 0.093986884
