Assets/NN/CharacterBehav-3499985.onnx (onnx, 268569 bytes, 9 tensors)

action_model._discrete_distribution.branches.0.bias f4 [3]
00000000: b039 ca3f cb20 c8bf c6d5 87c0
1.5798855 -1.5635008 -4.2448454

action_model._discrete_distribution.branches.0.weight f4 [3, 128]
00000000: ae87 603a 95e1 9fbc f10a a3bd 1e16 2d3e
00000010: 53b7 ae3e a342 e93d 8aef 97bf 5394 48bd
00000020: 84f9 9c3f 0607 823d 4d8f ce3d 0e9f 80be
00000030: eab9 83bd 6287 3e3e e6dd f53d 1718 9c3f
00000040: ef23 a43e 5bdd d9be 9733 4abd 5de1 473f
00000050: 6bc7 173f 4cac f53e 6ace 69bf 0aa2 853b
00000060: 2738 8a3f a081 053b 8123 483d d339 50bf
00000070: 044b d4bf 58e3 3bbf b107 dbbe c966 0ec0
00000080: 288c e93e e38e 07bf ac33 c13e 8ecf 9d3e
00000090: ea5c bbbe 6a0c 073e a617 c53e 5de8 53bd
000000a0: 20dd 883d 45dc 3c3e 4edc 173e 11f1 16bf
000000b0: 0a81 a0bc bf7d 833d 8778 70bf 4c96 233f
000000c0: 7eb9 42bc cec7 c83b 52ee 5d3f c133 8abe
000000d0: 0250 9abd aa79 433f 4724 503f dde2 79bf
000000e0: 0e6c 1e3e ada1 92bd 4417 263f 508b e2be
000000f0: 790e 223e 64dc 413f 7056 d13e 6453 8ebe
00000100: 364b e23e d60e 913f 44f8 67be e076 9dbe
00000110: 3904 e23e 04aa 39bc 4e3a 86bf 18d5 bfbf
00000120: a45f 6f3c 84fc 05be 5c1b 5dbf 6283 f6bd
00000130: 6a14 58bf a6b1 19bf fba1 bfbe 771a 5a3e
00000140: 5201 46be 9086 4a3e 4143 ac3c 8ac4 573b
00000150: 4452 923e bbfc 423d 60a2 6f3f 028a e03e
00000160: 9cfb babe 96fe 2d3e 9a37 bbbe e9d0 e93b
00000170: 5d79 2cbd 0c7a c7bd 4b4a 0e3f a9b1 0cbb
00000180: 30c6 20bd 12b8 f83b 406d e2bd bb32 1c3e
00000190: 29ea 433e 21b6 493d f3ec ad3d 1f2f 463d
000001a0: cadf acbd d954 673d 1fec ce3e c2c5 37bd
000001b0: 2b2f af3e b776 d1be d2c9 6e3e ad71 14bf
000001c0: 5b50 8e3d cc95 2d3f 6eaa 003f f826 ec3e
000001d0: 4243 b9bc 5031 143f edb3 ca3e 148e 27bf
000001e0: 50ec db3d 25e5 003e 4b50 4d3f b602 033e
000001f0: 43c6 533e 05d5 afbd 5463 0ebd e127 033f
00000200: 280c 613c 4b57 5b3b 2be1 c93d 9c3a 68be
00000210: 3316 abbe e631 d2bd ebc0 953f a332 503d
00000220: 6a9d 9ebf c98f 5dbd f5d7 97bd 08da 7e3e
00000230: a369 b53d fc7c 3ebe be0e d2bd 7a97 98bf
00000240: bf1a c0be d887 df3e c370 813b b2f5 49bf
00000250: 6bdf 12bf 2364 0fbf 8186 753f 6073 d9bc
00000260: e6ca 8bbf c278 b1bb 0ef2 9cbd c889 4e3f
00000270: 94b4 d43f 1b30 2b3f 03f0 ae3e 5704 0e40
00000280: 3a75 fdbe da5e 093f e405 b2be a79c a7be
00000290: e5f5 b33e ef66 17be 2778 bebe a5e4 873d
000002a0: 5e0d a8bd ebef 56be 734a 18be 4634 143f
000002b0: a7fb a33c b2c9 b7bd e6ab 6d3f b8b6 1bbf
000002c0: 7325 233c 85f3 d73b ab24 64bf ecfb 573e
000002d0: bf0c 9a3d d77f 44bf 2f5e 53bf bf6d 743f
000002e0: 26dd 44be 9888 513d 661e 27bf 5261 d13e
000002f0: 5272 08be dff7 35bf 0fb1 d2be 363c 503e
00000300: 6861 09bf e35d 8ebf aee2 5f3e 3b17 a73e
00000310: 11ff e7be 0938 013c 0e90 843f fc5f be3f
00000320: 1f9a c93b bc17 143e dfdf 5c3f d5f6 483d
00000330: aa1f 453f da8d 173f 9913 b33e 4ed8 54be
00000340: 061d 093e f725 41be a55b 8b3c 405f 043d
00000350: a285 90be 4c9f ecbd d922 6dbf afa3 d5be
00000360: 812b bd3e 441d 8fbe b694 b33e b504 ca3b
00000370: 115c 473d eb8a 7c3d 8ace 08bf 82fc 26bc
00000380: 4331 373d c23b 893c d3e3 f53d 8ff5 15be
00000390: 20ab 82be b34c a2bd e723 23be 47ae 09bd
000003a0: bfa6 903d 3d48 29bd 09a1 cfbe d051 e33c
000003b0: 7498 b2be ab9b b43e 1177 88be 5335 143f
000003c0: 031d 36bd ba7a 30bf 23c3 02bf 5b1d e1be
000003d0: 3149 473d 064c 15bf cb57 c0be 1005 293f
000003e0: 70ba 42be 681f 75be 9813 4dbf 8091 0cbe
000003f0: 2413 57be c86d 8c3d 757f d23c e65c 0dbf
0.000856514 -0.019516746 -0.07961071 0.16902968 0.3412424 0.11389663 -1.1869977 -0.048969578
1.2263646 0.06348996 0.10085926 -0.2512135 -0.06431945 0.18606332 0.120052144 1.2194852
0.32058665 -0.42551693 -0.049365606 0.7807825 0.5928866 0.47983015 -0.9133059 0.0040781545
1.0798386 0.0020371452 0.048861984 -0.8133823 -1.6585393 -0.73393774 -0.42779306 -2.2250235
0.45614743 -0.529524 0.37734735 0.30822414 -0.36594325 0.1318833 0.38494605 -0.05173527
0.06682801 0.18443401 0.14830133 -0.5896159 -0.01959278 0.064204685 -0.9393391 0.6390121
-0.011885045 0.006127334 0.8669177 -0.2699261 -0.075347915 0.7635752 0.81305355 -0.9761179
0.15470907 -0.071597435 0.6487925 -0.44246912 0.15825833 0.75726914 0.4088626 -0.27797997
0.44198006 1.1332653 -0.226533 -0.30754757 0.44143847 -0.011332039 -1.0486543 -1.4986906
0.014610205 -0.13084608 -0.8636987 -0.12036778 -0.8440615 -0.60036695 -0.3742827 0.21299158
-0.19336441 0.19777894 0.021028163 0.0032923543 0.2857839 0.047604304 0.9360714 0.43855292
-0.36520088 0.16991648 -0.36565858 0.0071354997 -0.04210793 -0.097400755 0.5558211 -0.0021468198
-0.039251506 0.0075903023 -0.11055994 0.15253727 0.19132294 0.049245957 0.0849246 0.048384782
-0.08441122 0.0564774 0.4041452 -0.04486633 0.34215674 -0.40910885 0.23319176 -0.57985955
0.0694892 0.67806697 0.50260055 0.4612348 -0.022615079 0.57887745 0.39590397 -0.6545117
0.107384324 0.12587412 0.8020064 0.12794003 0.206811 -0.08585552 -0.034762695 0.51232725
0.013735808 0.0033468779 0.098574005 -0.22678608 -0.33415374 -0.102634236 1.1699499 0.05082954
-1.2391789 -0.054092202 -0.074142374 0.2488786 0.08858039 -0.18602365 -0.10256718 -1.1921227
-0.37520406 0.43658328 0.00395021 -0.78890526 -0.5737216 -0.5601217 0.9590836 -0.026544273
-1.0921295 -0.005416007 -0.07663356 0.8067899 1.6617608 0.6687028 0.3416749 2.219015
-0.495035 0.53660357 -0.3477012 -0.32736704 0.3514854 -0.1478536 -0.37201044 0.06635407
-0.082056746 -0.20989959 -0.1487215 0.5789226 0.020017458 -0.08974017 0.9284042 -0.6082568
0.009957659 0.006590309 -0.8911845 0.21092194 0.075219624 -0.7675757 -0.8256559 0.9547996
-0.19224986 0.051155657 -0.6528076 0.40894562 -0.1332486 -0.71081346 -0.4115071 0.20335469
-0.53664255 -1.1122402 0.21863815 0.3263491 -0.45311788 0.007886895 1.0356462 1.4873042
0.006152406 0.14462179 0.862791 0.049063522 0.7700144 0.59200823 0.3497589 -0.20785639
0.13389978 -0.18862139 0.017011473 0.0323174 -0.28226954 -0.11553821 -0.926313 -0.41726443
0.36947253 -0.27952015 0.35074395 0.006165112 0.048671786 0.06165592 -0.53440154 -0.0101920385
0.044724714 0.016752128 0.12006345 -0.14644454 -0.25521183 -0.079247855 -0.15931664 -0.03361347
0.07063054 -0.041328657 -0.40552548 0.027748972 -0.34881938 0.35275015 -0.2665334 0.57893866
-0.04446126 -0.68937266 -0.51079005 -0.4396771 0.048653785 -0.5831913 -0.3756698 0.6602335
-0.19016433 -0.23937762 -0.8010802 -0.13727379 -0.21003395 0.068568766 0.025695542 -0.55219877

action_model._discrete_distribution.branches.1.bias f4 [3]
00000000: 359a 4f3f 6757 96bf df6c 6cbf
0.81094676 -1.1745423 -0.92353624

action_model._discrete_distribution.branches.1.weight f4 [3, 128]
00000000: 24f7 833e a2b1 993e 8390 07be bd06 54bf
00000010: ddbf 4ebe c7ce 683c d2f4 d4bd 6ffa afbe
00000020: a1e2 b9be c867 0f3e 98a7 623d cb06 86bd
00000030: 7b68 dabd 541f 3cbf 733d 483f 8b2d d8be
00000040: c306 eabe 6fd6 73be 580a 15bd 73cc 093e
00000050: 7d14 163f 5cca 9d3c b5dc 02bf 49cb 313d
00000060: dc08 54bf 9b3f 0e3d 64da 933d eb90 0a3e
00000070: 1341 06be 403c 873a 1a89 b1bc 0af6 173e
00000080: 0d3d 8fbf 0f29 9bbd c855 ccbc 0052 99be
00000090: f10e 03be 01bf 19be ff81 c6be 03d5 eabd
000000a0: b847 e83d 8501 0bbe deba bcbe c1c9 ebbd
000000b0: 587a c2be cd04 11be f659 5ebd 9fab 81bf
000000c0: 4fce 543f 8165 d83e 316b 9abe fa7b bebd
000000d0: 9c4f a5bd 25e2 733d 5a71 9a3c 6f55 ad3f
000000e0: d305 b13d 5472 72bf 5bd8 5e3f 748b 243f
000000f0: b09f b1be a22e 08be 8340 a9bd 5fbf 5b3b
00000100: c677 ddbe 2d1d 003d 9572 d63b 8040 ab3e
00000110: e6c9 15bf 453e edbe 7799 b9bd da5d edbc
00000120: 2500 e83d 4958 80bd e3d6 92bf c1b3 113e
00000130: c4ce 843e 4a77 6cbf c481 0fbe d247 493e
00000140: 01b2 0ebf 7947 6cbf 30c1 8c3d 5e49 043f
00000150: c111 c53d 2e2b 663e cc28 09bf a9d3 4f3e
00000160: 833c d1bc e2ef 4ebe 771c 92be 5f23 ae3c
00000170: 5a64 ae3e fffc e1be c37d 1abf f187 163d
00000180: 13c8 00be b1a8 513f 6045 283f 0e8f 36bf
00000190: 5c1e 963d 70d2 9bbe a52f a7bc 0197 613e
000001a0: 9e76 fe3e 9202 2b3d 15c8 eabd 634f a8be
000001b0: c7ad 4dbe c688 e13d 760f debe 28e9 a7be
000001c0: ae04 f93d 0642 1d3e 20d0 46bf 52ce 593e
000001d0: 7b96 3abe bcd0 f53f d2c4 8dbe 1030 10bd
000001e0: 2fe6 a03d 6675 05bf 8c9e ee3e 0728 aebd
000001f0: 5b95 0b3e 686b b43c 2022 98bd 1e46 23bf
00000200: b9f9 81bc d240 bfbf fb80 b8bf d381 793e
00000210: cc1f 3c40 a9fb 0ebf 8499 27be c7e3 82ba
00000220: 67d9 48bf 4909 c5bf 5d18 94bf 6226 8dbf
00000230: 7071 8f3e 8d12 053d e5cb 383e 6533 e23e
00000240: d5a7 953e 7d65 bcbf 6bcd 81bf a5b3 003f
00000250: 3210 9a3e 636e 88bf 709c 0a3f d32a 92bd
00000260: 3dfa 453f eeb9 32bd e7b4 523e b5a6 cabe
00000270: 2144 063d c96e 53be 61c9 3d3e aeda afbe
00000280: 8992 c33f 94a3 533e b27b 81bf 2288 1c40
00000290: dcb2 c9be 8553 7a3e acbe c73f 9127 27bf
000002a0: 546b 4bbf c4a8 5b3f fa6b 533e 50f7 6fbe
000002b0: 2ccb e7bc b682 dcbe 1776 f33d 1e3e 133e
000002c0: c471 cabe 7f22 1bc0 561a 403f 3052 773f
000002d0: 0845 9dbf 8576 dfbe 6011 23c0 0a8c 8cbe
000002e0: b466 4fbf 0383 0e40 8500 96bf de21 423f
000002f0: d7b8 b83e f1c1 adbf 5fb9 fd3e 6614 b93f
00000300: b9cd 50bf 8a05 d93d 5079 6c3e 3ed9 48be
00000310: 9c8f 6340 49fe 943c 1cb4 40be 141f bbbe
00000320: dc66 a2bf 3b5f 93bf 55d3 0f3f 2f0b bfbf
00000330: d6ac 07bc 5118 7f3f d523 783d c19a b0be
00000340: 0410 c33f d344 7a40 0232 e8bf 2e43 31bf
00000350: 8e7a e9bf 0314 e13e da8b c53e 703d 27bf
00000360: 3bb1 09bf 7493 a03e 3a34 113f 68f7 8840
00000370: 2c6c c93d 9018 9abe aee7 cfbe f0df b6bf
00000380: 0890 923e 6e4c 69bf 5334 9abe d62d dc40
00000390: b02c 37c0 b660 98bf 242c 2041 7119 afbf
000003a0: f594 be3e f459 74bf 740b af3f dbf1 b23e
000003b0: d68c b33e 2144 153e 3717 ab3f 6605 b03e
000003c0: ca8e b8bf bf48 0ac0 8c21 2141 50b9 463c
000003d0: 0e8a 8cbf 5ed1 23bf 4c0f 2f3f 74d8 013f
000003e0: c4cd 33c0 f6fe 3340 af97 4f3f 35be 873f
000003f0: e059 c2bd e434 e0be 0ccd fc3f 821c ae40
0.2577449 0.30018336 -0.1323872 -0.8282278 -0.20190378 0.014209456 -0.10398258 -0.34370753
-0.36305717 0.14004433 0.05533561 -0.065442644 -0.10664459 -0.734853 0.78218764 -0.42222247
-0.45708284 -0.23812269 -0.036386818 0.13456897 0.5862501 0.019261532 -0.5111802 0.04340676
-0.8282602 0.034728628 0.07219389 0.13531844 -0.13110761 0.0010317639 -0.02167182 0.1483995
-1.1190506 -0.07576191 -0.024943247 -0.29945374 -0.12798668 -0.15014268 -0.38771054 -0.1146641
0.11341804 -0.13574798 -0.36861318 -0.11513091 -0.37983966 -0.14161988 -0.054285012 -1.01305
0.831273 0.4226494 -0.30159906 -0.093009904 -0.08071825 0.05954184 0.018852878 1.3541697
0.08643689 -0.947057 0.8704888 0.6427529 -0.34692144 -0.13299039 -0.08264258 0.0033530814
-0.43255442 0.031277824 0.006544421 0.33447647 -0.585112 -0.4633657 -0.09062474 -0.028975416
0.113281526 -0.06266839 -1.1471828 0.14228727 0.25939 -0.9236952 -0.14014345 0.19656304
-0.5574036 -0.9229656 0.06872785 0.5167445 0.09622527 0.22477409 -0.53577876 0.20295586
-0.02554155 -0.20208696 -0.28537342 0.0212571 0.34060937 -0.44138333 -0.6034815 0.036750738
-0.12576322 0.8189803 0.6573086 -0.71312034 0.07330009 -0.3043399 -0.02040846 0.2203026
0.49699873 0.041750498 -0.11463944 -0.32873067 -0.20085822 0.110124156 -0.4337117 -0.32795072
0.12159096 0.15357217 -0.77661324 0.21270111 -0.18221466 1.9204326 -0.27689224 -0.035202086
0.07856404 -0.5213226 0.46605337 -0.08503728 0.13631193 0.022023872 -0.07428384 -0.63778865
-0.015866147 -1.4941657 -1.4414362 0.2436593 2.9394407 -0.5585275 -0.16367155 -0.0009986096
-0.7845673 -1.5393459 -1.1569935 -1.1027339 0.28016233 0.032488395 0.1804653 0.44179836
0.29229608 -1.4718472 -1.0140814 0.50274116 0.3009048 -1.0658687 0.54144955 -0.07137074
0.7733496 -0.043634348 0.20576821 -0.39580312 0.032779817 -0.2064773 0.18533851 -0.34346527
1.5279094 0.20667869 -1.0115874 2.445809 -0.3939427 0.24445923 1.5605063 -0.6529475
-0.79460645 0.8580439 0.20646659 -0.23434186 -0.028295122 -0.43068475 0.11887758 0.14379165
-0.3953992 -2.4239805 0.75040185 0.96609783 -1.2286692 -0.4364511 -2.5479355 -0.2745059
-0.8101609 2.2267463 -1.1718909 0.7583293 0.36078522 -1.3574811 0.4955549 1.445935
-0.8156391 0.105967596 0.23093152 -0.19614121 3.5556402 0.018187659 -0.18818706 -0.36547148
-1.268764 -1.1513437 0.5618184 -1.4925288 -0.008280953 0.9964648 0.060581047 -0.34493068
1.5239263 3.9104507 -1.8140261 -0.69243133 -1.8240526 0.4396058 0.3858326 -0.6532812
-0.5378606 0.31362498 0.56720316 4.280201 0.09835085 -0.30096865 -0.40606445 -1.428709
0.28625512 -0.9113225 -0.30118045 6.880595 -2.8621025 -1.1904514 10.0107765 -1.3679639
0.3722302 -0.9544976 1.367537 0.34950146 0.35068387 0.1457677 1.336646 0.3437912
-1.4418576 -2.16069 10.07069 0.012129143 -1.0979631 -0.63991344 0.68382716 0.50720906
-2.809434 2.8124366 0.81090826 1.0604922 -0.094897985 -0.43790352 1.9750075 5.44098

discrete_action_output_shape f4 [1, 2]
00000000: 0000 4040 0000 4040
3.0 3.0

network_body._body_endoder.seq_layers.0.bias f4 [128]
00000000: a9d1 8eba 37e7 20bd 8e37 81bd 21bd ddbd
00000010: 373f 50b9 7c39 323c 84bb 86bc 10b9 3bbd
00000020: 7bc6 bcbd 437c 183d 6f9a 14bc 3fcf 2cbd
00000030: bd59 42bd 191e 26bd c672 6cbd 1be4 96bd
00000040: 7a92 f3bc a810 07be 146c adbd b1f2 24bc
00000050: 4b38 b7bd 8833 8abd 085c dbbd b6c7 70bd
00000060: 92aa c2bc 9365 2fbd 19b3 cebd 319c bbbc
00000070: fc07 58bd c2b1 52bc 0a39 54bc f826 82bc
00000080: ee2f 2ebd 0de9 893c 7139 a2bd ea2c 6e3d
00000090: 8fba cabc c667 c0bd 8e8d 03bd df72 11bd
000000a0: e1e3 90bd 286c e5bc 93cc e7bd d7d4 c9bb
000000b0: d3e3 5dbd 1285 c8bd c424 e7bd 7464 90bd
000000c0: ab6d 5bbc 9c35 42bc 5cbb 413c 5437 b4bd
000000d0: 739a 473b bc1d 95bd dabb 95bd 0a80 b5bd
000000e0: 5571 b0bd f9e3 3ebd 6bb1 a4bd d479 9bbc
000000f0: 3bcf 493c 2a5a 1bbd f41e 24be 7613 45bd
00000100: 5de6 1cbd fe1f 1bbd 87ab 47bd b385 84bd
00000110: 6af3 9fbd 5a56 77bd 94e2 1dbc af7a c73d
00000120: 6f11 be3d afe0 973d f46c d9bc 5e0c 48be
00000130: 61a8 c53c 5bf8 40bd 37a8 dabc a41a c13c
00000140: c08c 94bc 40fb e6bc fb3b 11bc b6f7 7abd
00000150: 913d 4ebd 1d1e a7bd 67ab bfbc b43b 86bd
00000160: 7f95 4b3d fcc5 85bc a1aa 2dbd e6a0 033b
00000170: 1cd9 8ebd 4b12 13be 3c7a 013c 6f91 9abd
00000180: 82ee 7cbc b51c d4bd 990a 41be 3fc7 5bbd
00000190: a98c 51bb bef2 99bd a1d5 a6bc c5b2 52bd
000001a0: fe6f ecbd 2abc 46bc 60de 363b 554d acbc
000001b0: 0e10 45bd ceb1 593d 30b1 5ebd d130 93bd
000001c0: 63ab df3c bd8a e8bc 402c 91bd 0ea8 babd
000001d0: d451 d8bd c943 95bd c51f 86bd 520f 3fbc
000001e0: 06c6 c3bd 3b82 303c cf45 9abd 2b37 52be
000001f0: 442e 98bd 1f7f f4bd a76d 29bb 9d69 53bd
-0.0010896224 -0.039283004 -0.06309424 -0.10827089 -0.00019859975 0.010877963 -0.016446836 -0.045830786
-0.09217545 0.03722788 -0.009070023 -0.042189833 -0.047448862 -0.040556047 -0.057726644 -0.073677264
-0.029732931 -0.13189948 -0.0846788 -0.010067628 -0.08946284 -0.0674811 -0.10710913 -0.05878421
-0.023762975 -0.042821478 -0.10092754 -0.022901626 -0.05274199 -0.012859764 -0.012953052 -0.015887722
-0.042526178 0.01683476 -0.07921112 0.058148302 -0.024747161 -0.09394793 -0.03211742 -0.03550994
-0.070747145 -0.028005674 -0.11318316 -0.0061594057 -0.05417235 -0.09791006 -0.11286309 -0.0705041
-0.013392846 -0.011853602 0.011824455 -0.087996155 0.003045705 -0.07281062 -0.073112205 -0.08862312
-0.08615366 -0.04660413 -0.08041652 -0.01897899 0.012317474 -0.037927784 -0.16027433 -0.048114263
-0.03830563 -0.037872307 -0.048747566 -0.064708136 -0.078100994 -0.060385086 -0.00963654 0.09740197
0.09280669 0.07415902 -0.02654121 -0.19535968 0.02412814 -0.04711185 -0.02669154 0.023572274
-0.018133521 -0.028195977 -0.008864398 -0.06127139 -0.050351683 -0.081600405 -0.02339716 -0.06554356
0.049703117 -0.016329758 -0.042399053 0.0020084917 -0.06975004 -0.14362447 0.007902678 -0.075472705
-0.015437724 -0.10357038 -0.18851699 -0.053656813 -0.003197471 -0.075170025 -0.020365538 -0.05144002
-0.11544798 -0.012129823 0.0027903542 -0.021032969 -0.048111014 0.053148083 -0.054368198 -0.07187045
0.027303403 -0.028386468 -0.07088518 -0.09114085 -0.105624825 -0.072883196 -0.06549028 -0.0116613675
-0.09559254 0.010773237 -0.07532846 -0.20528857 -0.074306995 -0.11938309 -0.0025852711 -0.051614393

network_body._body_endoder.seq_layers.0.weight f4 [128, 383]
00000000: 326a 30bf c668 2a3b 1478 07bc 9bfa 493d
00000010: 85ca aebb b181 593d eb99 39be f602 0d3f
00000020: 07b8 f43e eb17 a93e 6a05 c13c 4ff1 62bd
00000030: 865b 583d 726e 97bd e731 9b3e 842c babe
00000040: 3c3f d8be 3290 e6be 36c1 c6be f690 8f3d
00000050: ea29 0abc d254 103d 2a5c 223d 5609 af3e
00000060: 5ac1 a53c 85c6 243e d2de c33d 681a 9cbd
00000070: b696 e93d 485c 3a3c fe86 763c 2640 2cbd
00000080: a86f 97bf 670b 1abe 1a07 603e 39fa 3b3f
00000090: 88a2 56be 3a44 8e3c 4e79 04bc 8f1f 03be
000000a0: 9f3d 013d 0e93 37bd b7b1 0bbf 4719 533d
000000b0: 3d38 ff3d f113 c43d 5e51 febd b06d 2abd
000000c0: 5f38 7bbd 4193 debc c7d9 7cc0 7338 a3bd
000000d0: 5faf a2be 16d9 4ebf 6a04 833e e1a5 10bb
000000e0: ec35 833f 1734 dabc 254c 8bbd dab9 d8bd
000000f0: 202e 2cbd 441b 98be 2e3f 6ebe ff3a fb3d
00000100: 46a4 b43d 0c83 c73c 013f cdbd e19d d1bd
00000110: d639 05bf ac9f 0fbf 1c46 6d3e 1b22 2bbf
00000120: 62be ac3e aff2 343d 64b4 9b3e 8f7a b7bd
00000130: c4ca 093c 5dac 0bbe 90b6 0ebf 6ce3 39be
00000140: 21fc 79be fc8f b13e 647c 413c 42a0 1ebd
00000150: 7f6b cb3d 6974 fdbd 8d8d 07bf 05e2 99be
00000160: 2ecb 1ebf 11ad b1bf c379 a83e 2027 aaba
00000170: 05dc 033e 8b08 babd 6b32 5cbf 18f6 b2bb
00000180: 5652 3cbf e4d8 6cbe 6d05 abbe 8b42 ad3e
00000190: 837d d7bb 704a b2bf f70e 9b3e 2364 e23c
000001a0: 5245 95bd ae92 33bf dbea 48be 76b7 d13e
000001b0: c022 e6be 4d43 07bd 9583 f23e 1222 08bd
000001c0: 5dfd 26bd 0b41 923d fd0f 53bf df7d 863e
000001d0: 4333 febd dc9f fa3e 44e6 b23d 1c03 60bf
000001e0: ba19 ed3e 6aff 633e 4da0 32c0 076a 56bf
000001f0: 60b2 153e 2ce8 ed3d d21d 19be ed89 443d
00000200: 0e5e 92be 0acd 3cbd dfb0 84bf ec8a 0c3d
00000210: 19e8 07c0 eeab 933d f65b 2fbe ba14 fb3e
00000220: 689f 3c3c 9d02 86bf ecac ad3e 9010 983f
00000230: d0c9 4a3f 0571 82c0 5e60 9a3f d18e 92bf
00000240: 776c 2dbf 3431 b43b 047e 363d 8b40 f93c
00000250: e5a4 56be 02a8 09bc d3cc 13bf 9333 703f
00000260: abe9 ea3d b1eb df3e db7b 50bd f6ee 85bf
00000270: 05d0 3ebf 42b0 663f e5e4 cc3d ee90 503e
00000280: c746 ff3f 254d 35c0 7da3 b33e cb4f 1ebd
00000290: 7e5b 01bf e622 9c3c 93e8 4abd 7a6d b73b
000002a0: b1c2 1dc0 7896 32be 3ad7 e5be f861 94be
000002b0: 4bc9 123c 1cf8 f2be a1f6 e23e 717a 593e
000002c0: e1f7 1f3e 65b8 34c0 68e2 bf3f 31b3 0b3e
000002d0: d495 c7bf 7133 09bc fc1e 303f 6a72 aebd
000002e0: a62d 5ebf ff29 4fbd 1bb0 11c0 6d4a e8bb
000002f0: e205 4c3f a7a9 86be 54a3 0bbd 5a04 17bf
00000300: fb93 b43e fc4f 40bf 7675 053d d830 b9bf
00000310: 39a1 aa3f 1d49 8dbf 0469 9abf 67b2 83bb
00000320: 7575 3f3f e3f3 de3d 8864 31bf 693e 97bb
00000330: af0e 02c0 e142 633f 0fea 6b3f 93ec 1fbe
00000340: 1bd8 503d e99b 3fbf 2373 273e 3b1d 8d3f
00000350: 4426 a1bd 251c 913f 0baa 083e 53fe dbbf
00000360: 85dc b0bf 6f22 593d f16c a4be 0bec 333e
00000370: 9ef7 33bf 574d 40bd 7ae1 01bf 29a0 f73f
00000380: aee9 093f bf41 e9be 445c 7abc bbab 97bf
00000390: 8e6c 7e3e 7c06 93bf bbd3 39bd b46b 03bd
000003a0: 0c97 ef3c 8304 10bf 8132 babf b39f 0fbd
000003b0: 3743 54bd 5aa1 a53e d5cc 11c0 5a00 18bd
000003c0: f922 4c3f 1b62 1a40 0555 353f 948c c33e
000003d0: 1499 0a3d ccab 6bbf 5518 87bd e673 d9bf
000003e0: c255 9dbc b6d7 183d 32f9 623d 9f34 3ebf
000003f0: bc02 c9bf cee5 113d 5a4a a33e c2ee bf3e
-0.6891204 0.0026002391 -0.008268375 0.04931126 -0.005334201 0.0531022 -0.18125121 0.55082643
0.47796652 0.3302606 0.023562152 -0.05540591 0.05282166 -0.07394113 0.3031151 -0.36362088
-0.42235744 -0.45031887 -0.38819283 0.07010071 -0.008432845 0.03523714 0.039638676 0.3418681
0.020233799 0.16091354 0.09563984 -0.07622224 0.11405699 0.011374541 0.015046833 -0.042053364
-1.183095 -0.15043412 0.21877709 0.73428684 -0.20960438 0.017366517 -0.008085562 -0.12805007
0.031552907 -0.044817977 -0.54568046 0.05153778 0.124618985 0.09574116 -0.12417863 -0.041608512
-0.061333057 -0.027169826 -3.950792 -0.07969751 -0.31774423 -0.80799997 0.25589305 -0.0022071528
1.0250831 -0.026636166 -0.06801633 -0.10582323 -0.042036176 -0.29708302 -0.23266289 0.12267112
0.08820395 0.02435448 -0.10021783 -0.10235191 -0.52041376 -0.56103015 0.23171276 -0.66848916
0.33739 0.044176754 0.30411065 -0.08958923 0.0084101595 -0.1363997 -0.5574732 -0.18153161
-0.24412586 0.34680164 0.011809442 -0.038727053 0.09932613 -0.12375719 -0.52950364 -0.30055252
-0.6202878 -1.3880941 0.32905397 -0.0012981631 0.128769 -0.09083661 -0.8601443 -0.0054614656
-0.73563135 -0.23129612 -0.33402577 0.3383983 -0.0065762415 -1.3928967 0.30284855 0.02763564
-0.072886124 -0.7014569 -0.1962084 0.40960282 -0.44948387 -0.033023167 0.47366014 -0.033235617
-0.04076897 0.07141312 -0.8244627 0.26267907 -0.12412121 0.48950088 0.08735326 -0.87504745
0.4630869 0.22265401 -2.791034 -0.83755535 0.14618826 0.11616549 -0.14952782 0.0479831
-0.28587383 -0.046093978 -1.0366477 0.034312174 -2.123541 0.07210527 -0.17124924 0.4903925
0.011512615 -1.0469548 0.3392099 1.1880054 0.7921419 -4.0762963 1.2060659 -1.1449834
-0.6774363 0.0054990295 0.04455377 0.030426284 -0.2096134 -0.008401873 -0.5773441 0.93828696
0.1147035 0.43734506 -0.050899368 -1.046355 -0.7453616 0.901127 0.10004596 0.20367786
1.9943475 -2.8328335 0.3508567 -0.038650315 -0.5053023 0.01905961 -0.049538206 0.0055977674
-2.465008 -0.17440212 -0.44890767 -0.28980994 0.008959125 -0.47454917 0.44328788 0.21238114
0.15621902 -2.8237545 1.4990969 0.13642575 -1.5592599 -0.008374081 0.6879728 -0.085179165
-0.86788404 -0.05057716 -2.2763736 -0.0070889504 0.79696476 -0.2630131 -0.03409131 -0.58991015
0.3526915 -0.75122046 0.032582723 -1.4468031 1.3330451 -1.1037937 -1.2063298 -0.00401907
0.747886 0.108863614 -0.69294024 -0.004615594 -2.0321462 0.88773924 0.9215402 -0.1561759
0.050987344 -0.74847275 0.16352515 1.1024545 -0.07868627 1.1336714 0.13346116 -1.7186989
-1.3817297 0.053011354 -0.32114366 0.17570512 -0.7029971 -0.046948757 -0.50734675 1.9345752
0.5387219 -0.45557973 -0.015280787 -1.1849283 0.24846098 -1.1486354 -0.045367938 -0.032085136
0.02924683 -0.56256884 -1.4546663 -0.03506441 -0.051821914 0.32349664 -2.278127 -0.03710971
0.79740864 2.412238 0.70832855 0.3819319 0.033837393 -0.92059016 -0.06596438 -1.6988494
-0.019205932 0.037315093 0.055413432 -0.74299043 -1.570396 0.03561955 0.31892663 0.37486845

network_body._body_endoder.seq_layers.2.bias f4 [128]
00000000: d95c f1bd 83b0 5bbd fdfe 423e 8c4c 763b
00000010: a23f a03e 0ae6 b7be 896f b73c 6ca8 50be
00000020: 2e2b e3bd 5f9e 663f f071 83be cc9a 753e
00000030: 7f3b dd3e 55d7 5bbe ae60 96be 1f10 093c
00000040: 5a5d 46ba a739 b3bd c53f 893d f64c 413e
00000050: 70a8 863e 331c 59be 320b 3a3e 2e09 b7be
00000060: 702c 213e 9ed5 e7bc b0a8 00be 1410 073f
00000070: ff70 a9bb 1be2 bcbd cdc6 80be f561 cfbe
00000080: 715d 16be 8c6f 2cbf 4b45 21bf 4be9 a73d
00000090: 32ed 1d3f fa3e 5bbe d3df 1dbe 63e0 19bf
000000a0: 13b1 f0be 8154 03be dbac 72be f2d1 5f3e
000000b0: b314 883d ba6f 84be 2c76 333e 4b0d aabe
000000c0: f2cc 67be db03 93be 57b0 2e3e 1883 083e
000000d0: b388 b7bd 3c42 1c3d 9b2d 67bf 54c6 59bf
000000e0: 15c7 94be e38e 6abe 3c7f 9abe e63d 27be
000000f0: 55e0 c53e 2912 41bf 75c2 aa3d 84da 653e
00000100: ee0f 1d3f 8286 40be 3459 863d b8cf aabe
00000110: e8ae 5c3e 7a09 edbe 2258 babd 0a67 dd3e
00000120: dce4 fbbc 9b77 81be b2a3 6ebf efb0 5dbd
00000130: b176 e93d 3c2f dbbd b642 323f 6bfb c3be
00000140: 45f1 9bbe 2cab 96be b8f7 34be 9729 16bf
00000150: bc3d 05bd b3c9 4abf 6765 063e 59c2 933d
00000160: 11d1 28bc 793c 4bbd ef1e 7e3e e7b6 66be
00000170: 80cd 2abe 937b d6bd 2c13 1ebb 8e08 41bf
00000180: 0afe cfbe ef96 44be b0b3 9abe 301b 99be
00000190: 15f5 0bbf 3971 6a3e acc5 d5be 2e8d 223e
000001a0: 0778 89be 3b61 cb3e 1733 873d 6c67 3a3d
000001b0: 36c4 28bf c739 033e 35fc a1be f863 e6bd
000001c0: e42b b93e dcd5 71be c412 2b3d a85d f3be
000001d0: 6b8b 0f3d b350 94be a35b 6fbe f6bc aabe
000001e0: ad70 a6be 54ed b0be 8bb9 51bf 5600 01be
000001f0: ac19 b2bd 5b7c 84ba 92fd cbbd 8baf 803d
-0.117852874 -0.05363513 0.19042583 0.0037582247 0.31298548 -0.35917693 0.022392051 -0.20376748
-0.1109222 0.90085405 -0.25672865 0.23984832 0.43209454 -0.21468861 -0.29370636 0.00836566
-0.0007567011 -0.08751231 0.06701616 0.18877015 0.26300383 -0.21202163 0.18168333 -0.3574919
0.15739608 -0.028300103 -0.12564349 0.5275891 -0.005170941 -0.09222814 -0.25151673 -0.40504423
-0.14684083 -0.6735771 -0.6299636 0.08198794 0.61690056 -0.21410742 -0.15417413 -0.6010801
-0.47010097 -0.12825204 -0.23698752 0.21857432 0.06644573 -0.2586649 0.17525548 -0.33213267
-0.22636774 -0.2871388 0.17059456 0.13331258 -0.0896162 0.038149104 -0.90303963 -0.8506825
-0.29058138 -0.2290607 -0.30175197 -0.16332206 0.38647714 -0.75418335 0.08337871 0.22446638
0.6135243 -0.1880131 0.06559983 -0.33361602 0.21551096 -0.46296293 -0.09098841 0.43242675
-0.030748777 -0.25286564 -0.9321853 -0.054123815 0.11399592 -0.107023686 0.6963304 -0.38277754
-0.30457512 -0.2942747 -0.17672622 -0.5865721 -0.032529578 -0.7921402 0.1312462 0.07214803
-0.010303752 -0.049618218 0.24816488 -0.22530709 -0.16679955 -0.10472789 -0.0024120314 -0.7540368
-0.40623504 -0.19198202 -0.30215216 -0.29903555 -0.5467084 0.22894754 -0.41752374 0.15874168
-0.26849386 0.39722618 0.066015415 0.045508787 -0.65924394 0.12815009 -0.3163773 -0.11249536
0.36166298 -0.23616737 0.041765943 -0.47532392 0.03504507 -0.2896782 -0.233748 -0.3334729
-0.3250784 -0.34556067 -0.8192374 -0.12597784 -0.08696303 -0.0010107862 -0.09960474 0.06283482

network_body._body_endoder.seq_layers.2.weight f4 [128, 128]
00000000: 7c1a 7fbf 784c 99bd 94fc 8abd d298 bf3d
00000010: b710 d3bf 457e 1bbb cabe 2dbd e59e b83e
00000020: 18a1 3e3d 12cc 4bbe bc3d 5fbd 52a5 1940
00000030: c4f9 9ebd 72cf aabe 139f 99be 4067 23be
00000040: 89f1 603e 4c5f a83e 0d1d 07bf c8f4 81bc
00000050: f2b7 9c3e 6077 e5bd 1467 703e 24e0 e13c
00000060: efe0 bfbb 38b1 abbd 221f b0be ad1c 1e3f
00000070: bec9 853e f5f7 d5bd d4df 0c3f 6fef 2e3f
00000080: ac89 d33e aee7 5f3e 6ad0 97be f9be 80be
00000090: 912d eabc 3492 2a3d 3318 f03d c74c 973b
000000a0: 2366 f63e 2893 0f3e 5eb6 433e 78fa c13d
000000b0: 7475 993d 6ae4 d2be 2a48 f8bc 7448 113e
000000c0: 196f 6cbc 4a3a ebbc c6d4 c13e e40d 1cbf
000000d0: 9956 ccbe b49b 843e 74ba cf3e 7c36 ffbd
000000e0: 9be9 1cbb be5e ad3e b99d f83d 69ad 483e
000000f0: ed44 92bd 3076 fcbe 29a4 15bd 2ff7 4ebe
00000100: 212e 863e 3cb4 283c df61 0abe a187 083e
00000110: a0e0 9a3e 2875 4ebe 4afc b8be 83c5 75bf
00000120: 5a89 2ebe bf84 373d 6198 0f3e fcae 533e
00000130: 11f8 dd3d 07a3 cb3e de4b 5d3d bc10 fcbe
00000140: 792d 223e 0463 e2bd 4d42 40bd e125 14bb
00000150: 3f5d 603e 3ff9 913e 7dc0 1bbf a372 3ebd
00000160: ceba 573d 280b 3b3e 2eea c3bd 6692 223e
00000170: fe44 07be 2891 543e d64a 0ebf 8c1c 2a3f
00000180: d4c6 4a3d 3588 adbd 5f92 733d ba7f 6ebe
00000190: c444 1cbe 251d cd3c 4cee b9bc 4314 6e3e
000001a0: 8436 083e b849 c43e ae44 f2bd ac72 fabf
000001b0: 2a66 47bd 5a50 08be 8343 70be 1fcc 66be
000001c0: b123 f4bd 1fae 71be 947e 6c3e 4381 583e
000001d0: 4b61 de3d f2a0 2abe bf46 333d e314 a73d
000001e0: 36e0 403e 0c97 7fbe e57a fd3d 9f0b e13d
000001f0: 9457 e8bf 9b7b e33d 0dd8 c03e 015b 143d
00000200: db21 94be 09df 19be d674 12bf f474 393e
00000210: 0e0c 483d db03 a53e 49f1 7ebe 375c 243e
00000220: bbd3 32be f252 28be a22b 89be 6e6b fcbd
00000230: 8ab5 04bc b15c 84bd cba9 e6be 272b 893a
00000240: cb13 383e f0c6 bbbf ecb7 28be b62f a5bc
00000250: e2cb a63a a48e 233f 2ca5 b53d b308 36be
00000260: 152b 1d3e 08fe 18be 69d7 ec3e 67f1 143f
00000270: 7b4a a63e f815 e53e b98c 4c3f 79f7 593e
00000280: 3534 503f 1fa7 053f e8f4 d03e 3626 2bbd
00000290: 9de8 c5be d595 bebe 31e8 a9bd 4961 9f3c
000002a0: c9dd 063f 2490 01bd d938 b23d 027a 46bd
000002b0: 7d91 7abd e2be 2abf a687 a03d d6da 083f
000002c0: d282 73be f231 7d3d 475f 483f 1a83 40be
000002d0: ec83 d33d 0d9e 2c3d 8ecb f83e d4ea 30be
000002e0: 12f8 f9bd 0503 bf3e e807 ba3b 151f a63e
000002f0: 5c69 0abd 4293 403e e4d7 cabd b364 d1be
00000300: a073 09be 2cee cebe b4a6 423d b9bc 30be
00000310: 7a3c f03e 20fc fd3f 7f36 52bd 7379 d2bf
00000320: a37d 34bd 6eba 7b3d ed5b afbd 77b3 9b3c
00000330: ab87 e9bd 6557 59be 9ce0 a0be 0a10 f43b
00000340: dc6f d03d 6f77 9bbf f83a 7fbe 6f30 4d3e
00000350: b174 1d3e 7ad3 da3d 0d7c ad3e 0263 633c
00000360: b234 ae3e a754 013e 1990 18bd be0c 94bd
00000370: 613a a63d 73d0 893e 6ce6 66be 139c 19be
00000380: e92d 20bf 0337 453d 00ea 223e afca 98bd
00000390: 3ee3 3ebc f943 51be 93be 70bd 774b 3ebe
000003a0: 66a2 00be 8878 5b3d bd0f eb3e 7a81 3e3f
000003b0: 9b38 03be 4a8f 403e 5d37 473e c80f c7be
000003c0: cf1f 5abe 5877 41bf 7b25 df3e 3fd3 9cbd
000003d0: 9271 103e 6918 81be 9f53 053d 3a77 69bf
000003e0: b397 c53d 74e7 2fbf 456e 833d f398 87bd
000003f0: a2d3 06bf de83 cdbd 0025 edbc d980 08be
-0.99649787 -0.074852884 -0.06786457 0.0935532 -1.6489476 -0.0023726386 -0.04241828 0.36058727
0.04654035 -0.19902065 -0.054502234 2.4007154 -0.07762483 -0.33361393 -0.30004176 -0.15957355
0.21967138 0.32885206 -0.527787 -0.015863791 0.3060909 -0.112044096 0.23476821 0.027572699
-0.0058556716 -0.08383411 -0.34398752 0.61762506 0.2613048 -0.10447685 0.55029035 0.68334097
0.41315973 0.21865723 -0.29651195 -0.251457 -0.02858618 0.041643336 0.11723366 0.004617307
0.481248 0.1402098 0.19112536 0.09471601 0.074931055 -0.4118989 -0.030307848 0.14187795
-0.014430785 -0.028714318 0.37857646 -0.60958695 -0.3990982 0.25900042 0.4057194 -0.12461564
-0.002394295 0.33861345 0.12139458 0.195974 -0.07142053 -0.4930892 -0.03653351 -0.2021148
0.2620707 0.0102968775 -0.13513897 0.13332988 0.302495 -0.20161879 -0.3612998 -0.96004504
-0.17044583 0.04480433 0.14022972 0.2067222 0.108383305 0.39772817 0.05402743 -0.49231517
0.15837659 -0.11054042 -0.04693823 -0.0022605585 0.2191057 0.28510472 -0.6084059 -0.046496045
0.052668385 0.18265975 -0.095661506 0.15876159 -0.13209912 0.20758498 -0.5558294 0.6644981
0.049506024 -0.08473245 0.059465762 -0.23290911 -0.15260607 0.025038311 -0.022696637 0.23249917
0.13302046 0.38337493 -0.11829506 -1.9566245 -0.048681416 -0.13311902 -0.23463254 -0.22538804
-0.1192087 -0.23601578 0.2309516 0.2114306 0.10858401 -0.16662958 0.04376864 0.08158281
0.1883553 -0.24959964 0.12376956 0.10988545 -1.8151727 0.1110756 0.37664834 0.0362196
-0.2893208 -0.15026487 -0.5720953 0.1811102 0.04883962 0.32229504 -0.2489673 0.16050802
-0.17463581 -0.16437891 -0.26791102 -0.12325178 -0.008099923 -0.06462992 -0.45051417 0.0010465131
0.179763 -1.4670086 -0.1647641 -0.020164352 0.0012725557 0.6388953 0.08869395 -0.17776756
0.15348466 -0.14940655 0.46258095 0.5818085 0.324787 0.44743323 0.79902226 0.2128581
0.8132966 0.5220813 0.4081185 -0.041784488 -0.38654032 -0.37223688 -0.0829624 0.019455569
0.5268217 -0.031631604 0.08702249 -0.0484562 -0.061173905 -0.66697514 0.07838373 0.5345892
-0.23780373 0.06181521 0.7827038 -0.18800011 0.103278965 0.042142916 0.485928 -0.1727708
-0.12205519 0.3730699 0.005677212 0.3244559 -0.033791885 0.18806174 -0.09904459 -0.4089714
-0.13423014 -0.40416086 0.04752226 -0.17259492 0.4692114 1.9842567 -0.051321503 -1.6443313
-0.04406513 0.06145709 -0.08562455 0.019006474 -0.1140283 -0.21224745 -0.31421363 0.007448201
0.101775855 -1.2145823 -0.24924839 0.20038007 0.15376545 0.10684867 0.33883706 0.013878586
0.34024578 0.12629949 -0.037246797 -0.07228993 0.08116604 0.26916847 -0.22548836 -0.15000944
-0.62570053 0.048148166 0.15909576 -0.07460534 -0.011650858 -0.20436086 -0.058775496 -0.18583475
-0.1256195 0.053581744 0.45910445 0.74416316 -0.12814562 0.1880466 0.19454713 -0.38879228
-0.21301197 -0.7557273 0.43583283 -0.076574795 0.14105824 -0.25213936 0.03255045 -0.9119755
0.09648075 -0.68712544 0.064175166 -0.066209696 -0.52666676 -0.10034917 -0.028948307 -0.13330401
