Assets/NN/CharacterBehav 4.onnx (onnx, 268569 bytes, 9 tensors)

action_model._discrete_distribution.branches.0.bias f4 [3]
000000 58 b0 c3 ba 19 95 00 3b 98 89 2e ba
       -0.0014929874 0.001962012 -0.00066580763

action_model._discrete_distribution.branches.0.weight f4 [3, 128]
000000 49 40 2d 3c ac a8 63 bb 97 d9 ea bb 5c 58 dc 3c
       0.010574409 -0.0034737987 -0.007167052 0.026897602
000010 b7 8f 09 3a 06 d3 ad ba 31 82 89 b9 5f 30 cb bc
       0.00052475504 -0.0013261742 -0.00026227676 -0.024803339
000020 c1 db 99 39 52 64 d8 bb f7 ae cf 3a 27 ab 58 bc
       0.00029346164 -0.006603756 0.001584499 -0.0132244
000030 f0 16 86 3b 6f f4 c8 ba e5 e9 52 3c d7 d1 e3 3b
       0.00409209 -0.0015331636 0.012873148 0.006952505
000040 c6 ef 8c b9 34 0a 1d bc 14 e5 b6 3b 88 a2 cd 3b
       -0.00026881526 -0.009584952 0.0055815075 0.0062754788
000050 e0 af b9 3b 91 fd 9e bb 18 42 31 bc e3 fd 6e bb
       0.005666718 -0.004852005 -0.010818981 -0.0036467246
000060 ca ed e9 bb 26 9e 08 3c d1 59 0a 3b cc 98 ea bc
       -0.0071389424 0.008338487 0.0021110664 -0.028637312
000070 30 1e 01 bc 07 e7 08 bb 52 86 40 bc 8a 55 08 bc
       -0.007880732 -0.0020889656 -0.011750774 -0.008321175
000080 d0 19 a9 bc f3 d3 05 3c 99 71 d1 39 2d e7 88 b9
       -0.020642191 0.008168208 0.00039948223 -0.0002611218
000090 45 e0 25 ba 3d c5 af 3b d0 5e c7 bb 10 0f fc b9
       -0.0006327669 0.005364089 -0.0060843006 -0.00048076408
0000a0 d0 f7 7f bb c4 32 0d 3c 29 ea 3e bb fe 03 d5 ba
       -0.003905762 0.0086180605 -0.002913127 -0.00162518
0000b0 11 f1 75 bb ed b6 df 3a dc 11 73 3c 27 3a a8 bc
       -0.003752772 0.0017068066 0.014835801 -0.020535542
0000c0 77 72 3d 3b 32 7a ea ba d7 a7 f0 39 cd 43 97 3c
       0.0028907338 -0.00178892 0.00045901418 0.018464947
0000d0 86 2a 0e bb d4 2a 9f 3c 95 35 0a bc 21 c5 0e 3c
       -0.0021692826 0.019429602 -0.0084356265 0.008713991
0000e0 2f 5a d6 bc 40 71 1f 3c 43 36 45 bc da a4 a9 38
       -0.02616605 0.009731591 -0.012036863 8.089254e-05
0000f0 e8 74 19 3c b0 29 95 bb fb 23 8c 3c f7 89 71 bb
       0.0093662515 -0.0045520887 0.017107 -0.0036855915
000100 2b 3a 62 bc cf 04 46 bc f8 c7 06 3c 69 41 9e bb
       -0.013807814 -0.012086107 0.008226387 -0.004829575
000110 3f a2 44 bc 7e 49 50 bb bc 76 62 bb 17 cd 85 3b
       -0.012001573 -0.0031782086 -0.0034555634 0.0040832865
000120 01 43 a5 bc f4 97 ea 3a 52 d4 35 bb c5 ca 49 3c
       -0.020173552 0.0017898069 -0.002774496 0.01231641
000130 fb 8e 58 bc 7b e0 82 3b e6 44 5f bd de 0a 3f 3a
       -0.013217683 0.0039940453 -0.054509066 0.0007287691
000140 89 4e 8a bc 18 df d0 bb 10 c6 7e 3c 03 f3 c6 3b
       -0.016883152 -0.006374251 0.0155501515 0.0060714497
000150 1a d2 d7 bb 8d 8c 2f 3c 31 80 2e bb 8b f9 01 3c
       -0.0065863254 0.010714662 -0.00266267 0.007933031
000160 ca ae d0 3b 8d f2 a9 bb fe 0b d7 3c ff ea a5 bc
       0.0063684927 -0.005186385 0.026250836 -0.020253656
000170 d1 6f 10 bc 87 a6 b3 3c db 35 39 bb 7e c4 7f 3c
       -0.008815722 0.021929992 -0.002826086 0.015610812
000180 a2 f1 59 3c 21 9b cf 3a ea 59 3c bc ce b4 8c ba
       0.013302239 0.0015839079 -0.011496047 -0.0010735036
000190 8a 25 ad 3b 0c 77 8d bc 3d 5d 13 bc b0 6b 01 bc
       0.005284016 -0.01726868 -0.008994398 -0.00789921
0001a0 d7 7d 5a 3b 46 0a 5c 3c 31 f4 da 3b b3 d6 db bc
       0.0033339167 0.013430184 0.006681942 -0.026835775
0001b0 84 14 c5 bb dc d1 15 3c 02 f5 0e bc be fa da ba
       -0.0060144085 0.009144273 -0.008725407 -0.0016706807
0001c0 21 c4 04 bc f7 94 18 3c 59 5b 4b 3c ee 49 58 3b
       -0.008103401 0.00931286 0.012411916 0.003300305
0001d0 95 7e a4 ba 71 d5 91 bb 21 e5 a7 b9 93 9d 07 3c
       -0.0012549931 -0.004450493 -0.00032023437 0.008277315
0001e0 99 38 20 bc 95 68 70 bc f3 25 84 bc 5d b9 a5 bb
       -0.009779119 -0.014673372 -0.016131377 -0.0050574974
0001f0 4a e5 09 3c 2e ef 48 3c fb 3c 28 bc b6 b5 ee 3b
       0.008416483 0.012264056 -0.010268445 0.007284845
000200 95 2b 4b bc ee 00 a5 bb 54 91 cb 3a f7 81 ad bb
       -0.0124005275 -0.005035511 0.0015530982 -0.005295034
000210 fb 05 c2 bb 0c b8 25 3c d1 42 ef bc 82 98 30 3d
       -0.005921123 0.010114681 -0.029206665 0.043114193
000220 69 4b f8 3b 5e b0 c4 3b 45 8a 38 bb 54 e6 21 3c
       0.007577349 0.00600247 -0.0028158587 0.009881575
000230 d2 d3 87 bc 60 65 0d 3d 59 da 42 3a a5 e5 f6 b9
       -0.016580496 0.034520507 0.0007433049 -0.00047091875
000240 2f b9 88 3b 2a 26 ef 3b 01 a3 aa bc 26 57 55 3b
       0.004172466 0.0072982507 -0.02082968 0.0032553165
000250 d5 1b 69 bb c8 e7 28 3c 4f b6 d9 ba 47 36 42 bc
       -0.0035569568 0.010309167 -0.0016610118 -0.011853761
000260 2c 47 4b 3c 98 f0 62 bc 35 ee fe 3b 4e 0e 1a 3c
       0.012407105 -0.013851307 0.0077798613 0.009402825
000270 81 ca 72 bc 53 fe 27 39 90 25 69 3b d4 6b 09 bc
       -0.0148187885 0.00016021104 0.0035575368 -0.008387525
000280 76 3c 8a 3c 7a d6 78 b9 56 09 c6 3b 47 32 5d 3c
       0.016874533 -0.00023731022 0.0060435934 0.013500757
000290 92 d7 c2 3b e0 d9 d5 3b d0 89 86 3b a9 bf 0b 3b
       0.005946108 0.006526217 0.004105784 0.0021323955
0002a0 5f b7 0c bc 92 70 6a 3c c0 8a c8 3a d1 a3 7e ba
       -0.008588641 0.014309065 0.001530014 -0.00097137416
0002b0 78 2b 2c 3c 91 c5 11 3a cd 17 03 bc 7a a1 c0 3c
       0.010508411 0.0005560751 -0.00800128 0.023514498
0002c0 f7 d5 5e 3c 48 0a 90 3b 68 0a be ba e2 5b f9 bb
       0.013600818 0.004395757 -0.0014498951 -0.0076098302
0002d0 aa 00 c2 3b 01 e1 ad 3c aa 25 d5 3c 4e 29 5d 3a
       0.0059204893 0.021225454 0.026018936 0.0008436636
0002e0 a2 39 d6 3c 10 b9 83 3c 64 d5 1b ba 5a 7c 84 3c
       0.026150528 0.016079456 -0.00059445784 0.016172577
0002f0 c1 e9 b2 bc c1 9d 66 bb d0 5b c3 ba 5f 0e 7c 3b
       -0.021839978 -0.0035189243 -0.0014904682 0.0038460714
000300 18 04 a1 ba d8 b3 81 3c aa 89 11 bd 94 47 8f b8
       -0.0012284545 0.015832826 -0.035531677 -6.832104e-05
000310 38 e0 bd 3b 0d 60 c7 3b ca fe 33 3c 10 4c d3 3b
       0.005794551 0.006084448 0.010986039 0.0064482763
000320 77 40 bc 3c ba f6 87 3b 1b b1 9b 3c 56 1f a7 3b
       0.022979958 0.004149285 0.019005349 0.005100171
000330 7e ba a6 bb d9 62 8e ba b1 5f 8a 3b 73 a9 7b b9
       -0.0050881496 -0.0010863199 0.004222833 -0.0002400035
000340 ee 47 d5 3c 83 0a 82 bc 05 f6 90 ba 80 3e cc 3b
       0.026035275 -0.015874153 -0.0011059648 0.0062330365
000350 e6 d2 13 3c 28 dc 94 3a 73 8a 97 3a 74 44 1b bc
       0.00902245 0.0011357116 0.0011561647 -0.00947677
000360 82 4d c6 bb 56 82 dc bb 96 d0 f4 bc 21 a2 07 3c
       -0.00605172 -0.0067294044 -0.029884618 0.008278401
000370 ff 17 9c 3b d0 1f f0 bb 96 5c c9 3b 5a f2 7d bc
       0.0047636027 -0.007328011 0.0061450703 -0.015499676
000380 a5 99 7b 3c b8 2f fa 3b 8d ff 01 3c c2 e9 79 3a
       0.015356456 0.007635083 0.007934463 0.0009533429
000390 48 3b c1 bb 03 20 bb ba e5 0e b0 bb 80 96 f3 39
       -0.0058969595 -0.0014276508 -0.0053728693 0.00046460703
0003a0 a5 3e 18 bc e6 c3 22 3c 0c 21 8d 3a f8 46 83 3c
       -0.009292279 0.009934401 0.0010767295 0.016025051
0003b0 c3 7a 68 3b 7a e3 ce bb 84 60 2d 3c 38 68 ba bc
       0.0035473562 -0.0063137384 0.010582093 -0.022754773
0003c0 4e 49 80 39 9b 54 a4 ba 1e 5c 52 3b 32 2f 89 3b
       0.0002446868 -0.0012537421 0.0032098363 0.0041865343
0003d0 56 f9 42 3c 82 48 61 3b b3 cf 06 bb 3a 90 cd 3c
       0.011900267 0.0034375493 -0.0020570576 0.025093187
0003e0 09 e2 fe 3b 54 2d 54 3b 80 84 e4 3b 6e 5d b3 bb
       0.0077784103 0.003237565 0.006973803 -0.005473784
0003f0 3b ef 2a 3c 63 9b bf bc 84 00 98 3b 15 07 c8 bb
       0.010433014 -0.023389524 0.0046387333 -0.00610436

action_model._discrete_distribution.branches.1.bias f4 [3]
000000 e8 d3 b3 bb 2a 17 06 3c 9b 73 98 bb
       -0.0054879077 0.008184234 -0.004652453

action_model._discrete_distribution.branches.1.weight f4 [3, 128]
000000 f5 24 31 3c e5 b6 16 3c e9 20 61 3a 4f 0d 11 bd
       0.010812034 0.009198879 0.0008587973 -0.035413083
000010 6f b0 e5 bb 2a 06 80 3b ef 10 3b bc f4 63 3b 3c
       -0.007009558 0.003906985 -0.0114176115 0.011437405
000020 c7 dd 15 bc 70 9e 3a 3c 49 c7 bb 3b 33 cf 9b bc
       -0.009147114 0.0113903135 0.0057305438 -0.019019699
000030 e6 d3 88 bc cf 78 34 bb 2e 97 f1 bc ec 07 25 bb
       -0.016702604 -0.0027537828 -0.029491033 -0.0025181724
000040 ae 19 b5 bb d8 59 cc bc 44 9e 2c 3d fb 8b 1d bc
       -0.005526743 -0.024945185 0.04214312 -0.0096158935
000050 d1 bc 24 bb 9c a5 6f 3c ad a2 65 3b c5 35 1a 3c
       -0.0025136957 0.014626887 0.003503959 0.009412234
000060 80 6b 92 3a 5a 8d 17 bb b0 ae c6 ba a5 3c a8 3c
       0.0011170954 -0.0023125024 -0.0015158262 0.02053673
000070 39 53 1e bc 5a a6 a1 3b dc fb 37 bc 7a ee c7 bc
       -0.0096633965 0.0049331607 -0.011229482 -0.024405707
000080 86 8e 30 3c fc 24 15 3d 57 81 d8 3a 40 be c1 bc
       0.010776168 0.036412224 0.0016518038 -0.023650289
000090 80 1a 94 bb 86 ea c2 bc b1 b7 1d 3a 25 36 47 3b
       -0.0045197606 -0.02379347 0.0006016447 0.0030397263
0000a0 31 36 38 bc 91 23 ea ba 2d 75 ac 3b 16 ef 5a ba
       -0.011243389 -0.0017863383 0.005262992 -0.00083516666
0000b0 b5 13 3f bb 33 02 cf 3b 29 e8 45 bc d1 36 aa bc
       -0.0029156033 0.006317401 -0.012079277 -0.020778092
0000c0 25 0b ad bc da 7b 0e 3c 7c 0e 97 3c 28 6d 1e bc
       -0.021123478 0.008696521 0.018439524 -0.00966958
0000d0 13 03 17 bc da e7 25 ba aa e5 7e 3b f1 62 98 bb
       -0.009217042 -0.0006328799 0.0038894215 -0.0046504666
0000e0 72 49 13 3d 20 a6 6d bc 9b 4c b2 bc 43 34 3c 3b
       0.035958715 -0.014504939 -0.021765044 0.0028717674
0000f0 78 d2 1b bc ab 6d 69 bc 4b 51 93 bc 06 7a 1e bc
       -0.009510629 -0.014247338 -0.0179831 -0.009672647
000100 62 82 b1 bb b6 cb 8d bc 3b c4 db 3b c6 a7 17 3c
       -0.005417154 -0.017309051 0.006706742 0.009256309
000110 2b d2 55 3c 8d 6f e9 bb a5 ab 7b bb 1b 64 3c 3b
       0.013050596 -0.0071238936 -0.0038401869 0.002874619
000120 de db 59 3c cb ee a7 bb fd c9 79 bc ed 9d 17 3c
       0.013297049 -0.005124902 -0.015245912 0.009253961
000130 85 2f e6 3a 59 34 b8 bb 2d 44 b0 3c 75 f8 35 bc
       0.0017561769 -0.0056214747 0.021516884 -0.0111066
000140 5a 05 0d bc 67 3d b9 bb 6b 73 d3 39 7c 11 4d 3c
       -0.008607233 -0.0056530717 0.0004033105 0.012516376
000150 92 fa 2e 39 6b 78 09 bc 8a ec c3 3b ff 86 83 3c
       0.00016687278 -0.008390526 0.0059791254 0.016055582
000160 ad d3 4f b8 9c f6 9b bb 87 4d 86 bc 8b a3 6f 3c
       -4.9549784e-05 -0.0047596227 -0.01639439 0.014626394
000170 62 cb 8d 3c 58 aa 13 bd 4e 44 ef bb 8d 81 93 bc
       0.017308895 -0.036051124 -0.0073018437 -0.01800611
000180 90 fb 26 bc 37 fe 02 3c 8e d2 60 3a 20 72 8e bb
       -0.010191813 0.00799518 0.0008576297 -0.004347101
000190 c7 c7 ae 3a b6 97 17 ba 45 e9 e4 bb d6 ed a5 3a
       0.0013334685 -0.00057827996 -0.0069858157 0.0012659382
0001a0 a7 9e 8b bc 57 50 84 3b c1 7f 2d bc 4e 19 ab 3c
       -0.017043425 0.0040378976 -0.010589541 0.02088609
0001b0 f4 fb 1b bc 75 35 ce bb a8 d6 89 bc dc a6 73 3b
       -0.0095205195 -0.0062929937 -0.016825989 0.0037178313
0001c0 c6 af 49 3b 07 32 43 bc ea 46 fb bb 86 bc 3e 3c
       0.0030774935 -0.011913783 -0.0076683657 0.011641627
0001d0 6f 48 57 bc 96 c4 25 3c 4b 06 06 3c ce 7d 33 bc
       -0.013139828 0.0101176705 0.008180211 -0.010955287
0001e0 a2 e6 97 bc cf 30 31 ba d1 1a 9a ba 44 ed 04 39
       -0.018542591 -0.0006759287 -0.001175726 0.0001267689
0001f0 03 1a 12 3b c1 81 6c 3c 1d 7b 9f 3b 6c 86 e0 bc
       0.0022293336 0.014435233 0.004866971 -0.027407847
000200 25 43 e0 3b d1 84 be b9 86 17 34 3c e6 c0 b9 3c
       0.0068439418 -0.0003633858 0.010991937 0.022674989
000210 e8 1a 87 3c 55 c7 a5 3c d3 47 03 3c 81 f4 a6 bb
       0.016492322 0.02023665 0.00801273 -0.005095065
000220 6d 91 8c bc 8e c9 a3 3c ad d4 b1 3b a2 fa ae 3c
       -0.017159188 0.01999357 0.0054269643 0.021359745
000230 0a da 48 3c 9f f8 cc 3c 1e 2c 5b 3c 1b ac 94 3b
       0.012259016 0.025020896 0.013377218 0.004537118
000240 7a 20 9f 3b 21 04 0e bc f8 32 47 bc 30 3a 71 3c
       0.0048561664 -0.008667977 -0.012158148 0.014723346
000250 34 98 bc bb 11 f4 32 3c 85 39 81 bb e0 83 7d bc
       -0.0057554487 0.010922448 -0.0039436244 -0.015473336
000260 68 1a 29 3c eb cd ff 3a 08 dc 24 3a a9 92 0b bb
       0.010321237 0.0019516324 0.0006288891 -0.0021297133
000270 45 32 e8 3b e7 56 81 3b 16 b8 b2 3b 47 b7 07 3c
       0.0070860707 0.003947127 0.0054540737 0.008283443
000280 8a be 5f bc ac 1f 01 bd 11 cd 92 3c ba 88 2a bc
       -0.013656268 -0.031524345 0.017920049 -0.010408575
000290 19 58 40 3c 74 d9 c9 3b 68 f2 dd bb 71 ad 26 3c
       0.011739754 0.0061599556 -0.006773282 0.010173188
0002a0 27 df e2 3b b3 e3 b4 38 d5 a2 7f 3c 5e d4 66 3c
       0.0069235745 8.625481e-05 0.015602787 0.014088718
0002b0 99 e8 4b 3c 78 24 f6 bc 20 e5 f5 3b fc bc c4 3c
       0.012445592 -0.030046687 0.0075041205 0.024015896
0002c0 da 55 99 3c 9d d7 9d 3b 20 91 3d 3a 82 ec c2 bb
       0.018717695 0.004816963 0.0007231403 -0.005948604
0002d0 84 1f 97 3b 16 c6 a9 3b c4 e3 63 3a fd 0f 17 3b
       0.0046119113 0.0051810844 0.00086933025 0.0023050301
0002e0 6b d2 cc bc ec 36 81 bc da 0b 62 3c 2e f2 93 3b
       -0.025002679 -0.01577326 0.013796771 0.004514954
0002f0 34 69 a6 3a 3c 5a 86 3a 1c 2b 13 3c f8 ce 7b 3c
       0.0012696148 0.0010250281 0.008982446 0.015369169
000300 fb 06 1a 3c 36 85 08 3b 8d 81 1f 3c e0 5e f7 3b
       0.009401078 0.0020831353 0.009735477 0.007549152
000310 d3 f4 09 3c 41 cf bd ba 31 46 95 b9 82 49 6e ba
       0.008420187 -0.0014481322 -0.0002847179 -0.0009089933
000320 61 97 03 bd 9c 99 98 bb 92 a9 2e 3a 46 17 81 bb
       -0.032126788 -0.0046569835 0.0006662841 -0.003939542
000330 5b 95 63 bc 26 22 dd bb 5c 69 37 bc b3 6f e9 ba
       -0.01389059 -0.0067484556 -0.011194553 -0.0017809778
000340 88 0b d7 3b 57 9d 8f bb 2d 49 24 3c 0a 53 08 3c
       0.006562654 -0.00438277 0.010027212 0.008320579
000350 49 1a ff 3b 68 f7 89 3b 6c 8b dc 3b 51 ad 21 bc
       0.007785116 0.0042104013 0.0067304876 -0.009867982
000360 88 b1 c0 3a f4 5a 13 3c e4 fc d1 3a 6e 3e 3c 3c
       0.0014701346 0.008993853 0.0016020802 0.011489494
000370 bd a3 d8 bc 00 69 75 bb 84 55 05 bc fa 00 91 3c
       -0.026445264 -0.0037446618 -0.008138064 0.017700661
000380 e3 1f aa bb 9e c0 94 3b a8 dc 2e bb 97 d8 24 bc
       -0.0051917895 0.0045395633 -0.0026681814 -0.010061405
000390 7d 8a 89 bc da 9d 62 bc 13 5f fe ba 68 5c 93 3b
       -0.01678967 -0.01383158 -0.0019406996 0.0044970997
0003a0 e4 ce 46 ba 72 9e 1c ba b3 fe 8c 3c 86 f0 cc bc
       -0.00075839297 -0.0005974538 0.017211294 -0.025017034
0003b0 34 4d b6 3c ef cf 5b bc 1d f8 65 3b be 5a cf ba
       0.02225361 -0.013416274 0.0035090514 -0.001581989
0003c0 02 64 e5 3a 4d 3c c7 38 0e a3 0d bc fd 40 da 3b
       0.0017501118 9.500291e-05 -0.008644832 0.0066605792
0003d0 99 49 34 bb a4 5d 72 3c 62 e8 a5 3b 20 5c 5b 3c
       -0.0027509688 0.0147928335 0.0050631026 0.0133886635
0003e0 e3 bd d4 3b 06 b5 4c 3a fa fa a5 3c 0d de 5c bb
       0.006492363 0.0007808957 0.020261277 -0.0033701689
0003f0 0e a7 de ba 67 48 7f 38 18 61 2a 3c 43 3b b0 bc
       -0.0016987042 6.0864168e-05 0.0103991255 -0.021512633

discrete_action_output_shape f4 [1, 2]
000000 00 00 40 40 00 00 40 40
       3.0 3.0

network_body._body_endoder.seq_layers.0.bias f4 [128]
000000 bc c4 df bb 54 87 d0 3b f2 4c f5 bb b9 fc 0e bb
       -0.0068288725 0.0063637886 -0.0074859792 -0.0021818115
000010 c4 19 01 3c 1d 76 9d bb 1f 2b 1f bb 14 8a 50 bb
       0.007879678 -0.00480534 -0.0024287177 -0.0031820582
000020 d4 5c 15 bc 33 49 d8 bb 64 96 c7 bb c0 57 31 ba
       -0.00911637 -0.006600523 -0.006090926 -0.000676509
000030 3f fd 74 bc 2a 6c 59 3a 84 f3 15 bb cc 51 84 ba
       -0.014952957 0.0008294011 -0.0022880742 -0.0010095178
000040 62 7c c5 ba 0e bc 3f bc 17 93 bf 3c 18 1a 08 bc
       -0.0015066976 -0.011702551 0.023385568 -0.0083070025
000050 31 b6 00 bc cf 48 bc bb 06 9d 07 bb 5d f4 0a 3a
       -0.007855938 -0.005745984 -0.0020692958 0.0005300695
000060 11 1d 58 3c f2 ea 89 3c 03 bc a7 bb 3d f2 2b 3b
       0.013190524 0.016835663 -0.0051188483 0.0026236915
000070 1c d6 0d bc e8 e5 85 3c fa 82 47 3c 39 1c 22 ba
       -0.008657005 0.01634498 0.012177223 -0.0006184015
000080 f0 86 08 bc 4b 9a 97 bb 13 0a f0 bb 8c 8a bd 3b
       -0.008332953 -0.0046265475 -0.0073254197 0.0057843383
000090 6d 8e 00 bc da 2e b8 ba d7 31 d0 b9 30 77 81 bb
       -0.007846457 -0.0014052049 -0.00039709985 -0.003950976
0000a0 06 a8 7e 3c c3 9a 12 3c 24 7f 85 3b 72 4e b8 bb
       0.01554299 0.008948031 0.0040739942 -0.005624586
0000b0 bc 72 f1 3b c0 37 03 bb 72 e5 96 bb 5b 3a 46 3c
       0.0073684137 -0.0020022243 -0.0046049887 0.012098874
0000c0 0b ca 59 bc 5d 0d 1f 3c a8 82 34 3b 2b 28 5c bb
       -0.0132928 0.009707776 0.0027543698 -0.0033593278
0000d0 19 1c a0 bb cc 1b 4c bb 1a b4 83 bb c3 87 72 bc
       -0.004886162 -0.0031144498 -0.0040192725 -0.014802876
0000e0 95 4c c0 39 d7 0f 0d bc 15 68 12 bc d0 0c 6b bb
       0.00036678152 -0.008609734 -0.008935948 -0.003586579
0000f0 a4 86 41 3c fb 19 c1 36 32 f4 9e 3b 17 a0 b0 bb
       0.011811886 5.7548727e-06 0.0048508877 -0.005390178
000100 7c dc 83 3b 13 b3 f7 bb 12 fd 6c 3a 5d 18 9d bb
       0.0040240865 -0.007559189 0.0009040396 -0.004794164
000110 b8 9e 95 bb ff ce 81 bc 88 ea 73 3b 51 c6 13 bb
       -0.00456604 -0.015845774 0.003721865 -0.0022548626
000120 28 0b c6 bb ce 22 8d bc d4 ea 61 ba e9 00 b7 39
       -0.0060438104 -0.01722851 -0.0008618061 0.00034905158
000130 a2 a9 25 bb 87 cb 14 3b 19 b3 f9 bb ff 6a 57 bc
       -0.002527811 0.002270432 -0.007620227 -0.013148068
000140 65 34 0d 37 3e 7e a2 ba 29 a0 29 bc 6a ef 5e bc
       8.416454e-06 -0.0012397242 -0.010353127 -0.013606885
000150 cf ac 15 3c 78 93 be bb 0b 44 04 bc 4b a0 a1 3c
       0.009135439 -0.0058159195 -0.008072863 0.019729754
000160 fa ac 05 3c e8 32 59 bc ed ad 27 bc ce ac d1 b9
       0.008158917 -0.013256766 -0.010234338 -0.00039992336
000170 57 0e 46 bb 0c 3c e9 3c 49 27 81 bb ae 5d 2e bc
       -0.003022095 0.028471015 -0.0039414507 -0.010642452
000180 76 3c d8 3a 98 21 43 3b 11 c1 18 bc b3 94 ae 3c
       0.0016497511 0.0029774662 -0.009323374 0.02131114
000190 6a 95 11 3b 80 25 f9 bb 41 fc 10 bc 62 1e be bb
       0.0022214302 -0.0076033473 -0.0088492045 -0.0058019618
0001a0 63 04 88 3b 13 8a fe 39 4e 67 dd bb 84 a2 19 bb
       0.0041509136 0.0004854953 -0.0067566996 -0.0023442814
0001b0 f0 ae 2a bc c2 1b 6c bc 70 b8 f3 bb 7c 18 73 bc
       -0.010417685 -0.014410915 -0.007437758 -0.0148373805
0001c0 61 98 1f bc 9e 42 80 bb db 3e 27 bb cc 88 01 bc
       -0.00974092 -0.0039141914 -0.0025519643 -0.00790615
0001d0 9a 34 47 bc 13 e7 1d bb 50 83 f5 39 95 b6 d9 bb
       -0.012158537 -0.002409403 0.00046827877 -0.00664408
0001e0 5a b5 48 bc 6e 9c 3e bc 15 17 e4 3b 2b b0 13 bc
       -0.012250269 -0.011633975 0.0069607594 -0.00901417
0001f0 2f 23 51 3b 4b 9d fa 3b 06 e3 02 bb 9a d3 32 bb
       0.003191184 0.0076481453 -0.0019971742 -0.002728677

network_body._body_endoder.seq_layers.0.weight f4 [128, 383]
000000 19 4d d2 bc 54 95 5a bd 53 40 2c 3d 6e 72 d7 bc
       -0.025671529 -0.053365067 0.04205353 -0.026299682
000010 9e 6e 02 3c 40 a3 16 bd 0b 79 a5 3c 95 c6 19 3d
       0.0079609435 -0.03677678 0.02019932 0.0375429
000020 01 54 57 3c b4 dc b4 3c 72 a0 95 3a 05 e0 77 bd
       0.013142587 0.022077896 0.0011415614 -0.060516376
000030 9e 88 a4 ba 97 e2 eb 3d 6e 4b fd bc 51 ca fe bb
       -0.0012552922 0.11517828 -0.030919757 -0.007775583
000040 3c 61 8e 3d 06 53 69 bd 3f a0 56 3d e3 4d ed 3a
       0.0695214 -0.056963943 0.052398916 0.0018104877
000050 17 7a dc 3b 2d f2 62 bd f4 39 54 bc 1b c3 01 bd
       0.0067284214 -0.055406738 -0.01295327 -0.031680208
000060 5f 6c 68 3b c9 2c 1a 3c 74 17 b1 3c ca ee 4b 3d
       0.0035464985 0.009410092 0.021617629 0.049788274
000070 46 81 1f 3d 5d 2c 9d 3d 9b d7 02 ba f5 1a 2c 3c
       0.038941644 0.07674477 -0.0004991234 0.010504474
000080 c2 7d d6 3b 98 fb 5b bd 66 87 ae 3c 0b 54 3a 3c
       0.006545753 -0.053706735 0.021304797 0.0113725765
000090 28 0e 4b 3d e5 90 e6 bc 53 08 b8 3d 0c f0 a9 bc
       0.049574047 -0.028145263 0.08985963 -0.020744346
0000a0 23 d3 37 bd 89 0a 51 ba b0 50 df bd dc fe 6c bc
       -0.04487909 -0.0007974287 -0.10904062 -0.01446506
0000b0 29 c2 b5 3c f5 55 f8 3b 1c 84 c3 bc 8f 53 e2 bd
       0.02218731 0.0075786063 -0.023866706 -0.11051094
0000c0 ee e0 ec 3c 8d dd b4 bc 42 79 27 3d cf 84 6b 3c
       0.028915849 -0.0220783 0.040887125 0.014374926
0000d0 44 9d 71 3b c2 41 2e bc 14 69 23 3d 95 16 2f bd
       0.003686742 -0.010635795 0.039895132 -0.042746145
0000e0 80 73 b8 bc 30 ce 8a 3d 9b 6d 0c 3d 54 ba 39 bd
       -0.022516012 0.067776084 0.034284215 -0.045343712
0000f0 6e 3f 9e bc 31 0a 27 bc 8a cf 9a bd 18 f7 99 3d
       -0.019317355 -0.010195301 -0.07559116 0.075178325
000100 a0 37 83 3d e2 0b 52 3d 65 d6 2d bd f2 f9 46 3d
       0.06407094 0.051280864 -0.04244079 0.04857821
000110 2e f0 d1 bd 66 27 3b bd c4 34 a7 3c d9 0e 7d 3d
       -0.10250889 -0.04569187 0.020410903 0.061781738
000120 b1 5e be bc 32 8c a7 bb c1 1f a8 3c dc 04 bc bc
       -0.023238512 -0.005113148 0.020522954 -0.022951536
000130 a4 90 80 3c 36 af c5 bc 77 f1 5e 3c 24 d6 f8 bc
       0.01569397 -0.024131399 0.013607374 -0.030375548
000140 f4 8d b1 bd e1 5b d2 bc a7 87 9d bb d3 2a a7 bd
       -0.086696535 -0.025678577 -0.004807431 -0.08162465
000150 58 14 f7 3c 6e af a9 bc 21 ef eb 3d 50 3c 81 bd
       0.030161068 -0.020713534 0.115202196 -0.06310332
000160 f8 74 95 3c 9a d3 99 3c 72 42 1c 3d fa 1b 31 bd
       0.018244252 0.018777657 0.038149305 -0.04323957
000170 93 cc 41 3d 52 32 84 bd ba 7a 9e 3c a0 8d ea 3c
       0.047314238 -0.0645491 0.01934563 0.028631985
000180 35 58 bc bd 3a 1b 5f bd e5 d7 33 3b cb 20 d9 3d
       -0.09196512 -0.054469325 0.0027441916 0.10601958
000190 32 5f 61 bd 2b a6 8b 3c 0e da 31 bd 84 ee c3 3d
       -0.055022426 0.017047008 -0.043420844 0.095669776
0001a0 96 4a 89 bc ff 01 41 bd 9c 1d 39 bd 85 4a 09 bd
       -0.016759198 -0.047121044 -0.045194253 -0.033518333
0001b0 ba a0 bd bd 10 88 84 bb 77 78 54 3c 77 07 b7 3b
       -0.09259172 -0.00404454 0.012968174 0.0055856067
0001c0 42 76 c4 bc cd eb 86 bd 21 87 1b 3d c9 57 21 bd
       -0.023982171 -0.06587944 0.037970666 -0.03939036
0001d0 4e 51 44 bc 8b 4c b2 3c 5d ee 10 bd 24 79 e5 bd
       -0.011982275 0.021765014 -0.03538357 -0.11204746
0001e0 ba e9 0c 3b f9 2c a3 3d e2 4c 81 3c 6a b5 83 bc
       0.0021501617 0.07967562 0.01578373 -0.016077716
0001f0 36 d6 25 bd f8 59 6f 3b 02 bf 89 3a 13 fb a2 bd
       -0.04048749 0.0036522131 0.0010509195 -0.07958045
000200 02 75 a5 bc ac 8e ec 3c f7 de 51 bc c3 89 41 ba
       -0.020197395 0.028876625 -0.012809507 -0.0007382894
000210 35 ac 67 bc c7 bb 62 3d c2 79 87 bd 17 e5 12 3c
       -0.014140178 0.05535486 -0.0661502 0.008965752
000220 db 8a c0 3c 1d ca 5f bd ef bd 09 bd 7a 66 00 3d
       0.023503711 -0.05463611 -0.0336284 0.03134773
000230 49 47 ac 3d 0d 39 38 3c a3 28 65 bd 61 e1 84 3c
       0.08412034 0.011244071 -0.055946957 0.01622075
000240 4e f5 db bc ac e6 d7 3c 44 83 e4 bb a6 b9 e7 3c
       -0.026850369 0.02635511 -0.006973656 0.028286766
000250 cf 25 0c 3d 6b 96 a5 3c 03 f3 a9 3d 13 72 c6 bb
       0.034215745 0.020213326 0.08298304 -0.006056079
000260 82 a0 e0 3c f7 38 bc bc 65 9c 80 bc 2d 71 9b bc
       0.027420286 -0.022976382 -0.015699575 -0.018974865
000270 54 ab c3 bc 06 ba 5f bd 9e d4 b1 3d f9 f4 ab 3d
       -0.023885407 -0.054620765 0.08683132 0.08396334
000280 ef 8a 8e 3d 6e 04 3b 3d 29 60 1e 3d 8a cf 11 3c
       0.06960093 0.04565852 0.038665924 0.008899579
000290 7b 31 b0 bd 76 d1 a2 bd 58 61 08 bc a7 02 14 bc
       -0.08603188 -0.07950108 -0.00832399 -0.0090338355
0002a0 0f db df 3c 0b 46 02 bd 38 90 16 3a 53 81 a6 3c
       0.027326135 -0.03180508 0.0005743536 0.020325338
0002b0 3d 16 27 bd 22 48 a7 bb 60 46 8c bd 97 48 ca bd
       -0.040792692 -0.0051050344 -0.068493605 -0.09877127
0002c0 69 4f 71 3d 88 4f bb 3c f2 55 79 bd d9 28 52 bd
       0.058913622 0.022865072 -0.06087298 -0.051308487
0002d0 c0 6b 15 be 51 6d 7f 3d 92 37 90 3d a0 f2 59 bd
       -0.14591885 0.06236011 0.07041849 -0.0532099
0002e0 d0 e7 60 bd e1 c9 57 bc 4d 6c 59 3c 34 ce 2a bd
       -0.054908574 -0.01317069 0.01327045 -0.041700557
0002f0 2d 0d 14 bd fb ca df bb 0d c3 a3 bc c5 ca 09 be
       -0.036145378 -0.006829617 -0.019990468 -0.13456257
000300 a8 57 05 3c 01 fa e1 bb fe 99 d2 3d d0 12 71 3d
       0.008138575 -0.006896258 0.10283278 0.05885583
000310 1f 7d 7d 3c df 12 6f 3d b2 4e 8b bd 4f 6c e6 bd
       0.015471726 0.058367606 -0.06802119 -0.11251127
000320 80 3e b5 3b 77 0d 86 bc b9 62 92 bd e7 fb 41 bb
       0.005531132 -0.016363842 -0.07147736 -0.0029599608
000330 cc a9 05 bd 13 8a 57 3d 26 42 49 3d e1 67 c5 bd
       -0.032632634 0.052621912 0.04913535 -0.09638954
000340 56 09 cf 3b 2d d5 b3 3c 45 51 38 3d ba 6a d4 3c
       0.0063182516 0.021952236 0.04499938 0.025929797
000350 ba 46 b8 3c c0 dc 20 3d c0 3b 70 3d cc a2 36 3d
       0.022494663 0.039273024 0.058650732 0.04458885
000360 ff 9c a7 bd 88 30 8f 3d 61 51 71 bc ef 59 d5 bc
       -0.081842415 0.069916785 -0.014728875 -0.02604386
000370 98 19 73 bd 6f c1 1e 3d b2 c2 13 bd 82 b1 70 3d
       -0.05935058 0.03875869 -0.036074348 0.058763035
000380 49 be dc bd 3d cf a8 3a 58 2d 43 bd 64 d8 3e bd
       -0.107784815 0.0012879145 -0.047650665 -0.046593085
000390 78 00 0d 3a 50 71 82 3d 5f 61 8e 3d 81 db cf 3c
       0.0005378793 0.06369269 0.06952166 0.025373222
0003a0 7e 5e ac 3c 4a f5 ea bb c9 1f a0 3b 5a 85 50 3d
       0.021041151 -0.007170354 0.0048866016 0.050908424
0003b0 89 4e 7f bc aa b1 cc bc e0 21 62 bd 6f 8c 75 bd
       -0.015582689 -0.02498706 -0.055208087 -0.05994838
0003c0 1d 1b 35 bd 0f ea e9 3d e9 4f f4 3b 93 80 1b bd
       -0.04421531 0.11421596 0.007455815 -0.037964415
0003d0 ec f3 51 3c ae 6d c2 3b 15 66 95 3d 5d 20 69 3d
       0.012814503 0.005933485 0.07294861 0.05691563
0003e0 0e 4a 11 3e 69 05 bf 3d 94 3c 28 3d f3 cc b6 bc
       0.14188406 0.09327204 0.041073397 -0.022314524
0003f0 b2 76 80 bd ad b6 1b 3c 9d 7a 57 bc 1f 0c a4 3c
       -0.06272639 0.0095040025 -0.013151792 0.020025311

network_body._body_endoder.seq_layers.2.bias f4 [128]
000000 73 70 8b bb 70 ef c2 bb cb 51 00 bc cc 82 56 3c
       -0.0042553484 -0.0059489533 -0.007832001 0.013092708
000010 16 92 d6 ba ac bf 9c bb 96 86 06 3b 61 d3 01 3d
       -0.0016370441 -0.0047835913 0.0020526997 0.031695727
000020 00 2d 1e bc 6c ab 4a bb b4 75 17 bc aa 89 32 3b
       -0.0096542835 -0.003092493 -0.009244371 0.0027242699
000030 e7 ae 29 3b 8b a6 20 3c 7a 5a 8f bb 12 4f 00 bc
       0.0025891603 0.009805332 -0.0043747993 -0.007831352
000040 4c e7 98 bb be 85 bc bb 4d 75 98 3b ed 93 4e 3c
       -0.0046662446 -0.005753248 0.004652655 0.01260851
000050 90 d5 df bb 74 52 75 3c e6 bc 74 bc 4c 9e 43 bc
       -0.0068308786 0.014973272 -0.014937615 -0.011939596
000060 46 d6 0d bb fb d8 75 bb f9 bc 94 bb 1d b7 97 bb
       -0.002164261 -0.0037513364 -0.004539129 -0.004629983
000070 9c f4 0a bc 75 87 53 bc 04 fb 94 bb 08 d1 ad 38
       -0.008481171 -0.012910713 -0.004546525 8.288218e-05
000080 af c4 36 bb 82 e9 12 3c 78 c2 52 bc 3a 80 be bb
       -0.0027888229 0.008966805 -0.012863748 -0.0058136256
000090 f3 94 55 3a 68 8f cb 3a 54 06 1d bc e4 be 3c bc
       0.00081475003 0.0015530409 -0.009584028 -0.011520121
0000a0 13 c4 bb bb cd 63 fc bb fa c3 38 3b 53 37 52 ba
       -0.005730161 -0.007702327 0.0028192983 -0.0008019108
0000b0 71 a9 17 bb f1 8c f5 ba 21 7d 79 3a 30 59 85 3b
       -0.0023141766 -0.001873402 0.0009517242 0.00406947
0000c0 9b 2c 7a bb 3e 98 db bb 22 7d 1c bc 56 52 ee bb
       -0.003817356 -0.0067014983 -0.009551318 -0.007272999
0000d0 9f ae f8 bb db fb 1a bc dc d0 e2 ba 10 a0 5b bc
       -0.007589176 -0.009459461 -0.0017304677 -0.013404861
0000e0 db e4 3d bb a6 01 be bb ef 1b 50 ba 56 94 0b bc
       -0.002897552 -0.0057985364 -0.0007938733 -0.008519253
0000f0 73 65 cf ba 82 da 30 bc ec f3 0d bb 55 55 03 bb
       -0.0015823081 -0.010794284 -0.0021660281 -0.0020039876
000100 85 35 c8 bb 61 86 a5 bb 54 6b ad 3b 85 cc 6f bc
       -0.0061098957 -0.0050514196 0.0052923355 -0.014636164
000110 75 6e b7 bb 25 9c 2d bc c6 7e b6 bb f2 7f f6 ba
       -0.0055978843 -0.01059631 -0.005569312 -0.0018806441
000120 c1 bf 9d bb 09 8c 61 bc 15 f0 aa bb bc ba 1f bc
       -0.0048141186 -0.013766297 -0.0052166083 -0.009749111
000130 60 23 e5 bb f1 42 84 bc 3f 5e be 3c 00 88 37 bc
       -0.0069927424 -0.016145201 0.0232383 -0.0112018585
000140 cc 48 93 3a 13 ee c9 bb a9 75 d7 bb 9c ce 2d bc
       0.0011236905 -0.006162414 -0.0065753055 -0.010608342
000150 32 82 1d bb 92 d3 e1 bb f0 3c 08 bc 8e b5 a4 bb
       -0.0024033901 -0.006891676 -0.00831531 -0.005026526
000160 26 85 fa bb 90 64 c4 ba 20 1f 0b 3a 14 f7 43 3b
       -0.007645267 -0.0014983583 0.0005307067 0.0029901909
000170 67 5c 1d bb 46 86 5c 3b af e8 2a bc f0 29 bc b9
       -0.0024011375 0.003364937 -0.010431453 -0.000358894
000180 38 f1 45 bb 87 54 46 bc b2 37 0c bc 2f 84 1a bc
       -0.0030203592 -0.012105114 -0.008558201 -0.009430929
000190 62 9f 20 bc e4 73 02 bb 3e 13 20 bb 1b 7c 33 bb
       -0.009803625 -0.0019905502 -0.0024425532 -0.0027387205
0001a0 7e 05 90 bb 61 f6 4b bb ba f0 2d ba cc 0b 2d ba
       -0.004395186 -0.0031122195 -0.00066352973 -0.0006601184
0001b0 66 1f 0b bc c0 cd 32 bc a0 a8 9d bb 37 d3 1f bc
       -0.008491373 -0.010913312 -0.0048113614 -0.009754947
0001c0 67 a6 54 bc f5 b6 67 bb 12 34 5a bc e4 a0 52 bc
       -0.012979127 -0.0035356854 -0.013318079 -0.012855742
0001d0 d8 13 10 bb 5d c2 5b bc f9 c7 3b bc ce b5 ae b9
       -0.0021984484 -0.013413039 -0.011461251 -0.0003332332
0001e0 d9 2e 3d bc 52 3f 19 bc 47 44 21 3c c8 88 52 bc
       -0.011546814 -0.009353476 0.009842939 -0.012849994
0001f0 cb f7 36 bc 32 e7 4e b9 0e e0 ed bb 0b 7a cc bb
       -0.011167477 -0.00019731818 -0.0072593754 -0.0062401346

network_body._body_endoder.seq_layers.2.weight f4 [128, 128]
000000 d7 d9 06 3d 5c df 4f bd 8a 61 a4 bd 70 89 21 be
       0.032922592 -0.05075012 -0.080264166 -0.15775084
000010 1e 8d 76 bd 47 15 ad 3d 0b 15 4d 3e 6d 27 42 be
       -0.060193174 0.08451324 0.20027559 -0.18960352
000020 66 eb 55 3c 51 48 29 3e 85 82 ac 3d 73 2d 95 bd
       0.013056612 0.16531493 0.08423332 -0.072840594
000030 62 17 8c ba 16 07 73 3d c6 1a 0d be 47 3e 9e bd
       -0.0010688121 0.05933293 -0.13779745 -0.07726722
000040 46 90 f9 bb 35 7a 7d bc 37 d9 35 3d 14 a2 71 3d
       -0.0076160757 -0.015471031 0.044396605 0.05899246
000050 17 9d 5a 3d 3d 59 73 3c 92 f5 07 3d 61 d0 c5 3c
       0.05337247 0.014852819 0.03319318 0.024147214
000060 d1 d6 bc bd 7b 6b 51 bb 81 76 9e bd 30 9f b2 bb
       -0.092206605 -0.0031954932 -0.077374466 -0.0054511055
000070 e0 a4 6e bc ce 51 cc bd 76 17 82 3d 0d fa 29 3d
       -0.014565676 -0.099765405 0.06352131 0.041498233
000080 a3 59 ee 3d d6 c7 23 3d e8 8c 05 be 83 bc da bd
       0.116381906 0.0399855 -0.13042033 -0.10680487
000090 c4 1e eb bc 2a 0c 07 3e 0f a8 2b 3d 31 13 41 3e
       -0.028701194 0.13188234 0.04190832 0.18854977
0000a0 f5 0a 4c bd 3f e8 54 3d a1 80 34 3e 7f f5 19 bd
       -0.049815137 0.0519793 0.17627193 -0.03758764
0000b0 38 0b 4b 3d da 86 eb bd 60 6a ae bc 2c 2d 8b bc
       0.049571246 -0.1150033 -0.021290958 -0.016989313
0000c0 f9 d1 a2 bd cc 63 4a be ff 01 62 3d 37 f9 f7 bd
       -0.07950205 -0.19764632 0.055177685 -0.12108081
0000d0 43 07 84 3d a8 78 e6 ba 4c 18 17 be c4 6c a0 3b
       0.064466976 -0.0017583566 -0.14755362 0.0048957784
0000e0 5f 08 d1 bc ec ff 09 3d 12 0e 2b be 09 a0 17 bd
       -0.025516687 0.03369133 -0.16704586 -0.037017856
0000f0 a8 8b ae 3d 4c a6 38 bd 8b 46 80 bd 41 8d c9 bd
       0.08522731 -0.045080468 -0.06263455 -0.09841395
000100 1e da 07 be a8 56 c4 bd 8b 26 6c 3c 01 f2 f8 3c
       -0.13266799 -0.09586841 0.014413486 0.030388834
000110 7f 7c 8a 3d a5 5d 72 bd cd 6b 26 bd a6 a0 6f bc
       0.06762027 -0.059171338 -0.04063015 -0.014625704
000120 40 3e 4c bd 3c 06 e0 bc 0d bd 62 3e c1 4a 97 bd
       -0.049864054 -0.027346723 0.2214243 -0.07387305
000130 63 13 b3 bd 3f d8 b1 bd 49 21 2f 3d 99 a2 46 be
       -0.08743932 -0.08683824 0.042756353 -0.19397964
000140 15 49 45 bd d5 03 13 3c 4d 48 d4 bc a8 c2 bc 3d
       -0.0481654 0.008973082 -0.025913382 0.09216815
000150 1d bd 66 3d 97 63 42 bd 14 cf f9 3d 12 cb 01 bd
       0.056332696 -0.047458258 0.121977 -0.031687804
000160 fd 6a e2 3b 51 65 4d 3e 76 d4 1c 3d 9d 37 16 bb
       0.0069097267 0.2005818 0.038288556 -0.0022921332
000170 24 36 90 bc be d5 99 bb 8c 02 20 3d 5a 5e 11 3d
       -0.017603941 -0.0046946695 0.03906493 0.03549037
000180 14 6c 5c 3d 95 00 66 3b 80 15 3a 3c 9c 7c c6 bd
       0.05381401 0.0035095562 0.011357665 -0.09691736
000190 2a 6d ea bd 80 4f c5 bc 87 3f 60 bd cf 71 91 bd
       -0.11446603 -0.02408576 -0.054748084 -0.071017854
0001a0 3a 70 4e bc ee e1 c3 bd 77 8a 91 bd d7 27 3b bc
       -0.012599999 -0.09564577 -0.07106488 -0.011423073
0001b0 4d 12 38 3d e9 c3 cc 3d e5 5a 23 be 02 b5 c3 b9
       0.044939328 0.099983044 -0.15952642 -0.0003732816
0001c0 a3 88 31 3e 29 14 95 3c 1c 6c 3d 3e 93 c2 6d 39
       0.17337279 0.01819809 0.18498272 0.00022674566
0001d0 e8 6b 98 3d ea e4 a0 bc 7f ac 8e bd d6 15 42 3d
       0.074424565 -0.019640405 -0.06966495 0.047384106
0001e0 c6 69 fe 3c ec 19 a7 bd bf b6 0c be fe df 27 3d
       0.031056296 -0.08159241 -0.13741587 0.0409851
0001f0 e6 b1 08 be 0d 4a 28 be 1e 5d 00 be 6e 18 55 3d
       -0.13349113 -0.16434498 -0.12535521 0.05202525
000200 f9 16 39 bb 55 78 ee bd 1e 84 01 3d b0 77 46 bd
       -0.0028242453 -0.11644045 0.031620137 -0.048453987
000210 05 d1 38 3e 67 68 f9 bc 90 88 b8 bd 6e c4 0d bd
       0.18048485 -0.03044529 -0.09010422 -0.034611158
000220 3b 9e 19 be 13 20 1a 3d 26 7b 8c 3c 6d 44 88 3d
       -0.15001766 0.037628245 0.017148566 0.06653676
000230 67 fb 26 3e bd eb d0 3b a7 2f 37 bd a0 20 38 3e
       0.1630684 0.0063757584 -0.04472318 0.17981195
000240 f9 76 39 bd 6d 48 6c 3d 0a 41 33 bd 19 e1 16 3c
       -0.045279477 0.057686258 -0.043763198 0.009208941
000250 f3 5f 86 bd d2 12 f4 3d 09 d3 c0 ba 32 78 a1 bd
       -0.065612696 0.11917652 -0.0014711331 -0.078842536
000260 dd 29 78 3d e0 c1 df 3c e8 26 14 bd d0 7b 20 3c
       0.0605868 0.027314126 -0.036169916 0.009795144
000270 7b 33 21 bd a2 e5 f4 3c 02 09 94 3d 53 ec b8 3b
       -0.039355736 0.029894654 0.072282806 0.0056434064
000280 36 e4 15 ba cd 4f ed 3c 7e 71 e5 3d d6 a0 1c bd
       -0.0005717905 0.028968716 0.112032875 -0.038239323
000290 04 ed 68 3d ed ff 3d bd 42 9c 36 3c c1 69 ac 3d
       0.05686666 -0.046386648 0.011145653 0.084186085
0002a0 b8 b1 d0 bd ea 1a a8 bd 91 c1 6a 3c 30 78 2b 3e
       -0.10190147 -0.082082585 0.014328376 0.16745067
0002b0 0c 48 87 39 58 83 33 3d 6e ae 98 bc 11 f3 1c 3e
       0.00025802886 0.04382643 -0.018637862 0.15327097
0002c0 94 31 8b 3d 6f db bf bb b3 70 51 3d 5c c1 25 bd
       0.06796566 -0.005855016 0.05113287 -0.040467605
0002d0 2d e6 9b 3d fa 07 bc bb e9 fc 36 3d 08 ea 48 bd
       0.07612262 -0.0057382556 0.044674788 -0.049051315
0002e0 c7 6a 88 3d b7 ae 28 bd 8c 0a d0 3c ea ad 6e bb
       0.06660991 -0.041182246 0.025395654 -0.0036419579
0002f0 8e d0 ca bd d7 ea ea bc ee ca 55 bd f6 91 a1 bd
       -0.0990306 -0.028676433 -0.052195482 -0.07889168
000300 b1 f0 03 3e 5a f9 0b 3d 9e f5 6d 3c 6d a0 00 be
       0.12884785 0.034173347 0.014523892 -0.12561198
000310 5c 10 53 bc d4 19 df bc 3b 84 31 bd e6 6d 03 be
       -0.012882318 -0.027233995 -0.043338995 -0.12834892
000320 57 68 5b bc 8d 43 1d be 39 58 0d be 67 08 28 3c
       -0.013391576 -0.153578 -0.13803186 0.0102559095
000330 5a 60 17 3e 97 f7 8d bd 4a 4f 47 bd 79 d0 a2 3d
       0.14782849 -0.0693199 -0.0486596 0.07949919
000340 0d 06 b4 bc 41 1f dd 3d 4a ff 91 bd e9 87 59 3e
       -0.021975541 0.10796977 -0.07128771 0.21243252
000350 76 17 80 bd 59 52 57 be a2 2e bc bc 83 19 1e be
       -0.06254475 -0.21027507 -0.022971455 -0.1543942
000360 bc 4f 35 3e 52 70 cf 3d 28 7f f6 bd 8a 4d e7 3d
       0.17706198 0.10128845 -0.12035972 0.11294086
000370 4d e7 33 bd 90 c6 d6 3d 57 54 f9 3c b8 ca 27 bb
       -0.043921757 0.104870915 0.030435724 -0.0025603008
000380 c2 3b ff bc 93 09 df bd 81 f5 3b be 3b ff b0 3c
       -0.031156424 -0.10890498 -0.18355371 0.021606078
000390 4e 5e a0 3d a5 89 8d bd 12 d2 48 be 70 d4 0a 3e
       0.07830487 -0.06911019 -0.19611385 0.13557601
0003a0 ae b5 92 bd ec e7 9a 3c 35 ce ae 3c fd 5a db bd
       -0.07163559 0.018909417 0.021338562 -0.10710714
0003b0 70 9e 24 bd 7b 2e a9 3c fb fc aa bd 56 31 84 3d
       -0.04019016 0.020652046 -0.083490334 0.064547226
0003c0 b7 f8 ab 3d cf 4d 4d bd ef 0a 57 3d ff 21 aa bd
       0.08397048 -0.050123032 0.05250066 -0.083072655
0003d0 4c 74 18 3e 3b f3 40 3d 77 05 96 b9 2a 2c 92 3c
       0.14888114 0.047106963 -0.000286143 0.017843325
0003e0 4b 6c 3f 3d f6 2e 8e 3d 2f ac c4 bd f1 36 b8 3c
       0.046734136 0.06942551 -0.09603154 0.022487136
0003f0 72 d2 0b bd 85 4e bf 3b 46 f5 fc b9 f4 8e 85 bc
       -0.034136243 0.0058382177 -0.00048247928 -0.016303517
