Assets/NN/CharacterBehav 6.onnx (onnx, 268569 bytes, 9 tensors)

action_model._discrete_distribution.branches.0.bias f4 [3]
000000 cd 44 07 3c e8 20 c0 3a af bc 98 bc
       0.0082561495 0.0014658244 -0.018644659

action_model._discrete_distribution.branches.0.weight f4 [3, 128]
000000 ca ec 79 ba 01 66 96 3c 36 8f 93 3c a7 6d 1e 3c
       -0.00095338805 0.018359186 0.018012624 0.009669698
000010 17 f1 5a 3b c4 30 84 bc b7 13 a7 bc e6 93 6a bd
       0.003340786 -0.016136535 -0.020395143 -0.057269953
000020 a3 31 56 bc 04 e7 00 bc 02 36 09 3d 2b 86 73 3b
       -0.013073358 -0.007867578 0.03349877 0.0037158828
000030 67 42 5f bc 93 5a a7 bb e1 8e 66 3c 65 2d cb 3c
       -0.013626671 -0.005107233 0.014072151 0.02480192
000040 b9 11 0c bc da 10 93 bc 7c 4d e1 3c 18 88 a5 ba
       -0.008549147 -0.017952371 0.027502768 -0.001262906
000050 cc f6 63 3d 1b 1c 67 3d 1f 26 03 bd e9 2d b6 3b
       0.055655286 0.056423288 -0.032018777 0.005559672
000060 e9 4f 8d bc 78 d7 08 bc fc c0 9c 3c ef bf 70 bc
       -0.017250018 -0.008352153 0.01913499 -0.014694198
000070 f9 4d 68 bc 82 8c 06 ba fc 2c 23 bc 2a 49 31 3d
       -0.014178746 -0.00051326316 -0.009959456 0.043282665
000080 be 05 f0 3c 31 19 a1 3b bd 69 32 3c 14 c6 3f bc
       0.029299613 0.004916333 0.010889468 -0.01170494
000090 35 18 5f bc 9c e5 b9 bc be 46 88 bc dc d3 aa bb
       -0.013616611 -0.022692494 -0.016635295 -0.005213244
0000a0 c9 4d c1 3c 47 94 c3 bc 47 f7 27 3d 88 0f 8d 3b
       0.023596661 -0.023874415 0.041007306 0.00430483
0000b0 3d c3 89 bd c4 08 a6 bc d7 28 7d bc 03 1d b3 bb
       -0.06726692 -0.020267852 -0.0154516315 -0.005466105
0000c0 00 7d 0b 3d 95 25 e6 3c 27 80 b1 3c 53 74 0a bd
       0.034054756 0.028094092 0.021667553 -0.03380234
0000d0 2e 16 18 3b 3e 64 b3 bd e6 cc 54 3d 06 7a 75 3c
       0.002320658 -0.08759354 0.05195322 0.014982706
0000e0 b4 05 07 bc 83 cc 18 b9 73 cb 5b 3c ca d5 a3 3a
       -0.008241106 -0.00014572036 0.013415205 0.0012499627
0000f0 7f 5c d9 3a 6f 64 de bc d8 7b d0 bb 7c 34 4b bd
       0.0016583352 -0.0271475 -0.0063624196 -0.0496106
000100 7b 90 07 3d c9 2e cf 3c 83 5c b9 3c d5 f4 43 3c
       0.03309677 0.025290864 0.02262712 0.011960228
000110 93 81 70 3c f6 61 21 3d 28 09 86 bc f0 3d c5 3b
       0.01467933 0.039400063 -0.016361788 0.0060193464
000120 66 ae 0c 3c 16 d0 25 bc c9 d6 81 3b 13 1b 62 bc
       0.008586502 -0.010120412 0.003962372 -0.0138004
000130 8d 08 cb 3c 80 8b 4f bc 4e 0c e4 bc 93 3a a9 3c
       0.02478435 -0.012667537 -0.027837899 0.020657813
000140 da a6 2b bc 86 d3 c5 3c 10 c5 83 3b 5c 15 bb bc
       -0.010476792 0.024148714 0.0040212944 -0.022837333
000150 87 88 12 bd 89 7c 10 ba bc dd 8f 3d 28 f9 08 3d
       -0.035774734 -0.0005511721 0.07024714 0.03344074
000160 f1 e4 04 3d 24 6d 89 bb 9d 90 fe bb d3 58 33 3d
       0.032444898 -0.004193919 -0.007768704 0.04378588
000170 13 15 8d bc 4e 06 28 bc 95 ad a6 3b 47 e2 90 3c
       -0.017221963 -0.010255409 0.0050866106 0.017686022
000180 41 c3 f2 3c 3c 90 5a 3c 16 44 cd bb 10 74 81 bb
       0.02963412 0.013340052 -0.00626422 -0.0039506033
000190 80 51 99 3c 14 22 a1 bb d3 10 91 3c 2b be b1 bc
       0.01871562 -0.0049173925 0.017708218 -0.021697124
0001a0 2f ab 24 bc 99 cd f6 3b 5b ea 54 bd 35 9a eb bb
       -0.010050579 0.0075318334 -0.05198131 -0.007190014
0001b0 89 66 a5 bb a1 ca f9 bc 9d f8 df bb a4 37 99 3c
       -0.0050476235 -0.030492129 -0.006835057 0.01870329
0001c0 51 a7 83 bc 6c 88 41 3b df 1f c1 3b 17 05 22 bd
       -0.016070994 0.0029530777 0.005893692 -0.039555635
0001d0 6a 0b c0 bc 59 fe 94 3b dd 48 71 bc 73 54 88 3c
       -0.023442943 0.004546922 -0.014726845 0.016641831
0001e0 d5 bb 1b bc 72 be b9 3c 63 64 14 3d bb 4b 24 bd
       -0.009505232 0.02267382 0.03622855 -0.040111285
0001f0 21 a0 89 bb 5a 18 86 3c 4a 3a 19 3d 42 52 1e bc
       -0.004199997 0.016369034 0.037409104 -0.0096631665
000200 d9 86 72 bd 51 99 d2 bc 63 99 f1 bc 9c 1d fc b9
       -0.059210632 -0.025707873 -0.029492086 -0.00048087246
000210 88 74 b4 3c 11 e9 55 bc f4 de 9e bc 76 a5 4c 3d
       0.022028223 -0.013056056 -0.019393422 0.049962483
000220 cf 24 63 3a 8e 9e b5 bc 51 45 ee bc 8b 75 d5 bc
       0.00086648477 -0.022170331 -0.029085787 -0.026057025
000230 65 2c 44 bc c2 0b 3c 3b 59 7e ee bb 13 3f 56 bc
       -0.011973475 0.0028693532 -0.0072782454 -0.0130765615
000240 92 95 4f b9 a7 9c 06 3d 66 be b8 bc d5 d1 37 bc
       -0.00019796778 0.03286424 -0.022551727 -0.011219461
000250 a2 80 7e bd 6f 63 6b bd 1f 10 18 3d 40 f0 fb bc
       -0.062134393 -0.057467874 0.03712475 -0.030754209
000260 19 e5 99 3c 3f e4 fd 3c 4f 41 b5 bb 27 a5 10 bc
       0.018786 0.030992625 -0.005531467 -0.008828438
000270 b7 96 ea 3a c5 a6 19 3c 88 3b 57 3b 41 0c e8 bc
       0.00178977 0.00937814 0.003284188 -0.028326156
000280 11 30 77 bd d8 12 48 3b 27 9a aa bb 9a 4b 69 3c
       -0.060348574 0.003052881 -0.0052063647 0.014239216
000290 3b f1 8e 3c 2e 92 35 3d 66 21 22 3b 6a c9 42 bc
       0.017449012 0.04432886 0.0024739145 -0.011888841
0002a0 37 63 1b bd 50 e0 a5 3c 51 c7 44 bd b9 89 19 3c
       -0.037936416 0.020248562 -0.048041645 0.009371215
0002b0 82 a6 86 3d 25 38 7a 3c 74 9e b7 3c 29 6a cd bc
       0.065747276 0.015272175 0.022414424 -0.025075035
0002c0 0c 1b 0a bd be f7 26 bd d3 8f 3f bd a9 9f b3 3d
       -0.0337172 -0.04076361 -0.04676802 0.08770687
0002d0 ae 41 a5 3c 44 d1 4d 3d 76 39 40 bd 50 45 b0 bc
       0.02017292 0.0502484 -0.0469298 -0.021517426
0002e0 1f f6 2c 3d 46 f6 71 3c e2 ac fb 3a db 11 2f 3b
       0.042226907 0.014768189 0.0019201303 0.0026713524
0002f0 17 4f d0 3c 48 9e 8e 3d df a6 35 bc bd 89 96 3d
       0.025428338 0.069637835 -0.011087148 0.0735049
000300 24 8a 76 bd af 39 18 bd 08 f5 b5 bc d9 0d c1 bb
       -0.060190335 -0.037164386 -0.022211567 -0.0058915433
000310 4d 4e eb 3c 5c 3e 48 bd ad 2f 85 3c 45 1b 58 3c
       0.02872386 -0.048887596 0.016258085 0.013190095
000320 53 a5 c1 3c ae 82 bc ba 77 b1 f1 bc 8f f0 f6 3c
       0.023638403 -0.0014382207 -0.029503567 0.030144004
000330 92 54 3d bd 63 e0 80 3d 59 fc 73 3d 00 a1 b8 bb
       -0.04622323 0.06292798 0.05956683 -0.005634427
000340 fe 40 23 3d 81 19 2c bc e8 c8 c3 bc cc 1c 2e 3d
       0.039856903 -0.0105041275 -0.02389951 0.04250793
000350 92 51 0c 3d 60 98 48 3c bd 82 74 bd 6a 01 3d bd
       0.03425748 0.01224336 -0.059694994 -0.046143927
000360 81 ac 02 bd ec ed 9d bb e8 3e 22 3d 4f 83 38 bd
       -0.031902794 -0.0048196223 0.039610773 -0.0450471
000370 e4 f5 e5 3b b6 96 11 3c 69 2a ed b9 80 95 7e bb
       0.007017838 0.00888603 -0.0004523576 -0.0038846433
000380 9e bd 50 bc ce 49 80 bb 7a 1c 50 bc 42 a6 e4 bc
       -0.012740521 -0.003915048 -0.012702102 -0.02791131
000390 49 14 5d bc 59 58 06 3d a9 2e 9d bc b7 07 39 3d
       -0.013493606 0.0327991 -0.019187288 0.045173373
0003a0 bc b4 2b 3d c9 c2 85 bc 54 95 4e 3d b2 10 a2 3c
       0.04192041 -0.016328232 0.05043538 0.019783352
0003b0 1c f1 18 3b a6 7a 60 3d ac d2 1e bb 64 46 20 bd
       0.0023337072 0.054804467 -0.0024234457 -0.03912963
0003c0 4c d7 b1 bc 53 2e 24 bc c6 d9 ae 3b fd 00 2f 3b
       -0.021709107 -0.01002081 0.005336019 0.002670347
0003d0 78 f3 56 3c 18 85 95 3b 99 a7 08 3c f1 78 0d bd
       0.013119571 0.004562985 0.00834074 -0.034539167
0003e0 0f 17 ac bc 5d 72 f8 ba 93 38 3f bd fc d6 33 3d
       -0.021007089 -0.0018954981 -0.046684813 0.043906197
0003f0 46 fc 5f bc df ac 16 3c 8b 89 7e 3b a5 2b 44 3c
       -0.0136709865 0.009196489 0.0038839306 0.011973296

action_model._discrete_distribution.branches.1.bias f4 [3]
000000 90 59 36 3c e7 fe 69 3a fd 01 4a bc
       0.011129752 0.0008926228 -0.012329576

action_model._discrete_distribution.branches.1.weight f4 [3, 128]
000000 ee f3 c3 3b 08 f7 f7 bb dd 04 b8 bc f7 07 f9 bb
       0.0059800064 -0.00756729 -0.022463256 -0.0075998264
000010 09 8e 75 bc 0b f6 2f bd eb 0d aa bc f4 bf 92 3c
       -0.014987477 -0.042959254 -0.02075859 0.017913796
000020 6e 00 5b 3d dc 5c 17 3b 06 37 85 3c cc fc 9a bb
       0.053467207 0.002309612 0.016261589 -0.0047298428
000030 e5 1b 71 bc 29 cb b5 bc b4 fa cc 3a 6e 09 e3 3b
       -0.014716123 -0.0221916 0.001563868 0.0069286143
000040 b2 4b 26 bd cd 24 ac 3c 99 68 72 3c 4a 07 1b bd
       -0.040599532 0.021013642 0.014795446 -0.03784875
000050 2b e8 f9 bb eb 2d 9e 3a b2 a9 6a 3d 10 64 fd bb
       -0.0076265535 0.0012068128 0.05729074 -0.0077328756
000060 50 ff ce bc e0 c2 1e bd 81 0a 9c 3c d0 23 7c 3c
       -0.025268227 -0.038760066 0.019047977 0.015389398
000070 3a 0f 4a 3c 85 8c 8b bc 84 df 4a bc 25 67 dc bb
       0.012332732 -0.017034778 -0.012382392 -0.006726163
000080 0c 60 16 bc 5d 3d 99 39 ef cf 26 3d a4 41 05 bc
       -0.009178173 0.00029228153 0.040725645 -0.008133326
000090 d6 5a d5 3b 6f d8 95 3a 2c 44 02 bd 75 77 a1 bc
       0.0065110726 0.00114323 -0.031803295 -0.019710282
0000a0 27 91 e7 3b b3 90 23 3d 47 51 b4 bc d7 23 4c 3c
       0.007066864 0.039932918 -0.022011412 0.012459717
0000b0 fc 2f b1 3c 7f 35 d8 3b 98 cc f1 3c 11 d8 af 3c
       0.021629326 0.006598174 0.029516503 0.021465333
0000c0 e8 b8 44 3d e5 fc 3e bb c4 9b 8a bc 2d 89 16 3c
       0.048027903 -0.0029142436 -0.016919978 0.009187979
0000d0 48 ba 14 bd a7 32 b1 3c 2f 6f 0e ba b3 12 04 3c
       -0.036310464 0.021630598 -0.0005433438 0.008061099
0000e0 0f 8a a7 ba 82 90 93 3c 72 fb 2c 3c 7b 5a 52 3c
       -0.0012782234 0.018013243 0.010557996 0.012838955
0000f0 92 f8 5c 3c 82 19 88 3b ea 64 49 bd 84 5b 03 bc
       0.013486998 0.0041534314 -0.049168505 -0.0080174245
000100 8c 5c 0d 3c 1d 34 25 3c e7 bd 9f 3b a4 03 86 3a
       0.008628022 0.010083226 0.004874933 0.0010224474
000110 33 34 d1 bc 53 b6 ba 3b 32 c4 0a 3c 1b 3a 22 bc
       -0.025537586 0.0056980043 0.008469628 -0.009901549
000120 c8 da 45 bc d4 3a 2a 3c bb 48 1d bd b8 6c 00 3d
       -0.012076087 0.010390002 -0.03839944 0.031353682
000130 45 e0 53 3b 57 4f a7 bb 92 e8 50 3c 8a ab cd 3b
       0.003232972 -0.0051058936 0.012750762 0.0062765526
000140 4e 38 05 bc a1 b2 82 3d fb f5 9c 3c 77 3b cf bc
       -0.0081311 0.06381727 0.019160261 -0.02529691
000150 c7 50 d0 3b 08 ee a9 3c 86 ac 0e bc fd 1c 17 3c
       0.0063572857 0.020743385 -0.008708125 0.00922322
000160 3b 85 16 3c 22 98 f7 3c a5 08 88 ba 22 6b 8c bb
       0.009187038 0.03022391 -0.0010378553 -0.004285232
000170 55 6d b4 bc 7a 50 d6 bc 6f 0a f5 39 05 5b 35 bc
       -0.02202479 -0.026161421 0.00046737815 -0.011069064
000180 0a 7a 7d bc 8b f4 6f 3c 4c c2 c4 3c 2d e2 0d 3d
       -0.015470991 0.014645706 0.02401843 0.034639526
000190 47 c4 2b 3c 24 c5 f0 bc f3 74 fd bc 76 4e 57 3c
       0.010483808 -0.029390879 -0.030939555 0.013141265
0001a0 6d a4 0d bc 8f 26 86 3a 41 c4 56 bc 68 de b0 bb
       -0.008645159 0.001023488 -0.013108314 -0.0053976066
0001b0 11 57 38 3c e9 f8 05 bd 90 57 d2 3b fe 65 2f 3c
       0.011251227 -0.032708082 0.0064191297 0.010705469
0001c0 9f 7a 3b 3a 6f 7b 35 3d ba 4d bf 3c 3f 26 88 bb
       0.0007151756 0.04430717 0.023352493 -0.00415495
0001d0 90 1b 57 bd 94 06 bb 3a 08 6d 85 3d 20 88 ce 3b
       -0.05251652 0.0014268928 0.06514937 0.0063028485
0001e0 5d 28 d6 bb 40 21 86 bc 13 e8 86 3c 93 d0 6f bb
       -0.0065355734 -0.016373277 0.016468083 -0.0036592826
0001f0 67 cb f6 bb 00 35 23 bc b4 85 85 bc 11 39 3e bc
       -0.0075315717 -0.009961367 -0.016299106 -0.011610285
000200 53 94 dc 3c d9 89 bf 3c 15 c1 98 3c bf 1f 1f 3c
       0.026926195 0.02338116 0.018646756 0.009712159
000210 c4 3d 23 bd c2 2a 1c 3d 40 13 5b 3c fe ed 4c bd
       -0.039853826 0.038126715 0.013371289 -0.050031655
000220 89 e4 c0 bc 39 58 14 3c 99 7c 9d 3b de e9 91 bb
       -0.023546474 0.009054237 0.004806113 -0.004452928
000230 ec ee 17 3c 25 73 73 3c 51 1b 2e 3c b0 b9 f6 3c
       0.009273272 0.014858996 0.01062663 0.03011784
000240 9b 5d f5 3c ee a1 c6 bc b2 b0 91 3c b2 0d 32 3b
       0.029951861 -0.024247136 0.01778445 0.0027168808
000250 04 e4 c5 bc 96 cd 63 bb 12 7a ce bc cf 6f 48 bc
       -0.024156578 -0.003475999 -0.025204692 -0.0122336885
000260 43 6f 17 bb 53 5f 33 3d d4 75 23 bd 59 22 97 3a
       -0.0023107089 0.04379208 -0.03990729 0.0011530622
000270 ce 9e 72 bc 25 25 f0 3b 22 a1 ae bc 10 8c fd 3b
       -0.01480837 0.0073286467 -0.021317068 0.007737644
000280 bf 30 94 ba 92 2e ea bb 14 60 3e bd 76 c3 6e bc
       -0.0011306031 -0.007146665 -0.046478346 -0.014572969
000290 74 e2 79 3a 38 d6 6b bd 07 32 cb 3a 02 6f a6 3b
       0.00095323403 -0.05757734 0.001550258 0.005079151
0002a0 d5 30 91 bb 48 43 94 bd f9 e2 39 3d 7f b9 8a 3b
       -0.00443087 -0.072393954 0.045382474 0.0042335386
0002b0 13 76 e5 bc 7a 60 fa 3c 14 84 2a bd f4 1f 66 bd
       -0.028010404 0.030563582 -0.041629866 -0.056182817
0002c0 1b 19 8e bc d7 53 18 3d 71 90 2c 3d 45 ed 88 bc
       -0.017345956 0.03718933 0.042129938 -0.016714701
0002d0 b7 c6 d4 bc e7 e2 11 bd 52 b9 ad 3c 32 eb 91 39
       -0.02597366 -0.03561678 0.021206532 0.0002783179
0002e0 1c 28 ae 3c fb ed b0 3b 5f a0 ea 3c 7a a5 35 bc
       0.02125936 0.005399463 0.028640924 -0.011086816
0002f0 1d 64 3f 3c 25 32 3a bc 86 09 0c 3c 8e e1 f0 bc
       0.011681584 -0.011364494 0.008547192 -0.029404428
000300 45 06 c4 ba 3d 21 52 bc 13 99 da bc 9b 80 4b 3c
       -0.0014955482 -0.012825307 -0.02668432 0.012420799
000310 71 8f 09 bd 4c f7 1f 3c 07 37 48 bc e4 97 fd b9
       -0.033584062 0.00976355 -0.012220151 -0.00048369088
000320 fc af 08 bd 5c c8 a3 3c 71 79 47 3c 9c b7 94 ba
       -0.033370957 0.019993 0.01217495 -0.0011346224
000330 32 05 94 3a 04 c8 5d bc d6 19 65 bd 06 1f 54 bc
       0.0011293052 -0.013536457 -0.055932842 -0.01294685
000340 d9 14 c5 3c 20 e6 af bc 12 2a d7 3c 67 fa a9 3d
       0.024057792 -0.021472037 0.026265178 0.082997136
000350 f2 05 5b bc ae 7f 04 bd 9a e1 e2 bb 38 62 0b 3d
       -0.013368117 -0.032348327 -0.0069238665 0.034029216
000360 bf 4e 50 bc f9 aa 02 bb c0 a3 37 3c ca 6f 8b 3b
       -0.012714087 -0.0019938333 0.011208475 0.0042552697
000370 51 45 26 bc 77 44 b6 bc a0 20 42 3d d1 d0 25 3c
       -0.010148362 -0.022249443 0.047394395 0.0101205865
000380 9d 8c 2f bb e9 d4 36 3c 92 22 9e bc e1 0b 46 bd
       -0.0026786693 0.01115916 -0.019303594 -0.048351172
000390 8d 62 46 b8 fe 50 01 bd 7f 7d fb 3c 47 86 a7 bc
       -4.729866e-05 -0.03157138 0.03069949 -0.02044977
0003a0 e3 a0 6b 3c a8 3b 51 bc 9b 65 46 bc de d9 4a 3c
       0.01438162 -0.012770571 -0.012109186 0.012381045
0003b0 a6 a3 d4 ba 14 61 82 3d f1 26 1b bb 3a 32 15 3d
       -0.0016223087 0.063661724 -0.0023674334 0.036424853
0003c0 88 78 28 bd a3 e1 43 bd 06 4c 03 bd c9 fb 2f bd
       -0.041130573 -0.047822606 -0.032054923 -0.04296473
0003d0 50 7f 56 3c 5e ba 10 3b 0e d6 d2 bc 76 de 90 bc
       0.013091877 0.002208374 -0.025736835 -0.017684203
0003e0 d5 d3 ad 3b 57 8d af bb 54 cf 87 3c ef cf 2d bc
       0.0053047934 -0.005357425 0.016578354 -0.010608657
0003f0 49 d1 09 3c 55 19 6d 3c b6 11 29 3d dd 6c b3 3b
       0.008411714 0.014471372 0.041276656 0.005475624

discrete_action_output_shape f4 [1, 2]
000000 00 00 40 40 00 00 40 40
       3.0 3.0

network_body._body_endoder.seq_layers.0.bias f4 [128]
000000 ad 8c 38 bc 36 7b f1 3b 8f d9 bb 3c 65 b6 de 3b
       -0.0112640085 0.007369424 0.022930888 0.0067966455
000010 c8 04 69 bc fb 34 a3 3a 50 a6 af bb 0f bc 7b bb
       -0.014222331 0.0012451702 -0.005360402 -0.0038411652
000020 a5 50 12 3c 6d cf 19 3d be 56 43 3c c3 fb 5b 3c
       0.00893036 0.037551332 0.011922536 0.013426724
000030 d0 8f 5c 3b f7 2a 4c 3b 55 55 26 ba b1 74 66 3d
       0.0033655055 0.0031153539 -0.0006345113 0.05626363
000040 17 e2 78 3c 11 83 90 3c 2f 84 08 bc 22 dc d2 bb
       0.015190623 0.017640622 -0.008332296 -0.0064349333
000050 a6 c9 97 ba a3 d9 7f bc e0 e5 9a bc 87 a9 a6 bb
       -0.0011580482 -0.0156158535 -0.018908441 -0.005086127
000060 2f 8d b8 ba 32 5d d3 bb 48 60 5d 3b 1d 60 8f bc
       -0.0014080162 -0.0064503187 0.0033779312 -0.017501885
000070 74 b9 90 bc 00 b9 30 3b c6 01 3f 3b 2e a5 c8 3b
       -0.017666556 0.0026965737 0.0029145344 0.0061232066
000080 bb 30 0a bc c7 56 a6 3c d4 b2 40 bc 4f 33 c4 3b
       -0.00843447 0.02030505 -0.011761386 0.005987562
000090 7b 10 53 3c 43 a2 88 bc 78 d8 2f bc c0 88 34 bc
       0.012882347 -0.016678935 -0.0107327625 -0.011018932
0000a0 73 7b a5 bc 82 59 a2 bc 5d 6e 00 3b f9 99 0a bb
       -0.020200467 -0.019818071 0.0019597032 -0.0021148904
0000b0 03 20 ad bc 1f 77 97 3b e7 e0 90 3a b7 ed 0d b7
       -0.021133428 0.0046223546 0.0011053354 -8.459602e-06
0000c0 8d ea 61 3c f0 ce e8 3a a8 4a 88 bc e5 6f b2 bb
       0.013788831 0.0017761867 -0.016637161 -0.005445468
0000d0 3a 5a 31 bc 73 76 84 bb 40 0b 4e bb 7e e7 c5 bb
       -0.010824734 -0.0040424406 -0.003143981 -0.006039559
0000e0 97 11 3d bc 19 ae 2c 3d 30 51 9c 3c ea d7 0f 3c
       -0.011539838 0.04215822 0.019081682 0.008779505
0000f0 3b ce c1 38 7f cb 15 3b ca 0f bf 3b f2 e3 19 bc
       9.2413706e-05 0.0022856889 0.0058307396 -0.009392725
000100 64 1a 9c bc e9 0d 07 bc 09 8f 6b 38 15 83 a6 bc
       -0.019055553 -0.0082430625 5.6161578e-05 -0.020326177
000110 6b 11 3a bc be c8 e6 3c 51 01 02 3c 82 aa 0e 3c
       -0.011356692 0.028171893 0.007934884 0.008707644
000120 0b 55 ab bb 2a a2 8b bc 3c 81 0d 3d 45 db f1 bc
       -0.005228644 -0.0170451 0.034547076 -0.029523501
000130 f8 5b b7 bc 51 4a 58 bb 10 f6 08 3b 26 52 17 bc
       -0.022382721 -0.003300328 0.0020898618 -0.009235894
000140 ec 2c 7d bb 00 1e 99 3b e9 d4 d1 3b b5 34 af bb
       -0.0038631512 0.0046727657 0.0064035547 -0.0053468593
000150 18 59 be bc 28 de 1a bc 0e d7 23 bb 82 78 7e bb
       -0.023235843 -0.00945238 -0.0025000009 -0.0038829152
000160 7d bf 5c bc fb a9 43 bc 45 a0 29 bb 12 43 04 3c
       -0.013473389 -0.011942382 -0.0025882882 0.008072631
000170 a6 7c 90 bc ba 44 92 bc 8b 98 55 3b 3d 17 3a bc
       -0.017637562 -0.017855037 0.0032592143 -0.0113580795
000180 a9 d2 02 bc d6 10 bc bc 58 2b 27 bc 60 83 f0 bb
       -0.007984796 -0.022957247 -0.010203205 -0.00733988
000190 65 bb 92 bc 01 50 21 3b e4 15 ca bb 39 f9 75 3c
       -0.017911622 0.0024614336 -0.0061671603 0.015013033
0001a0 cb 8e 00 3c b1 a1 67 bb 0f 9a 8b bc 91 91 bb bb
       0.0078465445 -0.0035344178 -0.017041234 -0.00572414
0001b0 2c 04 80 bc ac 14 02 bc f0 db 63 bc 72 0d 09 3c
       -0.01562699 -0.007939499 -0.013907418 0.008365022
0001c0 90 0d d6 ba fc e0 91 bc c0 d7 26 38 90 af a4 3b
       -0.0016330946 -0.017807476 3.9778417e-05 0.0050258115
0001d0 d4 ae 03 3c e6 97 76 bb 30 97 60 3c f4 64 30 3b
       0.008037288 -0.003762716 0.013707921 0.0026915642
0001e0 01 c7 95 3c e5 84 4c 3c 8e 85 7c bb 85 60 68 bb
       0.018283369 0.012482856 -0.0038531753 -0.003545792
0001f0 32 90 3c 3c 42 0f 0d bc d3 fb 52 bc ae e2 d2 bb
       0.011508988 -0.008609595 -0.012877422 -0.0064357137

network_body._body_endoder.seq_layers.0.weight f4 [128, 383]
000000 e0 79 89 bc f6 76 a3 3d ac 82 79 3d c9 71 fd bd
       -0.016781747 0.079816744 0.060915634 -0.123752184
000010 01 df 53 bd 81 14 14 3e 84 a2 9c 3d 42 18 df ba
       -0.051726345 0.14460947 0.07648185 -0.0017020779
000020 89 45 d0 3c f3 93 b7 bc 77 a7 c7 3c 77 5d 59 be
       0.025423782 -0.022409415 0.024371846 -0.2122706
000030 38 b0 63 3b fe 89 1d bd 2e 03 33 bc c6 1a 1a bd
       0.0034742486 -0.038461678 -0.010926051 -0.03762319
000040 86 ca da bc 32 0d d1 3d d0 b4 78 3d af 52 1d bc
       -0.026707899 0.10207595 0.06071931 -0.009602233
000050 12 b7 a0 bd 99 8d b6 bd 69 9c 00 3d 8c ca 43 3d
       -0.07847418 -0.08913726 0.031399164 0.047800586
000060 40 23 40 3c 6a d5 43 bc 71 e9 00 bc ce 67 03 bc
       0.011727154 -0.011952737 -0.007868157 -0.008020354
000070 dc fa 75 3b 47 a5 b0 bd 05 51 a1 3d 5a 28 37 3d
       0.0037533557 -0.08625274 0.078767814 0.044716217
000080 c2 b8 9e 3b 8e eb cb bd f0 03 6c bd f5 9b 0f 3d
       0.004843802 -0.09957038 -0.057620943 0.03506084
000090 da f8 16 3d c3 25 9d bd 91 36 b5 3d 45 89 7c bd
       0.036858417 -0.07673218 0.08848298 -0.061654348
0000a0 f8 11 20 bd 13 ec 70 3d 1a 49 99 bd 52 25 3d bd
       -0.039079636 0.058818888 -0.07484646 -0.04617817
0000b0 57 70 26 bc 66 8a 89 3d a5 e9 31 3d 02 e2 1b be
       -0.01015862 0.067158505 0.04343571 -0.15222934
0000c0 4e 0c bd 3c bc ad d5 bc 24 92 a3 3d c6 94 ee bd
       0.023077156 -0.02608382 0.079868585 -0.1164947
0000d0 29 2d 54 3d d0 97 45 3d 09 85 16 3d ef 83 f2 bc
       0.05180088 0.048240483 0.036747966 -0.029603926
0000e0 7d d0 b7 3d ab 8a 96 bd 35 02 13 bc 43 ac ce bc
       0.08975313 -0.073506676 -0.008972694 -0.025228625
0000f0 ce ab aa 3d f6 9d 94 bd ea 2a 08 be ff 24 ac bd
       0.083335504 -0.07256691 -0.1329762 -0.08405494
000100 8f 9a ae bc b4 1a f2 bd 69 4d 5d 3e 30 00 94 bd
       -0.021313934 -0.118214995 0.21611561 -0.07226598
000110 b3 8e 8a 3d 7a ca 58 3c c5 38 56 3c 16 0f 1d 3d
       0.06765499 0.013231868 0.013075058 0.038344465
000120 89 63 58 3d 14 5d d6 bc 05 92 9e 3d 6b 49 c5 bd
       0.0528293 -0.02616743 0.07742695 -0.09633144
000130 48 6a bc 3d 10 de b4 3c f6 6a 4d bd 67 00 c8 bd
       0.09199959 0.022078544 -0.050150834 -0.09765702
000140 4d fb 8a bd d9 4b 0f 3d 45 64 df bb c9 f2 49 be
       -0.06786213 0.034984443 -0.006817373 -0.19721521
000150 54 6c 71 3d bb 3d 69 bd 93 dd af 3c c3 53 42 bd
       0.0589412 -0.056943636 0.02146796 -0.047443163
000160 79 ff b4 3d b9 b1 ae 3d 02 82 62 3d 6c 23 0e bd
       0.0883779 0.08529992 0.055299766 -0.03470175
000170 23 fa a6 3d 75 c6 d7 3c f7 c2 e4 bd 3a 7b 4a 3d
       0.081531785 0.026339749 -0.11169999 0.049433924
000180 b2 27 d0 3c ad 88 25 bb 49 7b 04 be 16 ca 07 bd
       0.025409553 -0.0025258467 -0.12937655 -0.03315171
000190 08 73 7f 3d be 5f 0a bc 84 03 90 bc d8 5c f1 3b
       0.06236556 -0.008445678 -0.017579801 0.007365804
0001a0 15 48 5c 3d 74 47 3a bd 41 73 e6 3d ed a3 ca 3c
       0.05377968 -0.0454783 0.11252452 0.024736369
0001b0 16 72 d1 bc 82 cb 0f 3a 4d 83 e2 3d 2f bb de bd
       -0.025567096 0.0005485342 0.110602 -0.10875546
0001c0 3a c1 41 3d 58 3d 24 3c bf ea 0f 3c 2f 7b b4 bd
       0.047303416 0.010024391 0.008783995 -0.08812558
0001d0 ac 71 ab bd 05 4a 99 3d 6d 4b 81 3d 38 4d d7 bc
       -0.083712906 0.07484821 0.063132145 -0.026281938
0001e0 e2 84 25 3d d8 8f 33 bd 98 a4 3a bd 79 34 5b bd
       0.04040993 -0.043838352 -0.045567125 -0.05351684
0001f0 54 8b 15 3e d1 85 8f 3d 84 75 a6 3d ba 80 23 3d
       0.1460393 0.07007945 0.08127883 0.039917685
000200 6f 13 00 3e ce d5 9e bc f5 8c 75 bc f8 58 d4 bd
       0.12507413 -0.01938906 -0.01498722 -0.10368532
000210 a0 ad d0 3d 01 fa 70 3b 2c b2 8a bd c7 e6 a0 3c
       0.10189366 0.0036770108 -0.06772265 0.019641293
000220 f5 b0 f8 3c 06 83 98 bd 5b c8 f6 3d f8 24 cb bc
       0.030357817 -0.07446866 0.120499335 -0.024797902
000230 33 9d 6d 3d f1 aa f3 bc 5e 92 92 3d c5 4a 9e bb
       0.058011245 -0.029744597 0.071568236 -0.0048306906
000240 ee 82 27 3d 44 8a e0 bc 2a 3f 90 3d 57 15 0b be
       0.04089635 -0.02740968 0.070432976 -0.13582359
000250 e7 33 27 3d 70 5c 03 bc 2e 3e 7c 3c c0 45 d8 bd
       0.040820982 -0.008017644 0.015395684 -0.10560179
000260 08 de 91 bc c0 e9 33 bd da b2 24 bd f3 79 b3 bd
       -0.017806068 -0.043924093 -0.04020963 -0.08763494
000270 61 30 93 3d fe 5c 59 3c ab f8 94 3d a3 b8 a6 3c
       0.07186962 0.0132668 0.07273992 0.020351714
000280 34 f6 41 bc 54 60 10 bb 09 21 e1 3c 78 88 18 3d
       -0.011838485 -0.0022030072 0.027481573 0.03723952
000290 97 b9 8c 3d 0f d5 0a bc 16 9e 77 3d 76 59 8f 3b
       0.06871336 -0.008473649 0.060453497 0.0043746782
0002a0 e0 5c f3 3c f1 42 16 bd ef ab 69 bd 36 9d 58 3d
       0.029707372 -0.036684934 -0.057048734 0.052884303
0002b0 9e 7e 98 bd 36 39 8b bc b3 75 f4 3d d4 75 81 3b
       -0.07446025 -0.016995054 0.11936512 0.003950814
0002c0 a9 0c f1 bd 29 99 8b 3d e1 4f 32 bd 47 86 18 bc
       -0.11769993 0.06816322 -0.04353321 -0.009309358
0002d0 5b 03 b6 bc 5f 1e 40 3d 7c da 26 3c c4 e8 9a 3c
       -0.022218397 0.046903964 0.010183927 0.01890982
0002e0 b8 c2 12 3d 56 84 b4 bd c9 d8 a0 3d c5 ce af bd
       0.03583023 -0.088143036 0.078538485 -0.0858436
0002f0 ab f4 15 bd 59 c9 86 bd 62 a4 5a 3d f8 05 09 be
       -0.036610287 -0.06581373 0.053379424 -0.13381183
000300 2b ff 2e 3b af 2c ab bc 3e 8c 0b be 8b 66 4c 3d
       0.0026702385 -0.02089533 -0.13627717 0.04990248
000310 98 5e 32 bd d4 de 6a bd 42 0b ea bd 6f e0 b8 3b
       -0.043547243 -0.05734141 -0.114279285 0.005641989
000320 ca 37 b4 bd 6d 3b 8e bd ac fe 51 bd 62 be ea 3d
       -0.087997034 -0.06944928 -0.051268265 0.11462094
000330 35 a5 cb bd 35 a9 11 3d 3e 42 89 bc 27 55 1d be
       -0.0994362 0.03556176 -0.01675522 -0.15364514
000340 62 48 d5 bc ee 89 0e be e5 d1 b1 3b 8f 9e 03 3d
       -0.026035491 -0.13919804 0.0054266327 0.032133635
000350 28 b5 ac bd 74 53 aa bd a5 51 e6 3c ec 67 7b bd
       -0.0843299 -0.08316699 0.028115103 -0.061378404
000360 71 31 f3 bd 44 b2 2f bd de be 93 3b 26 12 9e 3a
       -0.118746646 -0.042894617 0.004508837 0.0012059852
000370 b3 89 a2 3d d4 68 4e bd ee 01 26 be 7b 8f 15 bd
       0.0793642 -0.05039294 -0.16211674 -0.036513787
000380 4f f2 cb 3b a7 e7 5f 3d 29 60 0a bc 41 b9 71 bd
       0.006223954 0.05466428 -0.008445778 -0.059014563
000390 d9 7a 6a 3d b3 d1 ea 3b a5 ee 01 be f8 08 e5 bc
       0.057246063 0.0071661114 -0.12688692 -0.027958378
0003a0 18 32 a2 3c 5f 90 4d bd 47 d6 5d bd 45 d9 57 bd
       0.019799277 -0.05018651 -0.05415943 -0.05269744
0003b0 81 83 16 3d f6 fc ee bc e9 f9 41 3d 2f 55 8d 3d
       0.036746506 -0.029173356 0.047357474 0.06901013
0003c0 89 2d a7 3c 0d 76 b8 bd 46 36 28 bd 8a 54 54 3d
       0.020407455 -0.090068914 -0.041067384 0.051838435
0003d0 48 5e 7a bd cf bf b1 3c e1 92 2e bc 75 1c 4e 3d
       -0.06112507 0.021697907 -0.010655136 0.050320107
0003e0 b0 4a ab bd 05 55 3e 3c c9 85 10 be dc 0a 8e bd
       -0.08363855 0.01161695 -0.14113535 -0.06935665
0003f0 51 f8 ad bd fc 36 33 3d 89 90 2a 3e 4f 03 61 3c
       -0.08494628 0.04375361 0.16656698 0.013733699

network_body._body_endoder.seq_layers.2.bias f4 [128]
000000 cb 9d 65 3c c1 58 b0 b9 64 33 8a bc 2b 04 05 3c
       0.014014672 -0.00033635463 -0.016870208 0.0081186695
000010 e2 d0 a8 3a 9c 41 fb 3b f1 b9 65 bc df 95 fc 3b
       0.0012879635 0.0076677334 -0.014021383 0.0077082957
000020 62 77 5c 3d 01 06 d6 bc 34 d7 50 bb e3 bf 5e bc
       0.05382479 -0.02612591 -0.0031866552 -0.013595554
000030 63 7d 79 bc 0b 9b 90 bb cb 6d 9e bc 08 b6 27 bb
       -0.015227648 -0.004413014 -0.019339463 -0.0025590677
000040 2a 03 8a 3b 43 68 67 bc 87 2c 0d 3c 17 30 80 3c
       0.004211803 -0.014123979 0.008616573 0.015647931
000050 f3 81 77 3b c7 18 a5 3b 40 87 00 3c 9f 9d e5 bc
       0.0037766665 0.005038354 0.007844746 -0.028029261
000060 65 4e 42 bc 58 7f cd 3c 6c 4a c6 b8 56 e9 13 bc
       -0.011859511 0.025085136 -9.455238e-05 -0.0090278
000070 54 06 5d bc f9 1b 7b bc c5 05 92 3c ee 6a 81 bb
       -0.013490278 -0.015326493 0.017825017 -0.0039495146
000080 c2 44 0a 3c bc 83 03 bd be de 5b bc ea 32 55 bc
       0.008439245 -0.032108054 -0.013419805 -0.013012627
000090 04 e2 58 bc d7 51 f0 3b f4 6b 09 bb 74 e6 84 bc
       -0.01323748 0.007333975 -0.0020968886 -0.01622317
0000a0 55 10 78 bc 91 12 4e 3c e4 6a 2a 3c d9 9e 81 bc
       -0.015140613 0.012577669 0.010401461 -0.015822815
0000b0 34 f5 a2 3b c4 06 66 3b be 00 72 bb 98 43 8c bc
       0.004973078 0.0035099247 -0.0036926712 -0.017122075
0000c0 fa e3 cf 3b c8 fa e8 3a 97 a8 9f 3b 29 ac d6 3b
       0.0063443156 0.0017774934 0.0048723924 0.006551285
0000d0 e1 a6 29 bb 70 84 04 3d 45 f4 59 bb 7f 60 07 bc
       -0.002588682 0.032352865 -0.0033257168 -0.008262753
0000e0 09 7e 3d 3c 0c 94 1e bc c3 c1 ef ba 09 e4 b2 bc
       0.011565694 -0.009678852 -0.0018291998 -0.021837251
0000f0 b6 f8 97 bb 1f d6 7f 3c 75 a7 ee 3b 6f ca 79 3b
       -0.004637803 0.015615015 0.007283146 0.0038115045
000100 0d 58 ec 3b f4 e1 80 3b 6f 5f 1e bc 9e 4a 0b bc
       0.007212645 0.0039331857 -0.009666308 -0.008501677
000110 29 52 a7 3b cc 4a e7 ba 7b c6 37 bc 72 96 4f bc
       0.00510623 -0.0017646193 -0.011216755 -0.012670146
000120 37 82 e8 bb ca 80 13 bc b1 8b 3b bb 3d 05 30 ba
       -0.007095601 -0.009002874 -0.0028617198 -0.0006714648
000130 c5 86 17 bb 9e ea a6 3c 34 f2 d0 3b 03 4e 81 bc
       -0.00231211 0.020375546 0.006376529 -0.01578427
000140 61 95 28 3a 60 b6 28 3d 2f 62 6c 3b c5 e1 0d 3d
       0.00064309506 0.04118955 0.0036069264 0.03463914
000150 3b b7 b4 ba 88 95 bb bc c0 90 a7 3b 84 32 83 3b
       -0.0013787517 -0.02289845 0.005113691 0.0040038247
000160 32 c8 97 3c 5e 43 e3 ba 0d 92 f9 3b 8d 72 d9 bb
       0.018528078 -0.0017338803 0.0076162876 -0.00663597
000170 f1 63 18 3c a9 88 b9 3b c1 15 09 3d d5 23 8e bc
       0.009301172 0.005662043 0.03346801 -0.01735107
000180 cd b1 cb b9 df 12 e0 bc a3 3f 03 3b 9c 05 1d bb
       -0.0003885165 -0.027352748 0.0020026944 -0.0023959642
000190 56 28 7a bc d7 3d 9f ba 52 db 26 bc a7 d4 92 3c
       -0.015268406 -0.0012149167 -0.010184126 0.017923666
0001a0 49 70 4e 3c 67 bb b2 bc 78 5f 25 3c a5 ba bd bc
       0.012600013 -0.021817876 0.010093562 -0.023160288
0001b0 2e 25 91 3a de b1 bb 3c e1 50 9b bc 78 7e d9 3b
       0.0011073702 0.022911962 -0.018959465 0.0066373907
0001c0 b3 1a 13 bc 66 a7 81 3c 55 a1 82 bb dd 84 1a 3c
       -0.008978534 0.015826892 -0.0039865174 0.009431091
0001d0 ba 18 1d bc 03 55 59 bc 66 88 ff 3b ff db 27 bb
       -0.009588415 -0.013264897 0.0077982424 -0.0025613306
0001e0 98 e3 78 bc c3 e1 66 bc 2f 51 b3 3a 46 cf ef bb
       -0.015190981 -0.014091912 0.0013680811 -0.00731841
0001f0 15 ee 2c bc 9a 19 95 bb d9 aa 8c 3c 1e ae db bb
       -0.01055481 -0.004550171 0.01717131 -0.006704106

network_body._body_endoder.seq_layers.2.weight f4 [128, 128]
000000 ae 27 ce 3d 45 74 66 3d 54 17 11 bd 79 c4 cd 3d
       0.10066162 0.056263227 -0.035422638 0.1004724
000010 4d 23 62 3d da ff d6 3d 3d 71 bc 3d 79 6e 64 3e
       0.055209447 0.104980186 0.09201286 0.22307767
000020 84 37 2d 3e 5d 40 11 be 5a a0 3f be a6 26 11 3e
       0.16915709 -0.14184709 -0.18713513 0.141749
000030 43 c9 e6 3c 34 d9 8e 3c a1 9e 43 3c c1 2d 77 bd
       0.028172141 0.017437555 0.011939676 -0.06034637
000040 59 13 1d 3d cc e6 0d 3e ac 43 c3 bc 72 3f 04 be
       0.03834853 0.13857573 -0.02383598 -0.12914827
000050 6c 0e 1a 3d 9c 1f 45 3d 3e 03 1d bd cf 06 00 3e
       0.03761141 0.04812585 -0.03833317 0.12502597
000060 dc e9 27 bd 65 7c 9d 3c 00 98 33 3a 8d 0d 86 3d
       -0.04099451 0.019224355 0.0006850958 0.06545553
000070 47 9c 51 be 2d bd 0c 3e 63 26 bf 3d 22 28 99 3b
       -0.20469771 0.1374404 0.093334936 0.0046739737
000080 a5 1c f5 bc 94 cf 36 3e a3 75 a9 3c cf ea 2f be
       -0.029920885 0.17852622 0.020685976 -0.17179416
000090 46 58 93 bd cf 4f d3 3c dd 11 92 bc e1 a9 64 be
       -0.07194571 0.025794892 -0.017830784 -0.22330429
0000a0 c7 a5 14 3d fc c3 8b 3d 9c 7c cb bd 07 36 a2 bd
       0.03629091 0.068244904 -0.09935877 -0.07920461
0000b0 20 4a b6 bc f8 bb 7c 3c 2c 97 86 bd 5a ae b5 bd
       -0.022252142 0.015425675 -0.065718025 -0.088711455
0000c0 bc 58 80 bd bb c8 c6 bd b8 a1 7b bd ff ba 0d bb
       -0.06266925 -0.09706255 -0.061433524 -0.002162635
0000d0 52 02 1e be 0e b2 e0 3d 34 3a b4 bd 8b fc e0 bd
       -0.15430573 0.10971461 -0.08800164 -0.10985669
0000e0 ae 76 62 bd df f5 8b 3d de 07 4e bd fe 4a b2 3d
       -0.055288963 0.068340056 -0.05030047 0.0870571
0000f0 63 5f d3 bd 39 b4 9d bd 93 20 20 bc f6 68 46 3d
       -0.10320928 -0.0770039 -0.009773391 0.048439942
000100 79 e5 bd bd d7 21 ef bd a0 32 28 3e df 87 9c 3d
       -0.09272284 -0.11676376 0.16425562 0.07643103
000110 90 9c 6b 3d 60 ff bd bc 3e da 68 3c 45 bf f4 bd
       0.057522357 -0.023193061 0.014212189 -0.11950544
000120 ca dc 49 bc 40 59 95 bb f2 15 5d 3a fb a1 03 bd
       -0.012320707 -0.0045577586 0.0008433751 -0.0321369
000130 3c 27 37 3d ad 77 df 3b 26 63 ee 3d ce 8a 93 3d
       0.04471515 0.0068196864 0.11640005 0.07204209
000140 bd 74 d9 3d 61 2b 8d 3d 5d 60 34 3c e0 53 28 be
       0.10617969 0.068930395 0.011009303 -0.16438246
000150 08 0a ea 3c fd 2b b6 bd 37 58 ab bc 8b 48 21 be
       0.028569236 -0.08895109 -0.020916088 -0.15750329
000160 b4 88 05 3e f4 4c 24 3d 41 22 b4 3c b1 a0 8d 3d
       0.1304043 0.04011245 0.02198899 0.06915415
000170 bb aa e9 bc 43 96 46 bd b0 ac 6d 3d c8 b9 c6 bd
       -0.028523793 -0.048483144 0.058026016 -0.09703404
000180 e1 59 cc 3d 6d d9 f4 bd 15 b3 4c bd bc 82 bc 3d
       0.099780805 -0.11955533 -0.049975473 0.09204623
000190 a2 04 a6 bb 12 1b c1 bd 09 68 af bd 4d 30 90 bc
       -0.0050664702 -0.094289914 -0.08564765 -0.017601157
0001a0 13 39 8f 3e 1b 6e 91 bd d0 dc 9f 39 18 b7 c8 3b
       0.27973232 -0.07101079 0.0003049136 0.006125342
0001b0 ec 90 3e bd 00 69 a1 bd 3e b9 18 bd e6 5a 6f 3d
       -0.046524927 -0.07881355 -0.037286036 0.058436297
0001c0 91 df 0e 3e 2b 68 b8 3d 51 ac 25 be d2 2d 5d 3d
       0.13952471 0.090042435 -0.16179015 0.053998776
0001d0 15 93 d9 bd 9f c8 2c bd be f6 12 3d 1c b9 d3 bd
       -0.10623757 -0.042183515 0.035879843 -0.10338041
0001e0 06 9c a4 3d df d3 05 be 73 07 e6 bd 78 97 7c bd
       0.080375716 -0.13069104 -0.112318896 -0.06166789
0001f0 4d 9a 55 bd 2d 8d 1a 3d da 49 f8 bc 73 88 bf bd
       -0.052149106 0.037732292 -0.030308653 -0.093521975
000200 73 27 81 3c 47 5b 3e bd 47 e6 98 3c 9d e3 17 be
       0.015765881 -0.046473768 0.018664492 -0.14832921
000210 21 4c 8f bd cd d9 93 bd 8d 08 81 bd 60 48 eb 3c
       -0.06996942 -0.072192766 -0.06300459 0.028721035
000220 ba ae 0b be de 60 01 3e 2e d3 3f 3e 76 ec 0e 3d
       -0.13640872 0.12634608 0.18732902 0.034893475
000230 75 42 a2 ba f2 89 fc bd 96 6d 7d 3d f5 d4 23 be
       -0.0012379425 -0.123309985 0.061872087 -0.15999205
000240 4e 3f dd bc 4d 1f 89 bd ac 25 94 bc 8e 72 f3 bd
       -0.027007725 -0.06695423 -0.01808437 -0.11887084
000250 02 10 cc 3d 4c 0f e7 bc e6 1f cd bd c8 94 11 be
       0.09963991 -0.028205536 -0.1001585 -0.14216912
000260 f6 58 af bd 63 2e d3 3d 14 57 88 3a 60 bb 0a 3c
       -0.0856189 0.10311582 0.0010401928 0.008467525
000270 a7 a3 d3 3c d7 bc 6b 3d 28 0c 2b 3c 1c 17 85 3e
       0.025834871 0.05755314 0.01043991 0.25994194
000280 61 57 72 be ad 5b 3f be d2 c8 ac 3d 25 4b 37 3e
       -0.23666145 -0.18687315 0.08436741 0.17899759
000290 68 b9 99 3d 23 51 a1 bd 0f a9 f9 3d 61 56 94 3d
       0.075060666 -0.07876804 0.121904485 0.07243038
0002a0 2b 01 af bc 63 2d 36 bb 0e a6 76 bd 45 9d 8d bd
       -0.021362862 -0.0027798049 -0.060216956 -0.069147624
0002b0 b0 30 8a 3d a1 5f 58 bb 70 66 1d 3d cb 43 96 3d
       0.06747568 -0.0033015984 0.03842777 0.07337149
0002c0 19 ce ed 3c 72 1f b9 3d 2e 33 42 3c 17 0c 84 3c
       0.02902894 0.09039201 0.0118530225 0.016119046
0002d0 79 25 22 3e a8 9a e5 3b a4 8f d1 3a f5 52 18 3e
       0.15834607 0.007006962 0.0015988243 0.14875396
0002e0 f5 d4 d6 bd a4 ae bc bb 71 43 d7 bd 96 7b 66 bc
       -0.10489837 -0.0057581235 -0.1051091 -0.014067551
0002f0 88 88 12 3d 4c bb f0 bd ec 79 cc bc ac 27 ee 3d
       0.035774738 -0.11754474 -0.02496048 0.116286606
000300 e1 a1 82 bd a8 5b 05 be 86 2f 60 bd e3 ef 72 bd
       -0.06378532 -0.13023245 -0.054732822 -0.059310805
000310 85 3d 8c b9 e2 06 27 be e9 1d b9 bd d0 d1 4d 3e
       -0.00026748716 -0.1631122 -0.09038908 0.20099568
000320 39 61 9a bc 83 0a 24 3d 2a ad a5 3d 2f 09 62 3b
       -0.018845188 0.040049087 0.08089669 0.0034490337
000330 dc 82 80 3c 9f 78 2f 3d 66 92 28 39 5f 19 f2 bd
       0.015687399 0.042839643 0.00016076266 -0.118212454
000340 f2 58 4a 3e e8 f7 65 3d 8e 5b a2 3d 8b 7d 82 3d
       0.19760492 0.056144625 0.07927619 0.06371602
000350 0c a3 0a 3d e4 c2 98 3d 59 17 8b bd 63 10 00 bc
       0.0338469 0.074590474 -0.067915626 -0.007816407
000360 62 38 4f be d8 61 86 3d 0e 0e e1 bd 8d f0 af 3d
       -0.20236352 0.06561631 -0.10989009 0.08590803
000370 64 17 3c 3e 57 5b ed 3b 35 07 f3 bc d6 36 8c 3d
       0.18368298 0.0072435546 -0.029666523 0.068463966
000380 3b 11 0e bd 8c 74 37 bd 9d 6c 0a 3d bd ed bc 3d
       -0.0346844 -0.044788882 0.033794988 0.092250325
000390 7c 4a d1 bc 64 93 11 3e 51 ba 6b 3d de 06 95 bd
       -0.025548212 0.14216381 0.057550732 -0.072767004
0003a0 72 96 73 be 5a a3 0a be 78 36 96 3c 91 64 ae 3d
       -0.23787859 -0.13538876 0.01833652 0.08515275
0003b0 80 7f 5b 3d 06 81 fa bd 7e 27 0b be f5 35 eb bd
       0.05358839 -0.122316405 -0.13589284 -0.11484901
0003c0 10 3e b1 bd 79 5a 9c 3c d8 21 9c bd 8e 25 ae 3d
       -0.086544156 0.01908611 -0.07623643 0.08503257
0003d0 85 1d 69 bc 9a 6e 41 be 7e 5b 1b be 30 f5 b0 3d
       -0.014228229 -0.18889847 -0.1517162 0.08640516
0003e0 af 25 cc 3d c7 5d ff 3d 62 11 cd bd cd 24 e5 bc
       0.09968125 0.124690585 -0.10013081 -0.02797165
0003f0 2c 0a a1 bc 9c ac 66 be 1c 2a bc 3c f5 48 9d bd
       -0.01965817 -0.22526783 0.022969298 -0.07679931
