Assets/NN/CharacterBehav 3.onnx (onnx, 268569 bytes, 9 tensors)

action_model._discrete_distribution.branches.0.bias f4 [3]
1.7825004 -1.768722 -4.403151
00000000: f928 e43f 7c65 e2bf 9de6 8cc0

action_model._discrete_distribution.branches.0.weight f4 [3, 128]
-0.29505113 -0.105024494 -0.5126419 0.5432936 0.7445275 0.4241243 -2.3034961 -0.041582502
1.5474141 0.19110347 0.87601113 -0.6058326 -0.33776876 0.14689004 0.14124322 1.5230467
0.48610336 -0.4934885 -0.13790315 1.0900441 0.7764073 0.50395435 -3.0107872 1.5202992
1.2909366 0.010956307 0.13390434 -1.1778502 -2.203225 -1.0465305 -0.57842606 -3.3242505
0.68501884 -0.80245864 0.9912244 0.8054347 -0.3924457 0.24017923 0.58265275 0.08273622
-0.17298742 0.3621778 0.41434282 -0.93222845 -0.5965083 0.05897905 -0.9572609 1.1817657
0.24148077 -0.4272149 2.5032086 -0.33368817 -0.061988033 0.84718263 2.0998027 -1.6495719
0.20633227 -0.2992144 0.73816484 -0.39322424 0.4383566 2.442907 0.42814812 -0.5144054
0.53127134 1.7078944 -0.4321071 -0.67084146 0.7963379 0.010525654 -1.2963768 -2.150528
-0.013227796 -0.36535418 -1.3921474 -0.2576473 -0.85065085 -1.2571063 -0.7700314 0.27549326
-0.40080997 0.23329352 -0.1887199 -0.34674123 0.93090814 0.2178017 0.859075 0.8744476
-1.1722208 0.49889302 -0.7876075 0.025549378 0.051531527 -0.51306075 0.22335601 0.32105818
-0.070538245 -0.04573059 0.02175373 0.138964 2.2936862 0.49937716 0.4838195 0.10643828
0.24280605 0.4451497 0.5141987 -0.13161242 0.53026384 -0.7677266 0.17307322 -0.6385528
0.2317397 2.6447637 0.5223651 0.33239996 -0.21974316 1.2937328 0.7355581 -1.2980461
0.11203017 0.2121074 1.121552 0.5944765 0.5654421 -0.10361995 0.26627347 0.56541723
0.31700945 0.069007695 0.5398631 -0.54027724 -0.73852926 -0.41300815 2.305322 0.041938968
-1.5418866 -0.18320924 -0.85954016 0.6009511 0.3589685 -0.145523 -0.1235038 -1.5038033
-0.769457 0.5132478 0.09098807 -1.1365234 -0.78960717 -0.7256445 3.0743582 -1.5589663
-1.3215578 -0.013497949 -0.22448474 1.1754833 2.1699462 0.9059087 0.4264697 3.2626061
-0.78368086 0.817663 -0.9574044 -0.8224985 0.37977368 -0.2927219 -0.5901221 -0.070044175
0.10981212 -0.38502494 -0.39567193 0.92031157 0.5986671 -0.08284554 0.8883896 -1.1640797
-0.24427795 0.45948264 -2.5291958 0.2733204 0.03867711 -0.89734465 -2.0905058 1.6354147
-0.2532335 0.18417801 -0.7555632 0.36361167 -0.39624852 -2.3951466 -0.46809602 0.4345944
-0.62476104 -1.6794868 0.38170367 0.68380237 -0.824459 0.04183787 1.2216032 2.134541
0.025216218 0.37989208 1.4233468 0.18741503 0.76585686 1.2494565 0.74277294 -0.2589536
0.3384001 -0.22455859 0.23706575 0.38628808 -0.9383161 -0.27624372 -0.8566613 -0.8746165
1.1618603 -0.6098641 0.6392552 -0.016732935 -0.077967115 0.34883684 -0.19955395 -0.32826918
0.076001845 0.07421105 -0.044373393 -0.11850345 -2.3449352 -0.5458321 -0.68308365 -0.07444235
-0.33253565 -0.413337 -0.5030085 0.114169955 -0.538668 0.6742298 -0.30427948 0.65781564
-0.20157377 -2.6036062 -0.54747725 -0.3323495 0.22658585 -1.3034725 -0.6759066 1.2946538
-0.19125095 -0.32980734 -1.1181802 -0.6410402 -0.56930053 0.09168118 -0.27582857 -0.6083908
00000000: f110 97be 1517 d7bd 803c 03bf 4a15 0b3f
00000010: 5b99 3e3f d226 d93e 7b6c 13c0 6a52 2abd
00000020: aa11 c63f a1b0 433e 4442 603f d817 1bbf
00000030: 07f0 acbe 586a 163e 10a2 103e 32f3 c23f
00000040: 8ae2 f83e 86aa fcbe 7c36 0dbe 9186 8b3f
00000050: a1c2 463f 2703 013f bdb0 40c0 2a99 c23f
00000060: 693d a53f 1582 333c 381e 093e ccc3 96bf
00000070: a301 0dc0 b6f4 85bf bb13 14bf 85c0 54c0
00000080: 655d 2f3f ee6d 4dbf e2c0 7d3f f830 4e3f
00000090: a5ee c8be 8bf1 753e bb28 153f 9b71 a93d
000000a0: 9d23 31be 5e6f b93e be24 d43e 86a6 6ebf
000000b0: c5b4 18bf 0494 713d 0d0f 75bf 1944 973f
000000c0: bc46 773e e9bb dabe 9234 2040 2dd9 aabe
000000d0: 2ae7 7dbd f6e0 583f 2b63 0640 2c25 d3bf
000000e0: c448 533e a132 99be 5ff8 3c3f b054 c9be
000000f0: 4770 e03e 9758 1c40 3b36 db3e 13b0 03bf
00000100: 6601 083f 499c da3f 243d ddbe 44bc 2bbf
00000110: cddc 4b3f cb73 2c3c adef a5bf 40a2 09c0
00000120: 66b9 58bc b40f bbbe e331 b2bf 59ea 83be
00000130: 41c4 59bf dce8 a0bf c720 45bf 740d 8d3e
00000140: f736 cdbe 7fe4 6e3e ca3f 41be 1188 b1be
00000150: ff4f 6e3f 6907 5f3e 57ec 5b3f ccdb 5f3f
00000160: 550b 96bf e86e ff3e a5a0 49bf ee4c d13c
00000170: b912 533d f357 03bf 70b7 643e bd61 a43e
00000180: 5b76 90bd 0050 3bbd e134 b23c 944c 0e3e
00000190: c1cb 1240 5dae ff3e 31b7 f73e 50fc d93d
000001a0: 26a2 783e a9ea e33e 87a2 033f 68c5 06be
000001b0: 5fbf 073f bb89 44bf 1b3a 313e 3278 23bf
000001c0: 2c4d 6d3e cf43 2940 b8b9 053f 5430 aa3e
000001d0: 5a04 61be 0999 a53f 894d 3c3f 6026 a6bf
000001e0: 1370 e53d af32 593e 048f 8f3f 9d2f 183f
000001f0: d0c0 103f b236 d4bd ff54 883e 2fbf 103f
00000200: 104f a23e e853 8d3d 7834 0a3f 9c4f 0abf
00000210: 4110 3dbf ce75 d3be 658a 1340 32c8 2b3d
00000220: 8a5c c5bf 349b 3bbe d30a 5cbf eed7 193f
00000230: b8ca b73e fb03 15be 8fef fcbd a07c c0bf
00000240: 22fb 44bf 3564 033f f457 ba3d 9979 91bf
00000250: b223 4abf d7c3 39bf 49c2 4440 358c c7bf
00000260: ce28 a9bf 8026 5dbc 54df 65be 3d76 963f
00000270: 66e0 0a40 a2e9 673f 3d5a da3e 8ace 5040
00000280: 4f9f 48bf 5d52 513f 7418 75bf 438f 52bf
00000290: b271 c23e a5df 95be 3e12 17bf 5273 8fbd
000002a0: 2de5 e03d fd21 c5be 8395 cabe 8a99 6b3f
000002b0: 3f42 193f ecaa a9bd 806d 633f 9000 95bf
000002c0: 0024 7abe 4f41 eb3e 58de 21c0 a7f0 8b3e
000002d0: e46b 1e3d 61b8 65bf d9ca 05c0 4555 d13f
000002e0: d2a7 81be 2999 3c3e 976c 41bf 4f2b ba3e
000002f0: 16e1 cabe 154a 19c0 48aa efbe 2883 de3e
00000300: 57f0 1fbf 6cf9 d6bf aa6e c33e ac0d 2f3f
00000310: bf0f 53bf 305e 2b3d 7e5d 9c3f 529c 0840
00000320: 3e92 ce3c 3781 c23e 3a30 b63f bae9 3f3e
00000330: 320f 443f 31ee 9f3f 5e26 3e3f 9195 84be
00000340: c742 ad3e b0f2 65be 5dc1 723e 8dc7 c53e
00000350: 7c35 70bf d16f 8dbe 284e 5bbf dee6 5fbf
00000360: d7b7 943f 0e20 1cbf 3ba6 233f 8213 89bc
00000370: 39ad 9fbd be9a b23e df57 4cbe e612 a8be
00000380: dba6 9b3d f7fb 973d e0c0 35bd f0b1 f2bd
00000390: 6b13 16c0 a7bb 0bbf 92de 2ebf 3b75 98bd
000003a0: 1d42 aabe e8a0 d3be 2ac5 00bf f0d1 e93d
000003b0: 25e6 09bf 539a 2c3f 85ca 9bbe 9b66 283f
000003c0: 5b69 4ebe 7ca1 26c0 7827 0cbf b729 aabe
000003d0: 1f06 683e 30d8 a6bf 3708 2dbf 37b7 a53f
000003e0: 4ad7 43be 82dc a8be 8720 8fbf 361b 24bf
000003f0: aebd 11bf 58c3 bb3d 6739 8dbe 80bf 1bbf

action_model._discrete_distribution.branches.1.bias f4 [3]
0.84885347 -1.1924046 -0.95675945
00000000: 764e 593f b7a0 98bf 30ee 74bf

action_model._discrete_distribution.branches.1.weight f4 [3, 128]
1.2263702 0.36086795 -1.3464069 -1.5239663 -0.32697302 0.5327968 -0.22533624 -0.5663417
-0.33668754 0.21780369 -0.1381105 -0.06812439 -0.10761007 -0.9722045 1.4320282 -0.27407718
-0.7444671 -0.7480476 -0.065283485 0.02878276 1.2329243 0.1387555 -0.9731016 0.60949874
-1.6652491 0.16373985 0.6918444 0.6018103 -0.22329134 0.17033754 -0.081963226 0.11740882
-1.4364231 -0.006604536 -0.189852 -0.85720354 -0.19584186 -0.38585523 -0.30854583 -0.19440876
0.4016852 -0.68478173 -0.61425894 -0.48053852 -0.7087271 -0.45666865 -0.14711723 -1.1691641
1.4410414 1.6292825 -0.42524093 -0.34767014 -0.2383944 0.0861863 -0.3966014 1.649002
-0.29671097 -1.2496396 1.3880713 1.2037841 -0.52722263 -0.5888159 0.27180433 -0.06390305
-0.41539305 -0.16229342 0.049228013 0.67820483 -0.51726335 -0.95403767 -0.15598315 -0.047923215
0.0045020357 -0.076732546 -1.7425082 0.241501 0.4128629 -1.2430081 -0.37898415 0.785857
-0.49741495 -1.2353231 0.1363491 0.68287116 0.53297746 0.8826044 -1.1911843 0.46560255
-0.43195543 -0.3936607 -0.560186 0.12590277 0.80938214 -0.62345546 -0.7875839 0.36416957
-0.1502047 1.5291086 1.5636431 -0.98398834 -0.2141502 -0.83960736 -0.2401147 0.419158
0.89108694 0.26237422 -0.2793749 -0.7089855 -0.28346047 0.021927347 -0.4150418 -0.64018244
0.079297096 0.02107266 -0.9078246 0.8320168 -0.29192325 2.1033802 -0.3805478 -0.23388453
-0.012736511 -0.7669072 0.71058977 0.08340704 0.019598119 0.23843431 -0.17056361 -0.8140845
0.14350955 -1.4011801 -1.7850933 -0.66128504 3.4322302 -1.459315 -0.096099794 1.410451
-0.91706645 -1.4063302 -1.4881077 -1.0932009 0.52438647 -0.421219 0.23895238 1.0966529
0.4167988 -2.0385396 -1.0012528 0.58197415 0.9097784 -2.1437273 -0.034464374 0.08536835
1.1828308 -0.28529015 0.29952118 -0.48261675 0.00010825685 -0.17745641 0.22259489 -0.12031444
1.4467587 0.29786772 -1.2261146 3.445868 -0.8456786 0.704712 1.5635775 -0.58939296
-1.1688169 0.7184819 0.58459526 -0.34324026 0.10347145 -1.15962 0.5398021 0.79375875
-0.37007523 -2.2322116 0.9751054 0.79972523 -1.2607888 -0.7178688 -2.337734 0.03967422
-0.19809283 2.9012544 -0.8335345 0.9314726 0.33983174 -1.5134051 0.7533957 1.3216196
-0.8597469 -0.52461135 0.56434083 -0.0032909142 3.6537457 0.034697767 0.18002261 -0.35643193
-1.5197198 -1.3167912 0.76356524 -2.299815 -0.23804373 1.2051175 0.13203028 0.1331621
1.2397022 4.4196835 -2.2878702 -0.8195072 -1.6379414 0.6507295 1.2552491 -1.5833099
-0.23898076 0.65300345 0.7963706 3.1472607 0.14078738 -0.31796917 -0.539396 -1.5721883
0.5555626 -0.9658157 -0.42134765 7.5984526 -2.1388814 -1.1425534 10.618894 -1.2531552
0.067251556 -1.2613615 1.4486325 0.3707345 0.09157922 0.43321142 1.6803174 1.0040933
-1.4874713 -2.1042435 11.293739 -0.45846313 -1.2844203 -0.27049682 0.4141379 0.5221559
-3.7760513 3.1705618 1.0185835 1.5113484 -0.15143785 -0.60844016 3.270252 5.374222
00000000: b3f9 9c3f afc3 b83e 1057 acbf 5411 c3bf
00000010: 0269 a7be 5f65 083f 8bbe 66be c5fb 10bf
00000020: 4f62 acbe ee07 5f3e d76c 0dbe cd84 8bbd
00000030: ab62 dcbd 65e2 78bf b34c b73f d853 8cbe
00000040: 6595 3ebf 0c80 3fbf 59b3 85bd d3c9 eb3c
00000050: 77d0 9d3f ec15 0e3e 301d 79bf 1c08 1c3f
00000060: e226 d5bf 6bab 273e b71c 313f 3d10 1a3f
00000070: 7ca6 64be f76c 2e3e 56dc a7bd 0974 f03d
00000080: b6dc b7bf dd6a d8bb 9068 42be b171 5bbf
00000090: c58a 48be d18e c5be b8f9 9dbe 1713 47be
000000a0: afa9 cd3e db4d 2fbf 1340 1dbf 2509 f6be
000000b0: 246f 35bf 79d0 e9be e6a5 16be 2ba7 95bf
000000c0: 0b74 b83f 548c d03f 2eb9 d9be d201 b2be
000000d0: a91d 74be 7182 b03d 570f cbbe 7f12 d33f
000000e0: 80ea 97be 31f4 9fbf 52ac b13f 9915 9a3f
000000f0: 10f8 06bf a4bc 16bf f029 8b3e 9adf 82bd
00000100: 66ae d4be 3f30 26be 50a3 493d d59e 2d3f
00000110: 5f6b 04bf d03b 74bf 0cba 1fbe 224b 44bd
00000120: d085 933b f425 9dbd 820a dfbf 0a4c 773e
00000130: c462 d33e e41a 9fbf 360a c2be ed2d 493f
00000140: 2cad febe 111f 9ebf 199f 0b3e a5d0 2e3f
00000150: 3671 083f 5df2 613f ba78 98bf 7563 ee3e
00000160: 4329 ddbe e58d c9be 5a68 0fbf a8ec 003e
00000170: ab33 4f3f c79a 1fbf 199f 49bf 6f74 ba3e
00000180: 43cf 19be d5b9 c33f 7525 c83f a9e6 7bbf
00000190: 314a 5bbe 82f0 56bf a1e0 75be e19b d63e
000001a0: 461e 643f ea55 863e 3a0a 8fbe 1380 35bf
000001b0: bb21 91be fba0 b33c 5c80 d4be ffe2 23bf
000001c0: 8466 a23d 92a0 ac3c 3167 68bf 0eff 543f
000001d0: f776 95be c89d 0640 29d7 c2be 6d7f 6fbe
000001e0: cdac 50bc 0854 44bf 36e9 353f 4fd1 aa3d
000001f0: 3c8c a03c 2028 743e 3aa8 2ebe d767 50bf
00000200: 2bf4 123e df59 b3bf f07d e4bf fa49 29bf
00000210: a9a9 5b40 d5ca babf f8cf c4bd a989 b43f
00000220: dec4 6abf a102 b4bf 507a bebf 02ee 8bbf
00000230: 313e 063f 04aa d7be efaf 743e 1f5f 8c3f
00000240: a766 d53e 6f77 02c0 0d29 80bf 42fc 143f
00000250: 3de7 683f d432 09c0 842a 0dbd 9ad5 ae3d
00000260: 0067 973f 8d11 92be d75a 993e 8b19 f7be
00000270: f407 e338 22b7 35be eaef 633e 6b67 f6bd
00000280: 642f b93f 1e82 983e 53f1 9cbf 1a89 5c40
00000290: 657e 58bf 0168 343f 4f23 c83f 75e2 16bf
000002a0: cb9b 95bf 6eee 373f 09a8 153f 30bd afbe
000002b0: d7e8 d33d 6e6e 94bf 7830 0a3f c633 4b3f
000002c0: 807a bdbe 8edc 0ec0 82a0 793f cbba 4c3f
000002d0: 8761 a1bf 40c6 37bf 6f9d 15c0 6f81 223d
000002e0: d9d8 4abe 27ae 3940 8462 55bf fd74 6e3f
000002f0: 6dfe ad3e 42b7 c1bf 8ade 403f d52a a93f
00000300: 5f18 5cbf ee4c 06bf a478 103f 61ac 57bb
00000310: f8d6 6940 3f1f 0e3d d957 383e 3f7e b6be
00000320: 2e86 c2bf 9d8c a8bf 0379 433f 2b30 13c0
00000330: bcc1 73be 4a41 9a3f f232 073e a55b 083e
00000340: 90ae 9e3f 0c6e 8d40 776c 12c0 39cb 51bf
00000350: 10a8 d1bf 3596 263f 01ac a03f e6a9 cabf
00000360: 5fb7 74be 3c2b 273f f2de 4b3f b86c 4940
00000370: 912a 103e dbcc a2be db15 0abf 773d c9bf
00000380: 5a39 0e3f b33f 77bf e1ba d7be 8626 f340
00000390: 6fe3 08c0 313f 92bf fde6 2941 6467 a0bf
000003a0: 2fbb 893d 4b74 a1bf ca6c b93f ead0 bd3e
000003b0: e38d bb3d e3cd dd3e a414 d73f 2186 803f
000003c0: 7665 bebf edab 06c0 28b3 3441 aebb eabe
000003d0: e267 a4bf 8f7e 8abe e209 d43e 02ac 053f
000003e0: d3aa 71c0 7cea 4a40 f260 823f dd73 c13f
000003f0: 8612 1bbe bcc2 1bbf cf4b 5140 a0f9 ab40

discrete_action_output_shape f4 [1, 2]
3.0 3.0
00000000: 0000 4040 0000 4040

network_body._body_endoder.seq_layers.0.bias f4 [128]
0.019384362 -0.051764216 -0.03493248 -0.109138444 -0.0056050927 -0.009209523 -0.016194073 -0.027678572
-0.095506616 0.077037424 0.0069771255 -0.048880447 -0.055953782 -0.058200147 -0.06915165 -0.073698044
-0.027131118 -0.15844369 -0.08259833 -0.008216151 -0.04972665 -0.05117516 -0.102912545 -0.047835182
0.009677164 -0.026881415 -0.09552207 0.00424539 -0.038309164 -0.020157123 -0.024932979 -6.1781066e-05
-0.04005094 0.027806457 -0.084979445 0.045909088 0.0034241157 -0.06949655 -0.02020053 -0.035366125
-0.07917785 -0.0053916364 -0.08455375 -0.024313694 -0.0071288766 -0.09374886 -0.11288631 -0.06512275
-0.002156 -0.006765679 0.021582855 -0.09067495 0.009681166 -0.08101913 -0.047451805 -0.02819406
-0.086227745 -0.028656328 -0.08389571 -0.015453444 0.17694372 -0.03465386 -0.1628881 -0.049408913
-0.019243598 -0.0184671 -0.04019937 -0.041075785 -0.072081335 -0.13477378 -0.0076562027 0.110170275
0.08024763 0.15906607 -0.039004095 -0.17227672 0.004920154 -0.0419338 -0.0086800875 0.013513722
-0.020120347 -0.014662574 -0.010450331 -0.015741162 -0.046055898 -0.08503279 -0.018995568 -0.06556164
0.07084586 0.23915845 -0.042751573 0.055565953 -0.07000534 -0.12721229 -0.070271306 -0.03961362
-0.0016840957 -0.11740694 -0.18577217 -0.058162533 0.10874958 -0.07513665 -0.02520789 -0.023667408
-0.09642676 -0.008669527 -0.015333993 -0.030602314 -0.048177738 0.15229574 -0.056439813 -0.061485484
0.045416784 -0.029138781 -0.06567813 -0.09501892 -0.0702669 -0.033700433 -0.063868806 -0.004484849
-0.10656099 -0.017649723 -0.07051732 -0.19372112 -0.07418504 -0.12267622 0.031172408 -0.05269475
00000000: f4cb 9e3c b706 54bd 5c15 0fbd fa83 dfbd
00000010: edaa b7bb 8ae3 16bc 6fa9 84bc 2cbe e2bc
00000020: f998 c3bd ccc5 9d3d 5fa0 e43b dd36 48bd
00000030: cb2f 65bd 4763 6ebd 619f 8dbd 00ef 96bd
00000040: 1442 debc 103f 22be 5029 a9bd 099d 06bc
00000050: 2cae 4bbd 0b9d 51bd d0c3 d2bd d3ee 43bd
00000060: f88c 1e3c 6a36 dcbc 13a1 c3bd ea1c 8b3b
00000070: 12ea 1cbd 8d20 a5bc 3f40 ccbc 7590 81b8
00000080: 740c 24bd 5eca e33c b409 aebd 2b0b 3c3d
00000090: 2167 603b 3554 8ebd 957b a5bc 12dc 10bd
000000a0: ff27 a2bd 53ac b0bb 842a adbd 832d c7bc
000000b0: 5a99 e9bb 67ff bfbd f030 e7bd 145f 85bd
000000c0: ad4b 0dbb a1b2 ddbb 87ce b03c cab3 b9bd
000000d0: c19d 1e3c 5ced a5bd d35c 42bd 3bf7 e6bc
000000e0: 2c98 b0bd adc0 eabc 84d1 abbd 7130 7dbc
000000f0: bc30 353e 35f1 0dbd 23cc 26be 0061 4abd
00000100: c0a4 9dbc 5148 97bc 18a8 24bd 153f 28bd
00000110: 619f 93bd 2302 0abe e2e0 fabb f4a0 e13d
00000120: df58 a43d 37e2 223e c2c2 1fbd 4f69 30be
00000130: 3e39 a13b c7c2 2bbd ed36 0ebc a968 5d3c
00000140: 6dd3 a4bc 4b3b 70bc dd37 2bbc 9cf3 80bc
00000150: 1ca5 3cbd ac25 aebd 989c 9bbc 2e45 86bd
00000160: a217 913d f4e5 743e 461c 2fbd 2099 633d
00000170: f65e 8fbd f043 02be 67ea 8fbd e441 22bd
00000180: e0bc dcba 0d73 f0bd 0f3b 3ebe d63b 6ebd
00000190: 1ab8 de3d 3ee1 99bd c780 cebc 27e2 c1bc
000001a0: 657b c5bd a20a 0ebc 6e3b 7bbc b4b1 fabc
000001b0: 0556 45bd 6af3 1b3e 6f2d 67bd 34d8 7bbd
000001c0: f306 3a3d 74b4 eebc 4182 86bd 4899 c2bd
000001d0: 18e8 8fbd 7709 0abd a6cd 82bd a4f5 92bb
000001e0: a63c dabd 2796 90bc 626b 90bd d45e 46be
000001f0: 54ee 97bd ac3d fbbd 475d ff3c 73d6 57bd

network_body._body_endoder.seq_layers.0.weight f4 [128, 383]
-0.64333594 0.0026002391 -0.008268375 0.049311277 -0.0053413347 0.037919328 -0.18942554 0.5306886
0.4533639 0.36555874 0.023562152 -0.058026846 0.04430676 -0.073905356 0.27337742 -0.3540446
-0.40438563 -0.55737317 -0.364286 0.07010071 -0.0084328875 0.047191024 0.03963104 0.335742
0.2070016 0.12018772 0.06811425 -0.03498005 0.11405699 0.03764564 0.052050117 -0.06478211
-1.1879282 -0.07169306 0.15627462 0.6528947 -0.14853287 0.017366517 -0.027905703 -0.109259166
0.03154527 -0.0880207 -0.5815354 0.009084539 0.087010406 0.14597255 -0.12417863 -0.055785976
-0.024329852 -0.049898967 -4.0074377 -0.059806425 -0.23699713 -0.784903 0.2891073 -0.0022071528
1.0359274 -0.0016044866 -0.068023995 -0.07209514 0.06585198 -0.3371286 -0.26924112 0.18429346
0.08820395 0.015752483 -0.06194093 -0.12462036 -0.5334742 -0.5846903 0.3125338 -0.6407369
0.39358258 0.044176754 0.35825753 -0.065880574 0.008402721 -0.16462399 -0.66191745 -0.24608566
-0.30749032 0.4225561 0.011809442 -0.056193557 0.13924314 -0.13516378 -0.7430368 -0.2401542
-0.70361364 -1.5483228 0.37854 -0.0012981631 0.08912492 -0.07570616 -0.86248314 -0.08157367
-0.69576716 -0.28191334 -0.37652537 0.4174608 -0.0065762415 -1.3800297 0.32896006 0.017853985
-0.2434919 -0.76873446 -0.18663974 0.41435733 -0.40594622 -0.033023167 0.42558968 -0.010651487
-0.031243611 -0.030186329 -0.84918386 0.22689587 -0.16272795 0.56947434 0.08735326 -0.8145639
0.5004823 0.28415313 -2.796429 -1.0024055 0.06064855 0.094887085 -0.09513239 0.0479831
-0.33616102 -0.013753099 -1.0258476 -0.07253939 -2.1670258 0.054045923 -0.19856519 0.59384114
0.011512615 -1.0883763 0.26159582 1.2281183 0.77881926 -3.7663648 1.157113 -1.2395948
-0.6424159 0.0054990295 0.025478879 0.07928561 -0.22192948 -0.08466037 -0.45969433 0.9861507
0.07038343 0.60928994 -0.050899368 -1.1242923 -0.79630697 1.0529357 0.09180012 -0.049431734
1.9725395 -2.9553926 0.40689844 -0.038650315 -0.518508 0.07648458 -0.012673971 0.0151958475
-2.399469 -0.15662931 -0.5200322 -0.20114611 0.008959125 -0.5062671 0.4407888 0.2768683
0.16935055 -2.7276444 1.4345038 0.0808919 -1.6297884 -0.008374081 0.74376094 -0.07852432
-0.79128855 -0.05022653 -2.3536513 0.022642415 0.8009693 -0.18528487 -0.03409131 -0.93970734
0.36654824 -0.41120854 0.14381036 -1.9720078 1.3355546 -1.2226443 -1.2707309 -0.00401907
1.0000582 0.13692829 -0.6590865 -0.003244908 -2.077296 0.9820168 0.9754054 -0.054355375
0.050987344 -1.045537 0.18779035 1.1142936 0.053407725 1.5698818 0.12811132 -1.832918
-1.3808753 0.053011354 -0.46324366 0.20675199 -0.6007206 -0.045646068 -0.46224934 1.92385
0.57057655 -0.33615726 -0.015280787 -1.536798 0.26618046 -1.0832858 0.10726458 -0.065140806
0.02424364 -0.6082425 -1.5487146 -0.03506441 -0.20879613 0.3415553 -2.490129 -0.03577349
0.73176694 2.4390068 0.687478 0.4482937 0.033837393 -1.2402036 -0.03810149 -1.6890285
0.020157209 0.024379358 0.056271967 -0.7864292 -1.5837911 0.03561955 0.1858687 0.39159033
00000000: aab1 24bf c668 2a3b 1478 07bc 9ffa 493d
00000010: 5d06 afbb 4c51 1b3d c5f8 41be 35db 073f
00000020: 501f e83e 842a bb3e 6a05 c13c 8fad 6dbd
00000030: 017b 353d b15b 97bd 20f8 8b3e 5545 b5be
00000040: a20b cfbe 02b0 0ebf b283 babe f690 8f3d
00000050: 182a 0abc 604b 413d 2854 223d 60e6 ab3e
00000060: 3af8 533e fb24 f63d 7c7f 8b3d 3e47 0fbd
00000070: b696 e93d 5132 1a3d 8132 553d 7cac 84bd
00000080: 080e 98bf d0d3 92bd 7406 203e 1b24 273f
00000090: 0019 18be 3a44 8e3c 809a e4bc 45c3 dfbd
000000a0: 9d35 013d 3244 b4bd 81df 14bf 51d7 143c
000000b0: 8332 b23d d479 153e 5e51 febd d67f 64bd
000000c0: 664f c7bc dc62 4cbd ee3c 80c0 95f7 74bd
000000d0: 60af 72be 67ef 48bf df05 943e e1a5 10bb
000000e0: 4599 843f a34d d2ba 2a50 8bbd 9ea6 93bd
000000f0: 67dd 863d 1f9c acbe f9d9 89be 6db7 3c3e
00000100: 46a4 b43d 5a0b 813c c6b5 7dbd f638 ffbd
00000110: c491 08bf 43ae 15bf 6e04 a03e 5507 24bf
00000120: a883 c93e aff2 343d 886d b73e 65ec 86bd
00000130: 91ab 093c 3193 28be 6c73 29bf e1fd 7bbe
00000140: 5f6f 9dbe 4659 d83e 647c 413c 372b 66bd
00000150: c195 0e3e 6068 0abe a937 3ebf fcea 75be
00000160: 0620 34bf 712f c6bf ffcf c13e 2027 aaba
00000170: 2087 b63d d50b 9bbd b2cb 5cbf 1910 a7bd
00000180: cc1d 32bf f256 90be efc7 c0be 6cbd d53e
00000190: 837d d7bb d0a4 b0bf 746d a83e 8542 923c
000001a0: f155 79be c8cb 44bf 7d1e 3fbe a526 d43e
000001b0: 2fd8 cfbe 4d43 07bd e4e6 d93e 9383 2ebc
000001c0: 9af2 ffbc 5249 f7bc 1d64 59bf 6457 683e
000001d0: 28a2 26be 12c9 113f 44e6 b23d 4287 50bf
000001e0: 9c1f 003f 857c 913e b1f8 32c0 d34e 80bf
000001f0: 9d6a 783d 2954 c23d c5d4 c2bd ed89 443d
00000200: 4c1d acbe ae54 61bc f94e 83bf 888f 94bd
00000210: 8db0 0ac0 425f 5d3d ac54 4bbe f905 183f
00000220: 689f 3c3c ea4f 8bbf e3ef 853e fb32 9d3f
00000230: b360 473f 1f0c 71c0 471c 943f 0bab 9ebf
00000240: 5e75 24bf 3431 b43b 15b9 d03c 7e60 a23d
00000250: 7b41 63be 6b62 adbd 0e5d ebbe 5f74 7c3f
00000260: 3025 903d 6dfa 1b3f db7b 50bd cfe8 8fbf
00000270: c6da 4bbf 99c6 863f b401 bc3d ee78 4abd
00000280: 2d7c fc3f 2725 3dc0 fe54 d03e cb4f 1ebd
00000290: f1bc 04bf f3a3 9c3d 7da6 4fbc 01f8 783c
000002a0: e690 19c0 6f63 20be d520 05bf 3ff9 4dbe
000002b0: 4bc9 123c b89a 01bf 12af e13e afc1 8d3e
000002c0: 3b6a 2d3e ba91 2ec0 d29d b73f a7aa a53d
000002d0: e89c d0bf 7133 09bc 1e67 3e3f 5cd1 a0bd
000002e0: e391 4abf 55ba 4dbd 39a2 16c0 967c b93c
000002f0: 530c 4d3f 51bb 3dbe 54a3 0bbd a990 70bf
00000300: 36ac bb3e ed89 d2be 0643 133e c06a fcbf
00000310: 74f3 aa3f 9c7f 9cbf 4fa7 a2bf 67b2 83bb
00000320: e801 803f ee36 0c3e e5b9 28bf 86a8 54bb
00000330: 6bf2 04c0 7465 7b3f 2bb4 793f bea3 5ebd
00000340: 1bd8 503d 28d4 85bf 1d4c 403e 2ca1 8e3f
00000350: 0fc2 5a3d e3f1 c83f 9d2f 033e 0f9d eabf
00000360: 86c0 b0bf 6f22 593d 462e edbe cbb6 533e
00000370: d3c8 19bf 5ff7 3abd f2ab ecbe b840 f63f
00000380: 4e11 123f ce1c acbe 445c 7abc ccb5 c4bf
00000390: ce48 883e 1ca9 8abf 88ad db3d 8b68 85bd
000003a0: 999a c63c c8b5 1bbf 483c c6bf b39f 0fbd
000003b0: a7ce 55be 56e0 ae3e 465e 1fc0 3987 12bd
000003c0: 1455 3b3f b018 1c40 8ffe 2f3f c086 e53e
000003d0: 1499 0a3d febe 9ebf 4f10 1cbd 1632 d8bf
000003e0: bb20 a53c 38b7 c73c 6f7d 663d 6d53 49bf
000003f0: abb9 cabf cee5 113d 5d54 3e3e 877e c83e

network_body._body_endoder.seq_layers.2.bias f4 [128]
-0.13795403 -0.04516385 0.22585885 0.19400653 0.32189092 -0.4358815 -0.100711755 -0.18767586
-0.16075943 1.0144668 -0.34785673 0.25604147 0.31822526 -0.26746505 -0.22726075 0.058586624
-0.0052801813 0.02116272 0.14814082 0.17075658 0.30022356 -0.16182402 0.302383 -0.37457868
0.3000071 0.020188931 -0.20222928 0.68816876 0.16728088 -0.21729212 -0.17483926 -0.32102185
0.025754077 -0.61417055 -0.70276076 0.22006449 0.4931678 -0.18997933 -0.15060899 -0.6117547
-0.38188526 -0.01673013 -0.17243259 0.21598978 0.15031758 -0.3058498 0.18786238 -0.26214504
-0.26364726 -0.26554295 0.2290158 0.14064412 0.1593518 -0.0561893 -1.2056628 -0.6829865
-0.067199424 -0.026074896 -0.16735166 -0.16789348 0.31105196 -0.87294537 0.16386557 0.31219327
0.6713415 -0.07854066 0.13586886 -0.38577044 0.24606375 -0.28632575 0.0319663 0.45231232
0.04433118 -0.28706673 -0.8271511 -0.07315227 0.12707561 -0.0020565619 0.69046646 -0.33290303
-0.19631056 -0.22740042 -0.13227461 -0.44336835 -0.011456043 -0.91056496 0.298958 0.16305807
-0.07246001 0.08441181 0.20963062 -0.1733391 -0.17749147 -0.11453291 -0.07933616 -0.72076726
-0.239782 -0.156019 -0.2550327 -0.25318447 -0.43578508 0.4115511 -0.2924306 0.21321777
-0.30100822 0.58511645 0.21015055 0.26127493 -0.5429075 0.24494971 -0.26944914 -0.05780168
0.29988503 -0.28741565 0.116486445 -0.44055423 0.1953198 -0.26885217 -0.16240418 -0.35243657
-0.43126026 -0.3411443 -0.71271443 0.10994317 -0.0013692521 -0.10385585 -0.1074621 0.099184856
00000000: d243 0dbe bbfd 38bd 8b47 673e a6a9 463e
00000010: e3ce a43e dc2b dfbe f741 cebd 1a2e 40be
00000020: 1f9e 24be 0cda 813f 471a b2be de17 833e
00000030: 6cee a23e 2ef1 88be 0bb7 68be 87f8 6f3d
00000040: 5f05 adbb 715d ad3c 3ab2 173e d0da 2e3e
00000050: e7b6 993e 32b5 25be f2d1 9a3e c7c8 bfbe
00000060: 889a 993e 4263 a53c 3115 4fbe d42b 303f
00000070: ae4b 2b3e d381 5ebe 1009 33be fa5c a4be
00000080: 37fa d23c 483a 1dbf 21e8 33bf 9658 613e
00000090: 7d80 fc3e f189 42be 3e39 1abe f59b 1cbf
000000a0: 7786 c3be a00d 89bc 2b92 30be 6d2c 5d3e
000000b0: daec 193e 5898 9cbe ff5e 403e e037 86be
000000c0: c6fc 86be 3ff5 87be 1e83 6a3e 0305 103e
000000d0: 1e2d 233e c026 66bd 2953 9abf 34d8 2ebf
000000e0: da9f 89bd 059b d5bc 3c5e 2bbe 45ec 2bbe
000000f0: 3442 9f3e 5979 5fbf 60cc 273e ccd7 9f3e
00000100: 09dd 2b3f edd9 a0bd 3521 0b3e b483 c5be
00000110: 23f8 7b3e 4a99 92be 18ef 023d 7b95 e73e
00000120: 9d94 353d 69fa 92be 2dc0 53bf dbd0 95bd
00000130: 1c20 023e 62c7 06bb 69c2 303f 4472 aabe
00000140: a305 49be a8db 68be ff72 07be 2d01 e3be
00000150: 21b2 3bbc c91a 69bf 0611 993e b2f8 263e
00000160: ea65 94bd 19e0 ac3d 69a9 563e ce7f 31be
00000170: 53c0 35be 3b90 eabd ff7a a2bd 3484 38bf
00000180: 6a89 75be 72c3 1fbe a593 82be 65a1 81be
00000190: 391f dfbe d3b6 d23e 77b9 95be c255 5a3e
000001a0: c01d 9abe 31ca 153f b531 573e d4c5 853e
000001b0: fcfb 0abf 19d4 7a3e 3df5 89be 74c1 6cbd
000001c0: 888a 993e 2528 93be 7290 ee3d 5390 e1be
000001d0: ea01 483e fea6 89be 484d 26be 9172 b4be
000001e0: 25ce dcbe 77aa aebe 7474 36bf e229 e13d
000001f0: 7a78 b3ba 60b2 d4bd 1715 dcbd 6e21 cb3d

network_body._body_endoder.seq_layers.2.weight f4 [128, 128]
-0.9485388 -0.0748951 0.09891039 0.093567125 -1.4426548 0.054685023 -0.073561534 0.35315636
0.22448234 -0.05717954 -0.05292615 2.791421 -0.07365891 -0.3036587 -0.27918243 -0.15957355
0.23775367 0.46328595 -0.46442765 -0.039007787 0.51841813 -0.1657688 0.34439734 0.03273136
0.067092374 0.020745058 -0.59469426 0.8066603 0.31980938 -0.032921292 0.18285502 0.7762118
0.45847332 0.14109223 -0.28098002 -0.46818244 -0.051029533 0.11595211 0.2136435 0.0046073
0.2727737 0.15482917 0.19800138 0.0920932 0.19395989 -0.59465826 -0.030307887 0.34526652
-0.109724686 -0.028162785 0.5567238 -0.8942555 -0.47208428 0.26180005 0.32080603 -0.14666665
-0.0023299763 0.23706786 0.121381454 0.42415166 -0.04541817 -0.50394714 -0.17848665 -0.3627658
0.23982202 0.083782814 -0.09169399 0.19263844 0.48277292 -0.2317016 -0.5338527 -0.771054
-0.21766774 -0.0041098637 0.13846199 0.20330039 0.08519636 0.75385296 0.17349349 -0.4333699
0.094669625 -0.021677593 -0.06852437 -2.5521735e-05 0.24782728 0.4523196 -0.69201106 -0.046493303
0.006297478 0.17630874 -0.06661131 0.115337424 -0.13199532 0.14791593 -0.5836854 0.6743724
0.068427764 -0.08334641 0.044803753 -0.379504 -0.20294148 0.024999438 -0.00222731 0.31753245
0.099046424 0.486532 -0.30047145 -1.9141779 -0.050319858 -0.19584647 -0.30704418 -0.29038155
-0.105075315 -0.3437055 0.061840665 0.21126153 0.0538124 -0.15661894 0.080844685 0.11887808
0.18891662 -0.29208618 0.059541047 0.040170748 -2.1762724 0.17022064 0.3333887 0.03594099
-0.26556695 -0.15143013 -0.6024531 0.18104969 0.11291582 0.2214555 -0.07751675 0.25708115
-0.1016165 -0.51456714 -0.28184634 -0.18936215 0.014420376 -0.1232046 -0.5799893 0.0010461874
0.14197825 -0.7693408 -0.07496953 -0.057914827 0.13747047 0.51807064 -0.048044123 -0.18344447
0.15368368 -0.07026605 0.42212814 0.5338091 0.39230016 0.44600245 0.92227626 0.27121466
0.78744245 0.54936916 0.41245213 -0.27696073 -0.36024863 -0.4928596 -0.17433086 0.019451855
0.48509905 -0.014701673 0.2460816 -0.055199463 0.024534866 -0.89778745 0.07838143 0.5487733
-0.20981288 0.052948326 0.6016988 -0.38315022 0.0915754 0.040734246 0.61229855 -0.20018168
-0.12178167 0.33485678 0.0030850787 0.34674224 -0.045687348 0.24362676 -0.23598845 -0.494689
-0.1138486 -0.4035907 0.027823484 -0.29127872 0.45973542 1.9805949 -0.16478913 -1.5396568
0.0019364471 -0.02896212 -0.096975215 -0.0017281816 -0.104770586 -0.16119832 -0.08262949 -0.11510568
0.2073502 -0.99857414 -0.27945736 0.18292785 0.09454103 0.087070525 0.28377807 0.013887115
0.15512405 0.0694667 -0.01990917 -0.07506537 0.08125456 0.26390892 -0.2036178 -0.18566996
-0.83687997 0.03889055 0.14460398 -0.108474694 -0.0020400293 -0.20431472 0.18945378 -0.08924502
-0.124289066 0.095647745 0.43637684 1.0191987 0.041700386 0.18356203 0.11326981 -0.48867956
-0.30632865 -0.96636516 0.31799346 -0.07685026 0.07228984 -0.28798825 0.03862752 -0.94597286
0.09687177 -0.39050657 0.12859544 -0.08859091 -0.5681904 0.00081740716 -0.14054208 -0.13321348
00000000: 70d3 72bf 9a62 99bd 8891 ca3d 1fa0 bf3d
00000010: eaa8 b8bf 67fd 5f3d 6ea7 96bd e9d0 b43e
00000020: b3de 653e 1835 6abd 17c9 58bd a4a6 3240
00000030: 7cda 96bd 2779 9bbe 00f1 8ebe 4067 23be
00000040: b375 733e d133 ed3e 76c9 edbe a1c6 1fbd
00000050: 0db7 043f 4cbf 29be d954 b03e 5211 063d
00000060: ba67 893d 8af1 a93c e23d 18bf 4a81 4e3f
00000070: 0ebe a33e 7ad8 06bd 593e 3b3e d1b5 463f
00000080: 04bd ea3e 7b7a 103e 9ddc 8fbe 9cb5 efbe
00000090: 5804 51bd 4d78 ed3d 5dc5 5a3e d5f8 963b
000000a0: ffa8 8b3e 8a8b 1e3e e0c0 4a3e 5c9b bc3d
000000b0: 6c9d 463e 863b 18bf 3f48 f8bc c6c6 b03e
000000c0: 56b7 e0bd a4b5 e6bc 7385 0e3f eeed 64bf
000000d0: 08b5 f1be a80a 863e b040 a43e c82f 16be
000000e0: 84b2 18bb ebc1 723e d796 f83d 682a d93e
000000f0: 6708 3abd ae02 01bf 34c5 36be 70bc b9be
00000100: e793 753e 5396 ab3d 0fca bbbd 0343 453e
00000110: 032e f73e 2f43 6dbe 92aa 08bf cc63 45bf
00000120: 4be4 5ebe 09ac 86bb fbc8 0d3e fa2d 503e
00000130: 6e7b ae3d 82fc 403f 47a8 313e a9e2 ddbe
00000140: 26e2 c13d 3595 b1bc 8156 8cbd 8217 d6b7
00000150: 6fc6 7d3e 6f96 e73e a327 31bf c36f 3ebd
00000160: 135b ce3b 478a 343e 836b 88bd 0736 ec3d
00000170: c829 07be 4677 173e 686c 15bf aba3 2c3f
00000180: db23 8c3d 86b1 aabd 2484 373d 594e c2be
00000190: e4cf 4fbe 9fcb cc3c 10f8 11bb 9d93 a23e
000001a0: dad8 ca3d b91a f93e 65d7 99be c803 f5bf
000001b0: 321c 4ebd fa8b 48be e534 9dbe e4ac 94be
000001c0: ba31 d7bd 2bfa afbe a34c 7d3d f154 583e
000001d0: 646a 5c3d b760 20be e691 a53d 5a76 f33d
000001e0: 5c73 413e 528c 95be 50e1 733d 158a 243d
000001f0: 0c48 0bc0 524e 2e3e ecb1 aa3e dc36 133d
00000200: 64f8 87be 8010 1bbe 5e3a 1abf 1765 393e
00000210: 6940 e73d 3bc5 623e 1ac1 9ebd 24a0 833e
00000220: 501c d0bd acba 03bf 2a4e 90be 27e8 41be
00000230: 7143 6c3c b152 fcbd 2e7a 14bf 3920 893a
00000240: bf62 113e 85f3 44bf a089 99bd 1938 6dbd
00000250: 0fc5 0c3e 47a0 043f eac9 44bd ded8 3bbe
00000260: 415f 1d3e a6e7 8fbd 2e21 d83e b7a7 083f
00000270: 91db c83e 6f5a e43e 4c1a 6c3f a6dc 8a3e
00000280: d495 493f 75a3 0c3f ed2c d33e cccd 8dbe
00000290: 8272 b8be 1858 fcbe ca83 32be 7f59 9f3c
000002a0: e75e f83e 49df 70bc d1fc 7b3e d518 62bd
000002b0: 58fd c83c 66d5 65bf 7186 a03d 687c 0c3f
000002c0: 30d9 56be 58e0 583d ef08 1a3f 442c c4be
000002d0: e28b bb3d f4d8 263d 99bf 1c3f 6dfc 4cbe
000002e0: ab68 f9bd 5972 ab3e 082f 4a3b 3388 b13e
000002f0: a822 3bbd 4b79 793e f5a6 71be e047 fdbe
00000300: 7429 e9bd 71a3 cebe 13ee e33c 7c22 95be
00000310: 7162 eb3e 2284 fd3f 7bbe 28be 7913 c5bf
00000320: 62d0 fd3a f841 edbc f19a c6bd 2784 e2ba
00000330: f691 d6bd 2c11 25be a639 a9bd 87bc ebbd
00000340: 9c53 543e 8ea2 7fbf 0915 8fbe 7051 3b3e
00000350: ba9e c13d 0852 b23d 5c4b 913e c886 633c
00000360: d7d8 1e3e 8f44 8e3d 8e18 a3bc dfbb 99bd
00000370: ca68 a63d 121f 873e 2f81 50be 4420 3ebe
00000380: c43d 56bf b34b 1f3d 1113 143e fb27 debd
00000390: 03b2 05bb e137 51be 2c00 423e 18c6 b6bd
000003a0: 448b febd f7e2 c33d c96c df3e 1a75 823f
000003b0: 06ce 2a3d aff7 3b3e 01fa e73d 3534 fabe
000003c0: 1cd7 9cbe b563 77bf 0ad0 a23e ab63 9dbd
000003d0: b20c 943d 3273 93be e437 1e3d 472b 72bf
000003e0: b564 c63d 7af0 c7be 86ae 033e 276f b5bd
000003f0: ed74 11bf 4447 563a 43ea 0fbe 1d69 08be
