Assets/NN/CharacterBehav_9.onnx (onnx, 268569 bytes, 9 tensors)

action_model._discrete_distribution.branches.0.bias f4 [3]
0.34852725 -0.3384083 -0.9211502
00000000: 2a72 b23e da43 adbe 80d0 6bbf

action_model._discrete_distribution.branches.0.weight f4 [3, 128]
-0.18547793 0.40833634 -0.21825624 0.05901725 0.4232593 0.47628284 0.07948011 8.674969e-05
0.18267064 0.018912712 -0.2153365 0.075364925 0.7920801 -0.032672387 0.15382351 0.13021424
0.29610068 0.2202297 0.105136655 0.007943306 0.57203364 0.27592 -0.20320724 0.047793012
0.27952418 -0.010541515 0.039622135 0.07736776 0.0096179135 -0.0126403915 -0.18965048 -0.16755727
-0.037725173 0.020914685 0.24350213 1.0591731 0.7228754 -0.032018878 -0.3274454 -0.23072477
0.32726276 0.08902478 0.0047627743 0.43900782 0.005452008 0.084945954 0.23778386 -0.50595057
-0.079408936 0.10589146 0.58190805 0.06896043 -0.019801578 0.06421434 0.23366076 0.0038825693
0.008944721 0.08487835 0.46592203 0.07627705 -0.17095299 -0.0035129613 -0.5518688 -0.14854835
0.0087032085 -0.39718285 -0.24542937 -0.86927295 -0.20545143 0.014438724 0.22688091 -0.012655364
-0.048050303 -0.0706994 0.22691587 -1.0225381 0.080134034 -0.0011651433 0.45218623 0.07906889
0.16414702 0.109055035 0.006161453 0.03361826 0.012481329 -0.02388543 0.06883272 0.006129096
-0.59947544 -0.35929692 -0.037410226 0.012436533 -0.08774021 0.19146866 -0.22184387 -0.7779701
0.0029619152 -0.126916 -0.056881014 0.34116086 0.0046873484 -0.18983585 0.18287082 0.08445919
0.044534486 -0.046716947 -0.013293661 0.06573216 0.11196617 0.034648255 -0.06389763 -0.18273804
-0.01932467 0.041681934 -0.0935359 0.017017096 0.13849622 -0.20800364 -0.0025322996 -0.6376994
-0.01424528 0.14748672 0.08424142 0.07995547 0.0649095 -0.113226265 0.016474053 -0.016246986
0.18513872 -0.4299681 0.22243898 -0.05790055 -0.4174844 -0.48139858 -0.054050703 0.018286215
-0.16879849 -0.011151687 0.20855504 -0.06419576 -0.76417404 0.034911655 -0.14687124 -0.14633033
-0.3119727 -0.21714258 -0.112538725 0.0215394 -0.5657141 -0.3027829 0.18574205 -0.033583783
-0.31567812 -0.019502504 0.014545558 -0.083743304 0.008342561 -0.0104734255 0.15821826 0.18066663
0.018775882 0.016297964 -0.2482025 -1.0694342 -0.71372384 0.030420622 0.322847 0.22117387
-0.35113725 -0.07209351 0.0048210365 -0.44472644 -0.0012180648 -0.07225597 -0.241067 0.5193739
0.07798461 -0.076798536 -0.59299743 -0.05452097 0.03172604 -0.0665628 -0.24248451 -0.009348607
-0.014990005 -0.059688367 -0.45132172 -0.086441524 0.17231926 -0.0046844212 0.5198429 0.13420552
-0.024694934 0.42523238 0.24890669 0.8735521 0.20659432 -0.011762221 -0.24983537 0.008666422
0.042964865 0.054346647 -0.23312077 0.97201204 -0.07572657 -0.0025648347 -0.46664396 -0.074382156
-0.17131318 -0.1063321 0.005032664 -0.042502675 -0.011430315 0.06539905 -0.05583744 0.00027218167
0.59872955 0.35284618 0.0386336 -0.029369365 0.053309716 -0.15669455 0.23431085 0.75685364
0.019821184 0.10669453 0.046925344 -0.34489 -0.0019954683 0.20691499 -0.18592188 -0.079350255
-0.06516812 -0.00062027806 0.0054265987 -0.04793759 -0.09131812 -0.038803175 0.05433329 0.16093774
0.027855296 -0.060274202 0.094480455 -0.043813147 -0.1731934 0.22467755 0.008008694 0.61344457
0.03160233 -0.14671601 -0.07317169 -0.08364157 -0.054304436 0.13621522 -0.019889357 0.01454357
00000000: eded 3dbe 7611 d13e 907e 5fbe 12bc 713d
00000010: 71b5 d83e 58db f33e 78c6 a23d 63ed b538
00000020: 030e 3b3e d5ee 9a3c 2c81 5cbe ed58 9a3d
00000030: c3c5 4a3f 7bd3 05bd e983 1d3e e256 053e
00000040: 829a 973e e583 613e e351 d73d a424 023c
00000050: cc70 123f 6345 8d3e 8f15 50be 9bc2 433d
00000060: cb1d 8f3e 52b6 2cbc d24a 223d fd72 9e3d
00000070: 7494 1d3c a519 4fbc bc33 42be 2294 2bbe
00000080: b685 1abd 4655 ab3c 9f58 793e fc92 873f
00000090: 5d0e 393f 3a26 03bd eca6 a7be 1d43 6cbe
000000a0: fc8e a73e a052 b63d 0c11 9c3b a2c5 e03e
000000b0: c2a6 b23b 25f8 ad3d 9d7d 733e fa85 01bf
000000c0: 27a1 a2bd 9fdd d83d edf7 143f 203b 8d3d
000000d0: eb36 a2bc cf82 833d c444 6f3e b472 7e3b
000000e0: e18c 123c b3d4 ad3d 558d ee3e 2437 9c3d
000000f0: 4d0e 2fbe b639 66bb 4647 0dbf 0f1d 18be
00000100: e797 0e3c 8d5b cbbe d651 7bbe ac88 5ebf
00000110: dc61 52be 6690 6c3c 7853 683e 7258 4fbc
00000120: 65d0 44bd d9ca 90bd a25c 683e 87e2 82bf
00000130: 501d a43d b9b7 98ba f484 e73e dfee a13d
00000140: 2816 283e 3f58 df3d 04e6 c93b 4db3 093d
00000150: 7d7e 4c3c 61ab c3bc 2bf8 8c3d 95d6 c83b
00000160: 3977 19bf c4f5 b7be 773b 19bd 9ac2 4b3c
00000170: 24b1 b3bd 5c10 443e 0a2b 63be 0c29 47bf
00000180: b11c 423b 45f6 01be 11fc 68bd a3ac ae3e
00000190: 5498 993b 5464 42be 7d42 3b3e f1f8 ac3d
000001a0: cb69 363d 455a 3fbd a8cd 59bc 959e 863d
000001b0: 854e e53d 54eb 0d3d c3dc 82bd ae1f 3bbe
000001c0: c54e 9ebc adba 2a3d c08f bfbd 7067 8b3c
000001d0: f4d1 0d3e e8fe 54be f0f4 25bb 4540 23bf
000001e0: 0965 69bc c206 173e c486 ac3d b2bf a33d
000001f0: 46ef 843d 2ce3 e7bd 98f4 863c 6618 85bc
00000200: 0195 3d3e c724 dcbe 0bc7 633e 2129 6dbd
00000210: 84c0 d5be e079 f6be 4564 5dbd f9cc 953c
00000220: 83d9 2cbe 91b5 36bc 748f 553e 1179 83bd
00000230: e9a0 43bf 86ff 0e3d 6a65 16be 9ed7 15be
00000240: e3ba 9fbe a05a 5ebe b47a e6bd 6573 b03c
00000250: a4d2 10bf 5c06 9bbe 2a33 3e3e 268f 09bd
00000260: 90a0 a1be b7c3 9fbc 7e50 6e3c 9c81 abbd
00000270: 3daf 083c bb98 2bbc f803 223e ac00 393e
00000280: e1cf 993c 4f83 853c cc28 7ebe 38e3 88bf
00000290: 9bb6 36bf ab34 f93c 344c a53e 677b 623e
000002a0: 43c8 b3be c3a5 93bd c9f9 9d3b 2fb3 e3be
000002b0: 79a7 9fba f0fa 93bd 45da 76be b0f5 043f
000002c0: 65b6 9f3d 8d48 9dbd aece 17bf 6151 5fbd
000002d0: 2af3 013d 1452 88bd dc4d 78be e62a 19bc
000002e0: a398 75bc ca7b 74bd a413 e7be 4108 b1bd
000002f0: 7674 303e c67f 99bb 6d14 053f 2c6d 093e
00000300: 084d cabc 0fb8 d93e 65e1 7e3e 1ca1 5f3f
00000310: 768d 533e 55b6 40bc d8d4 7fbe 9cfd 0d3c
00000320: edfb 2f3d 979a 5e3d 36b7 6ebe c8d5 783f
00000330: 8816 9bbd c916 28bb f5eb eebe ac55 98bd
00000340: b96c 2fbe a5c4 d9bd 0ce9 a43b 4917 2ebd
00000350: 3746 3bbc f0ef 853d cdb5 64bd 9bb3 8e39
00000360: 5746 193f 41a8 b43e 443e 1e3d 0698 f0bc
00000370: 4a5b 5a3d 8974 20be 2fef 6f3e 29c1 413f
00000380: 0960 a23c a982 da3d ca34 403d 6c95 b0be
00000390: 67c6 02bb 86e1 533e 4e62 3ebe 6382 a2bd
000003a0: dd76 85bd 289a 22ba 9cd1 b13b 355a 44bd
000003b0: ff04 bbbd 14f0 1ebd 958c 5e3d ddcc 243e
000003c0: ca30 e43c 15e2 76bd f87e c13d 6a75 33bd
000003d0: 9c59 31be df11 663e e636 033c b40a 1d3f
000003e0: 7271 013d b93c 16be 0adb 95bd 454c abbd
000003f0: 546e 5ebd 017c 0b3e 01ef a2bc 2748 6e3c

action_model._discrete_distribution.branches.1.bias f4 [3]
0.2964893 -0.2731414 -0.31622216
00000000: 72cd 973e 31d9 8bbe dfe7 a1be

action_model._discrete_distribution.branches.1.weight f4 [3, 128]
-0.15793633 -0.34772316 -0.3112332 0.09193126 -0.01634686 0.080570556 -0.22967593 0.19527408
0.20377453 0.3319578 -0.12333395 0.5418649 -0.074485205 -0.10266254 -0.21956642 -0.35354987
-0.1540394 -0.10715146 0.375585 -0.043120094 0.047380093 0.018954076 -0.061783466 0.077049844
-0.14780515 -0.30470702 0.08519633 0.16230898 0.037689473 -0.04377086 -0.11186915 -0.6982479
-0.242809 0.0012809272 -0.179452 -0.21798417 -0.35635403 0.096332856 0.9019632 0.7660289
0.3895081 -0.13782825 -0.5974781 0.26604944 0.1265057 0.10773572 0.5218857 0.1658068
-0.07605961 -0.11709391 -0.011999062 0.044194754 0.4356307 -0.029776359 -0.2514446 0.1135973
0.06780446 0.1799784 0.38349143 -0.08333718 -0.7336216 0.103615664 -0.0011679648 0.057135534
-0.048255693 -0.020047499 -0.10779063 0.021682492 0.020479131 0.5967583 -0.22069563 -0.25068113
0.5233059 0.015448087 -0.115829155 -0.04608486 -0.14754395 -0.0134414295 0.10972937 0.18766513
-0.122888945 -0.03504965 0.65987974 -0.43847346 -0.52537256 -0.16434684 0.049839802 0.3995522
-0.13176642 -0.09298867 -0.21249242 -0.1734912 -0.4965177 -0.08755493 0.18719454 0.10819411
0.2796054 -0.3788425 -0.055411752 0.06411011 0.19133484 -0.043733492 -0.13131824 0.20199199
-0.017768145 -0.080718406 -0.34407717 -0.074794196 -0.2310351 -0.17063405 0.18689167 -0.74285126
0.018032838 -0.24144167 0.016206658 0.021654008 -0.6045763 -0.03744261 -0.3251404 -0.055514142
-0.614091 0.14641441 -0.47043642 0.09974524 -0.17579122 0.18088824 0.07948663 -0.09139136
-0.2093908 -0.33847567 -0.5127077 -0.0038232906 -0.10021926 -0.35234162 -0.13492021 0.2144787
-1.1767863 -0.5935324 -0.8598977 -0.0095437225 0.504276 -0.1709998 0.2507693 0.4991944
0.30584887 -0.054609455 -0.69408125 -0.56540877 -0.40490213 -1.3878926 -0.48929176 -0.31011647
-0.06330091 1.4040024 -1.1825407 -0.022874773 -0.98528415 0.6142359 -0.030412646 0.6109324
0.25153545 -0.5351586 0.41193202 -0.31367746 0.33114296 0.16568309 -1.4141059 -0.1423962
-0.45007536 0.40162703 -0.36181667 -0.47707525 -0.1289989 -0.3103602 -0.90707564 0.26330125
0.2623348 -0.87786466 1.8384094 -0.25909397 -0.3238331 -0.20988324 0.42800152 -1.6078392
-0.66016114 0.18656646 0.3842196 -0.18449545 0.74690646 -1.4233544 0.18418373 -0.08446319
0.9357321 0.18437621 0.08966586 -0.23720488 -0.29413483 -0.77511317 0.49662814 0.07717614
-0.82456315 -0.11628521 0.17496575 -0.053300746 0.14089447 -0.3891921 0.9607473 -0.07801476
0.19203055 0.1611517 -0.22706185 0.62840277 0.7658288 0.2992907 -0.6738982 0.13429175
-0.2778564 0.20167337 0.17770761 0.10727051 0.52918863 -0.37869778 0.01025934 0.14223874
0.1800272 0.8225932 0.08157441 -0.044567056 -0.8664951 0.31530792 0.36344075 -0.02155474
0.5130694 0.5506444 1.3046677 -1.1309255 0.25910255 0.3181137 -0.11205144 0.66354465
-0.5740013 0.48812085 -0.69219744 -0.0016666601 1.2781143 0.030736612 1.0786246 0.13839537
1.0619575 0.41556486 1.0760305 -0.885585 0.70752543 -1.8346661 -0.6439937 0.29142824
00000000: 10ba 21be c508 b2be f559 9fbe 7546 bc3d
00000010: dae9 85bc 2d02 a53d 2b30 6bbe eef5 473e
00000020: 45aa 503e 5ff6 a93e 8396 fcbd a8b7 0a3f
00000030: b38b 98bd bd40 d2bd 05d6 60be 7d04 b5be
00000040: 81bc 1dbe 3a72 dbbd ad4c c03e b29e 30bd
00000050: a111 423d 9445 9b3c a910 7dbd 4fcc 9d3d
00000060: 3c5a 17be 8f02 9cbe 6a7b ae3d 5334 263e
00000070: 4760 1a3d 1349 33bd a71b e5bd 60c0 32bf
00000080: eca2 78be c9e4 a73a 44c2 37be 3e37 5fbe
00000090: 0974 b6be 294a c53d 0fe7 663f 781a 443f
000000a0: 9b6d c73e d922 0dbe 53f4 18bf a237 883e
000000b0: b68a 013e 8ca4 dc3d 4d9a 053f 42c9 293e
000000c0: 24c5 9bbd efce efbd b797 44bc 8f05 353d
000000d0: fd0a df3e 8ded f3bc 59bd 80be b4a5 e83d
000000e0: 11dd 8a3d 424c 383e fd58 c43e afac aabd
000000f0: a0ce 3bbf 7334 d43d 6516 99ba f306 6a3d
00000100: c3a7 45bd a73a a4bc 55c1 dcbd 7b9f b13c
00000110: dac3 a73c 27c5 183f 09fe 61be 4759 80be
00000120: 60f7 053f f919 7d3c d637 edbd 7ac3 3cbd
00000130: c315 17be 7139 5cbc cbb9 e03d 4a2b 403e
00000140: 33ad fbbd 3990 0fbd e1ed 283f 987f e0be
00000150: d17e 06bf 8a4a 28be d224 4c3d 1b92 cc3e
00000160: c7ed 06be d870 bebd 9d97 59be ada7 31be
00000170: 9137 febe 0050 b3bd edaf 3f3e e094 dd3d
00000180: 7028 8f3e a5f7 c1be 6ff7 62bd 294c 833d
00000190: 48ed 433e e421 33bd 4a78 06be fdd6 4e3e
000001a0: 808e 91bc b14f a5bd e22a b0be b32d 99bd
000001b0: 7794 6cbe b1ba 2ebe 8860 3f3e 802b 3ebf
000001c0: 9ab9 933c 7c3c 77be d3c3 843c bf63 b13c
000001d0: 83c5 1abf 6c5d 19bd cd78 a6be cc62 63bd
000001e0: 1135 1dbf a9ed 153e 0bdd f0be 3b47 cc3d
000001f0: 9d02 34be c43a 393e e3c9 a23d 652b bbbd
00000200: 8b6a 56be af4c adbe d040 03bf 2c90 7abb
00000210: c13f cdbd 1f66 b4be 8628 0abe 4ea0 5b3e
00000220: efa0 96bf bdf1 17bf 4122 5cbf 465d 1cbc
00000230: 3b18 013f 921a 2fbe d564 803e 6996 ff3e
00000240: 3998 9c3e 2aae 5fbd 4faf 31bf a1be 10bf
00000250: 554f cfbe 77a6 b1bf 7384 fabe 96c7 9ebe
00000260: e8a3 81bd 5ab6 b33f 7e5d 97bf e063 bbbc
00000270: 953b 7cbf 903e 1d3f f123 f9bc 1166 1c3f
00000280: 41c9 803e 2700 09bf c1e8 d23e 559a a0be
00000290: 928b a93e d4a8 293e 6c01 b5bf 4fd0 11be
000002a0: 4770 e6be 0fa2 cd3e 0940 b9be 3543 f4be
000002b0: 4a18 04be 88e7 9ebe 1c36 68bf 6ccf 863e
000002c0: bf50 863e bdbb 60bf 0051 eb3f f7a7 84be
000002d0: 74cd a5be a2eb 56be 0423 db3e adcd cdbf
000002e0: 5200 29bf 470b 3f3e 6eb8 c43e 60ec 3cbe
000002f0: 4335 3f3f 7a30 b6bf a99a 3c3e 09fb acbd
00000300: 248c 6f3f 1ecd 3c3e bca2 b73d d6e5 72be
00000310: d798 96be d16d 46bf 0b46 fe3e 860e 9e3d
00000320: 9216 53bf f126 eebd 392a 333e e251 5abd
00000330: a446 103e 3044 c7be 89f3 753f 34c6 9fbd
00000340: a8a3 443e f404 253e e782 68be 01df 203f
00000350: 5b0d 443f a13c 993e 9884 2cbf c783 093e
00000360: 3243 8ebe 7783 4e3e fcf8 353e a4b0 db3d
00000370: e878 073f ade4 c1be ca16 283c 08a7 113e
00000380: 0d59 383e 7895 523f 7c10 a73d f28b 36bd
00000390: 9fd2 5dbf 0a70 a13e e814 ba3e 9193 b0bc
000003a0: 8458 033f 08f7 0c3f 5aff a63f 2bc2 90bf
000003b0: 17a9 843e cddf a23e 3a7b e5bd 10de 293f
000003c0: c0f1 12bf faea f93e da33 31bf d573 daba
000003d0: 4099 a33f 59cb fb3c 5f10 8a3f 84b7 0d3e
000003e0: 39ee 873f ebc4 d43e 5ebb 893f b3b5 62bf
000003f0: 6320 353f 57d6 eabf c5dc 24bf 1536 953e

discrete_action_output_shape f4 [1, 2]
3.0 3.0
00000000: 0000 4040 0000 4040

network_body._body_endoder.seq_layers.0.bias f4 [128]
0.020833097 -0.013631967 -0.033795804 -0.03987718 -0.05058014 -0.026752 -0.019743621 -0.010266429
-0.020248983 -0.024411751 -0.023706751 -0.040227894 -0.022246558 0.013261027 -0.050700188 -0.010081552
-0.06445669 -0.053067062 -0.022478545 0.009867741 -0.038737968 0.00058787374 -0.0844882 -0.04680027
-0.0051558013 -0.002878514 -0.077969074 -0.025183385 -0.03681615 -0.024331542 -0.031383935 -0.054005478
0.019874712 -0.010579347 -0.06830342 -0.043255184 -0.004497062 0.0014304542 -0.010053802 -0.040470865
-0.081187434 -0.006875898 0.013733342 -0.016367028 0.0047510145 -0.0033310105 -0.023558373 0.0043275435
-0.0065871906 -0.04093889 -0.08282131 -0.088661365 -0.027562289 -0.036393896 -0.008553612 0.021274587
-0.0070802127 -0.027589351 -0.089333974 -0.04226421 0.024254892 -0.035031907 -0.05344017 -0.020591758
-0.006689681 -0.04807364 -0.02607648 0.023257857 -0.014770816 -0.03537183 -0.004573295 -0.028366372
0.01126646 -0.09277517 -0.035713565 -0.028243981 -0.025665693 -0.058484484 -0.013969004 0.0023458526
-0.019068958 -0.06210035 -0.011261381 -0.0020369962 -0.00045470824 -0.038082853 -0.014111971 0.0009855552
-0.04343668 -0.008838663 -0.06272144 -0.00955639 0.0004983459 0.020671967 -0.10708609 -0.025489628
-0.029075962 -0.045162346 0.0043084295 -0.023513949 -0.016339941 0.02082545 -0.0051141516 -0.02982025
-0.022753313 -0.025148736 0.013366245 -0.101179 -0.021286719 -0.0529147 -0.002783376 -0.03819028
-0.005942343 -0.025066076 0.02505391 -0.0059913243 -0.015136472 -0.042336654 -0.0021185945 -0.020474501
-0.040288553 -0.007035598 -0.057941195 0.03635112 -0.061498206 -0.019032866 -0.049311064 -0.00071960856
00000000: 2caa aa3c 9d58 5fbc 786d 0abd 4156 23bd
00000010: 1f2d 4fbd 0327 dbbc 60bd a1bc 8634 28bc
00000020: 32e1 a5bc 27fb c7bc a934 c2bc 01c6 24bd
00000030: 6a3e b6bc c744 593c 00ab 4fbd 182d 25bc
00000040: de01 84bd d95c 59bd ed24 b8bc 4eac 213c
00000050: b4ab 1ebd 8a1b 1a3a 2608 adbd a4b1 3fbd
00000060: fff1 a8bb 73a5 3cbb 40ae 9fbd 634d cebc
00000070: 88cc 16bd f152 c7bc 718c 00bd d934 5dbd
00000080: 4bd0 a23c ff54 2dbc aae2 8bbd 592c 31bd
00000090: 175c 93bb 147e bb3a b4b8 24bc c7c4 25bd
000000a0: 9945 a6bd 374f e1bb d001 613c 2514 86bc
000000b0: 66ae 9b3b 154d 5abb 7dfd c0bc 11ce 8d3b
000000c0: 5cd9 d7bb 8aaf 27bd 389e a9bd 1794 b5bd
000000d0: 4fca e1bc c411 15bd 7324 0cbc 0b48 ae3c
000000e0: 2101 e8bb 1003 e2bc bbf4 b6bd 3c1d 2dbd
000000f0: 32b2 c63c 9e7d 0fbd 14e4 5abd 0cb0 a8bc
00000100: 1d35 dbbb dde8 44bd 589e d5bc 4387 be3c
00000110: 4b01 72bc 0de2 10bd 94db 95bb 9860 e8bc
00000120: f596 383c e900 bebd 6348 12bd ec5f e7bc
00000130: dc40 d2bc 6d8d 6fbd 40de 64bc e0bc 193b
00000140: 8136 9cbc f05c 7ebd a881 38bc 207f 05bb
00000150: e865 eeb9 c4fc 1bbd e535 67bc bf2d 813a
00000160: a9ea 31bd 0ad0 10bc 1974 80bd 6892 1cbc
00000170: 6da3 023a 4258 a93c f44f dbbd a0cf d0bc
00000180: b630 eebc 27fc 38bd ba2d 8d3b 53a0 c0bc
00000190: 57db 85bc 229a aa3c 9d94 a7bb 9949 f4bc
000001a0: 2865 babc b904 cebc 18fe 5a3c f036 cfbd
000001b0: 7c61 aebc 16bd 58bd 4d69 36bb 696d 1cbd
000001c0: fcb7 c2bb 5f57 cdbc dc3d cd3c df52 c4bb
000001d0: f7fe 77bc 3369 2dbd 1ed8 0abb 24ba a7bc
000001e0: 9c05 25bd e08a e6bb bf53 6dbd e9e4 143d
000001f0: 8be5 7bbd d0ea 9bbc 66fa 49bd 1da4 3cba

network_body._body_endoder.seq_layers.0.weight f4 [128, 383]
0.4885789 0.038356643 -0.019695083 0.013101383 0.020395657 0.63097024 0.21169387 -0.0504033
-0.04985798 -0.0029464525 -0.008962761 0.00034175024 -0.016435746 0.013566474 0.46865973 0.3215884
0.011839453 0.036220253 0.38498452 0.058413375 -0.050991613 0.031186895 0.04164277 0.019103767
-0.50161177 0.054994505 0.059652973 -0.14184074 0.011399965 -0.08262732 -0.06578782 0.02405724
0.6626887 0.31948906 0.06321963 -0.05825965 0.50365525 -0.06524696 -0.012770254 -0.05531065
0.054319 -0.2455736 0.016323538 -0.063511014 -0.022922887 0.19337976 -0.028492663 -0.049639396
0.44074422 -0.09358083 0.67735875 -0.7277692 0.05160016 0.058125164 -0.034259245 0.07092463
-0.75543445 0.071667135 -0.06112686 -0.089463525 -0.09053853 0.08391509 0.17498116 -0.063503265
-0.03731789 -0.081454955 -0.11160177 -0.009850478 0.24174312 -0.24522811 0.10878334 0.17358196
-0.5851167 -0.017749175 -0.52518046 -0.08565695 -0.03721221 -0.11743658 0.2022839 0.352849
0.28843012 -0.5960928 0.021359162 0.06602156 -0.00054931693 -0.0061299163 0.40924782 0.061701417
-0.11368671 0.05575644 0.22423556 -0.06090952 -0.14323115 0.038469028 0.35337177 -0.051521864
0.26864544 -0.05011625 -0.030997762 -0.6436459 0.06618813 0.10704632 0.11050807 -0.050774038
0.15356979 0.22133096 -0.2042298 0.0014508214 -0.20138301 -0.012925355 -0.67566913 0.001642752
-0.1755372 -0.13584939 0.5862738 0.40606296 0.31160223 -0.34374505 0.006492694 0.25960776
0.07938258 -0.38819122 1.2954042 -0.18278825 -0.15779224 0.0009571754 -0.40611234 -0.054593664
-0.17600495 0.06101609 0.29233608 -0.032759666 -0.16988973 0.31285697 0.08327776 -0.098166384
0.024553396 0.0045918953 0.016322382 -1.4532682 0.9218601 0.7742828 -0.36019892 -0.076351315
0.2001499 -0.03825657 -0.1955125 -0.02385858 0.09455682 -0.108988866 -0.22727801 -0.11642078
0.18743533 -0.5395307 -0.04566085 0.14222755 0.0714466 1.7717414 0.03066487 -1.4287795
-0.256959 0.22741714 -0.3341536 -0.023466675 -0.15295121 -0.002137952 -0.2132905 -0.08267778
0.29264054 -0.38215908 0.026837077 0.29757538 -0.019106805 -0.012957044 -0.64716274 -0.7921852
-0.42761242 -0.41097385 -0.532612 0.0919155 0.03363499 0.030172864 0.024707356 -0.06994226
0.5643439 0.023635162 0.69156057 -0.5383235 -0.22961515 0.51143485 0.025702946 -0.141106
-0.75247496 -0.80670106 -0.2640668 0.16530962 -0.36958972 0.2782528 0.3023742 -0.011761815
-0.2972148 -0.031717986 -0.30481812 -0.03908373 -0.003115327 -0.4061642 -0.17322181 -1.2934494
0.011127256 -0.068080306 0.22688358 0.7580585 0.053076968 0.21404937 -0.6923029 0.037038926
0.31978926 0.058599498 0.16322535 -0.13860622 -0.6734586 0.030287096 -0.12863012 0.101970136
0.5244544 -0.7064026 0.08784995 0.04998101 0.3299244 0.37872857 0.034293123 0.091037326
-0.004230613 -0.80812746 0.86080176 -0.034947965 -0.15268716 -0.56822604 -0.18570565 0.040918656
-0.45393285 -0.22916724 0.4316828 -0.6324827 0.107747465 0.71263313 -0.43413597 0.20709905
0.023911403 -0.009171712 -0.01988374 0.20132984 -0.6059276 -0.072207086 0.27588972 -0.1854599
00000000: 0327 fa3e db1b 1d3d 9557 a1bc 2fa7 563c
00000010: cb14 a73c 4487 213f 47c6 583e b173 4ebd
00000020: e237 4cbd 4519 41bb 8bd8 12bc f12c b339
00000030: 42a4 86bc eb45 5e3c 2bf4 ef3e 3ca7 a43e
00000040: 44fa 413c b05b 143d b11c c53e dd42 6f3d
00000050: 95dc 50bd a97b ff3c 9c91 2a3d 817f 9c3c
00000060: a169 00bf eb41 613d ad56 743d b33e 11be
00000070: ebc6 3a3c 8338 a9bd c4bb 86bd b013 c53c
00000080: f7a5 293f 1294 a33e 4b79 813d aca1 6ebd
00000090: 8def 003f 33a0 85bd 543a 51bc 6c8d 62bd
000000a0: 9a7d 5e3d a577 7bbe f1b8 853c 1012 82bd
000000b0: c7c8 bbbc 5805 463e 7269 e9bc ae52 4bbd
000000c0: 3aa9 e13e 4ea7 bfbd 6267 2d3f 154f 3abf
000000d0: b05a 533d a714 6e3d 6c53 0cbd ef40 913d
000000e0: 2764 41bf 38c6 923d 2960 7abd a738 b7bd
000000f0: 446c b9bd addb ab3d 432e 333e 000e 82bd
00000100: a5da 18bd dbd1 a6bd 788f e4bd e663 21bc
00000110: 828b 773e 141d 7bbe cdc9 de3d 78bf 313e
00000120: 35ca 15bf b866 91bc 3a72 06bf e96c afbd
00000130: d56b 18bd 9782 f0bd 8323 4f3e a0a8 b43e
00000140: 1dad 933e 8a99 18bf 69f9 ae3c 5036 873d
00000150: 0900 10ba 77dd c8bb ee88 d13e a0ba 7c3d
00000160: 94d4 e8bd dd60 643d 029e 653e 437c 79bd
00000170: 30ab 12be b391 1d3d 25ed b43e 9708 53bd
00000180: e58b 893e b246 4dbd 05ef fdbc fac5 24bf
00000190: a48d 873d 1a3b db3d 0e52 e23d 70f8 4fbd
000001a0: 6641 1d3e 95a4 623e 9e21 51be 7d29 be3a
000001b0: 5937 4ebe dec4 53bc a7f8 2cbf 9c51 d73a
000001c0: 06c0 33be 1a1c 0bbe 0a16 163f 7ce7 cf3e
000001d0: 548a 9f3e 5aff afbe aac0 d43b 4feb 843e
000001e0: 5693 a23d 00c1 c6be cecf a53f d82c 3bbe
000001f0: 4a94 21be f4ea 7a3a f5ed cfbe 9b9d 5fbd
00000200: a43a 34be 02ec 793d 13ad 953e 002f 06bd
00000210: 93f7 2dbe ca2e a03e 888d aa3d 750b c9bd
00000220: 3424 c93c 9c77 963b 84b6 853c b104 babf
00000230: 06ff 6b3f 6637 463f fe6b b8be 145e 9cbd
00000240: 18f4 4c3e ecb2 1cbd 6e34 48be 1273 c3bc
00000250: 02a7 c13d 8e35 dfbd 91bb 68be 056e eebd
00000260: 0cef 3f3e af1e 0abf df06 3bbd 19a4 113e
00000270: 9852 923d 6cc8 e23f e534 fb3c 3fe2 b6bf
00000280: 2190 83be 0ae0 683e 2e16 abbe 2f3d c0bc
00000290: 3e9f 1cbe e21c 0cbb d368 5abe f852 a9bd
000002a0: fbd4 953e 5baa c3be 6ed9 db3c cd5b 983e
000002b0: e085 9cbc c849 54bc 75ac 25bf a6cc 4abf
000002c0: 04f0 dabe 2a6b d2be 4359 08bf 323e bc3d
000002d0: d8c4 093d 152d f73c 1567 ca3c e33d 8fbd
000002e0: d878 103f 879e c13c 1d0a 313f 92cf 09bf
000002f0: 3c20 6bbe 65ed 023f fc8e d23c 177e 10be
00000300: 33a2 40bf f683 4ebf c333 87be ed46 293e
00000310: dd3a bdbe 2777 8e3e cbd0 9a3e a1b4 40bc
00000320: 8a2c 98be b8ea 01bd 1f11 9cbe 4316 20bd
00000330: 842a 4cbb c1f4 cfbe 0f61 31be c08f a5bf
00000340: 184f 363c b06d 8bbd 2b54 683e 1f10 423f
00000350: 3c67 593d c22f 5b3e c33a 31bf 21b6 173d
00000360: 6bbb a33e 0706 703d 8c24 273e caee 0dbe
00000370: c867 2cbf a51c f83c 9db7 03be b8d5 d03d
00000380: a542 063f cdd6 34bf adea b33d e3b8 4c3d
00000390: daeb a83e b6e8 c13e f276 0c3d c771 ba3d
000003a0: f4a0 8abb 71e1 4ebf 815d 5c3f 9925 0fbd
000003b0: 065a 1cbe 4377 11bf 9f29 3ebe 529a 273d
000003c0: e369 e8be d1aa 6abe 8705 dd3e 63ea 21bf
000003d0: b4aa dc3d 206f 363f 1247 debe c611 543e
000003e0: d9e1 c33c f344 16bc 3ae3 a2bc 6929 4e3e
000003f0: 121e 1bbf 4fe1 93bd 6b41 8d3e 33e9 3dbe

network_body._body_endoder.seq_layers.2.bias f4 [128]
-0.033499487 0.042038415 -0.25508034 -0.08644566 0.032808837 0.022388168 -0.10515452 -0.062292244
-0.054189216 -0.09883134 -0.058576997 -0.09916793 -0.5428275 0.033302996 -0.11209119 -0.020234348
-0.07081548 0.01858855 -0.07036788 -0.014216323 -0.05206709 -0.060921635 -0.12992162 -0.2380775
-0.21706009 -0.15884319 0.0025315671 -0.20848146 -0.21780966 -0.0030145538 0.040599257 -0.023397505
-0.036939844 -0.07143178 -0.17241983 0.09136797 0.1677142 0.059076365 -0.043912597 -0.029120004
-0.08574501 -0.12345736 -0.14476252 0.01869794 0.20864674 -0.02620568 -0.049688168 -0.00881298
0.06078702 -0.0038270366 -0.36823878 -0.12767042 -0.11113386 -0.13748312 0.136604 0.03185705
0.447873 -0.23391338 -0.008103291 0.56186485 -0.06286362 0.1248724 0.19961302 0.047405716
-0.36490574 0.12864046 0.2770784 0.32382998 -0.10586549 -0.038594864 0.06345967 0.020560266
-0.077907816 0.074816346 -0.41490304 0.28509584 -0.17629957 -0.12835115 0.08223029 -0.19688244
0.028588014 -0.22309993 0.088939294 -0.0056663183 -0.08074977 -0.052038115 -0.06631243 -0.04909673
0.17454305 0.2596316 -0.10225253 -0.070912056 0.0048013 -0.13723929 0.06140177 -0.15751338
-0.16642247 -0.027163176 0.12410348 -0.079493254 -0.19798051 0.26020056 -0.15416323 -0.035020355
-0.16751584 -0.0642169 -0.025836928 -0.20049885 -0.14859757 -0.20260975 -0.031650927 0.07769955
-0.02928366 -0.03842085 -0.01467802 -0.19006826 -0.22264102 0.24129215 -0.09378838 0.26682928
0.00842697 -0.23793459 -0.12778218 -0.1378446 0.022153605 0.057768095 -0.13919953 0.12945957
00000000: c236 09bd 7930 2c3d e499 82be 6c0a b1bd
00000010: 8f62 063d 6467 b73c 415b d7bd 2726 7fbd
00000020: 83f5 5dbd 1668 cabd 6fee 6fbd 8e18 cbbd
00000030: bef6 0abf b968 083d 1190 e5bd 81c2 a5bc
00000040: b507 91bd 0447 983c 091d 90bd 95eb 68bc
00000050: 4d44 55bd f788 79bd 2c0a 05be 97ca 73be
00000060: 0045 5ebe caa7 22be a6e8 253b 2a7c 55be
00000070: 7f09 5fbe d28f 45bb 684b 263d 20ac bfbc
00000080: 3c4e 17bd d34a 92bd d38e 30be 211f bb3d
00000090: 45bd 2b3e 0ffa 713d b2dd 33bd 138d eebc
000000a0: 149b afbd 36d7 fcbd a03c 14be 6c2c 993c
000000b0: 7ea7 553e 4bad d6bc d285 4bbd 5164 10bc
000000c0: cffb 783d 05cf 7abb cb89 bcbe 09bc 02be
000000d0: 269a e3bd 60c8 0cbe ebe1 0b3e 8a7c 023d
000000e0: 9c4f e53e fd86 6fbe aac3 04bc 60d6 0f3f
000000f0: a4be 80bd 1abd ff3d 5b67 4c3e 7f2c 423d
00000100: edd4 babe 53ba 033e 38dd 8d3e 0bcd a53e
00000110: 02d0 d8bd a615 1ebd 25f7 813d 016e a83c
00000120: 228e 9fbd 5039 993d 2c6e d4be 15f8 913e
00000130: e087 34be 7c6e 03be 5b68 a83d 8d9b 49be
00000140: 6931 ea3c 4f74 64be ce25 b63d 86ac b9bb
00000150: 2360 a5bd eb25 55bd d0ce 87bd a719 49bd
00000160: 6abb 323e 6fee 843e c669 d1bd 573a 91bd
00000170: 3954 9d3b 7588 0cbe 6c80 7b3d 304b 21be
00000180: a76a 2abe 4f85 debc f729 fe3d 5ccd a2bd
00000190: 67bb 4abe 0239 853e f7dc 1dbe 8171 0fbd
000001a0: 4689 2bbe 2684 83bd f7a7 d3bc 924f 4dbe
000001b0: f629 18be ee78 4fbe 67a4 01bd f120 9f3d
000001c0: 49e4 efbc 2e5f 1dbd 147c 70bc 41a1 42be
000001d0: 02fc 63be 4a15 773e 1f14 c0bd d99d 883e
000001e0: 4611 0a3c 20a5 73be 55d9 02be 2327 0dbe
000001f0: 7a7b b53c 3d9e 6c3d 528a 0ebe 0d91 043e

network_body._body_endoder.seq_layers.2.weight f4 [128, 128]
-0.07464475 -0.42639932 -0.3902243 0.010515077 -0.20943184 -0.97300625 -0.17786291 -0.20870924
-0.17266081 0.011044561 0.04307866 -0.34354866 -0.18771476 -0.13150458 -0.4488423 0.037228536
-0.19514091 0.027999224 -0.4866211 0.043305364 0.19124976 -0.005219838 -0.26332054 -0.1459163
0.0705574 0.069289714 -0.2240508 -0.14746891 -0.77157 -0.070747994 -0.4478508 0.381625
-0.14140424 -0.53711736 -0.09531912 0.12523387 -0.2268701 -0.5002297 0.7987797 -0.29758948
-0.17966357 -0.35505545 0.4219707 -0.07604673 0.1061466 0.19798967 -0.050573576 0.28788623
-0.0075252773 0.026723709 0.0782152 -0.057114903 0.15792187 -0.020963347 -0.43928495 0.27267393
0.40639228 0.030469628 -0.17360404 -0.39303896 0.15195055 -0.17037362 -0.1537172 -0.29541984
-0.02320383 0.052955545 0.070766866 -0.368084 -0.16261867 0.22048764 0.357059 0.068705805
-0.054884348 -0.26704744 0.032478858 -0.14651328 -0.6442222 -0.065670274 -0.30999812 0.16213214
-0.22782844 -0.008896167 -0.4030991 -0.016058914 -0.056680325 0.21049707 -0.21198045 -0.003711467
-0.020507185 0.21706076 -0.5366124 -0.017996904 -0.15586959 0.040634524 0.13273917 -0.13368842
0.30952018 -0.32998413 -0.15412697 0.1043776 -0.18531339 0.038814344 0.1924058 0.006235696
0.08575777 0.049962137 0.024619585 -0.169468 -0.2747387 -0.12316225 -0.27127525 0.04235198
-0.1120456 0.04879774 -0.06799301 0.025082137 -0.81859744 0.2622612 -0.048825048 -0.11444204
-0.13386388 0.9683489 -0.015921867 -0.123454124 -0.16541049 0.13996233 0.69465524 -0.16150945
-0.6786842 0.044350848 -0.6059089 -0.10540328 -0.37806642 1.6746428 -0.22761267 -0.016291518
0.6827808 0.18758139 -0.030956682 -0.26783493 -0.005235028 -1.5633452 0.02133605 -0.17469345
0.17160445 0.14900272 -0.048508614 -0.07729842 -0.032039586 -0.8105248 -0.15882443 -0.29802322
-0.021582812 0.24282502 -0.18594603 0.45817906 0.12903209 -1.1859801 0.052639626 0.08668205
0.14495401 0.1124421 0.13499583 0.09482882 0.1837084 0.3079163 1.0868635 0.2296113
-0.2279457 0.00015708522 1.0885501 -0.29875287 0.33461708 0.78011674 -0.52725375 0.32825613
0.008014964 0.023841588 0.07861958 0.12726088 0.20654684 -0.0062483535 -0.56953615 -0.19153173
1.2259109 -0.027484918 -0.10879566 -0.5177908 -0.40802875 -0.13307387 0.08466678 0.3301561
-0.13832115 0.08805349 -0.027871808 -1.0378734 -0.017632509 0.046807576 0.6016334 0.22536893
0.07717176 0.07634578 0.07988564 0.069732405 -0.49069998 -0.50454164 0.70553845 0.023340547
-0.6615955 0.12788329 -0.0595644 -0.10366199 0.23037134 0.14961681 -0.42998248 0.9577513
-0.14063151 0.13565321 0.277448 -0.4492333 0.031427436 -0.043442454 0.02930552 -0.34569004
0.20938008 0.3778864 -0.026233325 0.1502788 -0.27257454 0.142181 -0.17433316 -0.25367874
-0.063586205 -0.09095032 -0.19822268 0.058541264 -0.37668544 -0.045595046 -0.105337866 0.4169364
0.098711774 -0.04763057 -0.15595326 -0.26684147 -0.028333267 -0.12062732 0.4335265 0.15300283
-0.09086648 0.40770608 0.20711665 -0.879149 -0.10166099 0.592339 -0.04670758 0.07771877
00000000: 59df 98bd 0351 dabe 7bcb c7be 6e47 2c3c
00000010: 4d75 56be f016 79bf b221 36be e0b7 55be
00000020: ffcd 30be 3ff4 343c 4073 303d 9ce5 afbe
00000030: 4c38 40be 23a9 06be a8ce e5be f37c 183d
00000040: 05d3 47be a15e e53c 6726 f9be f760 313d
00000050: fad6 433e 2d0b abbb f3d1 86be 156b 15be
00000060: 6680 903d c4e7 8d3d 936d 65be 1702 17be
00000070: 9d85 45bf 53e4 90bd b34c e5be 5a64 c33e
00000080: 46cc 10be 8680 09bf ac36 c3bd 4f3d 003e
00000090: a350 68be 0e0f 00bf d47c 4c3f a65d 98be
000000a0: baf9 37be d4c9 b5be 8b0c d83e 63be 9bbd
000000b0: 6363 d93d cebd 4a3e 3d26 4fbd d365 933e
000000c0: 9a96 f6bb aeeb da3c 4a2f a03d 51f1 69bd
000000d0: 45b6 213e 53bb abbc f5e9 e0be eb9b 8b3e
000000e0: a612 d03e 719b f93c 42c5 31be 673c c9be
000000f0: ed98 1b3e 6c76 2ebe 0b68 1dbe 4541 97be
00000100: f515 bebc eae7 583d 38ee 903d 8275 bcbe
00000110: 8285 26be 83c7 613e 70d0 b63e a1b5 8c3d
00000120: 69ce 60bd 71ba 88be 8d08 053d 9407 16be
00000130: bfeb 24bf 237e 86bd 13b8 9ebe f805 263e
00000140: dc4b 69be 3bc1 11bc 0163 cebe fc8d 83bc
00000150: a129 68bd 8b8c 573e 6711 59be 153c 73bb
00000160: affe a7bc 2d45 5e3e 6e5f 09bf 3e6e 93bc
00000170: 479c 1fbe 6370 263d c7ec 073e 9ee5 08be
00000180: 6e79 9e3e aef3 a8be 76d3 1dbe ecc3 d53d
00000190: cbc2 3dbe cafb 1e3d 0706 453e cf54 cc3b
000001a0: c5a1 af3d 19a5 4c3d 03af c93c 0589 2dbe
000001b0: 8daa 8cbe 7d3c fcbd 97e4 8abe 4579 2d3d
000001c0: 2a78 e5bd 24e0 473d eb3f 8bbd 0e79 cd3c
000001d0: 9a8f 51bf 1a47 863e c6fc 47bd 9760 eabd
000001e0: 9d13 09be b7e5 773f 936e 82bc 84d5 fcbd
000001f0: 5e61 29be 4952 0f3e edd4 313f bc62 25be
00000200: 3fbe 2dbf 3ca9 353d d81c 1bbf addd d7bd
00000210: ec91 c1be b25a d63f 4c13 69be ca75 85bc
00000220: b9ca 2e3f 5615 403e de98 fdbc a921 89be
00000230: 998a abbb b21b c8bf f1c8 ae3c d7e2 32be
00000240: 14b9 2f3e 2b94 183e f8b0 46bd a24e 9ebd
00000250: f13b 03bd 8e7e 4fbf dfa2 22be 8096 98be
00000260: 70ce b0bc 1fa7 783e a368 3ebe 7296 ea3e
00000270: fd20 043e 32ce 97bf a69c 573d 5c86 b13d
00000280: d36e 143e 0b48 e63d 593c 0a3e 9d35 c23d
00000290: 0e1e 3c3e 35a7 9d3e 581e 8b3f 3a1f 6b3e
000002a0: 996a 69be 3eb7 2439 9c55 8b3f 23f6 98be
000002b0: ee52 ab3e bbb5 473f 1afa 06bf 3011 a83e
000002c0: 3251 033c 6f4f c33c 4d03 a13d ad50 023e
000002d0: 0481 533e fdbe ccbb 1fcd 11bf e520 44be
000002e0: a6ea 9c3f 0d28 e1bc 42d0 debd f08d 04bf
000002f0: 25e9 d0be 8444 08be c765 ad3d 380a a93e
00000300: 0fa4 0dbe 6355 b43d 6b53 e4bc 09d9 84bf
00000310: 0d72 90bc 4db9 3f3d a604 1a3f 1dc7 663e
00000320: 3a0c 9e3d 2d5b 9c3d 159b a33d ddcf 8e3d
00000330: 073d fbbe a429 01bf 2b9e 343f ad34 bf3c
00000340: 535e 29bf d6f3 023e cdf9 73bd bd4c d4bd
00000350: 77e6 6b3e 2635 193e aa26 dcbe 302f 753f
00000360: b501 10be ade8 0a3e aa0d 8e3e e801 e6be
00000370: 0eba 003d b7f0 31bd 2112 f03c 49fe b0be
00000380: bb67 563e 547a c13e 45e7 d6bc b0e2 193e
00000390: e48e 8bbe e597 113e 6484 32be 2ee2 81be
000003a0: 7c39 82bd 2944 babd e3fa 4abe f7c8 6f3d
000003b0: eadc c0be dfc1 3abd 61bb d7bd b078 d53e
000003c0: 6629 ca3d 4618 43bd 36b2 1fbe 729f 88be
000003d0: 2b1b e8bc 750b f7bd 2ff7 dd3e c6ac 1c3e
000003e0: 3418 babd dabe d03e 6316 543e e90f 61bf
000003f0: a333 d0bd 87a3 173f 7350 3fbd 052b 9f3d
