results/test5/CharacterBehav.onnx (onnx, 700066 bytes, 12 tensors)

109 f4 [1, 512, 128]
0	0x3d3c1deb	0.04592697
1	0xbd20e783	-0.039283287
2	0x3e1725ec	0.1476056
3	0x3e11f4c0	0.14253521
4	0xbdc9d29d	-0.098546244
5	0xbd078c37	-0.033092704
6	0x3c901d11	0.017591985
7	0xbe07dc7e	-0.13267705
8	0xbe0bd9a8	-0.13657248
9	0xbc86476e	-0.016391482
10	0x3d8a2dcb	0.067470156
11	0x3b04f9cc	0.0020290492
12	0xbd89a714	-0.06721321
13	0x3e279d26	0.16368541
14	0xbd17a92b	-0.037026566
15	0x3b0c0806	0.0021367087
16	0x3df444e4	0.11927202
17	0xbe099380	-0.13435173
18	0xbd9dd0dd	-0.07705853
19	0xbd99064b	-0.074719034
20	0xbd018a08	-0.031625777
21	0x3e1828c9	0.14859308
22	0x3e3e6132	0.18591765
23	0x3e0bce4e	0.13652918
24	0xbe173d19	-0.147694
25	0x3dda3cf9	0.10656161
26	0xbc483128	-0.012218751
27	0x3dfabefc	0.12243459
28	0xbd83c5a4	-0.06434181
29	0xbd5f1648	-0.05446461
30	0x3e0aff25	0.13573892
31	0x3e3bd6c6	0.18343648
32	0x3ddff308	0.109350264
33	0xbcb5e744	-0.022205003
34	0xbe0bdfa8	-0.13659537
35	0xbcd83ced	-0.02639624
36	0x3d9d600d	0.07684336
37	0xbd9e1fb2	-0.07720889
38	0x3de1eb57	0.11031216
39	0x3da1a828	0.078934014
40	0xbd027f04	-0.031859413
41	0xbe142710	-0.14468026
42	0x3e059694	0.13045722
43	0xbd9bbf13	-0.07604804
44	0xbdb8eb7b	-0.09029289
45	0x3d0ffbbe	0.03515219
46	0xbcc3ec21	-0.023916306
47	0x3cfde450	0.030992657
48	0x3cb63e95	0.022246638
49	0xbc89726d	-0.016778195
50	0x3d698987	0.057015922
51	0x3d8dfc88	0.06932932
52	0xbad72d8b	-0.0016416771
53	0xbe066dc5	-0.13127811
54	0xbdfb064e	-0.12257062
55	0xbe0f4e22	-0.13994649
56	0x3d02f90a	0.031975783
57	0xbe730495	-0.23732217
58	0x3c0f431a	0.008744026
59	0xbda44af5	-0.080221094
60	0xbe7d910a	-0.2476236
61	0x3ca2244f	0.019792704
62	0x3cbb785a	0.022884537
63	0x3cc881e2	0.024475995
64	0x3c1ad7fc	0.009450909
65	0xbd4a3164	-0.04936351
66	0xbe2abdfe	-0.16674039
67	0x3dd450a7	0.10366946
68	0x3e27bc4c	0.16380423
69	0xbe175254	-0.147775
70	0xbde51916	-0.111864254
71	0xbc18c64e	-0.009324623
72	0x3e000f97	0.12505947
73	0x3d714219	0.058900926
74	0x3c4b6bae	0.01241581
75	0xbd52105c	-0.051285133
76	0xbd1baf87	-0.038009193
77	0x3e0aa4e4	0.13539463
78	0x3dd70c00	0.10500336
79	0x3e0cb74f	0.13741802
80	0x3e11d6a7	0.1424204
81	0x3def766b	0.11692508
82	0x3e0fa07f	0.14026068
83	0xbd63567e	-0.055502407
84	0x3d95191e	0.07280181
85	0xbd6ac8da	-0.057320453
86	0x3e1965b3	0.14980201
87	0xbde35a92	-0.11101259
88	0xbdf162c9	-0.1178642
89	0xbd234433	-0.03985996
90	0xbc897e30	-0.016783804
91	0xbd8bffc7	-0.06835895
92	0xbd9fa2fe	-0.0779476
93	0x3dc695f6	0.096965715
94	0xbda4c646	-0.0804563
95	0xbe0a19f8	-0.13486469
96	0xbdc02d76	-0.09383671
97	0xbd17ec24	-0.037090436
98	0x3d187a84	0.037226215
99	0x3d8f090a	0.06984146
100	0xbd90fd8e	-0.07079612
101	0xbbf4af0d	-0.0074671567
102	0x3d2aa2a0	0.041658998
103	0x3db771ff	0.0895729
104	0xbda3b838	-0.07994121
105	0xbdcf3c4b	-0.10118922
106	0x3e06a8e5	0.13150366
107	0xbc91b63d	-0.017787093
108	0xbd1f49af	-0.03888863
109	0xbdf37606	-0.118877456
110	0xbac8be39	-0.001531548
111	0x3dc7814e	0.0974146
112	0xbda946fb	-0.082654916
113	0xbe0083d4	-0.12550288
114	0xbc025fb6	-0.00795739
115	0xbe0eb070	-0.13934493
116	0x3e2b1201	0.16706087
117	0x3c8634ca	0.016382594
118	0x3dd21d53	0.102594994
119	0xbd87f29f	-0.06638073
120	0xbe103883	-0.14084058
121	0x3e0c1896	0.13681254
122	0xbc3bac27	-0.011454619
123	0xbdfa60c6	-0.12225489
124	0xbd0e34a5	-0.034718174
125	0x3ba70457	0.005096953
126	0xbe45c167	-0.19312058
127	0xbde6a09e	-0.11261104
128	0xbd6e806a	-0.058227934
129	0x3e188c3d	0.14897247
130	0xbde4a899	-0.1116497
131	0x3e26be67	0.1628357
132	0x3df50a88	0.11964899
133	0x3d8a0fc2	0.06741287
134	0xbc77d128	-0.01512555
135	0xbd757bab	-0.059932392
136	0x3c000c67	0.007815457
137	0xbe17e075	-0.14831717
138	0xbd065c54	-0.032802895
139	0x3da3cbac	0.07997832
140	0xbb60b2be	-0.0034286226
141	0xbdd824f9	-0.10553927
142	0xbd27d382	-0.040973194
143	0xbba8495c	-0.0051356982
144	0xbba4b959	-0.005026978
145	0x3cf00dca	0.02930345
146	0x3dfb774f	0.12278616
147	0x3e046c20	0.12931871
148	0xbd83658f	-0.06415855
149	0xbddcb26d	-0.107762195
150	0xbe064794	-0.13113242
151	0x3c9ef62d	0.019404495
152	0xbcfc6cfb	-0.030813685
153	0xbdf59b4a	-0.1199251
154	0xbd304d43	-0.043042433
155	0xbdcd7dbc	-0.100337476
156	0xbdb1af4c	-0.08676013
157	0xbd92cd78	-0.07168096
158	0x3df7890f	0.12086689
159	0x3d930050	0.07177794
160	0x3d19e969	0.037576113
161	0x3dd8ad5e	0.10579942
162	0x3e18caa4	0.14921051
163	0xbd52b859	-0.05144534
164	0x3db1ce70	0.08681953
165	0xbc5ea0f1	-0.013588176
166	0xbda7aa2a	-0.08186753
167	0xbda3fc57	-0.080071144
168	0x3cf882cf	0.030335812
169	0x3b430840	0.0029759556
170	0x3db6d8df	0.08928084
171	0x3e29d9c7	0.16586982
172	0x3e06afdd	0.13153024
173	0x3d6e5b1c	0.058192357
174	0x3dbf962b	0.09354814
175	0x3b211180	0.0024577081
176	0xbde47d20	-0.11156678
177	0xbcb6397f	-0.022244213
178	0x3d053215	0.032518465
179	0xbc972b10	-0.018453151
180	0x3e0b5297	0.13605724
181	0xbb8632c1	-0.004095406
182	0xbe2e3530	-0.17012477
183	0xbca26dda	-0.019827772
184	0xbde008bd	-0.10939167
185	0xbd93c44b	-0.07215174
186	0x3d2d1bc9	0.042262826
187	0x3dfa9b53	0.12236657
188	0x3e512fbd	0.20428367
189	0x3dba987c	0.09111115
190	0xbda7719f	-0.081759684
191	0x3d0589a2	0.03260196
192	0xbe1c2e39	-0.15252008
193	0x3e10b30e	0.14130804
194	0xbd03bd2b	-0.032162827
195	0x3cd7a9ee	0.026326146
196	0xbdb9ea83	-0.09077933
197	0x3d5f65a0	0.054540277
198	0xbdb34cc4	-0.08754876
199	0xbd9e6ad0	-0.077352166
200	0xbc8fd904	-0.017559536
201	0x3b6c3ef7	0.0036048272
202	0x3c8e65ac	0.017382465
203	0xbe2d17e4	-0.16903645
204	0xbdee6691	-0.11640657
205	0xbe269f7e	-0.16271779
206	0xbdb436a0	-0.087994814
207	0xbd2b7a13	-0.041864466
208	0x3dcd81bd	0.10034511
209	0x3d502880	0.050819874
210	0xbe0c910d	-0.13727207
211	0x3dba6291	0.09100831
212	0xbd977b5d	-0.073965766
213	0x3d9a6ceb	0.07540306
214	0xbd185112	-0.03718669
215	0xbe07d54e	-0.13264963
216	0xbe1029e3	-0.14078479
217	0x3dd88b22	0.105734125
218	0xbe0f9b3c	-0.14024061
219	0xbc9495a1	-0.018137755
220	0x3d91035b	0.07080718
221	0x3da2467c	0.079236
222	0x3d0edd95	0.034879286
223	0xbdafac51	-0.085777886
224	0xbe06d472	-0.13166979
225	0x3c19d878	0.009389989
226	0xbd934e06	-0.07192616
227	0x3dc409df	0.09572195
228	0x3d5faebc	0.05461
229	0xbc59710d	-0.013271582
230	0x3db42bfc	0.08797452
231	0xbdfe929b	-0.124303065
232	0x3dd346ad	0.10316215
233	0x3daa5bb6	0.08318274
234	0x3cb2ec2d	0.021841133
235	0x3caa93e4	0.020822473
236	0x3ddb14a3	0.106972955
237	0x3df3d402	0.11905672
238	0x3dd9c87d	0.10633943
239	0x3e1a2724	0.15053993
240	0xbdb837ef	-0.089950435
241	0x3cd4e7ce	0.02598944
242	0x3def3246	0.11679511
243	0x3d6529b5	0.055947978
244	0x3dedaf74	0.11605731
245	0xbc55e5a8	-0.013055243
246	0x3e2777b4	0.16354257
247	0x3c9ae83c	0.018909566
248	0x3e2dc0e9	0.1696812
249	0xba8edd65	-0.0010899721
250	0xbde1847a	-0.11011596
251	0x3e02dab0	0.12778735
252	0xbd049887	-0.032372024
253	0x3d5a6283	0.053316604
254	0xbd007250	-0.031359017
255	0xbc5d2e40	-0.013499796

110 f4 [1, 512, 128]
0	0x3dc4de62	0.09612729
1	0x3d9431f1	0.07236088
2	0x3e053fe3	0.13012652
3	0x3d992f2b	0.074797
4	0xbdab928f	-0.08377563
5	0xbce307a6	-0.027713608
6	0xbde290e8	-0.11062795
7	0xbcf65274	-0.030068614
8	0x3c5d0d09	0.013491877
9	0x3c0ae3a7	0.008477128
10	0x3d9ea017	0.077453785
11	0x3d75a2a0	0.059969544
12	0xbdac5356	-0.084143326
13	0xbc3aa74c	-0.011392426
14	0xbd6fdb86	-0.058558963
15	0x3de1849d	0.11011622
16	0xbe1d2c9e	-0.15349051
17	0x3c820058	0.015869305
18	0x3d78d3d2	0.060748883
19	0x3d8abf37	0.067747526
20	0x3dda1b2b	0.10649713
21	0xbd976504	-0.07392314
22	0xbe0a3186	-0.13495454
23	0x3e1e64d2	0.15468147
24	0x3e0f3cfa	0.13988104
25	0xbe15101b	-0.14556925
26	0x3c3b342e	0.011426015
27	0x3e09eb03	0.13468556
28	0x3c7f0977	0.015566221
29	0xbba4641f	-0.005016818
30	0x3d9718f3	0.073778056
31	0xbdee13fd	-0.11624906
32	0x3d3a24fe	0.045445435
33	0x3c1e1607	0.009648806
34	0xba9e0c07	-0.0012058028
35	0x3dec517f	0.11538982
36	0x3dbd74c6	0.092507884
37	0x3dfe7c74	0.12426081
38	0x3e1e3777	0.15450846
39	0x3e3290c0	0.1743803
40	0x3e54cd08	0.20781338
41	0x3c44998f	0.011999502
42	0x3df50e69	0.11965639
43	0x3d4e5840	0.05037713
44	0x3d1f9053	0.038955998
45	0xbe3d1190	-0.18463731
46	0x3d4bcbda	0.049754955
47	0xbdb4d830	-0.08830297
48	0x3d893084	0.06698707
49	0x3d70e031	0.058807556
50	0x3d13adc3	0.036054384
51	0x3e00ff96	0.12597498
52	0xbde1674c	-0.110060304
53	0x3d439387	0.047748115
54	0x3dbe0b0e	0.09279452
55	0xbdb4fe1d	-0.08837531
56	0xbe0253c8	-0.12727273
57	0x3dab19b8	0.08354515
58	0x3cc42c8a	0.02394702
59	0x3d664ada	0.056223728
60	0xbc809923	-0.015698021
61	0xbd944724	-0.072401315
62	0x3b7052b4	0.0036670389
63	0x3da3d8d7	0.08000343
64	0xbd139181	-0.036027435
65	0x3c4738ce	0.012159539
66	0x3c1925ee	0.009347422
67	0x3dc74e4b	0.0973173
68	0x3db7ad1c	0.08968565
69	0x3dcaeb73	0.099081896
70	0x3dac2d94	0.08407131
71	0x3d37714c	0.044785783
72	0x3b1c2837	0.002382768
73	0x3dca64df	0.09882521
74	0xbe2e866b	-0.17043464
75	0x3dd9f5c5	0.1064258
76	0x3cbfffa6	0.023437332
77	0x3acc1b01	0.0015572013
78	0x3d9c3222	0.076267496
79	0x3c78574f	0.015157535
80	0xbd5c6a5e	-0.053812377
81	0xbd562b15	-0.05228718
82	0x3d237110	0.039902747
83	0xbc2cbef0	-0.01054357
84	0xbcc55622	-0.024088923
85	0xbdb1f19a	-0.0868866
86	0xbda0a973	-0.0784482
87	0xbd0d9c45	-0.03457286
88	0xbd86235e	-0.065497145
89	0x3d1a901f	0.0377351
90	0xbe4a9a33	-0.19785385
91	0xbdb8ef9c	-0.09030077
92	0xbe09a44a	-0.13441578
93	0xbd1f568b	-0.038900893
94	0xbe02eed1	-0.12786414
95	0x3d29f0c4	0.041489378
96	0x3d2396b2	0.039938636
97	0x3db4a735	0.08820955
98	0xbc21acf7	-0.009867898
99	0xbd737079	-0.059433434
100	0xbd9f15e1	-0.07767845
101	0x3e03581a	0.12826577
102	0x3d0b2865	0.03397407
103	0xbcfa37df	-0.03054422
104	0xbe46f663	-0.19429927
105	0xbde4616e	-0.11151396
106	0x3e1a8440	0.15089512
107	0xbd839d85	-0.06426529
108	0xbdd4128b	-0.10355099
109	0x3d2c1ca2	0.042019494
110	0x3dab4607	0.08362966
111	0xbac5bc01	-0.0015085937
112	0x3de40c77	0.1113519
113	0xbc007e98	-0.007842682
114	0xbc6adde3	-0.0143351285
115	0xbd707fed	-0.05871575
116	0xbdb6d9c8	-0.08928257
117	0x3dfb0b05	0.12257961
118	0x3da3c5c1	0.07996703
119	0x3dd35ac2	0.10320045
120	0xbe11f241	-0.14252569
121	0x3d9d88fb	0.076921426
122	0xbe1eb070	-0.15496993
123	0x3c33fc05	0.010985379
124	0x3da07ef6	0.07836716
125	0x3e2f7690	0.17135072
126	0xbc8a7d24	-0.016905375
127	0xbe2ab16d	-0.16669245
128	0xbdcfe811	-0.10151685
129	0xbd52a40d	-0.051425982
130	0x3e066eff	0.13128279
131	0xbe15940f	-0.14607261
132	0x3d9cd74c	0.07658252
133	0x3dade81b	0.08491536
134	0x3d425ddd	0.047452796
135	0x3dc650c8	0.096833766
136	0xbd438b85	-0.047740478
137	0xbd8df668	-0.06931764
138	0x3df7a70e	0.1209241
139	0xbd393dda	-0.045225002
140	0xbd47acda	-0.04874883
141	0xbcf9c4d2	-0.030489359
142	0xbce375d6	-0.02776615
143	0x3cd67229	0.026177483
144	0xbbffcd7e	-0.007806479
145	0xbe0f185f	-0.1397414
146	0xbd947017	-0.07247942
147	0x3e17d4ab	0.1482722
148	0xbe0ac1d1	-0.13550498
149	0x3d267f74	0.040648893
150	0xbe1db43e	-0.15400788
151	0xbe0b9f7c	-0.13635057
152	0x3d9e2f15	0.07723824
153	0x3ce7f26d	0.02831384
154	0x3b9c00aa	0.0047608213
155	0x3e09c7a2	0.1345506
156	0xbe1e01fd	-0.15430446
157	0x3da1b0d3	0.07895055
158	0xbd1e6040	-0.03866601
159	0x3d21c807	0.0394974
160	0x3d8eb998	0.06968993
161	0x3ca4e9e1	0.020131053
162	0xbd812bc1	-0.063071735
163	0x3d6b2d79	0.057416413
164	0x3dbf48d9	0.093400665
165	0xbd5adffb	-0.05343626
166	0xbe27d673	-0.163904
167	0x3e00938a	0.12556282
168	0xbe42571b	-0.1897854
169	0x3ccc0c8c	0.024908327
170	0xbe032d98	-0.12810361
171	0xbe1a39a5	-0.15061052
172	0x3c3fc2c2	0.011704149
173	0xbda1f261	-0.07907558
174	0x3be8abde	0.0071005663
175	0x3dc305d0	0.09522593
176	0x3e164263	0.14673762
177	0x3e07ef86	0.13274965
178	0x3dce4f5c	0.1007373
179	0x3cf15ac5	0.029462228
180	0x3e131152	0.14362076
181	0xbc4ea609	-0.012612828
182	0x3e04e497	0.12977825
183	0x3d33e112	0.043915816
184	0xb994ca1b	-0.0002837934
185	0xbcca894c	-0.024723671
186	0x3d37d2de	0.044878833
187	0x3e0911e7	0.13385735
188	0xbc96027b	-0.01831173
189	0xbe0377ee	-0.12838718
190	0xbdbc7917	-0.092027836
191	0x3e1cb9bd	0.15305229
192	0xbd01b41d	-0.03166591
193	0x3d5f2f5d	0.05448853
194	0x3d8ec7a8	0.06971675
195	0x3d95a863	0.07307508
196	0x3df19e51	0.117977746
197	0x3e280906	0.16409692
198	0x3d9a4565	0.07532767
199	0x3d513373	0.051074456
200	0xbd470b66	-0.048594855
201	0xbd3ec83a	-0.04657767
202	0xbc7248bd	-0.01478785
203	0xbde75f9b	-0.11297532
204	0xb95cf8ee	-0.00021073568
205	0xbded7edd	-0.11596463
206	0xbd9a320f	-0.07529079
207	0xbe02cc0d	-0.12773152
208	0x3cbe78cd	0.023250962
209	0x39af829f	0.0003347592
210	0x3ddbfdb0	0.107417464
211	0xbd093e17	-0.03350648
212	0x3d8333d2	0.06406368
213	0x3d9deb1a	0.07710858
214	0x3e0ea215	0.13929017
215	0x3dc29953	0.095019005
216	0x3dc22df2	0.094814196
217	0x3e173540	0.14766407
218	0x3dd7f722	0.10545184
219	0x3db0be54	0.08630052
220	0xbd117572	-0.035512395
221	0xbdf55f4d	-0.11981068
222	0xbdee529b	-0.116368495
223	0xbda94eec	-0.08267006
224	0x3da518a5	0.08061341
225	0xbd3741ab	-0.04474036
226	0x3e04d565	0.12972029
227	0xbe159eeb	-0.14611404
228	0x3d4b1932	0.049584575
229	0x3d1a1c03	0.03762437
230	0x3df3ece3	0.11910417
231	0x3d8af00b	0.06784066
232	0x3e08065c	0.13283676
233	0xbce8038b	-0.028322002
234	0xbe059dc7	-0.13048469
235	0xbd3182a8	-0.043337494
236	0xbcb0af5f	-0.021567998
237	0x3d523a14	0.05132492
238	0xbdcc140f	-0.099647634
239	0x3e0b1502	0.13582233
240	0x3ca79708	0.02045776
241	0x3e13f25d	0.14447923
242	0x3e0b3ec5	0.13598163
243	0x3dbc842b	0.092048965
244	0x3bcb3649	0.0062015397
245	0xbd76102c	-0.060074016
246	0xbe1fbc65	-0.1559921
247	0x3dfa9701	0.12235833
248	0x3cc1b968	0.023647979
249	0xbdcd8f92	-0.100371495
250	0x3d9b44b6	0.07581465
251	0xbdb7bd8c	-0.089717
252	0x3d81bc55	0.063347496
253	0x3d065ddd	0.03280436
254	0xbdda26ee	-0.106519565
255	0x3dd66bcc	0.10469779

111 f4 [1, 1024]
0	0xbc2609a4	-0.010134134
1	0x3bbbe5a3	0.005734162
2	0x3ca8cb63	0.020604795
3	0xbc47c391	-0.012192623
4	0x3b2f2597	0.0026725286
5	0xbba218a1	-0.0049467837
6	0xbc57c0c8	-0.013168521
7	0x3c267100	0.010158777
8	0x3b5f243c	0.0034048697
9	0xb9d48bfe	-0.00040540093
10	0x3c34dbe2	0.011038752
11	0x3cc5634e	0.024095204
12	0x3cb407ef	0.02197644
13	0xbbc9c0e6	-0.0061570285
14	0xbcf4adca	-0.029868025
15	0x3c7c0ae5	0.015383457
16	0x3af9310c	0.001901181
17	0xbbe5dd3e	-0.0070148995
18	0x3aa8c135	0.0012874963
19	0xbb140294	-0.0022584544
20	0x3b47adf0	0.0030468665
21	0xbbe3818f	-0.006942935
22	0xbc3d1eb2	-0.011542963
23	0x3c626ea9	0.013820329
24	0xbbb36ea8	-0.0054758377
25	0x3a9144ee	0.0011083165
26	0xbc8dcdab	-0.017309984
27	0x3ac8f87e	0.0015332846
28	0xbb4db639	-0.003138913
29	0xbcb10a22	-0.021611277
30	0xbcc2d355	-0.023782412
31	0x3c9ede82	0.01939321
32	0x3ccaa437	0.024736507
33	0x3c7b30da	0.015331471
34	0x3b5ba870	0.0033517145
35	0x3c449fcc	0.012000989
36	0x3d1fa73e	0.038977854
37	0x3c98b9e0	0.01864332
38	0xbc7b8375	-0.015351166
39	0xb90a9c02	-0.00013218823
40	0xbc9a068e	-0.018801954
41	0xbc6651aa	-0.014057556
42	0x3c8c2ee3	0.017112201
43	0x3c51d931	0.01280813
44	0x3b976e1c	0.0046212804
45	0x3be6e0fb	0.0070458627
46	0x3c9348d1	0.017979058
47	0x3c6445cf	0.013932659
48	0xbc4835a7	-0.012219823
49	0x3ca2dff0	0.019882172
50	0x3b1e706e	0.00241759
51	0x3c7083b0	0.014679834
52	0x3c818c27	0.0158139
53	0x3c805fd1	0.015670689
54	0xbba35fc4	-0.0049857814
55	0xbcde386d	-0.027126515
56	0x3c225891	0.009908811
57	0xbc5dc821	-0.013536484
58	0x3c455c80	0.0120459795
59	0xbb4ab9a8	-0.0030933414
60	0xbd4c34e4	-0.049855128
61	0x3c734fcf	0.014850571
62	0xbb565624	-0.0032705152
63	0x3c826def	0.015921561
64	0xbbce9461	-0.0063043092
65	0xbc5ff10c	-0.01366831
66	0xba36c81b	-0.0006972567
67	0xbc7757a5	-0.01509658
68	0xbcf9200e	-0.030410793
69	0x3bd4721d	0.00648333
70	0x3c4c996a	0.012487749
71	0xbbc2b643	-0.0059421374
72	0x3c5dbdbd	0.013534007
73	0xb9f9377b	-0.00047534317
74	0xbcbd9bf8	-0.02314566
75	0xbc77fe40	-0.0151363015
76	0x3caf49d8	0.021397516
77	0x3b2b8b2a	0.0026175478
78	0x3cfe4adc	0.031041555
79	0xbc6043e7	-0.013688064
80	0xbc840fc8	-0.016120806
81	0xbc72630b	-0.0147941215
82	0x3b95e774	0.0045747105
83	0x3c845b63	0.016156858
84	0x3b91046f	0.0044255774
85	0xbcafa789	-0.021442192
86	0xbc476551	-0.012170152
87	0xbd2af64d	-0.041738797
88	0x3c417ebe	0.011810003
89	0x3c30d5fe	0.010793207
90	0x3b2f8c56	0.0026786528
91	0xbcba8e56	-0.02277295
92	0xbc73c50d	-0.014878524
93	0x3b9f7006	0.004865649
94	0xbb9e62ce	-0.004833556
95	0x3b9a6e82	0.0047128806
96	0xbae52760	-0.0017483048
97	0x3bab4042	0.005226166
98	0x3c3df3ab	0.0115937395
99	0xbc96f27f	-0.018426178
100	0xbb1d39bc	-0.0023990711
101	0xbcbcfb5f	-0.023069082
102	0xbb26197a	-0.0025344775
103	0x3c79a157	0.01523622
104	0x3bb4871c	0.0055092704
105	0x3b26b049	0.0025434664
106	0xba231865	-0.00062215916
107	0xbc6c66f6	-0.014428845
108	0xbd042a42	-0.032266863
109	0xbc9e474c	-0.019321106
110	0xbbcb374a	-0.0062016593
111	0xbb39aec7	-0.0028332935
112	0xbbd9e514	-0.0066496227
113	0x3c760fc2	0.015018405
114	0xbd23c39e	-0.039981477
115	0x3b683dc5	0.0035437208
116	0xbcbff271	-0.023431035
117	0x3c310064	0.010803316
118	0x3bb0226e	0.005375198
119	0x3b461889	0.0030227026
120	0x3bac74c9	0.0052629453
121	0x3b03db83	0.0020119853
122	0x3bd0d48f	0.006372995
123	0xbbe2558c	-0.0069071706
124	0x3be83cfd	0.0070873485
125	0x3c9a406d	0.018829549
126	0x3c36e9a8	0.011164106
127	0x3c27ca90	0.010241166
128	0x3cd9c8cc	0.026585005
129	0x3bb07d28	0.0053860135
130	0x3c889d8e	0.01667669
131	0x3b3f4184	0.0029183337
132	0x3c92aedd	0.017905647
133	0xbc1d5c2c	-0.009604495
134	0xbc13b3f0	-0.009015068
135	0x3c1e59af	0.009664937
136	0x3ca47c13	0.020078694
137	0xbb2c099f	-0.0026250852
138	0xbca14d49	-0.019690173
139	0x3bb9f698	0.005675148
140	0xbaa6830e	-0.0012703852
141	0x3ca3d0e2	0.019997064
142	0xbbaf82c8	-0.0053561665
143	0x3c5d09d4	0.013491113
144	0xbcc05542	-0.023478154
145	0xbbbad742	-0.0057019303
146	0xba22da3a	-0.0006212328
147	0x3bb8cc38	0.005639579
148	0x3c62609e	0.013816981
149	0xbc6c589c	-0.014425423
150	0x3b9ffa39	0.004882124
151	0x3cc54a63	0.024083322
152	0xba3f623a	-0.00073007087
153	0x3b64f275	0.0034934555
154	0xbbac0cb3	-0.0052505373
155	0xbb6bd387	-0.0035984234
156	0xbbcf4349	-0.0063251597
157	0xbc410cb8	-0.011782818
158	0x39f1cd65	0.00046120133
159	0x3c415bea	0.011801699
160	0x3cce5a4b	0.02518954
161	0x3cc86774	0.024463393
162	0xbc59dd13	-0.013297337
163	0x3ca403bd	0.020021314
164	0x3cfae782	0.03062797
165	0x3c1ee581	0.009698273
166	0x3c8b79f3	0.017025923
167	0x3b381478	0.0028088372
168	0x3bb12abe	0.0054067066
169	0xbc27f4e5	-0.0102512585
170	0x3c9fa242	0.01948655
171	0x387b9587	5.998232e-05
172	0xbc0a0f1e	-0.008426456
173	0x3b8b4b58	0.004250925
174	0xbba57d7a	-0.0050503584
175	0x3b98db67	0.0046648267
176	0x3c6cb3e2	0.014447184
177	0x3c7d3ca1	0.01545635
178	0xbc4d8022	-0.012542756
179	0x3c86ccb5	0.016455034
180	0x3bb207a0	0.005433038
181	0x3ce92094	0.028457917
182	0x3b1b3ed4	0.0023688572
183	0xbae22040	-0.0017252043
184	0xbb2b2e32	-0.0026120064
185	0x3bb3c343	0.0054859235
186	0x3c738ceb	0.01486514
187	0xbb6d3c3e	-0.0036199237
188	0x3c3c2a49	0.011484691
189	0xbc29db74	-0.010367263
190	0xbb647141	-0.0034857544
191	0xbbbca3b4	-0.0057568196
192	0xbc82fb07	-0.01598884
193	0x3ba09b39	0.0049013165
194	0x3b47c002	0.0030479436
195	0xbbb5dc0e	-0.005549914
196	0x3c02094f	0.00793679
197	0xbc15f2e5	-0.009152149
198	0xbc299f2d	-0.010352892
199	0x3c861d71	0.01637146
200	0xbc37231b	-0.011177803
201	0xbc30cd82	-0.010791184
202	0x3cdc7407	0.026910795
203	0x3c14880e	0.009065641
204	0x3c7eceae	0.015552206
205	0x3b4a00bf	0.0030823199
206	0xbc65dc17	-0.014029524
207	0x3c01290d	0.007883322
208	0x3ca17d33	0.01971302
209	0x3c15556f	0.009114607
210	0x3c3fe845	0.011713092
211	0x3c01bfee	0.007919295
212	0x3c420d0c	0.011843931
213	0x3c3323f3	0.010933864
214	0x3bcdd108	0.006281022
215	0x3b054205	0.002033354
216	0x3ba847df	0.005135521
217	0x3c2c06c1	0.010499657
218	0x3cb85a03	0.022503858
219	0xbc1e9d74	-0.009681094
220	0x3b821bf4	0.0039706174
221	0x3c405afa	0.0117404405
222	0x3c195801	0.009359361
223	0xbba5d6f6	-0.0050610257
224	0xbb056c03	-0.002035857
225	0xbc8ff830	-0.0175744
226	0x3cab8888	0.020939127
227	0x3c4fc37e	0.012680886
228	0x3bbca198	0.005756568
229	0xbce683d0	-0.028139025
230	0xbaac7de2	-0.0013160075
231	0xbc21b3e8	-0.009869553
232	0xbc786182	-0.015159966
233	0x3bb4944e	0.0055108434
234	0x3b2f7530	0.002677273
235	0xbc246942	-0.010034861
236	0x3c79a0ae	0.015236063
237	0xbc16dc9b	-0.00920787
238	0xbc4c69de	-0.012476413
239	0xbcb6fa12	-0.02233604
240	0x3bfeb3e7	0.007772911
241	0x3c10fd25	0.008849417
242	0x3b90e2c3	0.0044215634
243	0x387f0f15	6.0810784e-05
244	0xba066d1d	-0.00051279535
245	0xbc2c14a2	-0.010502966
246	0xbc438da2	-0.011935623
247	0x3c9b0092	0.01892117
248	0xbc4237fc	-0.011854168
249	0x3c688621	0.014192135
250	0x3c200218	0.009766124
251	0x3c6b9688	0.014379151
252	0x3ade4539	0.0016957886
253	0x3d1aa9e9	0.037759695
254	0xbc17cd8c	-0.009265315
255	0x3c781c50	0.015143469

action_model._discrete_distribution.branches.0.bias f4 [3]
0	0x3b93cd7b	0.004510579
1	0x3c5d2b09	0.01349903
2	0xbc8d6c0e	-0.017263439

action_model._discrete_distribution.branches.0.weight f4 [3, 128]
0	0xbc313901	-0.010816813
1	0xbca958aa	-0.020672161
2	0xbcf95311	-0.030435117
3	0x3d00bfb5	0.031432826
4	0x3c1a9f56	0.009437403
5	0x3cb47330	0.022027582
6	0x3c07eac4	0.008295719
7	0x3d14590a	0.036217727
8	0x3c5710b0	0.013126537
9	0xbc1500a9	-0.009094396
10	0x3bde0e89	0.006776635
11	0x3c8312a4	0.0160001
12	0x3d092ff7	0.03349301
13	0xbcf12505	-0.029436598
14	0x3a85bd58	0.0010203524
15	0x3bf00b52	0.0073255682
16	0xbbb51e98	-0.0055273287
17	0xbbffbe28	-0.007804651
18	0x3c6ca913	0.014444607
19	0xbcb9df54	-0.022689499
20	0x3b732224	0.0037099207
21	0xbca26d6f	-0.019827573
22	0x3c913b3d	0.017728442
23	0xbbf104e1	-0.007355318
24	0x3b7c4d8a	0.0038498365
25	0xbc11aaad	-0.00889079
26	0x3a95f492	0.0011440685
27	0x3c9d8473	0.019228196
28	0x3b4f5f9f	0.0031642688
29	0x3cc3ed31	0.023916813
30	0x3c92bbe2	0.017911855
31	0x3c15456d	0.009110791
32	0xbc76989f	-0.015051036
33	0x3c843698	0.016139314
34	0xbb47ebe2	-0.0030505587
35	0xbc73cda4	-0.0148805715
36	0xbc943b4e	-0.018094685
37	0x3b9610a7	0.004579622
38	0xbca20eb0	-0.019782394
39	0xbcd6a6b9	-0.026202546
40	0xbd147bab	-0.03625075
41	0x3ca591cf	0.020211129
42	0x3cdd85b0	0.027041286
43	0x3c3272f3	0.010891664
44	0xbcdc1545	-0.02686561
45	0x3b031d6f	0.0020006557
46	0xbc2e1381	-0.010624767
47	0xbcb66333	-0.022264099
48	0x3b92351f	0.004461899
49	0x3ccc5572	0.024943087
50	0x39b4dcc2	0.00034496753
51	0x3c3bbf0d	0.011459124
52	0x3c81532d	0.015786732
53	0xbda0012b	-0.07812723
54	0x3c38ffd3	0.011291462
55	0x3c15ea41	0.009150089
56	0x3c6a87ef	0.014314636
57	0x3c98bf06	0.018645775
58	0xbc560f50	-0.013065174
59	0xbc1fada5	-0.00974599
60	0xbc579bc8	-0.0131597
61	0xbcf86468	-0.030321315
62	0x3c235712	0.00996949
63	0xb9dabcd4	-0.00041720888
64	0x3ba5cb6e	0.005059651
65	0xbb988262	-0.0046542147
66	0xbc376450	-0.01119335
67	0x3d1296c3	0.03578831
68	0x3b5cc74a	0.0033688121
69	0x3d8d0c56	0.068871185
70	0x3c008194	0.007843394
71	0xbc9f6923	-0.019459313
72	0x3cb7bdfc	0.022429459
73	0xbcc84190	-0.024445325
74	0x3c9f6ea7	0.019461943
75	0xbcb786ef	-0.022403209
76	0x3d4ee8e1	0.05051506
77	0xbca6fc51	-0.020383986
78	0x3c5ef1ed	0.013607484
79	0xbc60c0fe	-0.013717888
80	0x3c373a72	0.011183368
81	0xbbb8e5d1	-0.0056426306
82	0x3cedacd0	0.029013067
83	0xbc0a88eb	-0.008455495
84	0xbcb5dd86	-0.022200357
85	0x3c866353	0.016404783
86	0x3c76458e	0.015031232
87	0xbb07f430	-0.0020744912
88	0xbd6da6de	-0.058020465
89	0xbc6dc7ac	-0.0145129375
90	0x3c2b0c06	0.010439878
91	0xbce3f41c	-0.027826361
92	0xbd306810	-0.04306799
93	0x3d0ffb0c	0.035151526
94	0x3c0e9761	0.008703084
95	0xbb584399	-0.0032999276
96	0x3c2cbb2a	0.01054267
97	0xbc6ae417	-0.014336607
98	0xbc0d4e11	-0.0086245695
99	0x3cbc1087	0.0229571
100	0xbcb996a7	-0.022654844
101	0x3c014b7e	0.007891534
102	0xbc8ed38f	-0.017434863
103	0x3cc589f5	0.024113635
104	0x3d29740b	0.041370433
105	0xbd1af23e	-0.037828676
106	0xbcab2f11	-0.020896466
107	0xbcaa5493	-0.020792281
108	0x3c912c8a	0.017721433
109	0xbca00ef2	-0.019538376
110	0x3caadaad	0.020856226
111	0x3ab1cb38	0.0013564592
112	0x3c011b92	0.007880108
113	0x3d1477fa	0.03624723
114	0x3c3304a3	0.010926398
115	0x3d13a8a2	0.036049493
116	0xbb336622	-0.0027374108
117	0xbc8c05a5	-0.017092535
118	0xbc213040	-0.009838164
119	0xbbfdd36a	-0.00774615
120	0xba8a6a00	-0.0010560155
121	0xbb99d151	-0.004694142
122	0xbcafd35a	-0.021463085
123	0xbbe81776	-0.007082875
124	0x3d231393	0.03981359
125	0xbd388adf	-0.045054313
126	0xbd22deea	-0.03976337
127	0x3cb2dbd1	0.021833332
128	0xbcbb98fb	-0.022900095
129	0x3ca9c904	0.020725735
130	0x3da71c6f	0.0815972
131	0xbd296d46	-0.041363977
132	0xbcecd323	-0.028909272
133	0x3bad7f82	0.005294741
134	0xbc5ec656	-0.013597092
135	0xbce080dc	-0.027405195
136	0x3da382e8	0.07983953
137	0xbc601d5f	-0.013678878
138	0xbbd07d7b	-0.0063626147
139	0xbba2f368	-0.004972864
140	0xbd454bb0	-0.048167884
141	0x3c775fa6	0.015098488
142	0xbc18628d	-0.00930084
143	0x3c9371c2	0.01799858
144	0x3c2c08cf	0.010500147
145	0xba9b034d	-0.0011826545
146	0xbc3b1688	-0.011418946
147	0x3d80e624	0.06293896
148	0xbcac051e	-0.020998534
149	0xbc9d06c9	-0.019168274
150	0xbcf4a60d	-0.029864335
151	0xbc0d08e9	-0.008608081
152	0x3b5815fe	0.0032972093
153	0x3c8e9cbb	0.01740872
154	0xbb471ef0	-0.003038343
155	0xbbee9be9	-0.0072817695
156	0xbc2eeb74	-0.010676254
157	0xbc9fa2b4	-0.019486763
158	0xbcacb3b3	-0.021081781
159	0x3ccaa521	0.024736943
160	0xbc6e32d4	-0.014538486
161	0xbd8c1d17	-0.06841486
162	0x3c16d0fd	0.0092051
163	0x3bf495af	0.0074641327
164	0x3d3f033a	0.046633936
165	0xbae72f5c	-0.0017638016
166	0x3da082d8	0.078374565
167	0x3ca40c03	0.020025259
168	0x3d492571	0.049107973
169	0xbb520bbe	-0.0032050456
170	0x3dbba0b6	0.091615126
171	0xbd81c54f	-0.06336462
172	0x3d08a6a8	0.03336206
173	0x3c198f70	0.009372577
174	0x3b1c31ea	0.0023833462
175	0x3d792364	0.060824767
176	0xbc72e6ab	-0.014825503
177	0xbd3cf899	-0.04613552
178	0x3d15f5e2	0.036611445
179	0x3bf6ff40	0.0075377524
180	0x3a96304a	0.0011458483
181	0x3ddd351c	0.108011454
182	0xbbe9407b	-0.0071182824
183	0x3b856239	0.004070547
184	0x3b530ae7	0.0032202543
185	0x3c78edb5	0.0151933925
186	0x3d160939	0.03662989
187	0xbbfae094	-0.0076561663
188	0x3cc2d027	0.023780895
189	0x3d06ba86	0.032892726
190	0xbd2c03ac	-0.04199569
191	0xbc97952c	-0.018503748
192	0xbc71ac38	-0.014750533
193	0x3d4fe66c	0.050756857
194	0xbc314bf5	-0.010821332
195	0xbdb20304	-0.086919814
196	0x3d008def	0.03138536
197	0xbd9c23a9	-0.07623989
198	0xbc008f8f	-0.007846727
199	0xbc973e50	-0.01846233
200	0xbd3e1a26	-0.046411656
201	0x3c9e69ed	0.019337619
202	0xbc8bd02a	-0.017067034
203	0x3c4e15a7	0.0125784045
204	0xbcbc510d	-0.022987867
205	0x3da7c2a2	0.0819142
206	0x3a3f755e	0.0007303561
207	0x3a73a056	0.0009293606
208	0x3d0f2ff3	0.034957837
209	0xba11ce17	-0.0005562021
210	0xbdc35258	-0.0953719
211	0x3abf4c46	0.0014594875
212	0x3d1c55ed	0.038167883
213	0xbc5d157a	-0.01349389
214	0xbd348a88	-0.044077426
215	0xbc988a0d	-0.018620515
216	0x3d080acf	0.033213433
217	0x3da70efe	0.081571564
218	0xbcf9a96d	-0.030476296
219	0x3d3dbc40	0.046322107
220	0x3cf29ad5	0.029614845
221	0xbd9a9f46	-0.0754991
222	0xbcc65868	-0.024212077
223	0xbd1505e7	-0.036382582
224	0x3b89f529	0.0042101336
225	0x3d0cb889	0.034355674
226	0xbcc3b4f2	-0.023889992
227	0xbc5c1fc8	-0.013435312
228	0xbcc9bf80	-0.024627447
229	0x3b6e1942	0.0036330973
230	0xbacb487a	-0.0015509271
231	0xbd9a8807	-0.075454764
232	0xbd8cc314	-0.06873146
233	0x3dc8cf0d	0.09805117
234	0x3d9dd3c8	0.0770641
235	0xbbb2f956	-0.005461852
236	0xbcc1c63f	-0.023654101
237	0x3c4e423e	0.012589036
238	0xbbd97582	-0.0066363225
239	0xbb7c33f1	-0.0038483108
240	0xbc2fa0d0	-0.010719493
241	0xbd8450c5	-0.06460718
242	0xbbad97bd	-0.0052976296
243	0xbd80e6b4	-0.06294003
244	0xbc83bdb8	-0.016081676
245	0x3d58aa48	0.052896768
246	0x3b9ace56	0.004724304
247	0xbc63f203	-0.013912681
248	0xba077aea	-0.0005168157
249	0x3af077f1	0.0018346292
250	0x3c2cd63a	0.0105491225
251	0x3c8926a6	0.016742062
252	0xbdc3c207	-0.09558492
253	0x3d1e49ca	0.03864459
254	0x3dc060df	0.09393477
255	0xbce795ee	-0.028269734

action_model._discrete_distribution.branches.1.bias f4 [3]
0	0xbc6b42b5	-0.014359166
1	0x3c5c8f10	0.013461843
2	0x3ac1652f	0.0014754887

action_model._discrete_distribution.branches.1.weight f4 [3, 128]
0	0x3d2b7540	0.041859865
1	0x3cc0ec14	0.02355007
2	0xbc95e162	-0.018295947
3	0x3cefca6c	0.029271327
4	0xbbf1d9a1	-0.0073806797
5	0xbba0d100	-0.0049077272
6	0x3b4d36c4	0.003131316
7	0x3c2ee687	0.010675079
8	0xbd38d99e	-0.04512941
9	0x39a44f25	0.00031339485
10	0x3b833f89	0.0040053767
11	0xbb5c6e91	-0.0033635239
12	0xbc987e80	-0.018615007
13	0xbc1ca2cb	-0.009560297
14	0xb9d9f0dc	-0.0004156892
15	0xbc6f6420	-0.014611274
16	0x3a85348e	0.0010162757
17	0x3c47aad6	0.012186727
18	0xbcf56d67	-0.029959394
19	0xbc0bc458	-0.008530699
20	0x3c4c73ae	0.012478752
21	0x3c2342b3	0.009964633
22	0x3c2b185a	0.010442818
23	0x3c93b713	0.018031633
24	0xbc065bcd	-0.008200598
25	0xbc358598	-0.0110792145
26	0xba3fa28c	-0.0007310293
27	0xbceac77c	-0.028659575
28	0xbb6c7144	-0.0036078254
29	0xbbff135c	-0.0077842902
30	0x3c7f5728	0.0155847445
31	0xbc9eeb97	-0.019399447
32	0x3bc935a8	0.0061404295
33	0xbcdf364e	-0.027247574
34	0xbc25a1e6	-0.0101094
35	0x3c99ac76	0.018758994
36	0xbb92d2b1	-0.004480683
37	0xbc9c4c4a	-0.019079346
38	0xbbbaceb8	-0.0057009123
39	0x3c31eab2	0.010859178
40	0x3cb85933	0.022503471
41	0xbb7a69b3	-0.0038209974
42	0xbb915d44	-0.004436167
43	0x3c3bb7b9	0.011457377
44	0x3bbad955	0.0057021775
45	0xbb1826e1	-0.0023216533
46	0xbc35b0ce	-0.011089517
47	0x3cf39b9b	0.029737284
48	0x3bcf4469	0.006325294
49	0xbd619841	-0.05507684
50	0xbb535eed	-0.0032252625
51	0xbb9aace1	-0.004720316
52	0x3cd3eac6	0.025868785
53	0x3ceba65d	0.028765852
54	0x3c18d179	0.009327286
55	0xbbd3dec0	-0.006465763
56	0xbcc163bc	-0.023607127
57	0xb9ca6b0a	-0.00038608193
58	0x3aaadac2	0.0013035166
59	0x3c211383	0.009831312
60	0x3c887609	0.016657846
61	0xbab90063	-0.0014114495
62	0xbc8df26d	-0.017327512
63	0xbc9fb4f5	-0.019495467
64	0x3a65c389	0.0008764794
65	0xbcccf7f9	-0.025020586
66	0xba130bce	-0.0005609364
67	0x3ae6a2c9	0.0017596121
68	0xbc6120dc	-0.013740744
69	0x3c8fd50d	0.017557645
70	0xbc0d7460	-0.008633703
71	0x3cdcd62a	0.02695759
72	0x3ceb646c	0.028734408
73	0xbcbdb59f	-0.023157893
74	0xbc1e12aa	-0.009648005
75	0x3ba70b63	0.005097793
76	0xbd3be0ba	-0.045868613
77	0xbcef1f60	-0.029189765
78	0x3c9feacc	0.01952114
79	0x3d230d6b	0.03980772
80	0x3c95a75f	0.018268285
81	0x3cd4f17b	0.025994053
82	0x3c215223	0.009846243
83	0xbc352f59	-0.011058652
84	0x3c7e6926	0.015527999
85	0xbc92e0d2	-0.017929468
86	0xbc11900d	-0.008884442
87	0xbc86d841	-0.01646054
88	0xbcd6d077	-0.02622245
89	0x3bec31dc	0.007208092
90	0x3d7462c7	0.059664514
91	0xbba3e9e4	-0.005002247
92	0x3d121667	0.035665896
93	0x3cd32968	0.02577658
94	0xbb0ee3df	-0.0021803302
95	0x3cc1a7a2	0.023639504
96	0x3b350c67	0.00276258
97	0xbbfb5754	-0.0076703224
98	0x3d4f4923	0.050606858
99	0x3c88cb2b	0.01669844
100	0x3cf67abc	0.030087821
101	0x3bbc0c13	0.005738744
102	0x3d0ec7c3	0.034858476
103	0x3b2cdb87	0.0026375966
104	0xbc7b4841	-0.015337051
105	0x3b9c1334	0.0047630314
106	0x3b593700	0.0033144355
107	0xba420460	-0.00074011646
108	0x3c90d71f	0.017680703
109	0x3c88a70f	0.016681222
110	0xbc93d79c	-0.018047146
111	0x3abb2a10	0.0014279503
112	0xbc128af5	-0.008944263
113	0xbcb78e94	-0.022406854
114	0xbca58729	-0.020206051
115	0x3c9a6683	0.01884771
116	0xbc858344	-0.016297944
117	0xbd00f103	-0.031479847
118	0x3cb1b3f2	0.02169225
119	0x3cbf96e3	0.023387378
120	0xbb900488	-0.0043950714
121	0xbb229405	-0.0024807465
122	0x3cb446b0	0.022006363
123	0xbd3a818f	-0.045533713
124	0x3bf82505	0.0075727724
125	0x3c94ec1b	0.01817899
126	0xbd0cfd74	-0.0344214
127	0xbd0fdf15	-0.035124857
128	0x3d706a06	0.05869486
129	0xbd51366d	-0.051077295
130	0xbcf14290	-0.029450685
131	0xbc1e25b5	-0.009652545
132	0x3d1dbdcb	0.03851108
133	0x3c85ad65	0.016318033
134	0x3c1bcd10	0.00950934
135	0x3ca8e396	0.020616334
136	0xbbc67834	-0.00605681
137	0x3bd8f384	0.006620826
138	0xbc86b57c	-0.01644396
139	0xbd196f82	-0.037459858
140	0x3d299e06	0.04141047
141	0xbc94783d	-0.01812374
142	0xbc3a9d31	-0.011390016
143	0x3c209f61	0.009803624
144	0x3c330302	0.01092601
145	0x3c2e7e68	0.010650255
146	0x3c4bfef5	0.012450923
147	0x3c731027	0.014835394
148	0xbce2bf98	-0.02767925
149	0x3b16b65b	0.0022996876
150	0xbd1af44a	-0.03783063
151	0xbd1d88b8	-0.038460463
152	0xbc5e137b	-0.013554449
153	0xbd1c2bca	-0.038127698
154	0x3984160d	0.0002519343
155	0x3ce75145	0.028236995
156	0xbc294f67	-0.010333872
157	0xbbdf4e3e	-0.006814747
158	0x3c900136	0.017578702
159	0x3cb39679	0.021922337
160	0x3d7a8d1f	0.06116974
161	0xbdb39e0e	-0.08770381
162	0xbc8310bb	-0.015999189
163	0xbd1ac5b1	-0.03778619
164	0xbbbf45a5	-0.0058371597
165	0x3b1412e6	0.0022594272
166	0xbd7a08b2	-0.06104345
167	0xbd475c0c	-0.048671767
168	0xbcfa3a49	-0.03054537
169	0x3ae7f8a3	0.0017698001
170	0xbbf1cde2	-0.0073792795
171	0x3c1d158c	0.009587657
172	0xbd118c1b	-0.035534006
173	0x3d1a8eb7	0.03773376
174	0xbcbad5e1	-0.022807064
175	0xbc9ea39a	-0.01936512
176	0x3cac0230	0.020997137
177	0x3d3b9390	0.045795023
178	0xbbcc1910	-0.0062285736
179	0x3c7e8bce	0.015536262
180	0xbca41362	-0.020028774
181	0xbcf759b2	-0.030194137
182	0xbb066d72	-0.0020512012
183	0x3c316ffd	0.010829923
184	0x3cffa8f7	0.031208498
185	0xbc713f2f	-0.014724537
186	0x3b90ca48	0.004418645
187	0xbcaf8f95	-0.02143077
188	0xbcb70346	-0.022340428
189	0x3c0cfe5d	0.008605567
190	0x3c3f8c31	0.011691139
191	0x3cf79b7d	0.03022551
192	0xba8f4774	-0.0010931329
193	0xbc4d03bc	-0.012513097
194	0xbb9d46df	-0.0047997083
195	0x3b729cd8	0.0037019756
196	0x3c4e46d0	0.012590125
197	0xbd22fc41	-0.03979135
198	0xbba1ee2b	-0.004941722
199	0x3c127f30	0.008941457
200	0xba6b5f00	-0.00089786947
201	0x3d6c792d	0.05773275
202	0x3d3aa802	0.04557038
203	0x3cbdcb69	0.023168283
204	0xbbb103db	-0.005402071
205	0x3bf8ddda	0.007594806
206	0x3d68481b	0.05670939
207	0x3c33ca50	0.010973528
208	0xbcfc2d66	-0.030783366
209	0xbcbc6b51	-0.023000391
210	0x3be9c0c2	0.007133574
211	0xbd217b94	-0.039424494
212	0x3bc9c436	0.0061574234
213	0x3c2b5f93	0.010459798
214	0xbca6d28e	-0.020364072
215	0x3a6d4262	0.00090507243
216	0xbd102770	-0.03519386
217	0xbcf893a7	-0.030343844
218	0x3cd8395b	0.026394537
219	0xbc9c5f8e	-0.019088533
220	0x3b769d65	0.0037630436
221	0x3c14d26c	0.009083372
222	0xbce51af8	-0.027966961
223	0x3c5246cb	0.012834261
224	0xbb3c84c2	-0.0028765653
225	0x3b516b9a	0.0031955005
226	0x3ce69359	0.028146433
227	0xbd0bba52	-0.034113236
228	0x3cf439d9	0.02981274
229	0xbc83def3	-0.016097521
230	0xbc69624e	-0.014244629
231	0x3c69d187	0.014271147
232	0x3d6cef18	0.057845205
233	0xbd052ec3	-0.0325153
234	0xbcc279a6	-0.023739647
235	0xbc731f90	-0.014839068
236	0x3c09e35f	0.008416026
237	0xbc607674	-0.013700116
238	0xbabf958b	-0.0014616711
239	0x3b69bd11	0.003566567
240	0x3c93e4a0	0.018053353
241	0x3d610027	0.054931786
242	0x3cf294c3	0.02961195
243	0x3d060818	0.032722563
244	0x3c357a3e	0.011076508
245	0xbbfea889	-0.007771556
246	0xbcf43b90	-0.029813558
247	0xbd05386d	-0.032524515
248	0x3c1eb196	0.0096858945
249	0xbceb8c32	-0.028753374
250	0x3b28de3d	0.002576723
251	0xbc333176	-0.010937085
252	0x3b85bd20	0.0040813833
253	0xbbef82a8	-0.0073092766
254	0xbcb3145a	-0.02186029
255	0x3da3fa92	0.08006777

discrete_action_output_shape f4 [1, 2]
0	0x40400000	3.0
1	0x40400000	3.0

network_body._body_endoder.seq_layers.0.bias f4 [128]
0	0x3b150b6b	0.0022742401
1	0xbc9d90ec	-0.019234143
2	0xbc60ac84	-0.013713006
3	0xbaff97ed	-0.0019500233
4	0xbc83bca6	-0.016081166
5	0xb6a7e532	-5.0036697e-06
6	0xbc162a6b	-0.009165387
7	0x3c53725e	0.012905685
8	0xbc97373f	-0.01845896
9	0xbc00bdc1	-0.007857741
10	0x3c0c2656	0.008554062
11	0xbc991289	-0.018685596
12	0xbc4dd250	-0.012562349
13	0xbc30d8bc	-0.010793861
14	0xbcbcdf00	-0.023055553
15	0x3b92b80a	0.0044775056
16	0xbb4a2593	-0.003084515
17	0xbac6bcf8	-0.0015162518
18	0xb3975a01	-7.047857e-08
19	0x3c0725e8	0.008248784
20	0xbc096da4	-0.008387957
21	0xbab46329	-0.0013762462
22	0x3ce6d7dd	0.028179104
23	0xbc3e8772	-0.011628972
24	0xbc136ae5	-0.008997654
25	0xbc10dccc	-0.008841705
26	0xbc652ae6	-0.013987279
27	0x3cbed0b2	0.023292873
28	0xba231c7f	-0.0006222203
29	0xbc337f41	-0.010955633
30	0xbcc6dbb1	-0.024274679
31	0xbca54b84	-0.02017761
32	0x3a1a47bf	0.0005885325
33	0xbc5014c3	-0.0127002625
34	0xbae7359a	-0.0017639876
35	0xbc109445	-0.008824413
36	0xbc825ea7	-0.015914274
37	0x34ea95ed	4.3694982e-07
38	0xbc938772	-0.018008921
39	0xbbf86839	-0.0075807837
40	0x3c80ab65	0.015706727
41	0x3818b5d4	3.6408965e-05
42	0xb610434e	-2.1496849e-06
43	0xbaf3fb2d	-0.0018614285
44	0xbc0f0a6d	-0.008730513
45	0xbba7a49f	-0.00511606
46	0xba6a1ebb	-0.0008930971
47	0x36f3e73b	7.268883e-06
48	0xbbd790ee	-0.0065785563
49	0xbc221d29	-0.009894648
50	0x3ad89fbf	0.00165271
51	0x3bcb534b	0.0062049977
52	0x3b85f7fc	0.0040884
53	0xbc27bd7d	-0.010238049
54	0x3d029993	0.03188474
55	0xbbc12544	-0.005894335
56	0x3d23101d	0.03981029
57	0xbbac0020	-0.0052490383
58	0xbcbcff34	-0.02307091
59	0x3b276cc3	0.0025547005
60	0xbc04edec	-0.008113366
61	0x3bb68d3f	0.005571037
62	0xbc47acb0	-0.012187168
63	0xbc14e949	-0.009088823
64	0x3c310882	0.010805251
65	0xbc6c79f9	-0.014433377
66	0xbbc99e2c	-0.0061528888
67	0x3b24ab63	0.0025126569
68	0xbc0d9f79	-0.008643978
69	0xbc729e98	-0.0148083195
70	0x3cb38c27	0.021917416
71	0x3ce20c3f	0.02759373
72	0x3b67ebe5	0.0035388407
73	0xba64e239	-0.00087312196
74	0xbc25b3b2	-0.0101136435
75	0xbca2a713	-0.019855058
76	0xbc3d1b13	-0.0115420995
77	0xbb6af8dd	-0.00358539
78	0x3c87ffcb	0.016601464
79	0x389bb097	7.4238684e-05
80	0xbaefb671	-0.0018288625
81	0xbc7dea64	-0.015497778
82	0x391d43d8	0.0001499796
83	0xbbea2a1f	-0.0071461345
84	0xbc1d84e8	-0.009614207
85	0x3c3f7f85	0.011688118
86	0xbcaa4c24	-0.02078826
87	0xbb3f3b88	-0.002917977
88	0xbc920e55	-0.0178291
89	0xbbb0cb29	-0.0053953123
90	0x3b71d856	0.0036902628
91	0xb94c092b	-0.00019458371
92	0x3cc2845a	0.02374475
93	0xbad5f151	-0.0016322528
94	0xbc2b1974	-0.01044308
95	0xbc63360d	-0.013867867
96	0xbb99253d	-0.0046736286
97	0xbc8c8673	-0.017153954
98	0xbc243e9f	-0.010024696
99	0xbc98387e	-0.018581625
100	0xbcbd2a7d	-0.023091549
101	0xbb646264	-0.0034848684
102	0xbcd4081d	-0.025882775
103	0x3c66fb8a	0.0140980575
104	0x3c1b0ea7	0.009463943
105	0xbc5ac95d	-0.013353673
106	0x3c919155	0.017769495
107	0xb7381d12	-1.0974023e-05
108	0xbc755e0d	-0.014976037
109	0x3cbf8c67	0.023382379
110	0xbd053d0f	-0.032528933
111	0xbc8591d7	-0.016304893
112	0xbbb1c843	-0.0054254844
113	0xbb3b2d91	-0.0028561095
114	0xbb4eafec	-0.0031537963
115	0x3c8a8ef7	0.016913874
116	0x3cceec77	0.02525924
117	0x3d121642	0.035665758
118	0xbb8e5543	-0.00434366
119	0xbb565609	-0.003270509
120	0x3ba5c91f	0.005059376
121	0xb886fd9f	-6.4368585e-05
122	0xbc92eb08	-0.017934337
123	0x3b1ef2b8	0.0024253558
124	0x3c6d8eb5	0.014499356
125	0xba252031	-0.00062990474
126	0xbba16186	-0.004924956
127	0xbb795cb4	-0.003804964

network_body._body_endoder.seq_layers.0.weight f4 [128, 192]
0	0x3da55fef	0.080749385
1	0x3c422be9	0.011851289
2	0xbe2a019e	-0.1660218
3	0x3c846981	0.01616359
4	0xbdc7d33f	-0.09757089
5	0xbd6d26d2	-0.05789835
6	0xbdd5c5bf	-0.10438108
7	0xbd8fb4fa	-0.070169404
8	0xbccc216e	-0.024918284
9	0x3dd905c8	0.10596806
10	0x3d5c8d25	0.053845543
11	0x3dc9ab20	0.09847093
12	0x3d16e696	0.036840998
13	0x3daf7d4c	0.0856882
14	0x3c609d79	0.013709419
15	0x3b421e72	0.0029620198
16	0xbd58fa93	-0.05297334
17	0xbd63f17b	-0.055650216
18	0xbd25032f	-0.04028624
19	0x3d735845	0.059410352
20	0x3d944629	0.072399445
21	0xbd924d5a	-0.0714366
22	0x3c5fcedc	0.013660159
23	0xbdbf8cc2	-0.09353019
24	0xbde07122	-0.10959078
25	0xbc6256ee	-0.013814671
26	0x3dcbfe1a	0.099605754
27	0xbd66c59f	-0.05634081
28	0xbd52c869	-0.051460657
29	0xbd3f627b	-0.046724778
30	0xbd475512	-0.048665114
31	0x3baa0669	0.0051887524
32	0x3d90dbc2	0.070731655
33	0x3ce85608	0.028361335
34	0x3d4e4114	0.050355032
35	0x3be5b400	0.007009983
36	0xbe171d6a	-0.14757314
37	0x3e07c044	0.13256937
38	0x3d0b50f1	0.03401274
39	0xbd9ac615	-0.075573124
40	0xbda8fffd	-0.08251951
41	0xbbce873e	-0.006302743
42	0xbdb80566	-0.08985405
43	0xbcb0a1a7	-0.021561457
44	0x3cd24d8d	0.025671745
45	0x3d1fe70a	0.039038695
46	0xbdd5468a	-0.10413845
47	0x3d834a90	0.06410706
48	0x3c78a740	0.015176594
49	0xbde35af6	-0.11101334
50	0xbd88eb2a	-0.06685479
51	0xbc125a0a	-0.0089326
52	0x3da4ff0c	0.08056459
53	0xbe0a9770	-0.13534331
54	0xbc949041	-0.018135192
55	0x3b39a3cb	0.0028326388
56	0x3e1d98fe	0.15390393
57	0x3d9125b9	0.07087273
58	0x3d0eac8d	0.034832526
59	0x3b19b057	0.0023451054
60	0x3ddf88c8	0.10914761
61	0xbdc01a5b	-0.09380027
62	0x3cff1f49	0.031142848
63	0x3c75d825	0.015005146
64	0xbd769ef7	-0.060210194
65	0x3dc1c77d	0.094618775
66	0xbd7ce284	-0.06173946
67	0x3dfcdd6d	0.12346921
68	0xbb41ae65	-0.002955341
69	0xbd861bf3	-0.065483
70	0x3e15f52c	0.14644307
71	0xbd84099f	-0.064471476
72	0x3d320417	0.04346093
73	0xbc94f1f7	-0.018181784
74	0x3e1a6d2a	0.15080705
75	0x3d7764f5	0.060399015
76	0xbc3222b2	-0.01087253
77	0xbcdc955a	-0.026926685
78	0xbda5bffa	-0.08093257
79	0xbdf3d234	-0.119053274
80	0xbd4ee9c1	-0.050515894
81	0x3cf87060	0.030327022
82	0x3de96694	0.11396518
83	0x3c82f00b	0.015983602
84	0xbd916de5	-0.07101039
85	0x3c898952	0.016789112
86	0xbd989c95	-0.07451741
87	0x3e6dfffb	0.2324218
88	0x3c5da134	0.013527203
89	0xbc271164	-0.010197017
90	0x3df839ad	0.12120376
91	0x3c6bd5d3	0.014394241
92	0xbc32e624	-0.010919128
93	0x3d4ab257	0.049486484
94	0x3d85d883	0.06535437
95	0x3e02ac6d	0.12761088
96	0xbcdac162	-0.02670354
97	0xbe43bf0b	-0.19115846
98	0x3dac2960	0.08406329
99	0x3da9ab18	0.08284587
100	0x3cf731f7	0.030175192
101	0xbd540b9b	-0.05176888
102	0xbe003b29	-0.12522568
103	0x3d671bc1	0.056422953
104	0xbdbecc07	-0.09316259
105	0x3d56cefe	0.052443497
106	0xbe2f97c5	-0.17147739
107	0xbce194a9	-0.027536707
108	0x3d7e9b5f	0.062159892
109	0xbe003e6a	-0.12523809
110	0xbcb03e0e	-0.021513965
111	0x3d380c75	0.044933755
112	0x3d847566	0.064677045
113	0x3c353d14	0.011061925
114	0x3e02cabf	0.12772654
115	0x3b3a6e50	0.00284471
116	0xbd25ceba	-0.040480353
117	0xbcac512c	-0.0210348
118	0x3c932a6c	0.017964564
119	0xbdd0ce41	-0.1019559
120	0x3dad9c74	0.08477107
121	0xbd41f1c4	-0.047349706
122	0xbd403d66	-0.046933554
123	0x3d256b56	0.040385567
124	0xbd45cf4e	-0.048293404
125	0x3de0d491	0.10978044
126	0xbcc019ee	-0.023449864
127	0x3cf3a3e8	0.029741243
128	0x3dbcb98e	0.09215079
129	0xbd9d49d7	-0.076800995
130	0xbdb4eb63	-0.08833959
131	0xbd782020	-0.06057751
132	0xbd1687ff	-0.03675079
133	0xbe17a294	-0.14808112
134	0xbe1c67fb	-0.1527404
135	0x3c6f42c9	0.014603325
136	0xbd985576	-0.074381754
137	0x3d3ba3c2	0.04581047
138	0xbc950e55	-0.01819531
139	0xbdeb6241	-0.1149335
140	0x3d6da63a	0.058019854
141	0x3bde4063	0.006782578
142	0xbd6c360d	-0.057668734
143	0x3d453661	0.048147563
144	0xbcc2e00c	-0.023788475
145	0xbd3aa080	-0.04556322
146	0x3b87614e	0.0041314727
147	0x3dd846fa	0.10560413
148	0xbc975097	-0.018471045
149	0xbd157f67	-0.036498453
150	0x3b2e32ac	0.0026580496
151	0x3d8d5084	0.06900123
152	0xbd7f54d8	-0.062336773
153	0x3d485baf	0.04891556
154	0xbb8aee27	-0.0042398158
155	0xbd213454	-0.039356545
156	0x3d42ced8	0.047560543
157	0xbdc6aee6	-0.09701328
158	0x3b5de205	0.0033856642
159	0xbc292958	-0.0103247985
160	0x3c25b5bd	0.010114131
161	0xbdea92e1	-0.11453796
162	0xbce03e7f	-0.02737355
163	0xbdb15bb0	-0.08660066
164	0x3cae4860	0.021274745
165	0xbd47dcd3	-0.04879458
166	0xbc4663b7	-0.012108735
167	0xbd032c2c	-0.032024547
168	0x3d8861b1	0.06659258
169	0xbda4eaf9	-0.0805263
170	0xbcbdbeec	-0.023162328
171	0xbc8cff18	-0.017211482
172	0xbc8854fc	-0.016642086
173	0x3e4621d2	0.19348839
174	0xbc693311	-0.014233367
175	0x3dd78981	0.10524274
176	0xbd6c4c4c	-0.05768995
177	0xbcb426d9	-0.02199118
178	0xbd94005c	-0.07226631
179	0xbd5d2bfc	-0.053997025
180	0x3db8f384	0.09030822
181	0x3cc251e5	0.023720691
182	0x3d407911	0.046990458
183	0x3b576665	0.0032867428
184	0xbe19bd83	-0.15013699
185	0xbde58317	-0.11206644
186	0xbc1bd8a0	-0.009512097
187	0x3c82790e	0.015926864
188	0x3cb4d33e	0.022073384
189	0xba371b97	-0.0006985007
190	0xbde7a363	-0.113104604
191	0xbd65a0e5	-0.056061644
192	0xbd8c1c85	-0.06841377
193	0xbc2a94f4	-0.01041149
194	0xbd6cf360	-0.057849288
195	0xbd6efc64	-0.058346167
196	0x3ca392cd	0.019967461
197	0x378d464b	1.6841243e-05
198	0xbc8cbd1e	-0.017180022
199	0x3cf82faf	0.030296175
200	0x3d5c7688	0.053823978
201	0x3b2a4f5a	0.0025987239
202	0xbcf5372f	-0.02993354
203	0xbda20b11	-0.07912267
204	0xbda2153a	-0.07914205
205	0x3e00a534	0.1256302
206	0xbd324621	-0.04352391
207	0x3ce35deb	0.027754745
208	0xbd36a5ac	-0.04459159
209	0xbd2a2c54	-0.04154618
210	0x3cfded2e	0.030996885
211	0x3c837f9a	0.016052056
212	0xbdbdfa3a	-0.092762426
213	0xbd54dbb0	-0.051967323
214	0x3dcac018	0.0989992
215	0x3d0bfe57	0.034178104
216	0xbd115c09	-0.035488162
217	0x3d4afecd	0.049559403
218	0x3dadc843	0.084854625
219	0x3dd4b1f0	0.103855014
220	0xbd8d992f	-0.06913983
221	0x3d13b92d	0.03606527
222	0xbcf35dae	-0.029707756
223	0x3c8314f7	0.016001208
224	0xbdc091cb	-0.09402808
225	0x3ce49347	0.027902259
226	0xbc20ecc5	-0.009822075
227	0x3d8fddc3	0.070247196
228	0x3d75ee9e	0.060042016
229	0x3e092612	0.13393429
230	0xbd1a6697	-0.037695494
231	0xbbcd93e5	-0.006273734
232	0x3cbd0803	0.02307511
233	0xbc16d57d	-0.009206173
234	0x3db4f319	0.0883543
235	0x3bc62369	0.0060467017
236	0xbd9444df	-0.072396986
237	0x3df79c4e	0.1209036
238	0x3c94a47b	0.018144837
239	0xbd289a4b	-0.04116277
240	0x3d2b7d60	0.041867614
241	0x3d414b1b	0.047190767
242	0xbc9202d5	-0.017823616
243	0x3c9a0e2a	0.018805582
244	0xbcb08918	-0.021549746
245	0x3d97404b	0.0738531
246	0xbd805b1a	-0.06267376
247	0xbdadb34c	-0.08481464
248	0x3bd66a1b	0.0065434105
249	0xbd508891	-0.05091149
250	0x3df4cf18	0.119535625
251	0xbcc86201	-0.024460794
252	0x3d327295	0.043566305
253	0x3db123f0	0.08649433
254	0x3db65a58	0.089039505
255	0xbcda3fd1	-0.026641758

network_body._body_endoder.seq_layers.2.bias f4 [128]
0	0x3c51fbfb	0.0128164245
1	0x380f9ecd	3.424175e-05
2	0x3c31910b	0.010837804
3	0x3c2cf130	0.01055555
4	0xbc838e85	-0.01605917
5	0xbc3a1873	-0.011358368
6	0x3a277202	0.0006387533
7	0xbbbc8528	-0.005753178
8	0x3c7a7e7e	0.015288947
9	0xbc3b5a7c	-0.011435147
10	0x3b878bd0	0.00413654
11	0x3c2cfa3b	0.0105577065
12	0x3c1de094	0.009636063
13	0x3b6860a0	0.0035457984
14	0xbbb56d63	-0.0055367216
15	0xbc142ecd	-0.009044361
16	0xbaf3f767	-0.001861316
17	0xbc6b35b6	-0.014356067
18	0xbc1dccd5	-0.009631355
19	0x3bf5db8a	0.0075029777
20	0x3a74c77d	0.00093375874
21	0x3cbd5a38	0.023114309
22	0xbc32a6cd	-0.010904026
23	0xbc553ccf	-0.013014986
24	0x3b55a48d	0.00325993
25	0x3a9c71e3	0.0011935796
26	0xbc667946	-0.014067
27	0x3b80da5c	0.0039322805
28	0x3c4e7263	0.012600514
29	0xbc314b8f	-0.010821237
30	0xbbf830ce	-0.0075741773
31	0xbb737ebb	-0.0037154395
32	0xbc628b16	-0.013827106
33	0x3be0c2f3	0.0068591773
34	0xbb8a6ae1	-0.0042241667
35	0x3b2e2e7c	0.0026578
36	0x3ab552fd	0.0013833937
37	0x3b5a74b9	0.0033333732
38	0x3a9c3c18	0.0011919765
39	0xbc441df1	-0.011970029
40	0xb975289e	-0.00023380152
41	0x3c34cd65	0.011035298
42	0xba7fa501	-0.00097520655
43	0xbc83381d	-0.016017968
44	0xbb485f04	-0.0030574212
45	0xbbfd7e81	-0.0077360277
46	0xb8a563bd	-7.886391e-05
47	0xbc077a07	-0.00826884
48	0x3ca0cd1b	0.019629052
49	0xbb00dc8e	-0.001966271
50	0xbbefc329	-0.007316966
51	0x3ba4d6dd	0.0050304965
52	0xb94b455f	-0.00019385431
53	0xbc2e0695	-0.0106216865
54	0x397915ca	0.00023754608
55	0x3bed6cf3	0.007245654
56	0x3bac214c	0.0052529927
57	0x3bc479d2	0.0059959674
58	0x3bd795c3	0.0065791323
59	0x3b9ef6d4	0.0048512015
60	0xbab7a68c	-0.0014011427
61	0x3c0b4e8c	0.008502614
62	0x3c299207	0.010349757
63	0xbc1c08a5	-0.009523545
64	0xbc78f48b	-0.015195022
65	0xbbc22493	-0.00592477
66	0x3cb33367	0.021875096
67	0xba486ea1	-0.00076458795
68	0xbb1f58e7	-0.0024314465
69	0x3b8ca9d2	0.004292705
70	0x3c341ac9	0.010992714
71	0x3c1ef94d	0.009702993
72	0xbc181097	-0.009281299
73	0xbbc104b2	-0.0058904523
74	0x3b4bbedc	0.0031089103
75	0xbc6110ef	-0.013736947
76	0x3bbc4eef	0.0057467143
77	0xbc37f7ef	-0.011228546
78	0x3b989f13	0.004657635
79	0x3c558187	0.01303137
80	0xbc39b206	-0.011333948
81	0x3ac6358f	0.0015122163
82	0xbc7d6d5a	-0.015467966
83	0xbc25e4a2	-0.010125311
84	0xbc9e56b6	-0.019328456
85	0x3b9a610e	0.004711277
86	0xbbf32093	-0.0074196546
87	0xbc093f4c	-0.008376908
88	0x3bbc32eb	0.0057433746
89	0x3bd9fa49	0.006652151
90	0x3c57cebc	0.013171848
91	0x3c56296c	0.013071399
92	0x3c008c14	0.007845897
93	0x39384e25	0.00017576719
94	0xbbee4245	-0.0072710835
95	0xbcac8a38	-0.021062002
96	0xbb901f76	-0.0043982817
97	0xbc3796d4	-0.011205394
98	0xbc927760	-0.017879188
99	0xbb8df4e8	-0.0043321736
100	0xbbcfc6cf	-0.0063408385
101	0xbbdf9985	-0.006823721
102	0xbc8224d0	-0.015886694
103	0x3b6a3765	0.0035738584
104	0xbba9a737	-0.0051774043
105	0xbc8c37a5	-0.017116377
106	0xbc7aa600	-0.015298367
107	0xbb4ca16d	-0.0031224147
108	0xbb2fbe24	-0.0026816214
109	0x3c90c52e	0.017672148
110	0xbc06fa1b	-0.008238341
111	0xbc3fa7df	-0.011697738
112	0xbb82ca7e	-0.003991424
113	0xbb2e0e44	-0.0026558796
114	0x3cbace96	0.022803586
115	0x3b1c49c4	0.0023847679
116	0xbb0ad534	-0.0021184208
117	0x3ba77aac	0.005111059
118	0xbc9a0466	-0.018800925
119	0x3ca47799	0.02007656
120	0xbbc77f40	-0.0060881674
121	0x3c0d8b6c	0.008639198
122	0xbc33a49f	-0.010964542
123	0x3b3be0e2	0.0028667976
124	0x3bd2a3a6	0.0064282
125	0x3b525da2	0.0032099267
126	0x3c833698	0.016017243
127	0x3983e985	0.00025160253
