results/test4/CharacterBehav.onnx (onnx, 700066 bytes, 12 tensors)

109 f4 [1, 512, 128]
0	0xbdba47a5	-0.09095696
1	0xbdd47398	-0.1037361
2	0xbc17e396	-0.009270569
3	0x3d4d1ad3	0.05007441
4	0x3e1ac0e5	0.15112646
5	0xbe070773	-0.13186435
6	0xbd68bb53	-0.05681927
7	0x3e16c3b0	0.14723086
8	0xbdbccc3d	-0.09218643
9	0xbd51eea9	-0.051252995
10	0xbde4b542	-0.11167385
11	0x3d468ffc	0.048477158
12	0x3d96d0fc	0.07364079
13	0x3d86a6ad	0.0657476
14	0x3c8e9d92	0.01740912
15	0x3db00d10	0.085962415
16	0x3da441ea	0.080203846
17	0x3d942041	0.072327144
18	0xbd7ff6ad	-0.062491108
19	0x3ca363ae	0.019944992
20	0x3c513e84	0.012771253
21	0x3c8c4c86	0.017126333
22	0xbcbb504e	-0.02286544
23	0x3dc5dfd0	0.096618295
24	0xbe0a6474	-0.13514882
25	0x3df75c42	0.12078144
26	0x3dde1d06	0.108453795
27	0x3e040c46	0.12895307
28	0xbccf7e51	-0.025328787
29	0x3d95312f	0.07284772
30	0x3dec1775	0.115279116
31	0x3c3e0cfe	0.011599777
32	0x3cc06e92	0.023490224
33	0x3ba27a54	0.0049584303
34	0xbd6ccff9	-0.057815526
35	0x3e0e076b	0.13870017
36	0xbd4422ca	-0.04788474
37	0xbbc87532	-0.0061174864
38	0x3de90cb9	0.1137938
39	0xbdfc4ddf	-0.1231954
40	0x3d27313d	0.04081844
41	0xbdc2da35	-0.09514276
42	0x39733eee	0.00023197729
43	0xbe0362b1	-0.12830617
44	0x3c9102c9	0.017701523
45	0x3be17cfc	0.0068813544
46	0x3dc12f89	0.09432895
47	0x3c147f51	0.009063558
48	0xbd887381	-0.066626556
49	0xbde6530b	-0.11246308
50	0xbd80468b	-0.06263455
51	0x3df11f8e	0.11773597
52	0xbdabfd36	-0.083979055
53	0x3d8a96c9	0.06767041
54	0x3ddb52a7	0.10709124
55	0xbe160fd8	-0.14654481
56	0x3d89643e	0.06708573
57	0x3e0d2095	0.1378196
58	0x3d13d958	0.036095947
59	0xbd85f0bb	-0.06540056
60	0xbc7d6d1c	-0.015467908
61	0x3d74d8c8	0.05977705
62	0xbe15b5c4	-0.1462012
63	0xba7b0834	-0.00095761125
64	0xbcb79a49	-0.022412436
65	0xbde2a110	-0.110658765
66	0x3d2bda4b	0.041956227
67	0x39664086	0.00021958546
68	0x3be89bdd	0.0070986585
69	0x3e101895	0.14071877
70	0xbdb9b471	-0.090676196
71	0x3d8a9f37	0.06768649
72	0x3be06992	0.0068485225
73	0xbdacfc00	-0.08446503
74	0x3c27b8f4	0.010236967
75	0xbdf2a630	-0.11848104
76	0x3de30981	0.11085797
77	0x3d892e14	0.06698242
78	0xbd3ea0d3	-0.046540093
79	0xbd03f5ac	-0.032216713
80	0xbdeed94c	-0.1166254
81	0x3d04cf48	0.03242424
82	0x3de9b998	0.11412352
83	0x3c100669	0.008790591
84	0x3dcf69fe	0.10127638
85	0x3e189bf0	0.14903235
86	0x3c7cac23	0.0154219
87	0x3e0d9ea3	0.13830046
88	0x3c28f11c	0.010311391
89	0xbcec8036	-0.02886973
90	0x3d5cb00c	0.05387883
91	0xbdb86e9d	-0.09005473
92	0xbdef104d	-0.11673031
93	0xbdc6ac1c	-0.09700796
94	0x3dd9ee03	0.106411
95	0x3e0aec90	0.13566804
96	0x3d0ee228	0.03488365
97	0x3d981952	0.074267045
98	0x3d738830	0.05945605
99	0x3d99832f	0.074957244
100	0xbd263b29	-0.040583763
101	0x3d9a56af	0.07536065
102	0x3d668264	0.056276694
103	0xbe1b712b	-0.15179889
104	0x3dca332d	0.09873042
105	0x3d7cfc5c	0.061764106
106	0x3dcc0ac9	0.099629946
107	0xbd6eae11	-0.05827147
108	0xbd9d5bbe	-0.07683514
109	0x3d7e0cc0	0.062023878
110	0xbc5df924	-0.013548169
111	0xbde03c5e	-0.10949014
112	0xbd8046ad	-0.0626348
113	0x3d2a30bb	0.04155038
114	0xbd0b6b5f	-0.034037944
115	0xbd435b1e	-0.047694318
116	0x3cd5178e	0.026012208
117	0x3dd04853	0.10170045
118	0x3c6db39b	0.014508153
119	0x3d1cdda5	0.038297314
120	0x3d420bf6	0.047374688
121	0xbdb63646	-0.088970706
122	0x3cbb378f	0.02285364
123	0xbde91ff4	-0.11383048
124	0xbdc4f59d	-0.096171595
125	0x3e148f36	0.14507756
126	0x3e1952f3	0.14973049
127	0xbd932a21	-0.0718577
128	0x3c8de1b0	0.01731953
129	0xbde80320	-0.11328721
130	0xbe009dd6	-0.1256021
131	0x3e000ff5	0.12506087
132	0x3d52d153	0.05146916
133	0xbd240514	-0.040043905
134	0x3d66cee1	0.05634964
135	0x3df2b545	0.11850981
136	0xbdd9d393	-0.10636058
137	0xbdc966af	-0.098340385
138	0x3d433ae5	0.047663588
139	0xbe0f11af	-0.1397159
140	0xbdbf4282	-0.09338857
141	0x3d15a69d	0.036535848
142	0x3e19a15c	0.1500296
143	0xbe066feb	-0.13128631
144	0xbd8b5d52	-0.06804909
145	0xbc6c424e	-0.014420105
146	0xbe04e642	-0.12978461
147	0x3d6c696c	0.057717726
148	0x3d2df4b3	0.04246969
149	0x3d895c52	0.06707062
150	0x3dfde9c2	0.123981014
151	0xbdb9b4cb	-0.09067687
152	0xbccec50e	-0.025240447
153	0x3db128cb	0.08650359
154	0xbdd8e9b9	-0.10591454
155	0x3cc9a66d	0.02461549
156	0x3e18f34f	0.14936565
157	0xbddc0f2d	-0.10745082
158	0xbdd83954	-0.105578095
159	0xbdbddfff	-0.092712395
160	0xbdd504fd	-0.10401342
161	0x3e17774b	0.147916
162	0x3cd8f95c	0.026486091
163	0xbdb809b0	-0.08986223
164	0xbda8a732	-0.08235015
165	0xbd93dcfa	-0.07219882
166	0xbdc842fc	-0.09778401
167	0x3c69b32f	0.014263912
168	0x3d03b3ad	0.032153774
169	0xbde6d2fb	-0.1127071
170	0xbda4323f	-0.08017396
171	0xbd09e291	-0.033663336
172	0x3de406e9	0.111341305
173	0x3d97deb4	0.07415524
174	0x3d235d85	0.03988411
175	0xbd867ffa	-0.06567378
176	0x3da1e721	0.079054125
177	0x3dc31791	0.09525979
178	0xbd8d4f89	-0.06899936
179	0x3a81a386	0.0009890653
180	0xbe1011c2	-0.14069274
181	0x3afb10c7	0.001915478
182	0x3e047693	0.12935857
183	0xbd8c9d36	-0.06865923
184	0xbd942d1c	-0.072351664
185	0xbd83f3d5	-0.06442992
186	0xbe067be6	-0.13133201
187	0x3e1a2984	0.150549
188	0xbdc98a57	-0.09840839
189	0x3d95d139	0.07315297
190	0xbda4088f	-0.08009445
191	0xbd63790b	-0.055535357
192	0xbdab983e	-0.08378647
193	0xbd495a96	-0.049158655
194	0xbddc835e	-0.10767244
195	0xbdca81a6	-0.0988801
196	0x3de91212	0.113804
197	0xbdc302f2	-0.09522046
198	0x3c5cb63b	0.0134711815
199	0x3cc0da94	0.023541726
200	0x3e1acb04	0.15116507
201	0x3dc625c7	0.09675174
202	0x3dd791a3	0.10525825
203	0x3d01eafb	0.031718235
204	0xbbdc70e1	-0.0067273234
205	0x3e1447cd	0.14480515
206	0x3dca8efe	0.09890555
207	0x3dd8ec2c	0.10591921
208	0xbc4d791c	-0.012541082
209	0xbda250f7	-0.07925599
210	0x3da3e7e3	0.08003213
211	0xbd31e6f6	-0.043433152
212	0x3e0b624d	0.13611718
213	0x3dd5ab60	0.10433078
214	0xbe004c5d	-0.1252913
215	0xbd0a2b7c	-0.033732876
216	0xbd59d4ea	-0.053181566
217	0xbdcc97d2	-0.09989895
218	0x3d7b0bd2	0.06129057
219	0xbdd21089	-0.1025706
220	0xbe0c0760	-0.13674688
221	0xbde5fc6e	-0.11229788
222	0x3db19e85	0.08672813
223	0x3d809299	0.06277961
224	0x3d9f8c05	0.077903785
225	0xbda229a1	-0.07918096
226	0xbdd0edfb	-0.10201641
227	0x3e027f1b	0.127438
228	0xbdbef243	-0.093235515
229	0x3df8e920	0.1215384
230	0xbdec80a7	-0.11547976
231	0xbdafec25	-0.08589963
232	0x3d770cee	0.060315065
233	0x3def22a5	0.1167653
234	0x3e1a6fb9	0.15081681
235	0x3db71885	0.089402236
236	0x3d96c5f8	0.07361978
237	0x3e0a8e9a	0.1353096
238	0xbddd5e12	-0.10808958
239	0xbd94dfe6	-0.07269268
240	0xbd5e19ee	-0.054223947
241	0x3d519c30	0.051174343
242	0x3d7e0b8b	0.062022727
243	0xbdf3fc75	-0.11913387
244	0x3db9d948	0.09074646
245	0xbe19cd18	-0.15019643
246	0xbc36bb0e	-0.011152996
247	0x3d795c1e	0.060878865
248	0xbc6d7950	-0.014494255
249	0x3d5bf3d7	0.05369934
250	0x3e06e02d	0.13171454
251	0xbd8dc6b5	-0.06922666
252	0x3db54747	0.08851486
253	0xbd32f0f6	-0.04368683
254	0x3c46b256	0.01212748
255	0xbe1b9868	-0.15194857

110 f4 [1, 512, 128]
0	0xbd8b0ff6	-0.06790154
1	0x3d273bcd	0.040828515
2	0xbd78c56d	-0.060735155
3	0xbd0cb103	-0.0343485
4	0xbda070fe	-0.078340515
5	0xbdee285e	-0.11628793
6	0xbd8d6a4f	-0.069050424
7	0x3df4462f	0.11927449
8	0xbcf6b800	-0.030117035
9	0xbde845ee	-0.11341463
10	0x3df9bb66	0.121939465
11	0xbcc89b33	-0.024488067
12	0x3d5fc1ea	0.05462829
13	0xbc8fd806	-0.017559063
14	0xbdb51cdf	-0.08843397
15	0x3d3e9e5f	0.046537753
16	0xbdbbcd80	-0.091700554
17	0xbe1318ea	-0.14364973
18	0xbdefa10e	-0.117006406
19	0x3d58137d	0.05275296
20	0xbe0df45e	-0.1386275
21	0x3cf572d9	0.02996199
22	0xbdf350f0	-0.11880672
23	0xbd05518e	-0.03254848
24	0xbd6c9cc9	-0.05776671
25	0x3df9efd3	0.12203946
26	0xbe0b1e08	-0.13585675
27	0x3d2b4232	0.041811176
28	0x3c229ffd	0.0099258395
29	0x3d386949	0.045022283
30	0x3ddac925	0.106828965
31	0xbd5baceb	-0.053631704
32	0x3d7c5b6b	0.06161062
33	0xbdd7edec	-0.10543427
34	0x3d7cc7fb	0.061714154
35	0xbe1275e9	-0.14302792
36	0xbdd488b4	-0.103776366
37	0xbd94dbba	-0.07268472
38	0xbc0b7578	-0.008511893
39	0xbdd0dda0	-0.101985216
40	0xbe16afea	-0.14715543
41	0xbe174853	-0.14773683
42	0xbdeb1d31	-0.11480177
43	0x3cc42241	0.023942115
44	0xbe14fd58	-0.14549768
45	0x3dd195c2	0.10233642
46	0xbd6cb139	-0.0577862
47	0x3c4ce587	0.012505895
48	0x3d0719c8	0.03298357
49	0x3d810170	0.06299102
50	0xbc837a6c	-0.016049586
51	0x3d8eb92f	0.06968915
52	0x3d862561	0.06550098
53	0x3d399e35	0.045316894
54	0x3adddd8c	0.0016926988
55	0x3c02e9c4	0.007990304
56	0x3c32c8cb	0.010912131
57	0xbdc3a581	-0.09553052
58	0xbda2f3f4	-0.079566866
59	0xbde3569c	-0.11100504
60	0x3e131573	0.14363651
61	0x3e1bbec8	0.15209496
62	0xbd443364	-0.047900572
63	0x3cc0007f	0.023437737
64	0x3d0b7116	0.034043394
65	0xbda2b9f7	-0.07945626
66	0xbbdf9d6b	-0.0068241856
67	0x3d919c59	0.07109899
68	0xbd98e835	-0.07466165
69	0xbd490ee2	-0.04908646
70	0x3e08b079	0.13348569
71	0xbd7fc28c	-0.062441394
72	0xbd825202	-0.06363298
73	0x3e0f123c	0.139718
74	0x3e10f60b	0.14156358
75	0xbd90411d	-0.070436694
76	0xbddb84f7	-0.107187204
77	0x3d36182a	0.04445664
78	0x3da72f62	0.081633344
79	0xbdda0de5	-0.106471814
80	0x3dce5773	0.10075273
81	0x3dfb0518	0.12256831
82	0x3d8b9708	0.06815916
83	0xbd6ae06e	-0.05734294
84	0x3b62c227	0.0034600587
85	0xbd0c8e2c	-0.034315273
86	0xbcbb3ffb	-0.022857657
87	0x3deced12	0.11568655
88	0x3e0ad0c0	0.13556194
89	0x3df87e46	0.1213346
90	0xbe123026	-0.1427618
91	0xbddf3597	-0.10898893
92	0xbda14048	-0.07873589
93	0x3dada3c6	0.08478503
94	0x3dca3224	0.09872845
95	0x3d6d8115	0.05798443
96	0x3ddb597e	0.10710429
97	0xbddfde7a	-0.10931106
98	0xbd277ee5	-0.0408925
99	0xbe1a0448	-0.15040696
100	0x3ddce463	0.10785749
101	0xbe0e7276	-0.13910851
102	0xbde6caaa	-0.11269124
103	0x3db1318f	0.08652031
104	0xbddfe052	-0.109314576
105	0x3e0ce3da	0.13758793
106	0xbd7d248e	-0.06180244
107	0xbd4788c5	-0.048714418
108	0xbe197323	-0.14985327
109	0x3c58335f	0.013195842
110	0xbd91d209	-0.07120139
111	0x3d93ebd2	0.072227135
112	0x3dd4475e	0.10365175
113	0x3e0c68f3	0.1371191
114	0xbc845ae0	-0.016156614
115	0x3dd8d8c2	0.10588218
116	0x3e0ff20c	0.14057177
117	0x3e18d471	0.1492479
118	0x3e0ec3ae	0.13941833
119	0xbd2513ce	-0.04030209
120	0xbe167416	-0.14692721
121	0x3d962004	0.07330325
122	0xbe15ecec	-0.1464116
123	0x3b4437ff	0.0029940603
124	0xbd299b95	-0.04140814
125	0x3d40fd23	0.04711641
126	0xbdbe99e7	-0.09306698
127	0x3d9cba12	0.076526776
128	0xbdab1e00	-0.083553314
129	0xbde175e1	-0.11008812
130	0x3d1a65b7	0.03769466
131	0x3d25ad0d	0.040448237
132	0x3b0772fa	0.0020667897
133	0x3d8f3417	0.06992357
134	0xbe087bcb	-0.13328473
135	0xbd42d850	-0.047569573
136	0xbd5a0180	-0.053224087
137	0xbcc81690	-0.024424821
138	0xbcc8a711	-0.024493726
139	0xbbf63eb1	-0.0075147976
140	0xbda7ec62	-0.08199383
141	0x3dcff818	0.10154742
142	0x3e117416	0.1420444
143	0xbd2b4c39	-0.04182074
144	0xbe006bcc	-0.12541121
145	0x3e17369c	0.14766926
146	0x3c0434ad	0.0080691995
147	0xbe07b07e	-0.1325092
148	0xbe0b1fc5	-0.13586338
149	0x3d8f4fa0	0.06997609
150	0xbd9930c2	-0.07480003
151	0x3b40b4ba	0.0029404596
152	0xbe1b7216	-0.15180239
153	0xbc51be01	-0.012801648
154	0xbd91b0db	-0.07113811
155	0xbd11f126	-0.035630368
156	0x3d94a12b	0.07257303
157	0x3e0f8997	0.1401733
158	0x3cca6847	0.024707926
159	0x3b232950	0.002489645
160	0xbd1dfac0	-0.038569212
161	0xbc24b9a7	-0.010054029
162	0x3dae4dbc	0.085109204
163	0x3d63d05d	0.055618633
164	0xbdb188c9	-0.08668668
165	0xbd114440	-0.03546548
166	0x3dc6796f	0.0969113
167	0xbe14fa73	-0.14548664
168	0x3d8f28ca	0.06990202
169	0x3d09e0fa	0.03366182
170	0xbd98143c	-0.074257344
171	0xbdfb3f78	-0.12267965
172	0xbd0b7d3d	-0.034054983
173	0xbd9443e2	-0.0723951
174	0xbd9dc741	-0.0770402
175	0x3d1996f6	0.037497483
176	0xbdbade5c	-0.09124443
177	0x3dcd1313	0.10013404
178	0xbcdadd05	-0.026716718
179	0xbdd90d66	-0.10598259
180	0xbdb5f22c	-0.08884081
181	0xbd99fec7	-0.07519298
182	0x3da30602	0.0796013
183	0x3d940008	0.072265685
184	0xbcbfd2a0	-0.023415864
185	0x3d6eac35	0.0582697
186	0xbda224c1	-0.079171665
187	0x3d07383b	0.03301261
188	0xbcd5ef1c	-0.026114993
189	0xbdf655c9	-0.12028081
190	0xbde1e262	-0.11029507
191	0xbd672c84	-0.056438938
192	0x3ddbc488	0.10730845
193	0x3e06e49a	0.13173142
194	0x3de80f27	0.11331015
195	0xbd04a081	-0.03237963
196	0xbd89d983	-0.0673094
197	0x3de78be2	0.113059774
198	0xbdb7e218	-0.08978671
199	0xbcfbf922	-0.030758444
200	0xbc8ea9ea	-0.017415006
201	0x3d6ff4b5	0.05858298
202	0xbdeb9326	-0.11502676
203	0x3e17eb88	0.14835942
204	0xbe19fe2e	-0.15038368
205	0x3b4b8bff	0.0031058786
206	0xbe0a827d	-0.1352634
207	0xbd9ce9b9	-0.076617666
208	0xbdf832ab	-0.12119039
209	0xbdefa809	-0.11701972
210	0x3e019655	0.12655003
211	0xbe1aeaa5	-0.15128572
212	0x3cc9e92c	0.024647318
213	0xbde4726e	-0.11154638
214	0xbc11f440	-0.008908331
215	0x3b96dd91	0.0046040495
216	0xbe14e860	-0.14541769
217	0xbd069d2d	-0.03286474
218	0xbddd56ca	-0.10807569
219	0xbd8bfa24	-0.0683482
220	0xbe06c7eb	-0.131622
221	0x3dd7becd	0.10534439
222	0xbde85df7	-0.11346047
223	0x3d60db43	0.054896604
224	0x3dfde409	0.1239701
225	0xbdc9ac53	-0.09847321
226	0xbdc5f1a5	-0.09665231
227	0xbddd4c67	-0.10805588
228	0x3d8fb59d	0.07017062
229	0x3d449f46	0.048003457
230	0x3d564f10	0.052321494
231	0x3d394ef7	0.045241322
232	0xbc63c7a3	-0.013902578
233	0x3d153401	0.036426548
234	0x3d942b3b	0.07234808
235	0xbdfe498c	-0.12416372
236	0xbe0e6865	-0.13907011
237	0xbd7a7d79	-0.061154816
238	0xbdee57d1	-0.116378434
239	0x3dbfd699	0.09367103
240	0xbe123a07	-0.14279948
241	0x3df15de7	0.117854886
242	0xbac5887e	-0.0015070585
243	0x3da8ea82	0.08247854
244	0xbdd27e5d	-0.10278008
245	0xbc8625b2	-0.016375396
246	0x3dcb1280	0.09915638
247	0x3dd165df	0.102245085
248	0xbd7cc18d	-0.061708022
249	0x3d80c33e	0.062872395
250	0x3cd4f737	0.025996787
251	0x3dbe8ad1	0.09303821
252	0x3e04e42d	0.12977667
253	0x3d8cd37a	0.068762735
254	0xbd34f6aa	-0.04418055
255	0x3cb7e4fa	0.022448052

111 f4 [1, 1024]
0	0x00000000	0.0
1	0x00000000	0.0
2	0x00000000	0.0
3	0x00000000	0.0
4	0x00000000	0.0
5	0x00000000	0.0
6	0x00000000	0.0
7	0x00000000	0.0
8	0x00000000	0.0
9	0x00000000	0.0
10	0x00000000	0.0
11	0x00000000	0.0
12	0x00000000	0.0
13	0x00000000	0.0
14	0x00000000	0.0
15	0x00000000	0.0
16	0x00000000	0.0
17	0x00000000	0.0
18	0x00000000	0.0
19	0x00000000	0.0
20	0x00000000	0.0
21	0x00000000	0.0
22	0x00000000	0.0
23	0x00000000	0.0
24	0x00000000	0.0
25	0x00000000	0.0
26	0x00000000	0.0
27	0x00000000	0.0
28	0x00000000	0.0
29	0x00000000	0.0
30	0x00000000	0.0
31	0x00000000	0.0
32	0x00000000	0.0
33	0x00000000	0.0
34	0x00000000	0.0
35	0x00000000	0.0
36	0x00000000	0.0
37	0x00000000	0.0
38	0x00000000	0.0
39	0x00000000	0.0
40	0x00000000	0.0
41	0x00000000	0.0
42	0x00000000	0.0
43	0x00000000	0.0
44	0x00000000	0.0
45	0x00000000	0.0
46	0x00000000	0.0
47	0x00000000	0.0
48	0x00000000	0.0
49	0x00000000	0.0
50	0x00000000	0.0
51	0x00000000	0.0
52	0x00000000	0.0
53	0x00000000	0.0
54	0x00000000	0.0
55	0x00000000	0.0
56	0x00000000	0.0
57	0x00000000	0.0
58	0x00000000	0.0
59	0x00000000	0.0
60	0x00000000	0.0
61	0x00000000	0.0
62	0x00000000	0.0
63	0x00000000	0.0
64	0x00000000	0.0
65	0x00000000	0.0
66	0x00000000	0.0
67	0x00000000	0.0
68	0x00000000	0.0
69	0x00000000	0.0
70	0x00000000	0.0
71	0x00000000	0.0
72	0x00000000	0.0
73	0x00000000	0.0
74	0x00000000	0.0
75	0x00000000	0.0
76	0x00000000	0.0
77	0x00000000	0.0
78	0x00000000	0.0
79	0x00000000	0.0
80	0x00000000	0.0
81	0x00000000	0.0
82	0x00000000	0.0
83	0x00000000	0.0
84	0x00000000	0.0
85	0x00000000	0.0
86	0x00000000	0.0
87	0x00000000	0.0
88	0x00000000	0.0
89	0x00000000	0.0
90	0x00000000	0.0
91	0x00000000	0.0
92	0x00000000	0.0
93	0x00000000	0.0
94	0x00000000	0.0
95	0x00000000	0.0
96	0x00000000	0.0
97	0x00000000	0.0
98	0x00000000	0.0
99	0x00000000	0.0
100	0x00000000	0.0
101	0x00000000	0.0
102	0x00000000	0.0
103	0x00000000	0.0
104	0x00000000	0.0
105	0x00000000	0.0
106	0x00000000	0.0
107	0x00000000	0.0
108	0x00000000	0.0
109	0x00000000	0.0
110	0x00000000	0.0
111	0x00000000	0.0
112	0x00000000	0.0
113	0x00000000	0.0
114	0x00000000	0.0
115	0x00000000	0.0
116	0x00000000	0.0
117	0x00000000	0.0
118	0x00000000	0.0
119	0x00000000	0.0
120	0x00000000	0.0
121	0x00000000	0.0
122	0x00000000	0.0
123	0x00000000	0.0
124	0x00000000	0.0
125	0x00000000	0.0
126	0x00000000	0.0
127	0x00000000	0.0
128	0x00000000	0.0
129	0x00000000	0.0
130	0x00000000	0.0
131	0x00000000	0.0
132	0x00000000	0.0
133	0x00000000	0.0
134	0x00000000	0.0
135	0x00000000	0.0
136	0x00000000	0.0
137	0x00000000	0.0
138	0x00000000	0.0
139	0x00000000	0.0
140	0x00000000	0.0
141	0x00000000	0.0
142	0x00000000	0.0
143	0x00000000	0.0
144	0x00000000	0.0
145	0x00000000	0.0
146	0x00000000	0.0
147	0x00000000	0.0
148	0x00000000	0.0
149	0x00000000	0.0
150	0x00000000	0.0
151	0x00000000	0.0
152	0x00000000	0.0
153	0x00000000	0.0
154	0x00000000	0.0
155	0x00000000	0.0
156	0x00000000	0.0
157	0x00000000	0.0
158	0x00000000	0.0
159	0x00000000	0.0
160	0x00000000	0.0
161	0x00000000	0.0
162	0x00000000	0.0
163	0x00000000	0.0
164	0x00000000	0.0
165	0x00000000	0.0
166	0x00000000	0.0
167	0x00000000	0.0
168	0x00000000	0.0
169	0x00000000	0.0
170	0x00000000	0.0
171	0x00000000	0.0
172	0x00000000	0.0
173	0x00000000	0.0
174	0x00000000	0.0
175	0x00000000	0.0
176	0x00000000	0.0
177	0x00000000	0.0
178	0x00000000	0.0
179	0x00000000	0.0
180	0x00000000	0.0
181	0x00000000	0.0
182	0x00000000	0.0
183	0x00000000	0.0
184	0x00000000	0.0
185	0x00000000	0.0
186	0x00000000	0.0
187	0x00000000	0.0
188	0x00000000	0.0
189	0x00000000	0.0
190	0x00000000	0.0
191	0x00000000	0.0
192	0x00000000	0.0
193	0x00000000	0.0
194	0x00000000	0.0
195	0x00000000	0.0
196	0x00000000	0.0
197	0x00000000	0.0
198	0x00000000	0.0
199	0x00000000	0.0
200	0x00000000	0.0
201	0x00000000	0.0
202	0x00000000	0.0
203	0x00000000	0.0
204	0x00000000	0.0
205	0x00000000	0.0
206	0x00000000	0.0
207	0x00000000	0.0
208	0x00000000	0.0
209	0x00000000	0.0
210	0x00000000	0.0
211	0x00000000	0.0
212	0x00000000	0.0
213	0x00000000	0.0
214	0x00000000	0.0
215	0x00000000	0.0
216	0x00000000	0.0
217	0x00000000	0.0
218	0x00000000	0.0
219	0x00000000	0.0
220	0x00000000	0.0
221	0x00000000	0.0
222	0x00000000	0.0
223	0x00000000	0.0
224	0x00000000	0.0
225	0x00000000	0.0
226	0x00000000	0.0
227	0x00000000	0.0
228	0x00000000	0.0
229	0x00000000	0.0
230	0x00000000	0.0
231	0x00000000	0.0
232	0x00000000	0.0
233	0x00000000	0.0
234	0x00000000	0.0
235	0x00000000	0.0
236	0x00000000	0.0
237	0x00000000	0.0
238	0x00000000	0.0
239	0x00000000	0.0
240	0x00000000	0.0
241	0x00000000	0.0
242	0x00000000	0.0
243	0x00000000	0.0
244	0x00000000	0.0
245	0x00000000	0.0
246	0x00000000	0.0
247	0x00000000	0.0
248	0x00000000	0.0
249	0x00000000	0.0
250	0x00000000	0.0
251	0x00000000	0.0
252	0x00000000	0.0
253	0x00000000	0.0
254	0x00000000	0.0
255	0x00000000	0.0

action_model._discrete_distribution.branches.0.bias f4 [3]
0	0x00000000	0.0
1	0x00000000	0.0
2	0x00000000	0.0

action_model._discrete_distribution.branches.0.weight f4 [3, 128]
0	0x3a35932d	0.0006926533
1	0xbad49315	-0.001621815
2	0x3b9ea800	0.0048418045
3	0x3bebafa3	0.0071925684
4	0xbc9d434d	-0.01919713
5	0xbc3d9d04	-0.01157308
6	0x3bf590ed	0.007494083
7	0x3b33987d	0.0027404123
8	0x3c01101f	0.007877379
9	0x3bd0845a	0.006363434
10	0x3c9e6c46	0.019338738
11	0xbc400526	-0.0117199775
12	0x3b149885	0.0022673917
13	0x3b34b750	0.0027575083
14	0x3a261080	0.0006334856
15	0xbb1c617d	-0.0023861818
16	0xbc50106d	-0.012699229
17	0x3b909ca7	0.0044132057
18	0xbcdffe9d	-0.027343089
19	0xb9ac73ab	-0.00032892576
20	0xbbdc67a5	-0.0067262226
21	0x3ba67936	0.0050803674
22	0xbb177fd0	-0.0023116954
23	0xbc02c18d	-0.007980716
24	0xbc1effd9	-0.0097045535
25	0x3c5c1820	0.013433486
26	0x3c06558c	0.008199107
27	0x3ac89ba3	0.0015305172
28	0xbbadd7dd	-0.005305274
29	0xbc9ce7ac	-0.019153439
30	0x3bc6fb48	0.0060724355
31	0x3b51eba8	0.0032031331
32	0xbc75e06f	-0.015007122
33	0xbbd9cc77	-0.0066466886
34	0x3b84cf23	0.004053013
35	0x3cbd22e5	0.023087928
36	0x3a58a33f	0.00082640717
37	0xbc88457d	-0.016634697
38	0x3c70b72a	0.014692107
39	0xbbccf98d	-0.0062553347
40	0xbc01c58d	-0.007920635
41	0x3c3744ca	0.011185834
42	0xba831dff	-0.0010003446
43	0xbba3726f	-0.004988007
44	0x3b075268	0.0020648483
45	0xbb5ab3d7	-0.0033371353
46	0xbbe4a965	-0.006978201
47	0xbbbaf3f2	-0.00570535
48	0xbad10202	-0.0015946033
49	0x3b72f0b2	0.0037069735
50	0x3c965e11	0.018355401
51	0x3ac8d38a	0.0015321833
52	0x3c46cd63	0.012133929
53	0xbaaca5cf	-0.0013171973
54	0xbc0a9acf	-0.008459761
55	0xbbd229c0	-0.0064136684
56	0x3bbda642	0.0057876417
57	0x3b807432	0.0039201016
58	0xbabb19aa	-0.0014274616
59	0xba549e80	-0.00081107765
60	0x3c04ae90	0.00809826
61	0xbbea1fba	-0.0071448954
62	0xbbeba325	-0.007191079
63	0x3b001b10	0.001954738
64	0x3bb610c7	0.0055561992
65	0xbbbfeb7f	-0.0058569307
66	0xbc88e49d	-0.016710574
67	0xbb815a9d	-0.0039475695
68	0x3b22a1c4	0.0024815658
69	0x3bead5ba	0.0071665915
70	0xbc080e3d	-0.008304176
71	0xbb8053eb	-0.003916254
72	0xbbe7d58a	-0.0070750164
73	0x3c2dfac8	0.010618873
74	0xbbcf2c5b	-0.0063224263
75	0x3a952ef7	0.0011381794
76	0xbc6e5b87	-0.014548189
77	0x3b44b1f3	0.0030013293
78	0xb92f531d	-0.00016720263
79	0x3af520b5	0.0018701764
80	0x3c3f5be9	0.011679628
81	0xbc226c24	-0.009913478
82	0x3c39d403	0.011342051
83	0x3bed2223	0.0072367354
84	0x3a1c9878	0.00059736473
85	0xbba66fb9	-0.0050792363
86	0xbba91632	-0.0051601166
87	0xbaba53a1	-0.0014215597
88	0x3c91b94f	0.017788557
89	0x3c0514d2	0.00812264
90	0x3c7e6dd7	0.015529118
91	0x3c2e9d4b	0.010657619
92	0xbb7be02d	-0.003843318
93	0xba527052	-0.0008027601
94	0xbbf8bcdd	-0.0075908736
95	0xbbcffc12	-0.006347188
96	0xbae7a3df	-0.0017672739
97	0xbb244caa	-0.002507011
98	0x3afc3b35	0.0019243719
99	0x3c6c721a	0.014431501
100	0x3bb3aac3	0.005483003
101	0x3aa6b909	0.001271994
102	0x3b01bce7	0.0019796432
103	0x3aaa3983	0.001298711
104	0x3b046c80	0.0020206273
105	0x3b2c2cc9	0.0026271811
106	0x3c062573	0.0081876395
107	0xbbde581d	-0.0067854063
108	0xbc190a67	-0.009340859
109	0x3b9e482b	0.0048303804
110	0x38d92d18	0.00010355766
111	0xbc161d7c	-0.009162303
112	0xbb9537eb	-0.004553785
113	0x3be78162	0.007064984
114	0xbb376522	-0.0027983864
115	0xbc88b835	-0.0166894
116	0xbcab22ae	-0.02089056
117	0xba64506a	-0.00087094924
118	0xbc5f3968	-0.013624527
119	0xbbc73ce1	-0.0060802554
120	0x3a2dc4a4	0.0006628728
121	0x3c4e0c47	0.012576169
122	0xbad3da0f	-0.0016163009
123	0xbb2178a3	-0.0024638555
124	0xbd137c95	-0.036007483
125	0xbb2bffaa	-0.0026244917
126	0x3c1e47d3	0.009660679
127	0xbb224d83	-0.002476544
128	0x3c13a3c1	0.00901121
129	0xba9b91a7	-0.0011868969
130	0x3c26764c	0.01016004
131	0x3cc7ce43	0.024390345
132	0x3bdeb8a3	0.0067969128
133	0x3b92c4b5	0.0044790157
134	0xbc10764f	-0.0088172695
135	0xbbf1f7b5	-0.0073842653
136	0xbc85d60b	-0.016337415
137	0x3ad32693	0.0016109518
138	0x3b97f9b0	0.0046379194
139	0xbca2cf67	-0.019874288
140	0x3ad17c90	0.0015982557
141	0x3c3a1567	0.011357642
142	0xbc36a401	-0.0111475
143	0x3c856c1b	0.0162869
144	0x3c81d02b	0.015846333
145	0xba5208f7	-0.00080122
146	0xbc1c2755	-0.009530862
147	0xbb6cff30	-0.0036162846
148	0xbbb1b17f	-0.0054227705
149	0x39be2f38	0.00036274805
150	0xbc982a33	-0.01857481
151	0xbb9e9fc1	-0.0048408215
152	0x3c189990	0.009313956
153	0x3b3dd575	0.0028966342
154	0x3b3b3af1	0.0028569067
155	0xbc02fb0b	-0.007994424
156	0x3ca5721f	0.020196019
157	0xb9dcfed0	-0.0004215152
158	0xbbe66d5a	-0.0070320787
159	0xbc2d0be4	-0.010561917
160	0x3c461198	0.012089156
161	0xbb9c170f	-0.004763491
162	0x3b14e90e	0.002272192
163	0x3c1ecbf7	0.009692184
164	0xbc8d8ec5	-0.017279992
165	0xbc8ff9db	-0.017575195
166	0xbc7d58d2	-0.015463071
167	0x3b86dc26	0.004115599
168	0x3c3b3477	0.011426083
169	0xbc43b2c3	-0.011944476
170	0xbc3da255	-0.0115743475
171	0xbb779d45	-0.003778295
172	0x3a05918f	0.0005095237
173	0x3b36966f	0.0027860662
174	0xbc058676	-0.008149734
175	0xbc3709af	-0.011171742
176	0xba67a87b	-0.0008837056
177	0x3adb75c5	0.0016743472
178	0x3cb2847d	0.021791691
179	0x3b3eae67	0.002909565
180	0x3c06d3ab	0.0082291765
181	0xbc44af23	-0.0120046465
182	0xbc52a2ea	-0.012856225
183	0x3b75bcb3	0.0037496507
184	0xbc5d5a73	-0.013510334
185	0xbba1d88b	-0.004939144
186	0x3c2f8915	0.010713835
187	0x3a2d9dcd	0.00066229404
188	0x3b8ca3ad	0.0042919726
189	0x3ba58db3	0.0050522923
190	0x3c568675	0.0130935805
191	0x3b3a0cab	0.0028388898
192	0x3bc8f929	0.006133218
193	0xbc092424	-0.008370433
194	0xba40efe7	-0.0007359967
195	0x3b546b0b	0.0032412435
196	0xbbb34963	-0.005471395
197	0xbb612b72	-0.003435817
198	0xbb8b75ae	-0.004255972
199	0xba01bf9b	-0.0004949511
200	0x3c16751b	0.009183194
201	0x3ba46892	0.0050173486
202	0xbbdd6068	-0.0067558773
203	0x3b8aa31b	0.0042308695
204	0x39c56bec	0.00037655176
205	0x3c784b97	0.015154741
206	0xb9e6cc15	-0.00044021072
207	0x3bb120e8	0.005405534
208	0x3b3dca87	0.0028959827
209	0xbc1f8c83	-0.00973809
210	0xbbe0dce5	-0.00686227
211	0xbc4536f7	-0.01203703
212	0x3c024fc0	0.007953584
213	0xbb89932a	-0.0041984515
214	0xbb64fa60	-0.0034939274
215	0xbc25812d	-0.010101599
216	0xbb579937	-0.003289772
217	0x3b249735	0.002511454
218	0x3c0e57bc	0.00868791
219	0x39b80553	0.00035099182
220	0x3b9ad61f	0.0047252323
221	0xbbc18e40	-0.00590685
222	0xbc5b6a0f	-0.013391986
223	0xbb2250b6	-0.0024767346
224	0xbadd786f	-0.0016896854
225	0xbc71a29a	-0.01474824
226	0xbbca157f	-0.0061671133
227	0x3a7f7d78	0.00097461743
228	0x3a4228b6	0.0007406579
229	0x3890e14f	6.908422e-05
230	0x3bc378ef	0.005965344
231	0xbb99f5f3	-0.004698509
232	0x3c0a1263	0.008427235
233	0x3b0e243c	0.0021689078
234	0x3c6fb827	0.014631308
235	0x3b7f8573	0.0038989454
236	0x3bbb7fd3	0.005722025
237	0xbac40032	-0.0014953671
238	0xbacdbfa8	-0.0015697377
239	0xbc870197	-0.01648025
240	0xbc64c15b	-0.013962115
241	0xb84de11d	-4.908546e-05
242	0xbbd0b9c7	-0.0063698026
243	0x3c8110e3	0.015755123
244	0x3afff600	0.001952827
245	0x3c0554f7	0.008137933
246	0xbc37183d	-0.011175212
247	0xbc545a67	-0.012961007
248	0xb9254f0d	-0.00015765075
249	0x3c1caac3	0.009562197
250	0xbb552122	-0.003252097
251	0x3c0ef280	0.008724809
252	0xbbd887ef	-0.0066080014
253	0xba59dbd7	-0.0008310652
254	0x3bb5e09a	0.0055504562
255	0xbc8b914b	-0.017037055

action_model._discrete_distribution.branches.1.bias f4 [3]
0	0x00000000	0.0
1	0x00000000	0.0
2	0x00000000	0.0

action_model._discrete_distribution.branches.1.weight f4 [3, 128]
0	0xbbfc9e4a	-0.007709299
1	0xbb90d9d2	-0.0044204975
2	0x3bef9873	0.0073118745
3	0x3bb06427	0.005383033
4	0xba67e820	-0.000884654
5	0xbb135ecc	-0.0022486923
6	0x3b920ed8	0.004457336
7	0xbc06205e	-0.008186428
8	0x3bd22d58	0.006414097
9	0xbaf004a0	-0.0018311925
10	0xbc283919	-0.010267519
11	0x3bcd014a	0.006256257
12	0xbc3a0afb	-0.011355157
13	0xbb9a4ef7	-0.0047091204
14	0xb9109393	-0.00013787886
15	0x3c2eae9b	0.010661746
16	0x3aca0ccc	0.0015415191
17	0x3c0c16d7	0.008550367
18	0x3c1275c2	0.008939208
19	0xb8ea887a	-0.0001118341
20	0x3c0fa58a	0.008767495
21	0x3b9e0467	0.004822302
22	0x3c3e38c8	0.011610217
23	0xb8d42878	-0.00010116486
24	0xbac9e102	-0.001540214
25	0xbbce09df	-0.006287798
26	0xbc91151a	-0.017710257
27	0xbbef6712	-0.007305988
28	0x3c1675d0	0.009183362
29	0xbc0a951f	-0.008458405
30	0xbb82ca64	-0.003991412
31	0x3bcc73aa	0.006239374
32	0x3b819313	0.0039543
33	0xbaa508e2	-0.0012591148
34	0xbad954d3	-0.0016581066
35	0x3b88c44f	0.0041737924
36	0x3c3bcea7	0.011462844
37	0x3bd3c63b	0.00646284
38	0x3ca3326f	0.01992151
39	0xb99108b1	-0.0002766303
40	0xbbc5a401	-0.0060315137
41	0xbb3b5237	-0.002858294
42	0xb82e6ce1	-4.1586234e-05
43	0xbb0e67c9	-0.0021729341
44	0x3c377474	0.011197198
45	0xb92713a9	-0.00015933685
46	0x3b476a6a	0.0030428418
47	0x3b8d48e7	0.004311669
48	0xbc767035	-0.015041401
49	0x3af5d3d3	0.0018755145
50	0xbbb1a828	-0.005421657
51	0xba858d56	-0.0010189216
52	0xbcb3cfb3	-0.021949625
53	0xbc1ff012	-0.009761827
54	0xbba61bd5	-0.005069236
55	0x3bdad34a	0.0066780197
56	0x3b6cae7f	0.003611475
57	0x3bedbd9f	0.0072552706
58	0x3bad530f	0.0052894424
59	0xbbbc3bbe	-0.0057444265
60	0x3b24dcef	0.00251561
61	0x3c29eac5	0.010370915
62	0xbbeed435	-0.0072884806
63	0x3c40ddcc	0.0117716305
64	0x3948d8a3	0.0001915419
65	0xbbcfe260	-0.0063441247
66	0xbba72fe1	-0.005102143
67	0xba14002f	-0.00056457793
68	0xbad25170	-0.0016045999
69	0xbb1d5aaa	-0.0024010339
70	0xbb9e912e	-0.004839084
71	0x3b8d825f	0.00431852
72	0xbc59fdf0	-0.013305172
73	0x3aff0488	0.0019456306
74	0xbbb11e6a	-0.005405237
75	0x3a114be0	0.00055426173
76	0x3c86c9a9	0.01645358
77	0x3b85da31	0.0040848483
78	0xba4246c3	-0.0007411057
79	0x3c2176c9	0.009854981
80	0x3c2f548b	0.010701309
81	0xbc70c505	-0.014695411
82	0x3bdc9d15	0.006732593
83	0x3b473e7d	0.0030402236
84	0x3cb081e7	0.021546317
85	0xbc5184fd	-0.0127880545
86	0x3bebdd70	0.0071980283
87	0x3a5ee83b	0.0008503233
88	0xbc858714	-0.016299762
89	0xbc9b7c76	-0.018980246
90	0x3b98303f	0.0046444233
91	0xb99b8e69	-0.00029670008
92	0xbbb28e3b	-0.005449084
93	0xbbbe27e1	-0.005803094
94	0x3be01ff7	0.006839748
95	0xba0a7573	-0.00052817835
96	0x3b51698d	0.0031953782
97	0xbc9d4216	-0.019196551
98	0xbb694efd	-0.003560006
99	0x3aca735e	0.0015445759
100	0xbbce3877	-0.006293352
101	0xbc1611b2	-0.009159492
102	0x3ab515f7	0.001381575
103	0x3acc7114	0.0015597665
104	0x3c681963	0.014166209
105	0xbc4a1f0f	-0.0123365065
106	0xbb8563d5	-0.004070739
107	0x3babff9f	0.0052489783
108	0xbc74a33b	-0.014931495
109	0xbca1acb5	-0.019735673
110	0x3b94bbeb	0.004539003
111	0x3c5f11ea	0.013615111
112	0xbc3f9720	-0.011693746
113	0xbbae0e73	-0.005311781
114	0x3c5882f3	0.0132148145
115	0xbb5443c0	-0.0032389015
116	0xbb70666a	-0.0036682137
117	0x3c1c5d93	0.009543794
118	0xbba9ed86	-0.0051857857
119	0x3c1921ba	0.00934642
120	0xbb2bf512	-0.0026238603
121	0xbc40b350	-0.011761501
122	0x39227bdf	0.0001549567
123	0xbc200d2d	-0.009768766
124	0xbc31f856	-0.010862431
125	0xbb2dbab6	-0.0026508993
126	0x3bf24452	0.0073933983
127	0x3c11f16c	0.008907657
128	0x3bc2fa44	0.005950244
129	0x3c9a73e7	0.018854095
130	0x3c891b67	0.0167367
131	0x3bf554a8	0.0074868985
132	0xbc470f53	-0.01214965
133	0x3bc524ca	0.0060163485
134	0x3c0d6597	0.008630178
135	0x3c8e1c7b	0.017347565
136	0x3b67d9bf	0.003537759
137	0x3c19a552	0.009377794
138	0xbab5785a	-0.0013845072
139	0x3ca74d5f	0.020422636
140	0xbc0328f8	-0.008005373
141	0x3c52f95f	0.0128768375
142	0x3c155ff2	0.009117113
143	0xbbe5a0fa	-0.0070077153
144	0x3b579e70	0.0032900833
145	0xbbeefc67	-0.0072932723
146	0x3b962339	0.0045818356
147	0xbb28ea3e	-0.0025774385
148	0xbbc3ef4e	-0.005979455
149	0xbbabb7b1	-0.0052404036
150	0x3c5d3bc0	0.013503015
151	0x3bc1f87a	0.0059195133
152	0xbc087fb0	-0.008331224
153	0xbb457524	-0.0030129636
154	0x3c1c1033	0.009525347
155	0x3b9fd808	0.004878048
156	0xbbae70eb	-0.0053235195
157	0x3bb2d977	0.0054580527
158	0x3bd28cf5	0.006425495
159	0xba7d4a4a	-0.0009662254
160	0xbc20e638	-0.009820513
161	0xbbea1a37	-0.0071442383
162	0xbbcb1fb4	-0.0061988477
163	0x3b0ad511	0.0021184126
164	0xbc11e0f0	-0.008903727
165	0xbbe77bb3	-0.0070643066
166	0x3a84a6a2	0.0010120461
167	0xbc2c5c99	-0.010520124
168	0x3b867344	0.004103096
169	0x3bb466a9	0.005505402
170	0xbaab11ba	-0.0013051548
171	0x3c4b847f	0.012421726
172	0x3b934061	0.0044937585
173	0x3a74ae87	0.0009333868
174	0x3b56f01d	0.0032796927
175	0x390f223f	0.000136503
176	0x3a0fb610	0.00054821465
177	0xbb5483c3	-0.003242717
178	0xbc165841	-0.009176315
179	0xbbce9280	-0.0063040853
180	0xbbc531a6	-0.0060178814
181	0xbc8f77df	-0.017513214
182	0xbc1abb43	-0.009444061
183	0x3bb16fd4	0.0054149423
184	0xbb06e637	-0.0020583996
185	0x3c8245c2	0.015902404
186	0x3c4e9acb	0.012610148
187	0xbabc5f15	-0.0014371598
188	0xbbd00a82	-0.006348909
189	0xb9356343	-0.00017298483
190	0xbb0085d5	-0.001961102
191	0x3cf5e7a7	0.030017687
192	0xbca2c065	-0.019867131
193	0x3bd8e9fb	0.0066196895
194	0xbc4b3b8f	-0.012404337
195	0xbbc5bebd	-0.0060347007
196	0x3abca413	0.001439216
197	0xb9c4e585	-0.0003755504
198	0x3c49c966	0.012316084
199	0x3c089b67	0.008337832
200	0x3c2df1f0	0.010616764
201	0xbc967d33	-0.018370247
202	0xbc465365	-0.012104844
203	0xbb5964af	-0.0033171584
204	0x3aa8a017	0.0012865093
205	0xbbee96f2	-0.0072811777
206	0xb9718f23	-0.00023036874
207	0x3b6cd378	0.0036136787
208	0x3b8bb8b8	0.0042639636
209	0xbafe3a5f	-0.0019396058
210	0xbc861d63	-0.016371435
211	0x3ad8695f	0.0016510895
212	0xbbb5259a	-0.005528164
213	0xbca86dfc	-0.020560257
214	0x3a49afe0	0.0007693749
215	0x3c259a85	0.010107641
216	0xba95958f	-0.001141237
217	0x3a80d62f	0.0009829457
218	0x3c47819f	0.0121769
219	0x3b5e0790	0.003387902
220	0xbc2e9a35	-0.010656883
221	0xbc220b72	-0.009890424
222	0xbc489156	-0.012241682
223	0x3b97240f	0.004612453
224	0x3bf53975	0.007483656
225	0xbc4d1457	-0.012517056
226	0xbc121a6f	-0.008917435
227	0x3b86e953	0.00411717
228	0x3c9a8607	0.018862737
229	0x3bd4af32	0.0064906115
230	0x3ada2197	0.0016642091
231	0x3a9acad8	0.001180972
232	0x3aa4daee	0.0012577453
233	0xbb9ae0ef	-0.004726521
234	0x3b49662b	0.0030731063
235	0x3bda9da8	0.006671626
236	0xbb8a3001	-0.0042171483
237	0xbbe6cf92	-0.0070437873
238	0x3cb4c069	0.022064405
239	0xbb8c4ef2	-0.004281872
240	0x3bbc9bd5	0.0057558813
241	0xbb937ee9	-0.004501213
242	0x3b1b5967	0.002370441
243	0x3c9722bb	0.018449178
244	0x3b93456a	0.004494359
245	0x3c802603	0.015643125
246	0xbaee9488	-0.0018202225
247	0xbc25a579	-0.010110253
248	0x3c0bba6e	0.008528335
249	0xbb609f17	-0.0034274512
250	0xbc0c7007	-0.008571631
251	0xbac80fef	-0.0015263538
252	0xbbce21cf	-0.0062906514
253	0x3c22e583	0.009942415
254	0xbcc29e03	-0.023756986
255	0xbc0597b8	-0.008153848

discrete_action_output_shape f4 [1, 2]
0	0x40400000	3.0
1	0x40400000	3.0

network_body._body_endoder.seq_layers.0.bias f4 [128]
0	0x00000000	0.0
1	0x00000000	0.0
2	0x00000000	0.0
3	0x00000000	0.0
4	0x00000000	0.0
5	0x00000000	0.0
6	0x00000000	0.0
7	0x00000000	0.0
8	0x00000000	0.0
9	0x00000000	0.0
10	0x00000000	0.0
11	0x00000000	0.0
12	0x00000000	0.0
13	0x00000000	0.0
14	0x00000000	0.0
15	0x00000000	0.0
16	0x00000000	0.0
17	0x00000000	0.0
18	0x00000000	0.0
19	0x00000000	0.0
20	0x00000000	0.0
21	0x00000000	0.0
22	0x00000000	0.0
23	0x00000000	0.0
24	0x00000000	0.0
25	0x00000000	0.0
26	0x00000000	0.0
27	0x00000000	0.0
28	0x00000000	0.0
29	0x00000000	0.0
30	0x00000000	0.0
31	0x00000000	0.0
32	0x00000000	0.0
33	0x00000000	0.0
34	0x00000000	0.0
35	0x00000000	0.0
36	0x00000000	0.0
37	0x00000000	0.0
38	0x00000000	0.0
39	0x00000000	0.0
40	0x00000000	0.0
41	0x00000000	0.0
42	0x00000000	0.0
43	0x00000000	0.0
44	0x00000000	0.0
45	0x00000000	0.0
46	0x00000000	0.0
47	0x00000000	0.0
48	0x00000000	0.0
49	0x00000000	0.0
50	0x00000000	0.0
51	0x00000000	0.0
52	0x00000000	0.0
53	0x00000000	0.0
54	0x00000000	0.0
55	0x00000000	0.0
56	0x00000000	0.0
57	0x00000000	0.0
58	0x00000000	0.0
59	0x00000000	0.0
60	0x00000000	0.0
61	0x00000000	0.0
62	0x00000000	0.0
63	0x00000000	0.0
64	0x00000000	0.0
65	0x00000000	0.0
66	0x00000000	0.0
67	0x00000000	0.0
68	0x00000000	0.0
69	0x00000000	0.0
70	0x00000000	0.0
71	0x00000000	0.0
72	0x00000000	0.0
73	0x00000000	0.0
74	0x00000000	0.0
75	0x00000000	0.0
76	0x00000000	0.0
77	0x00000000	0.0
78	0x00000000	0.0
79	0x00000000	0.0
80	0x00000000	0.0
81	0x00000000	0.0
82	0x00000000	0.0
83	0x00000000	0.0
84	0x00000000	0.0
85	0x00000000	0.0
86	0x00000000	0.0
87	0x00000000	0.0
88	0x00000000	0.0
89	0x00000000	0.0
90	0x00000000	0.0
91	0x00000000	0.0
92	0x00000000	0.0
93	0x00000000	0.0
94	0x00000000	0.0
95	0x00000000	0.0
96	0x00000000	0.0
97	0x00000000	0.0
98	0x00000000	0.0
99	0x00000000	0.0
100	0x00000000	0.0
101	0x00000000	0.0
102	0x00000000	0.0
103	0x00000000	0.0
104	0x00000000	0.0
105	0x00000000	0.0
106	0x00000000	0.0
107	0x00000000	0.0
108	0x00000000	0.0
109	0x00000000	0.0
110	0x00000000	0.0
111	0x00000000	0.0
112	0x00000000	0.0
113	0x00000000	0.0
114	0x00000000	0.0
115	0x00000000	0.0
116	0x00000000	0.0
117	0x00000000	0.0
118	0x00000000	0.0
119	0x00000000	0.0
120	0x00000000	0.0
121	0x00000000	0.0
122	0x00000000	0.0
123	0x00000000	0.0
124	0x00000000	0.0
125	0x00000000	0.0
126	0x00000000	0.0
127	0x00000000	0.0

network_body._body_endoder.seq_layers.0.weight f4 [128, 192]
0	0xbbe32900	-0.006932378
1	0x3e04bd7f	0.12962912
2	0x3d94b4cd	0.072610475
3	0x3dd13ec6	0.10217051
4	0xbc0eca24	-0.008715186
5	0x3ac166b2	0.0014755337
6	0xbc654b24	-0.013994966
7	0xbd833258	-0.06406087
8	0x3d8babbd	0.06819866
9	0xbe48e1b2	-0.19617346
10	0xbd3b0299	-0.045656774
11	0x3e53f43a	0.20698634
12	0x3a069a21	0.00051346613
13	0xbdc7f7cf	-0.097640626
14	0x3db0747c	0.08615968
15	0xbdbd0755	-0.09229914
16	0x3d3ae8f8	0.045632333
17	0x3bd8a1a7	0.0066110673
18	0xbdc02a15	-0.093830265
19	0xbd4154ee	-0.047200136
20	0x3c01833a	0.007904822
21	0x3c80d002	0.015724186
22	0x3c5bf261	0.013424487
23	0xbdb10f22	-0.086454645
24	0x3c522745	0.012826745
25	0x3c2f543d	0.010701236
26	0xbd1e044e	-0.038578324
27	0xbce399ec	-0.027783357
28	0xbdfb3028	-0.122650445
29	0x3e097c4c	0.13426322
30	0xba1997b9	-0.0005859095
31	0xbc0faee4	-0.0087697245
32	0xbd93a7b9	-0.07209725
33	0xbda2d8d1	-0.07951511
34	0x3d16dc70	0.03683132
35	0xbdca48c8	-0.09877163
36	0xbd43b603	-0.047781
37	0xbd0cd1d7	-0.034379806
38	0x3d50d27a	0.050981976
39	0x3b988f11	0.0046557267
40	0xbdd3cf87	-0.10342317
41	0xbd5a47fa	-0.0532913
42	0x3a3e1d52	0.0007252294
43	0x3c5055a5	0.012715732
44	0xbd1ce024	-0.038299695
45	0x3d93ab5d	0.07210419
46	0xbe10dd97	-0.1414703
47	0xbc996df6	-0.018729191
48	0xbba4ae6a	-0.0050256746
49	0xbd097e88	-0.033567935
50	0xbc95066f	-0.018191544
51	0xbdc5a354	-0.09650293
52	0xbdccc1ff	-0.09997939
53	0xbcccf7dc	-0.025020532
54	0xbdb54f3b	-0.08853003
55	0x3d51a15d	0.05117928
56	0x3d89c111	0.067262776
57	0xbd8f51ab	-0.06997999
58	0xbdc0cefb	-0.094144784
59	0xbda662cc	-0.08124313
60	0x3cbc99ec	0.023022614
61	0xbd67036c	-0.056399748
62	0x3c1e6de3	0.009669754
63	0xbde208a3	-0.110368036
64	0xbc11b33a	-0.008892829
65	0xbd9b6084	-0.07586768
66	0x3c348642	0.011018338
67	0x3b2a59ae	0.0025993395
68	0x3d92a2c7	0.071599536
69	0xbb932222	-0.004490153
70	0xbd375033	-0.04475422
71	0xbd23a7a2	-0.03995479
72	0x3dd63841	0.10459948
73	0x3b5471b5	0.0032416407
74	0x3dd134f4	0.10215178
75	0x3d99da88	0.07512385
76	0x3d018087	0.031616714
77	0xbda330e5	-0.0796831
78	0x3d8870b6	0.06662123
79	0x3d1ec4ca	0.03876189
80	0x3c255d7e	0.010093091
81	0x3ddb49d8	0.10707444
82	0xbd6f0eb2	-0.058363624
83	0x3cbe556b	0.02323409
84	0x3de24ed6	0.11050193
85	0x3c652330	0.01398544
86	0x3cf404cc	0.029787444
87	0xbc16497e	-0.009172795
88	0x3857dccb	5.1465624e-05
89	0xbb3a7026	-0.0028448193
90	0xbd64f169	-0.05589429
91	0x3de27248	0.11056954
92	0xbd70b6f1	-0.058768217
93	0x3ceb73fe	0.028741833
94	0x3d251554	0.040303543
95	0xbc4f72a0	-0.012661606
96	0xbe16a172	-0.14710024
97	0xbca079eb	-0.019589385
98	0x3d1c5a56	0.03817209
99	0xbce43869	-0.02785893
100	0x3c6a2ed3	0.01429339
101	0xbd0cb3af	-0.034351047
102	0x3d0446cd	0.032294083
103	0x3d7515a2	0.059835084
104	0xbd84baf6	-0.064809725
105	0xbc94af7c	-0.018150084
106	0x3ddd802e	0.10815464
107	0x39c8e5e3	0.00038318252
108	0x3d954f3c	0.072905034
109	0xbe08fcbd	-0.13377662
110	0xbd6d3df2	-0.057920404
111	0x3da49b65	0.08037452
112	0xbd89dabd	-0.06731174
113	0xbaf9b010	-0.0019049663
114	0x3dd259ec	0.102710575
115	0x3c23d48e	0.009999407
116	0x3d00af46	0.031417154
117	0xbc57c388	-0.013169177
118	0x3a03c787	0.00050269853
119	0x3ca85e4e	0.02055278
120	0xbda0f1d7	-0.07858627
121	0xbd98bb26	-0.07457571
122	0xbbab1f40	-0.005222231
123	0x3ddf63ff	0.109077446
124	0xbdd8fc90	-0.105950475
125	0x3da9b8a0	0.082871675
126	0xbd701738	-0.058615893
127	0xbd0bed50	-0.034161866
128	0x3d94a3aa	0.07257779
129	0x3dd1c1ad	0.10242019
130	0xbc888294	-0.016663827
131	0xbd062815	-0.03275307
132	0xbd3490d0	-0.044083416
133	0xbd806ff9	-0.06271357
134	0xbd5f85a5	-0.054570813
135	0x3d8fc0d1	0.07019199
136	0xbe0abb90	-0.13548112
137	0x3dcdf7ef	0.10057055
138	0x3d86abc7	0.06575733
139	0x3bcd24cd	0.0062604905
140	0xbd3bd935	-0.04586144
141	0xbd470413	-0.04858787
142	0x3d054292	0.03253419
143	0xbdbbcfd1	-0.09170497
144	0x3d7197a3	0.058982503
145	0xbc4ba03b	-0.012428339
146	0xbd0e1a0b	-0.034692805
147	0xbd66ad9f	-0.05631792
148	0x3cb9c076	0.02267478
149	0xbdc66e01	-0.0968895
150	0xbd374d98	-0.044751734
151	0xbcba8165	-0.022766778
152	0xbc38b1d6	-0.011272868
153	0xbb9a1d18	-0.0047031753
154	0x3d2f39dc	0.04277979
155	0x3d32e2b9	0.04367325
156	0xbdd38828	-0.10328704
157	0xbdc94eef	-0.098295085
158	0xbc41c9b4	-0.011827875
159	0x3d72a3e3	0.059238326
160	0x3c0f6e57	0.008754334
161	0x3ca79f3e	0.020461675
162	0x3d330a22	0.043710835
163	0x3d3606b2	0.04443998
164	0xbd467133	-0.0484478
165	0x3dd2472d	0.10267482
166	0x3d35a8ef	0.04435056
167	0xbd94183f	-0.07231187
168	0x3da9a786	0.08283906
169	0x3d9c9bec	0.07646927
170	0x3dc97aca	0.09837873
171	0xbc7a28f2	-0.015268551
172	0xba60b298	-0.00085715344
173	0xbc20212c	-0.009773534
174	0xbcf29b1a	-0.029614974
175	0xbd13d2cd	-0.036089707
176	0x3d442c9f	0.047894116
177	0xbda75660	-0.081707716
178	0x3c5df599	0.013547325
179	0xbccaf70f	-0.02477601
180	0xbc1c748e	-0.009549273
181	0xbd4ce5ed	-0.05002396
182	0xbdeaa6b5	-0.11457578
183	0xbc609cda	-0.013709271
184	0x3c8b0d5e	0.016974147
185	0xbcb8d184	-0.022560842
186	0xbd7c99cc	-0.06167011
187	0x3d252fe5	0.04032888
188	0xbd3a0886	-0.045418285
189	0xbd8bf371	-0.06833542
190	0x3d857f9f	0.065184824
191	0xbd944b7c	-0.0724096
192	0xbba12975	-0.004918272
193	0xbcfa71a5	-0.030571768
194	0xbc382c75	-0.011241068
195	0x3dd93a3f	0.10606813
196	0xbc32469e	-0.010881094
197	0xbd6e2fc3	-0.058151018
198	0x3d039a04	0.032129303
199	0x3de860b7	0.11346572
200	0x3c340311	0.010987059
201	0x3d3b962e	0.04579752
202	0x3d42d57c	0.047566876
203	0x3b836e9a	0.0040109875
204	0x3c0d6b97	0.008631608
205	0x3cc5de6a	0.024153907
206	0x3c8205a3	0.015871828
207	0xbc2518d5	-0.010076721
208	0x3de1abff	0.11019134
209	0x3d5a7f16	0.053343855
210	0x3cd07530	0.025446504
211	0x3c330148	0.010925598
212	0x3d2ef14b	0.042710584
213	0x3d168355	0.03674634
214	0x3c33c2ba	0.010971719
215	0xbda5c6ac	-0.08094534
216	0xbd90ef50	-0.07076895
217	0x3e0afd59	0.13573207
218	0x3d682aa0	0.056681275
219	0x3d8ad50f	0.06778919
220	0xbdf70f51	-0.12063468
221	0xbd99fd06	-0.075189635
222	0xbdc5a114	-0.09649864
223	0x3cee852e	0.02911624
224	0xbd275d70	-0.040860593
225	0xbb77cedc	-0.0037812507
226	0x3c8a6e1f	0.016898213
227	0xbd46ae1c	-0.048505887
228	0x3cf8bbb5	0.030362943
229	0x3c02c6c9	0.007981964
230	0x3e024359	0.12721004
231	0xbd51a01e	-0.05117809
232	0x3e32defc	0.17467874
233	0xbcfe5568	-0.031046584
234	0x3c3d1f9a	0.011543179
235	0xbd0b9bf3	-0.03408427
236	0x3c86a058	0.01643388
237	0x3ba34638	0.004982736
238	0x3decd1ff	0.11563491
239	0xbcf55835	-0.029949287
240	0xbccd0ec5	-0.025031457
241	0x3d89a755	0.06721369
242	0xbd7d3e43	-0.061826956
243	0xbd82841e	-0.063728556
244	0x3c2755c2	0.010213317
245	0x3dbae41e	0.09125541
246	0xbc1bdd10	-0.009513155
247	0xbce5dfea	-0.028060872
248	0x3b336b3d	0.0027377151
249	0x3d93f4c8	0.07224423
250	0xbcb4e47c	-0.022081606
251	0xbc8bea30	-0.017079443
252	0x3c53f371	0.012936459
253	0xbd4dd891	-0.050255362
254	0xbd5877d7	-0.052848663
255	0xbcf5c304	-0.030000217

network_body._body_endoder.seq_layers.2.bias f4 [128]
0	0x00000000	0.0
1	0x00000000	0.0
2	0x00000000	0.0
3	0x00000000	0.0
4	0x00000000	0.0
5	0x00000000	0.0
6	0x00000000	0.0
7	0x00000000	0.0
8	0x00000000	0.0
9	0x00000000	0.0
10	0x00000000	0.0
11	0x00000000	0.0
12	0x00000000	0.0
13	0x00000000	0.0
14	0x00000000	0.0
15	0x00000000	0.0
16	0x00000000	0.0
17	0x00000000	0.0
18	0x00000000	0.0
19	0x00000000	0.0
20	0x00000000	0.0
21	0x00000000	0.0
22	0x00000000	0.0
23	0x00000000	0.0
24	0x00000000	0.0
25	0x00000000	0.0
26	0x00000000	0.0
27	0x00000000	0.0
28	0x00000000	0.0
29	0x00000000	0.0
30	0x00000000	0.0
31	0x00000000	0.0
32	0x00000000	0.0
33	0x00000000	0.0
34	0x00000000	0.0
35	0x00000000	0.0
36	0x00000000	0.0
37	0x00000000	0.0
38	0x00000000	0.0
39	0x00000000	0.0
40	0x00000000	0.0
41	0x00000000	0.0
42	0x00000000	0.0
43	0x00000000	0.0
44	0x00000000	0.0
45	0x00000000	0.0
46	0x00000000	0.0
47	0x00000000	0.0
48	0x00000000	0.0
49	0x00000000	0.0
50	0x00000000	0.0
51	0x00000000	0.0
52	0x00000000	0.0
53	0x00000000	0.0
54	0x00000000	0.0
55	0x00000000	0.0
56	0x00000000	0.0
57	0x00000000	0.0
58	0x00000000	0.0
59	0x00000000	0.0
60	0x00000000	0.0
61	0x00000000	0.0
62	0x00000000	0.0
63	0x00000000	0.0
64	0x00000000	0.0
65	0x00000000	0.0
66	0x00000000	0.0
67	0x00000000	0.0
68	0x00000000	0.0
69	0x00000000	0.0
70	0x00000000	0.0
71	0x00000000	0.0
72	0x00000000	0.0
73	0x00000000	0.0
74	0x00000000	0.0
75	0x00000000	0.0
76	0x00000000	0.0
77	0x00000000	0.0
78	0x00000000	0.0
79	0x00000000	0.0
80	0x00000000	0.0
81	0x00000000	0.0
82	0x00000000	0.0
83	0x00000000	0.0
84	0x00000000	0.0
85	0x00000000	0.0
86	0x00000000	0.0
87	0x00000000	0.0
88	0x00000000	0.0
89	0x00000000	0.0
90	0x00000000	0.0
91	0x00000000	0.0
92	0x00000000	0.0
93	0x00000000	0.0
94	0x00000000	0.0
95	0x00000000	0.0
96	0x00000000	0.0
97	0x00000000	0.0
98	0x00000000	0.0
99	0x00000000	0.0
100	0x00000000	0.0
101	0x00000000	0.0
102	0x00000000	0.0
103	0x00000000	0.0
104	0x00000000	0.0
105	0x00000000	0.0
106	0x00000000	0.0
107	0x00000000	0.0
108	0x00000000	0.0
109	0x00000000	0.0
110	0x00000000	0.0
111	0x00000000	0.0
112	0x00000000	0.0
113	0x00000000	0.0
114	0x00000000	0.0
115	0x00000000	0.0
116	0x00000000	0.0
117	0x00000000	0.0
118	0x00000000	0.0
119	0x00000000	0.0
120	0x00000000	0.0
121	0x00000000	0.0
122	0x00000000	0.0
123	0x00000000	0.0
124	0x00000000	0.0
125	0x00000000	0.0
126	0x00000000	0.0
127	0x00000000	0.0
